experiments/pl-blitz/lightning_logs/version_8/checkpoints/epoch=9-step=239.ckpt (torch, 97959 bytes, 15 tensors)

blinear1.weight_mu f4 [512, 13]
0.00032015992 8.2581726e-05 2.3585371e-05 -4.7978076e-05 -0.00042071257 7.3842425e-06 -0.00021132498 -8.1661216e-05
-0.00030195483 0.00016219428 0.00011916221 0.0002263711 0.00021257615 6.57541e-05 0.00035792755 0.00031865225
-0.00020182831 -7.8627345e-05 2.5598607e-05 -0.00011623606 -0.00023553654 -0.000115194445 -0.00012993575 -0.00013839737
1.5533617e-05 -7.081666e-05 1.655829e-05 1.073365e-05 0.00013648011 1.7777602e-05 -7.0404085e-06 -0.00010581308
4.996416e-05 0.00020377475 0.0001135136 9.8192046e-05 0.0002102033 -0.000104092884 -0.00026241306 -0.00013803942
7.265784e-05 -1.0291572e-05 -0.00021644407 -2.1795173e-05 3.996748e-05 -0.00012023555 0.00030874714 0.00022066174
-8.459954e-05 0.000102046564 9.249058e-05 -8.87249e-05 2.5174115e-05 0.00024123317 -2.7942733e-05 -1.6037056e-06
8.5942556e-05 4.4031483e-05 -0.00015088599 -0.00015386929 -3.718504e-05 -3.2516855e-05 -0.00021281106 2.1510723e-05
0.00021918782 2.210302e-05 -8.838281e-05 9.520775e-06 -5.2824093e-05 2.9913825e-05 1.5577325e-05 0.00011758732
8.427266e-07 -0.00016186511 -2.0072908e-05 -4.396756e-05 -2.9127343e-05 9.9461e-06 -0.0001018358 7.4268406e-05
0.00014221479 0.00021739087 0.00011632469 -0.00021637657 8.3751605e-05 -0.00021755761 1.6588061e-05 0.00012572251
5.692292e-05 2.7854489e-05 -1.360966e-05 -2.9063081e-05 6.774316e-05 -1.1251769e-05 0.00010948538 -2.405545e-05
-3.381622e-05 -6.211048e-05 -0.00017619811 -9.34901e-06 -0.00018955642 1.6772716e-05 -1.4914613e-05 -8.487002e-07
7.182589e-05 0.00010162112 -0.00011703422 -6.444278e-05 -7.262339e-05 -2.0072239e-05 -2.0496658e-05 5.8397814e-05
-4.2407166e-05 0.000121737634 -0.00016205736 0.00014940304 -9.262469e-05 -0.00010302872 7.819195e-05 0.00014337788
-9.592442e-05 7.6126553e-06 5.776498e-05 -0.00015014644 6.177186e-05 -4.960649e-05 -4.042661e-05 -3.7894993e-06
9.542759e-05 -0.0001174331 1.5009911e-05 6.019178e-06 -7.7925346e-05 0.0001646618 -0.00011312151 -8.920997e-05
-2.3260485e-05 -0.00010604515 2.1093176e-05 -0.00022850481 5.8854657e-05 -9.0471636e-05 -0.00023636517 4.0008043e-05
3.3721495e-05 -5.1091996e-05 -0.0001316821 -6.128152e-05 -0.00026058615 0.0001213975 -7.267942e-05 3.5064662e-05
6.6855523e-06 0.00014288322 0.000117786774 4.5135075e-05 0.00021223667 -0.00013033814 0.00019930529 -3.271295e-05
6.13035e-05 0.00016407038 -8.748094e-05 -2.9820296e-05 -8.056025e-05 -0.00013410045 2.5900787e-05 1.8430343e-05
2.8424422e-05 1.9605613e-05 -2.5831085e-05 -1.2052268e-05 -0.00025392816 -2.6864152e-05 -5.861692e-05 -3.6328667e-05
-0.00012653117 -1.560537e-05 0.00014479226 -0.00010224876 0.00010270087 -3.5989317e-05 0.00012762295 -4.8573005e-05
0.00010681686 3.668211e-05 -0.000106008476 -3.599253e-05 0.00011013082 -0.00010421477 -2.7184167e-05 -0.00034834433
6.180016e-05 -0.0002151869 -0.000104905426 -5.939357e-05 -9.486022e-05 -0.00012625204 -0.00017696196 -0.0002978392
-1.2108455e-06 -0.0001443737 -0.00012749409 5.067338e-05 -4.5762805e-05 -2.7805323e-05 0.00011997464 7.0272574e-05
-0.00014501081 4.2616193e-05 -2.4970963e-05 -2.091374e-06 -2.2585475e-05 9.301016e-05 7.251758e-05 -0.00012728559
3.716067e-05 8.5923006e-05 0.0002749932 0.00013453954 0.00016104829 9.475994e-05 -0.00015943889 5.7979552e-05
3.5249614e-05 -8.337098e-05 0.00015624864 0.00018775625 -0.000108390195 -0.00018107379 -0.00014520208 -0.00020148688
0.00012154509 -0.00012963879 -0.00013247725 3.4017317e-05 1.4337678e-05 -3.2767304e-05 -0.0002105224 -7.174494e-05
2.8838733e-05 0.00018889036 -4.795487e-05 -3.1880965e-05 5.54389e-05 -5.873857e-05 0.00011451501 0.00025867083
0.00028305905 -2.6939975e-05 -0.00016420402 -0.0001773264 -0.0002019013 8.588191e-05 -0.00016502851 2.3888291e-05
00000000: 23db a739 ba2f ad38 33d9 c537 113c 49b8
00000010: 1693 dcb9 29c6 f736 1e97 5db9 8841 abb8
00000020: b14f 9eb9 b212 2a39 b9e6 f938 085e 6d39
00000030: fae6 5e39 77e5 8938 39a8 bb39 c810 a739
00000040: e0a1 53b9 bce4 a4b8 97bc d637 c2c3 f3b8
00000050: 5cfa 76b9 8c94 f1b8 5d3f 08b9 c31e 11b9
00000060: 304e 8237 6883 94b8 a8e6 8a37 ad14 3437
00000070: 1a1c 0f39 1c21 9537 a63c ecb6 f7e7 ddb8
00000080: 9c90 5138 5eac 5539 260e ee38 74ec cd38
00000090: 056a 5c39 714c dab8 7c94 89b9 adbe 10b9
000000a0: e15f 9838 f7a9 2cb7 43f5 62b9 c7d4 b6b7
000000b0: c1a2 2738 f826 fcb8 57df a139 6f61 6739
000000c0: 086b b1b8 d501 d638 81f7 c138 d111 bab8
000000d0: 002d d337 89f3 7c39 9066 eab7 e83e d7b5
000000e0: 0f3c b438 72ae 3838 2637 1eb9 f957 21b9
000000f0: 22f7 1bb8 b562 08b8 0926 5fb9 ed71 b437
00000100: c8d5 6539 e069 b937 295a b9b8 6bbb 1f37
00000110: 708f 5db8 73ef fa37 0dac 8237 3699 f638
00000120: bb37 6235 56ba 29b9 3e62 a8b7 cf69 38b8
00000130: 7e56 f4b7 2dde 2637 ae90 d5b8 8cc0 9b38
00000140: 7e1f 1539 6bf3 6339 58f3 f338 25e3 62b9
00000150: cda3 af38 2d20 64b9 9726 8b37 61d4 0339
00000160: 85c0 6e38 0fa9 e937 0b55 64b7 7ecc f3b7
00000170: 5511 8e38 fbc5 3cb7 849b e538 afca c9b7
00000180: e4d5 0db8 4f41 82b8 d2c1 38b9 b1d9 1cb7
00000190: aac3 46b9 22b3 8c37 c639 7ab7 3cd2 63b5
000001a0: 3ba1 9638 6c1d d538 4570 f5b8 7425 87b8
000001b0: 634d 98b8 ce60 a8b7 3df0 abb7 2df0 7438
000001c0: 59de 31b8 654d ff38 f1ed 29b9 13a9 1c39
000001d0: 803f c2b8 1f11 d8b8 fcfa a338 b557 1639
000001e0: 082b c9b8 3670 ff36 ad48 7238 a170 1db9
000001f0: 848b 8138 9010 50b8 be8f 29b8 1a4f 7eb6
00000200: 4c20 c838 6a46 f6b8 14d3 7b37 58f8 c936
00000210: da6b a3b8 11a9 2c39 a63b edb8 3d16 bbb8
00000220: 831f c3b7 8e64 deb8 40f1 b037 cb9a 6fb9
00000230: b5da 7638 97bb bdb8 cbd8 77b9 4fce 2738
00000240: 2e70 0d38 9d4b 56b8 2514 0ab9 4484 80b8
00000250: 489f 88b9 c996 fe38 776b 98b8 6512 1338
00000260: 7554 e036 ecd2 1539 4b04 f738 6b4f 3d38
00000270: d98b 5e39 61ab 08b9 9bfc 5039 4335 09b8
00000280: 1190 8038 4f0a 2c39 f975 b7b8 9926 fab7
00000290: 74f2 a8b8 519d 0cb9 8445 d937 dc9a 9a37
000002a0: fb70 ee37 bc76 a437 d5af d8b7 1934 4ab7
000002b0: a921 85b9 545a e1b7 70db 75b8 9c5f 18b8
000002c0: 74ad 04b9 47e8 82b7 60d3 1739 636e d6b8
000002d0: 1c61 d738 3cf3 16b8 86d2 0539 deba 4bb8
000002e0: dd02 e038 1edb 1938 de50 deb8 aff6 16b8
000002f0: 09f6 e638 e18d dab8 8e09 e4b7 fca1 b6b9
00000300: b59a 8138 cba3 61b9 ac00 dcb8 5c1d 79b8
00000310: b1ef c6b8 8662 04b9 dd8e 39b9 4d27 9cb9
00000320: 5684 a2b5 0563 17b9 efaf 05b9 218a 5438
00000330: 70f1 3fb8 7a3f e9b7 e59a fb38 4d5f 9338
00000340: 0b0e 18b9 cabe 3238 bc78 d1b7 8859 0cb6
00000350: f075 bdb7 730e c338 9414 9838 f777 05b9
00000360: f7dc 1b38 9031 b438 f62c 9039 2f13 0d39
00000370: 12df 2839 dbb9 c638 0d2f 27b9 122f 7338
00000380: fcd8 1338 74d7 aeb8 add6 2339 6fe0 4439
00000390: 8b4f e3b8 a0de 3db9 6341 18b9 3946 53b9
000003a0: 06e6 fe38 a6ef 07b9 97e9 0ab9 d1ad 0e38
000003b0: dc8b 7037 a06f 09b8 adbf 5cb9 c575 96b8
000003c0: b5ea f137 df10 4639 2623 49b8 edb7 05b8
000003d0: 1187 6838 0f5e 76b8 c727 f038 369e 8739
000003e0: 8b67 9439 28fd e1b7 2e2e 2cb9 b1f0 39b9
000003f0: 78b5 53b9 801b b438 810b 2db9 b763 c837

blinear1.weight_rho f4 [512, 13]
-6.9692836 -6.9640055 -6.885977 -6.825166 -6.6788373 -6.980765 -6.9365864 -6.8976345
-7.0298743 -6.844415 -6.8449516 -6.976743 -6.951491 -6.921083 -6.911541 -6.7843156
-6.972775 -6.8679023 -6.7683134 -6.8342595 -7.0046663 -6.8598228 -7.001325 -6.932094
-6.7435884 -6.9899144 -6.7621584 -6.912721 -6.9712806 -6.919465 -6.742528 -6.8131633
-6.8656116 -6.9711566 -6.844032 -6.8834777 -6.9238377 -6.9449573 -6.902433 -7.0201225
-6.927208 -6.9431996 -6.8581057 -6.911444 -6.8990517 -7.0181127 -6.9559503 -7.0192814
-6.973716 -6.8366446 -6.9411354 -7.0489135 -6.9150043 -6.8571286 -6.9853725 -6.9228773
-7.021345 -6.8616877 -7.0562696 -7.001026 -7.047262 -6.870521 -6.8034077 -6.9390187
-6.912456 -6.747974 -6.8373237 -6.9119616 -6.940217 -7.0534906 -6.7257743 -6.9441094
-7.054225 -6.8302283 -6.8832264 -6.883681 -6.9396396 -7.0147343 -7.254412 -6.840571
-6.877042 -6.9499288 -6.757637 -6.9424233 -6.911907 -6.744969 -6.9058795 -6.88704
-6.953732 -6.857084 -6.921635 -7.0666275 -6.8904705 -6.912551 -6.9495354 -6.8013325
-6.9971933 -6.876314 -6.9327455 -7.012406 -7.0871553 -6.9388328 -7.0716934 -6.784972
-6.8542123 -6.984492 -6.884115 -7.0858045 -6.848953 -7.073429 -7.129216 -6.8490133
-6.9360743 -6.79131 -6.92344 -6.80838 -6.833999 -6.89156 -6.899935 -6.906265
-6.795127 -6.789876 -6.9547462 -7.0119333 -7.013944 -6.9343214 -6.7775974 -6.8712745
-6.9680104 -6.9628377 -6.8190956 -6.7981787 -6.7975726 -6.8632317 -6.9598026 -6.857279
-6.901566 -7.02343 -6.971606 -6.8505774 -6.8454766 -7.1214867 -6.8141913 -6.9614596
-6.9255667 -6.8249035 -6.7489257 -6.904594 -6.912111 -6.9357557 -6.96327 -7.0531936
-6.747563 -6.942283 -7.044829 -6.645703 -7.0766296 -6.9213405 -6.8361554 -6.8060184
-6.9816155 -6.953981 -6.9514003 -6.821838 -7.0216775 -7.1237373 -6.9276786 -6.871579
-6.928583 -6.978982 -7.134627 -7.0370493 -6.790765 -6.9082513 -7.0230885 -6.9886813
-6.9117084 -6.990655 -6.922579 -6.9657516 -7.1185975 -6.925285 -6.929353 -6.91006
-7.0060983 -7.1165156 -7.0894895 -6.9385934 -6.8326745 -6.785756 -6.7373586 -6.768216
-6.815707 -7.041863 -6.953052 -7.0338826 -7.0086994 -6.917629 -6.89525 -6.8731136
-7.0499506 -6.976195 -7.011946 -6.9508057 -6.7643423 -6.7438874 -6.8456445 -6.915588
-6.998168 -6.793072 -6.9908905 -6.9546022 -6.902764 -6.9622545 -6.6896396 -6.912636
-7.082037 -6.844838 -6.9678025 -6.887915 -6.9713984 -6.8859935 -7.029731 -6.8252172
-7.0182824 -7.0508366 -6.8854856 -6.8178163 -7.000132 -7.0471106 -6.852206 -6.8948436
-6.9585843 -6.8812222 -7.056282 -6.8230753 -6.9520583 -6.873594 -6.79165 -6.775497
-6.894086 -6.799737 -6.9152985 -6.9595504 -7.034665 -6.9410653 -6.8092947 -6.8555746
-6.758617 -6.801954 -7.0221663 -7.0925245 -6.9251165 -6.859546 -6.8674593 -6.836223
00000000: 5f04 dfc0 22d9 dec0 ec59 dcc0 c367 dac0
00000010: 09b9 d5c0 6d62 dfc0 84f8 ddc0 6cb9 dcc0
00000020: bbf4 e0c0 7305 dbc0 d809 dbc0 7b41 dfc0
00000030: 9d72 dec0 8379 ddc0 582b ddc0 1d19 d9c0
00000040: f920 dfc0 dbc5 dbc0 0696 d8c0 41b2 dac0
00000050: 3a26 e0c0 ab83 dbc0 db0a e0c0 b7d3 ddc0
00000060: 7acb d7c0 61ad dfc0 9a63 d8c0 0335 ddc0
00000070: bb14 dfc0 426c ddc0 cac2 d7c0 6f05 dac0
00000080: 17b3 dbc0 b713 dfc0 4f02 dbc0 7345 dcc0
00000090: 1490 ddc0 173d dec0 bbe0 dcc0 d8a4 e0c0
000000a0: b0ab ddc0 b12e dec0 9a75 dbc0 8d2a ddc0
000000b0: 08c5 dcc0 6194 e0c0 2597 dec0 f49d e0c0
000000c0: ae28 dfc0 cbc5 dac0 c81d dec0 b390 e1c0
000000d0: b747 ddc0 996d dbc0 2c88 dfc0 3688 ddc0
000000e0: dcae e0c0 f292 dbc0 f6cc e1c0 6808 e0c0
000000f0: 2c83 e1c0 4fdb dbc0 84b5 d9c0 710c dec0
00000100: d732 ddc0 67ef d7c0 5bcb dac0 ca2e ddc0
00000110: 4216 dec0 32b6 e1c0 8b39 d7c0 2536 dec0
00000120: 36bc e1c0 3b91 dac0 6443 dcc0 1d47 dcc0
00000130: 8711 dec0 b478 e0c0 2524 e8c0 f5e5 dac0
00000140: ba10 dcc0 d165 dec0 903e d8c0 5528 dec0
00000150: 582e ddc0 c9d6 d7c0 f7fc dcc0 a262 dcc0
00000160: f984 dec0 3b6d dbc0 097e ddc0 d021 e2c0
00000170: bc7e dcc0 9e33 ddc0 9862 dec0 84a4 d9c0
00000180: 02e9 dfc0 c40a dcc0 0dd9 ddc0 a165 e0c0
00000190: fac9 e2c0 eb0a dec0 504b e2c0 7e1e d9c0
000001a0: b555 dbc0 f580 dfc0 ac4a dcc0 e9be e2c0
000001b0: 9f2a dbc0 8859 e2c0 8a22 e4c0 1e2b dbc0
000001c0: 52f4 ddc0 6952 d9c0 d28c ddc0 40de d9c0
000001d0: 1fb0 dac0 a987 dcc0 44cc dcc0 1f00 ddc0
000001e0: ae71 d9c0 aa46 d9c0 488d dec0 c261 e0c0
000001f0: 3b72 e0c0 f6e5 ddc0 14e2 d8c0 7be1 dbc0
00000200: f1f9 dec0 91cf dec0 0836 dac0 ae8a d9c0
00000210: b785 d9c0 989f dbc0 b4b6 dec0 d46e dbc0
00000220: a1d9 dcc0 f0bf e0c0 6517 dfc0 ee37 dbc0
00000230: 250e dbc0 38e3 e3c0 db0d dac0 47c4 dec0
00000240: 3e9e ddc0 9c65 dac0 33f7 d7c0 6ff2 dcc0
00000250: 0330 ddc0 b6f1 ddc0 1cd3 dec0 c3b3 e1c0
00000260: 09ec d7c0 2f27 dec0 3d6f e1c0 99a9 d4c0
00000270: c073 e2c0 9f7b ddc0 c9c1 dac0 e7ca d9c0
00000280: 6569 dfc0 0387 dec0 df71 dec0 7f4c dac0
00000290: 95b1 e0c0 a8f5 e3c0 8baf ddc0 fae3 dbc0
000002a0: f4b6 ddc0 d253 dfc0 dd4e e4c0 822f e1c0
000002b0: f24d d9c0 6510 ddc0 24bd e0c0 47a3 dfc0
000002c0: b72c ddc0 72b3 dfc0 c485 ddc0 70e7 dec0
000002d0: 8dcb e3c0 ef9b ddc0 43bd ddc0 361f ddc0
000002e0: f531 e0c0 7fba e3c0 19dd e2c0 f508 dec0
000002f0: 45a5 dac0 ea24 d9c0 7198 d7c0 3a95 d8c0
00000300: 461a dac0 f156 e1c0 677f dec0 9115 e1c0
00000310: 4447 e0c0 375d ddc0 e3a5 dcc0 8cf0 dbc0
00000320: 3299 e1c0 fd3c dfc0 dd61 e0c0 006d dec0
00000330: 7e75 d8c0 edcd d7c0 850f dbc0 7f4c ddc0
00000340: fef0 dfc0 d960 d9c0 60b5 dfc0 1a8c dec0
00000350: 71e3 dcc0 caca dec0 8711 d6c0 5034 ddc0
00000360: 0ca0 e2c0 ea08 dbc0 3df8 dec0 cd69 dcc0
00000370: b215 dfc0 0f5a dcc0 8ef3 e0c0 2e68 dac0
00000380: c595 e0c0 74a0 e1c0 e655 dcc0 8d2b dac0
00000390: 1501 e0c0 ee81 e1c0 4645 dbc0 8fa2 dcc0
000003a0: b9ac dec0 f932 dcc0 10cd e1c0 a256 dac0
000003b0: 4377 dec0 7bf4 dbc0 3255 d9c0 dfd0 d8c0
000003c0: 5a9c dcc0 7297 d9c0 204a ddc0 a3b4 dec0
000003d0: fa1b e1c0 351d dec0 bee5 d9c0 de60 dbc0
000003e0: 9746 d8c0 9ba9 d9c0 96b5 e0c0 f6f5 e2c0
000003f0: 8e9a ddc0 6781 dbc0 3ac2 dbc0 57c2 dac0

blinear1.bias_mu f4 [512]
0.00012616563 5.655694e-05 7.531616e-05 8.798337e-05 6.663866e-05 0.0002426978 -0.00010876201 0.00015794614
-5.1753337e-05 -8.0926584e-05 6.1804974e-05 8.354138e-05 -0.0003515785 0.00011339153 0.00012981685 -5.26597e-06
-0.00015366342 4.0851115e-05 0.00022773989 1.3483192e-05 -0.00022638639 0.0001662156 4.226212e-05 3.7457365e-05
7.1870854e-05 -0.00025222244 6.301299e-06 7.989836e-05 -3.1612064e-05 -5.4377306e-05 0.00013028168 9.071562e-05
-4.9101465e-05 3.2677453e-05 0.00013120462 -0.00014578027 4.095986e-05 -0.0001648797 0.00013781918 -1.1940256e-05
-0.0002352716 2.3771436e-05 -3.9479637e-05 9.814938e-05 -7.728499e-05 0.00010223166 1.34551365e-05 2.0233201e-05
-0.00013335205 2.2368777e-05 0.00032330476 3.7338848e-06 0.00010978488 -1.0842969e-05 0.00020753471 -0.00029189937
0.0001871639 0.00014956546 -0.00017098094 -9.220062e-05 -7.066123e-05 0.00026845813 -0.00016170119 0.00019954337
0.00011290348 0.00024454625 -0.000106672196 -0.00012215281 -1.6927703e-05 0.000176125 0.00011720126 0.0001772229
-0.00033484996 0.00011023947 -6.177723e-05 0.00024418157 7.058691e-05 -0.00010545673 6.0390457e-06 0.0001504381
1.4867384e-05 0.0002416279 1.7370752e-05 -5.7968355e-05 0.000121580626 6.591963e-05 1.9278708e-05 -0.00019188011
-4.067832e-05 -0.00010111039 0.00018588692 -1.108179e-05 8.877769e-05 -0.000121604964 -0.0001393704 -0.00012714998
7.8302444e-05 3.3170196e-05 0.00011255186 -6.0644034e-05 -5.0372797e-05 0.00015278405 -0.00019117637 -0.000102798425
-9.268754e-05 -1.6647276e-05 -2.6797734e-05 -9.208719e-05 4.8087426e-05 -0.00012910277 -0.00016787967 -3.901215e-05
1.6987316e-05 1.6448292e-05 -1.8314977e-05 6.186836e-05 0.00012750561 -4.6777302e-07 -0.0001132384 2.92122e-05
-0.00013664362 -6.254083e-05 -8.56212e-06 -3.6851266e-05 -0.000160747 0.00028860927 -8.471213e-05 0.00018715457
-8.353378e-05 -1.4418123e-05 -9.490085e-05 -0.00012148291 0.0003546238 -3.6651618e-05 -0.00019422287 -0.00015018752
-3.709678e-05 -0.00012512536 8.258841e-05 -2.7871685e-05 0.00013593661 -2.8030709e-05 -2.2029295e-05 -0.00011672148
-0.00014749984 7.638562e-05 -0.00013802621 0.00013718872 0.00010249582 -0.00010535588 -3.3042415e-06 -5.130315e-05
7.204141e-05 0.0001517992 0.0002840253 -0.0001940615 5.190464e-05 -4.0384284e-06 -0.00023077082 -6.3750515e-05
-3.240837e-05 6.169234e-05 4.0586787e-05 8.397479e-05 0.00015209234 0.00010683026 9.750304e-05 0.00011670256
0.0001327417 7.9378166e-05 -9.248415e-05 7.0306756e-05 -7.751564e-05 -1.8170753e-05 0.00015594781 0.00017412126
0.00013350407 3.1714833e-05 0.00019486003 0.0001314171 -8.254957e-07 -3.8956277e-05 -0.000158775 0.00011363558
7.629606e-05 4.097998e-05 4.5196455e-05 -0.00013623663 -1.8430579e-05 7.274011e-05 8.768303e-05 0.00015168142
0.00017719126 -5.4962413e-05 0.0001689443 0.00012581848 -0.000113236536 -0.00018877181 0.00011374218 0.0001010652
7.0670256e-05 -0.00016833592 -9.097791e-05 -0.00028418898 0.00011708089 -0.000244697 6.891447e-05 -9.058934e-05
-2.632317e-05 -0.00020618046 1.6657983e-05 0.00014459128 9.7334785e-05 -8.138617e-05 -0.00028543777 2.0567344e-05
-9.9762554e-05 -8.335214e-05 0.00017154259 9.394585e-05 -0.0001431898 1.8416367e-05 4.1127197e-07 4.9380862e-05
-0.0001213592 -0.000134162 -8.9409325e-05 8.168888e-05 -0.000457702 0.00010078245 -0.0001351109 4.54929e-05
4.383501e-05 -7.619918e-05 -0.00014583336 2.9748355e-05 2.0111944e-05 7.0501796e-05 0.000140378 0.00018026601
-0.00014900338 -0.00013771988 -5.3767285e-06 8.8732355e-05 -0.00010088342 8.236663e-05 0.00012551442 6.351505e-05
0.00016556647 5.2441937e-05 -2.184755e-06 -9.587278e-05 0.00014117395 -1.3860451e-05 0.0001718394 0.000100633595
00000000: 544b 0439 8d37 6d38 0ef3 9d38 b683 b838
00000010: 5cc0 8b38 b27c 7e39 2917 e4b8 589e 2539
00000020: b911 59b8 21b7 a9b8 4b9d 8138 f032 af38
00000030: 1154 b8b9 9dcc ed38 721f 0839 56b2 b0b6
00000040: b620 21b9 8d57 2b38 76cd 6e39 de35 6237
00000050: 2262 6db9 294a 2e39 9b42 3138 8a1b 1d38
00000060: 5fb9 9638 b93c 84b9 bf6f d336 1b8f a738
00000070: 3297 04b8 3013 64b8 399c 0839 943e be38
00000080: 4cf2 4db8 260f 0938 f993 0939 98dc 18b9
00000090: 51cc 2b38 8fe3 2cb9 8e83 1039 0253 48b7
000000a0: 3db3 76b9 c568 c737 f096 25b8 8cd5 cd38
000000b0: 1014 a2b8 3465 d638 5fbd 6137 78ba a937
000000c0: 6bd4 0bb9 95a4 bb37 3b81 a939 a793 7a36
000000d0: 4f3c e638 32ea 35b7 ad9d 5939 120a 99b9
000000e0: 6d41 4439 acd4 1c39 5949 33b9 d55b c1b8
000000f0: f62f 94b8 d7bf 8c39 558e 29b9 843c 5139
00000100: 98c6 ec38 7136 8039 33b5 dfb8 2516 00b9
00000110: f7ff 8db7 32ae 3839 f3c9 f538 e9d4 3939
00000120: cd8e afb9 5d30 e738 668e 81b8 7f05 8039
00000130: 0f08 9438 a728 ddb8 02a3 ca36 ecbe 1d39
00000140: ee6e 7937 7f5d 7d39 68b7 9137 0c23 73b8
00000150: 1af9 fe38 553e 8a38 b6b8 a137 6d33 49b9
00000160: 039e 2ab8 3a0b d4b8 a4ea 4239 edeb 39b7
00000170: 292e ba38 2b06 ffb8 f523 12b9 9053 05b9
00000180: 4e36 a438 3a20 0b38 d209 ec38 095c 7eb8
00000190: 6147 53b8 a834 2039 8476 48b9 7c95 d7b8
000001a0: 3e61 c2b8 c1a5 8bb7 b2cb e0b7 ef1e c1b8
000001b0: 7bb1 4938 c35f 07b9 db08 30b9 faa0 23b8
000001c0: fc7f 8e37 70fa 8937 1da3 99b7 53bf 8138
000001d0: 07b3 0539 3c22 fbb4 677a edb8 b90c f537
000001e0: fe47 0fb9 5a28 83b8 06a6 0fb7 bf90 1ab8
000001f0: 328e 28b9 7b50 9739 7aa7 b1b8 ec3e 4439
00000200: db2e afb8 5ee5 71b7 8205 c7b8 a4c4 feb8
00000210: cdec b939 60ba 19b8 4ea8 4bb9 a87b 1db9
00000220: 5d98 1bb8 1534 03b9 5133 ad38 fdcd e9b7
00000230: 358a 0e39 7d23 ebb7 8dcb b8b7 5ec8 f4b8
00000240: 30aa 1ab9 3831 a038 21bb 10b9 51da 0f39
00000250: 06f3 d638 82f2 dcb8 70be 5db6 562e 57b8
00000260: f014 9738 4a2c 1f39 3be9 9439 fd7c 4bb9
00000270: 2fb4 5938 d681 87b6 12fb 71b9 ccb1 85b8
00000280: 39ee 07b8 d360 8138 bb3b 2a38 9f1b b038
00000290: fa7a 1f39 0f0a e038 8c7a cc38 36be f438
000002a0: 9430 0b39 d477 a638 0df4 c1b8 a771 9338
000002b0: e48f a2b8 656d 98b7 ec85 2339 5294 3639
000002c0: 3afd 0b39 8b05 0538 5753 4c39 02cd 0939
000002d0: a297 5db5 fc64 23b8 d77c 26b9 a34f ee38
000002e0: 2301 a038 ebe1 2b38 5391 3d38 beda 0eb9
000002f0: 5e9b 9ab7 0d8c 9838 78e2 b738 ac0c 1f39
00000300: 6bcc 3939 7187 66b8 a426 3139 24ee 0339
00000310: 6779 edb8 0cf1 45b9 de88 ee38 f7f2 d338
00000320: ce34 9438 5483 30b9 65cb beb8 33ff 94b9
00000330: 5389 f538 ad4a 80b9 2d86 9038 c8fa bdb8
00000340: 94d0 dcb7 2532 58b9 bfbc 8b37 6d9d 1739
00000350: 3720 cc38 dead aab8 cfa6 95b9 0988 ac37
00000360: 9d37 d1b8 57cd aeb8 1de0 3339 cb04 c538
00000370: 3825 16b9 d97c 9a37 cacc dc34 4c1e 4f38
00000380: 3982 feb8 d6ad 0cb9 4481 bbb8 6250 ab38
00000390: b9f7 efb9 2a5b d338 8eac 0db9 a1cf 3e38
000003a0: 7cdb 3738 20cd 9fb8 d8ea 18b9 1b8c f937
000003b0: 12b6 a837 5dda 9338 6f32 1339 ca05 3d39
000003c0: ca3d 1cb9 e668 10b9 bf69 b4b6 d215 ba38
000003d0: 6091 d3b8 3fbc ac38 859c 0339 6233 8538
000003e0: e99b 2d39 1af5 5b38 ce9d 12b6 4f0f c9b8
000003f0: 1808 1439 2f8a 68b7 ca2f 3439 400b d338

blinear1.bias_rho f4 [512]
-6.838926 -6.9946337 -6.9232183 -7.007376 -6.8489847 -6.851632 -6.9980206 -6.7804646
-6.764338 -6.8653903 -6.889097 -6.852418 -6.7448764 -6.831376 -7.096193 -7.004544
-7.0756145 -6.9597964 -6.680154 -6.9265857 -6.958188 -6.8898106 -6.795005 -6.765933
-6.983769 -6.9006777 -6.8459463 -6.6983805 -6.9708347 -7.1898737 -6.9235344 -6.940723
-7.138138 -6.8879457 -6.931277 -6.9809413 -6.8534107 -6.985746 -6.9995418 -6.8450665
-6.839731 -6.849064 -6.8262987 -6.7991834 -6.820321 -7.127141 -6.9844637 -6.860113
-6.9856215 -6.9027915 -6.9837027 -6.816603 -7.0427403 -6.925081 -6.801741 -6.922399
-6.9332266 -6.963505 -6.981084 -6.956377 -6.8398395 -6.7721853 -7.001959 -6.903323
-6.8763304 -6.8225417 -6.9784217 -6.791529 -6.957935 -6.7776723 -6.868785 -6.9589534
-7.0004716 -6.9457035 -7.0492525 -6.7592564 -6.7543273 -6.763859 -7.1415133 -6.974151
-6.9159036 -6.9129944 -7.048898 -6.8931384 -6.9463773 -6.986576 -7.1698236 -6.958289
-6.853194 -6.876277 -7.0441895 -6.885746 -6.9937406 -6.838631 -7.091292 -6.816089
-6.7340126 -6.9426084 -6.855974 -6.9851537 -7.218243 -6.8444114 -7.1012106 -6.8850565
-6.9964757 -7.059116 -6.947551 -6.868542 -7.133902 -6.7877774 -6.8270535 -6.862987
-7.0334506 -6.966527 -7.062158 -6.9630356 -7.121318 -6.9010396 -6.878127 -6.9873857
-6.790931 -7.008067 -6.9553766 -6.846356 -6.970987 -6.99016 -7.0901394 -6.9481254
-7.0030003 -6.8440065 -7.055662 -6.888248 -6.8133645 -7.0748677 -6.8714924 -6.979966
-7.0852156 -6.921425 -7.0109115 -6.969469 -7.022973 -6.813174 -6.92589 -6.8474073
-7.0759015 -6.911883 -7.062799 -6.8307953 -6.743743 -6.9407616 -6.93822 -6.8316884
-6.916325 -6.933612 -6.9228806 -6.9648447 -7.062441 -7.003564 -6.8623977 -6.903371
-7.102082 -7.014308 -6.933384 -6.8481503 -6.961013 -6.9262943 -6.8654175 -6.9857216
-6.869954 -7.1008 -6.917891 -6.9614353 -6.9146905 -6.8617024 -6.8500347 -6.784527
-6.994059 -6.925774 -6.892072 -6.989994 -6.8326435 -6.6889668 -6.918429 -6.8109326
-6.9297614 -6.841699 -7.104237 -6.938732 -6.9989223 -7.0193014 -7.0383086 -6.791239
-7.0786395 -6.7492046 -7.0634465 -6.879175 -6.9715753 -6.8566966 -6.82771 -6.9871097
-7.010047 -7.0775933 -6.840253 -6.8308167 -6.870213 -6.9905906 -7.022556 -6.954029
-6.9195714 -6.802048 -6.9727364 -7.024409 -7.0026646 -6.860563 -6.8252645 -6.7351766
-6.95492 -7.0786185 -6.8967495 -6.9388328 -6.70948 -7.0992455 -6.892212 -6.7605743
-6.802519 -6.9502373 -6.8671985 -6.893899 -6.9621925 -6.8617783 -6.8773875 -6.783549
-7.0481734 -6.9179106 -6.8693037 -6.892372 -6.9611053 -7.0946136 -6.937725 -7.0375733
-7.084433 -6.886607 -6.9464808 -6.8603992 -7.1522613 -6.9179153 -7.011197 -6.8564754
-6.9589067 -6.9934373 -6.9084163 -6.8570256 -6.7542443 -6.9027534 -6.8746705 -7.1225123
00000000: 7bd8 dac0 0ad4 dfc0 018b ddc0 6d3c e0c0
00000010: e22a dbc0 9240 dbc0 c9ef dfc0 91f9 d8c0
00000020: 7575 d8c0 47b1 dbc0 7c73 dcc0 0247 dbc0
00000030: 07d6 d7c0 a29a dac0 0314 e3c0 3925 e0c0
00000040: 6f6b e2c0 a7b6 dec0 d2c3 d5c0 97a6 ddc0
00000050: 7aa9 dec0 5479 dcc0 ae70 d9c0 8682 d8c0
00000060: 097b dfc0 5ad2 dcc0 fe11 dbc0 2259 d6c0
00000070: 1411 dfc0 7213 e6c0 988d ddc0 671a dec0
00000080: a06b e4c0 0d6a dcc0 05cd ddc0 df63 dfc0
00000090: 244f dbc0 3b8b dfc0 3ffc dfc0 c90a dbc0
000000a0: 14df dac0 882b dbc0 0a71 dac0 e992 d9c0
000000b0: 1240 dac0 8a11 e4c0 ba80 dfc0 0c86 dbc0
000000c0: 368a dfc0 abe3 dcc0 7e7a dfc0 9d21 dac0
000000d0: 215e e1c0 439a ddc0 dda7 d9c0 4b84 ddc0
000000e0: fedc ddc0 08d5 dec0 0a65 dfc0 a49a dec0
000000f0: f7df dac0 beb5 d8c0 0c10 e0c0 06e8 dcc0
00000100: e60a dcc0 4352 dac0 3b4f dfc0 3554 d9c0
00000110: 67a7 dec0 b1e2 d8c0 16cd dbc0 bfaf dec0
00000120: dd03 e0c0 3443 dec0 7a93 e1c0 d44b d8c0
00000130: 7323 d8c0 8871 d8c0 4787 e4c0 3f2c dfc0
00000140: 154f ddc0 4037 ddc0 9390 e1c0 9794 dcc0
00000150: b948 dec0 0892 dfc0 326f e5c0 4eaa dec0
00000160: 5e4d dbc0 760a dcc0 006a e1c0 0858 dcc0
00000170: b9cc dfc0 11d6 dac0 ddeb e2c0 671d dac0
00000180: 087d d7c0 d929 dec0 2464 dbc0 6186 dfc0
00000190: d9fb e6c0 6b05 dbc0 1e3d e3c0 6252 dcc0
000001a0: 21e3 dfc0 47e4 e1c0 5652 dec0 19cb dbc0
000001b0: ed48 e4c0 7935 d9c0 3977 dac0 979d dbc0
000001c0: 0712 e1c0 caed dec0 33fd e1c0 30d1 dec0
000001d0: d6e1 e3c0 51d5 dcc0 9e19 dcc0 aa98 dfc0
000001e0: 4f4f d9c0 1642 e0c0 7292 dec0 5915 dbc0
000001f0: 5312 dfc0 64af dfc0 6ce2 e2c0 0b57 dec0
00000200: 9418 e0c0 1a02 dbc0 fcc7 e1c0 876c dcc0
00000210: 1507 dac0 5165 e2c0 44e3 dbc0 e25b dfc0
00000220: 16ba e2c0 507c ddc0 6359 e0c0 e405 dfc0
00000230: 32bc e0c0 8505 dac0 e4a0 ddc0 f61d dbc0
00000240: c96d e2c0 252e ddc0 7302 e2c0 e095 dac0
00000250: becc d7c0 b81a dec0 e605 dec0 319d dac0
00000260: 8952 ddc0 26e0 ddc0 3d88 ddc0 02e0 dec0
00000270: 84ff e1c0 321d e0c0 c398 dbc0 6ae8 dcc0
00000280: 4144 e3c0 3675 e0c0 48de ddc0 0c24 dbc0
00000290: 9ec0 dec0 34a4 ddc0 80b1 dbc0 088b dfc0
000002a0: aad6 dbc0 c139 e3c0 5d5f ddc0 14c4 dec0
000002b0: 2545 ddc0 1193 dbc0 7c33 dbc0 d81a d9c0
000002c0: 55cf dfc0 f19f ddc0 db8b dcc0 08ae dfc0
000002d0: 04a5 dac0 040c d6c0 c563 ddc0 29f3 d9c0
000002e0: 9bc0 ddc0 33ef dac0 e955 e3c0 180a dec0
000002f0: 2cf7 dfc0 1e9e e0c0 d339 e1c0 d451 d9c0
00000300: 3784 e2c0 7cf9 d7c0 c107 e2c0 3422 dcc0
00000310: 2517 dfc0 0f6a dbc0 9a7c dac0 6796 dfc0
00000320: 4e52 e0c0 a57b e2c0 5ae3 dac0 0d96 dac0
00000330: c9d8 dbc0 ebb2 dfc0 c7b8 e0c0 6887 dec0
00000340: 216d ddc0 61aa d9c0 a820 dfc0 f5c7 e0c0
00000350: d415 e0c0 bb89 dbc0 9168 dac0 9186 d7c0
00000360: b48e dec0 0b84 e2c0 2cb2 dcc0 eb0a dec0
00000370: 0fb4 d6c0 052d e3c0 008d dcc0 a056 d8c0
00000380: 3cae d9c0 5868 dec0 17c0 dbc0 d29a dcc0
00000390: 48ca dec0 b093 dbc0 8f13 dcc0 d512 d9c0
000003a0: a38a e1c0 865f ddc0 56d1 dbc0 508e dcc0
000003b0: 60c1 dec0 1307 e3c0 d801 dec0 cd33 e1c0
000003c0: adb3 e2c0 165f dcc0 9249 dec0 6488 dbc0
000003d0: 53df e4c0 905f ddc0 ba5b e0c0 3f68 dbc0
000003e0: 5daf dec0 3dca dfc0 bf11 ddc0 c16c dbc0
000003f0: c522 d8c0 5be3 dcc0 4dfd dbc0 9feb e3c0

blinear1.weight_sampler.mu f4 [512, 13]
0.00032015992 8.2581726e-05 2.3585371e-05 -4.7978076e-05 -0.00042071257 7.3842425e-06 -0.00021132498 -8.1661216e-05
-0.00030195483 0.00016219428 0.00011916221 0.0002263711 0.00021257615 6.57541e-05 0.00035792755 0.00031865225
-0.00020182831 -7.8627345e-05 2.5598607e-05 -0.00011623606 -0.00023553654 -0.000115194445 -0.00012993575 -0.00013839737
1.5533617e-05 -7.081666e-05 1.655829e-05 1.073365e-05 0.00013648011 1.7777602e-05 -7.0404085e-06 -0.00010581308
4.996416e-05 0.00020377475 0.0001135136 9.8192046e-05 0.0002102033 -0.000104092884 -0.00026241306 -0.00013803942
7.265784e-05 -1.0291572e-05 -0.00021644407 -2.1795173e-05 3.996748e-05 -0.00012023555 0.00030874714 0.00022066174
-8.459954e-05 0.000102046564 9.249058e-05 -8.87249e-05 2.5174115e-05 0.00024123317 -2.7942733e-05 -1.6037056e-06
8.5942556e-05 4.4031483e-05 -0.00015088599 -0.00015386929 -3.718504e-05 -3.2516855e-05 -0.00021281106 2.1510723e-05
0.00021918782 2.210302e-05 -8.838281e-05 9.520775e-06 -5.2824093e-05 2.9913825e-05 1.5577325e-05 0.00011758732
8.427266e-07 -0.00016186511 -2.0072908e-05 -4.396756e-05 -2.9127343e-05 9.9461e-06 -0.0001018358 7.4268406e-05
0.00014221479 0.00021739087 0.00011632469 -0.00021637657 8.3751605e-05 -0.00021755761 1.6588061e-05 0.00012572251
5.692292e-05 2.7854489e-05 -1.360966e-05 -2.9063081e-05 6.774316e-05 -1.1251769e-05 0.00010948538 -2.405545e-05
-3.381622e-05 -6.211048e-05 -0.00017619811 -9.34901e-06 -0.00018955642 1.6772716e-05 -1.4914613e-05 -8.487002e-07
7.182589e-05 0.00010162112 -0.00011703422 -6.444278e-05 -7.262339e-05 -2.0072239e-05 -2.0496658e-05 5.8397814e-05
-4.2407166e-05 0.000121737634 -0.00016205736 0.00014940304 -9.262469e-05 -0.00010302872 7.819195e-05 0.00014337788
-9.592442e-05 7.6126553e-06 5.776498e-05 -0.00015014644 6.177186e-05 -4.960649e-05 -4.042661e-05 -3.7894993e-06
9.542759e-05 -0.0001174331 1.5009911e-05 6.019178e-06 -7.7925346e-05 0.0001646618 -0.00011312151 -8.920997e-05
-2.3260485e-05 -0.00010604515 2.1093176e-05 -0.00022850481 5.8854657e-05 -9.0471636e-05 -0.00023636517 4.0008043e-05
3.3721495e-05 -5.1091996e-05 -0.0001316821 -6.128152e-05 -0.00026058615 0.0001213975 -7.267942e-05 3.5064662e-05
6.6855523e-06 0.00014288322 0.000117786774 4.5135075e-05 0.00021223667 -0.00013033814 0.00019930529 -3.271295e-05
6.13035e-05 0.00016407038 -8.748094e-05 -2.9820296e-05 -8.056025e-05 -0.00013410045 2.5900787e-05 1.8430343e-05
2.8424422e-05 1.9605613e-05 -2.5831085e-05 -1.2052268e-05 -0.00025392816 -2.6864152e-05 -5.861692e-05 -3.6328667e-05
-0.00012653117 -1.560537e-05 0.00014479226 -0.00010224876 0.00010270087 -3.5989317e-05 0.00012762295 -4.8573005e-05
0.00010681686 3.668211e-05 -0.000106008476 -3.599253e-05 0.00011013082 -0.00010421477 -2.7184167e-05 -0.00034834433
6.180016e-05 -0.0002151869 -0.000104905426 -5.939357e-05 -9.486022e-05 -0.00012625204 -0.00017696196 -0.0002978392
-1.2108455e-06 -0.0001443737 -0.00012749409 5.067338e-05 -4.5762805e-05 -2.7805323e-05 0.00011997464 7.0272574e-05
-0.00014501081 4.2616193e-05 -2.4970963e-05 -2.091374e-06 -2.2585475e-05 9.301016e-05 7.251758e-05 -0.00012728559
3.716067e-05 8.5923006e-05 0.0002749932 0.00013453954 0.00016104829 9.475994e-05 -0.00015943889 5.7979552e-05
3.5249614e-05 -8.337098e-05 0.00015624864 0.00018775625 -0.000108390195 -0.00018107379 -0.00014520208 -0.00020148688
0.00012154509 -0.00012963879 -0.00013247725 3.4017317e-05 1.4337678e-05 -3.2767304e-05 -0.0002105224 -7.174494e-05
2.8838733e-05 0.00018889036 -4.795487e-05 -3.1880965e-05 5.54389e-05 -5.873857e-05 0.00011451501 0.00025867083
0.00028305905 -2.6939975e-05 -0.00016420402 -0.0001773264 -0.0002019013 8.588191e-05 -0.00016502851 2.3888291e-05
00000000: 23db a739 ba2f ad38 33d9 c537 113c 49b8
00000010: 1693 dcb9 29c6 f736 1e97 5db9 8841 abb8
00000020: b14f 9eb9 b212 2a39 b9e6 f938 085e 6d39
00000030: fae6 5e39 77e5 8938 39a8 bb39 c810 a739
00000040: e0a1 53b9 bce4 a4b8 97bc d637 c2c3 f3b8
00000050: 5cfa 76b9 8c94 f1b8 5d3f 08b9 c31e 11b9
00000060: 304e 8237 6883 94b8 a8e6 8a37 ad14 3437
00000070: 1a1c 0f39 1c21 9537 a63c ecb6 f7e7 ddb8
00000080: 9c90 5138 5eac 5539 260e ee38 74ec cd38
00000090: 056a 5c39 714c dab8 7c94 89b9 adbe 10b9
000000a0: e15f 9838 f7a9 2cb7 43f5 62b9 c7d4 b6b7
000000b0: c1a2 2738 f826 fcb8 57df a139 6f61 6739
000000c0: 086b b1b8 d501 d638 81f7 c138 d111 bab8
000000d0: 002d d337 89f3 7c39 9066 eab7 e83e d7b5
000000e0: 0f3c b438 72ae 3838 2637 1eb9 f957 21b9
000000f0: 22f7 1bb8 b562 08b8 0926 5fb9 ed71 b437
00000100: c8d5 6539 e069 b937 295a b9b8 6bbb 1f37
00000110: 708f 5db8 73ef fa37 0dac 8237 3699 f638
00000120: bb37 6235 56ba 29b9 3e62 a8b7 cf69 38b8
00000130: 7e56 f4b7 2dde 2637 ae90 d5b8 8cc0 9b38
00000140: 7e1f 1539 6bf3 6339 58f3 f338 25e3 62b9
00000150: cda3 af38 2d20 64b9 9726 8b37 61d4 0339
00000160: 85c0 6e38 0fa9 e937 0b55 64b7 7ecc f3b7
00000170: 5511 8e38 fbc5 3cb7 849b e538 afca c9b7
00000180: e4d5 0db8 4f41 82b8 d2c1 38b9 b1d9 1cb7
00000190: aac3 46b9 22b3 8c37 c639 7ab7 3cd2 63b5
000001a0: 3ba1 9638 6c1d d538 4570 f5b8 7425 87b8
000001b0: 634d 98b8 ce60 a8b7 3df0 abb7 2df0 7438
000001c0: 59de 31b8 654d ff38 f1ed 29b9 13a9 1c39
000001d0: 803f c2b8 1f11 d8b8 fcfa a338 b557 1639
000001e0: 082b c9b8 3670 ff36 ad48 7238 a170 1db9
000001f0: 848b 8138 9010 50b8 be8f 29b8 1a4f 7eb6
00000200: 4c20 c838 6a46 f6b8 14d3 7b37 58f8 c936
00000210: da6b a3b8 11a9 2c39 a63b edb8 3d16 bbb8
00000220: 831f c3b7 8e64 deb8 40f1 b037 cb9a 6fb9
00000230: b5da 7638 97bb bdb8 cbd8 77b9 4fce 2738
00000240: 2e70 0d38 9d4b 56b8 2514 0ab9 4484 80b8
00000250: 489f 88b9 c996 fe38 776b 98b8 6512 1338
00000260: 7554 e036 ecd2 1539 4b04 f738 6b4f 3d38
00000270: d98b 5e39 61ab 08b9 9bfc 5039 4335 09b8
00000280: 1190 8038 4f0a 2c39 f975 b7b8 9926 fab7
00000290: 74f2 a8b8 519d 0cb9 8445 d937 dc9a 9a37
000002a0: fb70 ee37 bc76 a437 d5af d8b7 1934 4ab7
000002b0: a921 85b9 545a e1b7 70db 75b8 9c5f 18b8
000002c0: 74ad 04b9 47e8 82b7 60d3 1739 636e d6b8
000002d0: 1c61 d738 3cf3 16b8 86d2 0539 deba 4bb8
000002e0: dd02 e038 1edb 1938 de50 deb8 aff6 16b8
000002f0: 09f6 e638 e18d dab8 8e09 e4b7 fca1 b6b9
00000300: b59a 8138 cba3 61b9 ac00 dcb8 5c1d 79b8
00000310: b1ef c6b8 8662 04b9 dd8e 39b9 4d27 9cb9
00000320: 5684 a2b5 0563 17b9 efaf 05b9 218a 5438
00000330: 70f1 3fb8 7a3f e9b7 e59a fb38 4d5f 9338
00000340: 0b0e 18b9 cabe 3238 bc78 d1b7 8859 0cb6
00000350: f075 bdb7 730e c338 9414 9838 f777 05b9
00000360: f7dc 1b38 9031 b438 f62c 9039 2f13 0d39
00000370: 12df 2839 dbb9 c638 0d2f 27b9 122f 7338
00000380: fcd8 1338 74d7 aeb8 add6 2339 6fe0 4439
00000390: 8b4f e3b8 a0de 3db9 6341 18b9 3946 53b9
000003a0: 06e6 fe38 a6ef 07b9 97e9 0ab9 d1ad 0e38
000003b0: dc8b 7037 a06f 09b8 adbf 5cb9 c575 96b8
000003c0: b5ea f137 df10 4639 2623 49b8 edb7 05b8
000003d0: 1187 6838 0f5e 76b8 c727 f038 369e 8739
000003e0: 8b67 9439 28fd e1b7 2e2e 2cb9 b1f0 39b9
000003f0: 78b5 53b9 801b b438 810b 2db9 b763 c837

blinear1.weight_sampler.rho f4 [512, 13]
-6.9692836 -6.9640055 -6.885977 -6.825166 -6.6788373 -6.980765 -6.9365864 -6.8976345
-7.0298743 -6.844415 -6.8449516 -6.976743 -6.951491 -6.921083 -6.911541 -6.7843156
-6.972775 -6.8679023 -6.7683134 -6.8342595 -7.0046663 -6.8598228 -7.001325 -6.932094
-6.7435884 -6.9899144 -6.7621584 -6.912721 -6.9712806 -6.919465 -6.742528 -6.8131633
-6.8656116 -6.9711566 -6.844032 -6.8834777 -6.9238377 -6.9449573 -6.902433 -7.0201225
-6.927208 -6.9431996 -6.8581057 -6.911444 -6.8990517 -7.0181127 -6.9559503 -7.0192814
-6.973716 -6.8366446 -6.9411354 -7.0489135 -6.9150043 -6.8571286 -6.9853725 -6.9228773
-7.021345 -6.8616877 -7.0562696 -7.001026 -7.047262 -6.870521 -6.8034077 -6.9390187
-6.912456 -6.747974 -6.8373237 -6.9119616 -6.940217 -7.0534906 -6.7257743 -6.9441094
-7.054225 -6.8302283 -6.8832264 -6.883681 -6.9396396 -7.0147343 -7.254412 -6.840571
-6.877042 -6.9499288 -6.757637 -6.9424233 -6.911907 -6.744969 -6.9058795 -6.88704
-6.953732 -6.857084 -6.921635 -7.0666275 -6.8904705 -6.912551 -6.9495354 -6.8013325
-6.9971933 -6.876314 -6.9327455 -7.012406 -7.0871553 -6.9388328 -7.0716934 -6.784972
-6.8542123 -6.984492 -6.884115 -7.0858045 -6.848953 -7.073429 -7.129216 -6.8490133
-6.9360743 -6.79131 -6.92344 -6.80838 -6.833999 -6.89156 -6.899935 -6.906265
-6.795127 -6.789876 -6.9547462 -7.0119333 -7.013944 -6.9343214 -6.7775974 -6.8712745
-6.9680104 -6.9628377 -6.8190956 -6.7981787 -6.7975726 -6.8632317 -6.9598026 -6.857279
-6.901566 -7.02343 -6.971606 -6.8505774 -6.8454766 -7.1214867 -6.8141913 -6.9614596
-6.9255667 -6.8249035 -6.7489257 -6.904594 -6.912111 -6.9357557 -6.96327 -7.0531936
-6.747563 -6.942283 -7.044829 -6.645703 -7.0766296 -6.9213405 -6.8361554 -6.8060184
-6.9816155 -6.953981 -6.9514003 -6.821838 -7.0216775 -7.1237373 -6.9276786 -6.871579
-6.928583 -6.978982 -7.134627 -7.0370493 -6.790765 -6.9082513 -7.0230885 -6.9886813
-6.9117084 -6.990655 -6.922579 -6.9657516 -7.1185975 -6.925285 -6.929353 -6.91006
-7.0060983 -7.1165156 -7.0894895 -6.9385934 -6.8326745 -6.785756 -6.7373586 -6.768216
-6.815707 -7.041863 -6.953052 -7.0338826 -7.0086994 -6.917629 -6.89525 -6.8731136
-7.0499506 -6.976195 -7.011946 -6.9508057 -6.7643423 -6.7438874 -6.8456445 -6.915588
-6.998168 -6.793072 -6.9908905 -6.9546022 -6.902764 -6.9622545 -6.6896396 -6.912636
-7.082037 -6.844838 -6.9678025 -6.887915 -6.9713984 -6.8859935 -7.029731 -6.8252172
-7.0182824 -7.0508366 -6.8854856 -6.8178163 -7.000132 -7.0471106 -6.852206 -6.8948436
-6.9585843 -6.8812222 -7.056282 -6.8230753 -6.9520583 -6.873594 -6.79165 -6.775497
-6.894086 -6.799737 -6.9152985 -6.9595504 -7.034665 -6.9410653 -6.8092947 -6.8555746
-6.758617 -6.801954 -7.0221663 -7.0925245 -6.9251165 -6.859546 -6.8674593 -6.836223
00000000: 5f04 dfc0 22d9 dec0 ec59 dcc0 c367 dac0
00000010: 09b9 d5c0 6d62 dfc0 84f8 ddc0 6cb9 dcc0
00000020: bbf4 e0c0 7305 dbc0 d809 dbc0 7b41 dfc0
00000030: 9d72 dec0 8379 ddc0 582b ddc0 1d19 d9c0
00000040: f920 dfc0 dbc5 dbc0 0696 d8c0 41b2 dac0
00000050: 3a26 e0c0 ab83 dbc0 db0a e0c0 b7d3 ddc0
00000060: 7acb d7c0 61ad dfc0 9a63 d8c0 0335 ddc0
00000070: bb14 dfc0 426c ddc0 cac2 d7c0 6f05 dac0
00000080: 17b3 dbc0 b713 dfc0 4f02 dbc0 7345 dcc0
00000090: 1490 ddc0 173d dec0 bbe0 dcc0 d8a4 e0c0
000000a0: b0ab ddc0 b12e dec0 9a75 dbc0 8d2a ddc0
000000b0: 08c5 dcc0 6194 e0c0 2597 dec0 f49d e0c0
000000c0: ae28 dfc0 cbc5 dac0 c81d dec0 b390 e1c0
000000d0: b747 ddc0 996d dbc0 2c88 dfc0 3688 ddc0
000000e0: dcae e0c0 f292 dbc0 f6cc e1c0 6808 e0c0
000000f0: 2c83 e1c0 4fdb dbc0 84b5 d9c0 710c dec0
00000100: d732 ddc0 67ef d7c0 5bcb dac0 ca2e ddc0
00000110: 4216 dec0 32b6 e1c0 8b39 d7c0 2536 dec0
00000120: 36bc e1c0 3b91 dac0 6443 dcc0 1d47 dcc0
00000130: 8711 dec0 b478 e0c0 2524 e8c0 f5e5 dac0
00000140: ba10 dcc0 d165 dec0 903e d8c0 5528 dec0
00000150: 582e ddc0 c9d6 d7c0 f7fc dcc0 a262 dcc0
00000160: f984 dec0 3b6d dbc0 097e ddc0 d021 e2c0
00000170: bc7e dcc0 9e33 ddc0 9862 dec0 84a4 d9c0
00000180: 02e9 dfc0 c40a dcc0 0dd9 ddc0 a165 e0c0
00000190: fac9 e2c0 eb0a dec0 504b e2c0 7e1e d9c0
000001a0: b555 dbc0 f580 dfc0 ac4a dcc0 e9be e2c0
000001b0: 9f2a dbc0 8859 e2c0 8a22 e4c0 1e2b dbc0
000001c0: 52f4 ddc0 6952 d9c0 d28c ddc0 40de d9c0
000001d0: 1fb0 dac0 a987 dcc0 44cc dcc0 1f00 ddc0
000001e0: ae71 d9c0 aa46 d9c0 488d dec0 c261 e0c0
000001f0: 3b72 e0c0 f6e5 ddc0 14e2 d8c0 7be1 dbc0
00000200: f1f9 dec0 91cf dec0 0836 dac0 ae8a d9c0
00000210: b785 d9c0 989f dbc0 b4b6 dec0 d46e dbc0
00000220: a1d9 dcc0 f0bf e0c0 6517 dfc0 ee37 dbc0
00000230: 250e dbc0 38e3 e3c0 db0d dac0 47c4 dec0
00000240: 3e9e ddc0 9c65 dac0 33f7 d7c0 6ff2 dcc0
00000250: 0330 ddc0 b6f1 ddc0 1cd3 dec0 c3b3 e1c0
00000260: 09ec d7c0 2f27 dec0 3d6f e1c0 99a9 d4c0
00000270: c073 e2c0 9f7b ddc0 c9c1 dac0 e7ca d9c0
00000280: 6569 dfc0 0387 dec0 df71 dec0 7f4c dac0
00000290: 95b1 e0c0 a8f5 e3c0 8baf ddc0 fae3 dbc0
000002a0: f4b6 ddc0 d253 dfc0 dd4e e4c0 822f e1c0
000002b0: f24d d9c0 6510 ddc0 24bd e0c0 47a3 dfc0
000002c0: b72c ddc0 72b3 dfc0 c485 ddc0 70e7 dec0
000002d0: 8dcb e3c0 ef9b ddc0 43bd ddc0 361f ddc0
000002e0: f531 e0c0 7fba e3c0 19dd e2c0 f508 dec0
000002f0: 45a5 dac0 ea24 d9c0 7198 d7c0 3a95 d8c0
00000300: 461a dac0 f156 e1c0 677f dec0 9115 e1c0
00000310: 4447 e0c0 375d ddc0 e3a5 dcc0 8cf0 dbc0
00000320: 3299 e1c0 fd3c dfc0 dd61 e0c0 006d dec0
00000330: 7e75 d8c0 edcd d7c0 850f dbc0 7f4c ddc0
00000340: fef0 dfc0 d960 d9c0 60b5 dfc0 1a8c dec0
00000350: 71e3 dcc0 caca dec0 8711 d6c0 5034 ddc0
00000360: 0ca0 e2c0 ea08 dbc0 3df8 dec0 cd69 dcc0
00000370: b215 dfc0 0f5a dcc0 8ef3 e0c0 2e68 dac0
00000380: c595 e0c0 74a0 e1c0 e655 dcc0 8d2b dac0
00000390: 1501 e0c0 ee81 e1c0 4645 dbc0 8fa2 dcc0
000003a0: b9ac dec0 f932 dcc0 10cd e1c0 a256 dac0
000003b0: 4377 dec0 7bf4 dbc0 3255 d9c0 dfd0 d8c0
000003c0: 5a9c dcc0 7297 d9c0 204a ddc0 a3b4 dec0
000003d0: fa1b e1c0 351d dec0 bee5 d9c0 de60 dbc0
000003e0: 9746 d8c0 9ba9 d9c0 96b5 e0c0 f6f5 e2c0
000003f0: 8e9a ddc0 6781 dbc0 3ac2 dbc0 57c2 dac0

blinear1.weight_sampler.eps_w f4 [512, 13]
-1.2636153 -0.15005146 -0.3379604 0.42972875 -0.24640599 -0.75379425 1.5299555 0.35150823
2.3710883 -0.329664 -0.29572356 0.35899964 -0.94459 0.73473024 -0.52418345 -1.2276893
0.4973024 -1.2970353 -0.88297695 0.24144258 0.46381506 2.2148438 1.8328776 0.5609362
0.020822046 -0.19012846 1.4680446 1.8038988 -0.097564556 -0.0846201 -1.6681471 -0.0030397878
0.312793 0.107869424 0.52425 0.451996 -0.047405012 -0.7666382 0.48582965 0.4153624
0.43376943 -0.62457126 -0.57303154 1.324022 0.11059619 1.5194565 -2.2529533 -1.3348309
-0.07167094 0.4507617 -2.496572 1.3288019 -0.7632836 0.9802551 -0.7059451 0.30903375
-0.5527382 -0.76043063 2.0206473 -1.0480508 -0.07987439 0.016020745 1.3008163 -0.11189193
0.84078217 0.80529255 -0.15865608 0.4982503 -1.4270086 0.15807061 1.5866064 0.33366713
0.3619828 -0.6226299 0.8499095 -1.1734242 -0.55313724 0.12718943 0.4676137 -1.7826589
1.2644893 0.994194 -0.78708464 -0.6945109 -2.3903713 0.62019604 -0.88896155 -0.7711508
-1.9344234 1.9985815 0.29426053 -1.315916 0.061637133 -0.35891247 0.10358808 1.1300508
-0.054248188 0.081491955 -0.655717 0.54333043 3.0586505 -0.1309177 1.3909142 -2.102204
0.024515836 -1.1656672 2.5879729 0.16579078 -0.635544 1.4592193 0.8152369 -0.5979407
-1.2295598 -0.26174375 2.1887314 0.08137887 0.321171 0.23158373 -0.5053987 0.4095222
1.0067724 0.06438723 -0.33619565 0.91929066 1.1499856 0.36667153 -2.764219 1.4470482
-0.1935262 2.2084932 0.41044506 -1.8663278 1.1456939 0.16095619 0.14877814 -0.66213715
0.11400695 0.81803495 -0.3785668 1.5666956 -0.390245 0.018668517 -0.3683256 1.683846
-1.624841 -0.32164907 -0.9633811 -1.9233564 2.128189 1.8236564 -0.09712428 0.5799347
-1.1926086 -1.3092847 0.072422124 -0.70318234 0.09775803 -1.0587175 0.2228104 -0.40710184
0.03842533 -0.9120528 -0.5589869 0.6241728 -0.8790841 -0.043829083 0.4994255 1.2583771
1.3960369 -0.8113637 -1.1769457 -0.09447447 0.9149398 1.3435673 0.7614311 -0.22538288
1.5366011 -0.9551208 -1.4607292 -0.36056563 -0.6702224 0.22492938 -1.3105773 -0.12165383
-0.23546477 0.9563978 0.9391729 0.46160662 -0.16223797 0.37996048 -1.8699315 0.0549992
1.1538881 -0.12828131 -0.94478023 -0.17595676 0.035332914 0.20204404 3.020656 1.5047673
0.37149704 -0.45827353 0.011489295 -0.20789994 -0.71864945 -2.029425 -1.2210276 -0.52879125
1.3241346 -0.13123217 -0.9717494 -1.4627095 -0.61070544 -0.14254506 -0.3107746 0.76287496
-0.67663956 -0.276902 -1.5412403 -2.1533375 0.9057683 -0.2573288 2.5589752 0.21810572
0.28966188 0.9350274 0.9787144 1.6310328 -0.71684206 -0.12290453 0.36208835 1.4817884
0.9132858 -0.16722651 -0.1904367 1.3816576 -1.8373518 0.645456 -0.33378375 -0.5808674
0.5287909 0.474574 0.038259283 0.79502386 0.2799406 0.58428484 -1.2973704 0.8462462
2.034918 -0.7546814 0.62649256 1.7613229 -0.25142586 0.27681783 0.7699893 -0.98414797
00000000: 25be a1bf 17a7 19be 2509 adbe 6805 dc3e
00000010: da51 7cbe a9f8 40bf 95d5 c33f e3f8 b33e
00000020: e9bf 1740 b8c9 a8be 1469 97be cdce b73e
00000030: a6d0 71bf 4817 3c3f e330 06bf ec24 9dbf
00000040: 6c9e fe3e 4105 a6bf c70a 62bf b93c 773e
00000050: 2b79 ed3e 00c0 0d40 bc9b ea3f 8499 0f3f
00000060: ff92 aa3c 09b1 42be e3e8 bb3f 28e6 e63f
00000070: edcf c7bd 4e4d adbd d885 d5bf 2d37 47bb
00000080: 6726 a03e a5ea dc3d 3f35 063f 056c e73e
00000090: c22b 42bd 6742 44bf aabe f83e 61aa d43e
000000a0: 0717 de3e e7e3 1fbf 32b2 12bf 8e79 a93f
000000b0: 4180 e23d 8d7d c23f 6330 10c0 bddb aabf
000000c0: 37c8 92bd 3dca e63e d6c7 1fc0 2e16 aa3f
000000d0: 8e66 43bf 00f2 7a3f d1b8 34bf ac39 9e3e
000000e0: 4080 0dbf 95ab 42bf 4952 0140 8726 86bf
000000f0: 2f95 a3bd f03d 833c 2681 a63f 9927 e5bd
00000100: 803d 573f a727 4e3f bd76 22be aa1a ff3e
00000110: 38a8 b6bf 43dd 213e eb15 cb3f 6bd6 aa3e
00000120: cf55 b93e ac64 1fbf ab93 593f c432 96bf
00000130: 679a 0dbf f23d 023e 106b ef3e 2b2e e4bf
00000140: c9da a13f 7f83 7e3f 617e 49bf 77cb 31bf
00000150: d8fb 18c0 2bc5 1e3f fc92 63bf 246a 45bf
00000160: 309b f7bf 85d1 ff3f 51a9 963e ef6f a8bf
00000170: 3877 7c3d 60c3 b7be fd25 d43d 81a5 903f
00000180: 5933 5ebd 41e5 a63d 12dd 27bf b417 0b3f
00000190: eec0 4340 4a0f 06be 7a09 b23f 838a 06c0
000001a0: 6fd5 c83c 9534 95bf 59a1 2540 0fc5 293e
000001b0: 03b3 22bf b3c7 ba3f 5eb3 503f a412 19bf
000001c0: 3762 9dbf 4703 86be 2d14 0c40 f7a9 a63d
000001d0: 8670 a43e 4924 6d3e cf61 01bf e5ac d13e
000001e0: ebdd 803f 74dd 833d d621 acbe a256 6b3f
000001f0: ba32 933f 5fbc bb3e f7e8 30c0 e038 b93f
00000200: bb2b 46be f457 0d40 db25 d23e d4e3 eebf
00000210: 19a6 923f b3d1 243e 4c59 183e d281 29bf
00000220: 7a7c e93d bd6a 513f 82d3 c1be 7b89 c83f
00000230: 31ce c7be b8ee 983c 2c95 bcbe 4488 d73f
00000240: cafa cfbf 30af a4be 25a0 76bf 8b30 f6bf
00000250: 4034 0840 936d e93f 18e9 c6bd 9a76 143f
00000260: 66a7 98bf a496 a7bf 0d52 943d c203 34bf
00000270: 5d35 c83d 0e84 87bf 6928 643e a76f d0be
00000280: e163 1d3d 4b7c 69bf c419 0fbf cac9 1f3f
00000290: a80b 61bf 2086 33bd b3b4 ff3e 8012 a13f
000002a0: 56b1 b23f 88b5 4fbf 28a6 96bf d57b c1bd
000002b0: 7f39 6a3f 03fa ab3f 26ed 423f c5ca 66be
000002c0: 58af c43f cc82 74bf 2df9 babf 0f9c b8be
000002d0: b293 2bbf e353 663e ffc0 a7bf a525 f9bd
000002e0: ad1d 71be 7cd6 743f a36d 703f b457 ec3e
000002f0: b621 26be 2e8a c23e ea59 efbf d746 613d
00000300: 9bb2 933f 2d5c 03be 1edd 71bf 022e 34be
00000310: 3fb9 103d a2e4 4e3e 6e52 4140 379c c03f
00000320: dc34 be3e d4a2 eabe 993d 3c3c b9e3 54be
00000330: 69f9 37bf 19e2 01c0 a24a 9cbf dd5e 07bf
00000340: 3e7d a93f ba61 06be 92c4 78bf 113a bbbf
00000350: 3157 1cbf 55f7 11be d91d 9fbe c64b 433f
00000360: 4038 2dbf 19c6 8dbe 5d47 c5bf 48d0 09c0
00000370: 6ee0 673f 9ac0 83be 40c6 2340 1b57 5f3e
00000380: 904e 943e f55d 6f3f 078d 7a3f afc5 d03f
00000390: f682 37bf 5fb5 fbbd a563 b93e 3eab bd3f
000003a0: 19cd 693f 6d3d 2bbe d701 43be 28da b03f
000003b0: 582e ebbf 9b3c 253f b4e5 aabe bab3 14bf
000003c0: d75e 073f 5dfb f23e c4b5 1c3d af86 4b3f
000003d0: 6054 8f3e b193 153f 3c10 a6bf 97a3 583f
000003e0: 193c 0240 cd32 41bf d161 203f 0773 e13f
000003f0: e4ba 80be 11bb 8d3e 051e 453f 1ff1 7bbf
