experiments/pl-blitz/lightning_logs/version_0/checkpoints/epoch=24-step=598.ckpt (torch, 32983 bytes, 3 tensors)

blinear1.weight f4 [512, 13]
0	0xbe8097e1	-0.25115874
1	0x3e421cc9	0.18956293
2	0x3da7a193	0.08185115
3	0x3e8d7975	0.27631727
4	0xbdab0f6e	-0.08352552
5	0xbe607e43	-0.21923165
6	0xbccba0c1	-0.024856927
7	0xbe3fae62	-0.18718866
8	0x3c7ce882	0.015436294
9	0xbe0c57d2	-0.13705376
10	0x3e1d91f4	0.15387708
11	0xbd153bf9	-0.036434148
12	0x3e8a98f5	0.27069822
13	0xbd766375	-0.060153443
14	0x3cc21e8b	0.023696205
15	0xbe897190	-0.26844454
16	0xbd715c4e	-0.05892592
17	0x3d53c1e8	0.051698595
18	0x3e6ac270	0.22925735
19	0x3e05b5ca	0.13057628
20	0x3cbd3bf9	0.023099886
21	0x3cc7f4e2	0.024408761
22	0xbd84d164	-0.064852506
23	0x3dead98c	0.11467275
24	0x3e3e72cf	0.18598484
25	0xbe571647	-0.21004592
26	0x3d3adc58	0.045620292
27	0x3d92daa4	0.07170609
28	0x3e81d17e	0.25355142
29	0x3e44dba2	0.19224408
30	0xbddde1fa	-0.10834117
31	0xbe3963ca	-0.18104473
32	0xbe85feff	-0.2617111
33	0x3e0c49fb	0.13700096
34	0xbe0e4a14	-0.13895446
35	0xbc363884	-0.011121873
36	0xbd8a9403	-0.06766512
37	0x3e3c3165	0.18378218
38	0x3e6c717d	0.23090167
39	0xbe767ccb	-0.24071042
40	0xbdcd15dc	-0.10013935
41	0x3d6c7590	0.057729304
42	0x3dada50b	0.08478745
43	0xbe2ccb96	-0.16874537
44	0xbdd5e8d9	-0.10444803
45	0x3d3bbe5a	0.04583583
46	0xbdc2ff01	-0.095212944
47	0x3dfff386	0.1249762
48	0x3e0da6b3	0.13833122
49	0x3e822cf8	0.25424933
50	0xbd8f56e0	-0.06998992
51	0x3e39eb83	0.18156247
52	0x3d67c02f	0.056579765
53	0x3e6594a6	0.22419986
54	0xbd6bb2db	-0.057543617
55	0x3e1bfadf	0.15232418
56	0x3e71945e	0.23591754
57	0xbe8c4f7d	-0.27404395
58	0x3dd948b8	0.10609573
59	0xbd98b2b1	-0.07455958
60	0xbdb14b71	-0.086569674
61	0x3e39fdec	0.1816327
62	0x3e8ca19c	0.27467048
63	0x3cc5cc51	0.024145277
64	0xbe0dcb6e	-0.13847134
65	0x3e0f5c79	0.1400012
66	0x3d03e86e	0.032204084
67	0x3c98a61d	0.018633896
68	0x3e355d34	0.17711335
69	0x3e7bd092	0.24591282
70	0x3e47b829	0.19503845
71	0x3e257bfc	0.16160578
72	0xbe57af62	-0.21062997
73	0x3cd626ed	0.026141608
74	0xbe37606c	-0.17907876
75	0xbcf00dc2	-0.029303435
76	0x3d09a538	0.03360483
77	0xbd597097	-0.05308589
78	0xbe59654d	-0.2123005
79	0xbd8e7776	-0.06956379
80	0x3d8f713a	0.07004018
81	0x3e32da63	0.1746612
82	0xbddd7481	-0.10813237
83	0x3e51dabe	0.204936
84	0x3e6dde66	0.2322937
85	0x3e82bf24	0.25536454
86	0xbc5a3211	-0.013317601
87	0xbe382920	-0.17984438
88	0xbdf8d06c	-0.12149128
89	0x3e506c69	0.20353855
90	0xbe606fe2	-0.2191768
91	0x3d8937e6	0.06700115
92	0xbe711962	-0.23544839
93	0x3e4468db	0.19180624
94	0x3d8b9f94	0.068175465
95	0xbe6b22cb	-0.22962491
96	0x3e4be109	0.19910063
97	0x3e738b9b	0.23783724
98	0x3e7163ac	0.23573178
99	0xbe79415e	-0.24341342
100	0xbe769021	-0.24078418
101	0xbe3038c2	-0.17209151
102	0xbe48d935	-0.19614108
103	0x3e819778	0.25310874
104	0xbe44e25b	-0.19226973
105	0x3e6c2e88	0.23064625
106	0xbd8dc8fe	-0.06923102
107	0x3d356d01	0.044293407
108	0xbe3b3a3c	-0.18283933
109	0x3e059b82	0.13047603
110	0x3db9d6a1	0.0907414
111	0x3e125936	0.14291844
112	0xbe1328d2	-0.1437104
113	0x3df3fff7	0.11914056
114	0xbe80fdfa	-0.2519377
115	0x3e634125	0.2219282
116	0x3e8603f9	0.26174906
117	0x3c1a2abd	0.009409604
118	0x3d833e52	0.06408371
119	0x3e3773f7	0.17915331
120	0x3e0aadb2	0.13542822
121	0xbe77119d	-0.24127813
122	0x3cbca089	0.023025768
123	0xbe04dac0	-0.12974072
124	0x3df6b98f	0.12047111
125	0xbd1c80ee	-0.038208894
126	0xbdd58f0a	-0.10427673
127	0xbcc8e205	-0.024521837
128	0xbe199fc9	-0.1500236
129	0xbdaa3c45	-0.08312277
130	0x3d9a7378	0.07541555
131	0x3e3c7410	0.1840365
132	0xbd7b42ba	-0.061342932
133	0xbde58749	-0.11207444
134	0x3e56ebc0	0.20988369
135	0xbd36c3c2	-0.044620283
136	0x3e0e7db5	0.13915141
137	0x3e430833	0.19046097
138	0xbe0716e8	-0.13192332
139	0xbe53188a	-0.2061483
140	0xbe633e33	-0.22191696
141	0x3d8dc520	0.06922364
142	0xbd96b41b	-0.07358571
143	0x3d8e4900	0.069475174
144	0xbd9c5356	-0.076330826
145	0xbe0d2214	-0.13782531
146	0x3d73d361	0.05952776
147	0x3e4d8b40	0.20072651
148	0x3e2c3504	0.16817099
149	0xbe75b24c	-0.23993796
150	0x3ca6cd59	0.02036159
151	0x3e3747c1	0.17898466
152	0xbdd4a654	-0.10383287
153	0xbe333492	-0.17500523
154	0xbe267fd6	-0.16259703
155	0x3d0f9be7	0.03506079
156	0x3e0c47fe	0.13699338
157	0xbdd8a5d4	-0.10578504
158	0x3e40ffff	0.18847655
159	0x3d4cc8d0	0.049996197
160	0xbd51bd37	-0.05120584
161	0xbdd94993	-0.10609736
162	0x39bef748	0.00036423863
163	0xbc38bed0	-0.011275962
164	0x3c93979a	0.018016625
165	0xbd60e0cf	-0.054901894
166	0xbc2ddbd1	-0.01061149
167	0xbe5ddde7	-0.2166668
168	0xbe77f28f	-0.24213623
169	0xbe05f53f	-0.13081835
170	0x3dfa965e	0.122357115
171	0x3de40e6f	0.111355655
172	0x3e01b528	0.12666762
173	0x3bf70f34	0.007539654
174	0x3d9bd23f	0.07608461
175	0xbe81840c	-0.25296056
176	0xbce5cb78	-0.028051123
177	0xbe3046a6	-0.1721445
178	0xbd8c7621	-0.06858469
179	0xbd84449c	-0.06458399
180	0xbd9f3924	-0.077745706
181	0x3de2a285	0.110661544
182	0x3d4f38e8	0.05059138
183	0xbe15b8dc	-0.146213
184	0x3e0cb2a7	0.13740025
185	0xbde13f52	-0.109984055
186	0xbe00d4b0	-0.12581134
187	0xbd8f80c4	-0.07006982
188	0xbdb9ecb0	-0.09078348
189	0x3d3db700	0.0463171
190	0xbc91fdef	-0.01782128
191	0x3e84f005	0.2596437
192	0x3d9753af	0.07389008
193	0xbe4aa96c	-0.19791192
194	0x3dac6fe9	0.08419783
195	0x3c08e6b1	0.008355782
196	0x3e16931e	0.14704558
197	0xbd996116	-0.07489221
198	0xbe72213a	-0.23645487
199	0xbe1e76cb	-0.15475003
200	0x3d0b101a	0.033950903
201	0xbda48575	-0.080332674
202	0xbde09417	-0.10965746
203	0xbe51dcc5	-0.20494373
204	0xbe122ff2	-0.14276102
205	0xbdf65271	-0.12027443
206	0x3e73a530	0.23793483
207	0xbe006ab8	-0.1254071
208	0xbc37189d	-0.011175302
209	0xbe3a4b21	-0.18192722
210	0xbe19eb80	-0.15031242
211	0x3b7a85f2	0.003822681
212	0xbe68678c	-0.2269575
213	0x3dc77f13	0.09741034
214	0x3d74d01d	0.059768785
215	0x3e0ef7bd	0.13961692
216	0x3da59338	0.080847204
217	0xbbf29f5a	-0.00740425
218	0xbdca3935	-0.098741926
219	0x3db96d1e	0.090540156
220	0xbd39c10b	-0.045350116
221	0xbd6eb743	-0.05828024
222	0x3c5453ac	0.012959402
223	0xbdbb5f57	-0.09149044
224	0x3dcadecb	0.09905776
225	0x3e32c29e	0.17457053
226	0x3e1167f4	0.14199811
227	0x3df3a021	0.118957765
228	0xbcc89bd9	-0.024488376
229	0xbe727700	-0.23678207
230	0x3dc4234a	0.09577043
231	0xbe029b81	-0.12754633
232	0x3d3a295f	0.04544961
233	0xbe082e71	-0.13298966
234	0x3e643175	0.22284491
235	0xbdd4acb0	-0.103845
236	0x3be8c4ed	0.0071035535
237	0xbe866bb4	-0.26254046
238	0xbe233b22	-0.15940526
239	0xbe6ccdf3	-0.23125438
240	0x3be6949e	0.0070367595
241	0xbc343016	-0.010997793
242	0xbe8cbba7	-0.27486917
243	0x3e0cc315	0.13746293
244	0x3e6fc1a1	0.23413707
245	0x3d37b289	0.044848
246	0x3e6b0088	0.22949421
247	0x3d9814ed	0.07425866
248	0x3dca0931	0.09865034
249	0xbd070318	-0.032961935
250	0x3e899709	0.26873043
251	0xbe846272	-0.25856358
252	0xbdc23a8a	-0.09483822
253	0xbc81a275	-0.015824536
254	0xbd768b90	-0.06019169
255	0x3d33b5e3	0.043874633

blinear1.bias f4 [512]
0	0xbe2110b5	-0.1572903
1	0xbe215327	-0.15754376
2	0x3da77b17	0.081777744
3	0x3e4e045c	0.2011885
4	0x3e5c489b	0.21512072
5	0x3dab0122	0.083498254
6	0x3e436b1d	0.19083829
7	0xbd0d1fa3	-0.034454
8	0xbe5b5f83	-0.21423154
9	0xbcc7e3cc	-0.024400614
10	0xbe26fa02	-0.16306308
11	0x3e25ee11	0.16204096
12	0xbe506ace	-0.20353243
13	0xbe071dce	-0.13194963
14	0x3d3e7bcc	0.04650478
15	0x3e1d65b0	0.15370822
16	0xbe3c5afb	-0.18394081
17	0x3e33ce41	0.17559148
18	0xbbf7a24a	-0.007557188
19	0x3e84fb9b	0.2597321
20	0xbd0f398b	-0.034966987
21	0xbe719273	-0.23591022
22	0x3da91b51	0.08257163
23	0xbe5a48c8	-0.21316826
24	0xbe4caf3f	-0.19988726
25	0x3d8a0360	0.06738925
26	0xbe66c829	-0.22537293
27	0x3da109e3	0.07863214
28	0xbd9bcac4	-0.07607034
29	0xbda0e717	-0.07856577
30	0x3e18a63b	0.14907162
31	0xbe21d678	-0.1580447
32	0x3d5fe6fe	0.05466365
33	0x3d6cd113	0.057816576
34	0xbd62313f	-0.055222746
35	0xbdfba764	-0.122877866
36	0xbe37fc34	-0.17967302
37	0xbe5c9038	-0.2153939
38	0x3d78c4a7	0.060734417
39	0x3db7bc76	0.08971493
40	0xbd655c38	-0.05599615
41	0x3d8d3bc4	0.06896165
42	0x3e065f55	0.13122304
43	0xbe4fb872	-0.20285204
44	0x3e7102b8	0.23536193
45	0xbe061de8	-0.13097346
46	0x3e81c980	0.25349045
47	0xbd2d12b2	-0.042254157
48	0x3dc8e4a2	0.09809233
49	0xbe438a42	-0.1909571
50	0xbd36c493	-0.04462106
51	0x3e0112c1	0.1260481
52	0x3ce1681e	0.027515467
53	0xbd0ab406	-0.03386309
54	0xbe7c8bc9	-0.24662699
55	0x3de9dbb3	0.114188574
56	0xbe53bf2d	-0.20678397
57	0xbdce46b1	-0.10072077
58	0x3dc3b450	0.09555876
59	0xbd50679e	-0.050880067
60	0x3e3d153f	0.18465136
61	0x3d8bb51c	0.06821653
62	0xbc68cedc	-0.014209475
63	0xbe24ce26	-0.16094264
64	0x3e8251e0	0.2545309
65	0x3bf69697	0.007525276
66	0x3d1168d9	0.03550038
67	0x3e06af87	0.13152896
68	0xbe4f571e	-0.20248076
69	0x3d49ce7c	0.049269184
70	0x3db8d3cb	0.09024771
71	0xbc31e10d	-0.010856879
72	0x3e596b12	0.2123225
73	0x3e353d4b	0.17699163
74	0x3e11979b	0.14217989
75	0x3e7d27ac	0.24722165
76	0x3e8b4199	0.27198485
77	0x3e6629dc	0.22476906
78	0x3c999592	0.018748078
79	0xbd36090a	-0.044442214
80	0x3e47496a	0.19461599
81	0xbe6e2305	-0.23255546
82	0x3e4a9e22	0.19786885
83	0xbdea8e87	-0.11452966
84	0xbc3c93e1	-0.011509866
85	0x3e6878ad	0.22702284
86	0xbe449086	-0.19195756
87	0x3e24b5cd	0.16084976
88	0xbd64d62a	-0.055868305
89	0xbdaebc18	-0.0853197
90	0x3e8cbd2e	0.27488083
91	0xbdeb3370	-0.1148442
92	0xbe56783c	-0.20944303
93	0xbe8393e8	-0.2569878
94	0x3e8af395	0.27138963
95	0xbe001677	-0.1250857
96	0xbe5aef88	-0.21380436
97	0xbe326720	-0.17422152
98	0xbe86d8d3	-0.263373
99	0x3e151938	0.14560401
100	0xbe83c3ba	-0.25735265
101	0xbe13a99d	-0.14420171
102	0xbcdbe61d	-0.026843125
103	0x3d42bdc9	0.047544274
104	0x3df15e1f	0.1178553
105	0x3e525601	0.2054062
106	0xbde41d24	-0.11138371
107	0xbe02c7ff	-0.12771605
108	0x3e74db8a	0.23911873
109	0xbc1347cb	-0.008989285
110	0x3cd174e0	0.025568426
111	0x3e8b6473	0.27225074
112	0xbe24c5c2	-0.16091064
113	0x3c883503	0.01662684
114	0x3e2c6521	0.16835453
115	0x3d3a00ad	0.0454108
116	0x3e8cc646	0.2749502
117	0x3dfe5ccf	0.124200456
118	0xbe626232	-0.22107771
119	0xbe2cbb21	-0.16868259
120	0xbe489034	-0.19586259
121	0x3e790b4f	0.2432072
122	0xbdfd6fb6	-0.12374823
123	0xbe61d0e6	-0.22052345
124	0xbe45cd8c	-0.19316691
125	0xbe804aa0	-0.25056934
126	0x3e732738	0.2374543
127	0x3e168861	0.14700462
128	0x3dc2b7fe	0.0950775
129	0x3db1d6db	0.086835586
130	0xbe64a3eb	-0.22328155
131	0x3e06e97e	0.13175008
132	0x3dc65c19	0.09685535
133	0xbe21fbda	-0.1581873
134	0x3e8aba5d	0.2709531
135	0x3e281364	0.16413647
136	0xbc1e647e	-0.009667514
137	0xbe85d420	-0.261384
138	0x3de380a8	0.111085236
139	0xbe885ce0	-0.26633358
140	0x3e8a2cb5	0.26987234
141	0xbe035bc3	-0.12827973
142	0xbdbf5f24	-0.093443185
143	0x3e8351d9	0.25648382
144	0x3d353e98	0.044249147
145	0xbb783256	-0.00378718
146	0xbdb5c499	-0.08875389
147	0x3c1e5733	0.009664345
148	0xbde997e2	-0.114059225
149	0x3e811f5a	0.25219232
150	0xbdffec9a	-0.124963
151	0xbe0050ca	-0.12530819
152	0xbe5f2c43	-0.21794228
153	0xbd5e35b5	-0.054250438
154	0xbc9f5910	-0.019451648
155	0xbcd79bf1	-0.026319476
156	0x3e83586e	0.25653404
157	0xbd4f9527	-0.050679352
158	0xbe6ebdc1	-0.23314573
159	0xbe4713c4	-0.19441134
160	0xbe862791	-0.26202062
161	0xbe41d6e3	-0.18929629
162	0xbcd52ec9	-0.026023285
163	0xbe294322	-0.16529515
164	0x3ddbb03d	0.10726974
165	0x3e014c61	0.12626792
166	0x3c11486e	0.008867366
167	0xbe8313fe	-0.2560119
168	0x3e8677a2	0.26263148
169	0x3d7196df	0.058981773
170	0xbccc47f3	-0.024936652
171	0x3e4fce49	0.20293535
172	0xbe49baf2	-0.1970022
173	0xbe81a6bf	-0.2532253
174	0xbd3e493e	-0.046456568
175	0x3d802812	0.06257643
176	0xbe058a0c	-0.13040942
177	0x3de27b04	0.110586196
178	0xbd460cc7	-0.04835203
179	0xbcd07b3b	-0.025449386
180	0x3e19d33f	0.1502199
181	0x3c93750b	0.018000146
182	0xbbefc1f7	-0.0073168236
183	0x3e8424d8	0.2580936
184	0x3e87f957	0.2655742
185	0xbe6f64c1	-0.23378278
186	0x3e0c0ae2	0.13676026
187	0xbe303b7b	-0.1721019
188	0x3d4ee85d	0.050514568
189	0x3e49fe94	0.1972602
190	0xbd321899	-0.04348049
191	0x3e4aed29	0.19817032
192	0xbe3c9dec	-0.18419617
193	0x3d4e8105	0.05041601
194	0x3e80d0dd	0.2515935
195	0xbe5d47cc	-0.2160942
196	0x3e369459	0.17830028
197	0x3e10f4c5	0.14155872
198	0xbe237007	-0.15960704
199	0xbd53577e	-0.05159711
200	0xbe165742	-0.14681724
201	0x3d222eeb	0.039595526
202	0xbe1f4378	-0.15553081
203	0xbe3fe927	-0.18741284
204	0xbddfcba7	-0.109275155
205	0xbdde7d1f	-0.10863709
206	0x3d81ca10	0.063373685
207	0xbcc42e47	-0.023947848
208	0x3e2d7201	0.1693802
209	0xbe658848	-0.22415268
210	0x3c5fe44c	0.01366527
211	0xbe51fbc3	-0.20506196
212	0xbe4426e4	-0.1915546
213	0x3e2ce817	0.1688541
214	0x3da38ecd	0.079862215
215	0xbe663d52	-0.2248433
216	0x3e3e87a5	0.18606432
217	0xbe8891c1	-0.266737
218	0xbade9a01	-0.0016983153
219	0xbe8899d0	-0.2667985
220	0x3dd52039	0.104065366
221	0x3dba8a9b	0.09108468
222	0x3db89ecf	0.09014665
223	0xbe200556	-0.15627035
224	0x3e36ed44	0.17863947
225	0xbd3b1eb8	-0.045683593
226	0x3dc67f09	0.09692199
227	0xbe315e67	-0.17321168
228	0x3e251f3e	0.16125199
229	0xbe8da295	-0.27663103
230	0xbdf0da95	-0.11760441
231	0x3e72e217	0.23719059
232	0x3ddcd752	0.107832566
233	0x3d1ed7e4	0.038780108
234	0x3e8dc9d2	0.2769304
235	0x3e50b091	0.20379855
236	0x3e17ab72	0.14811495
237	0xbe78891b	-0.24271052
238	0x3e40aee4	0.18816715
239	0xbdbe2130	-0.09283674
240	0x3d9f58be	0.07780598
241	0x3e015d1c	0.12633175
242	0xbcf7d298	-0.030251786
243	0x3e842006	0.25805682
244	0x3e0c4137	0.13696752
245	0xbd09f4d6	-0.03368076
246	0xbe3bba39	-0.18332757
247	0x3c8becf6	0.017080765
248	0x3d66ce07	0.056348827
249	0x3c584f3c	0.013202485
250	0xbdcfe1c7	-0.101504855
251	0x3d67bdf4	0.056577638
252	0x3e479a41	0.19492437
253	0xbe38bb73	-0.18040256
254	0x3d7206c9	0.059088502
255	0x3e3e373b	0.18575756

blinear2.weight f4 [1, 512]
0	0x3b72479e	0.0036968957
1	0x3d637536	0.055531703
2	0xbd2b1b60	-0.041774154
3	0x3d317549	0.043324742
4	0xbbabb20a	-0.00523973
5	0xbbe2c01f	-0.0069198753
6	0x3d9950fb	0.07486149
7	0x3d34a843	0.04410578
8	0xbd0925d6	-0.03348335
9	0x3cd300da	0.025757242
10	0xb7c5b998	-2.3570654e-05
11	0x3c5ee9b7	0.013605527
12	0x3b3b579f	0.0028586162
13	0xbbac7cec	-0.0052639153
14	0xbc87d561	-0.01658124
15	0x3d1e174e	0.038596444
16	0x3cc14faa	0.023597557
17	0x3cacd6de	0.02109855
18	0xbd21f504	-0.039540306
19	0x3c9a6929	0.018848972
20	0x3b850310	0.004059203
21	0xbcd6ad23	-0.026205605
22	0xbcecccb4	-0.028906204
23	0xbcb1b5c5	-0.02169312
24	0x3c125b65	0.008932923
25	0x3d8864cc	0.066598505
26	0xbbd5c67f	-0.0065239067
27	0xbcc5c645	-0.024142394
28	0x3bd99913	0.0066405623
29	0xbd17f9c2	-0.037103422
30	0x3d267498	0.040638536
31	0x3c2980e4	0.010345671
32	0xbcd19dda	-0.025587965
33	0x3c15047e	0.009095309
34	0x3d47d706	0.048789047
35	0x3d11ef82	0.035628803
36	0xbd23f55b	-0.04002891
37	0xbd6c7506	-0.05772879
38	0x3d22553f	0.03963208
39	0x3ca9ca57	0.020726366
40	0x3c04b3af	0.0080994805
41	0x3d351a77	0.044214692
42	0xbd463e5c	-0.048399314
43	0x3c538643	0.012910428
44	0xbbfbe6f0	-0.007687442
45	0x3bb74f7d	0.0055941925
46	0x3c429d29	0.01187829
47	0xbc1b6acb	-0.009485911
48	0xbcec2577	-0.028826458
49	0x3c293898	0.010328434
50	0xbc47c95e	-0.012194006
51	0x3d2412cf	0.040057
52	0xbc9ea46f	-0.019365517
53	0xbce1bfe4	-0.02755732
54	0x3cb292bc	0.021798484
55	0x3d738de3	0.059461486
56	0x3d23bb72	0.039973684
57	0x3c0212d6	0.007939061
58	0xbcfbb459	-0.030725645
59	0xbc2ebd4c	-0.010665249
60	0xbd25cd15	-0.040478785
61	0x3b2fa1b2	0.0026799259
62	0x3d02ae1e	0.031904332
63	0xbb8f3037	-0.0043697613
64	0x3c948117	0.018127961
65	0xbcaac5ae	-0.020846214
66	0xbc518ab4	-0.012789417
67	0xbbc9adac	-0.0061547365
68	0x3c490e54	0.0122714825
69	0x398e8ba9	0.00027188406
70	0xbd0b407a	-0.033997037
71	0xbd091c8b	-0.033474486
72	0x3c061391	0.008183376
73	0x3cbdddc6	0.023177039
74	0xbcfeabfd	-0.03108787
75	0x3bbaac2a	0.005696793
76	0x3ce24d9c	0.027624898
77	0x3b9d8103	0.004806639
78	0x3db0a687	0.086255126
79	0xbc955222	-0.01822764
80	0xbce816d4	-0.028331198
81	0x3d16812d	0.036744285
82	0xbd535105	-0.051590938
83	0xbb3d542b	-0.002888928
84	0x3ca0b9dc	0.019619875
85	0x3c3468b5	0.011011292
86	0x3ca6d63b	0.020365825
87	0xbcac60f8	-0.021042332
88	0x3cb0ca50	0.021580845
89	0x3b952fd2	0.0045528198
90	0x3d7f5f20	0.062346578
91	0xbcc3bc8d	-0.023893619
92	0xbcd1b79f	-0.025600253
93	0xbbf2c0e9	-0.0074082506
94	0x3c6f624a	0.014610836
95	0x3b6fddc7	0.0036600695
96	0x3cfffe0c	0.031249069
97	0xb954913d	-0.00020272001
98	0x3b9965dc	0.004681332
99	0x3c4c6dff	0.012477397
100	0xbc45518e	-0.01204337
101	0xbd2bb88b	-0.04192404
102	0x3c836699	0.016040133
103	0xbd178d8f	-0.037000235
104	0x3d1deae9	0.038554106
105	0x3cca3e89	0.024688022
106	0x3bf9d52e	0.00762429
107	0x3d400656	0.046881042
108	0x3d89b9e5	0.0672491
109	0xbb9448fb	-0.0045253015
110	0x3cb25ffb	0.021774283
111	0xbae63f0c	-0.0017566397
112	0x3c2d1c61	0.010565848
113	0xbc846116	-0.016159575
114	0x3c8eaa3b	0.017415157
115	0x3d242fea	0.040084757
116	0x3d343230	0.043993175
117	0x3cd1a904	0.025593288
118	0x3cb7dc7f	0.022444008
119	0xbc94ed31	-0.018179508
120	0x3d263e6c	0.040586874
121	0xbd401afa	-0.046900727
122	0xbb99c822	-0.004693047
123	0x3caf10a8	0.021370247
124	0x3d2cd18f	0.04219204
125	0x3cad951c	0.021189265
126	0x3d0c7ceb	0.03429882
127	0x3ca7af10	0.020469218
128	0x3d14e690	0.036352694
129	0x3beb8c2a	0.0071883397
130	0x3b8041a8	0.003914077
131	0x3d3d9099	0.046280477
132	0xbd268c25	-0.040660996
133	0xb7acf870	-2.0619686e-05
134	0x3c29e27b	0.010368939
135	0xbd3cdcf5	-0.04610916
136	0x3c213651	0.00983961
137	0x3ca71920	0.020397723
138	0x3d14912b	0.036271255
139	0xba47a8e0	-0.0007616412
140	0xbbad7342	-0.005293281
141	0xbc512986	-0.012766248
142	0x3cf6157a	0.030039538
143	0x3c8f7cb5	0.01751552
144	0x3d362263	0.044466387
145	0xbcba42b1	-0.022736879
146	0x39df2744	0.0004256313
147	0xbd1e41cc	-0.038636968
148	0xbd715214	-0.058916166
149	0xbd76a6a5	-0.06021752
150	0x3c91cdac	0.017798267
151	0xbc4c1468	-0.012456037
152	0x3d1e4da9	0.03864828
153	0x3c017054	0.007900316
154	0xbb96e016	-0.00460435
155	0xbd1af08b	-0.037827056
156	0x3bcf2f5d	0.006322785
157	0xbd72e951	-0.05930454
158	0xbc2522ea	-0.010079125
159	0x3ca21bf8	0.019788727
160	0xbd3557ca	-0.044273175
161	0x3be789d4	0.007065991
162	0x3d6f7e0e	0.058469824
163	0xbbdf5ce8	-0.006816495
164	0x3ba575d1	0.005049445
165	0x3c42f383	0.011898878
166	0xbc0fb03a	-0.008770043
167	0x3c7a5677	0.015279404
168	0xbd28149c	-0.04103528
169	0x3d825971	0.06364716
170	0xbd19dd98	-0.037564844
171	0x3d0d2d66	0.034467123
172	0xbbf2b9a9	-0.0074073863
173	0xbc7f69c0	-0.015589178
174	0xbc1b9077	-0.009494892
175	0x3cc4cd95	0.02402381
176	0xbd68ff11	-0.056883875
177	0xbcd8e2d3	-0.026475346
178	0x3b917670	0.0044391677
179	0x3c9a8828	0.018863752
180	0x3ca9ca35	0.020726303
181	0xbc35d47c	-0.0110980235
182	0xbd33564f	-0.043783482
183	0x3d74aeee	0.05973714
184	0xbd220499	-0.039555166
185	0xbcc064a5	-0.023485491
186	0x3c922088	0.017837778
187	0x3d40c2dc	0.047060832
188	0xbd1262a0	-0.035738587
189	0x3cca4398	0.024690434
190	0xbb1b156a	-0.0023663887
191	0x3c340995	0.010988613
192	0xbca0b608	-0.01961805
193	0x3bb44dc3	0.005502434
194	0xbcdb40d5	-0.026764313
195	0x3cb62738	0.022235498
196	0x3d207d2c	0.039181873
197	0x3d237432	0.039905734
198	0xbc98f7cb	-0.018672844
199	0x3c36163d	0.0111137
200	0x3d26a575	0.040685136
201	0xbcebe440	-0.028795362
202	0x3c5f9294	0.013645787
203	0x3ced7ed2	0.028991137
204	0x3c1d6c61	0.009608359
205	0x3c2fd440	0.010731757
206	0xbc916019	-0.017746018
207	0xbc6e29c4	-0.014536325
208	0xbccdcf55	-0.025123278
209	0x3c43c947	0.011949844
210	0xbd375103	-0.044754993
211	0x3ceb3d22	0.028715674
212	0x3d050a96	0.0324808
213	0xbd1036e3	-0.035208594
214	0xbd443416	-0.047901236
215	0xbcc857a7	-0.024455858
216	0xbc38a11b	-0.011268879
217	0x3c9b8f3a	0.018989194
218	0x3d32012e	0.043458156
219	0x3ce278f4	0.027645566
220	0x3c2fc071	0.010727034
221	0xbd08b2f2	-0.03337378
222	0xbca6b469	-0.020349698
223	0x3ce5798a	0.028012056
224	0x3b78e3fe	0.003797769
225	0xbcd88b05	-0.026433477
226	0xbcd47d58	-0.025938675
227	0x3cc2b99e	0.02377015
228	0xbd7a630f	-0.061129626
229	0xbcc331d7	-0.023827476
230	0x3c7395d4	0.014867265
231	0x3b85b6a6	0.0040806113
232	0xbd2830ec	-0.04106228
233	0x3c438b49	0.011935064
234	0xbd81b56f	-0.06333434
235	0xbd439927	-0.04775348
236	0xbcf746a1	-0.030185046
237	0xbd6fb98c	-0.05852656
238	0xbc194cc5	-0.009356682
239	0x3cb982d1	0.022645386
240	0xbc8535ed	-0.016261065
241	0x3c3f1bc8	0.011664338
242	0xbc69e824	-0.014276538
243	0xbd35844d	-0.044315625
244	0xbc60bb2c	-0.0137165
245	0x3be62fda	0.0070247473
246	0x3aae2e67	0.0013288975
247	0x3c900aa4	0.017583199
248	0x3d50a9a1	0.05094302
249	0xbb0fa58b	-0.002191874
250	0x3cff5d7f	0.031172512
251	0x3cdd0cf7	0.026983721
252	0x3c23a674	0.009988416
253	0x3d874018	0.06604022
254	0x3c800209	0.01562597
255	0x3da28811	0.07936109
