summit/benchmarks/models/reizman_suzuki_case_1/reizman_suzuki_case_1_predictor_4.pt (torch, 30487 bytes, 4 tensors)

input_layer.weight f4 [512, 11]
0	0x3e2c9fc8	0.16857827
1	0x3e8d28f8	0.2757032
2	0x3e2c9e54	0.16857272
3	0x3e5ece8f	0.21758483
4	0x3b57b3dc	0.00329136
5	0xbe052870	-0.13003707
6	0xba189246	-0.0005820136
7	0xbd5eee35	-0.05442639
8	0xbe6d5063	-0.23175196
9	0x3cd0d960	0.025494277
10	0x3d12c548	0.035832673
11	0x3db51348	0.08841568
12	0xbe68815e	-0.227056
13	0x3d66ca7f	0.05634546
14	0xbe5b4b87	-0.2141553
15	0xbd8c35d0	-0.068462014
16	0xbe8aab94	-0.2708403
17	0xbe8d233c	-0.27565944
18	0xbe825612	-0.2545629
19	0x3e8cbb04	0.27486432
20	0x3e761e85	0.2403508
21	0x3e1c9ab3	0.15293388
22	0x3b96cc52	0.0046019936
23	0xbd22ee53	-0.039778065
24	0xbe97ebf2	-0.296722
25	0xbe0837a6	-0.13302478
26	0xbe71d7dc	-0.236175
27	0xbe28c2cf	-0.16480564
28	0xbe891d87	-0.2678034
29	0x3e938b18	0.28817058
30	0xbe68d6f3	-0.22738247
31	0x3e0d2573	0.13783817
32	0xbe116f27	-0.14202558
33	0xbe9ea87d	-0.3098792
34	0xbd84e632	-0.06489219
35	0xbe1d408e	-0.15356657
36	0xbe4b2c9f	-0.1984124
37	0x3d358a9d	0.044321645
38	0x3e86ac22	0.26303202
39	0x3e042b63	0.12907176
40	0xbdc734ac	-0.09726843
41	0x3e03bbd9	0.12864627
42	0x3e554e1a	0.20830575
43	0xbe3dfb69	-0.18552937
44	0x3c37d41b	0.0112200035
45	0xbe2befc1	-0.16790678
46	0x3e846bfe	0.25863642
47	0xbe6036ec	-0.21895951
48	0xbe79eca2	-0.24406675
49	0xbe810e53	-0.2520624
50	0x3e255182	0.16144374
51	0x3e027d2e	0.12743065
52	0x3e707f0f	0.23485969
53	0x3e7eefd2	0.24896172
54	0xbd8de76a	-0.06928904
55	0xbe9740cf	-0.29541633
56	0xbe3a50c1	-0.18194868
57	0x3d943d36	0.072382376
58	0x3e0589ea	0.13040891
59	0x3e992267	0.2990906
60	0xbdb010b1	-0.08596934
61	0x3e871904	0.26386273
62	0x3e8d332d	0.27578107
63	0xbe03f380	-0.12885857
64	0xbe73625c	-0.2376799
65	0x3e1bc771	0.152128
66	0xbcd83240	-0.026391149
67	0x3d0ae44f	0.03390914
68	0x3d09dc61	0.033657435
69	0xbe1f506c	-0.15558022
70	0x3d4acc1b	0.049511056
71	0xbe59683c	-0.21231169
72	0xbdb4b5ae	-0.08823715
73	0xbdc53fe6	-0.09631328
74	0xbe991a5c	-0.29902923
75	0xbe44246b	-0.19154517
76	0xbe4466a1	-0.19179775
77	0xbd6fc18e	-0.058534198
78	0x3e485d7e	0.19566914
79	0x3e724cb7	0.23662077
80	0xbe256dc2	-0.1615515
81	0x3e1777cd	0.14791794
82	0xbe8d6951	-0.27619413
83	0x3d6bfd50	0.057614625
84	0x3e82a1ed	0.25514165
85	0x3b39ce99	0.0028351902
86	0x3d452419	0.04813013
87	0xbe9525dc	-0.29130447
88	0xbe1e670b	-0.15468995
89	0xbe8f29da	-0.27961618
90	0x3e8f4c78	0.2798803
91	0xbd83d69f	-0.0643742
92	0xbd020d70	-0.031751096
93	0xbe91156a	-0.2833665
94	0x3e88052e	0.26566452
95	0x3e230eb8	0.15923584
96	0x3da4f30c	0.0805417
97	0x3d7c4044	0.061584726
98	0x3dcc71ba	0.09982629
99	0xbe3b7405	-0.18305977
100	0x3e5550f8	0.20831668
101	0xbe8a93e9	-0.27065971
102	0xbe914574	-0.283733
103	0x3d87a0b3	0.06622448
104	0x3e819ec5	0.25316444
105	0x3e6e1e9b	0.23253863
106	0xbe71565b	-0.23568098
107	0xbe80a233	-0.25123748
108	0x3e88536b	0.26626143
109	0x3dd2b3cf	0.10288202
110	0xbe792b16	-0.24332842
111	0xbe396b5d	-0.18107362
112	0xbe06a227	-0.13147794
113	0x3aa42268	0.0012522461
114	0x3e740240	0.23828983
115	0x3da2626f	0.07928931
116	0xbe23a09c	-0.15979236
117	0x3e2e3cd3	0.1701539
118	0x3e1be13a	0.15222636
119	0xbe8fc95f	-0.2808332
120	0x3e48049d	0.1953301
121	0x3e366cdd	0.17814966
122	0x3e8cb452	0.27481323
123	0xbe92685f	-0.28595254
124	0xbe0525e5	-0.13002737
125	0xbe606741	-0.21914388
126	0x3e44cade	0.19218013
127	0xbe904bb0	-0.28182745
128	0x3dc52408	0.09626013
129	0x3c25b585	0.010114078
130	0xbbbe9a0e	-0.0058167046
131	0x3e8b1a4a	0.27168494
132	0xbe31dd2d	-0.17369528
133	0xbe02bda6	-0.12767658
134	0xbe74e2a7	-0.23914586
135	0xbcb07f84	-0.02154518
136	0xbe954203	-0.29151925
137	0x3cab0516	0.020876449
138	0x3e73e0a2	0.2381616
139	0xbe7e0f3f	-0.24810503
140	0xbe38b7c0	-0.18038845
141	0xbdeeb6d8	-0.116559684
142	0xbdd03b4f	-0.10167562
143	0xbe1d9015	-0.15386994
144	0xbbafffcc	-0.0053710695
145	0xbe6427bc	-0.22280782
146	0xbc7b170f	-0.015325322
147	0x3dcf71e5	0.101291455
148	0x3e1267df	0.14297436
149	0xbc3b9cc9	-0.011450955
150	0x3d9a752d	0.07541881
151	0xbcda3f87	-0.02664162
152	0x3e91f175	0.2850453
153	0x3d66fad2	0.056391545
154	0x3d8a8235	0.06763116
155	0x3c2389bb	0.009981568
156	0x3d510ab3	0.051035594
157	0x3e175b4a	0.14780918
158	0x3daf7c90	0.0856868
159	0xbe7f1938	-0.24911964
160	0x3e575ecb	0.21032254
161	0xbe1ba625	-0.15200098
162	0x3e9082ec	0.28224885
163	0x3dcb3970	0.09923065
164	0x3e732f04	0.23748404
165	0x3e916e20	0.2840433
166	0xbd6f10cf	-0.05836564
167	0x3e30e700	0.1727562
168	0x3e815fbb	0.2526835
169	0x3e9692f0	0.2940898
170	0x3e27cbc2	0.16386321
171	0x3d8514c5	0.06498102
172	0xbe18d375	-0.14924414
173	0x3e01d9cd	0.1268074
174	0xbe2acc84	-0.16679579
175	0xbe0849db	-0.13309424
176	0xbd26958e	-0.04066997
177	0x3e83bdfd	0.25730887
178	0xbe74647a	-0.23866454
179	0xbe11c20b	-0.14234178
180	0x3c8fc0c9	0.017547982
181	0x3db80e48	0.08987099
182	0x3dd77cc0	0.10521841
183	0x3e0008da	0.12503377
184	0xbe91d11e	-0.28479856
185	0x3e70bd15	0.23509629
186	0xbd707671	-0.058706705
187	0xbe32472b	-0.17409961
188	0x3dfa0199	0.12207336
189	0xbe4afd04	-0.1982308
190	0xbe16a238	-0.14710319
191	0x3df8a46f	0.12140738
192	0x3b9594e5	0.0045648688
193	0x3e982ac2	0.29720122
194	0x3e4f867e	0.20266148
195	0x3e54627b	0.20740692
196	0x3e5dc6df	0.21657895
197	0xbde7ce81	-0.11318684
198	0x3d2f2df5	0.042768437
199	0x3e23528b	0.15949456
200	0xbe5f29bf	-0.21793269
201	0xbe1913a2	-0.14948896
202	0xbdb0378c	-0.08604345
203	0xbc593109	-0.01325632
204	0x3d3353bd	0.04378103
205	0x3d6209e8	0.05518523
206	0x3e5d0b4d	0.21586342
207	0x3e895adc	0.26827133
208	0xbda0f95f	-0.07860064
209	0x3e4e7e97	0.20165478
210	0xbe8271e6	-0.25477523
211	0x3d05e0ea	0.032685198
212	0xbe95cb9c	-0.29256904
213	0x3e2d605b	0.16931288
214	0xbe67d034	-0.22638017
215	0xbe8307c5	-0.25591865
216	0xbe97c772	-0.29644352
217	0xbe2ad1a2	-0.16681531
218	0x3dd4211a	0.10357876
219	0xbe63c6a2	-0.22243741
220	0x3e219ef3	0.1578329
221	0xbd72b464	-0.059254065
222	0x3e896c52	0.26840454
223	0xbe7e2243	-0.24817757
224	0xbd956b91	-0.07295907
225	0xbe59c9c9	-0.21268381
226	0xbe9108bc	-0.28326976
227	0xbd1a8784	-0.037726894
228	0xbe5b6013	-0.21423368
229	0x3e60f9be	0.21970269
230	0x3cf573d8	0.029962465
231	0x3e69b056	0.22821173
232	0x3d1bc338	0.038027972
233	0xbd710d7d	-0.058850754
234	0x3e2bf350	0.16792035
235	0x3e5e3570	0.21700072
236	0x3e32d112	0.17462566
237	0xbd52c197	-0.051454153
238	0xbdbfe350	-0.09369528
239	0xbe805818	-0.2506721
240	0xbdf68fd2	-0.1203915
241	0x3c7f1dc5	0.015571062
242	0xbe2cfcaf	-0.16893266
243	0x3cca7e87	0.024718536
244	0xbe82641c	-0.25467002
245	0x3d766cc6	0.06016233
246	0xbe87fa00	-0.26557922
247	0x3e4b0310	0.19825387
248	0x3e34267b	0.17592804
249	0x3ca71bec	0.020399056
250	0xbe16bb2b	-0.14719836
251	0xbd35dcce	-0.04440003
252	0xbe9181fa	-0.28419477
253	0x3e855f92	0.26049477
254	0x3e4fac23	0.20280509
255	0x3e398dcb	0.18120496

input_layer.bias f4 [512]
0	0xbc98dd8f	-0.018660335
1	0x3e903b46	0.28170222
2	0x3d542abd	0.05179857
3	0x3e2476f2	0.16060999
4	0xbe5cb9c7	-0.21555243
5	0x3e04c31b	0.12965052
6	0x3d5a66af	0.053320583
7	0x3e94cd1c	0.29062736
8	0xbe2d8796	-0.16946253
9	0x3d8d25f1	0.068920024
10	0x3dab92c1	0.083776005
11	0xbe8d350f	-0.27579543
12	0xbe5293e6	-0.20564231
13	0x3e24ed4f	0.16106151
14	0x3e8e648b	0.27811083
15	0xbe4c54f5	-0.19954284
16	0xbe01b6bc	-0.12667364
17	0x3da1070b	0.078626715
18	0x3ccb36d6	0.024806421
19	0xbe987b27	-0.29781458
20	0xbe241e5b	-0.16027205
21	0xbdf2c046	-0.118530795
22	0xbe7493d4	-0.23884517
23	0x3e1e0bb0	0.15434146
24	0x3dcf1b58	0.10112637
25	0x3e29f5a4	0.1659761
26	0xbe07a991	-0.13248278
27	0xbe029779	-0.12753095
28	0xbe7d328f	-0.24726318
29	0xbe5287a8	-0.20559561
30	0x3d58cff7	0.052932706
31	0xbbb96bba	-0.005658594
32	0xbe938543	-0.28812608
33	0x3e25e66b	0.16201179
34	0xbdd44211	-0.10364164
35	0xbe4e922b	-0.20172946
36	0x3ce3cb0b	0.02780678
37	0x3e62d49b	0.22151415
38	0xbe5e3b0f	-0.21702217
39	0xbe9ebc21	-0.31002906
40	0x3d48bbd5	0.049007256
41	0x3e4228fe	0.1896095
42	0x3e577baa	0.21043268
43	0x3c0bb2f3	0.008526552
44	0xbe02b652	-0.12764862
45	0x3e91b35d	0.28457156
46	0xbd99da6b	-0.07512363
47	0xbad097af	-0.0015914346
48	0x3e94eb2b	0.2908567
49	0xbe1f5790	-0.15560746
50	0x3df1c5de	0.11805318
51	0xbe1558ec	-0.14584702
52	0x3dc32287	0.0952807
53	0x3e4c7d1c	0.199696
54	0xbe8a2e22	-0.26988322
55	0x3e62bdf2	0.22142771
56	0xbe71f065	-0.2362686
57	0x3dd69b3b	0.104788266
58	0xbe1d654f	-0.15370677
59	0xbe38d9a7	-0.18051778
60	0x3e58f575	0.21187384
61	0xbe0cd607	-0.1375352
62	0x3e96b199	0.2943237
63	0x3ddb8efb	0.10720631
64	0xbd8f15ee	-0.06986605
65	0x3da4caeb	0.08046516
66	0x3e0c3140	0.13690662
67	0x3dc2df67	0.09515267
68	0xbd95acfd	-0.073083855
69	0xbe0ea7b7	-0.13931166
70	0x3e82de42	0.25560194
71	0x3e3ac564	0.18239361
72	0x3df14f32	0.117826834
73	0xbd1a2647	-0.03763416
74	0xbd1e738e	-0.03868442
75	0x3c48e335	0.012261202
76	0xbe8b6381	-0.27224353
77	0x3e82c642	0.25541884
78	0xbc060834	-0.008180667
79	0x3e6caf07	0.23113643
80	0x3e78627d	0.2425632
81	0x3db98d1e	0.09060119
82	0xbe311fcf	-0.1729729
83	0x3e70a210	0.23499322
84	0x3e834bab	0.25643668
85	0x3e7f7538	0.24947059
86	0xbe60fda9	-0.21971764
87	0x3debfd74	0.11522952
88	0xbe2a5ff4	-0.16638166
89	0xbe901ed7	-0.2814853
90	0x3e59b615	0.21260865
91	0xbe5ea276	-0.21741661
92	0x3b5d2d87	0.003374906
93	0xbd4219f2	-0.047388025
94	0xbe21122b	-0.15729587
95	0xbe2f92c9	-0.17145838
96	0xbddbd06b	-0.10733112
97	0x3ddf4dc6	0.10903506
98	0x3e8cfc42	0.27536207
99	0xbe25cefb	-0.16192238
100	0xbdbccc01	-0.09218598
101	0x3dc37955	0.095446266
102	0x3e40a98b	0.18814676
103	0xbcf9633c	-0.030442826
104	0xbdf54876	-0.119767115
105	0xbe63f895	-0.22262795
106	0x3e25bcd8	0.1618532
107	0x3d296ce2	0.041363604
108	0x3e88357a	0.266033
109	0x3e8058f0	0.25067854
110	0x3de97576	0.11399357
111	0x3e8c3a46	0.2738821
112	0x3e6f920f	0.2339556
113	0xbd8ad421	-0.06778742
114	0x3e232959	0.15933742
115	0xbd96d8eb	-0.073655926
116	0x3d96089c	0.07325861
117	0x3e27ad4c	0.16374701
118	0x3d0040af	0.031311687
119	0x3e8f1f7a	0.27953702
120	0xbd816392	-0.0631782
121	0x3cbf1fdf	0.023330627
122	0xbc9a78a3	-0.018856352
123	0xbd76acb3	-0.060223293
124	0xbe8367a5	-0.25665012
125	0x3e7814ef	0.24226736
126	0x3d918965	0.07106284
127	0x3e40dcda	0.18834248
128	0xbdd4085b	-0.10353156
129	0xbe1ff501	-0.15620805
130	0xbe9309af	-0.28718325
131	0xbdb0363b	-0.08604094
132	0xbe30a6df	-0.17251156
133	0xbe2a1e46	-0.16613111
134	0xbde9a959	-0.114092536
135	0xbc051135	-0.008121778
136	0xbe530ef1	-0.20611168
137	0xbd80357b	-0.062602006
138	0x3e8a4abc	0.27010143
139	0x3e51cdb2	0.20488623
140	0x3cff9716	0.031199973
141	0x3d36037e	0.044436924
142	0x3e8fbe31	0.28074792
143	0x3da60fd1	0.081084855
144	0x3def0ff6	0.11672966
145	0xbe7ea805	-0.24868782
146	0x3dcf1ec8	0.10113293
147	0xbd8136b8	-0.06309265
148	0x3e5cb045	0.21551616
149	0xbe88259c	-0.26591194
150	0x3c629ec3	0.013831797
151	0x3deedfe3	0.11663797
152	0x3e9b4028	0.30322385
153	0xbe3c0ebd	-0.18364997
154	0x3e96637d	0.2937278
155	0xbe380d92	-0.17973927
156	0xbe91aab9	-0.28450564
157	0x3e0965eb	0.13417785
158	0x3a31ffc1	0.00067901245
159	0xbdac5f44	-0.08416608
160	0x3dff6e0f	0.12472164
161	0x3d1b2b07	0.03788283
162	0x3e79684b	0.24356191
163	0x3dd24d08	0.10268599
164	0x3e52c3c3	0.2058249
165	0x3d9451d3	0.07242169
166	0x3e741469	0.23835911
167	0x3d84c863	0.06483533
168	0xbdf4cfd0	-0.119536996
169	0x3dc15215	0.09439484
170	0x3e8dbeee	0.2768473
171	0xbdd3d61d	-0.10343573
172	0xbd9f5c6f	-0.07781302
173	0xbe1700b5	-0.14746363
174	0x3e623a4a	0.22092548
175	0x3e01a270	0.12659621
176	0xbe1f53cb	-0.15559308
177	0xbc323996	-0.010877987
178	0x3d97c933	0.074114226
179	0x3e8fa03d	0.2805194
180	0xbe0a3241	-0.13495733
181	0xbddbecef	-0.10738551
182	0x3d8d299c	0.06892702
183	0xbe839c4c	-0.25705183
184	0x3e6837d3	0.22677545
185	0x3e7c6a4b	0.24649923
186	0xbe087109	-0.1332437
187	0x3e779fdf	0.2418208
188	0x3e980519	0.2969139
189	0x3e8c4f75	0.2740437
190	0xbe7f33a6	-0.24922046
191	0xbe78f8a5	-0.243136
192	0xbdef7ef7	-0.116941385
193	0x3db6b5bd	0.089213826
194	0x3e8d8706	0.27642077
195	0xbcd7526a	-0.026284415
196	0x3d9d51a8	0.0768159
197	0x3e565dec	0.20934266
198	0xbe0328cb	-0.1280853
199	0xbc956d6b	-0.018240651
200	0x3e8a742c	0.27041757
201	0xbcbf08b1	-0.023319574
202	0xbe96ede7	-0.2947838
203	0x3e811447	0.25210783
204	0xbe8e551a	-0.27799302
205	0xbe3a576e	-0.18197414
206	0x3d5d231f	0.053988572
207	0xbe6bca81	-0.23026468
208	0xbe2d2e96	-0.16912302
209	0xbe75c29b	-0.24000017
210	0xbe01d054	-0.12677127
211	0x3e5edd79	0.21764173
212	0x3d2914e1	0.041279677
213	0xbdbe54fa	-0.09293552
214	0x3e190b0d	0.14945622
215	0xbe9afd18	-0.3027122
216	0x3dda1b8b	0.10649785
217	0xbdd5f8e2	-0.10447861
218	0xbdacefe1	-0.08444191
219	0x3ceffebf	0.029296277
220	0xbe083cdc	-0.13304466
221	0x3e339f88	0.17541325
222	0xbd4a398d	-0.04937129
223	0xbca9030a	-0.020631332
224	0x3e948d0c	0.2901386
225	0x3d1c4a0c	0.038156554
226	0x3e790b29	0.24320664
227	0x3d1f5591	0.03889996
228	0x3e12033b	0.14259045
229	0xbe953e3a	-0.29149038
230	0xbe51d565	-0.2049156
231	0x3e067f54	0.1313451
232	0x3da28343	0.079351924
233	0x3e7714ad	0.24128981
234	0x3db143ba	0.08655496
235	0xbe49b858	-0.19699228
236	0xbe69ca20	-0.22831011
237	0xbe461b2d	-0.19346304
238	0x3cf3cac2	0.029759768
239	0x3e3bd82c	0.18344182
240	0xbdaac195	-0.08337704
241	0x3d02ebb6	0.031963073
242	0x3df3401d	0.11877463
243	0x3e6c7509	0.2309152
244	0xbe38b3de	-0.18037364
245	0x3e3bb142	0.18329337
246	0xbe880669	-0.2656739
247	0xbe2c4440	-0.1682291
248	0xbe8cc86a	-0.27496654
249	0xbe4b1a1d	-0.1983418
250	0x3e3e7311	0.18598582
251	0xbe0fed44	-0.14055353
252	0x3e508958	0.20364892
253	0x3e976c3b	0.2957476
254	0x3e3c029c	0.1836037
255	0xbde692c5	-0.11258463

output_layer.weight f4 [2, 512]
0	0x3c6c3455	0.014416774
1	0xbd3aba78	-0.045587987
2	0x3d836b07	0.06416898
3	0xbc9718ea	-0.018444497
4	0xbcb59f7a	-0.02217077
5	0x3c9df508	0.019281879
6	0x3cf87a1e	0.030331668
7	0x3bff5822	0.0077924887
8	0x3d284644	0.041082636
9	0xbd9dc2a1	-0.07703138
10	0xbd8fc6eb	-0.070203625
11	0x3e01eb23	0.12687354
12	0x3d9b48a2	0.07582213
13	0x3b7428cb	0.003725576
14	0xbc7f4996	-0.015581509
15	0xbd3aef1b	-0.045638185
16	0x3d96c1b7	0.07361167
17	0xb4f52f64	-4.5669287e-07
18	0x3b8d1125	0.0043050223
19	0x3d2b0c79	0.04175994
20	0x3c7e3561	0.015515656
21	0x3c694b82	0.014239194
22	0x3d138c2b	0.036022346
23	0xbd3a5aad	-0.04549663
24	0xbd34d9f2	-0.04415316
25	0xbd0efc6c	-0.034908697
26	0xbc467396	-0.012112519
27	0x3b3bd754	0.002866228
28	0xbd0a4623	-0.033758294
29	0xbb86f490	-0.0041185096
30	0xbb988b45	-0.004655274
31	0xbd53db77	-0.05172297
32	0xbd7ca5d7	-0.061681595
33	0xbc9eb536	-0.019373517
34	0xbd24de21	-0.0402509
35	0xbd42c7a6	-0.04755368
36	0x3dc38016	0.09545915
37	0xbcff352c	-0.031153284
38	0x3c097e79	0.00839197
39	0xbcf3d0b4	-0.029762603
40	0xbc82f68b	-0.015986701
41	0xbc3cd480	-0.011525273
42	0x3df089ef	0.11745059
43	0x3cd63cfd	0.026152128
44	0xbd1aed06	-0.0378237
45	0xbdd1e2e2	-0.102483526
46	0xbd25f791	-0.0405193
47	0x3d21ff9c	0.03955041
48	0x3cf602bf	0.030030606
49	0xbccea878	-0.025226817
50	0x3d95d58a	0.0731612
51	0xbc506e4b	-0.012721608
52	0x3d82cf9e	0.06387256
53	0xbd60ae35	-0.054853637
54	0x3c735915	0.014852782
55	0xbd15ff3d	-0.036620367
56	0xbd330e88	-0.04371503
57	0xbc07155d	-0.0082448395
58	0xbcea10c1	-0.028572442
59	0x3da3218f	0.07965385
60	0xbd0c1190	-0.034196436
61	0x3b30948b	0.0026944007
62	0xbcf8a9d6	-0.030354422
63	0xbd0d8436	-0.034549914
64	0xbc861465	-0.016367147
65	0x3d273ca8	0.04082933
66	0x3d41660d	0.047216464
67	0x3d821cee	0.06353174
68	0xbd19618c	-0.037446544
69	0x3c785b7b	0.015158529
70	0xbafc0749	-0.0019228245
71	0x3d821263	0.06351163
72	0x3d053e92	0.032530375
73	0x3c0d452a	0.008622447
74	0xbca00b34	-0.019536592
75	0xbd62c5bd	-0.05536436
76	0xbc7dc001	-0.015487672
77	0xbd7b832d	-0.061404396
78	0xbd0d227a	-0.034456708
79	0x3d8da4a2	0.06916167
80	0x3d7ca696	0.061682306
81	0xbc979298	-0.018502519
82	0xbcd6977f	-0.026195286
83	0xbc5f0fdb	-0.01361462
84	0xbcd83801	-0.026393892
85	0xbd9a8023	-0.075439714
86	0xbcaee2a8	-0.021348312
87	0x3c9e3566	0.019312572
88	0x3e030f31	0.12798764
89	0x3cd5ccc0	0.026098609
90	0x3c8d3985	0.017239342
91	0xbcbdafb7	-0.023155076
92	0x3bdfa823	0.0068254634
93	0x3c9c3e28	0.019072607
94	0x3db08033	0.08618202
95	0x3cbfe48b	0.023424407
96	0x3cedfb73	0.029050564
97	0xbb251502	-0.0025189524
98	0x3c7ed36f	0.015553339
99	0x3c61a895	0.013773103
100	0xbc5125f5	-0.012765397
101	0x3d99ac23	0.075035356
102	0x3c44c095	0.012008806
103	0xbcce1b2f	-0.025159447
104	0x3bd826a9	0.0065964055
105	0x3d61608c	0.055023715
106	0xbc6b023a	-0.014343793
107	0x3cb36d0b	0.021902582
108	0x3ce94b17	0.028478188
109	0xbcdf4f35	-0.027259449
110	0xbd9bb648	-0.07603127
111	0xbd21cbc6	-0.039500974
112	0x3cd3d46e	0.02585813
113	0x3c28d83b	0.01030546
114	0xbcd381b1	-0.025818678
115	0x3dc222bf	0.094792835
116	0xbc8c8a17	-0.01715569
117	0xbd00d80c	-0.03145604
118	0x3c1520fb	0.009102101
119	0x3c6ce289	0.014458307
120	0xbc4284ae	-0.011872454
121	0x3d0ab05c	0.033859596
122	0xbcb4da4c	-0.022076748
123	0xbd3396c0	-0.04384494
124	0x3d3b7812	0.045768805
125	0xbc720b11	-0.014773146
126	0x3cd7ac10	0.026327163
127	0x3c38df4d	0.011283708
128	0x3d78b846	0.06072261
129	0xbd1805a1	-0.037114743
130	0xbd101f94	-0.035186365
131	0xbc8adb66	-0.01695032
132	0x3ceb1514	0.028696574
133	0xbc56aae0	-0.013102263
134	0xbdbd897b	-0.09254738
135	0x3c896da5	0.016775915
136	0xbb223928	-0.0024753306
137	0xbca5b294	-0.020226754
138	0x3dcf0b60	0.101095915
139	0x3cd7a6a3	0.026324576
140	0x3d1e4894	0.038643435
141	0xbcf50cab	-0.029913267
142	0xbd414698	-0.047186464
143	0x3d5b7df4	0.053586915
144	0xbd964251	-0.073368676
145	0x3e20568c	0.15658015
146	0x3b8336c3	0.004004331
147	0xbc3ff428	-0.011715926
148	0x3cb8b327	0.022546364
149	0x3bf15c63	0.0073657497
150	0xbd38a1e8	-0.04507628
151	0x3ce0d344	0.02744449
152	0xbc031dff	-0.008002757
153	0x3d8d43eb	0.0689772
154	0xbdbfb864	-0.093613416
155	0xbd0b449a	-0.03400097
156	0x3ce10b0c	0.027471088
157	0x3c5b4e77	0.013385407
158	0x3cda1544	0.026621468
159	0x3cb14a6e	0.021641936
160	0xbc943b65	-0.018094728
161	0xbbac6bee	-0.0052618897
162	0x3db930c4	0.090425044
163	0x3b7fb9d7	0.0039020681
164	0x3c8dae04	0.017294891
165	0x3c0fdd8f	0.008780851
166	0xbd2d6144	-0.042329088
167	0xbd93b18c	-0.07211599
168	0xbd9578d8	-0.0729844
169	0xbd57cdc4	-0.052686468
170	0xbc2f3bfe	-0.010695456
171	0x3c808f7a	0.015693415
172	0x3c688cfb	0.014193769
173	0x3d30cbc2	0.04316307
174	0x3b39c86e	0.0028348225
175	0x3c8af614	0.016963042
176	0x3c89fe2c	0.016844831
177	0x3ce9add2	0.028525267
178	0xbb75e3b0	-0.0037519746
179	0xbd83ca52	-0.06435074
180	0x3d57aed8	0.05265698
181	0x3b303631	0.002688777
182	0x3cb48fe3	0.022041267
183	0x3cd97bed	0.02654835
184	0xbdb73c45	-0.089470424
185	0xbdfd7bff	-0.12377166
186	0xbb0040c1	-0.0019569846
187	0x3d05a781	0.032630447
188	0xbd3084bc	-0.043095335
189	0xbb99bf09	-0.0046919626
190	0xbd2349d7	-0.03986534
191	0x3ce3ba82	0.027798895
192	0xbdadca9f	-0.084859125
193	0xbd471c1a	-0.048610784
194	0x3c6318a0	0.0138608515
195	0x3d4916f3	0.04909415
196	0xbc9905a2	-0.018679444
197	0x3cc51a84	0.024060495
198	0x3d01841e	0.031620137
199	0xbc719395	-0.014744659
200	0xbdcad180	-0.0990324
201	0xbd3aa167	-0.04556408
202	0xbcf500c8	-0.0299076
203	0x3bfb7ec4	0.0076750237
204	0xbd2c1cef	-0.04201978
205	0xbb1e9e5e	-0.002420328
206	0xbdbffe2b	-0.093746506
207	0x3d01862b	0.031622093
208	0x3cbb69bc	0.022877567
209	0x3b274fdd	0.002552978
210	0xbdd2fd22	-0.103021875
211	0xbc823c9a	-0.015898038
212	0x3bb95030	0.005655311
213	0x3cc1ba35	0.02364836
214	0xbd1ce2fe	-0.038302414
215	0x3c572a61	0.0131326625
216	0xbd616e03	-0.055036556
217	0xbbf7d017	-0.007562648
218	0xbcc9ab1d	-0.024617726
219	0x3cbe3884	0.023220308
220	0x3dcc2607	0.09968191
221	0xbc2a669d	-0.0104004415
222	0xbda7f8c6	-0.08201747
223	0xbbcfd18e	-0.0063421195
224	0x3be6793a	0.0070334943
225	0xbd830871	-0.063980944
226	0xbd5e0bde	-0.054210536
227	0x3d902f1c	0.070402354
228	0xbc6dc7b1	-0.014512942
229	0xbda93b5d	-0.08263276
230	0xbaf32e13	-0.001855316
231	0xb99fb929	-0.00030464798
232	0xbd2b992d	-0.041894127
233	0x3d4b668b	0.04965834
234	0xbc32d632	-0.010915326
235	0x3c551b9b	0.01300707
236	0x3d6d4338	0.057925433
237	0x3e0570e1	0.13031341
238	0x3d4c6c8b	0.049908202
239	0x3d1ef8fe	0.038811676
240	0xbd4479fd	-0.0479679
241	0xbd0b1430	-0.0339548
242	0xbd618c34	-0.05506535
243	0xbd484889	-0.0488973
244	0xbc236867	-0.009973622
245	0x3d033448	0.03203228
246	0x3ceef10d	0.029167676
247	0xbd3df7de	-0.046378963
248	0x3d2e2c12	0.042522497
249	0x3b34d63f	0.002759352
250	0xbc5463d3	-0.012963253
251	0x3d3e6b62	0.046489127
252	0x3bec9f71	0.0072211553
253	0xbdc9b176	-0.09848301
254	0xbb2e80f3	-0.0026627153
255	0xbd4e05e4	-0.050298586

output_layer.bias f4 [2]
0	0xbc9a1c73	-0.018812394
1	0x3c80c627	0.015719486
