summit/benchmarks/models/reizman_suzuki_case_1/reizman_suzuki_case_1_predictor_0.pt (torch, 30487 bytes, 4 tensors)

input_layer.weight f4 [512, 11]
-0.26676962 -0.09246715 0.20651937 -0.023043195 0.13806021 0.05321503 -0.29412663 0.0897271
0.086034454 -0.2510354 -0.14866987 0.10393963 0.17144184 -0.27688205 -0.099114895 -0.19316626
0.13116236 -0.24795924 0.1631915 0.020515842 0.28738233 -0.26319674 0.28747725 0.037001625
0.3067923 0.25592625 0.0018307264 -0.23718849 -0.09426874 0.042314712 -0.09850633 0.1330142
-0.21237972 0.04376834 -0.27995247 -0.26971927 -0.04862167 -0.12800409 -0.21067351 -0.24257484
0.11310569 -0.06828727 -0.27423683 -0.077687785 0.08678017 0.067051485 0.1517744 0.08690108
-0.2804539 -0.05610871 -0.21801922 0.24163096 -0.24690391 -0.05025272 0.08796331 0.17770429
0.15931232 -0.09369918 0.15789074 0.1484786 0.24951768 0.1088926 -0.19238491 -0.12564851
0.20439059 -0.14790095 -0.25079402 -0.14907946 -0.2629185 0.175146 0.28577432 0.085225604
-0.10866172 0.05983215 0.09907021 -0.19884315 -0.1777158 0.10324639 -0.15334491 -0.123066425
0.23494893 -0.09192419 0.26755705 -0.09959126 0.18412764 0.10608036 -0.087023124 -0.22585517
0.05912249 0.0721336 0.11996894 0.056699745 0.26173687 -0.2628789 0.28183642 0.021886012
-0.2512224 0.09659732 0.10543226 0.07454441 0.19914304 0.008058937 0.019456387 -0.2077691
0.06207756 -0.2250825 0.24472138 0.1070553 0.22492115 -0.21308725 0.28314725 0.25564256
-0.006500496 -0.15881027 0.16861707 0.00021689614 -0.031781204 -0.1601648 0.2517099 0.13785124
0.06213107 0.13471916 0.28286183 -0.14081182 -0.048120555 -0.27657267 0.24643627 0.13429327
0.13953762 -0.032033253 -0.012409924 0.048848685 0.08893167 0.21914566 0.0032535382 0.3102014
0.21071857 0.04649106 0.28046724 0.14838819 -0.237369 0.26759484 -0.15620174 0.14587817
0.19501719 0.19438219 -0.22989361 -0.2589528 -0.23220643 0.05957368 0.052283883 -0.29166442
-0.25318274 0.016144678 -0.09046787 0.28010938 0.15376492 -0.23129654 -0.26747876 -0.26756445
-0.2778715 -0.03515977 -0.27045766 0.14342558 0.25137353 -0.18794665 -0.12275645 -0.25214112
0.23527952 -0.22530378 -0.28711322 -0.0845105 -0.15747409 0.26434147 -0.04197974 0.0695082
0.21524912 0.081012055 0.16552283 -0.1246439 0.25696623 0.2438413 0.20398544 -0.07923681
0.2796943 -0.0974082 -0.08650047 0.29068634 0.10047774 -0.2850515 0.1888334 -0.034928963
0.13994916 0.076539844 0.091374926 -0.055154096 0.08424268 -0.097763464 -0.27338812 -0.07784008
0.02933325 0.01144052 -0.26307178 -0.22377674 -0.2909656 -0.2733023 -0.22419056 -0.0025502862
-0.21060275 -0.087932 -0.11369196 0.2840487 -0.1593633 0.19829571 0.12757912 -0.07030054
0.26047757 0.15616532 0.22619505 0.18445905 -0.14077367 0.23786946 0.20732975 0.030501038
-0.25779635 0.13484496 0.19550486 -0.07327968 0.024261564 0.18020104 0.051359307 -0.20214921
-0.05876721 -0.20873535 0.2595393 -0.08786212 -0.2645656 0.09608119 -0.1462295 -0.23603392
0.08908131 -0.23959069 0.12293856 -0.21671732 -0.2097544 0.006001988 0.009805882 -0.1206893
-0.10535581 0.2072307 -0.23253071 -0.17742327 0.24538839 0.022126833 -0.14331356 0.017929934
00000000: 0796 88be 6b5f bdbd d079 533e 15c5 bcbc
00000010: a85f 0d3e 01f8 593d c497 96be d8c2 b73d
00000020: d532 b03d b687 80be ea3c 18be 4dde d43d
00000030: 738e 2f3e 7cc3 8dbe c0fc cabd 60cd 45be
00000040: 6d4f 063e 07e9 7dbe ac1b 273e d710 a83c
00000050: c723 933e b9c1 86be 3830 933e 048f 173d
00000060: e113 9d3e c408 833e fcf4 ef3a 8ae1 72be
00000070: f80f c1bd 3152 2d3d b0bd c9bd e034 083e
00000080: 127a 59be 6e46 333d ee55 8fbe a518 8abe
00000090: 8427 47bd 8113 03be ccba 57be 8a65 78be
000000a0: f5a3 e73d 32da 8bbd c568 8cbe c61a 9fbd
000000b0: cdb9 b13d 4a52 893d c06a 1b3e 32f9 b13d
000000c0: a797 8fbe 3fd2 65bd 6e40 5fbe 1b6e 773e
000000d0: 61d4 7cbe ccd5 4dbd 1c26 b43d 1df8 353e
000000e0: c522 233e 5be5 bfbd 1cae 213e c60a 183e
000000f0: 9081 7f3e 1503 df3d 8d00 45be 01aa 00be
00000100: c44b 513e 5973 17be 1368 80be 49a8 18be
00000110: 419d 86be 7959 333e 0351 923e c38a ae3d
00000120: 098a debd 8e12 753d 52e5 ca3d 8a9d 4bbe
00000130: 21fb 35be d872 d33d 7306 1dbe 400a fcbd
00000140: 7496 703e c042 bcbd 3dfd 883e 81f6 cbbd
00000150: f58b 3c3e a940 d93d 2e39 b2bd 9446 67be
00000160: 6d2a 723d c8ba 933d 47b2 f53d fe3d 683d
00000170: 6002 863e 1098 86be dd4c 903e 4b4a b33c
00000180: 39a0 80be d1d4 c53d deec d73d bdaa 983d
00000190: 27ec 4b3e a209 043c 0063 9f3c 6cc1 54be
000001a0: 0a45 7e3d 077c 66be 3e98 7a3e cf3f db3d
000001b0: bb51 663e 8b33 5abe adf8 903e 95e3 823e
000001c0: 1d02 d5bb 299f 22be f4a9 2c3e 9d6e 6339
000001d0: 022d 02bd 3e02 24be 1fe0 803e e028 0d3e
000001e0: 267d 7e3d d2f3 093e 44d3 903e f930 10be
000001f0: 0f1a 45bd ef9a 8dbe ca59 7c3e 2d84 093e
00000200: f3e2 0e3e 4d35 03bd fe52 4bbc 8f15 483d
00000210: cf21 b63d b867 603e 5039 553b b8d2 9e3e
00000220: 9cc6 573e 696d 3e3d 6799 8f3e 13f3 173e
00000230: dc10 73be 3102 893e 59f3 1fbe 1661 153e
00000240: 96b2 473e 200c 473e 3b69 6bbe 7695 84be
00000250: 86c7 6dbe 8803 743d a027 563d 0a55 95be
00000260: 2ba1 81be d841 843c 3847 b9bd 7f6a 8f3e
00000270: 8d74 1d3e 00d9 6cbe faf2 88be 35fe 88be
00000280: 2c45 8ebe b103 10bd 6d79 8abe 28de 123e
00000290: 08b4 803e 1675 40be bc67 fbbd a418 81be
000002a0: 1ded 703e 09b6 66be 8100 93be d713 adbd
000002b0: e340 21be c457 873e f3f2 2bbd 515a 8e3d
000002c0: 446a 5c3e a6e9 a53d d17e 293e 4d45 ffbd
000002d0: 1491 833e 89b1 793e 8fe1 503e e946 a2bd
000002e0: 1734 8f3e f37d c7bd 2927 b1bd d7d4 943e
000002f0: 46c7 cd3d 45f2 91be 8b5d 413e ac11 0fbd
00000300: d54e 0f3e ecc0 9c3d c722 bb3d 43e9 61bd
00000310: 6d87 ac3d 3638 c8bd 87f9 8bbe 9f6a 9fbd
00000320: 494c f03c 0571 3b3c 58b1 86be bb25 65be
00000330: 71f9 94be 47ee 8bbe 3692 65be b422 27bb
00000340: 3fa8 57be b115 b4bd 55d7 e8bd d56e 913e
00000350: 2230 23be 080e 4b3e 1aa4 023e bbf9 8fbd
00000360: 515d 853e cde9 1f3e ad9f 673e d5e2 3c3e
00000370: f926 10be 0d94 733e 404e 543e 50dd f93c
00000380: e2fd 83be cc14 0a3e 6d32 483e a813 96bd
00000390: 30c0 c63c 9f86 383e 235e 523d 3400 4fbe
000003a0: e3b5 70bd b8be 55be 56e2 843e 0ef1 b3bd
000003b0: 2475 87be 37c6 c43d 30bd 15be e0b2 71be
000003c0: 4370 b63d 4357 75be 36c7 fb3d 25eb 5dbe
000003d0: dcc9 56be 53ac c43b daa8 203c f42b f7bd
000003e0: c9c4 d7bd 4934 543e 881c 6ebe 72ae 35be
000003f0: 1847 7b3e 5543 b53c cac0 12be cce1 923c

input_layer.bias f4 [512]
0.17248051 0.2719457 -0.17146964 -0.14772217 0.020782901 -0.13839939 0.13376959 0.20509261
0.040301587 0.022256684 0.20202523 -0.07873213 0.0013912949 -0.2502299 -0.2700769 0.29536593
0.035806924 0.05668634 0.29483792 -0.15710896 -0.2934819 0.27042082 -0.11563478 -0.26141196
0.0028094703 -0.047554005 -0.015133881 -0.049359098 -0.19143087 -0.2571211 -0.26725742 -0.08962252
-0.04744546 0.15047039 0.03172828 0.22367978 -0.23012823 0.29686314 -0.24188568 0.24140471
0.0817528 0.029318746 -0.15017125 -0.23251446 -0.2081257 -0.19432105 -0.28033143 0.30142084
-0.20985663 -0.12820634 0.15309006 -0.15201 -0.07177547 0.019252125 -0.24469641 0.28130394
0.029875621 -0.216039 -0.12207308 0.03455675 -0.19363078 -0.075094976 -0.16201693 -0.039842602
-0.20529367 -0.16000146 0.049722984 0.27711785 0.122581996 0.17032662 0.0024514815 -0.04129146
-0.25179908 0.19498882 -0.048200995 -0.0038714195 0.1524527 0.010295682 -0.120218016 -0.22966824
0.011782826 -0.26365513 -0.20434976 0.25773406 -0.03520403 -0.24910869 0.17723258 -0.24328427
0.2022836 -0.23978 0.078528255 -0.2652938 -0.048255 -0.0708847 0.2568761 0.03677004
-0.29524687 -0.18796119 -0.26631376 -0.05621829 -0.14471157 0.1885116 0.26660842 -0.0739974
-0.16610503 -0.130744 -0.012116815 -0.20598185 -0.16197571 0.18427081 0.10177311 0.15785539
0.11357537 0.1286933 -0.096160285 0.031770367 0.21059147 0.17950237 -0.035671994 0.15058921
0.0009800523 -0.056351524 0.0109874 -0.043048345 -0.049714535 0.201605 -0.21569143 -0.11582386
-0.21660775 0.03269879 0.017591937 0.020437902 -0.056597833 0.14383267 0.14823906 -0.18370329
0.0143852 -0.0994692 0.041164886 -0.0018221537 -0.24156617 -0.12230767 -0.25433218 0.2183132
0.23137516 0.031425018 -0.16424438 0.29791433 0.0075088902 -0.11825222 0.15357736 0.08779788
-0.2528459 -0.2622671 -0.14037511 -0.0014235916 0.14695682 -0.269399 0.27009806 -0.27371702
-0.11074964 0.12699604 0.0075876284 0.020425504 -0.18594456 0.03615567 0.24192241 -0.28237957
-0.10804072 -0.0010748528 -0.10890564 0.13882351 -0.017227227 0.08339076 -0.25137314 -0.028409638
0.29668966 0.25862315 0.2586361 -0.14787687 -0.22326463 0.16471104 0.28365397 0.12801734
0.21086177 0.15941803 0.091948256 0.043887146 -0.019031871 0.26779956 -0.11156416 -0.2563127
0.14991353 -0.17742586 0.12247804 -0.14201236 -0.22352932 0.05036673 -0.23742135 -0.1004801
-0.25120595 0.110297196 -0.14562176 -0.19723819 0.24629866 0.17737666 0.13120884 -0.008713406
-0.06989533 -0.0065036705 0.20950505 0.23362926 -0.30071267 -0.24246058 -0.10141477 -0.014017449
-0.01888441 -0.004452645 -0.1436901 0.0977422 -0.13251671 0.26173666 0.2144722 0.15587515
-0.063129164 0.17867061 -0.15222219 -0.27540213 -0.1278772 -0.0008962602 -0.16046879 0.28033453
0.16723189 0.17202747 -0.18654814 0.09387109 -0.13106187 -0.19011252 0.105511494 0.09165885
0.14679554 0.16726054 -0.18924746 0.06702446 -0.29172137 0.18448003 -0.002137441 -0.26879546
-0.2658566 -0.24639922 0.17564033 0.1562238 0.27486125 0.2526577 -0.2248488 -0.032457065
00000000: bb9e 303e 773c 8b3e bd95 2fbe 7b44 17be
00000010: e740 aa3c 92b8 0dbe e5fa 083e cc03 523e
00000020: 4713 253d a653 b63c b4df 4e3e 503e a1bd
00000030: 1c5c b63a 221e 80be 8547 8abe 343a 973e
00000040: 48aa 123d f02f 683d fff4 963e 2ce1 20be
00000050: 4243 96be 9974 8a3e edd1 ecbd cad7 85be
00000060: 171f 383b fdc7 42bd 19f4 77bc c42c 4abd
00000070: 7406 44be 60a5 83be f7d5 88be 038c b7bd
00000080: 2c56 42bd e914 1a3e 83f5 013d 500c 653e
00000090: bca6 6bbe 72fe 973e e1b0 77be cc32 773e
000000a0: 036e a73d de2d f03c 7ec6 19be 4518 6ebe
000000b0: e71e 55be 19fc 46be 9a87 8fbe d553 9a3e
000000c0: a8e4 56be 8648 03be a4c3 1c3e 82a8 1bbe
000000d0: 05ff 92bd a2b6 9d3c b291 7abe 1207 903e
000000e0: b8bd f43c 5439 5dbe 7301 fabd 618b 0d3d
000000f0: 2647 46be 65cb 99bd c4e7 25be ff31 23bd
00000100: 8138 52be 6cd7 23be 54aa 4b3d 64e2 8d3e
00000110: 450c fb3d 1a6a 2e3e 09a9 203b 3c21 29bd
00000120: cfeb 80be 26ab 473e 686e 45bd a4b7 7dbb
00000130: 901c 1c3e 38af 283c dd34 f6bd 272e 6bbe
00000140: c10c 413c cefd 86be 1041 51be b8f5 833e
00000150: 1a32 10bd 5916 7fbe 757c 353e 831f 79be
00000160: 6f23 4f3e e388 75be 6cd3 a03d 97d4 87be
00000170: 09a7 45bd ff2b 91bd 4485 833e 2e9c 163d
00000180: 992a 97be e678 40be 475a 88be 2645 66bd
00000190: 452f 14be 2f09 413e e680 883e f38b 97bd
000001a0: 7017 2abe c1e1 05be 9b85 46bc e8ec 52be
000001b0: f6dc 25be 7db1 3c3e 6c6e d03d d8a4 213e
000001c0: 349a e83d 2dc8 033e afef c4bd a521 023d
000001d0: 4aa5 573e 78cf 373e cc1c 12bd 0f34 1a3e
000001e0: 1975 803a dbd0 66bd 7f04 343c 7653 30bd
000001f0: 78a1 4bbd 8b71 4e3e 37de 5cbe 0f35 edbd
00000200: 6cce 5dbe 2bef 053d f71c 903c 636d a73c
00000210: 21d3 67bd df48 133e fbcb 173e b71c 3cbe
00000220: e7af 6b3c 82b6 cbbd 839c 283d 55d5 eeba
00000230: 1f5d 77be 727c fabd d437 82be 7f8d 5f3e
00000240: 9ced 6c3e 85b7 003d ae2f 28be 3a88 983e
00000250: 230d f63b 382e f2bd 6243 1d3e 60cf b33d
00000260: 0575 81be e047 86be 7ebe 0fbe cf97 baba
00000270: d97b 163e aaee 89be 4b4a 8a3e a324 8cbe
00000280: b5d0 e2bd 400b 023e a4a1 f83b 6353 a73c
00000290: 4068 3ebe f817 143d 82ba 773e 0e94 90be
000002a0: 7444 ddbd 13e2 8cba ec09 dfbd c027 0e3e
000002b0: 1d20 8dbc c6c8 aa3d fbb3 80be 54bb e8bc
000002c0: b5e7 973e 416a 843e f36b 843e 096d 17be
000002d0: 7c9f 64be 03aa 283e 183b 913e fa16 033e
000002e0: 26ec 573e 7b3e 233e 5e4f bc3d 02c3 333d
000002f0: bae8 9bbc 061d 893e c07b e4bd 6b3b 83be
00000300: ef82 193e 20af 35be c4d5 fa3d b06b 11be
00000310: dfe4 64be 584d 4e3d 951e 73be 83c8 cdbd
00000320: 119e 80be 7fe3 e13d df1d 15be cff8 49be
00000330: b735 7c3e 3aa2 353e 9c5b 063e acc2 0ebc
00000340: 4825 8fbd be1c d5bb 7e88 563e 823c 6f3e
00000350: 03f7 99be 9647 78be 8cb2 cfbd 71a9 65bc
00000360: 7ab3 9abc 7ee7 91bb 7f23 13be 102d c83d
00000370: 76b2 07be 5902 863e 9a9e 5b3e bc9d 1f3e
00000380: dd49 81bd 6ef5 363e 22e0 1bbe 8201 8dbe
00000390: 3ef2 02be 01f3 6aba ee51 24be 0288 8f3e
000003a0: d63e 2b3e f827 303e 7a06 3fbe 7c3f c03d
000003b0: 1535 06be dbac 42be 6916 d83d a3b7 bb3d
000003c0: 9251 163e 5946 2b3e 16ca 41be 1f44 893d
000003d0: 815c 95be 55e8 3c3e 4f14 0cbb 8f9f 89be
000003e0: 5b1e 88be 1450 7cbe 0fdb 333e 22f9 1f3e
000003f0: 9dba 8c3e 5a5c 813e c43e 66be b3f1 04bd

output_layer.weight f4 [2, 512]
0.024208866 -0.011538527 -0.06768447 -0.041923832 0.07066029 -0.09058895 -0.06409645 0.059219718
-0.0041795047 0.08540554 -0.07437915 0.12636863 0.02670576 0.0013473859 0.045089565 -0.032291472
-0.07987063 0.08832034 -0.017705474 0.023582144 0.010500066 0.010487773 0.0082263425 -0.00036155328
0.04043796 0.070835374 0.041846953 0.04023641 -0.016829 -0.056284465 -0.062345214 -0.0069562886
0.088549554 -0.0022770634 0.063093096 -0.011437942 0.0430442 -0.030046724 -0.033825066 -0.040717535
-0.024504377 0.0007828466 -0.08176841 -0.019478394 0.055379722 0.0524696 0.07074049 0.0332901
-0.0008415046 0.016672172 0.035287738 -0.05163795 0.03723317 -0.074122034 -0.002459884 -0.03477511
-0.0014617105 -0.044526193 -0.00060933846 0.053111643 0.009353576 0.08734706 0.023738764 0.050740704
-0.0151611045 0.038905624 0.0016750382 0.075738475 0.072719775 -0.09402162 0.03584712 0.04039685
0.077975616 -0.082304955 0.060096353 -0.0005389717 -0.0032480923 0.01985766 0.058846902 -0.0036914505
0.016381148 0.041017406 -0.010093567 0.03086889 -0.035978653 -0.041630063 0.009173403 0.0071515935
-0.06486954 -0.0014683801 0.0639211 -0.0405482 0.08177572 0.03797819 -0.044827197 -0.017046288
0.01137332 0.002834266 0.030354336 0.026374528 0.0011982837 -0.021882415 -0.020781402 0.010568424
-0.0058788545 -0.049901087 0.0063569616 0.042367466 -0.013303062 0.015616272 0.023453072 -0.0008554666
0.04137661 0.056383274 -0.075578295 -0.05184046 -0.009785871 0.012435044 0.03167403 0.026198525
-0.10741857 -0.055385932 0.0030392872 -0.071213245 -0.101028524 0.046815306 -0.015315286 0.0591221
-0.039205287 -0.0055549564 -0.008956039 0.048665356 -0.026867425 0.07980393 0.07368097 -0.00015378087
-0.040774144 0.007664757 0.04475754 -0.019100484 0.03402073 0.0337368 0.037387777 0.096003816
0.05755406 0.06256494 0.017808666 -0.04110011 -0.052369636 0.0108170975 -0.023988085 -0.042475473
0.04909658 -0.01256831 -0.022946062 0.025523452 -0.06444224 -0.0009097149 -0.07959484 -0.013756983
0.004520807 -0.007029617 -0.030312153 -0.014217054 -0.07281511 0.036167428 -0.07865882 -0.006563394
-0.027217066 -0.008022198 0.053933863 -0.01653991 0.029198742 0.07602016 0.039039787 -0.077759735
0.06478612 0.09132226 0.009997587 0.043764453 -0.013658314 -0.02677168 -0.056460313 -0.0113677755
0.009824476 -0.036941264 0.020339148 -0.011155414 -0.017054567 -0.024963675 0.030918406 0.02428997
-0.010082608 0.03684964 -0.09482356 0.03630017 0.048655547 0.024641361 0.014300994 0.016907644
-0.038038034 -0.013396915 0.027016506 0.028106067 0.008866522 0.055123042 0.019894611 -0.0016882514
0.014136744 -0.07013907 -0.035204116 -0.04604357 -0.003970069 -0.010441903 0.06342727 0.0057683117
0.0141755175 0.035812113 -0.061491176 -0.046777867 0.018604465 -0.05645157 0.02115038 0.0032443416
-0.050157625 -0.027056657 0.05211838 -0.029042408 0.06632657 0.05598564 -0.044383705 0.00936562
-0.0035648264 -0.035435125 -0.01433165 -0.03580655 -0.0653902 0.026224535 0.07663166 -0.026619941
0.0348149 0.0018138206 0.0063472604 -0.031546455 0.02945804 -0.0061652204 0.00040423448 -0.03188174
-0.0114316605 -0.05354362 0.056229196 -0.0698761 0.039493985 0.042665143 -0.02450102 -0.08761894
00000000: ac51 c63c 170c 3dbc 289e 8abd 53b8 2bbd
00000010: 58b6 903d b386 b9bd 0045 83bd 6090 723d
00000020: 3af4 88bb 1ae9 ae3d 1954 98bd c766 013e
00000030: 0ac6 da3c c59a b03a d6af 383d 1044 04bd
00000040: 3693 a3bd 4be1 b43d 120b 91bc 572f c13c
00000050: 7808 2c3c e9d4 2b3c c8c7 063c dc8e bdb9
00000060: 46a2 253d 2312 913d b667 2b3d efce 243d
00000070: f9dc 89bc 8a8a 66bd b25d 7fbd 94f1 e3bb
00000080: 7859 b53d c93a 15bb f436 813d 3566 3bbc
00000090: 1d4f 303d 8c24 f6bc 278c 0abd 6ec7 26bd
000000a0: 67bd c8bc f237 4d3a 3276 a7bd 2791 9fbc
000000b0: d9d5 623d 5dea 563d 64e0 903d 335b 083d
000000c0: 6b98 5cba 1494 883c e089 103d 5182 53bd
000000d0: cf81 183d 4bcd 97bd 0136 21bb 5970 0ebd
000000e0: de96 bfba 1961 36bd 03bc 1fba 988b 593d
000000f0: be3f 193c 04e3 b23d cc77 c23c 7cd5 4f3d
00000100: 4866 78bc 815b 1f3d f58c db3a c61c 9b3d
00000110: 1bee 943d 688e c0bd 6ed4 123d 2b77 253d
00000120: aeb1 9f3d 808f a8bd 9827 763d c749 0dba
00000130: f2dd 54bb 88ac a23c 7309 713d 43ec 71bb
00000140: c231 863c de01 283d 7d5f 25bc c1e0 fc3c
00000150: 5a5e 13bd 4984 2abd 0a4c 163c ea57 ea3b
00000160: 52da 84bd a976 c0ba 11e9 823d df15 26bd
00000170: 077a a73d 058f 1b3d b99c 37bd a8a4 8bbc
00000180: 2957 3a3c 18bf 393b a8a9 f83c 650f d83c
00000190: bb0f 9d3a c042 b3bc c23d aabc 2f27 2d3c
000001a0: 68a3 c0bb 1565 4cbd 0f4e d03b 8289 2d3d
000001b0: 16f5 59bc 64db 7f3c a820 c03c 6441 60ba
000001c0: 857a 293d 26f2 663d cbc8 9abd aa56 54bd
000001d0: eb54 20bc 5bbc 4b3c a1bc 013d 4a9e d63c
000001e0: 44fe dbbd 5cdc 62bd c72e 473b 40d8 91bd
000001f0: 0be8 cebd 68c1 3f3d f7ec 7abc 042a 723d
00000200: b995 20bd 5a06 b6bb 5abc 12bc 5355 473d
00000210: 1319 dcbc 3e70 a33d 0ce6 963d 3d40 21b9
00000220: ca02 27bd a428 fb3b af53 373d 9e78 9cbc
00000230: 5259 0b3d 992f 0a3d ed23 193d a69d c43d
00000240: cebd 6b3d 0c22 803d 7be3 913c 9758 28bd
00000250: 8b81 56bd 323a 313c a982 c4bc c3fa 2dbd
00000260: 7f19 493d 50eb 4dbc 61f9 bbbc 8f16 d13c
00000270: 4bfa 83bd ef79 6eba 9f02 a3bd f864 61bc
00000280: 4723 943b b458 e6bb 3151 f8bc a5ee 68bc
00000290: 1720 95bd 4c24 143d e017 a1bd bd11 d7bb
000002a0: 53f6 debc 8a6f 03bc c1e9 5c3d b57e 87bc
000002b0: 3332 ef3c 75b0 9b3d 2fe8 1f3d 7f40 9fbd
000002c0: 96ae 843d 2a07 bb3d ebcc 233c 5b42 333d
000002d0: 1fc7 5fbc 4850 dbbc ee42 67bd e83f 3abc
000002e0: d7f6 203c b94f 17bd 499e a63c 33c5 36bc
000002f0: 05b6 8bbc 9f80 ccbc 9948 fd3c c2fb c63c
00000300: 8631 25bc a6ef 163d db32 c2bd 7daf 143d
00000310: 0a4b 473d aedc c93c b74e 6a3c e681 8a3c
00000320: c5cd 1bbd bc7e 5bbc b851 dd3c b23e e63c
00000330: e444 113c b3c8 613d 06fa a23c 5148 ddba
00000340: cd9d 673c 13a5 8fbd 3132 10bd 2f98 3cbd
00000350: 5a17 82bb 8414 2bbc 28e6 813d 1b04 bd3b
00000360: 6e40 683c b9af 123d 2cde 7bbd 269a 3fbd
00000370: 6468 983c c339 67bd 9043 ad3c 059f 543b
00000380: 1572 4dbd eca5 ddbc 157a 553d 58ea edbc
00000390: 3ad6 873d 3351 653d b0cb 35bd 4272 193c
000003a0: dd9f 69bb 6c24 11bd 4ccf 6abc e4a9 12bd
000003b0: 4ceb 85bd d6d4 d63c 0ff1 9c3d 1012 dabc
000003c0: 129a 0e3d b8bd ed3a aefc cf3b db36 01bd
000003d0: fd51 f13c 9e05 cabb 6fef d339 6d96 02bd
000003e0: dc4b 3bbc 8e50 5bbd 9650 663d 331b 8fbd
000003f0: 72c4 213d a5c1 2e3d 5db6 c8bc 8f71 b3bd

output_layer.bias f4 [2]
-0.014968039 -0.047739152
00000000: 813c 75bc 218a 43bd
