summit/benchmarks/models/reizman_suzuki_case_1/reizman_suzuki_case_1_predictor_1.pt (torch, 30487 bytes, 4 tensors)

input_layer.weight f4 [512, 11]
00000000: 9c47 433e 6995 303e 673e 1b3e 75bf 403e
00000010: c0d0 febc 3767 20be 782d 683d be90 dcbc
00000020: c0f0 d1bc 9a2b 973e 6e5a 42be 6c3b d8bc
00000030: a287 0dbe 5c52 52be 55d2 af3c 2d3e 6b3e
00000040: 2708 7c3e e0ce 5abe e8de 02be 281e bd3c
00000050: 4239 7d3e 3333 98be ba8c 32be 26e3 5ebe
00000060: 9dd2 823e ea54 76be ae70 7bbe 3dbf 7e3e
00000070: c25c 7cbe a5c8 1ebc e296 d4bd 476b 8dbe
00000080: 9377 51be 9a33 3dbe 3b99 913e 1ac1 80be
00000090: d694 29be 0202 6dbe f8e7 873d 2211 aa3d
000000a0: d6c9 66be a0d8 2abe af4f ff3d ccfc 78be
000000b0: 4104 f13d b275 28be ffb9 913d 9e82 17be
000000c0: 73c6 8d3e ccec 5a3e cbff 17be e515 553e
000000d0: 2e19 943e 2c91 0d3e ec03 aa3c 490c 3fbe
000000e0: 254d 963e c115 443e 9990 7bbe f824 ffbd
000000f0: a0bd e83c 9a5f 0a3d 7a32 01be 049a bf3a
00000100: 3e62 17be c2ed 85be 0c3f 943e a795 a4bd
00000110: f487 983e f768 2bbe 2a3d 49bd b961 5c3e
00000120: e13a 54be 8f32 81be 995d c33d 070c 823d
00000130: 99db 94be 0a8f 813d 2252 09be 80a1 50bd
00000140: 0e87 86bd 756b 88bc 321e c0bd ecbf e2bd
00000150: f182 d53d 92bf 393e 497c bc3d 2771 95bd
00000160: 163f 60be 9f1b 92bd 8549 953e 4840 9b3e
00000170: 1c5b 61be 1308 4bbe 0a7c 15be 6394 013d
00000180: 470a 51bd b516 8abe c89d 8fbe f461 823e
00000190: d72f 513e 82b3 303e 6941 2b3e bae1 47be
000001a0: 787e 5c3e 18f1 fd3d 9c69 573e fcde 3dbe
000001b0: 1509 803e de6e 6bbd b0da fb3d 224f 82be
000001c0: cdfe ca3d 2808 3dbe a574 37be 2d9a 82be
000001d0: 13a3 4c3e f9a8 5b3e 669a aebd fd35 523e
000001e0: e8cc fa3d 9026 573e 41c9 173c 2325 e4bc
000001f0: 84f9 7d3e 4094 443e b195 4f3e d637 91bc
00000200: 2ff1 99be 3cbc 893e 3038 403e 5d8f 3a3e
00000210: 6dc8 f23d 3b1b 83be 89f9 183e b9b0 bb3d
00000220: b201 54be 5655 ad3d a791 a3bb 0236 8d3d
00000230: 4181 77be 92c2 7dbe 0db5 01bd 43ca 2a3e
00000240: aa3f 52be fbc0 6b3e b696 49bc 990e 85be
00000250: 9e44 73be 474e e3bd 8db7 2dbe c291 58be
00000260: 5d8c 943e ab00 77be 275c 83be 7ad6 7d3e
00000270: 1860 94bc d59d d33d 4d96 ad3d db55 0f3e
00000280: c66b c5bd 1988 0ebe cb50 273e 1e66 1cbe
00000290: cd97 25bd 2c97 523e 95db 96be 407f abbd
000002a0: 61bc 093e f2f1 973e ac7f 513e 37ed d9bd
000002b0: 7075 c8bc 684e e9bd 0bdc 8e3e 3737 973e
000002c0: 92bb 22be cbb0 9abe dde8 f33d ce5d 4bbe
000002d0: 339d 023e c09d d73d 4262 b5bd 9940 5c3e
000002e0: a5b8 0abd 95a1 8ebd cc18 933e ea46 963e
000002f0: d256 0bbe 61b2 6ebe 8c64 c3bd 8ced 943e
00000300: b97d 063e 8260 8f3e d4c9 59be 5175 0f3e
00000310: 3e50 c53d 64dd 563e 1ff8 8cbe 8e6d b13c
00000320: 2e1a 1e3e 91c1 10bd 64d5 0e3d d955 7f3e
00000330: a9eb 513e 5492 6c3e aacb 78be 91a4 57bd
00000340: be42 88be f896 613e 8b7d 8dbe d6d9 8bbe
00000350: 4d5f 173e 5803 8abe e33c 413e 2246 03be
00000360: 8bf4 78be 9d6b 803e 5e7b 5a3e 562d 3ebd
00000370: a7c5 953e 49c0 9e3d e778 3a3e 1b17 26be
00000380: 7eb6 3cbd a929 efbd b6c6 76be e13e 94be
00000390: 5096 623e 8548 8f3d de60 77bd a6a6 083e
000003a0: 9b9c 8abd d141 f1bd 7383 143e fea9 88bd
000003b0: 872f 27be d06d 4dbd de1c a73d 1c1f 3ebe
000003c0: 0053 cb3b 93bd a6bd 2b03 2e3e 284f 293e
000003d0: a673 183c c63e 933e 0f49 4b3e f6a7 693e
000003e0: 861e dabd 06f0 7abd 1c0c f2bd 3699 8bbe
000003f0: 0bcc 9dbd 5aa3 7e3e 4a4e 8fbe 8a9f 4b3e
0.19070286 0.17244495 0.15160523 0.18823035 -0.0311054 -0.15664373 0.056683987 -0.026924487
-0.025627494 0.29525453 -0.18979809 -0.026395522 -0.13821271 -0.2053923 0.021462599 0.22972937
0.24612485 -0.21367979 -0.12780344 0.023085669 0.24728873 -0.29726562 -0.17436495 -0.21766338
0.2555131 -0.2405583 -0.24554703 0.24877639 -0.2464476 -0.009691392 -0.10380341 -0.2762091
-0.2045577 -0.18476716 0.28437218 -0.25147325 -0.16560683 -0.23145297 0.066360414 0.08304049
-0.22537932 -0.16684198 0.1246637 -0.24315184 0.117683895 -0.16451147 0.07115554 -0.1479592
0.27690467 0.21379393 -0.14843671 0.20809133 0.2892546 0.1382491 0.020753823 -0.1865703
0.29355732 0.19148923 -0.24566878 -0.12458223 0.028410733 0.03378258 -0.12616912 0.0014618044
-0.1478357 -0.26157957 0.2895435 -0.080363564 0.29791224 -0.1673926 -0.049130596 0.21521653
-0.20725586 -0.25233886 0.09539337 0.0634995 -0.2907379 0.06326111 -0.13410237 -0.05093527
-0.065687284 -0.016652802 -0.09380759 -0.110717624 0.10425366 0.18139485 0.09203393 -0.07296973
-0.21899065 -0.071341746 0.29157653 0.3032248 -0.22007412 -0.19827299 -0.14598098 0.031635653
-0.051035192 -0.2697045 -0.28050065 0.25465357 0.20428406 0.17255977 0.1672417 -0.19519702
0.21532619 0.123995006 0.2103638 -0.18542093 0.2500693 -0.057478778 0.12297571 -0.25451
0.09911881 -0.18460143 -0.1791559 -0.25508252 0.19984083 0.21451177 -0.08525543 0.20528407
0.12246114 0.21010804 0.009264291 -0.02784974 0.24802214 0.19197178 0.20271946 -0.01772682
-0.3006682 0.26901424 0.18771434 0.18218751 0.118546344 -0.25606713 0.1493894 0.091645665
-0.20703772 0.08463542 -0.0049917283 0.06895067 -0.241704 -0.24781254 -0.031666804 0.16678719
-0.20532098 0.23022835 -0.012303999 -0.259877 -0.23756644 -0.110989146 -0.1696455 -0.21149352
0.2901334 -0.24121349 -0.25656244 0.24788848 -0.018112227 0.103328384 0.08475933 0.13997595
-0.09639697 -0.13919105 0.16339414 -0.1527333 -0.04042797 0.2056548 -0.29464403 -0.083738804
0.13450767 0.29676777 0.20458859 -0.10640948 -0.024470061 -0.11391908 0.27902254 0.29534313
-0.15891865 -0.30213007 0.119096495 -0.19860002 0.12755279 0.10528135 -0.08856632 0.21509017
-0.033867497 -0.06964413 0.28729856 0.29350978 -0.13607338 -0.23310234 -0.09540662 0.29087484
0.13133897 0.28003317 -0.21268398 0.14009596 0.096344456 0.20982891 -0.2753305 0.021658685
0.15439674 -0.03534085 0.034871474 0.24935092 0.20500053 0.23102695 -0.24296442 -0.052647177
-0.2661342 0.22030246 -0.27634844 -0.27314633 0.14782448 -0.26955676 0.18870883 -0.12819722
-0.24312036 0.25082102 0.21336123 -0.046429954 0.2925236 0.07751519 0.18210183 -0.16219752
-0.046072476 -0.11677868 -0.2409924 -0.28954223 0.22127652 0.06996254 -0.060395114 0.13344821
-0.067681514 -0.117801316 0.14503269 -0.066730484 -0.16326724 -0.050153553 0.08159803 -0.18566555
0.0062049627 -0.08141627 0.16993396 0.16534102 0.0093049165 0.2875883 0.19852088 0.22817978
-0.10650353 -0.06126406 -0.11818716 -0.27265328 -0.07704934 0.24867001 -0.27989417 0.19885078

input_layer.bias f4 [512]
00000000: cd51 81be 58db 3fbe 558f 493e 5f37 90bd
00000010: 6b78 f4bd 7bfe 423d 4a55 9f3e 7d0b 42be
00000020: bd6b 333e b202 1dbe d175 4abe 887e 4c3e
00000030: c22c 5d3d c55b acbd 3b86 81bd c5cc 9fbd
00000040: b9d0 35be 6542 31be 96e0 99be 206c bebc
00000050: b817 5a3e 43ea 8abe 3d9e 62be f232 713e
00000060: f01a 54be 37ed 52bd cf44 82be eaa0 2fbe
00000070: 0c21 4bbe cf50 8bbe 10ea 933e e36e 493e
00000080: d89d 353e ba65 92be 4346 b0bd b80f 283d
00000090: eddb 1c3e 4640 c63d b9c1 8d3e 84ee b6bd
000000a0: 5c1f bb3c f050 1b3e e530 1bbe 5dc7 46be
000000b0: d339 b1bd e60d 94be d4b4 68be 2d7c e6bd
000000c0: 4fbc cd3b 867b 6bbe 7dca 81bd cf6d 4f3e
000000d0: 503c 4bbe 66d4 75be be26 233d 7267 5a3d
000000e0: 1d40 fb3b 1991 d13d 75ba 8c3e 4df1 6dbe
000000f0: ed41 993e 3336 93be 6799 493e c470 27bd
00000100: ef46 bb3d 4354 8dbe c211 96be 2886 093d
00000110: 9f16 57be d018 df3d 5e2a c0bd f0ff 1a3e
00000120: c415 bfbc 211d 4e3e b94d b9bd 43ad 933e
00000130: e5d8 70be 96d8 5b3d 9cbe 64be dde3 5c3e
00000140: 900f 77be 6b8c 1bbe 3d60 e9bd 41dd ab3d
00000150: f1e4 5c3e 6bd3 31be 3a19 6a3e 5f6f 3dbe
00000160: f6e7 c4bd d5c2 90bd 5525 923e 9a03 d33d
00000170: 4afe 313e 0aa3 e0bd c867 21be a82b c4bc
00000180: 2c04 55be 0e00 88be b846 eb3d 1959 60be
00000190: 37d8 3d3e 0edd 6fbe ecbc 59be b4e6 693e
000001a0: 8467 06be f1a5 6f3d 84f4 603e bcb7 053e
000001b0: a889 323e b25f 59be 44c1 36bd 894f 7a3e
000001c0: 8889 803e aea0 8fbe 1497 593e 2bed 23be
000001d0: b6a4 17be 60c9 39bc 7c80 23be 7214 cabd
000001e0: 1405 233e 0850 0c3e cdf1 1fbe a18f c4bd
000001f0: ea2f ba3c 2324 9d3c fdb3 cd3d a5c5 633d
00000200: 357e b1bd 4025 7d3e a06b 41be 8394 ec3d
00000210: 04bc 6bbd ef27 bcbd 5fe8 843e 1f9a 1ebe
00000220: 2412 3d3d bdaa 673e b0a7 40bd d50f 35be
00000230: a1e1 003e 7625 8a3e 21ef d4bd ce48 9abe
00000240: a271 613e 7133 1cbe 4c66 36bd 47dd 27be
00000250: 4c1d 1d3e d138 1d3c e6e9 32be a0d3 2dbe
00000260: e5dc 653e 688d 4c3e 06d8 99be 338b 74bd
00000270: ae9f de3d ccaf 79be c056 67be 4efa 2e3e
00000280: 97dd 5dbd 3a6a 4fbe 55f3 873e 914c 0abd
00000290: d590 65bd 81ba 0dbe c5a3 f83c b16c 57bd
000002a0: 32f4 97bd 8aaf 89bd b38b 043e 6490 a43d
000002b0: 79e5 84be a11c 5abe 8694 83be fef1 8c3d
000002c0: 5612 a33c 2809 153d f987 233e e28f 1ebd
000002d0: 81bc 39be 51c7 f9bd bcf5 91be 5306 7b3a
000002e0: 1d08 f3bd 62f2 8f3d 96d0 5ebe fd73 6c3e
000002f0: 6158 da3c 2af8 503e 640f 46bd d87f 353c
00000300: 6a55 2b3e b792 3c3d e19f 28be 6695 ad3d
00000310: ce1f b7bd b310 da3d 5af6 8dbe 4a24 443e
00000320: 8084 103e 2b44 8e3e 9cec 6d3e 26a8 7fbd
00000330: 8ce8 4e3e 4e4e 123e 0b18 7a3e 592a 703b
00000340: e09b e3bd 2274 2fbe 23b4 ed3d a8f5 8ebe
00000350: 08c9 f5bd 6c94 00bd a33e 413e 9651 63be
00000360: a29b 923e 0555 7d3e 758b 7f3e 186e 0bbe
00000370: e3ed 953e 4113 2fbe d329 83be f470 10be
00000380: 6290 3b3d a41a b1bc 8381 02be a185 ccbd
00000390: 6421 123e de70 55bc 2ea8 98be 9190 11ba
000003a0: fd13 8d3d 6b8a 4bbe 549e 66be 6d43 323e
000003b0: b715 f73d d66d d8bd 83e4 94bd 4110 81bc
000003c0: 7426 48be 4e2a 1f3e 2b90 473d ea4b 1abe
000003d0: 0c2b 103e b66e 8abe 7de5 2bbd beb1 aebd
000003e0: 89ab 99bd cd47 48be 690b 14bd 9b3c 01be
000003f0: f890 383e ef57 09be 8239 1ebd a6fa 633e
-0.25257722 -0.18736017 0.19683583 -0.07041811 -0.119370304 0.047605973 0.31119758 -0.18949695
0.17521568 -0.1533306 -0.19771506 0.19970143 0.053997763 -0.08415941 -0.063244306 -0.078027286
-0.17755403 -0.17310484 -0.30054158 -0.023244917 0.2129811 -0.27131853 -0.22130676 0.2355459
-0.20713401 -0.051495757 -0.25443122 -0.17151228 -0.19836825 -0.2721009 0.28889513 0.19671206
0.17735994 -0.28593236 -0.08607151 0.041030616 0.1531827 0.09680228 0.2768686 -0.08932212
0.022842102 0.15167594 -0.1515537 -0.19411989 -0.08653607 -0.28916854 -0.2272523 -0.112541534
0.0062785516 -0.22996339 -0.0633745 0.20256732 -0.19847226 -0.24006805 0.03983187 0.05332131
0.007667555 0.10232753 0.27486005 -0.2323658 0.2993311 -0.28752288 0.19687425 -0.040879026
0.09144389 -0.2760335 -0.29310423 0.033575207 -0.21004723 0.108934045 -0.09383081 0.15136695
-0.023325808 0.201283 -0.090480275 0.28843126 -0.23520239 0.05367335 -0.22338337 0.21571298
-0.2412703 -0.15190284 -0.11395309 0.0839181 0.21571709 -0.17365806 0.22861186 -0.18499516
-0.096145555 -0.07068411 0.28544107 0.10303421 0.1738216 -0.10968597 -0.15762246 -0.023946598
-0.20802373 -0.26562542 0.11488098 -0.21908988 0.1853951 -0.2342417 -0.21263474 0.22841913
-0.13125426 0.058507863 0.21968275 0.1305837 0.17435324 -0.21227911 -0.044617906 0.24444403
0.25104928 -0.28052276 0.21249038 -0.16008441 -0.14808926 -0.011339515 -0.15966982 -0.09867181
0.15919906 0.13702404 -0.15619583 -0.095977075 0.022727925 0.01918227 0.10044096 0.05560841
-0.0866665 0.24721241 -0.18888712 0.11551764 -0.057552353 -0.09187304 0.25958535 -0.1548848
0.04615988 0.22623725 -0.04703492 -0.1768182 0.1258607 0.26981705 -0.10397173 -0.3013367
0.22016004 -0.15253998 -0.04453115 -0.16393004 0.15343207 0.009596066 -0.17472038 -0.1697526
0.22447546 0.19975817 -0.30047625 -0.059703063 0.108703 -0.24383467 -0.22591686 0.17087671
-0.054166403 -0.20255366 0.26552835 -0.033764426 -0.056046326 -0.13840677 0.030351529 -0.05259389
-0.074196234 -0.067229345 0.12943916 0.08035353 -0.25956324 -0.21299984 -0.25699252 0.06882094
0.019906204 0.036385685 0.15969838 -0.038711436 -0.18138315 -0.1219622 -0.28507793 0.00095758325
-0.11866782 0.07028653 -0.21759257 0.23091121 0.02665347 0.20407167 -0.04835452 0.011077844
0.16731802 0.046038356 -0.16467239 0.08475761 -0.08941613 0.106477164 -0.27727014 0.19154468
0.14113045 0.27786383 0.2323479 -0.06241622 0.20205897 0.14287683 0.24423234 0.0036646335
-0.11113715 -0.17134145 0.11606624 -0.27921796 -0.12001234 -0.031391546 0.1887155 -0.22199091
0.28634363 0.24739464 0.24955542 -0.13616216 0.29283056 -0.17097189 -0.25617847 -0.14105588
0.04579199 -0.021619149 -0.12744717 -0.09986425 0.1427055 -0.013027398 -0.2981581 -0.0005552853
0.06888578 -0.19877021 -0.22521335 0.17408533 0.12064689 -0.105678245 -0.07270148 -0.01575482
-0.19545919 0.15543482 0.048721474 -0.15068021 0.14078921 -0.2703759 -0.041966904 -0.085299954
-0.07503421 -0.1955864 -0.036143694 -0.12620775 0.18024051 -0.1341245 -0.038629062 0.22263584

output_layer.weight f4 [2, 512]
00000000: 132f 6bbd 4997 fa3b b42d b03c 731a e7bc
00000010: 1578 403d af58 893c b6b8 87bd 9e49 933c
00000020: 62da 333d b21b eebb 28e3 02bd 2f5f 9dbd
00000030: 0a76 44bd 7798 b13c 8050 ec3c 3960 a5bc
00000040: 15e9 983c a22a 82bd 6347 62bd ea38 3ebc
00000050: bb00 21bc 8812 b2bc 5810 20bd 5f21 50bd
00000060: d5dd e43d 204d 5cbd d578 fdbb f6ab c6b8
00000070: bfd0 b1bc 1f12 173c 6ec2 0e3d 5087 5b3d
00000080: 55f0 aebd a03e a8bb c2cd f93c 603d 92bc
00000090: f779 9abc 5ef9 01bc 235f a13c 3517 9d3c
000000a0: bba9 0bbd a647 9a3d e372 3bbb 9737 a6bc
000000b0: 38ac 0bbc 7b01 f43b 801e 66bc 1a2d b7bc
000000c0: 1b3d 28bd f2f7 7cbd 7ccd 3abd 7cef b739
000000d0: 2d8b 993c a5b3 933c 437c 93bd 3aed 7ebc
000000e0: de17 68bd 69d6 b3bd 79e5 07bd 8ff4 f4bc
000000f0: d2a5 9ebd ddd6 56ba 9977 d03d 18ef f7bb
00000100: 3fe0 c5bd 0c58 6f3d 9412 a23c 235e 553d
00000110: e9aa 34bc 11b0 8cbd b1b0 52bd e542 3e3d
00000120: b799 cabb fd1f bc3d 60a8 963c f33f 4d3d
00000130: 5487 233d cca6 b83c 05e2 b4bc 7369 01bd
00000140: 4844 063d c16f fd3c 1aff c93d 5d9c 143d
00000150: 358d 35bd cfcd d8bb 9811 48bd eed3 c83d
00000160: 7f48 a13c 8df8 15bc 97ce 62bd 9c8d 8cbb
00000170: 5751 cfbc 4d6e 79bb 4fdd 95bd c4a4 81bd
00000180: 582e cebb e30c 4a3d 0715 eebd 001e 00bd
00000190: 6f4a 83bd 3c25 1d3d 5b0d afbc ce04 04bd
000001a0: 37e3 bb3b ff68 9bbc 1e83 e33c 9124 473d
000001b0: 92d8 4c3d 1225 263e 0a6e a23c 0b7f 0dbd
000001c0: 7498 a23d 3321 0d3c ee88 1d3d cb08 12bc
000001d0: 7f77 493d 9800 8c3b 87c6 7abc 8c77 a1bc
000001e0: 2810 61bd 6985 733d 4042 8abb 3b95 cd3c
000001f0: 9314 7e3c 6a57 853d e6ea b5bd af81 293d
00000200: 458a 75bd f197 6dbd 9dd8 183d d878 07bd
00000210: 31bb debc 2108 9b3d 29b0 5cbd 749e 063c
00000220: 9b80 49bd f924 2ebd 950e 553b 2e94 0f3d
00000230: 6d37 a5bd 33da 5f3d 8505 043c 8c48 903a
00000240: 9987 a0bc 9ef3 d43b 80bd bbba 9623 4d3d
00000250: 20e9 91bb e2a0 7d3d fced 4dbd a494 b13b
00000260: c97d ea3c eaa1 01bd e617 f23c e81d 8f3d
00000270: ed44 833c 62d4 ab3c f198 323d 2170 603c
00000280: 2739 0e3d 0202 b03c 397d 4cbd 2a70 ef3d
00000290: 9caa 84bd 46a8 523d f063 863d 829e 08bc
000002a0: 4661 183d 6e54 c2bd aa19 4abc 0ed8 ebbc
000002b0: 485c 55bd 04f9 8d3b b220 e1bc 5551 36bd
000002c0: ec9d a63b 36e9 d93c 127c d43b 469d b6bb
000002d0: eb29 30bd 92a5 43bd 090f 1fbc 2198 6c3d
000002e0: c994 5ebc 70d4 ce3d 50ba 963d bec8 9bbd
000002f0: 4100 0d3d 6a27 48bd 2ba3 f6bc e6a8 da3c
00000300: e29f b13c 0bd0 92bd c0b9 5ebd 8ec1 11bd
00000310: 39c1 153d a432 d4bc 9615 463d 6275 333d
00000320: d0bf 013d c58f c8bb 2db4 9dbd 2534 b5bc
00000330: 8cc6 83bc 96fd b33d 4e90 90bd 4dbb df3c
00000340: cf24 de3c 27bd e03d 71e7 4e3d 271c 843c
00000350: 870a df3d 5d87 5bbd 78fc a8bb 512e 0cbd
00000360: 6d1d d13c 17b0 05bd c175 0c3c 859e 0e3d
00000370: d8bb 303d bce2 1a3c cc41 28bd fb07 94bd
00000380: 7f18 873c 2585 a43b b378 893c 763c 46bc
00000390: b81d ad3d e961 1bbd c0ce 313d 3c65 10bc
000003a0: 1d99 cfbc 4dca 833d e563 ca3d 9b47 eebc
000003b0: bd1e 97bd 60c4 3b3c 5d48 37bd 2261 ee3d
000003c0: 1cbd 0abe 907e 1a3d 6623 b6bd 827c 34bd
000003d0: d4a5 00be 9649 67bc e829 8bbc 24d8 2139
000003e0: 3b8f a03d ace6 523d 7cdf ba3c 54a5 adbc
000003f0: 96e9 da3d 2d7d dabc 65c2 d7bc 8684 08bd
-0.05741794 0.007647429 0.021506168 -0.028210854 0.04698952 0.01676592 -0.06627028 0.01797944
0.043909438 -0.007266485 -0.031954914 -0.076841705 -0.047964133 0.021679146 0.02884698 -0.020187484
0.01866583 -0.06355788 -0.05524386 -0.011610249 -0.009826834 -0.021737352 -0.039078087 -0.050813075
0.111751236 -0.05378449 -0.0077353516 -9.473406e-05 -0.021705983 0.009220629 0.03485339 0.05359584
-0.085419334 -0.0051344186 0.03049362 -0.017851532 -0.018856985 -0.007932989 0.019698685 0.019176105
-0.034097414 0.07533197 -0.0028602413 -0.02029018 -0.008524947 0.0074464655 -0.014045358 -0.022360373
-0.0410739 -0.061759897 -0.04560612 0.0003508291 0.018743122 0.018029997 -0.072014354 -0.015559489
-0.056663387 -0.0878113 -0.033177827 -0.02990177 -0.077464715 -0.0008195469 0.101790614 -0.007566344
-0.09661912 0.058433577 0.01978425 0.05209173 -0.011027076 -0.068695195 -0.051438037 0.046450514
-0.006182875 0.09185789 0.018390834 0.050109815 0.03992398 0.022540472 -0.02208043 -0.031594705
0.03277996 0.030937077 0.0986311 0.036281932 -0.04432412 -0.006616331 -0.048844904 0.098060474
0.01968789 -0.009153497 -0.0553728 -0.004289342 -0.02530734 -0.003806013 -0.07317602 -0.06330255
-0.0062921457 0.049328696 -0.116251044 -0.03127861 -0.064106815 0.038365588 -0.021368673 -0.032231145
0.005733873 -0.018970964 0.027772482 0.048618857 0.050011225 0.16225079 0.019827861 -0.034544986
0.079392344 0.008613872 0.038460664 -0.008913229 0.049186226 0.0042725317 -0.015306122 -0.019710325
-0.05494705 0.0594534 -0.0042193234 0.025095573 0.015507835 0.065108135 -0.08882694 0.04138344
-0.059946317 -0.05800623 0.037315954 -0.03307423 -0.02718887 0.0756991 -0.053878937 0.008216489
-0.049194913 -0.04251573 0.0032509912 0.035053425 -0.08067212 0.05465145 0.008057957 0.0011007949
-0.019595908 0.006498768 -0.0014323443 0.050082766 -0.0044528395 0.061921008 -0.050275788 0.0054193307
0.028624432 -0.031648554 0.029552411 0.06988126 0.016024077 0.020975295 0.043602888 0.013698609
0.034722473 0.021485332 -0.04992411 0.116913155 -0.06477854 0.05143001 0.0656203 -0.008338572
0.037202142 -0.0948876 -0.01233522 -0.028789546 -0.05208996 0.0043326635 -0.02748141 -0.044511158
0.0050847437 0.026600461 0.006484517 -0.0055729477 -0.043008726 -0.047765322 -0.0097081745 0.05776227
-0.013585278 0.10099113 0.07359755 -0.07606648 0.03442407 -0.048865713 -0.030107101 0.026691865
0.021682683 -0.07168587 -0.054376364 -0.03558498 0.036561225 -0.025903054 0.04836043 0.043813117
0.031677067 -0.0061206543 -0.077003814 -0.022119591 -0.016085885 0.08788602 -0.07058774 0.027310992
0.027117161 0.10973578 0.05051369 0.016126705 0.1089068 -0.05359589 -0.0051570497 -0.03422386
0.025526727 -0.032638635 0.008572997 0.034819145 0.04314789 0.009453472 -0.041078374 -0.07228085
0.016491173 0.005020755 0.016781187 -0.012099376 0.08452934 -0.03793517 0.043410063 -0.008813199
-0.025341565 0.0643507 0.098823346 -0.029086879 -0.0737891 0.011460394 -0.044746745 0.1163962
-0.13548702 0.037718356 -0.088934705 -0.044064052 -0.12563258 -0.014116665 -0.016987756 0.00015434675
0.07839819 0.051489517 0.022811644 -0.021196999 0.10689084 -0.026671017 -0.026337812 -0.03332951

output_layer.bias f4 [2]
00000000: 4f92 5abd 09fe d2bb
-0.053362187 -0.0064389748
