summit/benchmarks/models/reizman_suzuki_case_1/reizman_suzuki_case_1_predictor_0.pt (torch, 30487 bytes, 4 tensors)

input_layer.weight f4 [512, 11]
000000 02 ae 30 bd 69 54 8a 3e 5c 0f 45 be d0 74 2c 3e
       -0.043134697 0.27017525 -0.1924414 0.16841435
000010 0a 0e 3d bc 14 b9 2b be e1 b9 71 be 88 0e c1 3d
       -0.011538992 -0.1676982 -0.23606063 0.094266
000020 78 44 99 3e 85 1a 4d be c2 53 21 3d 7e dd 5a 3e
       0.2993505 -0.20029648 0.03938652 0.21373555
000030 c2 c5 6e 3c 1c 41 a3 3d 48 f0 99 3d 18 1f 34 3e
       0.014573516 0.07971403 0.07516533 0.17589986
000040 74 6e 86 3e 5e c7 45 be d2 75 67 be 93 98 69 be
       0.26256144 -0.19314334 -0.22603539 -0.22812109
000050 fc 46 64 3e 92 05 83 bd 5d 4d 88 3b 4b 03 0a be
       0.22292703 -0.06397547 0.004159613 -0.13477819
000060 e1 23 5d be 3e cd 12 3e 36 17 9c bd 92 b5 50 3e
       -0.21595718 0.14336106 -0.07621615 0.20381764
000070 2b 92 49 bb 7a 0c 90 be 0c 48 c8 3d a9 2a 77 3d
       -0.003075729 -0.2813452 0.09779367 0.06034342
000080 02 af 90 3e 71 bb 64 be 61 74 2c 3e 35 16 7d 3d
       0.2825852 -0.22337128 0.1684127 0.061788756
000090 f0 82 27 be e4 c0 a2 bd e3 6f 26 be 50 43 fa bd
       -0.16358542 -0.07946947 -0.16253619 -0.1221987
0000a0 6b 44 10 3e 0e 96 71 be 50 bf 91 be b3 4e 7c 3e
       0.140886 -0.23592398 -0.28466272 0.24639396
0000b0 ba d6 1d be 14 fa 34 be 85 02 98 3e 42 ca 6d 3c
       -0.15413943 -0.17673522 0.29689422 0.014513554
0000c0 36 3b 10 be dc a7 43 be df e2 59 3d 2e 18 a3 3d
       -0.14085087 -0.19107002 0.053194877 0.07963596
0000d0 f3 c0 88 be b1 b4 7d bc 15 82 2c be 27 9e fc 3d
       -0.2670971 -0.015484975 -0.16846497 0.12334853
0000e0 8d 13 99 bd fe 1b 2b be 3e c3 81 3e 5f 8c 7e be
       -0.07474432 -0.16709897 0.2534427 -0.24858235
0000f0 72 27 81 be 07 78 4e be ca 63 4a bc 2f a7 f3 3d
       -0.25225407 -0.20162974 -0.012352893 0.11897122
000100 be 58 90 be 81 78 15 3e 62 09 14 3e ba 10 84 3e
       -0.28192705 0.1459675 0.14456704 0.2579401
000110 46 08 8d bd 83 60 e9 3d 7e 44 d7 bd 35 53 8a 3e
       -0.06886344 0.11395361 -0.10511111 0.27016607
000120 ed bc b3 3d 8d cc 28 3d 3a a0 90 bd f4 0b 41 be
       0.08776269 0.0412107 -0.07061811 -0.18852216
000130 25 79 81 be ed 38 3f 3d 80 f5 f2 bc b2 d6 39 be
       -0.25287738 0.046685148 -0.02965808 -0.18148306
000140 21 39 87 be bb 08 15 3e 9a a7 0e 3e 4a 3c d2 3d
       -0.26410773 0.14554112 0.13931122 0.102654055
000150 8f eb d6 bd d9 7d 07 be db 59 68 3e 17 f3 77 bd
       -0.10494148 -0.13231601 0.22690527 -0.060534563
000160 87 36 53 be aa cc 86 3e 2e b5 9b bd 93 6e 86 3c
       -0.2062627 0.2632802 -0.07602917 0.016410148
000170 6a b3 8f 3e d7 9e 00 3e ef ca 79 be de 00 32 be
       0.2806657 0.12560593 -0.2439382 -0.17383143
000180 d6 4b 2d 3d f4 b7 3c 3e 54 ec 6d be 20 8b 54 bd
       0.04230865 0.18429548 -0.23234683 -0.051890492
000190 9a 79 0e 3e 39 ce 12 3d dd f7 8b 3e fc 37 53 3d
       0.13913575 0.0358412 0.27337542 0.051567063
0001a0 fa 93 2e bd 04 65 4d be 2a 26 66 3e ad ae 3f 3e
       -0.04262159 -0.20058066 0.22475496 0.18718977
0001b0 fa 06 dd bd fa 4e 36 be 75 69 4b bd cc 0e 09 3e
       -0.10792346 -0.17803565 -0.04966112 0.13384551
0001c0 7d 7d 27 be fb 29 88 3e ee 79 f9 bd b3 50 76 be
       -0.16356464 0.2659453 -0.12181459 -0.24054222
0001d0 35 66 43 bd e7 ef bf 3d 04 e9 58 be 31 49 86 be
       -0.047704894 0.093719296 -0.21182638 -0.26227716
0001e0 9a ad 8e bc 86 96 04 3d 88 82 74 3e e7 f1 77 bd
       -0.017416764 0.032370113 0.23877919 -0.06053343
0001f0 aa 9e b2 bd ed 6b 2a be 44 5e 94 3e 46 92 05 be
       -0.08721669 -0.16642733 0.2897817 -0.1304408
000200 de 28 14 3d 64 8e 92 be ee f7 8a 3e 9c b5 3e bc
       0.036171786 -0.2862426 0.2714228 -0.011639979
000210 a8 f6 bb 3d 96 a8 85 bd 62 30 50 3d 49 80 49 3e
       0.09177905 -0.06526296 0.05082739 0.19677843
000220 21 2e 61 3d 30 67 0b 3e 06 ef 8e be 92 cd b3 3d
       0.054975633 0.13613582 -0.27916735 0.08779444
000230 59 c8 83 3e 1b 0d 05 be 3e f4 4a 3e 72 52 4c 3e
       0.2573879 -0.1299328 0.19819734 0.19953325
000240 c8 86 6a be fe b6 22 bd 60 2f 88 be 24 de 18 3e
       -0.22902977 -0.039725296 -0.26598644 0.1492849
000250 9e 56 45 be 15 9e 4f 3e d1 8b 0a 3e 6f 3d c3 3d
       -0.19271323 0.20275147 0.13529898 0.09533202
000260 1a 70 0e 3e 40 2e 42 bd b3 27 25 be ab 61 e4 bd
       0.13909951 -0.04740739 -0.16128425 -0.11151441
000270 bb 28 86 3d b7 76 5a 3d db b2 35 be 41 d9 13 3e
       0.065507375 0.05333587 -0.17744009 0.14438345
000280 ab 26 94 3e 5f ed 6f 3e c0 53 e9 3d f2 e6 a6 bd
       0.2893575 0.23430394 0.11392927 -0.08149518
000290 17 ab 40 3c dd eb 08 3e 7c e7 93 be 45 21 48 be
       0.011759541 0.13371225 -0.28887546 -0.19543941
0002a0 0a a2 8d 3e 86 94 ff bd 5d b1 70 3e b9 dd 65 3c
       0.27662688 -0.124795005 0.23505159 0.014029914
0002b0 3b fa 1b bd 22 2d 0a be ca ef f7 bd c1 ec e2 3d
       -0.038080435 -0.1349378 -0.12106283 0.110803135
0002c0 df b2 31 3c f5 a6 2d 3e d7 4b 31 be 7c 17 f8 bb
       0.010845869 0.1695822 -0.17314087 -0.007571159
0002d0 05 1e 29 be 42 1e f2 bc bb 76 4f 3e ed 23 84 3e
       -0.16515358 -0.029555444 0.20260136 0.2580866
0002e0 38 6a 95 3e 23 00 1b be fb 59 18 be f1 46 29 be
       0.291826 -0.15136771 -0.14878075 -0.16530968
0002f0 d4 02 47 3d 06 8f 7e 3e 12 d2 56 be e4 82 81 3e
       0.04858668 0.24859247 -0.20978573 0.25295174
000300 3d bb 37 be 5e fb 63 be 39 4b 42 3e 3d 8a 08 3e
       -0.1794252 -0.22263858 0.18974008 0.13333984
000310 bd 84 5f be 44 d3 2e 3e 5e e0 90 be 44 5f f3 bd
       -0.2182798 0.17072779 -0.2829618 -0.11883405
000320 af e9 2b 3e 7f fa c2 bd 06 90 16 3e f7 14 14 3e
       0.16788362 -0.095204346 0.14703378 0.14461122
000330 72 0a ee 3d a2 1d 8c 3e 2d ff 10 3e 68 57 9d 3e
       0.11623086 0.27366358 0.14159842 0.30730748
000340 f6 60 91 3d 6f 25 02 3e 77 36 75 be 14 8d 55 be
       0.07098572 0.12709592 -0.23946558 -0.20854598
000350 34 5c 87 3e 5e 22 b5 3d 6a f1 83 bc 7e 37 94 3d
       0.26437533 0.08844446 -0.016106326 0.07237147
000360 3e f2 96 be e6 ee 4b be 9b 84 3c be 4a 1c 74 be
       -0.2948169 -0.19915351 -0.1840996 -0.23838916
000370 3b 13 86 bc 1e 6f 68 bd 2d 74 42 3e 99 48 b3 3c
       -0.016366592 -0.056746595 0.1898963 0.021885203
000380 39 12 3a bd b1 bd 9a bd 7b 69 98 3d f0 61 68 be
       -0.045427535 -0.07555712 0.07441994 -0.2269361
000390 9a 7d d1 3d 56 87 71 3e 2a 8d e5 3d d9 b4 44 3d
       0.10229035 0.23586783 0.112085655 0.048024032
0003a0 41 2f 09 3c ba 4a 3e 3d 55 88 5e 3e 56 48 0f be
       0.008373083 0.046457984 0.21731694 -0.13992438
0003b0 82 59 31 be 91 23 d1 bd c2 33 02 3e 49 53 91 3c
       -0.17319301 -0.10211862 0.12715057 0.017739909
0003c0 da b7 46 be 4e 06 48 3e a4 30 46 3e d5 40 82 3e
       -0.19406071 0.19533655 0.19354492 0.25440088
0003d0 ef 2a 83 bd bb b5 54 be be 55 64 3e 01 13 7c 3e
       -0.06404673 -0.2077245 0.22298333 0.24616624
0003e0 c4 13 1e be 8a 66 9a bd 3d ce eb bd 7d 6e 54 3e
       -0.15437227 -0.07539089 -0.11513946 0.20745273
0003f0 99 b4 3f 3b a6 dd 92 3e f4 2b 7c be ce 2f 5d 3e
       0.0029251932 0.2868473 -0.24626142 0.21600267

input_layer.bias f4 [512]
000000 3d b4 7f be 6e 66 82 be bd ca 3a 3e d3 cc 41 be
       -0.24971099 -0.25468773 0.18241401 -0.1892579
000010 e8 1d 87 3e cb 8e 4a 3e ed 98 09 3d a9 8a 48 3e
       0.26390004 0.19781034 0.033593107 0.19584145
000020 48 54 c3 3c ce 3a 53 bd be 9f 40 3c a7 7d b0 bd
       0.0238439 -0.051569752 0.0117568355 -0.08617716
000030 ba bc 0c be 5e ef d6 bd c5 12 2a be c1 4a 23 bd
       -0.13743868 -0.104948744 -0.16608723 -0.039866213
000040 b3 d6 21 be 50 3c 6e be 56 c8 bd bd 04 5f 20 3d
       -0.15804558 -0.23265195 -0.09266727 0.039153114
000050 e0 3e fe 3d 3a ed a9 3d e0 0d 86 bd 15 77 56 be
       0.12414336 0.082972005 -0.06545615 -0.20943864
000060 19 8e 2d be 6a e3 f0 3d 8f 65 74 be 67 bf 76 be
       -0.16948737 0.11762126 -0.23866867 -0.24096452
000070 9f e7 96 3e ef ba ef bd b5 54 5b 3e 5f 4b 6c bc
       0.29473588 -0.11705577 0.21419032 -0.014422267
000080 fb 71 be bc 26 fb f8 3c ce e2 9a be 57 80 2a 3e
       -0.02324771 0.030393194 -0.30251163 0.1665052
000090 32 6b 8a 3e 3b e3 2a bd 56 13 48 be 6b c7 02 bd
       0.2703491 -0.04172061 -0.19538626 -0.03192846
0000a0 04 ed 63 be a5 2b 10 be 9c 32 5c 3e 7e 1e 5e 3e
       -0.22258383 -0.14079149 0.21503681 0.2169132
0000b0 79 d9 82 be d8 3f b6 bd 14 8a 58 3d b6 c7 82 bd
       -0.25556543 -0.08898896 0.052866057 -0.06385748
0000c0 e4 1c 41 bd 27 3c a6 3d 70 4a a4 3d e0 7e 8b be
       -0.047146693 0.08116942 0.0802201 -0.27245235
0000d0 99 51 2d be bf 33 70 be d6 9c 01 3e 5a 58 95 bd
       -0.16925658 -0.2345724 0.12657484 -0.07292242
0000e0 dc 2c d3 3b e3 d1 d4 bd c3 db 75 3e 61 bd 02 3e
       0.0064445566 -0.10391595 0.24009614 0.12767555
0000f0 93 80 80 3c ad c2 7c 3e 25 9b 6a be 7e d5 8a 3e
       0.015686309 0.24683638 -0.22910745 0.27116007
000100 67 98 06 3e cb 34 f8 3c ad 50 c3 3d 0d c1 32 be
       0.13144074 0.030298611 0.09536872 -0.17456456
000110 c3 47 49 3e 4e 24 97 bd 9f d8 5f be 0a 2a a0 be
       0.19656281 -0.073799714 -0.21859978 -0.31282073
000120 a2 7a dd bc 9e aa 5a be 6c ec 88 3d 75 f8 51 3e
       -0.027036015 -0.21354148 0.06685719 0.20504935
000130 b3 9f 1e 3e 69 a5 c8 3b b6 c6 8b be ed a5 5c be
       0.15490608 0.006123234 -0.27300042 -0.2154767
000140 cb 3c e4 bd df 5e c9 3c f4 50 21 be df 4f 64 be
       -0.11144408 0.02458137 -0.15753537 -0.22296093
000150 d9 a0 3f 3e f0 96 59 3e 96 25 72 3e 6c 50 5f 3e
       0.18713702 0.21248984 0.2364715 0.21808022
000160 de a0 e1 3c 72 2b 81 3e 00 d3 88 3e 68 42 77 be
       0.027542528 0.2522846 0.2672348 -0.24146426
000170 3f 22 13 be cf 33 3d bd f2 cc 72 3e 7c 04 c3 3d
       -0.14368533 -0.046191987 0.23710993 0.0952234
000180 11 c6 36 be b5 89 8d 3e 9f e6 43 3e 7c 31 3f 3e
       -0.17848994 0.27644125 0.19130944 0.1867122
000190 ee b7 19 be 7c 07 78 be 23 ff 6a 3c 62 24 6f be
       -0.1501157 -0.24221605 0.014343056 -0.23353723
0001a0 7e 11 13 3e e6 74 1b 3e 09 11 e9 3d 12 56 59 be
       0.14362141 0.15181312 0.11380202 -0.2122424
0001b0 42 e6 5e be e1 9e 44 be 64 50 18 bd c5 bc 55 3e
       -0.21767524 -0.19201232 -0.03718604 0.20872791
0001c0 3e 05 7a bd 6b 2f 1f 3d 83 cf c8 3d 72 de b5 bd
       -0.061040156 0.03886358 0.09805205 -0.08880319
0001d0 6f 22 28 3e 74 d7 82 be b0 24 89 3e 22 da 84 be
       0.16419385 -0.25555003 0.26785803 -0.25947672
0001e0 a6 49 97 3d 3a 72 8c 3e fc f3 48 be c9 15 5a be
       0.07387094 0.27430898 -0.19624323 -0.21297373
0001f0 15 5a 56 be 6e 90 1a 3e 1a 65 1e be 44 17 7c be
       -0.20932801 0.15094158 -0.15468255 -0.2461825
000200 4d 0b e0 3d e1 b0 81 3e 3b e9 85 3e be 34 e5 bd
       0.109396555 0.2533026 0.26154503 -0.111917004
000210 ef 6d 94 3c be c3 87 be a6 d7 3a 3e a3 c0 8d 3d
       0.018118827 -0.26516527 0.18246326 0.06921508
000220 97 13 6e 3e f5 cb 35 3e 63 16 99 be 55 9a 9d bb
       0.2324966 0.17753585 -0.29899892 -0.0048096576
000230 d5 18 88 bd 1b bf c3 bd a5 37 65 be ab b4 87 be
       -0.06645361 -0.09557935 -0.22384508 -0.26505026
000240 54 a8 ca bd 35 0f 81 3e 76 74 4d 3d 44 82 fe bd
       -0.09895387 0.25206915 0.050159894 -0.1242719
000250 b1 f6 5b be 8c 46 11 3e ee 1d 68 3e 71 75 f1 3d
       -0.21480824 0.14187068 0.22667667 0.11789978
000260 2d dd b3 3d ce 6d d2 bc b2 79 55 3c b9 bb 0d 3e
       0.0878242 -0.025687125 0.013029503 0.13841142
000270 6b bb 72 3e 3d 52 d2 bd 1a a7 80 be 2d e3 89 bd
       0.23704307 -0.10269592 -0.25127488 -0.067327835
000280 09 ce fa bd 20 75 d6 3d d9 80 8a 3e 38 71 33 3e
       -0.12246329 0.104715586 0.27051428 0.17523658
000290 22 88 d0 b7 eb 9b 33 3d 8c a3 4c 3e a1 17 0e 3e
       -2.4858924e-05 0.043849867 0.19984263 0.13876201
0002a0 7f 88 2b be a9 6d 3c be 09 6e 05 be 94 cc a5 3d
       -0.16751288 -0.18401207 -0.13030256 0.08095661
0002b0 71 83 ce bd 19 44 23 3c f0 3f 2d bc 05 da 62 be
       -0.10083664 0.009964966 -0.010574326 -0.2215348
0002c0 5f dc e5 3b 26 a3 e5 bd ab 10 bc 3d 52 9c 8b be
       0.0070147957 -0.11212759 0.09182867 -0.272677
0002d0 f9 79 1b be a2 13 c8 bd 49 ed 11 be 33 77 5e be
       -0.15183248 -0.0976937 -0.14250673 -0.21725158
0002e0 93 2c 40 be 97 29 7c 3e 36 bb 3d be 37 78 27 3e
       -0.18767004 0.2462524 -0.18528447 0.16354452
0002f0 d5 a2 60 3e a1 e5 04 3e 8c aa 46 be 81 bf 81 be
       0.21937115 0.12978221 -0.19400996 -0.25341418
000300 32 6b 04 be cd 00 71 be 24 3c 87 be 07 4e 44 3e
       -0.12931517 -0.23535462 -0.2641307 0.1917039
000310 d4 a3 1b 3d 17 9a 30 b8 c8 c0 18 3e 6e 4c 0c 3d
       0.037998036 -4.2105177e-05 0.1491729 0.034252577
000320 5e 0f 6a 3e b9 51 18 3d 29 b1 06 be a6 84 60 bd
       0.22857425 0.03718731 -0.13153519 -0.054814003
000330 02 b6 3c be a1 51 7a 3d 56 0a 0a be 86 39 63 3e
       -0.18428805 0.061113004 -0.13480505 0.22189912
000340 6b 1b c7 bd 7b 05 9d 3e ce 1a c1 3d 1c fb 47 3e
       -0.097220264 0.30668244 0.09428941 0.19529384
000350 ec 9d 49 be 33 82 98 be 5b 33 07 be a6 59 75 be
       -0.19689149 -0.29786834 -0.13203184 -0.2395998
000360 85 95 89 3e fb 54 23 be 51 2a 7a be 47 1e 24 3e
       0.26871887 -0.15950386 -0.24430205 0.16027175
000370 61 e7 78 3e de bc 92 3e f8 03 3a 3e 7e d2 3c be
       0.24307014 0.2865972 0.18165576 -0.18439671
000380 34 34 06 3e bc 2f 64 3e 7c a4 ba 3c 91 34 13 3e
       0.13105851 0.22283834 0.02278351 0.14375521
000390 f9 15 39 3e 67 34 26 3e 12 0c 83 be d2 e0 bb 3d
       0.18074788 0.16230927 -0.25595146 0.091737404
0003a0 c5 8d 98 ba 65 07 93 3d e8 82 3e be 4f 39 57 be
       -0.001163893 0.07179145 -0.18604624 -0.21017955
0003b0 93 7d ee bd 4b 6b 96 be 59 e9 6e 3e 72 98 82 be
       -0.11645045 -0.29378733 0.23331203 -0.25506932
0003c0 69 89 91 be a9 f3 8d bd a8 4e 63 3e c9 f6 f5 bd
       -0.28425148 -0.0693124 0.22197974 -0.12009961
0003d0 1b 29 1a be a3 49 87 bd a2 30 c8 3d fe 1c fa 3d
       -0.15054743 -0.06605842 0.09774901 0.12212561
0003e0 54 9d 0e be c3 d8 d7 bc 0a e1 40 3e 3d 70 f7 3d
       -0.13927203 -0.026348477 0.18835846 0.12081955
0003f0 f7 26 08 bd ae 7e 35 be d7 fd f5 bd 37 85 7d bd
       -0.033240285 -0.17724106 -0.12011307 -0.06189462

output_layer.weight f4 [2, 512]
000000 e3 98 64 bb 44 b9 f3 bc c4 4c 90 bb 42 83 8e 3c
       -0.0034881167 -0.029751427 -0.0044036824 0.017396573
000010 70 9c 89 bd dc 7f d9 bc ab db 02 3d 7d b5 6f bd
       -0.06719291 -0.026550226 0.031947773 -0.05852269
000020 df ef 89 bd 30 32 38 3c eb 08 74 3d f2 b3 32 3d
       -0.06735205 0.011242434 0.059578817 0.04362864
000030 10 38 4d bd 77 11 79 3c 57 fa 89 3c 1f 60 0c 3d
       -0.050102293 0.015201918 0.016843004 0.034271356
000040 36 5c 0c 3e 71 fc 3d 3d b5 86 08 bd ff 31 a5 bc
       0.1370705 0.046383325 -0.03333159 -0.020165442
000050 e8 22 ec bc 66 96 b4 bb 2e fe 37 ba 0b bc 12 3d
       -0.028825238 -0.005511093 -0.0007018772 0.035823863
000060 51 0b 7f 3d 92 0d dd bc f4 e2 c0 bb 35 d5 a3 bb
       0.06226665 -0.02698401 -0.00588643 -0.0049997815
000070 13 35 8a bb ef 8a 1d bd d1 f6 99 3c cb ba 2a 3d
       -0.0042177527 -0.038462576 0.018794449 0.041682046
000080 c3 13 5e bd e1 2a ad bd e1 0e 6a bc 49 fd be 3c
       -0.054218065 -0.08455444 -0.014285774 0.023314135
000090 24 c7 41 bd ce 51 3a bc 73 9b e0 bc 5c 17 45 bd
       -0.047309056 -0.011372043 -0.027417874 -0.04811798
0000a0 d4 6b 63 3a df c6 f6 bb 71 f7 8d bc ac c0 68 3c
       0.00086754304 -0.0075310315 -0.017329903 0.014206093
0000b0 e3 80 b7 3b 8b e7 e8 3c ad 60 30 bd 76 b9 05 bd
       0.0056000813 0.02843072 -0.043060947 -0.032647572
0000c0 c3 2a fe 39 6e 07 2d 3d c2 5e 16 bd 34 6a 7e 3b
       0.00048478515 0.042243414 -0.03671146 0.0038820626
0000d0 37 7e de bd 62 d1 30 bc 94 f3 51 3c 18 46 80 bc
       -0.10863917 -0.010792108 0.012814421 -0.015658423
0000e0 19 73 19 bd fc 6f b4 bc b8 92 d0 bd c3 06 05 3d
       -0.03746328 -0.022026055 -0.101842344 0.03247715
0000f0 1a 78 84 bd 19 7d b6 bd 4b 1e c7 3c e6 5e 10 3d
       -0.0646822 -0.08910579 0.024306437 0.035246752
000100 24 11 0b 3d 36 e4 85 3d 5d 8e 17 bd 8a 98 6a bb
       0.033951893 0.065376684 -0.037001003 -0.0035796487
000110 19 a3 23 3d f9 14 3d bd 24 15 81 3d ec 6c 45 bd
       0.039950464 -0.04616258 0.063028604 -0.04819958
000120 8e 3f a8 bd fd 63 d3 bb a1 64 c0 bc d7 71 1c bd
       -0.08215247 -0.0064511285 -0.023485484 -0.038194504
000130 0d e3 af 3a c5 01 93 bd 2b f2 92 bc 09 61 00 bd
       0.0013419107 -0.07178072 -0.01793774 -0.03134254
000140 03 17 7c bc df 52 6a bd 92 f3 1d bd ee c4 dd bc
       -0.015386346 -0.05720794 -0.038562365 -0.027071442
000150 f0 c7 db ba 81 20 5f bd d1 6c f3 bc 72 0e c2 bc
       -0.001676796 -0.054474358 -0.029714974 -0.023688529
000160 3b df 91 bd 42 2d 45 bd 36 e9 0d 3d 92 ad 56 bd
       -0.07122656 -0.048138864 0.034646235 -0.052411623
000170 6f b1 9a bc 29 a5 d6 bd 4f 0b 39 bd 1b 5b 38 bc
       -0.018883435 -0.104807205 -0.0451768 -0.01125219
000180 fa 51 45 3d b5 f4 12 bd 46 26 dd 3c a0 f0 e5 3c
       0.048173882 -0.035877902 0.02699579 0.02806884
000190 3e c5 20 bc c8 44 b9 bc 86 c3 9d bd ee 0e 7f bc
       -0.009812651 -0.022615805 -0.07703309 -0.015567524
0001a0 7e 1d 6e 3d 24 d4 c7 bc 1d c1 85 3d d9 f0 7c bc
       0.058133595 -0.024393149 0.06530974 -0.015438282
0001b0 67 62 eb bc 56 bf 25 bb c9 a3 5a 3c d1 53 c4 3b
       -0.028733445 -0.0025291047 0.0133447135 0.005991437
0001c0 97 0d a9 3d 75 24 8f bd 41 d5 09 3c 98 9b 87 bd
       0.08254545 -0.069893755 0.00841266 -0.06621474
0001d0 b7 bd 86 bc 4a 8a 9f 3b 8d ce 41 3d be 84 40 3b
       -0.016447885 0.0048687803 0.047316123 0.0029375996
0001e0 52 d6 ac bd 04 0d 3f 3d ed a8 0f 3d 0c a0 8f bd
       -0.08439316 0.046643272 0.03507321 -0.070129484
0001f0 38 19 70 3d c4 62 a2 3d 0a b6 9b 3d 52 d7 ec 3c
       0.0586178 0.07928994 0.076030806 0.028911266
000200 3a 36 d2 bd 2a 0f a8 3c f8 bf c6 bc 7b be 33 ba
       -0.10264249 0.020515043 -0.02426146 -0.0006856692
000210 1e 6d 09 3d 2a 04 6f 3d 13 69 0d 3d 3e 0a 12 bd
       0.033551328 0.05835358 0.034524035 -0.0356543
000220 82 04 26 3c a1 8e c5 bc ca e3 d4 3c 80 3c f5 bc
       0.010132911 -0.024115862 0.025987525 -0.029936075
000230 78 12 95 ba 8f 03 7b 3d 3f 18 a4 3c fe 17 9f 3c
       -0.0011373302 0.06128269 0.020031093 0.01942062
000240 35 f2 ca 3d 4c cd 1f bd 78 a3 82 bc 0b 67 44 bd
       0.099094786 -0.039014146 -0.015947089 -0.047949832
000250 e2 e5 8e bc 77 10 ca 3d 24 4c af 3c 06 4a b7 3c
       -0.017443601 0.09866422 0.021398611 0.022374164
000260 76 5e 42 3b bc 19 85 bc 3e db 81 bb 6e 5d 63 bd
       0.0029658354 -0.016247623 -0.0039629033 -0.055509023
000270 e6 fb 9d bd f7 ba 80 3d bd 87 ce 3c 17 0d 12 3d
       -0.077140614 0.06285661 0.02521121 0.035657015
000280 2c 28 1f bc ca 5a 3b bd 3c ff 89 bc 1e 26 a8 3c
       -0.009714168 -0.04574088 -0.016845338 0.020525988
000290 df 4b 67 3c 25 c7 7b 3d b2 14 7b 3c 6f d9 e2 bc
       0.01411721 0.061469216 0.015324758 -0.027691571
0002a0 e6 c1 83 3d 68 9d db 3d 99 c5 93 bd bb 88 ce 3c
       0.064334676 0.10723382 -0.07215423 0.025211683
0002b0 cc b9 30 3b c6 5d 6a bb 26 12 9c 3d 60 01 80 bd
       0.0026966212 -0.003576146 0.07620649 -0.06250262
0002c0 95 39 90 3d c3 3a 08 bc 11 95 eb bb c9 de 02 3c
       0.07042233 -0.008314791 -0.007189401 0.007987686
0002d0 0b 9d f1 bc 75 96 10 bd c0 bb 82 bd 92 fc d8 bc
       -0.02949383 -0.035299737 -0.06383467 -0.026487622
0002e0 f8 59 7f 3c c0 3b a6 3d 89 6f 03 3d e6 05 4b 3d
       0.015585415 0.08116865 0.03208879 0.049566172
0002f0 52 77 ad bc 62 44 66 bd ab f0 49 bd 8f 3b 87 3d
       -0.02117506 -0.05621756 -0.049301784 0.06603157
000300 a8 08 fb 39 9b 22 b0 bc a6 a5 df 3d 55 4a 8a 3c
       0.000478809 -0.021500876 0.10920267 0.016881147
000310 d3 b4 bb 3d d2 1b ea bd 1a 04 d2 bc d0 1a 51 bd
       0.09165349 -0.114310876 -0.025636721 -0.05105096
000320 bd 91 f8 3c 7d b4 59 3d f1 10 1e bc 33 48 cf bd
       0.03034293 0.053150643 -0.009647594 -0.10121193
000330 4d cb 78 bc 4d 3d 21 39 43 3a 0a bc 0e 7f 78 bd
       -0.015185189 0.00015376993 -0.008436742 -0.060668044
000340 2f 2b ed bc 2b 42 b8 bd aa e8 84 bd d9 8c 8d 3d
       -0.028951256 -0.089969955 -0.0648969 0.0691163
000350 f2 d8 29 bd 3f 12 06 3c 78 fe 95 3d cc 73 d5 bc
       -0.04146666 0.008183061 0.07323927 -0.026056193
000360 b9 59 18 3c ae 49 70 3c ff 7a 0f bd 38 c4 46 bd
       0.009298735 0.014666004 -0.035029408 -0.048526973
000370 0c 0a 01 3c e4 6a 30 bc c7 df a8 bd 60 fa 76 3d
       0.0078759305 -0.010767672 -0.08245807 0.06029737
000380 4c 6f 63 bc 59 f8 94 bd 0d 9a 5c bb 41 60 71 3c
       -0.013881516 -0.07273931 -0.0033661157 0.014732421
000390 78 3c ae bc f5 8b a5 bd ec 55 2c 3d 51 fd 7c 3d
       -0.021269068 -0.08083335 0.04207413 0.06176502
0003a0 2d e5 2f 3d 8c 15 a1 bd fc ed 9d bd 50 7b ac bc
       0.04294317 -0.07865438 -0.077114075 -0.021054894
0003b0 fa a8 b8 3c f5 a7 7a bc a5 a5 89 3d eb 21 67 3d
       0.022541512 -0.015298833 0.06721047 0.05642883
0003c0 20 58 7b 3d e2 34 dc bc 6d 54 a0 bd c8 b0 52 3c
       0.06136334 -0.026880685 -0.07828603 0.012859531
0003d0 97 82 67 bd 26 05 8c 3d 86 b1 5f 3c 3c ef 28 bd
       -0.056521025 0.068369195 0.013653165 -0.041243777
0003e0 98 0f 11 3d 52 2f 5b bb cc f5 40 bd bd cc 0a 3d
       0.035415262 -0.0033444953 -0.04710941 0.03388666
0003f0 6d ae 00 bd e2 53 1e 3c 45 48 88 3b 26 c5 0a bd
       -0.031416345 0.009663554 0.004159006 -0.03387942

output_layer.bias f4 [2]
000000 ad 80 2e bd ce 3c 56 bd
       -0.042603184 -0.05230408
