experiments/multitask/baumgartner_phenethylamine_emulator/baumgartner_primary_amine_predictor_4.pt (torch, 26391 bytes, 3 tensors)

input_layer.weight f4 [512, 10]
0	0xbe52867d	-0.20559116
1	0x3dea02f5	0.11426345
2	0xbe82ffab	-0.25585684
3	0xbd7c1158	-0.061539978
4	0xbe091684	-0.13387495
5	0xbe82811e	-0.25489134
6	0x3e29f48a	0.1659719
7	0xbe68c85a	-0.22732678
8	0xbe81f4d8	-0.25382113
9	0x3d731ddb	0.059354644
10	0x3df52d9e	0.119715914
11	0xbdebd4fc	-0.11515233
12	0x3e9fdf95	0.31225267
13	0xbcb1411a	-0.021637488
14	0xbe267f96	-0.16259608
15	0xbd270d4b	-0.04078416
16	0x3e2cec7e	0.1688709
17	0x3b832202	0.004001857
18	0x3e1fbffa	0.15600577
19	0x3e3c25fa	0.18373862
20	0x3e695b69	0.22788776
21	0xbe7100f3	-0.23535518
22	0xbd714d62	-0.05891169
23	0x3e2ddeba	0.16979495
24	0xbe8ffe76	-0.28123826
25	0x3e9cbcd0	0.30612803
26	0xbc392263	-0.011299702
27	0xbe89bd4d	-0.26902238
28	0x3e8a28c4	0.26984227
29	0xbe762115	-0.24036057
30	0x3e257465	0.16157682
31	0xbdc2047b	-0.09473511
32	0x3e8665ea	0.2624963
33	0x3dc137c9	0.09434468
34	0xbb6845c3	-0.0035441972
35	0x3dd86309	0.105657645
36	0x3e9ebe8d	0.31004754
37	0x3e34f15d	0.17670198
38	0xbe45a3d2	-0.19300774
39	0x3e25b712	0.16183117
40	0xbb3d3400	-0.0028870106
41	0xbd0efaa0	-0.034906983
42	0x3dbfcf54	0.093657166
43	0xbe73d08e	-0.23810026
44	0xbe3456a8	-0.17611182
45	0xbe120a44	-0.14261729
46	0xbe85ac21	-0.26107886
47	0x3d919498	0.0710842
48	0xbd8510a0	-0.064973116
49	0x3d9750e8	0.073884785
50	0xbe990be5	-0.29891887
51	0xbe6dce84	-0.2322331
52	0xbd6dc573	-0.05804963
53	0x3e8bf52b	0.27335486
54	0xbe6895ed	-0.22713442
55	0xbe92b44a	-0.28653175
56	0x3e73d98a	0.23813453
57	0xbe489255	-0.19587071
58	0x3e6bacc6	0.23015127
59	0xbe83c274	-0.25734293
60	0xbe97245f	-0.29519936
61	0xbe9b0001	-0.3027344
62	0x3d821da1	0.063533075
63	0x3e9effa5	0.31054416
64	0x3e7ef8a1	0.24899532
65	0xbe81f4ce	-0.25382084
66	0x3e550262	0.2080169
67	0x3e00abf1	0.1256559
68	0xbe9ce948	-0.3064673
69	0x3e30cfe8	0.1726681
70	0xbe87df90	-0.26537752
71	0x3e167241	0.14692022
72	0x3e3b5e56	0.18297705
73	0xbddb981f	-0.10722374
74	0xbe487814	-0.19577056
75	0x3e507418	0.20356786
76	0x3d47e177	0.048799004
77	0x3d5a5b0b	0.05330948
78	0xbe705fa0	-0.23473978
79	0x3e9c2ccf	0.30502936
80	0xbd81ec13	-0.06343856
81	0xbe085206	-0.1331254
82	0x3e1b9ee6	0.15197334
83	0x3b9e7e55	0.0048368373
84	0xbea4923c	-0.32142818
85	0xbe0e42f2	-0.13892725
86	0x3e47a432	0.1949623
87	0xbdb09317	-0.08621805
88	0xbdeb4011	-0.11486829
89	0xbe519fb4	-0.20471078
90	0x3dae6a04	0.085163146
91	0x3e0fd2d6	0.14045271
92	0xbd9b16c0	-0.075726986
93	0xbe843e65	-0.25828853
94	0x3c24f937	0.010069183
95	0xbe86c396	-0.26321095
96	0x3d637f8c	0.05554156
97	0x3e89b805	0.26898208
98	0xbe36f0dc	-0.17865318
99	0x3d8c4d34	0.06850663
100	0x3df7cf17	0.12100046
101	0xbcdab14f	-0.026695875
102	0x3d9cd7ef	0.076583736
103	0x3e33d1d7	0.17560516
104	0x3c871432	0.016489122
105	0x3e05f2da	0.13080922
106	0xbe123d70	-0.14281249
107	0xbdf975f9	-0.121807046
108	0xbda0f275	-0.07858745
109	0xbe999bba	-0.30001622
110	0x3d801e10	0.06255734
111	0x3e19b786	0.15011415
112	0x3de76e80	0.11300373
113	0xbe6cd81e	-0.23129317
114	0x3d307ac8	0.043085843
115	0xbe9d430d	-0.30715218
116	0xbe87fcb2	-0.2655998
117	0x3c89b760	0.016811073
118	0xbe064134	-0.1311081
119	0xbe40b871	-0.18820359
120	0x3df8f8e3	0.121568464
121	0xbe54e99d	-0.20792241
122	0xbe143024	-0.14471489
123	0x3e296f0d	0.16546269
124	0x3e0c6d2d	0.13713522
125	0x3e823b98	0.2543609
126	0x3d04fb80	0.03246641
127	0xbe844249	-0.25831822
128	0x3e94d244	0.2906667
129	0xbd342da4	-0.04398884
130	0x3c36d039	0.011158043
131	0xbe5a9b39	-0.21348275
132	0xbe09009d	-0.1337914
133	0x3e739865	0.23788603
134	0x3e3e9ef4	0.18615323
135	0x3e1d06aa	0.15334573
136	0x3e172ee9	0.14763989
137	0xbe15e023	-0.14636283
138	0x3d34cd89	0.044141326
139	0x3e971f18	0.2951591
140	0xbe9bee65	-0.30455318
141	0xbd2e0004	-0.042480484
142	0x3beae03a	0.007167843
143	0xbda55999	-0.0807373
144	0xbe3b2647	-0.1827632
145	0x3cfb1dc7	0.030653847
146	0xbdd91a0a	-0.1060067
147	0x3d4ce167	0.050019648
148	0xbe103211	-0.14081599
149	0xbe16aa11	-0.14713313
150	0xbe3864d0	-0.18007207
151	0x3e517f2e	0.20458671
152	0x3e367f14	0.17821914
153	0x3e022882	0.12710765
154	0x3e0d7f5f	0.1381812
155	0xbe4ced50	-0.20012403
156	0x3e240315	0.160168
157	0xbe5a3fee	-0.2131345
158	0x3db6476e	0.08900343
159	0xbda36f29	-0.079801865
160	0xbcaafb13	-0.020871675
161	0x3e10d114	0.14142257
162	0xbe7cdc1e	-0.24693343
163	0x3dd0ac4e	0.101891145
164	0x3e9a0e98	0.3008926
165	0xbc92dd5d	-0.01792782
166	0x3e44559b	0.19173281
167	0x3e8b58c6	0.27216166
168	0x3e24d9c8	0.16098702
169	0x3e0dda8f	0.13852905
170	0xbe27c110	-0.16382241
171	0xbc96955f	-0.018381773
172	0x3dfa2caf	0.12215554
173	0xbe973b57	-0.2953746
174	0x3e41fb8d	0.18943615
175	0xbe612e0f	-0.21990226
176	0xbe9e0d6f	-0.30869624
177	0xbe181960	-0.1485343
178	0x3d67f26d	0.05662768
179	0xbd63781d	-0.05553447
180	0x3e6ec185	0.2331601
181	0x3e821e5c	0.25413787
182	0x3b564922	0.00326974
183	0x3df2c2ce	0.11853562
184	0xbe751163	-0.23932414
185	0x3e60577c	0.21908373
186	0x3e09b3d3	0.13447504
187	0x3c9f1c2f	0.019422619
188	0x3e89c872	0.2691074
189	0xbc920aef	-0.01782748
190	0xbded210c	-0.11578569
191	0x3cd189f0	0.025578469
192	0xbe83cca3	-0.25742063
193	0x3e10c123	0.14136176
194	0xbe9ef905	-0.31049362
195	0xbe9eafde	-0.3099355
196	0x3d054b37	0.032542434
197	0xbc19b83c	-0.009382304
198	0x3e862c06	0.26205462
199	0xbcd062bf	-0.02543771
200	0xbe10438c	-0.14088267
201	0xbe113d75	-0.141836
202	0xbe07b343	-0.13251977
203	0xbe6fd332	-0.23420408
204	0xbe9059e1	-0.28193572
205	0x3ac8fe00	0.0015334487
206	0x3e6d9b86	0.23203859
207	0xbdf19418	-0.11795825
208	0xbe9fa0be	-0.31177324
209	0xbe1dfc5d	-0.154283
210	0x3d93c294	0.07214847
211	0x3d270d35	0.04078408
212	0xbe021e94	-0.12706977
213	0xbc4d6299	-0.012535715
214	0xbe9b1aa6	-0.3029377
215	0xbe92fb91	-0.28707555
216	0x3ceade96	0.02867059
217	0xbd03a6b4	-0.032141402
218	0x3e931a67	0.2873108
219	0x3d3f414b	0.046693128
220	0x3c63d9c7	0.013906903
221	0x3dd64238	0.10461849
222	0x3e58b1ec	0.21161622
223	0x3e7f2078	0.2491473
224	0x3dbfb541	0.09360743
225	0xbe63f232	-0.22260359
226	0x3dbd3396	0.09238355
227	0xbe3345ec	-0.17507142
228	0xbaca513f	-0.001543559
229	0xbd219ce5	-0.039456267
230	0x3e96c33e	0.29445833
231	0x3e1d75df	0.15376996
232	0x3ea2d0e8	0.31800008
233	0xbe16abe4	-0.14714009
234	0x3decb245	0.1155744
235	0xbe56653c	-0.20937055
236	0xbe90e0d1	-0.2829652
237	0xbdd34d64	-0.103174955
238	0x3ea1bae0	0.31587887
239	0x3dec5c70	0.115410686
240	0x3e76bf24	0.24096352
241	0xbe2bb8f2	-0.1676977
242	0x3e96e392	0.29470497
243	0x3cf00cba	0.029302943
244	0xbd58592d	-0.05281942
245	0xbe6257c7	-0.22103797
246	0x3dd3cd99	0.10341949
247	0xbd86b18a	-0.06576832
248	0x3e9eb380	0.30996323
249	0xbe778d7e	-0.24175069
250	0x3ddd0e3c	0.107937306
251	0x3d7b6f32	0.06138534
252	0xbe862e4f	-0.26207206
253	0xbe9675e8	-0.2938683
254	0xbe2c69e4	-0.16837269
255	0xbe8ee6d2	-0.27910477

input_layer.bias f4 [512]
0	0xbd8d6b01	-0.06905175
1	0x3e2129aa	0.1573855
2	0x3cd5f3ac	0.026117168
3	0xbe0a4ae1	-0.13505127
4	0xbe896b74	-0.26839793
5	0xbe640051	-0.22265746
6	0xbe946718	-0.28984904
7	0xbe483f4c	-0.19555396
8	0x3e517988	0.20456517
9	0xbd24c765	-0.04022922
10	0x3e2f364a	0.17110553
11	0xbe959f77	-0.29223225
12	0x3c672b47	0.014109439
13	0x3ca740be	0.020416614
14	0x3e566c9f	0.20939873
15	0xbe3b66f2	-0.1830099
16	0xbe9b7887	-0.30365393
17	0xbd3dba6e	-0.04632037
18	0x3e36d6ef	0.17855428
19	0x3cbcf401	0.023065569
20	0xbe9f5f01	-0.3112717
21	0x3e2dbf43	0.16967492
22	0x3ce8889d	0.028385455
23	0x3ea2d111	0.3180013
24	0xbe748b21	-0.23881198
25	0xbe5fb3a4	-0.21845871
26	0xbc04d532	-0.00810747
27	0xbe85c48b	-0.26126513
28	0x3e3b2eaf	0.18279527
29	0x3e861b1d	0.2619256
30	0x3cc8dd01	0.024519445
31	0x3e8af417	0.2713935
32	0xbd635358	-0.055499405
33	0x3e65972a	0.22420946
34	0x3e61922a	0.22028413
35	0xbe82c990	-0.25544405
36	0xbdcd01d5	-0.10010115
37	0x3e945872	0.28973728
38	0x3e047efa	0.12939063
39	0xbe323e7a	-0.17406645
40	0xbcd38eaf	-0.025824873
41	0xbe64783b	-0.2231149
42	0x3e99134f	0.29897544
43	0x3e20f55f	0.15718602
44	0x3e6e4eee	0.23272297
45	0xbea16dc0	-0.31529045
46	0xbe3c3359	-0.18378963
47	0xbdec3eb1	-0.11535395
48	0xbe6799b8	-0.22617233
49	0xbe85dda9	-0.26145676
50	0x3e5dd72c	0.21664113
51	0xbea24a28	-0.31697202
52	0x3e23db1a	0.1600155
53	0xbe0a5bef	-0.13511632
54	0xbe05b61a	-0.13057747
55	0x3e95cc00	0.29257202
56	0x3e34ecd3	0.17668466
57	0x3e489a3a	0.19590083
58	0x3de9451e	0.11390136
59	0xbe3dbf95	-0.18530114
60	0x3e327098	0.17425764
61	0x3d93e751	0.072218545
62	0x3e124724	0.1428495
63	0x3d14df5d	0.03634583
64	0x3ea32ab3	0.31868514
65	0x3e9a5b05	0.30147567
66	0xbd0e3c71	-0.03472561
67	0x3e943ace	0.28951114
68	0x3e35dd6f	0.17760251
69	0x3ea3ae6d	0.31969014
70	0xbd25ff91	-0.04052693
71	0xbe66afe5	-0.22528036
72	0x3e9e92d8	0.30971408
73	0xbe829d1b	-0.25510487
74	0x3e12d06a	0.14337316
75	0xbcc8d58f	-0.024515895
76	0xbe31f284	-0.17377669
77	0xbd5e5363	-0.054278743
78	0xbc8d1a1a	-0.01722436
79	0xbd1076fb	-0.03526972
80	0xbe30d024	-0.172669
81	0x3e58fd99	0.2119049
82	0xbdd92684	-0.106030494
83	0xbca301bf	-0.019898294
84	0x3df0c779	0.117567964
85	0xbdade68d	-0.0849124
86	0x3e25b7ef	0.16183446
87	0xbd52cf30	-0.05146712
88	0xbe9652f8	-0.29360175
89	0x3e58c39c	0.21168369
90	0xbce952bd	-0.028481835
91	0x3dd8b830	0.10582006
92	0x3e5f562d	0.21810217
93	0x3e95fc6a	0.2929414
94	0xbdf00647	-0.11719947
95	0xbe2c1ef6	-0.16808686
96	0xbd53f782	-0.051749714
97	0xbe9e9907	-0.30976126
98	0x3e1b0713	0.15139417
99	0xbe02a962	-0.12759927
100	0xbdb20111	-0.0869161
101	0x3e3b5674	0.18294698
102	0xbe6f00d7	-0.23340164
103	0x3e51799a	0.20456544
104	0x3e385db3	0.18004493
105	0xbe8fa652	-0.2805658
106	0xbdff0c08	-0.12453467
107	0xbe1d3f3b	-0.15356152
108	0x3e7eb3ec	0.24873322
109	0x3e3ccd2f	0.18437646
110	0xbe9d5325	-0.30727497
111	0x3d782a62	0.060587294
112	0x3d7c50b3	0.0616004
113	0xbe8379b8	-0.25678802
114	0xbd00b5e1	-0.031423453
115	0xbcecc172	-0.028900836
116	0xbd6da59c	-0.058019266
117	0xbe9bd254	-0.30433905
118	0x3d858082	0.065186515
119	0xbbe1ec88	-0.006894652
120	0x3cf7769b	0.030207923
121	0xbe93a96a	-0.2884019
122	0xbe2bef3c	-0.1679048
123	0x3c8a195e	0.0168578
124	0xbe59588e	-0.21225187
125	0x3ea553eb	0.32290587
126	0xbc8c3a0e	-0.017117526
127	0x3da1d6a1	0.07902265
128	0x3e588f3e	0.21148393
129	0x3e2a9e9d	0.16662069
130	0xbe349d44	-0.17638117
131	0x3d719c3a	0.05898688
132	0xbd968bac	-0.07350859
133	0x3da6c960	0.08143878
134	0x3e28524f	0.16437648
135	0xbc6f3da4	-0.014602099
136	0xbd7cde10	-0.061735213
137	0xbd4ccd54	-0.050000504
138	0xbe5df302	-0.21674731
139	0xbd16f9b9	-0.036859248
140	0xbe098447	-0.13429366
141	0x3e7cc48b	0.2468435
142	0x3e80f239	0.251848
143	0xbe856c30	-0.26059103
144	0xbe517676	-0.20455346
145	0xbdf08854	-0.117447525
146	0x3e0ab842	0.13546851
147	0xbdb5426e	-0.08850561
148	0x3e43cba1	0.19120647
149	0x3e6edfc3	0.23327546
150	0xbe4c0450	-0.1992352
151	0xbdd9eb23	-0.10640552
152	0xbe20edf8	-0.15715778
153	0xbe885ebf	-0.26634786
154	0xbe6851e9	-0.22687496
155	0x3ddc5529	0.107584305
156	0x3e0b53eb	0.13606231
157	0x3e51bcf4	0.20482236
158	0xbd85302f	-0.06503331
159	0x3d2eaafd	0.042643536
160	0x3cd6a167	0.02620001
161	0x3d1d474e	0.03839808
162	0xbe471ee8	-0.19445384
163	0x3da83cb3	0.082147025
164	0xbcb7a65e	-0.022418197
165	0xbd21e9d8	-0.03952965
166	0xbdf3c09a	-0.1190197
167	0x3e830805	0.25592056
168	0xbde25225	-0.11050824
169	0x3d5245df	0.051336166
170	0xbe376303	-0.17908864
171	0xbd2aa597	-0.041661825
172	0x3dbaebbc	0.09126994
173	0x3e7cbd24	0.24681526
174	0x3e43b79e	0.19113013
175	0xbccee660	-0.025256336
176	0x3e0826ca	0.13296047
177	0x3e80dbee	0.25167793
178	0x3e8697e4	0.26287758
179	0xbd86a654	-0.06574693
180	0x3e8193b9	0.25308016
181	0xbe6d33e7	-0.2316433
182	0x3e7fedea	0.24993101
183	0x3e49b799	0.19698943
184	0x3e88b0ba	0.26697332
185	0xbe069fed	-0.13146944
186	0xbe251f0d	-0.16125126
187	0x3e95edaf	0.292829
188	0xbe458b31	-0.19291379
189	0xbdd29133	-0.10281601
190	0x3d181605	0.037130374
191	0xbca277e4	-0.019832559
192	0xbe2c8b32	-0.16849974
193	0x3e69265c	0.22768539
194	0xbd1a6f74	-0.037703946
195	0x3db2ba73	0.087269686
196	0xbe6d6e44	-0.23186594
197	0x3dba822c	0.091068596
198	0x3ea148f2	0.31500965
199	0x3e8862ce	0.26637882
200	0x3e7477d7	0.2387384
201	0xbe687189	-0.2269956
202	0x3e433631	0.19063641
203	0x3e239946	0.15976438
204	0xbe683fd9	-0.22680606
205	0x3de76e2a	0.11300309
206	0xbe8a71ff	-0.27040097
207	0x3e819c3e	0.25314516
208	0xbcebbb32	-0.028775785
209	0xbe3cb8d2	-0.18429878
210	0x3e342787	0.17593203
211	0x3db86500	0.09003639
212	0xbc04b9cf	-0.008100941
213	0xbd0ea187	-0.034822013
214	0x3da95d5a	0.082697585
215	0xbd9572cf	-0.072972886
216	0x3e638a1c	0.22220653
217	0xbd394f77	-0.0452418
218	0x3e9bd152	0.30433136
219	0xbe7718a7	-0.24130498
220	0xbd241aa5	-0.040064473
221	0xbdc27eb9	-0.09496827
222	0x3ea1d509	0.31607845
223	0x3dd5410f	0.104127996
224	0xbe7514f4	-0.23933774
225	0x3e1d27f0	0.15347266
226	0x3e37c28f	0.17945312
227	0xbe6a329b	-0.22870867
228	0x3e1d24d9	0.15346088
229	0xbe4af3f2	-0.1981962
230	0xbe162942	-0.14664176
231	0x3e9b5c82	0.30344015
232	0xbe771a79	-0.24131192
233	0xbcec4992	-0.028843675
234	0x3e8df367	0.27724764
235	0x3e374fa7	0.17901479
236	0xbe0eed70	-0.13957763
237	0x3e8c218f	0.27369353
238	0x3e45d696	0.1932014
239	0xbe2a4674	-0.16628438
240	0xbccecc9d	-0.025244052
241	0x3e685378	0.22688091
242	0x3e943960	0.28950024
243	0xbdfe98c0	-0.124314785
244	0xbb3c41c8	-0.0028725732
245	0xbd504af1	-0.05085272
246	0x3e980a7c	0.296955
247	0xbe7462af	-0.2386577
248	0xbda6311a	-0.08114834
249	0xbe55e84b	-0.20889394
250	0x3c08ccbc	0.008349594
251	0x3d0646a2	0.032782204
252	0xbe950d15	-0.29111543
253	0xbc3c48b3	-0.011491942
254	0xbe7bde5f	-0.24596547
255	0xbda17fb7	-0.07885688

output_layer.weight f4 [1, 512]
0	0x3da31dd2	0.07964672
1	0xbc7696f0	-0.015050635
2	0xbcca24e4	-0.024675794
3	0x3d49906f	0.04921001
4	0xbd12839c	-0.035770044
5	0x3ded444a	0.11585291
6	0xbd035371	-0.032061998
7	0x3df2b759	0.11851377
8	0x3dba4828	0.09095794
9	0x3d14b71f	0.03630745
10	0x3be17e57	0.006881516
11	0xbd0aac79	-0.03385589
12	0xbd4db86a	-0.0502247
13	0x3d84dc59	0.064873405
14	0x3cf7e792	0.030261789
15	0x3ce09c56	0.027418297
16	0x3dab9906	0.08378796
17	0xbd2c50ff	-0.04206943
18	0xbda4ed35	-0.08053056
19	0xbae0bb83	-0.0017145727
20	0x3bf29910	0.0074035004
21	0xbd4b8795	-0.049689848
22	0xbd5c47db	-0.053779464
23	0xbd814833	-0.06312599
24	0xbca5eb65	-0.020253846
25	0xbca2f7e7	-0.0198936
26	0xbcd62387	-0.026139988
27	0x3c36dfda	0.011161769
28	0x3c8b79c1	0.01702583
29	0x3cf20c18	0.029546782
30	0x3df5c163	0.11999776
31	0x3d220eac	0.039564773
32	0x3cfaf441	0.030634047
33	0x3d074243	0.033022176
34	0xbd2d5173	-0.042314004
35	0xbce76432	-0.028246019
36	0x3bfe471e	0.0077599427
37	0xbdd50f87	-0.10403352
38	0x3d3b93c4	0.045795217
39	0xbc690935	-0.0142233865
40	0xbd49f374	-0.04930444
41	0xbdad5aee	-0.08464609
42	0xbdcbce05	-0.099514045
43	0xbd0317a4	-0.032004967
44	0x3dbdfb2e	0.09276424
45	0xbbb668a6	-0.0055666743
46	0xba54831e	-0.0008106696
47	0x3d2d36c9	0.042288575
48	0x3c07992e	0.008276267
49	0x3d345335	0.044024665
50	0xbcd2f387	-0.025750889
51	0x3d521466	0.051288985
52	0x3cc2718d	0.023735786
53	0xbcedef36	-0.029044729
54	0xbc5938c7	-0.013258166
55	0x3d0f4977	0.03498217
56	0xbd3a2f58	-0.045455307
57	0xbda5ab39	-0.08089299
58	0xbc8db969	-0.017300325
59	0xbd41f9fb	-0.04735754
60	0xbcddfbf7	-0.027097685
61	0xbd1db2cb	-0.03850059
62	0xbd2a57fb	-0.04158781
63	0x3d6f9164	0.058488265
64	0x3d7f16dc	0.06227766
65	0xbd25e1e3	-0.040498625
66	0x3dad187c	0.08451936
67	0x3d34f548	0.04417923
68	0x3da9fee4	0.0830057
69	0x3ce8cc68	0.028417781
70	0x3cf3ec64	0.029775806
71	0xbd4b9ec0	-0.049711943
72	0x3d2a63c9	0.04159907
73	0xbd041dfb	-0.032255154
74	0x3d046be8	0.03232947
75	0xbd51f07e	-0.05125474
76	0x3de73c88	0.11290842
77	0xbdc9749d	-0.09836695
78	0x3d60860b	0.054815333
79	0xbc96e383	-0.018419033
80	0x3d6a7143	0.05723692
81	0x3d9de8d8	0.07710427
82	0xbd0e7fd7	-0.034789886
83	0x3da403ea	0.08008559
84	0x3d5e3fd3	0.054260086
85	0x3c5b1056	0.013370594
86	0x3d6f58e8	0.058434397
87	0xbdf3e0cc	-0.11908111
88	0xbdb49b3d	-0.08818672
89	0x3e2d9b1e	0.16953704
90	0xbcd514a7	-0.026010824
91	0xbdaa7932	-0.083238974
92	0x3cfb09f2	0.03064439
93	0xbc699411	-0.014256493
94	0xbc9eda3c	-0.019391172
95	0xbc28b1da	-0.010296309
96	0xbd92c024	-0.07165554
97	0xbc5906ec	-0.013246279
98	0x3d9d41cd	0.07678566
99	0x3d5989a9	0.0531098
100	0xbe045ffb	-0.12927239
101	0x3d145e4b	0.036222737
102	0xbc942879	-0.018085705
103	0x3cd4ead4	0.025990881
104	0x3c8f618a	0.017502565
105	0xbc997df8	-0.018736824
106	0x3ba45e9f	0.0050161625
107	0xbd02d294	-0.031939104
108	0x3d0364c4	0.03207852
109	0xbd0b7bc0	-0.034053564
110	0xbde436a9	-0.11143238
111	0xbda328de	-0.07966779
112	0x3c61c850	0.013780668
113	0x3c31ac87	0.010844356
114	0x3d2d0e79	0.04225013
115	0xbde213ae	-0.1103891
116	0xbc91e455	-0.017809073
117	0xbadcba67	-0.001684022
118	0xbd12a461	-0.035801295
119	0x3d303f11	0.043028895
120	0x3c817d78	0.015806898
121	0x3d25ea91	0.040506903
122	0xbdd29e03	-0.102840446
123	0x3b083eff	0.0020789502
124	0xbb7a3821	-0.0038180428
125	0xbdc03539	-0.093851514
126	0x3cd12657	0.025530977
127	0xbc6797b0	-0.014135286
128	0xbce2cb7b	-0.027684918
129	0x3c4016a1	0.011724145
130	0x3ce0213c	0.027359597
131	0xbd712d09	-0.05888084
132	0xbcad7640	-0.02117455
133	0x3d688fa7	0.056777623
134	0x3d6707d0	0.056403935
135	0x3c895129	0.016762333
136	0xbd19a8ca	-0.037514485
137	0xbccd280d	-0.025043512
138	0x3cc64757	0.02420394
139	0x3d87ef9c	0.06637499
140	0x3d9a26d8	0.0752694
141	0xbc380745	-0.011232202
142	0xbdaa86c6	-0.08326487
143	0x3bd83fda	0.0065994086
144	0x3cfcb14e	0.030846264
145	0x3dd81249	0.105503626
146	0xbdc86045	-0.09783987
147	0xbd6cbcec	-0.057797357
148	0x3d96fc1d	0.073723055
149	0x3d9c9e21	0.07647348
150	0x3c13a93f	0.009012519
151	0xbc23f384	-0.010006789
152	0x3d70235e	0.05862748
153	0x3c27f6d9	0.010251724
154	0xbb984feb	-0.004648199
155	0x3d57d109	0.052689586
156	0xbbff907e	-0.0077992072
157	0x3da975dc	0.08274433
158	0xbbf3f3c2	-0.0074448297
159	0x3d1deead	0.038557697
160	0x3ae83f6e	0.0017719099
161	0x3d071241	0.032976393
162	0x3cdb8ff9	0.02680205
163	0xbc8d0e89	-0.017218845
164	0xbcd436cd	-0.025905037
165	0x3bc7d1b8	0.0060979985
166	0x3d9d8998	0.076922596
167	0xbc683e30	-0.014174983
168	0xbd940f00	-0.072294235
169	0xbb6eaed1	-0.0036420117
170	0xbc814d1b	-0.015783837
171	0xbd096c71	-0.033550683
172	0x3d65f5d1	0.056142632
173	0x3b1a586c	0.0023551239
174	0xbd5d2489	-0.05398992
175	0xbdad9510	-0.08475697
176	0xbd9f9576	-0.07792179
177	0xbd9073e1	-0.07053352
178	0xbcda0aee	-0.02661654
179	0x3dfd81b2	0.12378253
180	0x3d0e199e	0.0346924
181	0xbd1be6a4	-0.038061753
182	0xbc9bb0b7	-0.019005163
183	0xbd0d2f69	-0.034469042
184	0x3db205f3	0.08692541
185	0x3d87640f	0.066108815
186	0xbd86b4c4	-0.06577447
187	0x3befb7db	0.0073156185
188	0xbdc3119f	-0.09524845
189	0xbbb12669	-0.00540619
190	0xbc631312	-0.013859527
191	0xbc34923d	-0.011021194
192	0x3b873541	0.0041262214
193	0x3d0620ab	0.032746
194	0xbd61a32e	-0.05508726
195	0x3d70ac6f	0.058758195
196	0xbd59d3cd	-0.053180505
197	0xbd6bb9a1	-0.057550076
198	0x3c668b8e	0.014071358
199	0xbcb4a5bd	-0.022051686
200	0x3b1ec0f6	0.00242239
201	0x3d10d615	0.035360415
202	0x3d75d403	0.060016643
203	0x3db8aae0	0.09016967
204	0xbd5010b5	-0.050797183
205	0xbc7f3ecc	-0.015578937
206	0x3d01129e	0.031511895
207	0xbd7a5a4c	-0.06112127
208	0xbcdd4c07	-0.027013792
209	0x3d07616d	0.033051897
210	0x3ce86c04	0.028371818
211	0xbc87740f	-0.016534833
212	0x3c37f500	0.011227846
213	0xbd83327b	-0.06406113
214	0x3db28fc0	0.087188244
215	0xbcecac04	-0.028890617
216	0xbcd88f62	-0.026435558
217	0xbd02a431	-0.031894866
218	0x3c7cdd6e	0.015433652
219	0xbd06539b	-0.032794576
220	0x3cf510cd	0.029915238
221	0x3e0aae30	0.1354301
222	0xbd62927e	-0.055315487
223	0x3d46e551	0.048558537
224	0x3ca2f6ab	0.019893011
225	0x3cdf66f4	0.027270772
226	0xbd26219c	-0.040559396
227	0xbb8d911e	-0.004320278
228	0xbd1efd4e	-0.03881579
229	0x3b74ca3f	0.0037351993
230	0x3cdba3ab	0.026811441
231	0xbc3feb7b	-0.011713858
232	0x3c87c970	0.016575545
233	0x3da6c079	0.0814218
234	0x3dbbd307	0.0917111
235	0xbdcb0f6e	-0.09915052
236	0x3d455335	0.048175056
237	0xbdeef495	-0.11667744
238	0xbcc9a851	-0.024616392
239	0xbd8557e3	-0.06510904
240	0xbd83d966	-0.0643795
241	0x3d84cd98	0.064845264
242	0x3cb4ef78	0.022086844
243	0x3e1717fc	0.14755243
244	0xbd4866b2	-0.048926063
245	0xbd55931c	-0.052142248
246	0x3d5d6c2f	0.05405825
247	0xbbb3b1ad	-0.005483827
248	0x3b92e745	0.004483136
249	0xbd6c5683	-0.05769969
250	0xbce4fab7	-0.027951581
251	0x3d3fd876	0.046837293
252	0x3c076e14	0.008265991
253	0xbda79402	-0.08182527
254	0x3d212fa0	0.03935206
255	0xbe190708	-0.14944088
