experiments/pl-blitz/lightning_logs/version_11/checkpoints/epoch=9-step=239.ckpt (torch, 97959 bytes, 15 tensors)

blinear1.weight_mu f4 [512, 13]
000000 f3 49 94 3b be ec 45 bd c7 3b 20 bc 7b 66 e9 3b
       0.004525417 -0.048321478 -0.009779877 0.0071228123
000010 f6 10 cc bc 0c 76 a8 bc 25 ff f1 bb 71 88 9f ba
       -0.024910431 -0.020564102 -0.007385152 -0.00121714
000020 94 f5 73 3c ea c9 06 bd b7 72 05 39 09 48 99 3b
       0.014890093 -0.032907404 0.00012726603 0.0046777767
000030 04 35 7d bc 7e e3 d1 bc 6d f2 6b 3a 3e bd 30 b9
       -0.015454534 -0.025621172 0.0009000663 -0.00016855166
000040 0c ce f9 bb 0d 78 b7 bc 83 b1 f1 ba 0c ad 0f bd
       -0.0076234397 -0.022396112 -0.0018439743 -0.03507714
000050 8c 01 52 bb d1 e3 52 bc 6a 33 b1 3c 65 22 7f 3c
       -0.003204438 -0.0128716985 0.021630961 0.015572165
000060 66 ff 0a 3d 68 d8 6a bc 75 1f 07 3d 4c 6c ba bb
       0.033934973 -0.014333822 0.032988984 -0.0056891795
000070 00 05 d3 3c f3 e8 7c 3c c5 a4 6c bc 6e 9d af bc
       0.02575922 0.015436399 -0.014443581 -0.021437373
000080 e8 26 99 3c 90 5e 4b 3c 6a ca 49 38 cc 61 ca 3c
       0.01869531 0.012412682 4.8110647e-05 0.024704836
000090 d7 e9 96 3c 02 30 1f 3c 33 82 89 3c fe b5 0b bd
       0.01842205 0.009716036 0.016785717 -0.03410911
0000a0 37 07 f3 3c 0d 98 02 3d 8d 80 4d 3c 59 d6 21 bb
       0.029666526 0.03188329 0.012542856 -0.0024694412
0000b0 aa a9 f1 bb e9 e6 01 3d 8c 06 02 bc 8b 2d ae 3b
       -0.007374962 0.031714354 -0.007936131 0.0053154877
0000c0 f7 61 82 bc eb 8f b9 3c 8f f1 37 3d 19 56 92 3c
       -0.015915854 0.022651633 0.044908103 0.01786332
0000d0 e4 b4 ff 3b be 31 73 3c 64 2a 2e bc aa e2 c6 bb
       0.0078035463 0.014843402 -0.010630224 -0.006069501
0000e0 d8 fd e1 bb 0a 4e da bb ce fa 9f 3c 53 cc ae 3b
       -0.0068967156 -0.006662135 0.019528773 0.005334416
0000f0 1d 6a a8 3b 6a 89 a6 bc 3b 37 e1 3c 8a 18 2b 3c
       0.005139603 -0.020329196 0.027492156 0.010442862
000100 63 a5 22 39 eb 0a f0 3c 12 77 81 bb 89 3e 97 3b
       0.00015511135 0.029302081 -0.003950962 0.004615609
000110 86 1d 33 bd 14 61 ad 3b ef 65 2f bd cc 0d d6 3c
       -0.043729328 0.0052911136 -0.04282182 0.026129626
000120 04 e6 30 bd 7d 4d c6 3c 86 51 e4 3c df 58 03 bc
       -0.04318811 0.024206871 0.027870905 -0.008016794
000130 8d 81 7d 3b 60 c7 04 bd f3 9d 17 bc 0e 3e 89 bc
       0.0038681955 -0.0324167 -0.009253967 -0.016753223
000140 4e 8a 21 3c c4 73 09 bb 97 83 11 bc 81 f7 da 3c
       0.009859635 -0.0020973543 -0.008881471 0.026729347
000150 a3 7f 9a bb 42 13 b4 bb 5e 63 07 bb 82 81 41 3c
       -0.0047149225 -0.00549546 -0.0020658593 0.011810662
000160 f1 60 df bc 5b fb 8e 3c 73 ed 45 bd cf 9f 8a bc
       -0.027267905 0.01745384 -0.048322152 -0.016921906
000170 e0 f2 6c 3d d2 19 aa bc 5b 05 2e bb ed 60 bd bb
       0.05784881 -0.020764265 -0.0026553485 -0.0057793767
000180 1a 01 a8 bc 02 6a e9 bc cf 66 de b9 46 df a7 3c
       -0.020508338 -0.028492931 -0.00042419738 0.020492207
000190 b3 12 16 bd ca 50 c2 3c 60 87 7b bc 6b 49 80 bd
       -0.036638927 0.023720164 -0.0153521 -0.06264003
0001a0 32 e1 b7 bc e0 04 04 3b 66 46 41 bc f6 e2 f3 3b
       -0.022446249 0.0020144507 -0.011796569 0.0074428273
0001b0 4d 24 ea 3a 4f ed b5 bc 8b d3 7f 39 52 d3 dc bb
       0.0017863602 -0.022207884 0.00024397501 -0.0067390585
0001c0 b6 fc 04 3d 08 00 9f bc b1 b1 96 3b 21 e7 f6 bb
       0.032467566 -0.019409195 0.004598819 -0.007534877
0001d0 7d 74 92 bc e4 57 b0 3c 8e 4b ae bb 3e 88 49 bd
       -0.017877812 0.021526285 -0.0053190654 -0.049202196
0001e0 d0 80 3d 3c b9 8d 49 bc 91 6c 1b 3b 09 80 6e bc
       0.011566356 -0.012301856 0.0023715834 -0.014556893
0001f0 14 65 8d 3c 1f f0 43 bc 0a e9 91 bc 39 da 44 bc
       0.017260112 -0.011959105 -0.017811317 -0.012014919
000200 d4 8a 30 bd 40 8b 4f ba 3f 03 42 3b 97 da 18 bc
       -0.043101147 -0.0007917173 0.0029603986 -0.00932946
000210 1d 57 f4 bc f8 20 28 bc 4b 19 ac 3b 34 fe 9f bc
       -0.029826695 -0.010261767 0.0052520386 -0.019530393
000220 b0 69 c4 bc 19 89 91 bc a6 5f 88 bc e1 1e a0 bb
       -0.023976177 -0.017765569 -0.016647171 -0.0048864936
000230 99 88 a9 3c 36 6a 3d 3b 09 06 59 3c 65 49 9a bc
       0.020695018 0.0028902418 0.013246068 -0.018833825
000240 ef 0a 57 3c 93 76 1c bd 49 89 c3 3b 75 c5 57 3c
       0.013125165 -0.03819902 0.0059672934 0.013169636
000250 f8 0f c2 3b eb 06 ea 3c b9 a3 8d 3c 3e a9 bd 3b
       0.005922314 0.028567752 0.017289983 0.0057879975
000260 e3 fa bd bc 5c f9 3c 3b f5 19 14 bc 5c 92 30 3c
       -0.023190921 0.0028835153 -0.009039392 0.010777082
000270 13 1c db 3b 91 91 75 3c 07 97 36 bb 3a 5c 8b bc
       0.0066866963 0.014988319 -0.0027861015 -0.01701175
000280 1e 5d 13 bc 7f 2d a5 bc 41 97 39 3a 94 16 7f bc
       -0.008994369 -0.020163296 0.00070797285 -0.015569348
000290 43 83 00 3c 46 87 18 3c c2 72 98 3c 71 12 37 bc
       0.007843795 0.009309595 0.018609408 -0.01117383
0002a0 88 4d 0c bb 6d 0d 8e bc c1 f9 67 3c ff cf 95 3b
       -0.0021408517 -0.017340386 0.014158667 0.004571914
0002b0 67 ba dd ba 15 46 d8 ba a7 bd 60 3b 07 f0 24 3c
       -0.0016916514 -0.0016500378 0.003429273 0.010066993
0002c0 38 bd 41 3d eb e7 df bc 70 b2 ac ba 4c 33 95 3a
       0.047299594 -0.027332267 -0.0013175737 0.0011383086
0002d0 86 4b 1d bc 4e 61 bb 3c ea 0f 53 bc b0 fd 44 3d
       -0.009600526 0.022873547 -0.012882212 0.048093498
0002e0 67 2c 84 3c 62 65 b3 3c 44 13 22 bd 46 77 8f bc
       0.016134454 0.021898929 -0.039569154 -0.017512929
0002f0 63 f2 9c 3c 94 b9 79 3c 02 6e dc bc b7 3b d7 3b
       0.019158548 0.015241999 -0.026907925 0.006568398
000300 dc 7c 99 b9 9a 08 37 bd 00 89 9a bc ff ed b1 bc
       -0.00029275462 -0.044685937 -0.018864155 -0.02171993
000310 95 42 2c 3c 10 af c5 bc 28 0f 0b bd 66 e4 a6 3c
       0.010513921 -0.024131328 -0.03395 0.02037258
000320 01 14 5b 3d 1b 79 9e bc 69 90 eb 3b 91 ad d4 bb
       0.053485874 -0.019344857 0.007188846 -0.0064904173
000330 bf 51 43 3c 02 e8 d7 bb 7c 39 ab 3c 3c e1 78 bc
       0.011921345 -0.006588937 0.020901434 -0.015190419
000340 26 06 a3 3c 57 e9 04 3c 1e ed 44 3b 2c 58 0b bc
       0.019900393 0.008112273 0.003004856 -0.0085049085
000350 2e 14 84 bc c6 f0 97 3b a4 73 eb 3c 04 27 a7 bc
       -0.016122904 0.0046368567 0.028741665 -0.020404346
000360 48 1d e0 3b f8 d5 1c bd 3f 1c b9 bc 2c 7c d4 3c
       0.006839428 -0.038289994 -0.022596477 0.025938116
000370 cd a5 a6 bc 7d 75 b5 3c 4c 86 c8 39 3a 34 05 3d
       -0.020342732 0.02215075 0.00038247032 0.03252051
000380 83 6d 11 3c de e8 29 3c 39 06 5c bb ff 3b 1e 3b
       0.008876207 0.010370461 -0.0033573045 0.0024144647
000390 13 ee c3 ba d7 6c ae bc 71 e0 04 bc 93 94 01 bd
       -0.0014948271 -0.021292133 -0.008110152 -0.031635832
0003a0 44 11 4d 3c be 32 f0 bc 15 0c 5b bd 9a 21 d8 b9
       0.0125163235 -0.02932107 -0.05347832 -0.00041223766
0003b0 ec cf 80 ba 59 f2 a6 3c 35 4b a6 bc 03 f8 79 bc
       -0.000982759 0.020379232 -0.020299533 -0.0152568845
0003c0 8e 6d 9f bc 69 4d 24 bc 39 37 ef 3a aa d8 e9 3c
       -0.01946142 -0.010028222 0.001825071 0.028545696
0003d0 33 73 62 3c 15 64 64 3b de 20 06 3c d2 3e 3f 3b
       0.013821411 0.0034849693 0.008186547 0.002918173
0003e0 8f 92 9b 3c 83 dc 79 bc 41 9e a3 3b 03 03 7c 3c
       0.018990783 -0.015250328 0.0049932306 0.015381577
0003f0 a6 ee b4 3b 6b c5 03 bd 92 7e f5 3b 16 d9 2c bd
       0.005521613 -0.032170694 0.007491895 -0.042199217

blinear1.weight_rho f4 [512, 13]
000000 52 b9 e0 c0 0c f2 e0 c0 13 c4 e3 c0 da 97 e0 c0
       -7.022622 -7.0295467 -7.117685 -7.0185366
000010 e9 8b e6 c0 87 d8 e4 c0 94 19 dd c0 10 f4 df c0
       -7.204579 -7.1514316 -6.9093723 -6.998543
000020 fd 94 e3 c0 ce 71 e2 c0 9d 46 e1 c0 76 02 dd c0
       -7.111937 -7.076392 -7.03987 -6.9065504
000030 57 5b de c0 b0 94 df c0 c2 ac e3 c0 f9 d6 e1 c0
       -6.94865 -6.9869003 -7.1148386 -7.057492
000040 e4 9e dd c0 1e 2c e1 c0 88 8f e0 c0 c0 62 e4 c0
       -6.925646 -7.0366354 -7.017521 -7.1370544
000050 d8 95 d8 c0 e8 3e e4 c0 6c 05 e1 c0 d4 42 dd c0
       -6.7682915 -7.132679 -7.031912 -6.9144077
000060 5f 63 e6 c0 8f d6 e0 c0 21 df e2 c0 ae 5f db c0
       -7.1996303 -7.026191 -7.0897374 -6.8554296
000070 15 a2 e2 c0 fe 58 db c0 5d 28 e4 c0 1d 95 dc c0
       -7.0822854 -6.8546133 -7.129927 -6.8932023
000080 5e 89 de c0 f5 c1 e0 c0 9f 41 e3 c0 bf ec dd c0
       -6.9542685 -7.0236764 -7.1017604 -6.9351497
000090 a8 d9 dd c0 6a 94 e0 c0 16 7e e3 c0 b7 a9 e1 c0
       -6.9328194 -7.018117 -7.1091413 -7.051967
0000a0 83 1a de c0 e3 f3 e5 c0 69 cc e0 c0 2a eb df c0
       -6.9407363 -7.1860213 -7.0249524 -6.9974566
0000b0 2c 4c e3 c0 86 c4 da c0 d5 5a db c0 b7 4a da c0
       -7.1030483 -6.8364897 -6.854838 -6.8216205
0000c0 fe a8 dc c0 88 eb e1 c0 32 02 dc c0 91 4f e1 c0
       -6.895629 -7.0600014 -6.875268 -7.0409627
0000d0 ae 5b e2 c0 ee 6c db c0 cc a4 e1 c0 f3 43 e1 c0
       -7.0736914 -6.857047 -7.051367 -7.0395446
0000e0 8a ec e1 c0 d0 07 dd c0 97 a7 e3 c0 4f 2b dc c0
       -7.0601244 -6.9072037 -7.1142077 -6.8802867
0000f0 27 89 d9 c0 7f c8 e1 c0 23 63 e6 c0 92 cd e0 c0
       -6.797992 -7.0557246 -7.1996017 -7.025094
000100 62 06 e1 c0 af 90 db c0 7f f6 e0 c0 9c ac e0 c0
       -7.032029 -6.8614116 -7.03009 -7.0210705
000110 58 bc e4 c0 74 73 df c0 71 d5 de c0 bb 59 e2 c0
       -7.147991 -6.9828434 -6.963555 -7.0734534
000120 16 c8 e1 c0 2e 4e de c0 09 09 e0 c0 9e 1f e0 c0
       -7.0556746 -6.9470434 -7.001103 -7.0038595
000130 17 79 de c0 e9 fa e1 c0 de fa dd c0 94 6a e0 c0
       -6.9522815 -7.0618787 -6.9368734 -7.01301
000140 3b f3 da c0 16 ab e0 c0 80 1d de c0 0e d5 e0 c0
       -6.842191 -7.0208845 -6.941101 -7.0260077
000150 d2 a1 e4 c0 00 72 de c0 0a 4f db c0 f3 d4 de c0
       -7.1447535 -6.951416 -6.8533983 -6.963495
000160 76 aa de c0 66 b5 e3 c0 cf 4c e1 c0 2f 2a e2 c0
       -6.958308 -7.1158934 -7.040626 -7.0676494
000170 fe d5 dc c0 30 30 e0 c0 c4 74 e5 c0 05 8b da c0
       -6.901122 -7.0058823 -7.1705036 -6.82947
000180 f4 7d e1 c0 57 39 dc c0 2e f4 de c0 d1 84 dd c0
       -7.046625 -6.8819995 -6.967307 -6.922463
000190 17 a0 de c0 e5 52 df c0 a2 fc e2 c0 68 d8 e4 c0
       -6.957042 -6.978869 -7.093339 -7.151417
0001a0 18 8f e0 c0 68 e4 e4 c0 68 60 df c0 6a e1 de c0
       -7.0174675 -7.1528816 -6.9805183 -6.9650164
0001b0 5b ad e1 c0 bd 75 e0 c0 8f 50 e2 c0 92 4b e3 c0
       -7.0524116 -7.0143723 -7.072334 -7.102975
0001c0 90 af e0 c0 4a 8f d9 c0 9e 12 df c0 48 6e e0 c0
       -7.021431 -6.7987413 -6.9710226 -7.013462
0001d0 33 9e e0 c0 58 8d de c0 ec b4 df c0 e2 ac e2 c0
       -7.0193114 -6.954754 -6.990835 -7.083604
0001e0 21 68 df c0 81 0d df c0 89 10 dc c0 4c 31 d8 c0
       -6.981461 -6.9703984 -6.8770185 -6.7560177
0001f0 05 ad e2 c0 e4 43 df c0 8d c6 e3 c0 c2 77 de c0
       -7.0836205 -6.9770374 -7.117987 -6.952119
000200 10 04 db c0 34 9d dd c0 fd 4f e0 c0 79 16 dd c0
       -6.844246 -6.92544 -7.009764 -6.9089932
000210 11 b7 e1 c0 96 11 e1 c0 f0 a4 e5 c0 de dd dc c0
       -7.053597 -7.0333967 -7.176384 -6.9020834
000220 76 10 e4 c0 03 c8 dd c0 f6 eb e1 c0 4c 15 de c0
       -7.1270094 -6.9306655 -7.060054 -6.9400997
000230 e1 d3 dd c0 d7 42 e2 c0 9d 23 e0 c0 a3 18 e0 c0
       -6.932114 -7.070659 -7.0043473 -7.0030074
000240 be 00 dc c0 cf 17 dd c0 88 eb de c0 c3 58 e0 c0
       -6.8750906 -6.9091563 -6.9662514 -7.010835
000250 a9 95 de c0 62 a2 dd c0 20 f3 df c0 ac 9e e4 c0
       -6.955769 -6.926072 -6.9984283 -7.144369
000260 e2 33 e1 c0 52 95 e3 c0 85 19 e5 c0 82 f3 e0 c0
       -7.0375834 -7.1119776 -7.159365 -7.029725
000270 de 74 dc c0 21 fd e5 c0 f1 6a e1 c0 a9 1c e1 c0
       -6.889266 -7.1871495 -7.0443044 -7.0347486
000280 74 21 e2 c0 c2 12 de c0 5c 57 df c0 26 98 e2 c0
       -7.0665836 -6.93979 -6.979414 -7.081073
000290 1d 31 e1 c0 ed 9a e1 c0 a5 f3 e3 c0 f5 9d e3 c0
       -7.0372453 -7.050162 -7.123492 -7.113032
0002a0 36 a6 df c0 6b 1e dc c0 c1 98 db c0 b3 2f e1 c0
       -6.9890394 -6.878713 -6.8623967 -7.0370727
0002b0 d2 f9 df c0 6f 27 df c0 01 12 de c0 fa b5 e0 c0
       -6.9992456 -6.9735637 -6.9396977 -7.022214
0002c0 6b 0a db c0 5b b3 e0 c0 a3 a5 df c0 0b 1a dd c0
       -6.8450217 -7.021894 -6.9889693 -6.909429
0002d0 12 e4 e2 c0 89 bd e6 c0 f9 ea dd c0 6a ec e2 c0
       -7.0903406 -7.2106366 -6.934933 -7.091359
0002e0 be 72 df c0 4d 72 dc c0 ea 54 dc c0 79 c1 db c0
       -6.9827566 -6.8889527 -6.8853655 -6.8673673
0002f0 cb 29 e6 c0 a1 2a e2 c0 26 55 e3 c0 58 9f de c0
       -7.1926017 -7.0677037 -7.104144 -6.956951
000300 ad 4a df c0 7d a2 df c0 4d 25 e0 c0 f9 8e e0 c0
       -6.9778657 -6.988585 -7.0045533 -7.0174527
000310 18 6a de c0 1a df e3 c0 8c 5a e5 c0 df e1 e5 c0
       -6.950451 -7.120984 -7.167303 -7.183822
000320 da ba df c0 98 59 df c0 15 ce e2 c0 f0 aa de c0
       -6.991559 -6.9796867 -7.0876565 -6.9583664
000330 d9 29 dc c0 fe 1b e4 c0 13 7f db c0 85 0e e2 c0
       -6.8801084 -7.128417 -6.859262 -7.0642724
000340 1f af dc c0 a1 e9 e0 c0 a3 16 e1 c0 aa eb e2 c0
       -6.896377 -7.028519 -7.0340133 -7.0912676
000350 4d 2f e1 c0 a2 18 e2 c0 1b ef e1 c0 6a 55 e1 c0
       -7.037024 -7.065507 -7.0604377 -7.0416765
000360 3e b0 e3 c0 71 6f e2 c0 ff 59 e2 c0 b7 e0 e1 c0
       -7.115264 -7.0761037 -7.073486 -7.058681
000370 07 aa e1 c0 4a 88 e4 c0 98 f9 e0 c0 41 96 dc c0
       -7.0520053 -7.141637 -7.030468 -6.8933415
000380 64 74 df c0 92 d8 dc c0 32 72 e3 c0 5d 04 e1 c0
       -6.982958 -6.901437 -7.10769 -7.0317826
000390 f6 73 e0 c0 e8 cc dc c0 94 22 dd c0 d6 5d e2 c0
       -7.0141554 -6.900013 -6.910471 -7.0739546
0003a0 75 b4 e6 c0 4a a9 e1 c0 33 19 e2 c0 fa ae e0 c0
       -7.2095284 -7.051915 -7.065576 -7.0213594
0003b0 93 8b e3 c0 2f 43 df c0 41 03 e5 c0 39 30 e2 c0
       -7.110788 -6.976951 -7.156647 -7.0683866
0003c0 65 8d df c0 f1 ec dd c0 1a bb e6 c0 0e f5 df c0
       -6.98601 -6.9351735 -7.2103395 -6.998664
0003d0 b2 9b de c0 af 86 de c0 f5 87 dc c0 95 7c df c0
       -6.956506 -6.953941 -6.8915963 -6.983958
0003e0 33 26 db c0 1d a9 dc c0 31 45 e1 c0 20 ca e1 c0
       -6.848413 -6.8956437 -7.039696 -7.0559235
0003f0 8e 7f d9 c0 09 7d df c0 6e 7b dd c0 55 59 e3 c0
       -6.7968206 -6.984013 -6.921317 -7.104655

blinear1.bias_mu f4 [512]
000000 88 ee b4 bb ad 4f 85 3c 24 45 6f bc f7 b6 37 bb
       -0.005521599 0.016273344 -0.014603887 -0.002803264
000010 4d 81 e3 3a 51 f0 10 bc 9c 08 e9 bb 61 dd 8e bc
       0.001735726 -0.008846358 -0.007111622 -0.017439546
000020 f0 d1 4d 3b 5b 46 c1 3c 65 fb 5b 3c df ef e8 3c
       0.003140565 0.023593118 0.013426636 0.028434692
000030 7b c8 ce 3b 87 e7 7d 3c e4 38 2b bc a9 8b 2e bc
       0.00631052 0.015497095 -0.0104505755 -0.010653415
000040 8c de 6f bc d1 22 2d bc f4 5d 2a bc 95 71 a4 3c
       -0.014640462 -0.010567383 -0.010398377 0.020073691
000050 03 ed 10 3c db 62 84 bc cd ab 81 3c 48 de a8 bc
       0.0088455705 -0.01616042 0.015828991 -0.020613804
000060 ec da 21 bd 93 50 99 bc 05 bf 1f bc 9b 91 88 3b
       -0.03951542 -0.018715179 -0.009750132 0.004167748
000070 17 0c 58 bc 68 f4 9d 3a fc f8 45 3c aa a2 66 bc
       -0.013186476 0.0012050988 0.012083288 -0.014076868
000080 16 fd f4 3c 8a 7d 97 ba 34 df 69 bc 11 7e 08 3c
       0.029905837 -0.0011557799 -0.014274407 0.008330838
000090 06 48 95 3c 54 00 e3 bb 5e 40 14 bc e9 d7 c1 b8
       0.01822282 -0.0069275293 -0.009048549 -9.2431736e-05
0000a0 17 7f fb 3c 3a 64 a3 3b 36 ec e7 bc 65 cd a1 bc
       0.03070025 0.004986313 -0.028310876 -0.01975126
0000b0 e7 ae 16 3d ae f8 17 3c a4 52 36 bd dc 97 58 ba
       0.036787894 0.009275598 -0.044512406 -0.0008262375
0000c0 87 5d 5d 3d 82 8e b8 bc 18 fc 8e bc d3 21 82 3c
       0.054044273 -0.02252889 -0.017454192 0.01588527
0000d0 bb f9 dd 3a 36 88 0e 3b f8 2b 96 bc 0f 43 41 b8
       0.0016935387 0.0021748669 -0.018331513 -4.607724e-05
0000e0 57 5b 1f 3c 0b e0 09 bc da 8b f2 3b 46 5e 74 bc
       0.009726367 -0.008415232 0.0074019255 -0.014915055
0000f0 18 93 2b bc 57 39 69 bc f1 be 21 bd 43 45 72 3c
       -0.010472082 -0.014234862 -0.039488737 0.014787021
000100 d7 42 dd 3c 5b 8b 92 3a 81 89 ea bc 09 d9 71 bc
       0.02700941 0.0011180447 -0.02863002 -0.014761218
000110 6a 1d 67 3d eb 75 cd bb e3 77 32 bd 38 20 db 3b
       0.056424536 -0.0062701604 -0.043571364 0.0066871904
000120 44 b2 db bc 98 49 30 bc 9f 54 0b 3c ac b0 68 bb
       -0.026818402 -0.010759734 0.008504062 -0.0035505695
000130 e1 11 e0 3c 64 9e f7 3b 29 94 8d bc ad 46 15 3d
       0.027352275 0.0075567234 -0.017282562 0.036444355
000140 b9 3c f8 bb d6 ed 43 3c 0e 4a 28 bd 13 f3 35 bc
       -0.007575598 0.01195856 -0.04108625 -0.011105317
000150 e8 0b 30 bc 7e 8e 4c 3c 05 41 c6 bc 5d 6d f2 3b
       -0.010745026 0.012485145 -0.024200926 0.007398291
000160 f3 54 1d bc 1b 1d 0d bd 3e 8f 6d bb 6c 07 29 3c
       -0.009602773 -0.034451585 -0.003624871 0.010316711
000170 a9 5d 20 bc 6c 2a 8f bc eb 6a 53 bc 83 32 ac bb
       -0.009787955 -0.017476283 -0.012903909 -0.005255045
000180 4b 06 dc bb 3a 63 74 3c 37 a5 fa bb 41 b0 9b 3c
       -0.0067146174 0.014916236 -0.0076490897 0.019004943
000190 ec d8 b9 bb 43 e4 22 3a 7c ed aa bc c9 3f b0 3c
       -0.005671611 0.0006213823 -0.020865194 0.02151479
0001a0 8a 74 3d 3c cc c9 dc ba 73 e3 03 3d 0f 6c 55 ba
       0.01156343 -0.0016844808 0.032199334 -0.0008141407
0001b0 ac 9f 07 bd 9c 8f bd bc 89 60 6b 3c 2e 61 54 bc
       -0.03311126 -0.023139767 0.0143662775 -0.012962623
0001c0 a0 2a 98 bb c5 d8 d9 bc 05 b6 c1 bc ea 58 49 bc
       -0.004643753 -0.026592622 -0.023646364 -0.012289265
0001d0 d0 3d 9c 3c 41 b7 8c bc a1 52 57 bb 54 3e 27 3d
       0.019072443 -0.017177226 -0.0032855647 0.040830925
0001e0 c8 f5 a1 3c fe 7c ba 3a ab 74 88 bc 80 4f 15 3d
       0.019770518 0.0014227924 -0.016657194 0.03645277
0001f0 71 a3 c8 bb 7b 61 23 3a e3 23 fe 3b 24 5f df 3c
       -0.0061229994 0.0006232482 0.007755743 0.027267046
000200 40 10 0d 3c 84 ca ff 3c 9e f6 ad 3a 2a dc 01 3d
       0.008609831 0.031224497 0.001327235 0.031704105
000210 a7 17 fe 3c 92 92 0a bd e6 70 89 bb 14 9d 38 bd
       0.031017138 -0.033831187 -0.0041943667 -0.045071676
000220 51 d1 35 bc 2b e0 e5 bc d3 6b d5 3c ef 63 e7 3c
       -0.011097268 -0.028060993 0.026052391 0.028245894
000230 f7 74 b6 3c b6 b2 ce bc 22 7b 28 bd f0 95 9f 3c
       0.02227257 -0.0252317 -0.041133054 0.019480675
000240 1b 8e c0 3c c7 1e af bc 41 f9 80 3b 6c 52 59 ba
       0.023505261 -0.02137698 0.0039359634 -0.0008290175
000250 dc bb 1c 3b 7f a8 03 3d 77 52 98 3c 53 b3 6e bb
       0.0023915684 0.032143112 0.01859401 -0.0036422804
000260 a0 e9 6b 3b 5a de 09 3c 8d b7 08 bc 83 3e 2f bc
       0.0035997406 0.008414829 -0.008344543 -0.010696056
000270 cf 23 e0 3c 5c 70 55 3b 8a a1 f3 3c 5a d2 8a 3c
       0.027360825 0.0032568192 0.029740114 0.016946007
000280 7a f4 db 3c ac 87 e5 3b 76 e2 3f bd dd 5e a6 bc
       0.026849974 0.0070046987 -0.04684683 -0.020308906
000290 5d 67 50 3b dd bd a3 3c a4 37 10 bc d9 97 03 3d
       0.003179989 0.019987995 -0.008802328 0.032127235
0002a0 8c 25 2a 3c 26 3b 7f 3c dd 17 ab bb 8c 1d 5d 3c
       0.010384928 0.015578067 -0.0052213506 0.013495814
0002b0 ec 57 14 bc 55 ec 19 bd be ef 59 ba 83 8e 86 bc
       -0.009054165 -0.0375789 -0.00083136174 -0.016425377
0002c0 28 e0 93 bc 79 db 81 ba f0 5a 22 3d 7c 4b 1c 3b
       -0.018051222 -0.0009907327 0.039637506 0.0023848703
0002d0 6e 64 11 3d bd a5 30 bc f4 d1 79 3b 13 3d 52 3b
       0.035496168 -0.010781703 0.0038119527 0.003207986
0002e0 74 61 0b bd e4 97 34 3c bc 00 92 bc 32 88 8f bc
       -0.034028485 0.011022542 -0.017822616 -0.017520998
0002f0 e0 10 ad bb 44 63 c5 3c 7a 5e 91 bc 2a ba 1a 3c
       -0.0052815527 0.024095185 -0.017745245 0.009443799
000300 c1 84 83 3c 2c 02 ae bb 4e 49 97 bb c3 e4 68 bc
       0.016054513 -0.0053103175 -0.004616893 -0.014214697
000310 9e 1d 29 bb ea ea 2a bd 9e 19 0b 3d 8d 9a 7b 3c
       -0.0025805007 -0.041727938 0.033959977 0.015356672
000320 55 8b b8 3b a1 4c a3 bb a6 e6 1e 3c 69 08 bb bb
       0.005631844 -0.0049835 0.009698546 -0.0057077897
000330 1a 8e fc bb e0 02 73 bd 4b 74 b3 bc a5 91 08 3c
       -0.0077073695 -0.059328914 -0.021906039 0.008335506
000340 ea 51 6e ba c0 34 ec 3b cb c1 42 3c 17 49 02 3d
       -0.00090911856 0.0072084367 0.011887024 0.031807985
000350 48 6c 62 3b cb fb 13 bc 85 c9 ee b9 45 65 8d 39
       0.0034549404 -0.0090322 -0.0004554504 0.00026969067
000360 e0 c8 d3 3a f7 92 09 3d ab d3 04 3d 95 3c 6e 3b
       0.0016157888 0.033587422 0.032428425 0.0036352028
000370 b9 82 df bc 14 60 20 3c 7d 1f 79 3c 04 fa 31 bc
       -0.027284013 0.009788532 0.015205261 -0.010862831
000380 35 38 97 3c 02 cf 8f bc a2 df d4 3c e3 57 9a bb
       0.018459419 -0.017554764 0.025985543 -0.004710184
000390 d4 c2 a4 3c 2f ae ec 3c bb aa bf 3b 9e 04 4f bc
       0.020112433 0.028891651 0.00584921 -0.012635378
0003a0 5b e2 07 3c 4e 3c 17 3a c6 c6 03 bd f1 62 8e 3c
       0.008293713 0.0005769179 -0.032171987 0.017381163
0003b0 e2 b2 0a 3c 05 69 2b bd f1 a7 2e bd 3e 59 60 bb
       0.008465501 -0.0418482 -0.04264063 -0.003423288
0003c0 c0 5c 15 bd f7 01 a8 bb a4 e7 fa bc 8d 93 37 3b
       -0.036465406 -0.0051271874 -0.030628033 0.002801153
0003d0 84 fe 61 bc 87 dd 58 3c a1 ae 5d 3c f0 43 15 3d
       -0.013793591 0.01323641 0.013530404 0.036441743
0003e0 84 24 ba 3c 51 6d c2 bc 7d 7c ec 3b 1f f4 ba b9
       0.02272249 -0.023733767 0.0072169886 -0.0003565857
0003f0 65 63 90 bb 96 42 bf 3b 3f 4b b5 bc fc 2c 78 bd
       -0.00440638 0.005836795 -0.022130607 -0.060589775

blinear1.bias_rho f4 [512]
000000 b7 75 e4 c0 90 79 dc c0 10 26 df c0 3c 63 e1 c0
       -7.1393695 -6.889839 -6.9733963 -7.0433636
000010 71 06 e7 c0 ef 46 e2 c0 5f 35 dd c0 72 4b e3 c0
       -7.2195363 -7.071159 -6.912765 -7.1029596
000020 03 56 de c0 5c b2 dd c0 de 0b dd c0 37 2e e1 c0
       -6.9479995 -6.9280224 -6.9076986 -7.0368915
000030 27 2b df c0 b3 f3 df c0 5d 92 de c0 77 8a e0 c0
       -6.9740176 -6.9984984 -6.9553666 -7.0169024
000040 bf b7 e0 c0 d4 7c e2 c0 78 e9 e1 c0 34 28 e0 c0
       -7.02243 -7.077738 -7.0597496 -7.0049076
000050 87 63 e3 c0 82 fc df c0 0e ca de c0 3c 15 e5 c0
       -7.1058993 -6.9995737 -6.962165 -7.158842
000060 ee ff df c0 e8 3b dd c0 d2 ed de c0 fd 0f de c0
       -6.9999914 -6.913563 -6.966531 -6.9394517
000070 88 91 e0 c0 c5 a0 df c0 b2 a2 de c0 75 49 e0 c0
       -7.017765 -6.988375 -6.9573603 -7.008967
000080 60 e9 de c0 bd 67 de c0 7c 6d da c0 67 b1 df c0
       -6.965988 -6.9501634 -6.825865 -6.9904056
000090 3e 6e da c0 25 1e e3 c0 61 b7 e1 c0 34 59 db c0
       -6.8259573 -7.0974298 -7.053635 -6.854639
0000a0 a7 45 de c0 53 9c de c0 bd 36 e0 c0 55 c0 e2 c0
       -6.9460025 -6.9565825 -7.006682 -7.085978
0000b0 48 fa df c0 63 83 de c0 ab 21 e3 c0 cf 86 db c0
       -6.999302 -6.9535384 -7.09786 -6.860206
0000c0 47 b6 db c0 23 af e0 c0 7a af e1 c0 ad ab e0 c0
       -6.8660007 -7.021379 -7.0526705 -7.0209565
0000d0 26 02 dc c0 7a 7c e2 c0 ec 4f e1 c0 cc b9 e2 c0
       -6.8752623 -7.077695 -7.041006 -7.0851803
0000e0 04 a7 e2 c0 60 f0 de c0 bc be de c0 44 f5 dd c0
       -7.0828876 -6.9668427 -6.960783 -6.9361897
0000f0 75 5d db c0 90 5b df c0 8d 83 e1 c0 1a 47 e0 c0
       -6.8551583 -6.979927 -7.0473084 -7.0086794
000100 b4 5d e1 c0 c5 a7 e2 c0 69 47 dd c0 5d c8 e4 c0
       -7.0426884 -7.0829797 -6.914967 -7.1494584
000110 01 f7 df c0 a4 e6 e1 c0 70 b5 d6 c0 ee fa db c0
       -6.998902 -7.0594044 -6.709648 -6.874381
000120 2b fa e0 c0 56 86 e3 c0 2a b0 de c0 24 ef e0 c0
       -7.030538 -7.1101484 -6.9590044 -7.029192
000130 9a 27 dd c0 65 42 e9 c0 c4 6c e2 c0 f0 31 e1 c0
       -6.911084 -7.289355 -7.075777 -7.037346
000140 6a 0a e5 c0 1c 38 e6 c0 95 49 de c0 fd 62 e1 c0
       -7.1575212 -7.1943493 -6.946482 -7.0433335
000150 0b 3f de c0 4b 39 df c0 bb 50 e0 c0 e9 ee dd c0
       -6.9451957 -6.975744 -7.009855 -6.935414
000160 af 48 de c0 15 f8 db c0 9c 91 e2 c0 71 a6 db c0
       -6.9463725 -6.8740335 -7.0802746 -6.8640676
000170 07 6b d8 c0 d6 2e e0 c0 37 79 e1 c0 2d a8 da c0
       -6.763065 -7.0057173 -7.0460467 -6.8330293
000180 fe 8f e1 c0 71 95 e3 c0 4f 3d e3 c0 41 d0 e0 c0
       -7.048827 -7.1119924 -7.101234 -7.0254216
000190 d4 74 db c0 75 3f df c0 d9 65 df c0 01 3f df c0
       -6.8580112 -6.976496 -6.9811826 -6.976441
0001a0 da 7a dc c0 1f c2 d9 c0 be be e8 c0 22 05 e0 c0
       -6.8899965 -6.8049464 -7.273284 -7.0006266
0001b0 3f 36 dd c0 12 2e e4 c0 94 2d e3 c0 42 2b e2 c0
       -6.912872 -7.130624 -7.0993137 -7.0677805
0001c0 6d 69 e3 c0 13 f1 e5 c0 26 9c e1 c0 2e 2a e3 c0
       -7.1066194 -7.185678 -7.050311 -7.098899
0001d0 66 86 dc c0 de 75 eb c0 ce 41 df c0 ea d7 da c0
       -6.891406 -7.358138 -6.976783 -6.8388567
0001e0 90 23 e3 c0 26 88 de c0 19 4d de c0 39 2b e6 c0
       -7.098091 -6.9541197 -6.9469113 -7.192776
0001f0 75 d0 e1 c0 54 a7 e1 c0 31 a7 d8 c0 d1 cc db c0
       -7.0566964 -7.051676 -6.770409 -6.868752
000200 72 b4 da c0 c2 b5 e0 c0 fc 9d e4 c0 f7 f1 df c0
       -6.834527 -7.022187 -7.144285 -6.9982867
000210 38 b8 e3 c0 dd 64 df c0 50 f0 e0 c0 0a 55 e2 c0
       -7.1162376 -6.9810624 -7.029335 -7.0728807
000220 d2 5c e2 c0 56 1e e2 c0 7a 6e db c0 36 dc e3 c0
       -7.0738306 -7.066203 -6.857236 -7.120631
000230 c1 4d e0 c0 62 5b dc c0 f4 db e2 c0 b7 ba df c0
       -7.0094914 -6.886155 -7.0893497 -6.9915423
000240 0c b9 e5 c0 e3 b8 de c0 57 53 e3 c0 ad 96 e1 c0
       -7.1788387 -6.960069 -7.1039233 -7.049643
000250 8a 0e e4 c0 91 e3 e2 c0 98 c5 e2 c0 cd 52 e3 c0
       -7.126775 -7.090279 -7.0866203 -7.1038575
000260 d1 35 dd c0 c3 9a e0 c0 c1 6c df c0 00 b2 e3 c0
       -6.9128194 -7.018892 -6.9820256 -7.1154785
000270 48 2e df c0 5d 2f e1 c0 82 35 e2 c0 09 7b de c0
       -6.9743996 -7.0370317 -7.0690317 -6.952519
000280 67 83 e3 c0 7f 4e df c0 6c cc dd c0 c0 71 df c0
       -7.1097903 -6.978332 -6.931204 -6.9826355
000290 97 aa e1 c0 23 aa de c0 b1 17 e2 c0 a3 c7 e6 c0
       -7.052074 -6.9582686 -7.065392 -7.2118697
0002a0 73 fa dc c0 b6 9e de c0 57 2a e1 c0 1b e1 df c0
       -6.9055724 -6.956874 -7.0364184 -6.9962287
0002b0 dd 37 e4 c0 5b 05 df c0 4e fe d7 c0 56 0a e3 c0
       -7.1318192 -6.9694037 -6.749793 -7.0950117
0002c0 cb 94 db c0 98 54 df c0 af 7a db c0 b3 f6 de c0
       -6.861913 -6.9790764 -6.858726 -6.9676147
0002d0 dc 5f dc c0 69 59 e3 c0 5d 31 de c0 6d fa da c0
       -6.8867016 -7.1046643 -6.943526 -6.8430696
0002e0 f2 17 de c0 35 0f e1 c0 63 16 e2 c0 21 26 d9 c0
       -6.940423 -7.0331063 -7.0652328 -6.7859044
0002f0 ba 3a d9 c0 cb e5 df c0 c0 72 dc c0 24 86 e1 c0
       -6.788419 -6.996801 -6.8890076 -7.0476246
000300 e7 d5 e3 c0 f5 e8 e1 c0 19 ff e4 c0 2d b6 da c0
       -7.119861 -7.059687 -7.15614 -6.8347383
000310 b0 a9 e2 c0 a0 17 e4 c0 89 c3 db c0 46 38 e5 c0
       -7.083214 -7.127884 -6.867619 -7.1631193
000320 69 c6 e0 c0 91 c7 d9 c0 fb 77 dc c0 7a 00 e2 c0
       -7.02422 -6.805611 -6.889646 -7.062558
000330 7c 33 e3 c0 85 17 e1 c0 6d 92 e3 c0 fb 08 de c0
       -7.1000347 -7.034121 -7.1116242 -6.9385962
000340 32 c6 e0 c0 b0 8f e2 c0 ac 7d e3 c0 84 0f df c0
       -7.024194 -7.08004 -7.109091 -6.970644
000350 41 3a e0 c0 05 61 de c0 82 d8 df c0 88 a4 e4 c0
       -7.007111 -6.949343 -6.995179 -7.1450844
000360 94 f6 e1 c0 5a 49 dd c0 f8 97 e5 c0 aa d0 dc c0
       -7.06135 -6.915204 -7.174801 -6.9004717
000370 e2 a3 de c0 b1 5e de c0 fc a8 de c0 3f 02 e3 c0
       -6.957505 -6.949059 -6.958128 -7.094024
000380 c2 47 e1 c0 0f 65 db c0 a6 62 dd c0 ab 72 dc c0
       -7.0400095 -6.8560863 -6.918292 -6.8889976
000390 00 09 df c0 77 53 e5 c0 fa c8 dc c0 65 64 e1 c0
       -6.9698486 -7.1664386 -6.8995333 -7.043505
0003a0 65 74 df c0 b7 ff da c0 4f c7 e0 c0 a4 4c da c0
       -6.9829583 -6.843715 -7.0243297 -6.8218555
0003b0 38 c4 df c0 ce cd d7 c0 c1 c4 e5 c0 1d cf e1 c0
       -6.9927025 -6.7438726 -7.180268 -7.0565324
0003c0 c0 7a dd c0 44 25 df c0 9f 5b e3 c0 b0 52 df c0
       -6.921234 -6.973299 -7.104934 -6.9788437
0003d0 ee ce de c0 2d b3 e0 c0 98 2b df c0 ce 0e de c0
       -6.96276 -7.021872 -6.9740715 -6.939307
0003e0 75 f9 df c0 68 c1 e6 c0 f4 6d e0 c0 14 38 e5 c0
       -6.9992013 -7.211109 -7.013422 -7.1630955
0003f0 2e 35 e2 c0 d3 f0 df c0 e2 a5 dd c0 94 a6 e2 c0
       -7.0689917 -6.9981475 -6.9264994 -7.0828342

blinear1.weight_sampler.mu f4 [512, 13]
000000 f3 49 94 3b be ec 45 bd c7 3b 20 bc 7b 66 e9 3b
       0.004525417 -0.048321478 -0.009779877 0.0071228123
000010 f6 10 cc bc 0c 76 a8 bc 25 ff f1 bb 71 88 9f ba
       -0.024910431 -0.020564102 -0.007385152 -0.00121714
000020 94 f5 73 3c ea c9 06 bd b7 72 05 39 09 48 99 3b
       0.014890093 -0.032907404 0.00012726603 0.0046777767
000030 04 35 7d bc 7e e3 d1 bc 6d f2 6b 3a 3e bd 30 b9
       -0.015454534 -0.025621172 0.0009000663 -0.00016855166
000040 0c ce f9 bb 0d 78 b7 bc 83 b1 f1 ba 0c ad 0f bd
       -0.0076234397 -0.022396112 -0.0018439743 -0.03507714
000050 8c 01 52 bb d1 e3 52 bc 6a 33 b1 3c 65 22 7f 3c
       -0.003204438 -0.0128716985 0.021630961 0.015572165
000060 66 ff 0a 3d 68 d8 6a bc 75 1f 07 3d 4c 6c ba bb
       0.033934973 -0.014333822 0.032988984 -0.0056891795
000070 00 05 d3 3c f3 e8 7c 3c c5 a4 6c bc 6e 9d af bc
       0.02575922 0.015436399 -0.014443581 -0.021437373
000080 e8 26 99 3c 90 5e 4b 3c 6a ca 49 38 cc 61 ca 3c
       0.01869531 0.012412682 4.8110647e-05 0.024704836
000090 d7 e9 96 3c 02 30 1f 3c 33 82 89 3c fe b5 0b bd
       0.01842205 0.009716036 0.016785717 -0.03410911
0000a0 37 07 f3 3c 0d 98 02 3d 8d 80 4d 3c 59 d6 21 bb
       0.029666526 0.03188329 0.012542856 -0.0024694412
0000b0 aa a9 f1 bb e9 e6 01 3d 8c 06 02 bc 8b 2d ae 3b
       -0.007374962 0.031714354 -0.007936131 0.0053154877
0000c0 f7 61 82 bc eb 8f b9 3c 8f f1 37 3d 19 56 92 3c
       -0.015915854 0.022651633 0.044908103 0.01786332
0000d0 e4 b4 ff 3b be 31 73 3c 64 2a 2e bc aa e2 c6 bb
       0.0078035463 0.014843402 -0.010630224 -0.006069501
0000e0 d8 fd e1 bb 0a 4e da bb ce fa 9f 3c 53 cc ae 3b
       -0.0068967156 -0.006662135 0.019528773 0.005334416
0000f0 1d 6a a8 3b 6a 89 a6 bc 3b 37 e1 3c 8a 18 2b 3c
       0.005139603 -0.020329196 0.027492156 0.010442862
000100 63 a5 22 39 eb 0a f0 3c 12 77 81 bb 89 3e 97 3b
       0.00015511135 0.029302081 -0.003950962 0.004615609
000110 86 1d 33 bd 14 61 ad 3b ef 65 2f bd cc 0d d6 3c
       -0.043729328 0.0052911136 -0.04282182 0.026129626
000120 04 e6 30 bd 7d 4d c6 3c 86 51 e4 3c df 58 03 bc
       -0.04318811 0.024206871 0.027870905 -0.008016794
000130 8d 81 7d 3b 60 c7 04 bd f3 9d 17 bc 0e 3e 89 bc
       0.0038681955 -0.0324167 -0.009253967 -0.016753223
000140 4e 8a 21 3c c4 73 09 bb 97 83 11 bc 81 f7 da 3c
       0.009859635 -0.0020973543 -0.008881471 0.026729347
000150 a3 7f 9a bb 42 13 b4 bb 5e 63 07 bb 82 81 41 3c
       -0.0047149225 -0.00549546 -0.0020658593 0.011810662
000160 f1 60 df bc 5b fb 8e 3c 73 ed 45 bd cf 9f 8a bc
       -0.027267905 0.01745384 -0.048322152 -0.016921906
000170 e0 f2 6c 3d d2 19 aa bc 5b 05 2e bb ed 60 bd bb
       0.05784881 -0.020764265 -0.0026553485 -0.0057793767
000180 1a 01 a8 bc 02 6a e9 bc cf 66 de b9 46 df a7 3c
       -0.020508338 -0.028492931 -0.00042419738 0.020492207
000190 b3 12 16 bd ca 50 c2 3c 60 87 7b bc 6b 49 80 bd
       -0.036638927 0.023720164 -0.0153521 -0.06264003
0001a0 32 e1 b7 bc e0 04 04 3b 66 46 41 bc f6 e2 f3 3b
       -0.022446249 0.0020144507 -0.011796569 0.0074428273
0001b0 4d 24 ea 3a 4f ed b5 bc 8b d3 7f 39 52 d3 dc bb
       0.0017863602 -0.022207884 0.00024397501 -0.0067390585
0001c0 b6 fc 04 3d 08 00 9f bc b1 b1 96 3b 21 e7 f6 bb
       0.032467566 -0.019409195 0.004598819 -0.007534877
0001d0 7d 74 92 bc e4 57 b0 3c 8e 4b ae bb 3e 88 49 bd
       -0.017877812 0.021526285 -0.0053190654 -0.049202196
0001e0 d0 80 3d 3c b9 8d 49 bc 91 6c 1b 3b 09 80 6e bc
       0.011566356 -0.012301856 0.0023715834 -0.014556893
0001f0 14 65 8d 3c 1f f0 43 bc 0a e9 91 bc 39 da 44 bc
       0.017260112 -0.011959105 -0.017811317 -0.012014919
000200 d4 8a 30 bd 40 8b 4f ba 3f 03 42 3b 97 da 18 bc
       -0.043101147 -0.0007917173 0.0029603986 -0.00932946
000210 1d 57 f4 bc f8 20 28 bc 4b 19 ac 3b 34 fe 9f bc
       -0.029826695 -0.010261767 0.0052520386 -0.019530393
000220 b0 69 c4 bc 19 89 91 bc a6 5f 88 bc e1 1e a0 bb
       -0.023976177 -0.017765569 -0.016647171 -0.0048864936
000230 99 88 a9 3c 36 6a 3d 3b 09 06 59 3c 65 49 9a bc
       0.020695018 0.0028902418 0.013246068 -0.018833825
000240 ef 0a 57 3c 93 76 1c bd 49 89 c3 3b 75 c5 57 3c
       0.013125165 -0.03819902 0.0059672934 0.013169636
000250 f8 0f c2 3b eb 06 ea 3c b9 a3 8d 3c 3e a9 bd 3b
       0.005922314 0.028567752 0.017289983 0.0057879975
000260 e3 fa bd bc 5c f9 3c 3b f5 19 14 bc 5c 92 30 3c
       -0.023190921 0.0028835153 -0.009039392 0.010777082
000270 13 1c db 3b 91 91 75 3c 07 97 36 bb 3a 5c 8b bc
       0.0066866963 0.014988319 -0.0027861015 -0.01701175
000280 1e 5d 13 bc 7f 2d a5 bc 41 97 39 3a 94 16 7f bc
       -0.008994369 -0.020163296 0.00070797285 -0.015569348
000290 43 83 00 3c 46 87 18 3c c2 72 98 3c 71 12 37 bc
       0.007843795 0.009309595 0.018609408 -0.01117383
0002a0 88 4d 0c bb 6d 0d 8e bc c1 f9 67 3c ff cf 95 3b
       -0.0021408517 -0.017340386 0.014158667 0.004571914
0002b0 67 ba dd ba 15 46 d8 ba a7 bd 60 3b 07 f0 24 3c
       -0.0016916514 -0.0016500378 0.003429273 0.010066993
0002c0 38 bd 41 3d eb e7 df bc 70 b2 ac ba 4c 33 95 3a
       0.047299594 -0.027332267 -0.0013175737 0.0011383086
0002d0 86 4b 1d bc 4e 61 bb 3c ea 0f 53 bc b0 fd 44 3d
       -0.009600526 0.022873547 -0.012882212 0.048093498
0002e0 67 2c 84 3c 62 65 b3 3c 44 13 22 bd 46 77 8f bc
       0.016134454 0.021898929 -0.039569154 -0.017512929
0002f0 63 f2 9c 3c 94 b9 79 3c 02 6e dc bc b7 3b d7 3b
       0.019158548 0.015241999 -0.026907925 0.006568398
000300 dc 7c 99 b9 9a 08 37 bd 00 89 9a bc ff ed b1 bc
       -0.00029275462 -0.044685937 -0.018864155 -0.02171993
000310 95 42 2c 3c 10 af c5 bc 28 0f 0b bd 66 e4 a6 3c
       0.010513921 -0.024131328 -0.03395 0.02037258
000320 01 14 5b 3d 1b 79 9e bc 69 90 eb 3b 91 ad d4 bb
       0.053485874 -0.019344857 0.007188846 -0.0064904173
000330 bf 51 43 3c 02 e8 d7 bb 7c 39 ab 3c 3c e1 78 bc
       0.011921345 -0.006588937 0.020901434 -0.015190419
000340 26 06 a3 3c 57 e9 04 3c 1e ed 44 3b 2c 58 0b bc
       0.019900393 0.008112273 0.003004856 -0.0085049085
000350 2e 14 84 bc c6 f0 97 3b a4 73 eb 3c 04 27 a7 bc
       -0.016122904 0.0046368567 0.028741665 -0.020404346
000360 48 1d e0 3b f8 d5 1c bd 3f 1c b9 bc 2c 7c d4 3c
       0.006839428 -0.038289994 -0.022596477 0.025938116
000370 cd a5 a6 bc 7d 75 b5 3c 4c 86 c8 39 3a 34 05 3d
       -0.020342732 0.02215075 0.00038247032 0.03252051
000380 83 6d 11 3c de e8 29 3c 39 06 5c bb ff 3b 1e 3b
       0.008876207 0.010370461 -0.0033573045 0.0024144647
000390 13 ee c3 ba d7 6c ae bc 71 e0 04 bc 93 94 01 bd
       -0.0014948271 -0.021292133 -0.008110152 -0.031635832
0003a0 44 11 4d 3c be 32 f0 bc 15 0c 5b bd 9a 21 d8 b9
       0.0125163235 -0.02932107 -0.05347832 -0.00041223766
0003b0 ec cf 80 ba 59 f2 a6 3c 35 4b a6 bc 03 f8 79 bc
       -0.000982759 0.020379232 -0.020299533 -0.0152568845
0003c0 8e 6d 9f bc 69 4d 24 bc 39 37 ef 3a aa d8 e9 3c
       -0.01946142 -0.010028222 0.001825071 0.028545696
0003d0 33 73 62 3c 15 64 64 3b de 20 06 3c d2 3e 3f 3b
       0.013821411 0.0034849693 0.008186547 0.002918173
0003e0 8f 92 9b 3c 83 dc 79 bc 41 9e a3 3b 03 03 7c 3c
       0.018990783 -0.015250328 0.0049932306 0.015381577
0003f0 a6 ee b4 3b 6b c5 03 bd 92 7e f5 3b 16 d9 2c bd
       0.005521613 -0.032170694 0.007491895 -0.042199217

blinear1.weight_sampler.rho f4 [512, 13]
000000 52 b9 e0 c0 0c f2 e0 c0 13 c4 e3 c0 da 97 e0 c0
       -7.022622 -7.0295467 -7.117685 -7.0185366
000010 e9 8b e6 c0 87 d8 e4 c0 94 19 dd c0 10 f4 df c0
       -7.204579 -7.1514316 -6.9093723 -6.998543
000020 fd 94 e3 c0 ce 71 e2 c0 9d 46 e1 c0 76 02 dd c0
       -7.111937 -7.076392 -7.03987 -6.9065504
000030 57 5b de c0 b0 94 df c0 c2 ac e3 c0 f9 d6 e1 c0
       -6.94865 -6.9869003 -7.1148386 -7.057492
000040 e4 9e dd c0 1e 2c e1 c0 88 8f e0 c0 c0 62 e4 c0
       -6.925646 -7.0366354 -7.017521 -7.1370544
000050 d8 95 d8 c0 e8 3e e4 c0 6c 05 e1 c0 d4 42 dd c0
       -6.7682915 -7.132679 -7.031912 -6.9144077
000060 5f 63 e6 c0 8f d6 e0 c0 21 df e2 c0 ae 5f db c0
       -7.1996303 -7.026191 -7.0897374 -6.8554296
000070 15 a2 e2 c0 fe 58 db c0 5d 28 e4 c0 1d 95 dc c0
       -7.0822854 -6.8546133 -7.129927 -6.8932023
000080 5e 89 de c0 f5 c1 e0 c0 9f 41 e3 c0 bf ec dd c0
       -6.9542685 -7.0236764 -7.1017604 -6.9351497
000090 a8 d9 dd c0 6a 94 e0 c0 16 7e e3 c0 b7 a9 e1 c0
       -6.9328194 -7.018117 -7.1091413 -7.051967
0000a0 83 1a de c0 e3 f3 e5 c0 69 cc e0 c0 2a eb df c0
       -6.9407363 -7.1860213 -7.0249524 -6.9974566
0000b0 2c 4c e3 c0 86 c4 da c0 d5 5a db c0 b7 4a da c0
       -7.1030483 -6.8364897 -6.854838 -6.8216205
0000c0 fe a8 dc c0 88 eb e1 c0 32 02 dc c0 91 4f e1 c0
       -6.895629 -7.0600014 -6.875268 -7.0409627
0000d0 ae 5b e2 c0 ee 6c db c0 cc a4 e1 c0 f3 43 e1 c0
       -7.0736914 -6.857047 -7.051367 -7.0395446
0000e0 8a ec e1 c0 d0 07 dd c0 97 a7 e3 c0 4f 2b dc c0
       -7.0601244 -6.9072037 -7.1142077 -6.8802867
0000f0 27 89 d9 c0 7f c8 e1 c0 23 63 e6 c0 92 cd e0 c0
       -6.797992 -7.0557246 -7.1996017 -7.025094
000100 62 06 e1 c0 af 90 db c0 7f f6 e0 c0 9c ac e0 c0
       -7.032029 -6.8614116 -7.03009 -7.0210705
000110 58 bc e4 c0 74 73 df c0 71 d5 de c0 bb 59 e2 c0
       -7.147991 -6.9828434 -6.963555 -7.0734534
000120 16 c8 e1 c0 2e 4e de c0 09 09 e0 c0 9e 1f e0 c0
       -7.0556746 -6.9470434 -7.001103 -7.0038595
000130 17 79 de c0 e9 fa e1 c0 de fa dd c0 94 6a e0 c0
       -6.9522815 -7.0618787 -6.9368734 -7.01301
000140 3b f3 da c0 16 ab e0 c0 80 1d de c0 0e d5 e0 c0
       -6.842191 -7.0208845 -6.941101 -7.0260077
000150 d2 a1 e4 c0 00 72 de c0 0a 4f db c0 f3 d4 de c0
       -7.1447535 -6.951416 -6.8533983 -6.963495
000160 76 aa de c0 66 b5 e3 c0 cf 4c e1 c0 2f 2a e2 c0
       -6.958308 -7.1158934 -7.040626 -7.0676494
000170 fe d5 dc c0 30 30 e0 c0 c4 74 e5 c0 05 8b da c0
       -6.901122 -7.0058823 -7.1705036 -6.82947
000180 f4 7d e1 c0 57 39 dc c0 2e f4 de c0 d1 84 dd c0
       -7.046625 -6.8819995 -6.967307 -6.922463
000190 17 a0 de c0 e5 52 df c0 a2 fc e2 c0 68 d8 e4 c0
       -6.957042 -6.978869 -7.093339 -7.151417
0001a0 18 8f e0 c0 68 e4 e4 c0 68 60 df c0 6a e1 de c0
       -7.0174675 -7.1528816 -6.9805183 -6.9650164
0001b0 5b ad e1 c0 bd 75 e0 c0 8f 50 e2 c0 92 4b e3 c0
       -7.0524116 -7.0143723 -7.072334 -7.102975
0001c0 90 af e0 c0 4a 8f d9 c0 9e 12 df c0 48 6e e0 c0
       -7.021431 -6.7987413 -6.9710226 -7.013462
0001d0 33 9e e0 c0 58 8d de c0 ec b4 df c0 e2 ac e2 c0
       -7.0193114 -6.954754 -6.990835 -7.083604
0001e0 21 68 df c0 81 0d df c0 89 10 dc c0 4c 31 d8 c0
       -6.981461 -6.9703984 -6.8770185 -6.7560177
0001f0 05 ad e2 c0 e4 43 df c0 8d c6 e3 c0 c2 77 de c0
       -7.0836205 -6.9770374 -7.117987 -6.952119
000200 10 04 db c0 34 9d dd c0 fd 4f e0 c0 79 16 dd c0
       -6.844246 -6.92544 -7.009764 -6.9089932
000210 11 b7 e1 c0 96 11 e1 c0 f0 a4 e5 c0 de dd dc c0
       -7.053597 -7.0333967 -7.176384 -6.9020834
000220 76 10 e4 c0 03 c8 dd c0 f6 eb e1 c0 4c 15 de c0
       -7.1270094 -6.9306655 -7.060054 -6.9400997
000230 e1 d3 dd c0 d7 42 e2 c0 9d 23 e0 c0 a3 18 e0 c0
       -6.932114 -7.070659 -7.0043473 -7.0030074
000240 be 00 dc c0 cf 17 dd c0 88 eb de c0 c3 58 e0 c0
       -6.8750906 -6.9091563 -6.9662514 -7.010835
000250 a9 95 de c0 62 a2 dd c0 20 f3 df c0 ac 9e e4 c0
       -6.955769 -6.926072 -6.9984283 -7.144369
000260 e2 33 e1 c0 52 95 e3 c0 85 19 e5 c0 82 f3 e0 c0
       -7.0375834 -7.1119776 -7.159365 -7.029725
000270 de 74 dc c0 21 fd e5 c0 f1 6a e1 c0 a9 1c e1 c0
       -6.889266 -7.1871495 -7.0443044 -7.0347486
000280 74 21 e2 c0 c2 12 de c0 5c 57 df c0 26 98 e2 c0
       -7.0665836 -6.93979 -6.979414 -7.081073
000290 1d 31 e1 c0 ed 9a e1 c0 a5 f3 e3 c0 f5 9d e3 c0
       -7.0372453 -7.050162 -7.123492 -7.113032
0002a0 36 a6 df c0 6b 1e dc c0 c1 98 db c0 b3 2f e1 c0
       -6.9890394 -6.878713 -6.8623967 -7.0370727
0002b0 d2 f9 df c0 6f 27 df c0 01 12 de c0 fa b5 e0 c0
       -6.9992456 -6.9735637 -6.9396977 -7.022214
0002c0 6b 0a db c0 5b b3 e0 c0 a3 a5 df c0 0b 1a dd c0
       -6.8450217 -7.021894 -6.9889693 -6.909429
0002d0 12 e4 e2 c0 89 bd e6 c0 f9 ea dd c0 6a ec e2 c0
       -7.0903406 -7.2106366 -6.934933 -7.091359
0002e0 be 72 df c0 4d 72 dc c0 ea 54 dc c0 79 c1 db c0
       -6.9827566 -6.8889527 -6.8853655 -6.8673673
0002f0 cb 29 e6 c0 a1 2a e2 c0 26 55 e3 c0 58 9f de c0
       -7.1926017 -7.0677037 -7.104144 -6.956951
000300 ad 4a df c0 7d a2 df c0 4d 25 e0 c0 f9 8e e0 c0
       -6.9778657 -6.988585 -7.0045533 -7.0174527
000310 18 6a de c0 1a df e3 c0 8c 5a e5 c0 df e1 e5 c0
       -6.950451 -7.120984 -7.167303 -7.183822
000320 da ba df c0 98 59 df c0 15 ce e2 c0 f0 aa de c0
       -6.991559 -6.9796867 -7.0876565 -6.9583664
000330 d9 29 dc c0 fe 1b e4 c0 13 7f db c0 85 0e e2 c0
       -6.8801084 -7.128417 -6.859262 -7.0642724
000340 1f af dc c0 a1 e9 e0 c0 a3 16 e1 c0 aa eb e2 c0
       -6.896377 -7.028519 -7.0340133 -7.0912676
000350 4d 2f e1 c0 a2 18 e2 c0 1b ef e1 c0 6a 55 e1 c0
       -7.037024 -7.065507 -7.0604377 -7.0416765
000360 3e b0 e3 c0 71 6f e2 c0 ff 59 e2 c0 b7 e0 e1 c0
       -7.115264 -7.0761037 -7.073486 -7.058681
000370 07 aa e1 c0 4a 88 e4 c0 98 f9 e0 c0 41 96 dc c0
       -7.0520053 -7.141637 -7.030468 -6.8933415
000380 64 74 df c0 92 d8 dc c0 32 72 e3 c0 5d 04 e1 c0
       -6.982958 -6.901437 -7.10769 -7.0317826
000390 f6 73 e0 c0 e8 cc dc c0 94 22 dd c0 d6 5d e2 c0
       -7.0141554 -6.900013 -6.910471 -7.0739546
0003a0 75 b4 e6 c0 4a a9 e1 c0 33 19 e2 c0 fa ae e0 c0
       -7.2095284 -7.051915 -7.065576 -7.0213594
0003b0 93 8b e3 c0 2f 43 df c0 41 03 e5 c0 39 30 e2 c0
       -7.110788 -6.976951 -7.156647 -7.0683866
0003c0 65 8d df c0 f1 ec dd c0 1a bb e6 c0 0e f5 df c0
       -6.98601 -6.9351735 -7.2103395 -6.998664
0003d0 b2 9b de c0 af 86 de c0 f5 87 dc c0 95 7c df c0
       -6.956506 -6.953941 -6.8915963 -6.983958
0003e0 33 26 db c0 1d a9 dc c0 31 45 e1 c0 20 ca e1 c0
       -6.848413 -6.8956437 -7.039696 -7.0559235
0003f0 8e 7f d9 c0 09 7d df c0 6e 7b dd c0 55 59 e3 c0
       -6.7968206 -6.984013 -6.921317 -7.104655

blinear1.weight_sampler.eps_w f4 [512, 13]
000000 c6 d4 bc bf 41 4a 97 3d 49 7f 47 3d 23 21 61 3e
       -1.4752433 0.0738721 0.048705373 0.21985297
000010 47 8b 1c 3f c5 1e e7 be 5d 06 93 3f e1 3a 60 3f
       0.6115002 -0.45140663 1.1486317 0.8758984
000020 a0 f0 8c bf fc e1 ef 3f 61 4a c8 3e 2c 22 f6 bf
       -1.1010933 1.874084 0.39119247 -1.9229178
000030 9b 0e b9 be f9 56 8b be 56 a9 e3 3e 73 e3 44 3f
       -0.36143956 -0.27214792 0.4446513 0.7690956
000040 31 52 76 bf 96 b6 ca bf 5c 75 08 3f aa 4f 88 3f
       -0.96219164 -1.5836971 0.53304076 1.0649312
000050 af b1 a1 3e 7a f2 0b bf 21 2d e1 3e f5 c1 b2 bf
       0.31580874 -0.54666865 0.43979743 -1.3965441
000060 02 92 5e bf f2 ae a3 ba d9 69 ab 3f a2 1c 98 bc
       -0.8694154 -0.0012488051 1.3391677 -0.01856834
000070 53 14 46 bf 16 a8 eb be 4b b7 72 3d 6e b3 ec bf
       -0.7737476 -0.46026677 0.059256833 -1.8492258
000080 46 36 9d 3e 9f 49 04 c0 28 5f 1d 3d 4e 4a ba be
       0.3070547 -2.0669935 0.038420826 -0.36384815
000090 5e f8 17 3e f8 22 10 40 84 88 88 3f 14 3f ec 3d
       0.14840838 2.2521343 1.0666661 0.11535469
0000a0 a4 e3 67 bf e7 f0 f4 3f db 47 9c be 6c 85 1c 3f
       -0.9058173 1.9136018 -0.3052357 0.61141086
0000b0 c3 03 f6 bf 3c e1 48 3f a5 ae 53 bc c4 c1 8b 3d
       -1.9219898 0.7846868 -0.0129200565 0.06824067
0000c0 a3 af 85 3c 64 26 20 3f 83 e8 5c 3f 6a 13 27 be
       0.016319102 0.6255858 0.86292285 -0.16316
0000d0 ba 30 43 bf d0 03 45 3f 8f 01 1d 3f cc 43 51 bf
       -0.76246226 0.7695894 0.61330503 -0.81744075
0000e0 bc 98 b7 bf f2 f3 86 bf 11 ae 6a 3e 5a bb 90 3f
       -1.4343486 -1.0543196 0.22917964 1.1307175
0000f0 01 71 00 3f e2 58 06 c0 e2 9a ce be 7e ca 35 3f
       0.5017243 -2.099175 -0.4035254 0.71012104
000100 08 48 68 3f a4 d9 91 3f 73 bf 1e 3e 04 2f f1 bd
       0.9073491 1.1394544 0.1550272 -0.11776546
000110 8d ac 20 be 11 37 60 3f ce 22 8f 3f 6f 07 b0 3e
       -0.15690823 0.87584025 1.1182497 0.3438067
000120 bf 07 3e 3f c4 db e5 3e 3e 51 d5 3f e2 3d 26 be
       0.7423057 0.4489423 1.6665418 -0.16234544
000130 02 0f 18 bf a6 f2 a0 3d 8b c3 a1 3f b0 69 95 3b
       -0.593979 0.078587815 1.26378 0.004559718
000140 90 a5 b1 3f 80 8a c2 be 01 b6 7c 3f 80 e3 ae be
       1.3878651 -0.37996292 0.98715216 -0.34157944
000150 26 cb f3 3d 49 8c 1a bf 54 ba 82 bf bc d6 c8 3e
       0.11903982 -0.6037031 -1.0213113 0.3922633
000160 65 d8 27 3f 33 a7 ea be be 9c 0f 3f 23 f0 3a 3f
       0.65564567 -0.45830688 0.56098545 0.7302267
000170 18 fc 6b 3f 15 d4 0b 3f 65 4e e9 bf ca 36 8a 3f
       0.9218154 0.54620486 -1.8227049 1.079797
000180 ff 0d aa bf 0c b2 dd 3e 0d fb 15 bf 74 0f 28 3f
       -1.3285521 0.432999 -0.585862 0.6564858
000190 68 9e ae 3e df 37 15 40 66 a6 d2 bf 50 12 12 be
       0.3410523 2.331535 -1.6457031 -0.14264798
0001a0 61 ba aa bf 7e 14 5a 3e 54 00 85 3f 50 62 d5 bf
       -1.3338128 0.2129688 1.0390725 -1.6670628
0001b0 74 1d da 3f 91 4e 44 3f 10 b2 c7 3f 7d ec 76 3f
       1.7040238 0.7668238 1.5601215 0.964546
0001c0 d4 ff da bf d3 78 a4 3f 6a d1 dc bb 17 9a 09 40
       -1.7109323 1.2849373 -0.0067388313 2.15003
0001d0 bb 2e b5 bf c2 11 c3 3f 81 0c 94 3e 3a 6d 2a bf
       -1.4154886 1.5239794 0.2891579 -0.66572917
0001e0 af e2 65 be eb aa 38 3f af 22 65 bf 02 09 b4 3f
       -0.22449754 0.721358 -0.8950605 1.4065249
0001f0 41 14 de 3f 00 86 84 3e 7f 89 78 3f a9 b1 cd bd
       1.7349931 0.25883484 0.970848 -0.100436516
000200 22 c3 18 c0 b6 0c 47 bf 60 e4 bd be f8 10 32 bf
       -2.38691 -0.7775377 -0.370883 -0.6955714
000210 e1 15 3e 3e 0c dd 20 3f 9a cf 1e 3f f5 b8 43 bf
       0.18563034 0.6283729 0.62035525 -0.764541
000220 f3 e0 7d c0 14 a2 b1 be 96 5f f2 3f ed 9e a5 3f
       -3.9668548 -0.34693968 1.893542 1.2939125
000230 09 c2 26 3f a3 67 8b 3f 08 3e 80 3e bf c0 23 40
       0.65139824 1.0891002 0.25047326 2.5586393
000240 d0 33 9c bf cf 94 04 3e 50 bf 39 bf 34 22 d7 bf
       -1.2203312 0.12947391 -0.72557545 -1.6807313
000250 f2 cf 9d 3e 65 0d b6 be 81 f6 97 3f 56 d8 a4 bf
       0.30822712 -0.35557094 1.1872102 -1.287852
000260 9f b2 c8 3e 0f fe 83 3d 27 f5 bd 3f c4 e3 86 bf
       0.39198777 0.06444942 1.484044 -1.0538259
000270 cc 60 54 3f 3a 8a e8 bf 64 40 89 3f 7f 1a 69 3e
       0.829602 -1.8167183 1.0722775 0.22764014
000280 06 fa b9 bf 7d 62 88 3f ff 65 a3 bf c4 2f cd 3e
       -1.4529426 1.0655056 -1.2765502 0.40075505
000290 b4 60 ee be 9b cf bd 3e bc d1 22 40 23 9f 9e bf
       -0.46558154 0.37072453 2.5440512 -1.2392315
0002a0 23 06 82 bf 37 67 d8 bd b0 87 1a 3f f5 4a 77 3f
       -1.0158123 -0.10566562 0.6036329 0.9659875
0002b0 63 8a 60 3f 47 b3 84 bf f9 dd 3e bf a9 fe d7 3f
       0.8771116 -1.0367211 -0.74557453 1.6874591
0002c0 92 9a f6 3d 79 3d 2f 3f 39 67 b4 3f 4a 83 8d bd
       0.12041201 0.68453175 1.4094001 -0.06909807
0002d0 f6 1c 5a 3f 1a 8b 8c bf 08 b3 49 bf d0 a1 ec 3e
       0.8520044 -1.097995 -0.78788805 0.46217203
0002e0 3d 67 c1 3d de 98 b9 be 04 64 f3 3e d9 62 1a 3e
       0.09443519 -0.3624944 0.47537243 0.1507677
0002f0 04 20 2d be 89 00 bd 3f 59 4c 7d bf 23 34 69 be
       -0.16906744 1.4765788 -0.9894462 -0.22773795
000300 98 d7 37 bf 07 ad a6 bf f9 c1 06 40 0a 91 a1 3e
       -0.71813345 -1.3021554 2.1055892 0.3155597
000310 92 81 66 bf 65 62 cd 3f 4a 2f 28 3f 34 12 42 3f
       -0.9004146 1.6045653 0.6569716 0.75809026
000320 13 34 57 3f 15 31 49 3f ea 1c 84 3f a3 84 77 3f
       0.84063834 0.7859052 1.0321324 0.9668676
000330 b5 df f3 3e 52 9c 42 3e 8b f3 61 3e 82 39 95 bf
       0.47631612 0.19004944 0.2206556 -1.1658175
000340 ba 53 81 bf b8 47 c7 bf fc 2b bc be 35 da 9f 3e
       -1.0103676 -1.5568762 -0.36752307 0.31221166
000350 14 74 11 be fd 92 03 3f ab 03 da be 06 30 e8 3c
       -0.14204437 0.5139616 -0.42580923 0.028343212
000360 92 a8 1b bd 24 a9 c7 be 95 27 18 3e 5f 3d cf be
       -0.038002558 -0.38996232 0.1485885 -0.4047651
000370 74 6b d5 3b 86 0f d8 3f 80 ed 33 c0 8f 3b 29 c0
       0.0065130536 1.6879737 -2.8113708 -2.6442602
000380 0b 32 9d bf 3e 63 2e bf c5 fa 2f bf 9b c1 97 bf
       -1.2280897 -0.6812018 -0.6874202 -1.1855959
000390 04 24 12 3f 5c eb 34 3f 14 ef 01 bf 8a b3 1a 3e
       0.57086205 0.7067163 -0.5075543 0.15107551
0003a0 01 c4 85 3f f5 24 3e 3d 16 c8 25 3f d3 56 bd 3e
       1.0450441 0.046421964 0.6475843 0.36980304
0003b0 82 eb 80 bf 34 47 88 3f 26 b2 a3 bd 24 09 f3 3f
       -1.0071871 1.064673 -0.079929635 1.8987164
0003c0 93 86 09 bf 1e 3b 5c 3f ec 2b 75 3f 44 9a 4e 3f
       -0.5372097 0.86027706 0.95770144 0.8070414
0003d0 2a a8 11 3f b8 3f a8 3f 6c b6 1f 3f 9e d1 55 3f
       0.56897223 1.3144445 0.6238773 0.83522975
0003e0 8a 90 7d bf eb 53 1b 3f 37 3c d6 3f c9 45 4b be
       -0.99048674 0.60674924 1.6737126 -0.1985084
0003f0 ed 50 62 3f fb f0 1e 3f 5a de d8 be 83 e3 9e 3f
       0.8840473 0.62086457 -0.4235714 1.2413181
