experiments/pl-blitz/lightning_logs/version_14/checkpoints/epoch=9-step=239.ckpt (torch, 97959 bytes, 15 tensors)

blinear1.weight_mu f4 [512, 13]
0	0x3e08df71	0.13366486
1	0xbb1e30fd	-0.0024138086
2	0xbe017eba	-0.12645999
3	0x3db6d490	0.08927262
4	0x3e4a4e21	0.19756366
5	0x3d6baba5	0.05753674
6	0xbc3fb4a4	-0.011700783
7	0xbcfe0654	-0.031008877
8	0x3d12a584	0.03580238
9	0x3ddf9796	0.109175846
10	0xbd9992b1	-0.07498682
11	0xbdc1e5c1	-0.0946765
12	0x3d275108	0.04084876
13	0x3d8bff70	0.0683583
14	0x3d6d3ecf	0.057921227
15	0xbe5a3d1b	-0.21312372
16	0x3dbe5f47	0.092955165
17	0xbdfdff04	-0.12402156
18	0xbe28a10e	-0.16467687
19	0x3c3b1320	0.011418134
20	0x3d27a07e	0.04092454
21	0x3c6bf1a7	0.014400876
22	0xbdace055	-0.084412254
23	0xbe309db9	-0.17247666
24	0x3d830c07	0.063987784
25	0x3dbdb916	0.09263818
26	0x3b41dc2b	0.0029580693
27	0xbca3f9d0	-0.02001658
28	0x3d023d46	0.031796716
29	0xbbba336c	-0.0056823995
30	0xbe2a186f	-0.16610883
31	0xbcd9477a	-0.02652334
32	0xbe394080	-0.18091011
33	0xbd8f06bb	-0.069837056
34	0x3dc4aa13	0.096027516
35	0x3d4dc334	0.05023499
36	0xbd9ee9d3	-0.07759442
37	0xbe0f457f	-0.13991354
38	0x3e5304a9	0.20607246
39	0xbbe2c61d	-0.0069205896
40	0x3d3104a1	0.043217305
41	0xbb2fb1d7	-0.0026808882
42	0x3e07ae64	0.13250118
43	0xbcce26c0	-0.025164962
44	0xbdc35d11	-0.095392354
45	0x3d89af45	0.06722883
46	0xbde76417	-0.112983875
47	0xbd9abb53	-0.075552605
48	0xbd100178	-0.03515765
49	0xbd4a5632	-0.04939861
50	0xbd0f7b95	-0.035029966
51	0x3e180bf1	0.14848305
52	0xbdd54b54	-0.10414758
53	0x3c6630a4	0.014049683
54	0x3e432118	0.19055593
55	0x3a77ebd2	0.0009457442
56	0x3d1f92ad	0.03895824
57	0xbc9275f5	-0.017878512
58	0xbcc0faec	-0.023557149
59	0xbdf6d1d3	-0.120517395
60	0x3d4f9ca1	0.050686482
61	0xbd39c4ec	-0.045353815
62	0xbd7a7b38	-0.061152667
63	0xbe25ba0c	-0.16184253
64	0x3d04b505	0.032399196
65	0x3db1a71f	0.08674454
66	0x3d2a95a3	0.04164661
67	0x3e0f07c8	0.13967812
68	0x3d97186b	0.07377704
69	0x3d374f9e	0.044753663
70	0xbc15f473	-0.0091525195
71	0x3e05dbc8	0.13072121
72	0x3d24ebf5	0.04026409
73	0x3d613563	0.054982554
74	0xbd724f39	-0.059157584
75	0x3b2f4de8	0.0026749317
76	0xbdaa2413	-0.08307662
77	0xbd2a8e6a	-0.041639723
78	0xbdc08609	-0.09400565
79	0x3dda5eb4	0.106625944
80	0xbe2aff90	-0.16699052
81	0x3da5d0ae	0.08096443
82	0xbc315bca	-0.010825107
83	0x3dd95a4f	0.10612928
84	0xbd8d7d37	-0.069086485
85	0x3c0d41ea	0.008621672
86	0x3d0a87fd	0.033821095
87	0x3dda0963	0.106463216
88	0x3b68188b	0.003541502
89	0x3d7bf043	0.06150843
90	0x3e04231f	0.12904023
91	0xbd9116c8	-0.07084423
92	0xbd45f40a	-0.048328437
93	0x3d24e66f	0.04025882
94	0x3d966eba	0.07345338
95	0x3d555180	0.052079678
96	0xbc24321d	-0.010021714
97	0x3dc69a96	0.09697454
98	0xbc913793	-0.017726695
99	0x3cd96240	0.026536107
100	0xbd1e850d	-0.038701106
101	0x3d67cbfb	0.056591015
102	0xbd770223	-0.060304772
103	0x3cf70308	0.030152813
104	0xbc5b10f1	-0.013370738
105	0x3dcfaf8e	0.10140906
106	0xbd1cca91	-0.03827912
107	0xbd183220	-0.037157178
108	0x3d95329f	0.07285046
109	0x3df0db7b	0.117606126
110	0x3d122633	0.03568096
111	0xbd0489f7	-0.032358136
112	0x3dcae02d	0.099060394
113	0xbd47985e	-0.048729293
114	0x3e5a75db	0.21334021
115	0x3e0e9dae	0.13927338
116	0x3e02ead0	0.12784886
117	0x3d412619	0.047155473
118	0xbd9ff981	-0.07811261
119	0xbc8a7fce	-0.016906645
120	0xbdf349f0	-0.11879337
121	0xbd6a02fd	-0.057131756
122	0x3e0812e1	0.13288452
123	0xbe152c90	-0.1456778
124	0x3d8228c8	0.06355435
125	0x3e3f9594	0.18709403
126	0xbd666440	-0.05624795
127	0xbe0916a9	-0.1338755
128	0x3e0c9b28	0.13731062
129	0xbde489eb	-0.11159118
130	0xbbc3be60	-0.005973622
131	0xbd64fa78	-0.055902928
132	0x3daada94	0.08342472
133	0x3e037ddb	0.12840979
134	0xbde18e39	-0.11013455
135	0xbd0f8478	-0.03503844
136	0xbdd4d82b	-0.10392793
137	0xbd9ff7dc	-0.07810947
138	0x3c90357f	0.017603634
139	0xbdd91524	-0.105997354
140	0x3da8618b	0.0822173
141	0x3c81dbe7	0.015851928
142	0xbdb185b2	-0.086680785
143	0xbd40b27c	-0.047045216
144	0x3cb8b6ba	0.022548068
145	0x3d06d30a	0.032916106
146	0xbdc562a1	-0.096379526
147	0x3d80a7ba	0.06281991
148	0xbd8b7018	-0.068084896
149	0x3deba53c	0.11506125
150	0x3e477cf0	0.19481254
151	0x3d0ef51c	0.034901723
152	0x3e8d8862	0.27643114
153	0x3d22289b	0.039589506
154	0xbd551271	-0.05201954
155	0xbd819676	-0.06327526
156	0x3c262d6b	0.010142664
157	0x3e3a2111	0.18176676
158	0x3d3169f1	0.043313924
159	0x3cd8011f	0.026367722
160	0x3da6280b	0.08113106
161	0x3e373619	0.1789173
162	0x3dfdcde9	0.1239279
163	0x3c25f9a7	0.010130323
164	0xbd43f907	-0.047844913
165	0xbe34c5cc	-0.17653579
166	0xbd1ee958	-0.038796753
167	0xbc078154	-0.00827058
168	0xbce0e86a	-0.027454574
169	0xbd571cd0	-0.052517712
170	0xbe113f44	-0.1418429
171	0x3d74c05d	0.059753764
172	0xbbf42c1f	-0.0074515487
173	0xbd4c7f30	-0.049925983
174	0x3dd87be9	0.10570509
175	0x3d38b9ac	0.045098945
176	0xbd975b33	-0.07390442
177	0xbd082f06	-0.03324797
178	0xbdb861c1	-0.0900302
179	0xbcf48303	-0.029847628
180	0x3c8ab75a	0.016933132
181	0xbd8f5756	-0.0699908
182	0xbe4696dd	-0.19393487
183	0xbe0eead3	-0.13956766
184	0x3d74497a	0.059640385
185	0xbbbecec9	-0.0058229906
186	0xbe1a2ea2	-0.15056852
187	0x3d9e8110	0.077394605
188	0x3e2aac59	0.16667308
189	0x3db1d93f	0.086840145
190	0x3e0f6494	0.14003211
191	0x3d6fe4c7	0.05856779
192	0x3c104875	0.008806338
193	0xbe218fe2	-0.15777543
194	0xbe23c362	-0.15992501
195	0x3ddfee51	0.10934127
196	0x3e21722f	0.15766214
197	0x3d9f9a6d	0.07793126
198	0x3db5ae26	0.08871107
199	0xbcf232f4	-0.029565312
200	0xbc5fbcf2	-0.013655888
201	0xbe530f4f	-0.20611309
202	0x3deb769a	0.11497231
203	0xbd1b3f50	-0.037902176
204	0x3d8ed426	0.06974058
205	0xbddaf748	-0.106916964
206	0xbbe9fca2	-0.007140712
207	0xbdd5af70	-0.10433853
208	0x3cce81d4	0.025208391
209	0x3d3e9b86	0.046535037
210	0xbe32ec5f	-0.17472981
211	0xbdf2057a	-0.11817451
212	0xbd82f561	-0.063944586
213	0x3d902c58	0.07039708
214	0xbdd1bfc7	-0.10241657
215	0xbdba92f1	-0.09110058
216	0xbde3e17c	-0.11126992
217	0xbcb6c6a0	-0.022311509
218	0xbe06cb8b	-0.13163583
219	0xbc731478	-0.014836423
220	0xbd20792a	-0.03917805
221	0x3e01cd17	0.12675892
222	0x3ca5ac37	0.02022372
223	0x3dff4b0a	0.124654844
224	0xbc668ece	-0.014072133
225	0xbc0e5fc3	-0.008689824
226	0x3dc1039b	0.09424516
227	0x3d3e9581	0.046529297
228	0xbdb18b4f	-0.08669149
229	0x3b01d7ee	0.0019812542
230	0x3e20bcaf	0.15696977
231	0x3e7ca7c6	0.24673375
232	0xbd13a579	-0.03604648
233	0xbdec0e20	-0.11526132
234	0xbdba5148	-0.090975344
235	0x3dc5698b	0.09639271
236	0x3c0cb390	0.008587733
237	0x3dacbe30	0.08434713
238	0xbd794da7	-0.06086507
239	0xbda9872c	-0.08277735
240	0xbc91a39b	-0.017778208
241	0x3dec194c	0.115282625
242	0x3d477f84	0.048705593
243	0x3dc91f12	0.09820379
244	0x3c36f2f6	0.011166325
245	0xbd422424	-0.047397748
246	0x3dd0baa0	0.10191846
247	0xbe0fc2ee	-0.14039204
248	0xbe0c2ea8	-0.13689673
249	0x3df7c0ea	0.12097342
250	0xbccdd143	-0.025124198
251	0x3e57efcd	0.2108757
252	0xbe120aaf	-0.14261888
253	0xbc3700bf	-0.0111696115
254	0xbd8d61b8	-0.06903404
255	0xbde7b6ae	-0.1131414

blinear1.weight_rho f4 [512, 13]
0	0xc0e1d88e	-7.057685
1	0xc0e631b3	-7.193567
2	0xc0e27a37	-7.077419
3	0xc0e0127a	-7.0022554
4	0xc0de67f9	-6.950192
5	0xc0ddb191	-6.9279256
6	0xc0dfe16f	-6.9962687
7	0xc0de3202	-6.9436045
8	0xc0defe73	-6.9685607
9	0xc0def36e	-6.9672155
10	0xc0e1053d	-7.0318894
11	0xc0e7ba50	-7.241493
12	0xc0e0ff82	-7.03119
13	0xc0e66207	-7.199466
14	0xc0e05625	-7.0105157
15	0xc0e2d90c	-7.088995
16	0xc0e0faf9	-7.0306363
17	0xc0e045d0	-7.008522
18	0xc0df5c17	-6.9799914
19	0xc0de3a93	-6.94465
20	0xc0de3801	-6.9443364
21	0xc0e207c8	-7.06345
22	0xc0defd0d	-6.96839
23	0xc0e226b4	-7.0672245
24	0xc0e0aa24	-7.020769
25	0xc0d8ea20	-6.7785797
26	0xc0dd17bf	-6.9091487
27	0xc0e2d376	-7.088313
28	0xc0dd72be	-6.9202566
29	0xc0e449cb	-7.134008
30	0xc0dc637b	-6.8871436
31	0xc0e18296	-7.0471907
32	0xc0df5df5	-6.9802194
33	0xc0dddd62	-6.9332743
34	0xc0dc5b00	-6.8861084
35	0xc0e2dbba	-7.089322
36	0xc0e23f1b	-7.0702033
37	0xc0e32a69	-7.098927
38	0xc0e14b38	-7.040432
39	0xc0df6de7	-6.982166
40	0xc0d9561e	-6.7917624
41	0xc0dbe49c	-6.8716564
42	0xc0e46885	-7.1377587
43	0xc0e12611	-7.035897
44	0xc0e03f09	-7.0076947
45	0xc0e16e96	-7.0447493
46	0xc0dc4a42	-6.8840647
47	0xc0e4747b	-7.139219
48	0xc0e7ee20	-7.247818
49	0xc0e34249	-7.1018414
50	0xc0e44604	-7.133547
51	0xc0e0cc9e	-7.0249777
52	0xc0de8516	-6.953746
53	0xc0e059b2	-7.010949
54	0xc0e48ed3	-7.1424346
55	0xc0e4ba34	-7.14773
56	0xc0e2dd59	-7.08952
57	0xc0dad32f	-6.8382792
58	0xc0df1c6a	-6.9722185
59	0xc0e2e68b	-7.0906425
60	0xc0e107b2	-7.0321894
61	0xc0dc132b	-6.87734
62	0xc0de4f3f	-6.9471736
63	0xc0e288fd	-7.079222
64	0xc0dd4acd	-6.915381
65	0xc0e255af	-7.0729594
66	0xc0dc3f8a	-6.882756
67	0xc0e33dde	-7.101302
68	0xc0e2b933	-7.0851073
69	0xc0deda40	-6.964142
70	0xc0e0073d	-7.0008836
71	0xc0db43d7	-6.852031
72	0xc0dab65f	-6.834762
73	0xc0de2c7c	-6.94293
74	0xc0e3888c	-7.1104183
75	0xc0dc3f45	-6.8827233
76	0xc0dfa150	-6.9884415
77	0xc0e52dc1	-7.161835
78	0xc0dd8532	-6.922509
79	0xc0e369bf	-7.1066585
80	0xc0e2cef9	-7.087765
81	0xc0dafc97	-6.8433337
82	0xc0e26fc8	-7.076145
83	0xc0dcff68	-6.9061775
84	0xc0e0d6d7	-7.0262256
85	0xc0dc1f30	-6.878807
86	0xc0de6bbe	-6.950652
87	0xc0dd8ee2	-6.9236917
88	0xc0dc71d8	-6.888897
89	0xc0e00569	-7.0006604
90	0xc0d613da	-6.6899233
91	0xc0e029ec	-7.0051174
92	0xc0e2a7d7	-7.0829883
93	0xc0e3d83a	-7.120145
94	0xc0e3ac04	-7.114748
95	0xc0e36bf4	-7.106928
96	0xc0e27cc1	-7.0777287
97	0xc0e1d681	-7.0574346
98	0xc0dbe3cb	-6.8715568
99	0xc0d96816	-6.793956
100	0xc0de4c95	-6.9468484
101	0xc0e76e83	-7.23224
102	0xc0dcbf1b	-6.8983283
103	0xc0e4b667	-7.147266
104	0xc0e2ec91	-7.0913777
105	0xc0e0082c	-7.0009975
106	0xc0e10292	-7.0315638
107	0xc0e001d5	-7.0002236
108	0xc0def37b	-6.9672217
109	0xc0dd39b2	-6.913293
110	0xc0dfc52c	-6.992819
111	0xc0dd59b0	-6.917198
112	0xc0e2a84f	-7.0830455
113	0xc0e02799	-7.0048337
114	0xc0e18773	-7.0477843
115	0xc0e3cc31	-7.1186757
116	0xc0db4220	-6.851822
117	0xc0e24786	-7.071231
118	0xc0e04eb7	-7.0096087
119	0xc0df45a1	-6.9772496
120	0xc0df1a92	-6.9719934
121	0xc0e46668	-7.137501
122	0xc0dc9641	-6.8933415
123	0xc0e2d21d	-7.0881486
124	0xc0e23202	-7.0686045
125	0xc0de6d05	-6.950808
126	0xc0e0fa2a	-7.0305376
127	0xc0da35ac	-6.8190517
128	0xc0dc2a2d	-6.8801484
129	0xc0e01f01	-7.0037847
130	0xc0dc412b	-6.882955
131	0xc0dedc81	-6.964417
132	0xc0e44163	-7.132982
133	0xc0e598be	-7.1748953
134	0xc0e06ef0	-7.013542
135	0xc0e49d77	-7.144222
136	0xc0e09849	-7.0185895
137	0xc0dc9eff	-6.8944087
138	0xc0dc3aea	-6.8821917
139	0xc0dd1071	-6.908257
140	0xc0ddf91a	-6.936658
141	0xc0db6279	-6.8557706
142	0xc0dd122f	-6.9084697
143	0xc0df5fb6	-6.9804335
144	0xc0dd3201	-6.912354
145	0xc0e17d92	-7.0465784
146	0xc0e31069	-7.095753
147	0xc0e0103b	-7.0019813
148	0xc0e434b1	-7.131432
149	0xc0daf393	-6.842233
150	0xc0dda137	-6.9259295
151	0xc0e184f7	-7.047481
152	0xc0dfc3ca	-6.99265
153	0xc0e4b4ed	-7.1470857
154	0xc0df83c7	-6.984836
155	0xc0e36915	-7.1065774
156	0xc0dbf2eb	-6.873403
157	0xc0dd7629	-6.920674
158	0xc0e13cc5	-7.038668
159	0xc0e25c66	-7.073779
160	0xc0dab7c1	-6.834931
161	0xc0de21a7	-6.941608
162	0xc0e11843	-7.0342116
163	0xc0dc79cc	-6.889868
164	0xc0dd62e6	-6.9183226
165	0xc0dd154a	-6.908849
166	0xc0e3b75a	-7.116132
167	0xc0dfa9c0	-6.9894714
168	0xc0e2bd53	-7.085611
169	0xc0de7ea2	-6.952958
170	0xc0e61a5c	-7.1907177
171	0xc0ddc0e4	-6.929796
172	0xc0dde760	-6.934494
173	0xc0e44826	-7.133807
174	0xc0d8eecf	-6.7791514
175	0xc0dbab6b	-6.864675
176	0xc0e15f1b	-7.0428596
177	0xc0e56d42	-7.169587
178	0xc0e1d7ad	-7.0575776
179	0xc0e28484	-7.078676
180	0xc0dee067	-6.964893
181	0xc0e0a4f7	-7.0201373
182	0xc0e0b9c6	-7.0226774
183	0xc0e16199	-7.043164
184	0xc0e0eea5	-7.0291314
185	0xc0de443d	-6.94583
186	0xc0df5168	-6.9786873
187	0xc0e09efa	-7.0194063
188	0xc0d90ca9	-6.7827954
189	0xc0de8977	-6.9542804
190	0xc0de6ea5	-6.9510064
191	0xc0deacd9	-6.9585996
192	0xc0dcb729	-6.8973584
193	0xc0e0d8d7	-7.0264697
194	0xc0e0ac4c	-7.0210323
195	0xc0dfa2c5	-6.9886193
196	0xc0df448d	-6.977118
197	0xc0e13709	-7.037968
198	0xc0dfda1a	-6.9953737
199	0xc0e14d94	-7.04072
200	0xc0e1e72d	-7.0594697
201	0xc0dfc999	-6.993359
202	0xc0dc02f9	-6.875363
203	0xc0e4159f	-7.1276393
204	0xc0e11dc1	-7.034882
205	0xc0e168b5	-7.0440316
206	0xc0e1effb	-7.0605445
207	0xc0e0df3b	-7.02725
208	0xc0e1b736	-7.0536146
209	0xc0e4ba25	-7.1477227
210	0xc0ddd5b4	-6.932337
211	0xc0e6f047	-7.2168307
212	0xc0e1c2f3	-7.0550475
213	0xc0e3d07a	-7.119199
214	0xc0dc0847	-6.8760104
215	0xc0e36351	-7.1058736
216	0xc0dde704	-6.93445
217	0xc0e20f3c	-7.0643597
218	0xc0db28c8	-6.848728
219	0xc0ddff0f	-6.937385
220	0xc0e83616	-7.2566023
221	0xc0e07f83	-7.0155654
222	0xc0e1ad59	-7.0524106
223	0xc0e13181	-7.037293
224	0xc0de1a9f	-6.9407496
225	0xc0deb6b7	-6.959804
226	0xc0e16c24	-7.0444508
227	0xc0e16847	-7.043979
228	0xc0e0c70f	-7.024299
229	0xc0e1cf6a	-7.056569
230	0xc0de9707	-6.955936
231	0xc0e2cfbf	-7.0878596
232	0xc0db85af	-6.860069
233	0xc0defe48	-6.96854
234	0xc0e433df	-7.131332
235	0xc0de9f44	-6.9569416
236	0xc0e1672b	-7.0438437
237	0xc0e0fedd	-7.0311112
238	0xc0db636d	-6.855887
239	0xc0e03787	-7.0067782
240	0xc0e067da	-7.012677
241	0xc0e1bfae	-7.0546484
242	0xc0e37f03	-7.1092544
243	0xc0e12f27	-7.037006
244	0xc0e7b6e0	-7.2410736
245	0xc0da29be	-6.8175955
246	0xc0e295ca	-7.080785
247	0xc0db65a4	-6.8561573
248	0xc0dff324	-6.9984303
249	0xc0e5a096	-7.175853
250	0xc0e35c51	-7.105019
251	0xc0e7063b	-7.2195106
252	0xc0dfca88	-6.993473
253	0xc0e2629a	-7.0745363
254	0xc0d9540e	-6.7915106
255	0xc0db1028	-6.845722

blinear1.bias_mu f4 [512]
0	0x3e8c71f1	0.2743068
1	0xbd244f64	-0.040114775
2	0xbd6d2370	-0.057895124
3	0xbd1bb2f4	-0.03801246
4	0x3e450e3a	0.19243708
5	0xbc21c760	-0.009874195
6	0x3d8a7a27	0.0676158
7	0x3cb0c712	0.0215793
8	0x3d47281c	0.048622236
9	0x3e4253dd	0.18977304
10	0xbd048481	-0.032352928
11	0xbe19ee1f	-0.15032242
12	0xbab98fc9	-0.0014157231
13	0xbb3593f9	-0.0027706607
14	0xbcd65ab7	-0.026166303
15	0xbda54dbe	-0.08071469
16	0xbdd2c411	-0.10291303
17	0x3cb73cc4	0.022367842
18	0x3a64c215	0.000872643
19	0xbda3f9af	-0.08006608
20	0xbc68f738	-0.014219098
21	0xbd2f505f	-0.042801257
22	0x3d8adb70	0.06780136
23	0xbddbb66a	-0.10728152
24	0x3dcb2160	0.09918475
25	0x3db3c4b8	0.087777555
26	0x3e11d53f	0.14241503
27	0x3d2e1c0a	0.04250721
28	0xbce7f4e8	-0.028315023
29	0xbe4e814b	-0.20166509
30	0xbce29915	-0.027660886
31	0x3c9d048a	0.019167203
32	0x3e62f4f4	0.22163755
33	0x3de3349c	0.11094019
34	0x3d852d00	0.06502724
35	0x3c547701	0.012967826
36	0x3d047ec2	0.03234745
37	0x3d2c49ca	0.04206256
38	0x3d67c5f5	0.05658527
39	0xbd843fa6	-0.064574525
40	0x3e30b058	0.1725477
41	0xbb143305	-0.0022613418
42	0xbe0695d8	-0.13143098
43	0xbe0df9fc	-0.13864893
44	0x3ae451e4	0.0017419425
45	0x3e1c061d	0.15236707
46	0x3def719b	0.116915904
47	0x3cfbc5d8	0.030733988
48	0x3d82d339	0.06387944
49	0x3c67863f	0.014131128
50	0xbdaf0275	-0.085453905
51	0x3de97bfe	0.11400603
52	0xbd28dcaf	-0.041226085
53	0xbdeb39f8	-0.11485666
54	0xbdd302fd	-0.10303304
55	0xbe2ddbf6	-0.1697844
56	0xbc9b56b7	-0.018962247
57	0xbd3fa6ce	-0.046789937
58	0x3cdf7515	0.027277509
59	0xbd9ab9b0	-0.07554948
60	0x3db79f2f	0.08965909
61	0x3d139a3f	0.036035772
62	0xbdf37985	-0.118884124
63	0x3d0cf1e0	0.034410357
64	0x3de1537e	0.11002253
65	0xbd6c8232	-0.05774135
66	0xbdd5254f	-0.10407507
67	0xbdbbe1a8	-0.091739
68	0x3d24d009	0.04023746
69	0x3e7ca5a3	0.2467256
70	0xbdcf77e6	-0.10130291
71	0xbe22d3a7	-0.15901051
72	0xbcffae66	-0.03121109
73	0xbcdd254f	-0.02699533
74	0x3d629c10	0.055324614
75	0xbe5006c7	-0.20315085
76	0xbd90cf52	-0.07070793
77	0x3d8935c8	0.06699711
78	0x3d2d9585	0.04237892
79	0xbd6a8bdf	-0.057262298
80	0xbcb6f760	-0.022334754
81	0xbe146e93	-0.14495306
82	0x3cbd8f7c	0.023139708
83	0xbddb4fdd	-0.10708592
84	0xbd888898	-0.06666678
85	0xbc9acab5	-0.018895486
86	0x3d0b1c74	0.033962682
87	0x3c753c08	0.014967926
88	0xbdbebd11	-0.09313405
89	0x3bd0e3c2	0.006374807
90	0xbba0dde3	-0.0049092635
91	0x3df2ea4e	0.11861096
92	0xbe1dc3f8	-0.15406787
93	0x3ddcf87b	0.107895814
94	0x3d7829d3	0.06058676
95	0xbd95da52	-0.07317032
96	0x3cab5a83	0.020917183
97	0xbb6f12cc	-0.003647971
98	0x3d6c31ca	0.05766467
99	0xbd65b16d	-0.05607741
100	0x3d9851a0	0.07437444
101	0xbdf28dcb	-0.11843451
102	0x3d31d2fd	0.043414105
103	0x3c899400	0.016794205
104	0x3e0b333c	0.13593763
105	0xbbcba118	-0.006214272
106	0xbde63799	-0.11241073
107	0xbd12b283	-0.035814773
108	0xbc2cf376	-0.0105560925
109	0x3d8673cc	0.06565055
110	0x3d8db383	0.06919005
111	0x3ddfd824	0.109298974
112	0xbdef7316	-0.11691873
113	0x3d96a35e	0.073553786
114	0xbd4b7a86	-0.049677394
115	0xbdf3f757	-0.11912411
116	0xb9864357	-0.00025608644
117	0xbd469d82	-0.048490055
118	0xbd91a319	-0.071111865
119	0x3b9a1588	0.0047022738
120	0x3e71dcb8	0.23619354
121	0xbdc21ee0	-0.09478545
122	0x3b994c28	0.004678268
123	0xbe26f351	-0.16303755
124	0x3d94b738	0.07261509
125	0xbd0a4f8d	-0.03376727
126	0x3c05f55a	0.008176172
127	0x3d7d35bf	0.061818834
128	0xbcba24fd	-0.022722716
129	0x3d28a0ee	0.0411691
130	0x3d86586a	0.065598324
131	0x3d4a2dd1	0.0493601
132	0xbd7439f2	-0.059625573
133	0x3e48c308	0.19605649
134	0x3d542ff7	0.051803555
135	0xbcdbee99	-0.02684717
136	0x3c8e0d4f	0.01734033
137	0xbdb5785a	-0.08860846
138	0xbd9610c5	-0.07327417
139	0x3c97a7ab	0.018512568
140	0xbd552e52	-0.052046128
141	0x3e41c2a1	0.18921901
142	0xbda18a41	-0.07887698
143	0x3d2a4376	0.041568242
144	0x3ce1bbdb	0.027555397
145	0xbd229a50	-0.039697945
146	0x3877182f	5.891191e-05
147	0xbda66f47	-0.08126693
148	0xbd4b0de4	-0.049573794
149	0x3d4f4b0b	0.050608676
150	0x3e01fe40	0.12694645
151	0xbd62b24b	-0.055345815
152	0x3e7afdf6	0.24510941
153	0x3ddf5b85	0.10906128
154	0x3d4b4abb	0.049631815
155	0xbda3be05	-0.07995228
156	0xbd9af6af	-0.075665824
157	0x3d379bc9	0.044826303
158	0x3d941b8e	0.07231818
159	0xbc80ace1	-0.015707435
160	0x3d4c2dab	0.04984824
161	0xbd9a9935	-0.07548753
162	0x3e442024	0.19152886
163	0xbd9f29e5	-0.077716626
164	0xbcb3631f	-0.02189785
165	0x3d961199	0.07327575
166	0xbe400d31	-0.18755032
167	0x3ddad57d	0.10685251
168	0x3c705a4b	0.014669965
169	0x3c58e4a6	0.013238108
170	0x3e91736f	0.2840838
171	0xbd88889b	-0.066666804
172	0xbda4928e	-0.080357656
173	0x3d1b3003	0.037887584
174	0xbdca0399	-0.098639674
175	0x3de5db70	0.11223495
176	0x3e038d54	0.12846881
177	0x3c7ec866	0.015550708
178	0xbc8d870b	-0.017276308
179	0x3d12f3ec	0.035877153
180	0x3d30b945	0.043145437
181	0x3bfd1293	0.0077231615
182	0xbd76d21a	-0.060258962
183	0x3dc87ec5	0.09789804
184	0xbd7700dd	-0.060303558
185	0x3d807542	0.06272365
186	0x3c50dac3	0.012747469
187	0xbe09bcaa	-0.13450876
188	0x3d4bc982	0.04975272
189	0xbdf4d8a5	-0.11955384
190	0xbe511beb	-0.20420806
191	0x3e2eb49a	0.17061082
192	0xbe1b041b	-0.15138285
193	0x3d8651b8	0.06558555
194	0x3d88a8cb	0.0667282
195	0xbd9f0e07	-0.077663474
196	0xbc9e2386	-0.019304048
197	0x3dd09edb	0.10186549
198	0x3dc1cf7e	0.09463404
199	0xbe3dafea	-0.18524137
200	0x3d6719fe	0.056421272
201	0xbd6a8145	-0.057252187
202	0xbd893a37	-0.06700557
203	0xbcdbfba1	-0.026853384
204	0x3d471cbe	0.048611395
205	0xbe28dbc6	-0.16490087
206	0x3d1a3993	0.037652563
207	0xbcfdd6f0	-0.03098628
208	0xbcd8069d	-0.026370341
209	0x3e422c92	0.18962315
210	0xbe50c365	-0.20387037
211	0xbd868cdb	-0.06569835
212	0xbcd5e849	-0.026111739
213	0xbe20bfee	-0.15698215
214	0xbd7eac15	-0.06217583
215	0xbca57d74	-0.020201422
216	0xbc9ce86f	-0.019153802
217	0x3c03d7ef	0.008047088
218	0xbc858e5b	-0.016303232
219	0xbd9c6f27	-0.07638388
220	0xbe01a4ce	-0.12660524
221	0x3cdc7f9b	0.026916316
222	0xbc5fd18f	-0.0136608025
223	0x3d9e62dc	0.077337
224	0xbe7e0471	-0.24806382
225	0x3e261113	0.16217451
226	0x3e60753d	0.21919723
227	0xbd2ce2e4	-0.042208567
228	0xbd82dd3a	-0.06389852
229	0xbd89a4f1	-0.06720913
230	0xbd82a139	-0.06378407
231	0xbcd5241f	-0.0260182
232	0xbbaea0f2	-0.005329245
233	0xbe2574c1	-0.1615782
234	0xbe0275c9	-0.12740244
235	0x3dbf378f	0.09336769
236	0xbdbfca33	-0.09364738
237	0x3d079533	0.03310127
238	0xbd19268b	-0.037390273
239	0xbcfd8ccc	-0.030950926
240	0xbdb62394	-0.08893505
241	0x3daca073	0.08429041
242	0x3c214484	0.009842996
243	0x3e2a8448	0.16652024
244	0xbe1e5b56	-0.1546453
245	0x3d98c810	0.07460034
246	0x3e0a913d	0.13531967
247	0x3be6c301	0.0070422892
248	0xbd488b56	-0.048961006
249	0x3d9aa971	0.0755185
250	0x3dfbc31d	0.12293074
251	0xbc9be804	-0.019031532
252	0xbdba17ad	-0.09086547
253	0xbd2b2c99	-0.04179058
254	0xbab976c9	-0.0014149781
255	0xbcf21276	-0.029549818

blinear1.bias_rho f4 [512]
0	0xc0dbfde9	-6.874745
1	0xc0e21a0e	-7.0656805
2	0xc0e1fe3b	-7.062284
3	0xc0e7cffd	-7.244139
4	0xc0e29873	-7.0811095
5	0xc0e192e4	-7.049181
6	0xc0dd44c3	-6.914644
7	0xc0d9e76f	-6.809501
8	0xc0df93cb	-6.986791
9	0xc0de8a1c	-6.954359
10	0xc0da8672	-6.828912
11	0xc0dba298	-6.863598
12	0xc0dd9971	-6.9249806
13	0xc0e18dcc	-7.048559
14	0xc0dc7f83	-6.8905654
15	0xc0e1845b	-7.0474067
16	0xc0dbb946	-6.8663664
17	0xc0e00c9c	-7.001539
18	0xc0db419d	-6.8517594
19	0xc0e4e4d4	-7.152933
20	0xc0d979b4	-6.7961063
21	0xc0e14316	-7.039439
22	0xc0e3db8f	-7.1205516
23	0xc0df8ca6	-6.985919
24	0xc0e57ec9	-7.1717267
25	0xc0df3edb	-6.976423
26	0xc0df750f	-6.9830394
27	0xc0e2aa1c	-7.0832653
28	0xc0e1738c	-7.045355
29	0xc0e453c4	-7.1352253
30	0xc0dfa919	-6.989392
31	0xc0e2d2ce	-7.088233
32	0xc0e10e44	-7.0329914
33	0xc0e5cbba	-7.181119
34	0xc0df048b	-6.9693046
35	0xc0e115d6	-7.0339155
36	0xc0e0f6f1	-7.030144
37	0xc0e21aa1	-7.0657506
38	0xc0e1dde4	-7.0583363
39	0xc0dff13c	-6.9981976
40	0xc0ddbe6a	-6.929494
41	0xc0e1398e	-7.0382757
42	0xc0dff9a5	-6.999224
43	0xc0dc563c	-6.8855267
44	0xc0de9953	-6.9562163
45	0xc0e1ebe3	-7.060045
46	0xc0e3b587	-7.115909
47	0xc0dd3db4	-6.913782
48	0xc0e39a6c	-7.1126003
49	0xc0dcf511	-6.9049153
50	0xc0ddfa19	-6.9367795
51	0xc0df134e	-6.9711065
52	0xc0e344e8	-7.1021614
53	0xc0df15a5	-6.971392
54	0xc0dee41e	-6.9653463
55	0xc0ddde3b	-6.9333777
56	0xc0e0d8c3	-7.02646
57	0xc0dfed52	-6.99772
58	0xc0dbc06b	-6.8672385
59	0xc0e316d6	-7.0965376
60	0xc0df9cdf	-6.9878993
61	0xc0de2158	-6.9415703
62	0xc0e04e76	-7.0095778
63	0xc0dbf3a4	-6.8734913
64	0xc0de94f6	-6.9556837
65	0xc0dffd2a	-6.999654
66	0xc0dfc471	-6.9927297
67	0xc0e134f5	-7.0377145
68	0xc0e06f58	-7.013592
69	0xc0dbe8f2	-6.8721857
70	0xc0e495b1	-7.143273
71	0xc0db9482	-6.8618784
72	0xc0e32ee8	-7.099476
73	0xc0e0f653	-7.030069
74	0xc0e184ed	-7.0474763
75	0xc0e74eaf	-7.228355
76	0xc0de133f	-6.9398494
77	0xc0dc5119	-6.8848996
78	0xc0e242fc	-7.070677
79	0xc0dc5031	-6.884789
80	0xc0dabbbd	-6.8354173
81	0xc0df3d2e	-6.976218
82	0xc0e33444	-7.10013
83	0xc0de10b4	-6.939539
84	0xc0dbd02b	-6.869161
85	0xc0dcc1ca	-6.898656
86	0xc0e2092c	-7.0636196
87	0xc0e23683	-7.0691543
88	0xc0d6e4ac	-6.715414
89	0xc0e13f8f	-7.0390086
90	0xc0d9838f	-6.7973094
91	0xc0dd1b49	-6.9095807
92	0xc0e0fcde	-7.0308676
93	0xc0dc9f3d	-6.8944383
94	0xc0e6848d	-7.2036805
95	0xc0e0f6af	-7.0301127
96	0xc0e04433	-7.008325
97	0xc0e1c4b2	-7.0552607
98	0xc0e23ce5	-7.0699334
99	0xc0e1773b	-7.0458045
100	0xc0dba83b	-6.864286
101	0xc0e375ff	-7.108154
102	0xc0e05623	-7.0105147
103	0xc0e12b4d	-7.0365357
104	0xc0e169fd	-7.044188
105	0xc0dd4819	-6.915051
106	0xc0dec1a1	-6.9611363
107	0xc0dd7122	-6.92006
108	0xc0e1f4db	-7.0611396
109	0xc0e14c19	-7.0405393
110	0xc0e3fd74	-7.124689
111	0xc0dbf530	-6.87368
112	0xc0e6365e	-7.1941366
113	0xc0e182d3	-7.0472198
114	0xc0e26ccb	-7.0757804
115	0xc0e11be0	-7.0346527
116	0xc0e24e76	-7.0720778
117	0xc0de7d18	-6.95277
118	0xc0deaf1f	-6.958877
119	0xc0e0827a	-7.0159273
120	0xc0df21d4	-6.9728794
121	0xc0df5c86	-6.9800444
122	0xc0dde2e2	-6.9339457
123	0xc0e1a052	-7.0508204
124	0xc0dea54c	-6.957678
125	0xc0e1a10c	-7.050909
126	0xc0e30cd8	-7.095318
127	0xc0ddf372	-6.9359674
128	0xc0e085d9	-7.016339
129	0xc0dc66d4	-6.8875523
130	0xc0df2674	-6.973444
131	0xc0dff369	-6.998463
132	0xc0e0ed54	-7.0289707
133	0xc0dc43e1	-6.883286
134	0xc0e2a4ae	-7.0826025
135	0xc0e09a3c	-7.0188274
136	0xc0ddd40f	-6.932136
137	0xc0e2309f	-7.068435
138	0xc0de7625	-6.951922
139	0xc0df2fdf	-6.9745936
140	0xc0dbaafe	-6.864623
141	0xc0de5726	-6.948138
142	0xc0e22bc1	-7.067841
143	0xc0e0fc71	-7.0308156
144	0xc0da0668	-6.813282
145	0xc0e24507	-7.070926
146	0xc0e033f5	-7.0063424
147	0xc0e66f77	-7.2011065
148	0xc0e22ad6	-7.067729
149	0xc0dda59d	-6.9264665
150	0xc0e1a231	-7.0510488
151	0xc0dc703c	-6.8887005
152	0xc0e0717f	-7.0138545
153	0xc0de60ce	-6.949317
154	0xc0e2b5bf	-7.084686
155	0xc0db9015	-6.861338
156	0xc0e6fe75	-7.2185616
157	0xc0e0b113	-7.0216155
158	0xc0e071d7	-7.0138965
159	0xc0dd5db5	-6.917689
160	0xc0e1c5f7	-7.0554156
161	0xc0e17b5f	-7.04631
162	0xc0dba7a7	-6.8642154
163	0xc0e4da08	-7.151615
164	0xc0dff28d	-6.9983582
165	0xc0e0ee90	-7.0291214
166	0xc0d785e8	-6.735096
167	0xc0e0589e	-7.0108175
168	0xc0dfc92e	-6.993308
169	0xc0de39ea	-6.9445696
170	0xc0e55efd	-7.1678452
171	0xc0df754d	-6.983069
172	0xc0e0d3a6	-7.025836
173	0xc0deb0ce	-6.9590826
174	0xc0de87ad	-6.954062
175	0xc0de38b0	-6.94442
176	0xc0deebf2	-6.966302
177	0xc0e1a6c8	-7.051609
178	0xc0e3d21f	-7.1193995
179	0xc0e3a2a8	-7.1136055
180	0xc0e0d6ce	-7.0262213
181	0xc0e1cfeb	-7.0566306
182	0xc0dcd3cf	-6.9008555
183	0xc0e03c05	-7.0073266
184	0xc0e0ca20	-7.0246735
185	0xc0e1345a	-7.0376406
186	0xc0e2af78	-7.0839195
187	0xc0e7942c	-7.2368374
188	0xc0e1d0a8	-7.0567207
189	0xc0dee22e	-6.96511
190	0xc0db8bf5	-6.8608346
191	0xc0e1f449	-7.06107
192	0xc0e6e648	-7.2156105
193	0xc0e1e65b	-7.0593696
194	0xc0dca641	-6.8952947
195	0xc0dff380	-6.998474
196	0xc0dfb886	-6.991275
197	0xc0dd23cc	-6.9106197
198	0xc0dd49fe	-6.9152822
199	0xc0e252d1	-7.0726094
200	0xc0e1c0e7	-7.0547976
201	0xc0de0f13	-6.93934
202	0xc0dfe15c	-6.9962597
203	0xc0de4b08	-6.946659
204	0xc0df37c4	-6.9755573
205	0xc0e0b42d	-7.021994
206	0xc0dd9092	-6.9238977
207	0xc0e038e5	-7.006945
208	0xc0e342a2	-7.101884
209	0xc0e14031	-7.039086
210	0xc0db2109	-6.8477826
211	0xc0e089b4	-7.0168095
212	0xc0df8a9c	-6.98567
213	0xc0df006a	-6.9688005
214	0xc0d82af1	-6.755242
215	0xc0daf50e	-6.842414
216	0xc0e2058b	-7.0631766
217	0xc0e24d27	-7.071918
218	0xc0dff41a	-6.9985476
219	0xc0e0bf36	-7.023341
220	0xc0de97ca	-6.956029
221	0xc0e2215b	-7.0665717
222	0xc0e765aa	-7.23116
223	0xc0e3478c	-7.1024837
224	0xc0dd442a	-6.914571
225	0xc0e1d1a9	-7.0568433
226	0xc0e39480	-7.1118774
227	0xc0dfda24	-6.9953785
228	0xc0e03e70	-7.007622
229	0xc0e20119	-7.062634
230	0xc0ddeef3	-6.9354186
231	0xc0db758e	-6.8581
232	0xc0e0b836	-7.0224867
233	0xc0dbae8e	-6.865058
234	0xc0dca2ba	-6.894864
235	0xc0dc6b05	-6.888064
236	0xc0e45c5e	-7.1362753
237	0xc0e0114e	-7.0021124
238	0xc0e6cb63	-7.2123275
239	0xc0e08a80	-7.0169067
240	0xc0e790aa	-7.236409
241	0xc0e20afa	-7.06384
242	0xc0e06e45	-7.0134606
243	0xc0dc1be7	-6.878406
244	0xc0e22463	-7.0669417
245	0xc0dc462a	-6.883565
246	0xc0e008a7	-7.001056
247	0xc0dd31fe	-6.9123526
248	0xc0e1010a	-7.031377
249	0xc0e19c51	-7.0503316
250	0xc0e12a0c	-7.0363827
251	0xc0e43325	-7.131243
252	0xc0deaa26	-6.95827
253	0xc0df570a	-6.979375
254	0xc0e1df53	-7.0585113
255	0xc0e2a64e	-7.082801

blinear1.weight_sampler.mu f4 [512, 13]
0	0x3e08df71	0.13366486
1	0xbb1e30fd	-0.0024138086
2	0xbe017eba	-0.12645999
3	0x3db6d490	0.08927262
4	0x3e4a4e21	0.19756366
5	0x3d6baba5	0.05753674
6	0xbc3fb4a4	-0.011700783
7	0xbcfe0654	-0.031008877
8	0x3d12a584	0.03580238
9	0x3ddf9796	0.109175846
10	0xbd9992b1	-0.07498682
11	0xbdc1e5c1	-0.0946765
12	0x3d275108	0.04084876
13	0x3d8bff70	0.0683583
14	0x3d6d3ecf	0.057921227
15	0xbe5a3d1b	-0.21312372
16	0x3dbe5f47	0.092955165
17	0xbdfdff04	-0.12402156
18	0xbe28a10e	-0.16467687
19	0x3c3b1320	0.011418134
20	0x3d27a07e	0.04092454
21	0x3c6bf1a7	0.014400876
22	0xbdace055	-0.084412254
23	0xbe309db9	-0.17247666
24	0x3d830c07	0.063987784
25	0x3dbdb916	0.09263818
26	0x3b41dc2b	0.0029580693
27	0xbca3f9d0	-0.02001658
28	0x3d023d46	0.031796716
29	0xbbba336c	-0.0056823995
30	0xbe2a186f	-0.16610883
31	0xbcd9477a	-0.02652334
32	0xbe394080	-0.18091011
33	0xbd8f06bb	-0.069837056
34	0x3dc4aa13	0.096027516
35	0x3d4dc334	0.05023499
36	0xbd9ee9d3	-0.07759442
37	0xbe0f457f	-0.13991354
38	0x3e5304a9	0.20607246
39	0xbbe2c61d	-0.0069205896
40	0x3d3104a1	0.043217305
41	0xbb2fb1d7	-0.0026808882
42	0x3e07ae64	0.13250118
43	0xbcce26c0	-0.025164962
44	0xbdc35d11	-0.095392354
45	0x3d89af45	0.06722883
46	0xbde76417	-0.112983875
47	0xbd9abb53	-0.075552605
48	0xbd100178	-0.03515765
49	0xbd4a5632	-0.04939861
50	0xbd0f7b95	-0.035029966
51	0x3e180bf1	0.14848305
52	0xbdd54b54	-0.10414758
53	0x3c6630a4	0.014049683
54	0x3e432118	0.19055593
55	0x3a77ebd2	0.0009457442
56	0x3d1f92ad	0.03895824
57	0xbc9275f5	-0.017878512
58	0xbcc0faec	-0.023557149
59	0xbdf6d1d3	-0.120517395
60	0x3d4f9ca1	0.050686482
61	0xbd39c4ec	-0.045353815
62	0xbd7a7b38	-0.061152667
63	0xbe25ba0c	-0.16184253
64	0x3d04b505	0.032399196
65	0x3db1a71f	0.08674454
66	0x3d2a95a3	0.04164661
67	0x3e0f07c8	0.13967812
68	0x3d97186b	0.07377704
69	0x3d374f9e	0.044753663
70	0xbc15f473	-0.0091525195
71	0x3e05dbc8	0.13072121
72	0x3d24ebf5	0.04026409
73	0x3d613563	0.054982554
74	0xbd724f39	-0.059157584
75	0x3b2f4de8	0.0026749317
76	0xbdaa2413	-0.08307662
77	0xbd2a8e6a	-0.041639723
78	0xbdc08609	-0.09400565
79	0x3dda5eb4	0.106625944
80	0xbe2aff90	-0.16699052
81	0x3da5d0ae	0.08096443
82	0xbc315bca	-0.010825107
83	0x3dd95a4f	0.10612928
84	0xbd8d7d37	-0.069086485
85	0x3c0d41ea	0.008621672
86	0x3d0a87fd	0.033821095
87	0x3dda0963	0.106463216
88	0x3b68188b	0.003541502
89	0x3d7bf043	0.06150843
90	0x3e04231f	0.12904023
91	0xbd9116c8	-0.07084423
92	0xbd45f40a	-0.048328437
93	0x3d24e66f	0.04025882
94	0x3d966eba	0.07345338
95	0x3d555180	0.052079678
96	0xbc24321d	-0.010021714
97	0x3dc69a96	0.09697454
98	0xbc913793	-0.017726695
99	0x3cd96240	0.026536107
100	0xbd1e850d	-0.038701106
101	0x3d67cbfb	0.056591015
102	0xbd770223	-0.060304772
103	0x3cf70308	0.030152813
104	0xbc5b10f1	-0.013370738
105	0x3dcfaf8e	0.10140906
106	0xbd1cca91	-0.03827912
107	0xbd183220	-0.037157178
108	0x3d95329f	0.07285046
109	0x3df0db7b	0.117606126
110	0x3d122633	0.03568096
111	0xbd0489f7	-0.032358136
112	0x3dcae02d	0.099060394
113	0xbd47985e	-0.048729293
114	0x3e5a75db	0.21334021
115	0x3e0e9dae	0.13927338
116	0x3e02ead0	0.12784886
117	0x3d412619	0.047155473
118	0xbd9ff981	-0.07811261
119	0xbc8a7fce	-0.016906645
120	0xbdf349f0	-0.11879337
121	0xbd6a02fd	-0.057131756
122	0x3e0812e1	0.13288452
123	0xbe152c90	-0.1456778
124	0x3d8228c8	0.06355435
125	0x3e3f9594	0.18709403
126	0xbd666440	-0.05624795
127	0xbe0916a9	-0.1338755
128	0x3e0c9b28	0.13731062
129	0xbde489eb	-0.11159118
130	0xbbc3be60	-0.005973622
131	0xbd64fa78	-0.055902928
132	0x3daada94	0.08342472
133	0x3e037ddb	0.12840979
134	0xbde18e39	-0.11013455
135	0xbd0f8478	-0.03503844
136	0xbdd4d82b	-0.10392793
137	0xbd9ff7dc	-0.07810947
138	0x3c90357f	0.017603634
139	0xbdd91524	-0.105997354
140	0x3da8618b	0.0822173
141	0x3c81dbe7	0.015851928
142	0xbdb185b2	-0.086680785
143	0xbd40b27c	-0.047045216
144	0x3cb8b6ba	0.022548068
145	0x3d06d30a	0.032916106
146	0xbdc562a1	-0.096379526
147	0x3d80a7ba	0.06281991
148	0xbd8b7018	-0.068084896
149	0x3deba53c	0.11506125
150	0x3e477cf0	0.19481254
151	0x3d0ef51c	0.034901723
152	0x3e8d8862	0.27643114
153	0x3d22289b	0.039589506
154	0xbd551271	-0.05201954
155	0xbd819676	-0.06327526
156	0x3c262d6b	0.010142664
157	0x3e3a2111	0.18176676
158	0x3d3169f1	0.043313924
159	0x3cd8011f	0.026367722
160	0x3da6280b	0.08113106
161	0x3e373619	0.1789173
162	0x3dfdcde9	0.1239279
163	0x3c25f9a7	0.010130323
164	0xbd43f907	-0.047844913
165	0xbe34c5cc	-0.17653579
166	0xbd1ee958	-0.038796753
167	0xbc078154	-0.00827058
168	0xbce0e86a	-0.027454574
169	0xbd571cd0	-0.052517712
170	0xbe113f44	-0.1418429
171	0x3d74c05d	0.059753764
172	0xbbf42c1f	-0.0074515487
173	0xbd4c7f30	-0.049925983
174	0x3dd87be9	0.10570509
175	0x3d38b9ac	0.045098945
176	0xbd975b33	-0.07390442
177	0xbd082f06	-0.03324797
178	0xbdb861c1	-0.0900302
179	0xbcf48303	-0.029847628
180	0x3c8ab75a	0.016933132
181	0xbd8f5756	-0.0699908
182	0xbe4696dd	-0.19393487
183	0xbe0eead3	-0.13956766
184	0x3d74497a	0.059640385
185	0xbbbecec9	-0.0058229906
186	0xbe1a2ea2	-0.15056852
187	0x3d9e8110	0.077394605
188	0x3e2aac59	0.16667308
189	0x3db1d93f	0.086840145
190	0x3e0f6494	0.14003211
191	0x3d6fe4c7	0.05856779
192	0x3c104875	0.008806338
193	0xbe218fe2	-0.15777543
194	0xbe23c362	-0.15992501
195	0x3ddfee51	0.10934127
196	0x3e21722f	0.15766214
197	0x3d9f9a6d	0.07793126
198	0x3db5ae26	0.08871107
199	0xbcf232f4	-0.029565312
200	0xbc5fbcf2	-0.013655888
201	0xbe530f4f	-0.20611309
202	0x3deb769a	0.11497231
203	0xbd1b3f50	-0.037902176
204	0x3d8ed426	0.06974058
205	0xbddaf748	-0.106916964
206	0xbbe9fca2	-0.007140712
207	0xbdd5af70	-0.10433853
208	0x3cce81d4	0.025208391
209	0x3d3e9b86	0.046535037
210	0xbe32ec5f	-0.17472981
211	0xbdf2057a	-0.11817451
212	0xbd82f561	-0.063944586
213	0x3d902c58	0.07039708
214	0xbdd1bfc7	-0.10241657
215	0xbdba92f1	-0.09110058
216	0xbde3e17c	-0.11126992
217	0xbcb6c6a0	-0.022311509
218	0xbe06cb8b	-0.13163583
219	0xbc731478	-0.014836423
220	0xbd20792a	-0.03917805
221	0x3e01cd17	0.12675892
222	0x3ca5ac37	0.02022372
223	0x3dff4b0a	0.124654844
224	0xbc668ece	-0.014072133
225	0xbc0e5fc3	-0.008689824
226	0x3dc1039b	0.09424516
227	0x3d3e9581	0.046529297
228	0xbdb18b4f	-0.08669149
229	0x3b01d7ee	0.0019812542
230	0x3e20bcaf	0.15696977
231	0x3e7ca7c6	0.24673375
232	0xbd13a579	-0.03604648
233	0xbdec0e20	-0.11526132
234	0xbdba5148	-0.090975344
235	0x3dc5698b	0.09639271
236	0x3c0cb390	0.008587733
237	0x3dacbe30	0.08434713
238	0xbd794da7	-0.06086507
239	0xbda9872c	-0.08277735
240	0xbc91a39b	-0.017778208
241	0x3dec194c	0.115282625
242	0x3d477f84	0.048705593
243	0x3dc91f12	0.09820379
244	0x3c36f2f6	0.011166325
245	0xbd422424	-0.047397748
246	0x3dd0baa0	0.10191846
247	0xbe0fc2ee	-0.14039204
248	0xbe0c2ea8	-0.13689673
249	0x3df7c0ea	0.12097342
250	0xbccdd143	-0.025124198
251	0x3e57efcd	0.2108757
252	0xbe120aaf	-0.14261888
253	0xbc3700bf	-0.0111696115
254	0xbd8d61b8	-0.06903404
255	0xbde7b6ae	-0.1131414

blinear1.weight_sampler.rho f4 [512, 13]
0	0xc0e1d88e	-7.057685
1	0xc0e631b3	-7.193567
2	0xc0e27a37	-7.077419
3	0xc0e0127a	-7.0022554
4	0xc0de67f9	-6.950192
5	0xc0ddb191	-6.9279256
6	0xc0dfe16f	-6.9962687
7	0xc0de3202	-6.9436045
8	0xc0defe73	-6.9685607
9	0xc0def36e	-6.9672155
10	0xc0e1053d	-7.0318894
11	0xc0e7ba50	-7.241493
12	0xc0e0ff82	-7.03119
13	0xc0e66207	-7.199466
14	0xc0e05625	-7.0105157
15	0xc0e2d90c	-7.088995
16	0xc0e0faf9	-7.0306363
17	0xc0e045d0	-7.008522
18	0xc0df5c17	-6.9799914
19	0xc0de3a93	-6.94465
20	0xc0de3801	-6.9443364
21	0xc0e207c8	-7.06345
22	0xc0defd0d	-6.96839
23	0xc0e226b4	-7.0672245
24	0xc0e0aa24	-7.020769
25	0xc0d8ea20	-6.7785797
26	0xc0dd17bf	-6.9091487
27	0xc0e2d376	-7.088313
28	0xc0dd72be	-6.9202566
29	0xc0e449cb	-7.134008
30	0xc0dc637b	-6.8871436
31	0xc0e18296	-7.0471907
32	0xc0df5df5	-6.9802194
33	0xc0dddd62	-6.9332743
34	0xc0dc5b00	-6.8861084
35	0xc0e2dbba	-7.089322
36	0xc0e23f1b	-7.0702033
37	0xc0e32a69	-7.098927
38	0xc0e14b38	-7.040432
39	0xc0df6de7	-6.982166
40	0xc0d9561e	-6.7917624
41	0xc0dbe49c	-6.8716564
42	0xc0e46885	-7.1377587
43	0xc0e12611	-7.035897
44	0xc0e03f09	-7.0076947
45	0xc0e16e96	-7.0447493
46	0xc0dc4a42	-6.8840647
47	0xc0e4747b	-7.139219
48	0xc0e7ee20	-7.247818
49	0xc0e34249	-7.1018414
50	0xc0e44604	-7.133547
51	0xc0e0cc9e	-7.0249777
52	0xc0de8516	-6.953746
53	0xc0e059b2	-7.010949
54	0xc0e48ed3	-7.1424346
55	0xc0e4ba34	-7.14773
56	0xc0e2dd59	-7.08952
57	0xc0dad32f	-6.8382792
58	0xc0df1c6a	-6.9722185
59	0xc0e2e68b	-7.0906425
60	0xc0e107b2	-7.0321894
61	0xc0dc132b	-6.87734
62	0xc0de4f3f	-6.9471736
63	0xc0e288fd	-7.079222
64	0xc0dd4acd	-6.915381
65	0xc0e255af	-7.0729594
66	0xc0dc3f8a	-6.882756
67	0xc0e33dde	-7.101302
68	0xc0e2b933	-7.0851073
69	0xc0deda40	-6.964142
70	0xc0e0073d	-7.0008836
71	0xc0db43d7	-6.852031
72	0xc0dab65f	-6.834762
73	0xc0de2c7c	-6.94293
74	0xc0e3888c	-7.1104183
75	0xc0dc3f45	-6.8827233
76	0xc0dfa150	-6.9884415
77	0xc0e52dc1	-7.161835
78	0xc0dd8532	-6.922509
79	0xc0e369bf	-7.1066585
80	0xc0e2cef9	-7.087765
81	0xc0dafc97	-6.8433337
82	0xc0e26fc8	-7.076145
83	0xc0dcff68	-6.9061775
84	0xc0e0d6d7	-7.0262256
85	0xc0dc1f30	-6.878807
86	0xc0de6bbe	-6.950652
87	0xc0dd8ee2	-6.9236917
88	0xc0dc71d8	-6.888897
89	0xc0e00569	-7.0006604
90	0xc0d613da	-6.6899233
91	0xc0e029ec	-7.0051174
92	0xc0e2a7d7	-7.0829883
93	0xc0e3d83a	-7.120145
94	0xc0e3ac04	-7.114748
95	0xc0e36bf4	-7.106928
96	0xc0e27cc1	-7.0777287
97	0xc0e1d681	-7.0574346
98	0xc0dbe3cb	-6.8715568
99	0xc0d96816	-6.793956
100	0xc0de4c95	-6.9468484
101	0xc0e76e83	-7.23224
102	0xc0dcbf1b	-6.8983283
103	0xc0e4b667	-7.147266
104	0xc0e2ec91	-7.0913777
105	0xc0e0082c	-7.0009975
106	0xc0e10292	-7.0315638
107	0xc0e001d5	-7.0002236
108	0xc0def37b	-6.9672217
109	0xc0dd39b2	-6.913293
110	0xc0dfc52c	-6.992819
111	0xc0dd59b0	-6.917198
112	0xc0e2a84f	-7.0830455
113	0xc0e02799	-7.0048337
114	0xc0e18773	-7.0477843
115	0xc0e3cc31	-7.1186757
116	0xc0db4220	-6.851822
117	0xc0e24786	-7.071231
118	0xc0e04eb7	-7.0096087
119	0xc0df45a1	-6.9772496
120	0xc0df1a92	-6.9719934
121	0xc0e46668	-7.137501
122	0xc0dc9641	-6.8933415
123	0xc0e2d21d	-7.0881486
124	0xc0e23202	-7.0686045
125	0xc0de6d05	-6.950808
126	0xc0e0fa2a	-7.0305376
127	0xc0da35ac	-6.8190517
128	0xc0dc2a2d	-6.8801484
129	0xc0e01f01	-7.0037847
130	0xc0dc412b	-6.882955
131	0xc0dedc81	-6.964417
132	0xc0e44163	-7.132982
133	0xc0e598be	-7.1748953
134	0xc0e06ef0	-7.013542
135	0xc0e49d77	-7.144222
136	0xc0e09849	-7.0185895
137	0xc0dc9eff	-6.8944087
138	0xc0dc3aea	-6.8821917
139	0xc0dd1071	-6.908257
140	0xc0ddf91a	-6.936658
141	0xc0db6279	-6.8557706
142	0xc0dd122f	-6.9084697
143	0xc0df5fb6	-6.9804335
144	0xc0dd3201	-6.912354
145	0xc0e17d92	-7.0465784
146	0xc0e31069	-7.095753
147	0xc0e0103b	-7.0019813
148	0xc0e434b1	-7.131432
149	0xc0daf393	-6.842233
150	0xc0dda137	-6.9259295
151	0xc0e184f7	-7.047481
152	0xc0dfc3ca	-6.99265
153	0xc0e4b4ed	-7.1470857
154	0xc0df83c7	-6.984836
155	0xc0e36915	-7.1065774
156	0xc0dbf2eb	-6.873403
157	0xc0dd7629	-6.920674
158	0xc0e13cc5	-7.038668
159	0xc0e25c66	-7.073779
160	0xc0dab7c1	-6.834931
161	0xc0de21a7	-6.941608
162	0xc0e11843	-7.0342116
163	0xc0dc79cc	-6.889868
164	0xc0dd62e6	-6.9183226
165	0xc0dd154a	-6.908849
166	0xc0e3b75a	-7.116132
167	0xc0dfa9c0	-6.9894714
168	0xc0e2bd53	-7.085611
169	0xc0de7ea2	-6.952958
170	0xc0e61a5c	-7.1907177
171	0xc0ddc0e4	-6.929796
172	0xc0dde760	-6.934494
173	0xc0e44826	-7.133807
174	0xc0d8eecf	-6.7791514
175	0xc0dbab6b	-6.864675
176	0xc0e15f1b	-7.0428596
177	0xc0e56d42	-7.169587
178	0xc0e1d7ad	-7.0575776
179	0xc0e28484	-7.078676
180	0xc0dee067	-6.964893
181	0xc0e0a4f7	-7.0201373
182	0xc0e0b9c6	-7.0226774
183	0xc0e16199	-7.043164
184	0xc0e0eea5	-7.0291314
185	0xc0de443d	-6.94583
186	0xc0df5168	-6.9786873
187	0xc0e09efa	-7.0194063
188	0xc0d90ca9	-6.7827954
189	0xc0de8977	-6.9542804
190	0xc0de6ea5	-6.9510064
191	0xc0deacd9	-6.9585996
192	0xc0dcb729	-6.8973584
193	0xc0e0d8d7	-7.0264697
194	0xc0e0ac4c	-7.0210323
195	0xc0dfa2c5	-6.9886193
196	0xc0df448d	-6.977118
197	0xc0e13709	-7.037968
198	0xc0dfda1a	-6.9953737
199	0xc0e14d94	-7.04072
200	0xc0e1e72d	-7.0594697
201	0xc0dfc999	-6.993359
202	0xc0dc02f9	-6.875363
203	0xc0e4159f	-7.1276393
204	0xc0e11dc1	-7.034882
205	0xc0e168b5	-7.0440316
206	0xc0e1effb	-7.0605445
207	0xc0e0df3b	-7.02725
208	0xc0e1b736	-7.0536146
209	0xc0e4ba25	-7.1477227
210	0xc0ddd5b4	-6.932337
211	0xc0e6f047	-7.2168307
212	0xc0e1c2f3	-7.0550475
213	0xc0e3d07a	-7.119199
214	0xc0dc0847	-6.8760104
215	0xc0e36351	-7.1058736
216	0xc0dde704	-6.93445
217	0xc0e20f3c	-7.0643597
218	0xc0db28c8	-6.848728
219	0xc0ddff0f	-6.937385
220	0xc0e83616	-7.2566023
221	0xc0e07f83	-7.0155654
222	0xc0e1ad59	-7.0524106
223	0xc0e13181	-7.037293
224	0xc0de1a9f	-6.9407496
225	0xc0deb6b7	-6.959804
226	0xc0e16c24	-7.0444508
227	0xc0e16847	-7.043979
228	0xc0e0c70f	-7.024299
229	0xc0e1cf6a	-7.056569
230	0xc0de9707	-6.955936
231	0xc0e2cfbf	-7.0878596
232	0xc0db85af	-6.860069
233	0xc0defe48	-6.96854
234	0xc0e433df	-7.131332
235	0xc0de9f44	-6.9569416
236	0xc0e1672b	-7.0438437
237	0xc0e0fedd	-7.0311112
238	0xc0db636d	-6.855887
239	0xc0e03787	-7.0067782
240	0xc0e067da	-7.012677
241	0xc0e1bfae	-7.0546484
242	0xc0e37f03	-7.1092544
243	0xc0e12f27	-7.037006
244	0xc0e7b6e0	-7.2410736
245	0xc0da29be	-6.8175955
246	0xc0e295ca	-7.080785
247	0xc0db65a4	-6.8561573
248	0xc0dff324	-6.9984303
249	0xc0e5a096	-7.175853
250	0xc0e35c51	-7.105019
251	0xc0e7063b	-7.2195106
252	0xc0dfca88	-6.993473
253	0xc0e2629a	-7.0745363
254	0xc0d9540e	-6.7915106
255	0xc0db1028	-6.845722

blinear1.weight_sampler.eps_w f4 [512, 13]
0	0x3f9c35be	1.2203901
1	0xbf4a8388	-0.7910695
2	0x3ee72ced	0.45151463
3	0x3ffb1db2	1.9618437
4	0xbf5fba15	-0.87393314
5	0x3f741c96	0.9535612
6	0xbeb14775	-0.3462483
7	0xbe8a88b8	-0.27057433
8	0xbe55fc3b	-0.20897
9	0x3d79fe66	0.06103363
10	0x3ef64f0f	0.48107192
11	0x3dd2b2b0	0.10287988
12	0xbf66e5fd	-0.90194684
13	0xbd9c3958	-0.07628125
14	0xbf67d23d	-0.90555173
15	0xbf23d8d0	-0.64002705
16	0x40270fb4	2.6103334
17	0x3f1ebfc8	0.62011385
18	0x3f71e443	0.94488925
19	0x3f855c9a	1.0418885
20	0xbf46ef0a	-0.77708495
21	0x3f8353d9	1.0259963
22	0x3d884496	0.06653707
23	0xbf1ea807	-0.6197514
24	0x3f45c7b2	0.77257836
25	0x3f1462a0	0.5796299
26	0xc024160c	-2.5638456
27	0x3f9e714a	1.2378323
28	0x3dde3988	0.10850817
29	0xbeba5832	-0.36395413
30	0xbf689262	-0.9084836
31	0xbeac1f60	-0.33617687
32	0xbe2a1645	-0.16610058
33	0x3fb80894	1.4377618
34	0x3e7d49eb	0.24735229
35	0x3f9262eb	1.1436437
36	0x3ec9a7e3	0.393859
37	0xbe6a8c1c	-0.2290501
38	0xbfe26c1f	-1.7689246
39	0x3f8389c1	1.0276414
40	0x3eba7310	0.3641591
41	0x3f915fb8	1.1357336
42	0xbd28b217	-0.041185465
43	0xbe899027	-0.26867792
44	0x3fb62b19	1.4231902
45	0x3e6f9191	0.23395373
46	0xbf83e7bc	-1.0305095
47	0xbf26b923	-0.65126246
48	0x3fb1be7a	1.3886254
49	0xbf1d209b	-0.61377877
50	0x3e1b6f5e	0.15179202
51	0xbfd16255	-1.6358134
52	0x3ee5dabe	0.4489345
53	0x3f445abb	0.76700944
54	0xbf725369	-0.94658524
55	0x3e92915c	0.28626525
56	0x3f500589	0.81258446
57	0xbe530c15	-0.20610078
58	0x3ec66ee3	0.38756475
59	0x3f95f5f8	1.1715689
60	0x3fd583e2	1.6680872
61	0xbede2fe3	-0.4339591
62	0x400bd75c	2.1850195
63	0x3fae6f79	1.3627769
64	0xbe5c4c9c	-0.21513599
65	0xbf4c2081	-0.797371
66	0xbd7001d9	-0.058595512
67	0x3f30d35a	0.69072497
68	0xbec8c310	-0.3921132
69	0x3e55fdfe	0.20897672
70	0x3e82553f	0.25455663
71	0x3e9b73c6	0.30361766
72	0xbe803157	-0.25037643
73	0x3f0846d2	0.53233063
74	0x3fb16547	1.3859032
75	0x40111f70	2.2675438
76	0xbfbc977a	-1.4733727
77	0x3ee4ff96	0.44726247
78	0xbf5b3e77	-0.8564219
79	0xbee2dd88	-0.4430964
80	0x3fbea4e9	1.4894077
81	0xbf91f2e1	-1.1402246
82	0x3f43052a	0.76179755
83	0xbfa410e9	-1.281766
84	0xbf0fda00	-0.56192017
85	0xbd2d0cea	-0.042248644
86	0x3f81f943	1.0154194
87	0x3fbce740	1.4758072
88	0x3f2a9338	0.6663089
89	0x3d977ba7	0.07396632
90	0xbe8b7e4c	-0.27244794
91	0xbf69f83c	-0.913944
92	0xbeb92a5c	-0.3616513
93	0x3e38217b	0.17981522
94	0xbfebb4af	-1.8414515
95	0xbeab2b26	-0.33431357
96	0x3eb52f95	0.35387865
97	0x3f0143cf	0.5049409
98	0xbf1b4b07	-0.6066136
99	0xbf96b40f	-1.17737
100	0x3f3db22d	0.741
101	0x3c9a171f	0.018809853
102	0xbc5d6cef	-0.013514741
103	0xbdfa2766	-0.12214546
104	0x3fbc6497	1.4718198
105	0xbeed77c2	-0.4638043
106	0x3ec4d5f3	0.3844448
107	0x3fd331dd	1.6499592
108	0xbe3fda2b	-0.18735568
109	0xbf82a001	-1.0205079
110	0x3edb7c1b	0.42868122
111	0xbff46d17	-1.9095792
112	0x3eb2a7e2	0.3489371
113	0xbe2815ac	-0.16414517
114	0xbfb1cbae	-1.3890283
115	0xbef9cdb8	-0.48789763
116	0x3fe8ef05	1.8197943
117	0x3e38b2cd	0.18036957
118	0xbedabbef	-0.42721507
119	0x3fd17d4c	1.6366363
120	0xbe59f21a	-0.2128376
121	0x3f685d2d	0.90767175
122	0xbf18ba7b	-0.59659547
123	0xbf555ddc	-0.83346343
124	0xbf27e0ad	-0.65577203
125	0x3f7b98f8	0.98280287
126	0x3e518a44	0.204629
127	0xbfbff654	-1.4997048
128	0xbf93d8a4	-1.1550488
129	0xbf9b4a32	-1.2132018
130	0x3f1138da	0.56727374
131	0x3d14638d	0.03622775
132	0x3fa3b33e	1.2789075
133	0x3f59f788	0.8514333
134	0xbf0e04ba	-0.5547596
135	0xbf96b26f	-1.1773204
136	0x3f060b18	0.5236068
137	0x3ef7df5b	0.48412594
138	0xc00e37fe	-2.2221675
139	0xbee2a1be	-0.44264024
140	0x3f7c2cfe	0.9850615
141	0xbe14d32f	-0.14533685
142	0x3fa2d434	1.2721009
143	0x3f95ec67	1.1712769
144	0x3f60740f	0.8767709
145	0x3daa119f	0.08304142
146	0xbff6d12e	-1.9282587
147	0x3fe4dde8	1.788022
148	0xbfddffc2	-1.7343676
149	0xbf80b700	-1.0055847
150	0x3e6f6dfa	0.23381796
151	0xc0312dd6	-2.7684226
152	0x3ef0a063	0.46997365
153	0xbf4c6691	-0.79844004
154	0x3e2dde36	0.16979298
155	0x3f77ee71	0.9684821
156	0x3cadfb9a	0.021238137
157	0xbf8acadf	-1.0843161
158	0xbfcd16f1	-1.6022626
159	0xbfc1943e	-1.5123365
160	0xbf44cd1b	-0.76875466
161	0x3db83c23	0.08995845
162	0x3fd71f40	1.6806412
163	0xbeed7d3b	-0.46384606
164	0x3eb3322f	0.34999225
165	0x3f4c1cc5	0.797314
166	0xbf15fcba	-0.58588755
167	0xbfdc0e6b	-1.71919
168	0xbf42834a	-0.7598158
169	0x3fcc23eb	1.5948461
170	0xbf66a1d4	-0.9009068
171	0xc00e1634	-2.2201052
172	0x3f28a4ef	0.6587667
173	0x3f042d35	0.5163148
174	0xbf99bee0	-1.2011375
175	0x3eae07b1	0.33990243
176	0xbcd91624	-0.026499815
177	0x3d2ef195	0.04271086
178	0x4020e1ba	2.5137773
179	0xbf371a18	-0.7152419
180	0xbda35317	-0.079748325
181	0xbeaa7003	-0.33288583
182	0x3fdf1ece	1.7431276
183	0x3e89665a	0.268359
184	0x3f8a522f	1.080633
185	0xbee5dded	-0.44895878
186	0xbfaf0627	-1.3673753
187	0x3d4268e0	0.047463298
188	0x3f3a7532	0.72835076
189	0x3f587438	0.84552336
190	0x3fdf4e88	1.7445841
191	0xbf2f7baa	-0.6854807
192	0xbf3b0b30	-0.73063946
193	0xbfa32bbb	-1.274772
194	0xbe0f3505	-0.13985069
195	0xbfcdcfda	-1.6079056
196	0xbe31a8ff	-0.17349623
197	0x3e58abc2	0.2115927
198	0xbd87e8d3	-0.066362046
199	0xbff82d74	-1.9388871
200	0x3d86aa1b	0.06575414
201	0x3e918d1d	0.28427973
202	0xbdc35cc7	-0.0953918
203	0xbe87a48a	-0.2649272
204	0xbfafac33	-1.3724426
205	0x3bd52aea	0.00650536
206	0xbf830aad	-1.0237633
207	0xbec75b75	-0.38936964
208	0xbe85493b	-0.26032433
209	0x3fa3c06f	1.2793101
210	0x3ec31434	0.3810135
211	0x3f95d749	1.1706325
212	0xbf05841a	-0.52154696
213	0xbe1a1cb4	-0.15050012
214	0xbfd19adf	-1.6375388
215	0x3faae7b9	1.3351966
216	0xbed0defc	-0.40795124
217	0x3d8fbf4e	0.0701891
218	0xbe30e0e0	-0.17273283
219	0x3f13e8c1	0.5777703
220	0xbfb293e1	-1.3951379
221	0x3f4a555c	0.790365
222	0xbf5aee12	-0.85519516
223	0xbe6844c5	-0.22682483
224	0xbfa1fc3c	-1.2655101
225	0xc009ab63	-2.1510856
226	0x3f8c0f4b	1.0942167
227	0xbeb60867	-0.35553285
228	0x3fbe3a84	1.4861608
229	0x3d2f5fa0	0.042815804
230	0xbe80dac7	-0.25166914
231	0x3eca3b04	0.3949815
232	0xbe3fb9fe	-0.18723294
233	0x3e7407f1	0.23831154
234	0x3ea97821	0.33099464
235	0xbcdba828	-0.026813582
236	0x3f92834b	1.1446317
237	0xbe1f3dad	-0.15550871
238	0x3f553f1d	0.8329943
239	0xbe336d21	-0.17522098
240	0x3ec1281e	0.3772592
241	0xbe994eba	-0.29942876
242	0xbf4e69ef	-0.8063039
243	0x3f558c07	0.8341679
244	0x3f4064ad	0.7515362
245	0x3d83574e	0.064131364
246	0x3fc3d7f0	1.5300274
247	0x3e7a6b86	0.2445508
248	0x3d283fb9	0.041076396
249	0x3f538f34	0.82640386
250	0xbf7159fe	-0.9427794
251	0xbd993ea9	-0.074826546
252	0x3f8e8064	1.1132932
253	0x3f42cd8c	0.7609489
254	0xbfa810f8	-1.3130178
255	0xbf833323	-1.0249981
