summit/benchmarks/models/reizman_suzuki_case_4/reizman_suzuki_case_4_predictor_2.pt (torch, 30487 bytes, 4 tensors)

input_layer.weight f4 [512, 11]
000000 d5 72 66 3e 9f d2 0a be 68 51 71 3e 89 ca 02 3e
       0.22504742 -0.13556908 0.2356621 0.12772574
000010 e1 19 dc 3d 5e 61 cf bd b3 67 59 3e 0d 8a 83 3e
       0.107471235 -0.10125993 0.21230964 0.25691262
000020 f7 f0 a3 bd 88 de ec bd ad ca 0d bc be f0 65 3e
       -0.08004945 -0.11565882 -0.008654279 0.22455117
000030 d1 bf ba bd 63 99 0b 3e ab 46 2d 3e e6 5a b4 3d
       -0.09118617 0.13632731 0.16921489 0.088064
000040 a8 3b 32 3e 81 ed fc 3d 0c 45 e2 3d 1d fd f3 bd
       0.1740557 0.12349988 0.11048326 -0.11913512
000050 8a 92 48 3e ab f3 03 3c 86 4b f1 3d 8e 9d 83 3d
       0.1958715 0.0080537 0.11781983 0.064265355
000060 9b 7a 5a 3a d8 dd e9 bc 16 87 38 be e2 53 9c bd
       0.00083343097 -0.028548166 -0.18020281 -0.07633187
000070 1c 2b ff bd d6 0b 5a 3e a3 23 67 3e 43 8d 85 be
       -0.12459394 0.21293578 0.22572188 -0.26084337
000080 88 55 58 be aa b4 a0 3d 04 7e 5a be d9 c9 9c bd
       -0.21126378 0.07846959 -0.21337134 -0.07655687
000090 d0 84 65 be 13 9d 90 bd 36 d5 f6 3c 7f e1 75 be
       -0.22413945 -0.070612095 0.030130964 -0.24011801
0000a0 02 dd 42 3e d0 ef a7 bd e8 16 4d be 03 e2 15 3d
       0.1902962 -0.082000375 -0.2002827 0.036592495
0000b0 fd 3d 0a 3d 37 08 0d be 08 74 ca 3d 32 7e a2 3c
       0.033750523 -0.13772665 0.098854125 0.019835565
0000c0 bf 53 4a be 2b 08 9c 3d 58 93 9a 3d 7c 12 51 3e
       -0.19758509 0.076187454 0.07547635 0.20417207
0000d0 1c 54 9a 3d a5 6b 92 3c 65 04 1a 3e 63 89 28 3e
       0.07535574 0.017873595 0.15040739 0.16458659
0000e0 b0 3d 8b 3d 92 de 5b be c8 45 f3 3b bf 1e 98 be
       0.06798875 -0.21471623 0.00742409 -0.29710957
0000f0 75 d9 29 bd ba 6e 86 3c 27 0f 5d 3e f1 52 02 3d
       -0.04146715 0.01641022 0.21587811 0.03181738
000100 70 63 ed bd 5a d8 80 3e 51 6a 11 be 59 6b 4a be
       -0.11591232 0.25165063 -0.14200713 -0.19767512
000110 df 17 b4 3d 6c f5 8e 3d 6d de 37 3d 9e 20 84 3e
       0.087936155 0.06980404 0.044889856 0.25806135
000120 55 dd 5c 3e fc 09 1a bd f0 24 8e be fd b1 01 be
       0.21568806 -0.037607178 -0.27762556 -0.12665553
000130 1d 35 30 be f6 b6 83 3e 4c 7e 83 be d8 2e 90 3e
       -0.17207761 0.25725526 -0.25682294 0.2816074
000140 b5 32 e8 3d 19 78 18 be 96 cc cb bd e7 1d c1 bd
       0.113377966 -0.14889564 -0.09951131 -0.094295315
000150 25 e1 75 3e 63 2e df bd 86 c3 16 3e a5 6a 30 be
       0.24011667 -0.108975194 0.14723024 -0.17228182
000160 44 97 52 be c5 02 05 3e ee 8e 5b 3e 58 0c 90 3e
       -0.20565516 0.12989338 0.21441242 0.28134418
000170 38 58 74 be 28 07 75 3e 39 41 cb 3c 51 39 8d be
       -0.23861778 0.23928511 0.024811374 -0.2758279
000180 96 05 c7 3d 42 f6 8d 3e d3 b4 07 be b8 4e 0b 3e
       0.09717862 0.27726942 -0.13252573 0.13604248
000190 f1 b9 91 3c 94 54 f0 3d 4c 15 6a 3e 9a 00 e7 ba
       0.01778886 0.11734882 0.22859687 -0.0017624081
0001a0 bf 23 92 be e0 5e 95 bd 64 13 7d be d9 b2 41 be
       -0.28542897 -0.072934866 -0.24714428 -0.18915881
0001b0 15 f5 59 3e f7 33 55 3e b3 25 6f be 3d 51 4d bd
       0.21284898 0.20820604 -0.23354225 -0.050126303
0001c0 cf ab 84 be 66 ad 6b 3e 5d 03 1b be 8e 8c ea bd
       -0.2591233 0.23015365 -0.15138002 -0.1145259
0001d0 b9 20 2e 3e 7f 7e ed 3c 15 52 2a 3e b1 22 50 be
       0.1700467 0.028990982 0.16632874 -0.20325734
0001e0 e3 23 92 be 34 10 9c 3e be 11 17 be d3 4a 7e be
       -0.28543004 0.30481112 -0.14752862 -0.2483323
0001f0 98 9e 82 be ec 41 73 be c7 0f 2c be ae 79 f5 3d
       -0.25511622 -0.23755616 -0.16802894 0.11986099
000200 e9 f7 6c bd c8 56 89 be 1f f5 8b bc 35 eb 3e 3e
       -0.057853613 -0.2682402 -0.017084656 0.18644412
000210 9d e8 b4 3a 88 76 8c be b6 4d 95 3d 94 e5 75 3e
       0.0013802234 -0.27434182 0.07290213 0.24013358
000220 6c 6f 2c 3e a1 ca 21 be 2e 66 99 3e fb 1c 6c bd
       0.16839379 -0.15799953 0.2996077 -0.057644825
000230 4e 15 04 3d 9d 58 6f 3e 64 ab 7f 3d 69 18 95 3d
       0.03224688 0.23373647 0.06241931 0.072800465
000240 00 3e 99 3e 97 09 14 3e b2 98 8c bd b5 ef 2a 3e
       0.29930115 0.14456783 -0.06865062 0.16693003
000250 e3 df 99 be d9 68 74 be 0f 44 64 be 28 97 66 be
       -0.30053625 -0.23868121 -0.22291587 -0.22518599
000260 1d cd 4f be e7 c4 98 be 85 b9 84 be d4 9c 27 3d
       -0.20293088 -0.29837725 -0.2592279 0.040921047
000270 46 90 1a be cd 47 ba 3d ba 26 fd 3d cc f9 95 be
       -0.15094098 0.09095726 0.12360902 -0.29292142
000280 5e af 04 3e 1d 46 27 be 36 33 41 3e 07 53 f0 3d
       0.12957522 -0.1633534 0.18867192 0.11734586
000290 21 a5 32 be 83 af bb bd 53 3c 41 3e 2c 63 32 3e
       -0.17445804 -0.091643356 0.18870668 0.17420644
0002a0 42 2d ca bc 9e b4 58 3e da b1 8a 3e 8d 88 a3 3c
       -0.024679784 0.2116265 0.27088815 0.019962573
0002b0 d0 a5 9a 3e ae cd 32 be 48 9d 8a bd a5 11 80 3d
       0.3020463 -0.17461273 -0.0676828 0.062533654
0002c0 2c 30 60 be b1 6a cb bd 49 46 61 be 81 88 c8 3d
       -0.21893376 -0.09932459 -0.21999468 0.09791661
0002d0 8c b7 95 bd ee 74 00 3e 50 8c ed bd 9e 64 3b be
       -0.073103994 0.12544605 -0.11599028 -0.18300101
0002e0 d2 30 81 bd 4d 34 21 bc 56 5f 48 39 19 3c fb bd
       -0.0630814 -0.00983913 0.00019109002 -0.12267322
0002f0 1a e6 90 3d bc ca 96 be 59 59 cd bd d7 54 85 3d
       0.070751384 -0.2945155 -0.10026807 0.065103225
000300 cf d1 62 3e 63 b1 63 3e 16 94 b5 3d 34 cf 10 be
       0.22150348 0.22235636 0.08866136 -0.14141542
000310 a1 6e 49 3d 70 39 23 be 3c a5 9e bd 9b e2 d9 bd
       0.04917777 -0.1593988 -0.0774636 -0.10638925
000320 78 1d 88 3e c5 a3 29 3e bd 9b 38 3d c7 a1 9c 3e
       0.26584983 0.1656638 0.0450704 0.30592176
000330 56 49 2c be 0a e2 9f 3d 98 ac 80 3d c0 01 77 bc
       -0.1682485 0.078067854 0.0628292 -0.015076101
000340 0d e5 4b be 68 84 a8 bd eb e2 81 3e 80 06 08 be
       -0.19911595 -0.082283795 0.25368437 -0.1328373
000350 19 2a 30 bd 1d f2 0e 3d 36 01 26 be 3a 3a 6b 3d
       -0.043008897 0.034898866 -0.162114 0.057428576
000360 a7 76 44 3e 3c b4 98 3d 20 61 f7 bd 72 44 85 3e
       0.19185887 0.07456252 -0.12079072 0.26028782
000370 c6 e0 e8 3d c9 43 79 be e0 63 2b 3e 90 14 1a be
       0.11370997 -0.24342264 0.16737318 -0.15046906
000380 88 06 70 3e 4c 49 92 3e d3 b9 25 3d 74 2b 6c 3e
       0.23439991 0.28571546 0.04046042 0.23063451
000390 16 9e 72 be a8 14 21 3c 0d c4 83 be ad 1f 09 3e
       -0.23693117 0.009831585 -0.25735512 0.1339099
0003a0 18 b7 60 bd 75 79 74 3e e0 2a 69 3e 29 fa 95 3e
       -0.05486211 0.23874457 0.22770262 0.2929242
0003b0 ed 7c 7e be 97 11 ed 3c bc cf 09 3d 84 6b 8e be
       -0.24852343 0.028939052 0.033645377 -0.27816403
0003c0 f7 d3 47 be f0 a9 f7 bd 5a 5f 67 3e 01 14 99 3e
       -0.19514452 -0.1209296 0.22594967 0.29898074
0003d0 81 0e c0 3d 63 91 1a 3e b1 8e 95 be 53 75 81 3e
       0.093777664 0.15094523 -0.29210427 0.25284824
0003e0 88 ab 31 3d f9 24 96 3e f4 d5 7d 3e 12 d8 c4 3d
       0.043376476 0.29325083 0.24788648 0.09611525
0003f0 e3 fe 70 3d 99 75 83 be dc 81 9f be b6 59 86 be
       0.05883683 -0.25675657 -0.31153762 -0.2624032

input_layer.bias f4 [512]
000000 05 2d 0e 3e 1b f2 12 be df 1a 00 be f4 f1 a3 bc
       0.13884361 -0.14350168 -0.1251025 -0.020012833
000010 d7 24 91 3e 2b 45 95 be 0f f0 42 bd 30 5e e5 bc
       0.2834842 -0.29154333 -0.04759222 -0.027999014
000020 68 51 53 be e1 70 24 be 24 c7 0b ba 09 9a 1a be
       -0.20636523 -0.16058685 -0.00053321035 -0.15097822
000030 3b 26 ef bd 72 ac 11 3d 37 35 ed bd c6 ae 62 be
       -0.11677214 0.035564847 -0.115824156 -0.22136983
000040 81 ff 99 be d7 93 4e 3d 3b b0 9d bd 53 f1 10 3d
       -0.30077747 0.05043396 -0.07699629 0.035386395
000050 f7 e6 85 3d db d7 d5 bd 42 a9 ec bb 21 09 5f 3d
       0.06538194 -0.10441562 -0.0072223255 0.054452065
000060 8c e2 34 3e 69 f3 89 3d a6 86 65 be 1a 35 96 bd
       0.17664546 0.0673588 -0.22414646 -0.07334347
000070 70 df 34 3e 9f 11 6e 3e 5c 5f 27 3e 3d 0b 5b bd
       0.1766336 0.2324891 0.1634497 -0.053477515
000080 0c d1 b2 3d 00 e1 ca 3d 75 5c 4a 3c 4b e5 e3 3d
       0.08731279 0.099061966 0.012351145 0.111277185
000090 fb b6 2d 3e 58 95 08 3e 1c 9c 4b 3e 40 42 f6 bd
       0.16964333 0.1333822 0.1988377 -0.12024355
0000a0 d1 62 34 bd 7c fc 84 be 05 3f 26 ba c7 70 b5 bd
       -0.04403955 -0.2597388 -0.0006341788 -0.08859401
0000b0 f7 70 3a 3d 27 ff 57 bd 16 73 26 3d 06 db 90 be
       0.045517888 -0.052733567 0.0406371 -0.28292102
0000c0 2f 2a c8 bd ec 14 ec 3a f8 2a e9 3d f3 99 9e 3e
       -0.09773671 0.0018011606 0.11385149 0.3097683
0000d0 57 88 68 be f8 40 ab bd d5 c1 7b be d3 d4 35 3e
       -0.2270826 -0.08362001 -0.2458566 0.17756967
0000e0 6b 95 19 be 76 ed d8 3d 62 f9 80 bd aa 4e f7 3d
       -0.14998405 0.10592167 -0.06297566 0.12075551
0000f0 c6 7a df bd 6f 2f 94 be 23 c9 bf 3d 18 93 89 be
       -0.10912089 -0.2894244 0.09364536 -0.26870036
000100 4c 4e b5 3d 64 f8 0b 3e a3 48 85 3e 9c fb 58 3e
       0.088528246 0.13668972 0.2603198 0.21189731
000110 76 89 1b be 57 70 e3 bc 01 60 0e be 19 3f 2d be
       -0.15189156 -0.027763529 -0.1390381 -0.16918601
000120 a0 18 08 3e 32 e3 c9 3d 64 b0 e2 bd e6 0a 98 3e
       0.13290644 0.09857787 -0.110688 0.29695815
000130 19 ba cb bc 0d ef 30 3d 52 f9 10 3e c9 f6 7f 3c
       -0.024869012 0.043196727 0.14157608 0.015622803
000140 ff a1 8c be 60 08 5e 3e 45 1c cf 3d 09 74 55 3e
       -0.27467343 0.21682882 0.10112814 0.20845045
000150 bf c1 cc 3c 5f 56 93 3e 39 62 5a 3e c9 39 6d be
       0.02499473 0.28776833 0.21326531 -0.23166575
000160 ea 0c 0c 3d b5 db 82 3e 19 bd 0b 3e d0 cd 75 3e
       0.034192003 0.25558248 0.13646354 0.24004292
000170 c2 15 75 3e 79 45 8b 3e 7f 7a 4b 3e 76 35 2f be
       0.23934081 0.2720144 0.19870947 -0.17110237
000180 90 41 a9 3d 39 a1 50 3e 99 4d 19 3e 73 32 87 bc
       0.08264458 0.20374002 0.14971007 -0.016503548
000190 bf 54 eb bd e9 49 81 3e d6 80 84 3e 65 a9 2f 3b
       -0.114907734 0.252517 0.25879544 0.0026803848
0001a0 7f 85 1c be b7 49 7d 3e d4 bd a0 3e c9 0f 4e be
       -0.152853 0.24735151 0.31394827 -0.20123209
0001b0 70 5a 3a bd 17 bb 95 3e f7 b0 be 3d 47 56 5f bc
       -0.045496404 0.292443 0.09311097 -0.01363141
0001c0 e1 de ab bd 1f a9 0d be 0e 63 88 bd c7 5b a5 3d
       -0.0839212 -0.13834046 -0.06659518 0.08074146
0001d0 82 8e 10 3d 7d 7c 6a be 07 5c 96 bd c4 5a 3c bb
       0.035292156 -0.22899051 -0.073417716 -0.0028740624
0001e0 0d 71 74 be c7 79 23 3e 7c f1 e2 3b 22 90 a2 3e
       -0.2387125 0.15964423 0.00692576 0.3175059
0001f0 9c 99 2a be 93 c7 35 3e 1c a1 ba 3d 5a 30 1d 3e
       -0.1666016 0.17751913 0.091127604 0.15350476
000200 33 ed 94 be 5e 73 90 be 6d 6a 9f 3e d7 3e 13 bc
       -0.2908722 -0.28213018 0.31135884 -0.00898715
000210 f5 61 12 be 83 85 a9 3d ac a2 8c 3e a7 5d 4a 3e
       -0.1429518 0.082774185 0.2746786 0.19762288
000220 cc 9d 81 3e e9 21 6c 3e aa e1 1a 3e a5 0d 8b 3e
       0.25315702 0.2305981 0.15125147 0.27158847
000230 8d ac 58 3e 3b 4a 4a 3d 6d 9a bc 3c ed 94 27 3d
       0.21159573 0.049387198 0.023022855 0.04091351
000240 cc 2a 77 3e f1 bf 88 3e e7 70 85 3d 40 7f f3 3d
       0.2413742 0.2670894 0.06515675 0.118895054
000250 d1 d6 4b 3e 80 b7 63 be 68 b1 f6 bd 65 1d 90 3e
       0.19906165 -0.22237968 -0.12045556 0.28147426
000260 49 1c 6d 3e 99 45 ba 3d 15 8c 2d 3c de 53 6f be
       0.23155321 0.09095306 0.01059248 -0.23371837
000270 4d e1 99 be 90 b0 94 3e cc 58 9e 3d 93 48 df 3d
       -0.30054703 0.29040956 0.077317804 0.10902514
000280 b6 19 84 3e 4f 53 54 bc 5f a0 68 be c6 fc 88 3e
       0.25800866 -0.012959315 -0.22717427 0.2675535
000290 9c ff 3b be 64 ed 3f 3d 5e a3 c8 3d 1e 63 6a 3e
       -0.18359226 0.046857253 0.09796785 0.22889373
0002a0 74 c1 a2 3c ad 7a 3f 3c f0 f5 d2 3b 40 02 3f 3e
       0.019867636 0.011686963 0.0064380094 0.18653202
0002b0 23 2a 86 3e 89 a5 7e 3e 02 29 93 be 7b 26 45 3e
       0.26204023 0.24867834 -0.28742224 0.1925296
0002c0 d0 81 3b bd f5 ef 9c 3e 55 b0 24 bd 05 c0 5e be
       -0.045778096 0.30651823 -0.040207226 -0.21752937
0002d0 c6 c7 23 be de 9b 50 bd 7a df c1 bd fb 70 de 3c
       -0.15994176 -0.050929897 -0.09466453 0.027153483
0002e0 7a 07 09 3e 99 42 ab 3d 39 b1 6b 3e ba 10 05 be
       0.13381758 0.08362312 0.23016824 -0.12994662
0002f0 47 8a 2e be ab b0 15 be f9 fd 8e 3e e0 c2 1d be
       -0.17044936 -0.14618175 0.2792814 -0.1540637
000300 3c a9 97 3e f8 8e 62 be 68 58 e2 bd 89 e0 14 be
       0.29621303 -0.22124851 -0.110520184 -0.14538778
000310 0d bf 6a be 3b 84 8c be d1 9e 94 3d 7c ae 99 3a
       -0.22924443 -0.27444634 0.07256854 0.0011724974
000320 63 52 31 bc 82 6c 59 3e 7f f5 50 be 30 0a a4 3c
       -0.010822865 0.21232799 -0.2040615 0.020024389
000330 a4 e7 0c 3e 62 87 ab 3c 86 ec b4 3c aa fa 33 be
       0.13760239 0.020938579 0.02208544 -0.1757609
000340 35 20 05 3d 03 8b 61 3e cb d5 a5 3e 4a 03 90 3e
       0.03250142 0.22025685 0.32389674 0.2812751
000350 18 71 82 bd d4 4a a6 3c 1c e1 62 3e c1 09 01 be
       -0.06369227 0.020299353 0.22156185 -0.12601377
000360 64 b8 0b bc 9c f1 bb bd 76 bd 15 3e 53 30 d2 bd
       -0.008527849 -0.09176943 0.14623055 -0.10263123
000370 87 56 03 3e 56 89 3e be 75 d4 15 3e 34 31 f4 3c
       0.12825976 -0.18607077 0.14631827 0.029808618
000380 74 71 c9 bd e1 43 03 be 43 fb d2 bd 1f 50 5b 3e
       -0.098360926 -0.12818862 -0.103018306 0.21417283
000390 48 a3 58 bc f7 1e 2e 3d 58 96 50 be cc cc 83 3e
       -0.013222523 0.04251 -0.20369852 0.25742185
0003a0 5a 06 82 3d e7 9e 47 3c 16 20 7d bd 62 2a 6f be
       0.06348868 0.012183881 -0.061798178 -0.23356012
0003b0 56 2e 82 3d 6c ee d7 3d c5 c5 85 be 10 55 6b 3e
       0.06356494 0.10543522 -0.2612745 0.22981668
0003c0 fb 05 ce 3c c7 f5 60 be 29 72 94 be fa 13 54 3d
       0.025149336 -0.21968757 -0.28993347 0.051776864
0003d0 88 7e 59 be 2d e1 59 be e3 30 30 3d 22 cb 8e be
       -0.21239674 -0.21277304 0.043015372 -0.27889353
0003e0 f3 61 54 be bf 8d 6d 3d 5d 91 f4 3d 7b ad 8b 3e
       -0.2074049 0.057996508 0.11941788 0.27280793
0003f0 50 b5 2b be 57 a4 1d bd 69 d4 f9 3c d1 f5 a3 3c
       -0.16768384 -0.038486805 0.030496793 0.020014675

output_layer.weight f4 [2, 512]
000000 ff 1f 8f 3c 88 52 f4 3c fd 9d 81 bb 8e d7 29 bd
       0.017471312 0.02982451 -0.0039556012 -0.041465335
000010 11 58 97 bd b3 f7 96 bc 7b cf 9d bc d0 63 0d 3d
       -0.07389844 -0.018428659 -0.019263973 0.034519017
000020 a2 b5 bb bc 9c a7 d0 bc 3c f2 12 3d 8c c4 d1 bc
       -0.022913758 -0.025470547 0.035875544 -0.025606416
000030 7e 23 93 bc 20 67 dd bc 5e 23 b1 3d 46 36 5e bc
       -0.01796126 -0.027026713 0.08649324 -0.0135627445
000040 9d 1b 07 3d 78 c2 01 3e db b0 92 3d b3 30 83 bc
       0.03298532 0.1267184 0.07162639 -0.016014433
000050 62 30 c6 3c 6f b3 a8 3d 6d d7 71 bd 1d 7c 2a bd
       0.024192993 0.08237349 -0.059043337 -0.04162227
000060 a4 20 4b 3d 63 5b 31 3d 50 36 1e bc ef 18 a9 bb
       0.049591675 0.043300044 -0.009656504 -0.005160443
000070 98 17 99 bd 1f c4 51 bd 06 14 10 3e 08 bd 35 3d
       -0.07475203 -0.051212426 0.14070138 0.044369727
000080 2a ed 66 3d 68 cf f5 bc 1b 33 6a bc 22 8d 2a 3e
       0.05637852 -0.030006126 -0.014294411 0.166554
000090 56 f1 17 3d cb f8 78 3b 2a de 36 3d 77 86 5a 3d
       0.03709539 0.003799009 0.044645466 0.053350892
0000a0 1c 28 36 3d 8a ec 83 3b 7a 6d 91 bc a1 63 6e 3d
       0.044471845 0.0040260004 -0.017752398 0.058200482
0000b0 50 15 3a 3c 60 bb 2d 3d 87 fe 91 ba 51 b0 61 3c
       0.01135762 0.042415023 -0.0011138477 0.013774947
0000c0 54 bf ce 3d cd e7 ab 3c 61 ca 82 3d 55 5a 85 bd
       0.10095087 0.020984555 0.06386257 -0.0651137
0000d0 55 11 a4 bc 49 5c 9c 3d ba 18 d0 bc 49 93 8a bd
       -0.020027796 0.076347895 -0.025402416 -0.06766374
0000e0 c9 61 1f 3b 6c a5 08 3e 1d 2b 86 bc 2b 89 86 bb
       0.002431976 0.13344353 -0.01637798 -0.004105707
0000f0 58 6d 08 bc c3 e0 c6 bc 58 7f f5 bc b0 7f df bc
       -0.008326851 -0.024277097 -0.029967949 -0.027282566
000100 0c b1 b2 bd cc 5d 8d 3d 37 c3 14 bd 89 3b bf 3c
       -0.08725175 0.06902656 -0.036318984 0.023343818
000110 73 d7 0b bd 4f f5 16 3d 7c 50 a2 bd e1 57 90 bd
       -0.034141015 0.03685504 -0.079255074 -0.070480116
000120 de ee bf bd e4 06 25 3c 83 0b e2 bc e3 01 90 3c
       -0.09371732 0.010072444 -0.02759338 0.017579025
000130 57 68 3a bd 7c 02 aa 3d a4 2d 11 bd a2 84 f2 bd
       -0.045509662 0.08301255 -0.035443917 -0.11841704
000140 0f 6c 93 3d 27 c2 a1 3d 86 6a fb bd 72 20 87 bd
       0.07198345 0.0789836 -0.12276177 -0.06597985
000150 f1 db a1 bc ca 65 b3 3d d1 2b 9f bd cc 47 c5 3b
       -0.019758197 0.08759649 -0.07772029 0.0060205217
000160 7b d1 b3 bc 97 53 93 bd bd 7a 9d 3d a4 b2 34 3d
       -0.021950474 -0.07193678 0.07689426 0.044115677
000170 ea a2 60 3d 6d de 33 3b 00 0c 58 3d c7 b3 9e 3c
       0.054842867 0.0027445809 0.05274582 0.019372834
000180 23 c1 0a bd b5 33 58 bc fe eb 00 3c 3a 33 0c bd
       -0.033875596 -0.013195922 0.007868765 -0.03422854
000190 3d 69 91 bd 3d 15 90 3c 0d 8e 4c 3c ab 38 43 3d
       -0.07100151 0.017588252 0.012485039 0.047661465
0001a0 ee 4e fc bb 71 6b 90 bd 7d e2 70 3d dd 46 b7 3b
       -0.007699839 -0.07051743 0.058809746 0.0055931644
0001b0 cb 2d 12 3c 1f 29 c6 bd 61 6f 0a 3b 3b 00 09 bd
       0.008922051 -0.09675812 0.0021123516 -0.033447485
0001c0 19 3c da bc c1 9b e7 bb 70 e4 1d bd 2d e3 37 bd
       -0.026639985 -0.007068128 -0.038547933 -0.044894386
0001d0 53 e5 6a 3d 3e e8 b8 3d ea ec 16 bd 97 db 5e 3d
       0.057347607 0.09028672 -0.036847033 0.054408636
0001e0 cb 15 86 3c 74 36 58 bd 04 7f b1 3d 0e a9 be bd
       0.016367814 -0.052786306 0.086668044 -0.093095884
0001f0 e6 fc 6f 3d 09 0e a0 3d 07 82 03 3c 6c da ab 3d
       0.058590792 0.07815177 0.008026606 0.0839127
000200 5d 54 d1 3c e5 a3 17 bd ac 83 eb bd 27 ec dc bc
       0.025552923 -0.037021536 -0.11499724 -0.026968075
000210 d7 be ae bc 8e 2b bb bd 04 99 60 bd b5 64 c3 bc
       -0.021331234 -0.09139167 -0.054833427 -0.023851732
000220 04 72 ee bb 8a 81 19 bc 5f eb 37 bd ba f0 36 bd
       -0.0072767753 -0.009369263 -0.0449022 -0.04466317
000230 09 dd 01 3d 63 81 13 bd 37 d4 36 bd 06 14 11 3d
       0.031704936 -0.036012065 -0.044635978 0.035419486
000240 82 45 a9 bb 3a 3f b2 3c 8d 79 c2 bd 43 54 7e bc
       -0.0051657567 0.021758664 -0.0949584 -0.015523019
000250 01 0e 42 bc 89 b7 e4 bc 74 c1 27 3d 42 8e df 3c
       -0.011844159 -0.027919548 0.040955976 0.027289513
000260 12 83 25 3d cd cf 8c 3d 9d 6a e0 3b ca d8 d7 3b
       0.0404082 0.06875572 0.006848647 0.0065871226
000270 2e b7 49 3c ec 70 82 3c c0 e0 77 3d 95 be 41 3d
       0.01231174 0.015922986 0.060517073 0.047300894
000280 cf 5d 9d 3c 34 a6 37 bd 64 61 99 3a b5 15 24 bd
       0.01920977 -0.044836238 0.0011701998 -0.040059764
000290 12 41 63 bb 08 95 97 bd 86 ee 9a 3d 53 27 7b 3d
       -0.0034676236 -0.07401472 0.07565026 0.0613168
0002a0 fe 6a 79 3d 55 06 03 3e 31 d0 6c bd 13 cf e6 bc
       0.06089305 0.12795384 -0.057815734 -0.028174913
0002b0 ce 5f 74 bd 6e 12 9a bc 4b 7b 8b bc dd c3 46 bd
       -0.05966168 -0.018807616 -0.017026564 -0.048526634
0002c0 c9 c7 20 bd ad 4f de 3b 7a 84 0f 3d cf ca 3b 3d
       -0.03925303 0.0067844004 0.03503845 0.04584771
0002d0 03 52 6c bd 87 2a 02 3d 32 af e2 bc 3d 12 24 3d
       -0.0576954 0.03177884 -0.02767143 0.040056456
0002e0 60 ca b1 bd 21 ea 8f bc 7f 8e a2 3d b8 e1 d1 3c
       -0.08681178 -0.017567696 0.07937335 0.025620326
0002f0 cd 72 8c 3d eb 1e 79 3d 12 66 a0 3c ad b2 e0 3d
       0.06857834 0.0608205 0.01957992 0.1097158
000300 39 2d 29 3b 92 1a ed 3c e7 3c ba bd 6f 33 6a 3c
       0.0025814308 0.028943334 -0.090936475 0.014294489
000310 6b cd 15 bd 38 b7 8b 3c bb f6 a7 3a 26 39 85 3c
       -0.036572855 0.017055139 0.001281462 0.016262602
000320 c6 4b 7d bd 15 45 24 3d c0 90 e0 bc 8d 38 13 bc
       -0.06183984 0.040104944 -0.027412772 -0.008985651
000330 85 f6 e7 bd 30 a3 c8 bd 88 78 f0 3c a2 5f 9c bd
       -0.11326317 -0.097967505 0.029354349 -0.07635428
000340 a7 03 0f 3c 58 6c e1 3d a8 d2 8f bd 6f ac df 3b
       0.008728898 0.11006993 -0.07022601 0.0068259756
000350 f3 3f 5b bd af fd 4d bd 31 84 1c 3d 62 a2 3a 3d
       -0.053527784 -0.05029076 0.038212005 0.045565017
000360 08 46 42 bb c4 4f 8d bd 94 3f 1e 3b f4 1e 8d bb
       -0.0029643793 -0.0689998 0.0024146782 -0.0043066684
000370 e3 c6 09 ba 9b 8c f8 bc 17 fa c2 3c c6 60 20 bc
       -0.00052557717 -0.030340483 0.023800893 -0.009788698
000380 5c 56 57 3d 9f 2d 33 bd 12 68 9c bd 82 ce c6 bc
       0.052572593 -0.04374468 -0.07637037 -0.024268392
000390 6c dc 26 3d 71 70 f6 3c f7 b0 39 bd 16 05 0f 3e
       0.040737554 0.030082913 -0.045334782 0.13966784
0003a0 74 66 21 bc 45 71 56 3d 27 87 c8 bc c9 b4 cc bd
       -0.009851087 0.052354116 -0.024478508 -0.099954195
0003b0 69 aa 0b bc 96 72 8e bd d1 22 85 3d aa 71 6e bb
       -0.008524516 -0.06955449 0.06500781 -0.0036383667
0003c0 f8 e1 7e bd d0 50 26 bd a6 f6 3b 3d 6c b8 b7 3c
       -0.06222722 -0.040604413 0.04588952 0.022426806
0003d0 35 89 01 3d 96 43 f8 bc 73 c8 08 3c 1a 68 26 3c
       0.03162499 -0.030305665 0.008348572 0.010156656
0003e0 7c 37 6a 3d 22 fe a7 3c e7 34 b4 ba 28 10 8d 3d
       0.05718182 0.020506922 -0.0013748676 0.06887847
0003f0 b7 0b c1 bc 97 87 ca bb ad b0 45 bd eb fb 40 3d
       -0.023565156 -0.0061807144 -0.048264194 0.047115248

output_layer.bias f4 [2]
000000 1c 56 9a bc 3e 19 58 3d
       -0.018839888 0.052758448
