summit/benchmarks/models/reizman_suzuki_case_4/reizman_suzuki_case_4_predictor_3.pt (torch, 30487 bytes, 4 tensors)

input_layer.weight f4 [512, 11]
000000 d1 52 3e be b3 70 fd 3d e5 e7 18 3e 46 0e 55 be
       -0.1858628 0.12375011 0.1493221 -0.20806226
000010 a4 04 20 3d 43 6a c7 3d 22 74 a7 bc 4e 16 f9 3d
       0.039066926 0.09737065 -0.020441119 0.121624574
000020 40 6c fd 3b 4a 93 80 be 00 d0 65 be 09 12 7f bd
       0.0077338517 -0.25112373 -0.22442627 -0.06227306
000030 ce d4 80 3e 22 67 97 3c 14 b8 21 3e 3c a4 85 bd
       0.25162357 0.018481795 0.15792876 -0.06525466
000040 44 92 d8 3d 49 6f 55 3e e3 ff 16 3e 37 ce 85 be
       0.10574773 0.20843233 0.1474605 -0.26133892
000050 f2 ff 95 3e 26 fe cb 3c e4 d5 1c be 03 d0 33 3e
       0.29296833 0.02490146 -0.15315968 0.17559819
000060 2f 9d c9 bd 37 7c 1a bd 65 ef 87 be 69 4b b7 3c
       -0.098444335 -0.037716117 -0.2654983 0.022374826
000070 b7 61 18 3e 4e 08 ff 3c 3c ba 22 3e 92 4f 8d be
       0.14881025 0.03113189 0.15891355 -0.2759977
000080 56 6c 6a bd b5 d1 eb bd e9 f9 86 bd 87 6a 8f bc
       -0.057232223 -0.11514608 -0.06590635 -0.01750685
000090 6a ee 96 be e5 21 1a 3e 75 84 f5 3d 41 66 49 3e
       -0.2947877 0.15051992 0.11988155 0.19667913
0000a0 22 fe 11 be f9 c0 10 be ea dd 24 3e 42 17 a1 3d
       -0.142571 -0.14136113 0.16100278 0.07865764
0000b0 ce 76 51 3d 6e c5 74 be ac 69 ad bd 04 58 74 be
       0.05113869 -0.23903438 -0.08467421 -0.238617
0000c0 b9 ca ff bd 65 83 a6 bd a4 13 86 3d cc ab fa bd
       -0.12489838 -0.0813053 0.06546715 -0.12239799
0000d0 47 8b 8b 3d 08 ca 37 3e c5 c8 56 bd cd 07 8d be
       0.068136744 0.17948163 -0.052437562 -0.27545014
0000e0 64 b1 02 bc a5 96 d1 3d 3a 88 cf bd ea f8 42 3e
       -0.0079768635 0.10233811 -0.10133405 0.19040266
0000f0 50 c8 e9 3d 87 59 17 be 1f 72 84 3e 01 6c 3e 3d
       0.1141516 -0.14780246 0.25868317 0.04648972
000100 4a 2b 45 3e 03 63 85 3d 3e 69 2e 3e 6f 25 0d be
       0.19254795 0.065130256 0.17032334 -0.13783811
000110 63 34 58 be a6 70 ba bd 2b 93 80 3e 6f 09 ea bc
       -0.21113734 -0.09103517 0.2511228 -0.028568951
000120 58 15 b0 bd 17 0d 03 3e 4e 09 e4 3d ee 70 92 3e
       -0.08597821 0.12797962 0.11134587 0.28601784
000130 4a ba 93 be 5f b5 8a be 09 e6 76 be b9 02 6f be
       -0.28853065 -0.270915 -0.24111189 -0.23340882
000140 e5 21 89 be 76 95 e3 bd 33 1d 61 be 24 cb e1 3b
       -0.26783672 -0.11112492 -0.21983795 0.0068906713
000150 66 d8 66 3e 5a 80 fa 3c 4b ab 9a 3e c5 a6 9c 3e
       0.22543487 0.03057878 0.3020881 0.30595985
000160 a5 71 5d be c1 6b 31 3e b7 f5 66 be 90 f3 0e 3e
       -0.21625383 0.17326261 -0.2255467 0.13960099
000170 46 fb ab bd 16 8a 84 be 7e b2 47 3e 36 74 8a 3e
       -0.08397536 -0.258866 0.19501683 0.27041787
000180 09 88 26 3e 6a 6b 49 bd 9d 81 25 be a6 ea cb 3d
       0.16262831 -0.049174704 -0.16162725 0.09956865
000190 fb 6c c0 bd cc 78 4c 3d df 76 54 3e f9 ee ab bd
       -0.093957864 0.04991989 0.2074847 -0.0839519
0001a0 69 62 71 3e 54 70 75 be 77 a1 76 be d4 2c 77 be
       0.23572697 -0.23968631 -0.24085031 -0.24138194
0001b0 57 1f fb bd 84 ec c2 3d 72 92 ac bd ae 32 3e be
       -0.12261837 0.09517768 -0.0842637 -0.1857402
0001c0 0b 7c 86 be c2 c8 8a be ca f4 10 be e3 e1 41 3e
       -0.26266512 -0.2710629 -0.1415588 0.18933825
0001d0 cd 9b 90 be 13 17 47 3e 6b 40 3c 3d e8 36 ad 3d
       -0.28243867 0.19442396 0.04595987 0.08457738
0001e0 77 0e 84 3e 0a 6e 42 be 76 38 21 be 8e 5c c3 bd
       0.25792286 -0.18987289 -0.15744194 -0.09539138
0001f0 c7 a7 48 bd 70 f8 d6 3d b8 27 45 3e 09 98 96 3e
       -0.04898813 0.104966044 0.19253433 0.2941287
000200 9e 76 85 3e 02 c5 7f 3c 6c 0d b7 3b 51 f2 88 be
       0.2606706 0.015610935 0.005586317 -0.26747373
000210 76 7a 75 3e a0 da 50 3e 18 16 58 be f2 24 f4 bd
       0.23972496 0.20395899 -0.21102178 -0.11921109
000220 f6 dd 7d be 31 48 d6 bc f5 74 15 3e 47 1f fd 3c
       -0.24791703 -0.02615747 0.14595397 0.030898703
000230 98 4a e0 bd 16 87 ce bd 65 4e 1a be c8 f2 d5 3d
       -0.10951728 -0.10084359 -0.15068968 0.104466975
000240 45 1a 72 3e c0 e0 6f be d6 5c 85 be 1d 24 7b 3e
       0.23642834 -0.23425579 -0.2604739 0.24525495
000250 cd 66 81 be fa 89 06 be 39 bb 2a be 17 b4 2d be
       -0.25273743 -0.13138571 -0.16672982 -0.1696323
000260 17 01 ab 3d 54 a7 84 3e 27 3e 31 be 7c b1 5e bd
       0.08349817 0.2590891 -0.17308865 -0.05436848
000270 26 9a 9f be 6b c4 19 3e 5d d7 7e 3e b1 b1 21 be
       -0.31172293 0.15016334 0.24886842 -0.1579044
000280 51 66 1b 3c 41 91 90 be da c0 31 3e ae 59 85 3c
       0.009484843 -0.2823582 0.17358723 0.016278114
000290 92 8b 28 3e 1d 96 08 be b9 de 07 bd 4c b3 4c be
       0.16459492 -0.13338514 -0.03317139 -0.19990271
0002a0 55 11 8c be 1f 34 6a 3e 74 6a 5e 3e 32 f3 69 3e
       -0.27356973 0.22871445 0.21720296 0.22846678
0002b0 f8 9f 48 3e 49 41 84 be 4b 3a 3d 3e e7 00 63 3e
       0.19592273 -0.2583106 0.18479268 0.22168313
0002c0 1c 00 81 3e f3 6f 95 bd a3 fb 16 3e 2c 7d 9d bd
       0.25195396 -0.07296743 0.1474443 -0.0768989
0002d0 fa 69 91 3e d7 67 5c 3e c0 83 8a bd 3c c2 2b 3e
       0.28401166 0.21523987 -0.067634106 0.16773313
0002e0 44 b2 3e 3e 9f 55 c6 bc 83 46 ff 3d e4 35 dd 3d
       0.1862269 -0.02421075 0.12464621 0.108012944
0002f0 46 fc 58 be bd db f6 3c 96 33 28 be 7a 4b 24 3e
       -0.21189985 0.030134076 -0.16425928 0.16044417
000300 4e e4 4f be 0d 92 d6 3d eb 59 89 be 53 8a e3 3d
       -0.20301935 0.10477076 -0.26826414 0.111103676
000310 bb 6a f2 bd f8 46 85 3e bc 92 15 be 8d f9 55 3e
       -0.118367635 0.26030707 -0.14606756 0.20895977
000320 f5 9a 02 be 89 c4 a2 3c 7f 0d cd bd e0 ed 74 be
       -0.12754424 0.019869106 -0.1001234 -0.23918867
000330 14 a2 2b be e0 37 8e 3d 0f a7 e8 3c 34 14 a6 3d
       -0.16761047 0.06944251 0.028399972 0.08109322
000340 03 b7 ba 3d 21 02 65 3e 8a cc 3c 3e 6a 7e a0 be
       0.09116938 0.22364093 0.184374 -0.31346446
000350 4a e4 98 bd 16 af 8d be 8a b4 28 3e c4 4d 25 bd
       -0.07465418 -0.27672642 0.1647512 -0.040357366
000360 6c 5f f7 bd 21 c4 80 be 10 fc 6c be bb de 03 be
       -0.12078747 -0.25149634 -0.23143029 -0.12877934
000370 01 86 49 3d bd c2 7b 3e f3 2f 85 be 84 f1 8f 3e
       0.04920006 0.24586006 -0.26013145 0.2811395
000380 90 fe 01 bd 24 d8 77 bd 5a 3c 5d be 27 3f 93 be
       -0.03173691 -0.060508862 -0.21605054 -0.2875912
000390 ea be 72 bb 60 3e 5b be e3 18 5c 3e c7 d4 46 bd
       -0.0037040063 -0.21410513 0.21493869 -0.048542764
0003a0 f6 24 16 be 4a 4b a0 3c e3 bf cc bc 42 d0 65 be
       -0.14662537 0.01956715 -0.024993842 -0.22442725
0003b0 e7 62 71 be 7c 80 07 3e 9d de 95 3e 00 5b 83 be
       -0.23572885 0.13232607 0.29271403 -0.25655365
0003c0 41 1f 5e 3e 45 5b 83 bd 08 ae 8a 3e 18 b1 96 be
       0.2169161 -0.06413893 0.270859 -0.29431987
0003d0 a8 dc 21 bd 93 6c 86 3b 63 91 75 be f3 16 c1 3c
       -0.039517075 0.0041022985 -0.23981242 0.023570513
0003e0 56 ff e3 3c ef 3a 95 3e f7 a0 10 3e a3 0e 98 be
       0.027831715 0.29146525 0.14123903 -0.29698667
0003f0 18 8a 19 3d 9d f8 1b 3e b8 7b e7 bc ff 4f ab bd
       0.037485212 0.15231557 -0.028257236 -0.083648674

input_layer.bias f4 [512]
000000 13 06 de 3c c4 0f 9b 3e 4e 3a f9 3c 06 dd 73 bb
       0.027102506 0.30285466 0.03042331 -0.0037210598
000010 b5 7d 8e bc b7 72 e0 3c c4 bd 15 3e 25 e4 37 bc
       -0.017393926 0.02739845 0.14623171 -0.0112238275
000020 4a ec 74 bd 76 e5 32 3e 96 1b be 3c d1 85 2b bd
       -0.059795655 0.17470345 0.023206513 -0.041875664
000030 3a 1a 2a be 7e bb b5 bd 45 70 85 be 22 6a 05 be
       -0.16611567 -0.08873652 -0.26062217 -0.13028768
000040 3c c8 5f be 27 ca 0a 3e 61 4e 6e 3e 77 a3 81 3e
       -0.21853727 0.13553677 0.23272087 0.25320026
000050 b3 60 42 bd b2 aa 0f 3d 4d 23 cc 3d a9 11 20 be
       -0.0474555 0.035074897 0.099676706 -0.15631737
000060 09 85 44 3e 08 1f 92 3d 35 c3 19 3d c9 ee 94 be
       0.19191374 0.07134825 0.03753968 -0.2908843
000070 ed 8c 66 3e 85 93 95 bd 9b 90 97 3e f1 09 3f 3e
       0.22514696 -0.07303528 0.29602513 0.18656136
000080 aa 7a 73 3d 46 2d 0d 3e d0 83 26 be 4b 79 14 3e
       0.059443153 0.13786802 -0.1626122 0.14499395
000090 90 c2 91 3e c4 3b d0 3d e0 d4 60 be 70 f4 60 be
       0.28468752 0.101676494 -0.21956205 -0.21968246
0000a0 07 d6 33 be 61 65 0e be 4a 85 63 3e 99 50 47 3e
       -0.17562114 -0.1390586 0.22218814 0.1946434
0000b0 f6 a9 8b be 0c 18 eb 3d 7d 40 31 be 03 1e 75 be
       -0.27278107 0.11479196 -0.17309757 -0.2393723
0000c0 ae 9c c5 3d d5 8a a4 bd 94 f6 d9 3d 38 d3 cd 3d
       0.09649025 -0.080342926 0.10642734 0.100500524
0000d0 97 87 e0 3d c5 8d 10 3e d7 c2 1d 3d 57 68 c9 bd
       0.10963362 0.14116581 0.038515892 -0.09834354
0000e0 81 f9 9a be 86 3d 85 3e 2d 44 4a be 0d 77 93 be
       -0.3026848 0.260235 -0.1975257 -0.28801766
0000f0 01 1c 78 be 8b 5a c6 3d 26 22 7d be 25 73 01 3e
       -0.24229433 0.096852385 -0.24720058 0.1264158
000100 9f 3c 79 be 39 39 37 be d9 b9 35 bd c9 7f 51 3d
       -0.24339531 -0.17892922 -0.04436669 0.051147256
000110 0f 41 4c be ba 17 ae bd 23 b3 a4 bd 34 47 09 3e
       -0.19946693 -0.08500619 -0.0804198 0.13406068
000120 58 fb 7b be 6e 6c 12 bd 7c 57 01 be 80 cd 7b be
       -0.24607599 -0.035747938 -0.12631029 -0.24590111
000130 f0 8c e5 3d 63 61 55 3e 39 33 e0 bd 14 23 4c 3e
       0.11208522 0.20837931 -0.1094727 0.19935256
000140 5b 1f 84 3e 6f d8 5a be 74 85 4f bd a7 29 35 be
       0.25805172 -0.21371625 -0.05066438 -0.1769167
000150 ed e6 51 bb 66 f2 82 bd fc 22 f0 bb 32 eb 6a 3e
       -0.0032028512 -0.0639389 -0.007328389 0.22941282
000160 1c 54 9e 3e 01 4c 67 be 14 3e 6e 3e 20 cd 71 3e
       0.30923545 -0.22587587 0.23265868 0.23613405
000170 5a 4c 47 be b0 65 0e 3e 5b ae e7 3d 34 af 7f 3e
       -0.1946272 0.13905978 0.113125525 0.24969178
000180 7c 27 66 3e 4c e0 31 be 41 a7 31 3d e2 46 90 3e
       0.22476 -0.17370719 0.043372396 0.2817908
000190 b0 21 82 3e 9a e2 9c 3d 05 49 7a 3e cc a1 88 3e
       0.25416327 0.07660408 0.24441917 0.2668594
0001a0 1b 32 65 3e 70 18 0b be 0a 4b 88 3e e1 aa 44 be
       0.22382395 -0.13583541 0.2661975 -0.1920581
0001b0 7f f0 f2 3d b3 fe 5c be fb 05 04 be 1d 02 32 3e
       0.11862277 -0.21581535 -0.12892906 0.17383619
0001c0 67 e7 de bd df f5 28 bd c0 6c 52 3d 6f 42 ee 3d
       -0.1088398 -0.041250106 0.051373243 0.11633765
0001d0 71 fc 84 bd dd cb 5c be 66 a5 40 be 05 51 d6 3d
       -0.06493462 -0.21562143 -0.18813094 0.10464672
0001e0 92 fb 4e be 75 07 18 be b8 6d 97 be 38 cd 07 be
       -0.20213154 -0.14846595 -0.29575896 -0.13261878
0001f0 29 aa b2 bd f1 82 a8 bd 46 a5 16 3c 8f 14 aa bd
       -0.08723862 -0.082281 0.009194678 -0.083047025
000200 15 7f 8e 3d 52 d9 ed 3d 8e 6c c5 bd 31 d8 a9 bd
       0.06957833 0.11613716 -0.09639846 -0.08293188
000210 00 f9 13 bd 13 87 c2 bd 83 ca 02 3d b1 0f 1b 3e
       -0.036126137 -0.094984196 0.03193141 0.15142705
000220 49 b4 47 be 40 94 8d 3e 18 07 7d be ef 38 19 3e
       -0.19502367 0.27652168 -0.24709737 0.14963125
000230 e4 86 98 be 7b af 6e bd 34 fa 92 3e c2 85 d3 3d
       -0.29790413 -0.05827282 0.28706515 0.10328247
000240 b9 c8 8c be ba 9a 99 3e 56 a3 9c 3d a8 ab 36 3d
       -0.2749689 0.3000086 0.07648341 0.044597298
000250 49 b1 8b 3e 18 9b 16 be e6 14 ba 3d 13 b0 dd 3c
       0.27283695 -0.14707601 0.09086017 0.027061498
000260 3f ab 84 3e d7 fa 50 3e c7 dc f2 3d dc ca 88 bd
       0.259119 0.20408188 0.11858516 -0.06679317
000270 d7 29 f0 3c a7 15 eb bd 18 c7 67 3b ea 3b 88 bc
       0.029316826 -0.11478739 0.0035366472 -0.016630132
000280 67 e2 2d 3e cc c9 b6 3d d8 72 4d be 6d 5c 05 be
       0.16980897 0.089252084 -0.2006334 -0.13023539
000290 ea a8 1e be aa c8 c1 bc 65 03 85 bd ff 74 bd 3d
       -0.15494123 -0.023655254 -0.06494788 0.09250831
0002a0 65 65 46 be f7 e6 8d bc f0 ca 14 be d8 1a 8e be
       -0.19374616 -0.017322047 -0.1453054 -0.27754855
0002b0 5b b3 07 3e fb 15 0c 3e e8 6e 83 bd 8f 17 30 3e
       0.13252012 0.1368026 -0.06417638 0.17196487
0002c0 7c 83 67 3d 42 55 0c 3e 2b ff 62 be 60 96 98 bd
       0.056521878 0.13704398 -0.22167651 -0.07450557
0002d0 1b d0 0e 3e dd 5d 58 be 87 77 be bc 41 7d 5e be
       0.13946573 -0.21129556 -0.023250354 -0.21727468
0002e0 fe e8 46 bd 16 a7 45 be 13 de f5 3d b4 9f 35 3c
       -0.048562042 -0.1930202 0.12005248 0.0110854395
0002f0 40 2b ba bd de e9 10 3e 13 d9 4f 3e f0 3c ec bc
       -0.090902805 0.14151713 0.20297651 -0.028837651
000300 fb b2 2b 3e b4 53 95 3d 25 0d 40 3e dd 7e 57 be
       0.16767494 0.07291356 0.18755014 -0.21044488
000310 40 85 4b 3e 5e fb dc 3d a3 6f 83 be fa dc 3b be
       0.1987505 0.10790132 -0.2567111 -0.18346015
000320 dd 9f 5d bd 16 c0 33 3e 93 26 37 3c 97 50 12 3d
       -0.054107536 0.17553744 0.01117863 0.035721388
000330 54 cb 0a 3e 8a 16 50 3d 99 1c 40 3d ce 0f 27 3e
       0.13554126 0.050802745 0.046902273 0.16314623
000340 d5 dc 8a bd 90 f4 3d bd 17 49 c9 3d 93 70 60 3e
       -0.067804016 -0.04637581 0.09828394 0.21917944
000350 c7 5f 8b be c5 40 05 be ec f8 0a bd b3 f8 99 3e
       -0.2722151 -0.13012989 -0.033928797 0.30072555
000360 06 9f 87 3e ec ac fc bd 21 79 8a be c0 0d 2e be
       0.26488513 -0.1233767 -0.2704554 -0.16997433
000370 cb 45 9c 3e e2 e2 04 3d 81 71 5c be 38 06 46 3e
       0.30521998 0.032442935 -0.21527673 0.1933831
000380 de 71 7b bd 13 da 01 3d 8d 2c 80 3e 47 44 12 be
       -0.06138789 0.031702112 0.2503399 -0.14283858
000390 6d 8e 88 3e e8 10 8e be 12 bd 81 3e f0 dd cb 3d
       0.26671162 -0.27747273 0.25339562 0.099544406
0003a0 d2 27 58 3e 15 6a c9 bd 33 21 2f bd e1 10 5a 3e
       0.2110894 -0.09834687 -0.04275627 0.21295501
0003b0 1c af cb bd d4 c5 79 be 38 10 d0 bd 93 eb 8a be
       -0.09945509 -0.24391872 -0.101593435 -0.27132854
0003c0 c4 04 df 3d d0 dd bd bd e9 b9 b6 3d 7f 8e 90 be
       0.10889581 -0.09270823 0.08922178 -0.28233716
0003d0 62 cd 67 be 51 32 79 be 42 f3 91 3e 98 e2 d4 3d
       -0.22636941 -0.243356 0.28505903 0.10394782
0003e0 80 b6 9c 3d 79 64 8d 3e bb 68 2f 3d 1d dd 2a 3e
       0.076519966 0.27615717 0.042824488 0.1668591
0003f0 34 ed 16 be 7b e4 63 bd f6 93 05 bc 11 8f 98 be
       -0.14738923 -0.055637818 -0.008152952 -0.2979665

output_layer.weight f4 [2, 512]
000000 78 48 bb bc cb dd e7 3c 76 97 a6 3b 6a cc 8d 38
       -0.022861704 0.028304001 0.0050839735 6.761479e-05
000010 2e 96 b2 bd f0 45 7d bd f8 eb 85 bd 63 93 b6 bd
       -0.08720051 -0.061834276 -0.06539148 -0.089148305
000020 aa 34 3f 3c 65 8e 3a 3d e8 93 b8 bd f3 77 09 bd
       0.011670271 0.045545954 -0.09012586 -0.033561658
000030 04 18 ba 3d 44 56 c6 bc ee e8 8d 3d cb 1c 58 3c
       0.09086612 -0.024211057 0.069291934 0.0131904585
000040 0b ec 1f 3d ee 15 55 bd 25 f0 34 bd 50 21 f0 3d
       0.039043467 -0.052022867 -0.044174332 0.11725104
000050 4c 0c cb 3d d2 3c 58 bc a9 af 92 bc 6e 6d 28 bd
       0.09914455 -0.013198094 -0.017906027 -0.041119985
000060 07 da 74 3c dd df 9b 3b b2 f0 9d bd 97 84 6c 3d
       0.01494456 0.004756911 -0.077119246 0.057743635
000070 6e e2 2d bd 1c c0 a3 ba 3f 93 66 3c 77 24 0a bd
       -0.04245227 -0.0012493166 0.014073192 -0.03372618
000080 d4 21 37 bd 71 15 2b 3d e0 e6 52 3d ae 40 13 bd
       -0.044709995 0.041768495 0.05148971 -0.035950355
000090 4f b2 49 bd f5 1b 01 bc b5 85 e6 3c 37 74 26 3e
       -0.049242314 -0.007880201 0.028139928 0.1625527
0000a0 8b 59 c9 3c d2 a3 1d 3d 68 d3 78 3d ce 41 a2 3d
       0.02457883 0.03848631 0.060748488 0.079227075
0000b0 f4 2d 8a 3c 49 86 dc 3c 1d a5 00 bd 22 1b 23 bd
       0.016867615 0.0269195 -0.031407464 -0.039820798
0000c0 6c 0c 64 bd 07 23 a5 bc 83 5e 83 bd 9f 24 98 3b
       -0.05567591 -0.020158304 -0.06414511 0.0046430374
0000d0 2a 9b c8 3d e1 37 94 3c d6 c3 9f 3b 86 27 93 3c
       0.0979522 0.018093051 0.0048756404 0.017963182
0000e0 08 8e 88 bb 3c c9 2c 3d 4d 1d a7 3d 9f 7e aa 3c
       -0.004167322 0.0421841 0.081598856 0.02081233
0000f0 2f ba 4d 3d 72 cd 62 3d b2 1d 72 bd 24 98 f3 3d
       0.050226387 0.05537171 -0.05911035 0.11894253
000100 19 e9 72 3c 15 af 04 3d 76 87 f6 bc 95 6a 2f bd
       0.014826083 0.032393534 -0.03009389 -0.042826254
000110 a1 1a 7e 3d ed 94 30 bc 31 3b ce bb 79 e5 59 bd
       0.062037114 -0.010777694 -0.0062936773 -0.053197358
000120 c0 e7 a6 3c 0e 3f ae ba 50 b9 86 3c ba cf 09 bd
       0.020374179 -0.0013293938 0.016445786 -0.03364537
000130 80 d9 63 bd 2b 98 10 3d 68 d6 40 3d 59 63 89 bb
       -0.055627346 0.03530137 0.047079474 -0.0041927514
000140 82 97 f4 3c 60 b8 5e bd c1 00 9d 3c c0 8f 37 bd
       0.0298574 -0.054375052 0.019165399 -0.044814825
000150 41 e7 2c bc 73 43 2b bd 90 a1 c1 3d 8c 80 13 bd
       -0.010553182 -0.04181237 0.09454644 -0.036011264
000160 d6 e3 b5 bd 16 24 5b bd e3 d7 a7 3c 2d c5 0d bb
       -0.08881347 -0.05350121 0.020488685 -0.0021632419
000170 3f ce 48 bc ca 43 21 3e 4a a7 58 3d 29 fb 3b bc
       -0.012256204 0.15748516 0.052893914 -0.0114734555
000180 20 76 08 bd a9 c2 5a bd cf cc 3d 3c f7 aa f0 bd
       -0.033315778 -0.0534083 0.011584475 -0.11751359
000190 c3 0a 26 3d 68 ac d6 bc 69 4a 1e bd c7 3f 39 bd
       0.040537607 -0.026205257 -0.03864518 -0.04522684
0001a0 c8 f0 ac 3d b4 4b cd 3c e4 3e 81 3c c2 85 ee 3b
       0.08444363 0.025060512 0.015777059 0.007279129
0001b0 c4 0d 3d bd 7b b3 75 3c 01 55 02 bd 7e fa f3 3a
       -0.046155706 0.014996405 -0.031819347 0.0018614081
0001c0 8f 5d 83 bd 32 6d be ba a8 b6 68 bc c1 38 1e bd
       -0.06414329 -0.0014528392 -0.014203705 -0.038628343
0001d0 85 26 b3 3c fc 9b 20 bd ea 83 e9 bc c3 5e 93 3b
       0.021868953 -0.03921126 -0.028505284 0.0044973805
0001e0 da 9d 42 bd dc 49 b4 3b 0d 63 2d 3c 1a be 91 bc
       -0.04751382 0.005501969 0.010582698 -0.017790843
0001f0 f4 ad b0 3d 12 54 b3 3c 86 bc 09 bd 28 0a b6 3c
       0.08626929 0.021890674 -0.033627056 0.02222164
000200 da 06 44 bd e3 b7 56 bd db ed cb bc bb 4e 7d 3c
       -0.047858097 -0.05242146 -0.024893692 0.015460665
000210 b1 4b d4 3b 39 29 11 bd aa 15 f2 bc 7d 79 85 bc
       0.0064787497 -0.035439704 -0.029551346 -0.016293282
000220 7f d2 bb 3c 25 cb 48 bc 55 cb d6 3b 3f f3 ba 3c
       0.02292752 -0.012255465 0.006555001 0.022821067
000230 8a 59 29 bd bd cd 86 3c c9 18 ac bd ef dc 1a 3d
       -0.041345157 0.016455526 -0.08403165 0.037808355
000240 55 24 a4 3c 50 d9 82 bb 73 ee 7a bd 53 1d 17 bd
       0.020036856 -0.003993191 -0.06126256 -0.0368932
000250 8e 1b 8d 3b b4 ce 69 bc b4 24 ad bc 1f 82 6d bc
       0.0043062633 -0.014270473 -0.021135665 -0.014496355
000260 28 2e 04 be 02 0c 10 bd e8 6b a8 bd 71 e1 d9 bc
       -0.12908232 -0.0351677 -0.082237065 -0.026596757
000270 be a1 41 bd 15 49 ea bc 15 01 0e 3e d3 3f 8e bd
       -0.04727339 -0.028599301 0.138676 -0.06945767
000280 16 88 a3 bd b0 e0 45 3b ab 07 80 bd 9f 7b 3f 3c
       -0.07984941 0.0030193739 -0.062514625 0.011687188
000290 a5 75 8a 3c ca e8 6b bb 4e c8 2b 3d d7 73 97 bd
       0.0169018 -0.0035996907 0.041939072 -0.073951416
0002a0 26 55 73 3d f2 00 84 bd 3e ac 79 3d 94 61 41 bc
       0.059407376 -0.06445493 0.06095528 -0.01180305
0002b0 e4 4b d9 3d 20 ae 41 bc e6 c6 69 ba 64 e2 b2 3c
       0.10610178 -0.0118213 -0.0008917883 0.021836467
0002c0 78 3e b5 3d 6b d5 a8 bc e6 c5 b0 3b e9 08 37 bd
       0.088498056 -0.020609578 0.005394685 -0.04468623
0002d0 29 94 85 bd e2 00 e5 bc 9e 51 df bd a1 bc 76 bc
       -0.065224 -0.027954523 -0.10904239 -0.015059621
0002e0 d1 4d d6 3c 63 26 f6 3d ed 1a 3d 3c fb 4b 2f 3d
       0.026160153 0.120190404 0.011542064 0.04279707
0002f0 01 ee a9 bd aa d7 b2 bc 63 f1 5a bd a4 d5 a0 bc
       -0.08297349 -0.021831352 -0.05345286 -0.019633122
000300 bf ef 03 3d a0 3a 35 3d 10 33 09 bd 02 3f 85 3c
       0.03221106 0.044245362 -0.033495963 0.016265396
000310 d1 a1 bd bc 47 01 c2 bc 60 4f bd bc 78 48 66 bb
       -0.02314845 -0.02368225 -0.023109138 -0.003513841
000320 81 f1 5c bc d9 7f 07 3c ff ee 76 bd 5b 15 af 3c
       -0.013485313 0.008270227 -0.06028652 0.021372488
000330 a6 5d 61 bd 3b a1 3e bd e5 bd b7 bb e1 3c c7 bc
       -0.05502095 -0.04654048 -0.005607354 -0.024321022
000340 ad 73 16 3d ae 24 05 bc 4b 96 8d 3d 47 ce 3e bd
       0.03673141 -0.008126421 0.06913432 -0.04658344
000350 6b c2 cd bc 77 db 07 bb b1 81 0d bc 9d e2 de bc
       -0.02511712 -0.0020730176 -0.008636878 -0.027207667
000360 6c 24 a8 bd 04 e4 b2 bc eb 62 15 3d ef 21 de 3d
       -0.08210072 -0.021837242 0.03647129 0.10846316
000370 68 8f f1 bc 59 1b 5c 39 d8 7f 4c bd 47 36 ce 3c
       -0.029487327 0.00020991023 -0.04992661 0.025172366
000380 a5 02 c6 bc 33 de 7a 3d f8 b2 e4 3c f4 58 06 3d
       -0.024171183 0.061247062 0.02791737 0.032799676
000390 2f 66 1b 3d 24 bb 89 3d fe ca a8 bd 4b 2e 8a 3d
       0.037939247 0.06725147 -0.08241843 0.06747111
0003a0 c3 fa 04 3d e4 fd 2f bd 41 65 28 3d c7 1b 11 3e
       0.032465708 -0.04296674 0.04111219 0.14170752
0003b0 21 bf b7 bd 1f a5 9c bc a5 fe 19 3d e8 ca c5 3d
       -0.08972002 -0.019121705 0.037596364 0.09657842
0003c0 8b 28 1c 3d 9e 62 d0 bd f5 8f 8a bd cf 4f 2e bc
       0.038124602 -0.1017506 -0.06765739 -0.010639145
0003d0 38 3c 1f bd 05 91 9a 3b 6e 39 5e bd 0c cb 45 3d
       -0.03887579 0.0047169947 -0.054253988 0.048289344
0003e0 b6 9e a7 3b 53 d8 e5 3c 37 d8 2c bd 9b ba a4 bd
       0.0051153554 0.028057253 -0.042198386 -0.08043405
0003f0 5e 9e 1c 3c d6 93 28 3d a7 7b 26 bd 12 2d 4d 3d
       0.009559242 0.041156612 -0.040645268 0.05009181

output_layer.bias f4 [2]
000000 98 84 76 bd 5c 9f 03 3d
       -0.060185045 0.0321344
