summit/benchmarks/models/reizman_suzuki_case_4/reizman_suzuki_case_4_predictor_3.pt (torch, 30175 bytes, 4 tensors)

input_layer.weight f4 [512, 11]
0	0xbe629248	-0.22126114
1	0x3de0894f	0.109636895
2	0xbd935ae4	-0.071950704
3	0x3df69311	0.120397694
4	0xbd44ad19	-0.04801664
5	0xbdd07b12	-0.10179724
6	0x3dbee0e9	0.09320242
7	0x3e738db3	0.23784523
8	0x3d84faa7	0.06493121
9	0xbe881750	-0.26580286
10	0x3dbd0251	0.092289574
11	0x3d590731	0.052985374
12	0x3e005447	0.1253215
13	0x3e01976c	0.12655419
14	0xbe6bd245	-0.2302943
15	0xbe5293e2	-0.20564225
16	0x3d6c73c1	0.05772758
17	0xbe89eb1c	-0.26937187
18	0x3e866c29	0.26254395
19	0x3e99029a	0.29884797
20	0x3c03108e	0.007999552
21	0xbe6d09f4	-0.23148328
22	0x3e1f0083	0.15527539
23	0x3e99eee2	0.30065066
24	0x3dbc7a25	0.09202985
25	0x3e0c587e	0.13705632
26	0x3c8e9ed8	0.017409727
27	0x3d184d75	0.037183244
28	0x3e93a53e	0.28837007
29	0x3da87fe8	0.08227521
30	0xbda7188d	-0.081589796
31	0xbe9095f1	-0.28239396
32	0x3e94e106	0.2907793
33	0x3e205f6e	0.15661404
34	0xbd48d87d	-0.049034584
35	0x3dad4f2e	0.08462368
36	0x3e2d6c23	0.16935782
37	0xbe827899	-0.25482634
38	0x3dff1c6a	0.124565914
39	0x3e62e2e2	0.22156861
40	0x3e7260fa	0.23669806
41	0xbe7426f6	-0.23842987
42	0xbe2cc16b	-0.16870658
43	0x3e8bf5a1	0.27335837
44	0xbe8cb715	-0.2748343
45	0xbe4e6891	-0.20157076
46	0x3e0b44ba	0.13600436
47	0xbe6a32b9	-0.22870912
48	0x3d95d91f	0.07316803
49	0x3e2f2f78	0.17107952
50	0xbe97bb7f	-0.29635236
51	0x3dff6843	0.12471058
52	0xbd4b21f8	-0.049592942
53	0x3de35ebb	0.11102053
54	0xbe54b0cc	-0.20770568
55	0x3e31be7b	0.17357819
56	0x3daa8ebb	0.08328005
57	0xbe4d7a80	-0.20066261
58	0xbde57728	-0.11204368
59	0x3dc08fbc	0.09402415
60	0xbe50b08a	-0.20379844
61	0x3e89eb8d	0.26937523
62	0xbe52c966	-0.2058464
63	0x3e5b45f8	0.2141341
64	0x3c93697d	0.017994637
65	0xbce6e641	-0.028185965
66	0x3a6e6d9f	0.00090953143
67	0xbe2a6b6c	-0.1664254
68	0xbd090f07	-0.033461597
69	0x3e8a242f	0.2698073
70	0x3e8f2b16	0.2796256
71	0xbd6fdec6	-0.058562063
72	0xbe4fae20	-0.20281267
73	0x3d937dab	0.07201704
74	0xbe34afeb	-0.17645232
75	0x3db4dc33	0.08831062
76	0x3d6cc424	0.05780424
77	0x3def0922	0.11671664
78	0xbe29b140	-0.16571522
79	0x3e717087	0.23578082
80	0x3c1d80a8	0.009613194
81	0x3e8ca23a	0.2746752
82	0xbd9212e8	-0.07132512
83	0xbe8b2f28	-0.27184415
84	0xbe467909	-0.19382109
85	0x3e8dda90	0.27705812
86	0x3c55a1a0	0.013039023
87	0x3e6af894	0.22946388
88	0xbc3b8292	-0.011444705
89	0x3de92b5e	0.11385225
90	0xbdcce81c	-0.10005209
91	0xbe81aa61	-0.253253
92	0xbde7331b	-0.112890445
93	0x3e436c62	0.19084314
94	0x3db73c9b	0.089471065
95	0xbdbfc506	-0.09363751
96	0xbe61d9c2	-0.22055724
97	0x3da98fa2	0.08279349
98	0xbd74e6df	-0.05979049
99	0xbdca67ef	-0.09883105
100	0xbcfde099	-0.030990886
101	0x3e93b54c	0.28849256
102	0x3bda1059	0.006654781
103	0x3d3f5719	0.046713922
104	0x3dd286f4	0.102796465
105	0xbe903b41	-0.28170207
106	0x3c5735c2	0.013135375
107	0xbe1ff59d	-0.15621038
108	0x3d987d60	0.074457884
109	0x3e832f4e	0.25622028
110	0xbe90b0f2	-0.2826
111	0xbe862e26	-0.26207083
112	0x3e991835	0.2990128
113	0x3e8e2353	0.27761325
114	0x3c20b4af	0.009808703
115	0x3e315d72	0.17320803
116	0x3ca0f4e5	0.019648025
117	0x3d86b6fd	0.06577871
118	0xbe966804	-0.29376233
119	0x3df1ca1f	0.1180613
120	0xbe624256	-0.22095618
121	0xbe92afb7	-0.28649685
122	0xbe307642	-0.17232612
123	0xbe4bff71	-0.19921662
124	0x3e8d37b3	0.27581558
125	0xbd993afc	-0.074819535
126	0x3e2e9ed4	0.17052776
127	0xbda2c29b	-0.07947274
128	0xbc34a0e1	-0.011024685
129	0x3e9b0c3c	0.30282772
130	0xbd15b908	-0.036553413
131	0xbe875c0b	-0.2643741
132	0xbe07568a	-0.13216606
133	0xbe59f094	-0.2128318
134	0x3d056003	0.032562267
135	0x3db0383f	0.08604478
136	0x3e0e08ad	0.13870497
137	0x3e8b1136	0.27161568
138	0xbda4cbe9	-0.08046705
139	0xbe83f05c	-0.25769317
140	0xbe664e36	-0.22490773
141	0xbdf6cff3	-0.12051382
142	0xbe272c24	-0.16325432
143	0xbe0a9df3	-0.13536815
144	0x3e119e4c	0.14220542
145	0x3db9dfd0	0.09075892
146	0x3e9574ee	0.29190773
147	0xbe2f4db4	-0.17119485
148	0xbe25fc6d	-0.16209574
149	0x3dfc18c3	0.123094104
150	0xbc9036e0	-0.017604291
151	0xbdfe9a02	-0.124317184
152	0x3c18eae0	0.009333342
153	0x3a8d47ce	0.0010778846
154	0x3e8ba34c	0.27273023
155	0xbe88bb81	-0.26705554
156	0xbdde6475	-0.108590044
157	0x3e25896c	0.16165704
158	0xbdc045ba	-0.09388299
159	0xbe185ecc	-0.14879912
160	0x3e56fa8c	0.20994014
161	0x3dc8c882	0.09803869
162	0xbd907535	-0.070536055
163	0x3cf3921f	0.029732762
164	0xbe6d11a4	-0.2315126
165	0x3e39e12d	0.18152304
166	0xbe62aa90	-0.22135377
167	0xbe76e504	-0.241108
168	0x3e5adb0e	0.21372625
169	0x3d49661f	0.049169656
170	0x3db28226	0.0871623
171	0x3e5faea5	0.21843965
172	0xbe51c988	-0.20487034
173	0xbdc0a2dd	-0.09406064
174	0x3e662543	0.22475152
175	0xbe22b4f9	-0.15889348
176	0x3e8b0da6	0.2715885
177	0x3de81f18	0.11334056
178	0x3dd4d342	0.10391857
179	0xbcbc60b1	-0.022995325
180	0x3dedf6a8	0.116193116
181	0xbcf64bca	-0.030065436
182	0xbe83a111	-0.2570882
183	0x3d9494e8	0.07254964
184	0x3e1f9b37	0.15586554
185	0x3e41500b	0.1887819
186	0x3e7fc94c	0.24979132
187	0x3e0e7cbc	0.1391477
188	0x3e1bcb17	0.15214191
189	0x3e2fbb9e	0.17161414
190	0xbe404127	-0.18774854
191	0x3de40aec	0.11134896
192	0xbe755e0e	-0.2396166
193	0xbdd60c28	-0.10451537
194	0xbe5dc198	-0.21655881
195	0x3d9ba542	0.0759988
196	0x3e4eb7b2	0.20187262
197	0x3d6df30f	0.058093127
198	0x3e6cb0da	0.23114339
199	0xbe0548a6	-0.13015994
200	0xbd4c9a00	-0.049951553
201	0xbdb2e859	-0.08735723
202	0x3e9a0fdb	0.30090222
203	0x3e313490	0.17305207
204	0xbe4d4b22	-0.20048192
205	0xbe1f7872	-0.1557329
206	0xbcd530f2	-0.026024316
207	0x3d4f9255	0.050676662
208	0xbe23d7d2	-0.16000298
209	0x3e15b1df	0.14618634
210	0x3e1cd650	0.15316129
211	0x3e3462f6	0.17615876
212	0xbe569349	-0.20954622
213	0x3e53eece	0.20696566
214	0x3dc66055	0.096863426
215	0x3dad7f8d	0.08471594
216	0x3e9465aa	0.28983814
217	0x3c203949	0.009779283
218	0x3e3d4d14	0.18486434
219	0xbe79f17b	-0.24408524
220	0x3d383dc0	0.044980764
221	0xbe4ab7f3	-0.19796734
222	0xbe45d420	-0.193192
223	0x3c3580a4	0.011078034
224	0x3da33350	0.079687715
225	0xbdbc4fb9	-0.091948934
226	0x3e189fcf	0.14904712
227	0x3e71ff97	0.23632656
228	0xbe4fb48b	-0.20283715
229	0xbe0a5f68	-0.13512957
230	0xbd87cd55	-0.06630961
231	0xbdd1c3cb	-0.10242423
232	0xbc644fe1	-0.01393506
233	0xbe89e15a	-0.26929742
234	0x3d938005	0.07202152
235	0xbe093220	-0.13398027
236	0x3ae593ed	0.0017515399
237	0x3dd9f657	0.10642689
238	0x3dd5084e	0.104019746
239	0x3e1231fa	0.14276877
240	0xbe6511c1	-0.22370054
241	0xbdf9ae7a	-0.12191482
242	0x3d266e8a	0.040632762
243	0xbe582c51	-0.21110655
244	0x3e420a68	0.18949282
245	0xbe8d1b1c	-0.27559745
246	0x3e699424	0.22810417
247	0x3e8de167	0.2771103
248	0xbe47a4cc	-0.19496459
249	0xbb8187fc	-0.003952978
250	0xbe5b1676	-0.21395287
251	0xbe952004	-0.29125988
252	0xbe8afcd8	-0.2714603
253	0xbd9c8a88	-0.0764361
254	0x3dc65a6c	0.09685215
255	0x3dfc56d1	0.123212464

input_layer.bias f4 [512]
0	0x3e62277d	0.22085376
1	0x3dbc94e5	0.09208087
2	0x3e3251e9	0.17414059
3	0xbc9ce0dd	-0.019150192
4	0xbe799748	-0.24374115
5	0xbd51c531	-0.051213447
6	0x3de8d67c	0.11369035
7	0xbe76542f	-0.24055551
8	0x3e9aa4ad	0.30203763
9	0xbe8c350c	-0.27384222
10	0xbe585aec	-0.21128434
11	0xbdcd9c44	-0.10039571
12	0x3e1e155a	0.15437832
13	0xbe6fe291	-0.23426272
14	0x3ddb20ff	0.10699653
15	0x3e8cf034	0.2752701
16	0xbdff4c63	-0.124657415
17	0xbd22934b	-0.03969125
18	0xbceb20cf	-0.028702168
19	0x3d86e7c2	0.06587173
20	0x3e8c5116	0.27405614
21	0x3e34bfea	0.17651334
22	0x3e898271	0.2685733
23	0xbda79d84	-0.081843406
24	0xbe61ecce	-0.2206299
25	0x3e721e54	0.23644382
26	0x3ca46386	0.020066988
27	0xbe835009	-0.25647
28	0xbe196cd0	-0.14982915
29	0x3e27dc68	0.16392672
30	0xbd9981c0	-0.07495451
31	0x3e46644c	0.19374198
32	0x3d1abbdb	0.03777681
33	0xbe76af5d	-0.24090333
34	0xbe342e55	-0.175958
35	0xbc84a149	-0.016190188
36	0x3e8c0faa	0.273557
37	0xbe831738	-0.25603652
38	0xbe40a61f	-0.1881337
39	0x3e51066f	0.2041261
40	0x3e84436d	0.25832692
41	0x3e4ee6fe	0.20205304
42	0x3cf64b8c	0.03006532
43	0x3d125cb9	0.03573296
44	0xbe1a3b9c	-0.15061802
45	0xbbac1815	-0.0052518942
46	0x3e18fbab	0.14939754
47	0x3dbf3d86	0.093379065
48	0xbd080eda	-0.03321729
49	0x3e64225d	0.22278734
50	0xbe92611b	-0.2858971
51	0x3d9d774d	0.076887704
52	0x3e68c018	0.22729528
53	0xbe10a4d0	-0.14125371
54	0x3e2314ab	0.15925853
55	0x3e3ed84e	0.18637201
56	0xbe47ad23	-0.1949964
57	0x3e7c8884	0.24661452
58	0x3da4e7b4	0.08052006
59	0xbd8d6bdc	-0.06905338
60	0xbe225b9a	-0.15855256
61	0xbe490b82	-0.19633296
62	0xbe14f031	-0.14544751
63	0x3e3a83e7	0.18214379
64	0xbd0a9d9b	-0.03384171
65	0xbcff838d	-0.031190658
66	0x3e8cf251	0.27528623
67	0xbc81beb3	-0.015838003
68	0xbe92ab4e	-0.2864632
69	0xbe640ba7	-0.2227007
70	0x3def3fb0	0.11682069
71	0xbe671d3b	-0.22569744
72	0xbe51da4e	-0.20493433
73	0xbe91c7dc	-0.28472793
74	0xbe2ecf93	-0.17071371
75	0xbda0c4c2	-0.078500286
76	0x3db3cdf0	0.08779514
77	0xbe94fb84	-0.2909814
78	0x3e812c40	0.25229073
79	0xbe989de2	-0.29807955
80	0xbc138907	-0.009004838
81	0xbc793d98	-0.015212439
82	0xbdc1cbe7	-0.094627194
83	0x3e6ca790	0.23110795
84	0xbe4dbd40	-0.20091724
85	0xbd865867	-0.0655983
86	0xbe58a190	-0.21155381
87	0xbe91dffe	-0.28491205
88	0x3e5cd618	0.21566045
89	0x3e3b8622	0.18312886
90	0xbe5accf8	-0.21367252
91	0x3e35611c	0.17712826
92	0x3e81a3d7	0.25320312
93	0x3d90e55d	0.070749976
94	0xbe653f6f	-0.22387479
95	0xbdad208e	-0.08453475
96	0x3e02c028	0.12768614
97	0xbe121f0e	-0.14269659
98	0x3e39685b	0.18106215
99	0xbe08deec	-0.13366288
100	0xbe88e3ce	-0.267363
101	0xbdd067ed	-0.10176072
102	0x3b8cec3f	0.0043006237
103	0xbddb1685	-0.10697655
104	0x3cf8c986	0.030369531
105	0x3d8f8cd2	0.07009281
106	0xbe90708b	-0.28210863
107	0x3b84bd12	0.0040508593
108	0x3e87230a	0.2639392
109	0xbe8aa631	-0.2707992
110	0x3db52459	0.088448234
111	0x3c57ff89	0.013183483
112	0x3e888d51	0.26670316
113	0xbe21815e	-0.15772006
114	0x3d84ed34	0.064905554
115	0xbd9003e2	-0.070319906
116	0x3e8a9078	0.27063346
117	0xbe0ffc07	-0.14060985
118	0x3e857bd1	0.26071027
119	0x3e83dcef	0.25754496
120	0x3e89cf7a	0.26916105
121	0xbe8b491e	-0.2720422
122	0x3e83453f	0.25638768
123	0xbe41a4e9	-0.18910564
124	0x3e37b04e	0.17938349
125	0x3e735332	0.23762205
126	0xbd4a1f19	-0.049346063
127	0xbe8a8315	-0.27053133
128	0xbe6cb91e	-0.23117492
129	0x3c94aca6	0.018148731
130	0x3e8781bb	0.26466164
131	0xbb4666d2	-0.0030273688
132	0x3e93a7b0	0.28838873
133	0x3e2da482	0.16957286
134	0x3dfe4789	0.12415988
135	0x3e3a4dbd	0.18193717
136	0xbdb3aae8	-0.08772832
137	0xbda509b7	-0.080584936
138	0x3d443d26	0.04790988
139	0x3e81fff3	0.25390586
140	0x3df59438	0.11991161
141	0x3e90c1ec	0.2827295
142	0xbe50bee4	-0.20385319
143	0xbe14cb6e	-0.14530727
144	0xbe3249d0	-0.1741097
145	0x3e8db270	0.276752
146	0xbd6d141b	-0.057880502
147	0xbe0a4ff9	-0.1350707
148	0x3e1a4bb9	0.15067948
149	0x3e5312a5	0.20612581
150	0xbd84a35b	-0.0647647
151	0x3d0cbaa4	0.034357682
152	0x3c64516f	0.013935431
153	0xbe6bb6fb	-0.2301902
154	0xbd9456c0	-0.07243109
155	0x3d78ec6a	0.060772337
156	0x3e88dda8	0.2673161
157	0xbe1856b0	-0.14876819
158	0xbe44a877	-0.19204889
159	0x3da133f9	0.07871241
160	0xbe35b981	-0.17746545
161	0xbe814aa1	-0.2525225
162	0xbd1a3d08	-0.03765586
163	0x3b35029c	0.0027619964
164	0xbdc768cd	-0.09736786
165	0x3e4e59e1	0.20151474
166	0x3e13a858	0.14419687
167	0xbdb4af85	-0.0882254
168	0x3dd1526a	0.10220797
169	0xbe85957b	-0.26090607
170	0x3e43a902	0.1910744
171	0x3e2883b2	0.16456488
172	0x3d10817b	0.035279732
173	0xbda1ba53	-0.07896867
174	0x3d3abed4	0.045592144
175	0xbe05377a	-0.13009444
176	0x3dda35b4	0.10654774
177	0x3dff1c87	0.12456613
178	0xbcdf434c	-0.02725377
179	0x3c26e987	0.010187513
180	0xbe9943ee	-0.2993464
181	0xbe8318d3	-0.25604877
182	0x3db6ee5e	0.08932184
183	0x3e6e0b46	0.23246488
184	0x3e04f5f5	0.1298445
185	0x3e7228bb	0.2364835
186	0xbe4407b2	-0.1914356
187	0x3c2725a1	0.0102018425
188	0xbe6f38cf	-0.23361515
189	0x3dcc350f	0.099710576
190	0xbe018974	-0.1265009
191	0x3e69fe4c	0.22850913
192	0x3e3cd087	0.18438922
193	0x3e09be1d	0.13451429
194	0x3e8f1cbf	0.2795162
195	0xbe690a9b	-0.22757952
196	0xbe3f2155	-0.18665059
197	0xbe87d40d	-0.2652897
198	0xbdd4b61f	-0.10386299
199	0x3e3f4298	0.18677747
200	0x3e8e9083	0.2784463
201	0x3e2b2c7b	0.16716187
202	0x3e84ff9c	0.25976264
203	0xbd034ad4	-0.032053784
204	0xbe2d2f6e	-0.16912624
205	0xbe5fe9ab	-0.21866481
206	0x3c677dba	0.014129097
207	0xbd50ebd5	-0.051006157
208	0xbe2d7c6f	-0.16941999
209	0x3e8c7b17	0.2743766
210	0xbe8dec8f	-0.27719542
211	0x3e4d0225	0.2002035
212	0x3df1905b	0.11795112
213	0x3e77ea25	0.24210413
214	0x3dc4944b	0.09598597
215	0xbe4b82a4	-0.19874054
216	0xbc6dfac1	-0.014525116
217	0xbd452a76	-0.048136197
218	0xbe958782	-0.29204947
219	0x3e817476	0.25284165
220	0xbd8a2fd5	-0.067474045
221	0x3a8b7175	0.0010638671
222	0xbd30b1d6	-0.043138348
223	0xbe830776	-0.2559163
224	0xbe15b6b6	-0.1462048
225	0xbe7b7f3e	-0.24560258
226	0xbe297fc4	-0.16552645
227	0xbe7670fc	-0.24066538
228	0xbae2df4d	-0.001730898
229	0x3e8c5cc8	0.27414536
230	0xbe6d772a	-0.23189989
231	0x3d8fd59c	0.07023165
232	0x3e724cff	0.23662184
233	0xbe645764	-0.22298962
234	0xbdf2d452	-0.11856903
235	0x3df0f7f9	0.11766047
236	0x3e8d4e2d	0.27598706
237	0x3dc779a3	0.09739997
238	0x3cd096cd	0.025462532
239	0x3e08e716	0.13369402
240	0xbe6dab71	-0.23209931
241	0x3b1f477d	0.0024304085
242	0xbdd23c9a	-0.10265465
243	0xbe1b5745	-0.1517001
244	0x3dfdac78	0.123864114
245	0xbd18f5d7	-0.037343826
246	0xbd923046	-0.07138114
247	0x3e77192e	0.24130699
248	0xbe8ba585	-0.2727472
249	0x3e991f87	0.29906866
250	0xbccc0262	-0.02490348
251	0xbd31c46d	-0.043400217
252	0x3e095857	0.13412605
253	0x3e9422cf	0.28932807
254	0xbd89e639	-0.067333646
255	0x3cfbae89	0.030722873

output_layer.weight f4 [2, 512]
0	0x3ca39dcb	0.019972702
1	0xbd2f4c89	-0.0427976
2	0xbd493a0c	-0.049127623
3	0xbc48fa82	-0.012266757
4	0x3d278e8f	0.04090744
5	0x3d10de4d	0.035368253
6	0xbad803c6	-0.0016480617
7	0x3babe1f9	0.005245444
8	0x3d3dc83a	0.04633353
9	0xbcb35694	-0.02189187
10	0x3cefc1d6	0.029267233
11	0xbca8cb71	-0.02060482
12	0x3d487d3f	0.04894757
13	0x3a975aac	0.0011547408
14	0x3d59feda	0.05322156
15	0x3d65938e	0.056048922
16	0xbd9e087f	-0.07716464
17	0x3cfdfab7	0.03100334
18	0xbcbb5907	-0.0228696
19	0xbbdc0a3c	-0.006715087
20	0x3cbdfb7d	0.023191208
21	0xbc2a828c	-0.010407101
22	0x3dbf2fcf	0.09335291
23	0x3c1e1ccb	0.0096504195
24	0xbbc65264	-0.006052302
25	0x3d42cff2	0.047561593
26	0xbcb5f00f	-0.022209195
27	0xbd18f992	-0.037347384
28	0x3ce555de	0.027995046
29	0xbdf974a4	-0.121804506
30	0x3d07f5ff	0.033193585
31	0xbd859a90	-0.06523621
32	0x3ddae42a	0.1068805
33	0xbc1fd238	-0.00975471
34	0xbcbaf8b2	-0.022823665
35	0x3d6956a2	0.056967385
36	0xbd021744	-0.03176047
37	0xbd82d454	-0.063881546
38	0xbd040696	-0.032232843
39	0xbd67d992	-0.056603976
40	0x3ca563cd	0.02018919
41	0xbd1a2c0a	-0.037639655
42	0xbbf8fab5	-0.007598246
43	0x3cb2adfb	0.021811476
44	0xbce076ea	-0.027400453
45	0xbcbd0640	-0.02307427
46	0x3d5e41e4	0.054262057
47	0x3d3e3db1	0.046445552
48	0x3bcd6e30	0.006269239
49	0xbda73e94	-0.08166233
50	0xbd366313	-0.04452808
51	0x3d41c24f	0.047304448
52	0xbd7fb952	-0.062432595
53	0x3da5d412	0.0809709
54	0xbd9d68c1	-0.07685996
55	0x3d81fa81	0.06346608
56	0xbcf608d4	-0.030033506
57	0x3c802fc1	0.01564777
58	0x3cc6f1eb	0.024285277
59	0x3d36c996	0.04462584
60	0x3d8b103e	0.06790207
61	0xbd4cd51d	-0.05000793
62	0xbd2d47f7	-0.04230496
63	0x3bbdcf04	0.0057925005
64	0xbaaf4275	-0.0013371246
65	0x3c758cb3	0.014987159
66	0x3cc77408	0.02434732
67	0x3d1f5186	0.038896106
68	0xbd21cbbd	-0.03950094
69	0xbdea4373	-0.11438646
70	0x3c744164	0.014908168
71	0xbd29561b	-0.041341882
72	0x3b96c921	0.004601613
73	0x3cff541f	0.031168042
74	0x3d919766	0.07108955
75	0xbd03a560	-0.032140136
76	0xbcf0e014	-0.029403724
77	0x3d8813e1	0.066444166
78	0xbd6ace86	-0.057325862
79	0xbca1969b	-0.019725135
80	0xbc2ba013	-0.010475176
81	0x3d811502	0.06302835
82	0xbcb3f2a2	-0.021966282
83	0x3c1a8a6c	0.009432416
84	0x3ddfec26	0.109337136
85	0xbd2694b0	-0.040669143
86	0xbbcc6276	-0.0062373234
87	0xbb8013ed	-0.0039086253
88	0xbd57c0d7	-0.05267414
89	0x3da5f268	0.08102876
90	0xbd8f691b	-0.07002469
91	0xbd7b0ee4	-0.061293498
92	0xbca5a49f	-0.020220099
93	0x3cd9b12e	0.026573744
94	0xbc2cd4aa	-0.01054875
95	0xbce7a14b	-0.028275153
96	0xbd4ede26	-0.050504826
97	0x3d10fa2e	0.03539484
98	0x3da73c8e	0.08165847
99	0xbb0c9c10	-0.0021455325
100	0xbd1d282c	-0.03836839
101	0x3c708de6	0.014682269
102	0xbc9d9457	-0.019235773
103	0x3d331c2a	0.04372803
104	0xbbfaf0cd	-0.0076581
105	0xbda38c80	-0.079857826
106	0x3cd977e3	0.026546424
107	0xbcca10f8	-0.024666294
108	0x3b636c77	0.0034702101
109	0xbb869758	-0.004107397
110	0xbd1210b8	-0.035660475
111	0x3d29b5f7	0.0414333
112	0xbd74d843	-0.059776556
113	0xbd70f5bf	-0.05882811
114	0xbc1046aa	-0.00880591
115	0xbd6d49e7	-0.057931807
116	0x3d365aa8	0.04452005
117	0xbd611ae2	-0.054957278
118	0xbd02a03c	-0.031891093
119	0x3cf753a8	0.030191258
120	0xbd1f8b95	-0.038951475
121	0xbb1fab55	-0.0024363596
122	0xbcf9e991	-0.030506881
123	0xbd5b375a	-0.053519584
124	0xbc0b86a0	-0.008515984
125	0x3e271755	0.16317494
126	0x3c889566	0.016672801
127	0xbd72900b	-0.0592194
128	0xbbcd1294	-0.006258318
129	0x3dd11d69	0.10210688
130	0x3cc452a5	0.02396519
131	0xbcbc4200	-0.02298069
132	0xbd0bdc5c	-0.034145698
133	0x3e4ef87b	0.20211975
134	0xbe00e280	-0.12586403
135	0x3d3b2461	0.04568899
136	0xbd33fbf6	-0.04394146
137	0x3d55c0f1	0.052185956
138	0xbda02f75	-0.07821552
139	0x3d99f986	0.07518296
140	0xbd026e54	-0.0318435
141	0xbc495cf8	-0.012290232
142	0x3a87a7cf	0.0010349693
143	0xbd490e9a	-0.04908619
144	0x3c8102cf	0.01574841
145	0x3db4f175	0.08835117
146	0x3d96ff7b	0.07372948
147	0xbd62e0c5	-0.05539014
148	0x3ce3eff9	0.027824389
149	0x3d750b2a	0.0598251
150	0xbcd5fc82	-0.026121382
151	0x3d951b87	0.07280641
152	0x3d3394c6	0.043843053
153	0x3c4fc675	0.012681593
154	0x3b4d2ae7	0.003130609
155	0xbc2030dc	-0.009777274
156	0x3d010317	0.031497087
157	0xbd187bcc	-0.037227437
158	0xbba987f8	-0.0051736794
159	0xbd4ded2f	-0.050275024
160	0xbc14c562	-0.009080263
161	0xbd322a0b	-0.043497127
162	0xbd6b25ae	-0.05740898
163	0xbd40da90	-0.047083437
164	0xbd13421a	-0.03595171
165	0x3b67f6da	0.0035394938
166	0x3d108737	0.0352852
167	0x3d188e61	0.037245158
168	0xba59fa3f	-0.00083151826
169	0xbc5c9f8c	-0.013465773
170	0x3c9c297c	0.01906275
171	0xbd605ecc	-0.054777905
172	0xbbe101e0	-0.0068666786
173	0xbd4752bd	-0.04866289
174	0xbdf1e07c	-0.11810395
175	0xbd87344e	-0.06601773
176	0x3d4b5e90	0.04965073
177	0xbd02e54d	-0.03195696
178	0x3cda22ee	0.026627984
179	0xbc9aa62b	-0.018878063
180	0xbd397bf6	-0.045284234
181	0x3ca296ad	0.019847238
182	0xbd05e623	-0.03269018
183	0xbde0575e	-0.10954164
184	0xbd250b30	-0.040293872
185	0x3db78d27	0.089624695
186	0x3b392552	0.0028251004
187	0xbd43cc45	-0.04780223
188	0x3da7e696	0.08198278
189	0xbbc68d73	-0.0060593425
190	0x3db8fd1d	0.090326525
191	0x3cf6a288	0.030106798
192	0xbd74b1aa	-0.059739746
193	0x3c8482b0	0.016175598
194	0xbd4da161	-0.05020273
195	0x3d8ca719	0.06867809
196	0xbc3bc521	-0.011460573
197	0x3c8aea8e	0.016957548
198	0x3cc63abb	0.024197927
199	0x3d926e92	0.07149996
200	0x3c877b47	0.016538275
201	0x3dcc1904	0.09965709
202	0xbc0ac797	-0.0084704375
203	0xbbb93924	-0.0056525636
204	0x3d08c919	0.033394907
205	0x3d5749a9	0.052560482
206	0xbd3af198	-0.045640558
207	0x3d194543	0.03741957
208	0xbd4c4d0d	-0.04987817
209	0x3dc8b901	0.09800912
210	0xbc92a797	-0.017902179
211	0x3c955c62	0.018232528
212	0xbcefb440	-0.029260755
213	0xbbce6375	-0.0062984773
214	0xbc83bdb5	-0.01608167
215	0x3c0ff6b1	0.008786843
216	0x3c7fb547	0.015607185
217	0x3a8b9ddd	0.0010651905
218	0xbcacc9f9	-0.021092402
219	0xbd5403d6	-0.05176147
220	0xbc2ed486	-0.010670787
221	0xbd24a613	-0.040197443
222	0xbd8d0ece	-0.068875894
223	0xbcc0339f	-0.023462115
224	0x3d69260c	0.05692105
225	0xbd00ab7c	-0.03141354
226	0x3c9d65c8	0.019213572
227	0x3c92b6bd	0.017909402
228	0xbd53b679	-0.05168769
229	0xbd87ef36	-0.06637423
230	0xbdb10997	-0.08644407
231	0x3d2b9e7b	0.041899186
232	0x3ddd8e1c	0.10818121
233	0xbd3c7d0c	-0.04601769
234	0xbd6c2645	-0.057653684
235	0xbd5842d7	-0.05279812
236	0x3d9f2c05	0.07772068
237	0x3cb8ea36	0.022572618
238	0xbca1b744	-0.019740708
239	0xbccd37ee	-0.025051083
240	0x3d62d333	0.055377197
241	0x3d80cac3	0.06288674
242	0x3cc1f0b7	0.023674352
243	0x3cc7d44b	0.024393221
244	0xbd50154f	-0.05080157
245	0x3d33fe87	0.043943908
246	0x3dc7d7ec	0.09757981
247	0x3c973990	0.018460065
248	0x3bbf3331	0.00583496
249	0x3d411901	0.047142986
250	0xbddcb2cc	-0.1077629
251	0xbd5546bc	-0.05206941
252	0x3d95963a	0.07304044
253	0x3beac865	0.007165002
254	0xbbfdf44a	-0.007750069
255	0x3ca50ce7	0.020147754

output_layer.bias f4 [2]
0	0xbddd2ab7	-0.10799163
1	0x3cdee20a	0.027207393
