experiments/pl-blitz/lightning_logs/version_6/checkpoints/epoch=9-step=239.ckpt (torch, 33111 bytes, 3 tensors)

blinear1.weight f4 [512, 13]
-0.0006858857 -0.15223773 0.12385299 0.09415579 -0.22380288 -0.067801885 0.17218253 -0.15853025
-0.21965641 -0.0022995763 -0.19199835 0.009102081 -0.13634533 -0.2617175 -0.26367098 -0.020094015
-0.13556372 0.10567683 0.13055964 -0.2050824 0.24150234 0.07346931 0.16468635 -0.0108471885
0.24095404 -0.11229838 -0.21533605 -0.08629856 -0.080857724 0.20135556 -0.046418685 -0.14792244
-0.17684066 0.0063914657 -0.22407284 -0.13228558 0.13235977 -0.264302 -0.07233327 0.021157982
-0.08535027 0.08649679 -0.24477333 -0.1624343 -0.19073853 -0.011229711 0.104084864 0.06938488
0.121469185 0.12217424 0.25438282 0.23865812 -0.21230006 -0.2504146 0.011551999 -0.0354282
-0.16129081 -0.021048456 -0.1866768 0.17818914 -0.18235835 -0.24138086 0.21829826 -0.06068028
-0.24387005 0.23459183 0.14948174 -0.11566711 0.05642811 0.11914942 0.031792108 -0.031767074
-0.029302534 0.22086298 0.18150638 -0.17807925 0.036187813 0.1296031 0.0328484 0.091174915
0.2662777 0.24457586 -0.16901863 -0.055170845 0.08586558 -0.07718794 0.14479305 0.033561166
0.24879594 -0.20064838 0.015053885 -0.13417195 -0.14141695 0.16003202 -0.20726816 0.2556816
-0.12870608 -0.23238303 -0.16776444 0.12630197 0.12505041 -0.13262174 0.043458235 0.16625056
-0.17943527 -0.19245782 -0.1604709 0.06961055 -0.17863238 -0.0134013295 0.25178742 -0.026155438
-0.064822175 0.034268357 -0.02100888 0.22883108 -0.03644612 0.18655136 -0.095949404 0.09092542
-0.11897594 0.024686892 0.0023455496 -0.10312642 -0.24725623 -0.11906723 -0.18697572 0.225805
0.15156123 -0.17038684 0.25025424 -0.24546705 0.09312852 0.14397101 -0.23934865 -0.057699293
0.171766 -0.2159845 0.2501083 -0.24824253 0.1724631 0.17208599 -0.1660309 -0.21194308
-0.23767959 -0.2398918 0.27179387 -0.038394947 -0.0152522465 -0.27652767 -0.17903394 0.24486822
0.0037538416 -0.23694585 0.030077232 -0.24779767 -0.1399397 0.16348806 -0.17899124 -0.04432399
-0.18681705 0.045227233 0.023770371 -0.240744 -0.18201554 0.03705389 -0.24056542 0.08765275
-0.029182186 -0.08190454 0.052283842 0.017756779 -0.0486443 -0.15820387 0.10171111 -0.22749394
-0.12889786 -0.21033007 -0.10997485 0.07625402 -0.031780887 0.124135174 -0.08007374 0.14634474
-0.05393274 0.10310928 0.23663843 0.27394196 0.023022594 0.050870087 0.14367598 -0.14302081
-0.06343785 -0.09286187 -0.10258635 0.19432025 0.08053073 0.11865619 0.27364126 -0.0068123504
0.12790933 0.106662065 -0.14370838 0.17859353 -0.14237228 0.028466504 -0.006807679 -0.027791519
0.021909665 0.091890596 -0.1298832 0.11903316 0.27129084 -0.09732438 0.031875428 -0.21896939
0.020552171 0.17755243 -0.046952225 0.22581182 0.24360071 0.11811589 -0.088552676 0.22651957
-0.27041608 -0.12192693 0.279925 -0.0360295 0.036719996 -0.25615707 -0.21732005 0.20284286
0.17149903 -0.12115555 -0.075956605 -0.025879383 -0.1910659 -0.2600048 -0.20233928 -0.12089214
0.2737701 0.004204214 -0.020813052 0.26687056 -0.011455576 -0.0031750049 -0.1872625 -0.09897283
0.1663781 0.21348126 0.19332741 0.25459555 -0.16573341 0.267878 -0.19222215 -0.24646416
00000000: 03cd 33ba 35e4 1bbe a3a6 fd3d c0d4 c03d
00000010: 952c 65be b7db 8abd 9e50 303e c155 22be
00000020: 9ced 60be 7db4 16bb 379b 44be e520 153c
00000030: 1c9e 0bbe d6ff 85be e2ff 86be 349c a4bc
00000040: 37d1 0abe 186d d83d 6db1 053e 1f01 52be
00000050: 644c 773e 1477 963d 8aa3 283e 68b8 31bc
00000060: a8bc 763e b1fc e5bd 0e81 5cbe 4dbd b0bd
00000070: bc98 a5bd 2730 4e3e 8521 3ebd fb78 17be
00000080: b815 35be 806f d13b 5a73 65be df75 07be
00000090: 5289 073e 9752 87be 7723 94bd 8153 ad3c
000000a0: 1fcc aebd 3b25 b13d dca5 7abe 2d55 26be
000000b0: f650 43be d2fc 37bc 722a d53d a919 8e3d
000000c0: d6c4 f83d 7d36 fa3d 773e 823e cb62 743e
000000d0: 3065 59be 5836 80be 9844 3d3c 291d 11bd
000000e0: 6b29 25be d06d acbc 3428 3fbe 3777 363e
000000f0: 26bc 3abe 8b2c 77be 9489 5f3e e38b 78bd
00000100: 12b9 79be d738 703e be11 193e e1e2 ecbd
00000110: 2921 673d 9c04 f43d 7138 023d 311e 02bd
00000120: de0b f0bc e829 623e cfdc 393e 685a 36be
00000130: ac39 143d adb6 043e 0b8c 063d eab9 ba3d
00000140: 8d55 883e 1872 7a3e 3813 2dbe d3fa 61bd
00000150: 4bda af3d b614 9ebd a144 143e 6f77 093d
00000160: 5dc4 7e3e c576 4dbe 92a4 763c 5f64 09be
00000170: 9bcf 10be 6fdf 233e 1b3e 54be b3e8 823e
00000180: 87cb 03be d1f5 6dbe 71ca 2bbe 4e55 013e
00000190: 370d 003e fecd 07be 4301 323d 963d 2a3e
000001a0: e1bd 37be aa13 45be 7c52 24be fa8f 8e3d
000001b0: 68eb 36be 4091 5bbc 48ea 803e ee43 d6bc
000001c0: 7dc1 84bd fa5c 0c3d d11a acbc b252 6a3e
000001d0: 8748 15bd 5207 3f3e 1f81 c4bd 1b37 ba3d
000001e0: a8a9 f3bd 2a3c ca3c cbb7 193b f233 d3bd
000001f0: bd30 7dbe 85d9 f3bd 9076 3fbe 6d39 673e
00000200: de32 1b3e e379 2ebe 5321 803e b75b 7bbe
00000210: 2aba be3d 236d 133e d017 75be 1856 6cbd
00000220: 6de3 2f3e 0a2b 5dbe 320e 803e 4a33 7ebe
00000230: 2b9a 303e 4f37 303e 0104 2abe 9b07 59be
00000240: 4762 73be 32a6 75be 9128 8b3e 0544 1dbd
00000250: 8fe4 79bc 0995 8dbe ac54 37be bcbe 7a3e
00000260: 0303 763b efa1 72be 8764 f63c acbe 7dbe
00000270: 5a4c 0fbe 6a69 273e 7b49 37be 128d 35bd
00000280: f84c 3fbe 3140 393d 15ba c23c 9885 76be
00000290: 4862 3abe d2c5 173d c856 76be 4983 b33d
000002a0: 7b0f efbc 91bd a7bd 9527 563d aa76 913c
000002b0: 3f3f 47bd 3200 22be ea4d d03d 2cf4 68be
000002c0: cdfd 03be c460 57be 7f3a e1bd 112b 9c3d
000002d0: ad2c 02bd 953a fe3d b3fd a3bd 65db 153e
000002e0: 94e8 5cbd f52a d33d 5851 723e 1f42 8c3e
000002f0: e199 bc3c 275d 503d cc1f 133e 0c74 12be
00000300: b4eb 81bd 5d2e bebd cb18 d2bd e3fb 463e
00000310: 4ced a43d 0402 f33d b51a 8c3e 233a dfbb
00000320: aafa 023e a471 da3d 4a28 13be 39e1 363e
00000330: 0aca 11be 9632 e93c f312 dfbb 0aab e3bc
00000340: e67b b33c 2331 bc3d 1a00 05be a8c7 f33d
00000350: a2e6 8a3e 0152 c7bd cf8f 023d 8339 60be
00000360: 075d a83c 4ed0 353e fa50 40bd 373b 673e
00000370: 7772 793e bee6 f13d 1b5b b5bd bff4 673e
00000380: fa73 8abe d4b4 f9bd 5452 8f3e ab93 13bd
00000390: b567 163d 0527 83be 2689 5ebe 0ab6 4f3e
000003a0: 719d 2f3e 6720 f8bd 238f 9bbd 0001 d4bc
000003b0: c7a6 43be 591f 85be 0732 4fbe 4c96 f7bd
000003c0: 982b 8c3e 81c3 893b 2280 aabc 42a3 883e
000003d0: 2bb0 3bbc be13 50bb bec1 3fbe 44b2 cabd
000003e0: 055f 2a3e d59a 5a3e 9ff7 453e 595a 823e
000003f0: 05b6 29be 4e27 893e e2d5 44be 1a61 7cbe

blinear1.bias f4 [512]
-0.061640315 -0.23529424 0.27468193 0.2280186 -0.17769709 -0.027879044 0.1917773 0.21244724
-0.045738682 -0.15441053 0.27277184 0.15680905 0.18621017 0.011045482 -0.22399281 -0.22000842
0.13574009 0.0521367 0.21659832 0.2111973 0.0726287 -0.251173 0.090397775 0.11151381
-0.023157472 -0.068451084 -0.15784988 -0.026313521 -0.14109857 0.23020613 -0.26342568 0.091603175
-0.14452408 -0.04868768 -0.07831265 0.16076879 -0.1260177 -0.24600671 -0.1676456 -0.22732519
0.25155708 -0.038702827 -0.17522843 -0.24342912 -0.16019091 0.25324342 0.1017205 0.021760898
0.17622142 0.23681487 -0.08958928 -0.23264472 -0.11428294 0.03308848 -0.13943641 -0.06585783
0.20230912 0.015707865 0.19944607 0.1936758 0.26344258 0.142156 -0.091385014 -0.083389565
0.009396302 0.07406677 -0.07050018 0.18890661 -0.0877963 -0.16554561 0.23579979 0.25066316
-0.028261857 0.1314523 -0.08982401 0.014715871 -0.1548913 -0.022186019 0.1137987 0.16550022
-0.18000348 -0.040075332 -0.17460752 -0.028397067 -0.1685874 0.17787717 0.20109883 -0.27571818
-0.25588492 -0.13654222 -0.16612755 -0.012990355 0.06579264 0.09245464 -0.08094829 -0.004320815
-0.015888419 0.11146467 0.24383394 -0.13925457 0.074958235 0.0859461 -0.15412976 -0.0061256457
-0.05538372 0.10132168 -0.1112712 -0.19448331 -0.12052682 0.1508233 -0.1511843 -0.23551653
0.13494778 -0.27553 0.06852848 -0.009002577 -0.15085272 0.022363067 -0.16787021 -0.07156488
-0.12472699 -0.13349822 0.053949066 -0.16892198 0.04404558 -0.18090469 0.21416743 0.07028298
-0.24644183 -0.1106376 0.2159049 0.040995937 -0.054474175 -0.18108734 -0.046259053 -0.09091749
-0.006383088 -0.038669754 -0.20357469 0.122151606 0.24782266 -0.1587746 -0.0848271 -0.044746906
-0.05115652 0.16048235 -0.19247165 0.0015401003 -0.24574848 0.21096647 -0.057716552 -0.1860668
-0.17679223 -0.1495435 0.269911 -0.18637855 -0.2138176 0.02406885 -0.23123921 0.024727235
0.19569716 0.13127148 0.15085107 -0.2569171 -0.27171102 0.011833035 0.2113011 -0.16381373
0.15801315 -0.11126001 0.23707035 0.12524523 0.17318888 0.17365342 0.19018692 -0.27663267
0.10137896 0.092979915 -0.24254094 0.21806136 0.24731018 0.087178156 -0.13319966 0.03422247
0.25307012 -0.04378585 -0.111751564 -0.2593926 -0.25357497 0.26921314 0.18600097 0.10057336
-0.003075555 0.014916657 -0.061714128 0.09349542 0.10380247 0.13452737 -0.11460268 -0.27507275
-0.2525667 -0.09384297 -0.1437263 -0.026419774 -0.14314565 0.08813579 0.08032003 -0.14897251
-0.23904653 0.21281883 -0.065422356 0.12258339 -0.19221619 0.24572235 -0.18519537 0.1915595
-0.23914075 -0.12585364 -0.17498977 0.041628458 0.2176338 -0.25361744 -0.21352719 0.26768336
-0.09215458 0.055219576 0.2744992 0.24749675 0.04768031 -0.07629517 -0.17346208 0.13569477
0.10224093 0.021934943 0.24768612 0.14968628 -0.034437943 0.03267711 -0.090863176 0.060214344
-0.1544885 0.056077577 0.060396064 0.08178848 0.05411512 0.032631967 0.160432 0.12107854
0.14687893 0.10610221 0.17302492 -0.09748877 -0.19385952 -0.13193762 -0.17947485 -0.2100326
00000000: 8e7a 7cbd f9f0 70be 1ca3 8c3e b57d 693e
00000010: 3af6 35be 9862 e4bc 4561 443e c58b 593e
00000020: 7c58 3bbd cb1d 1ebe c0a8 8b3e 8d92 203e
00000030: e1ad 3e3e 1cf8 343c 5f5e 65be e349 61be
00000040: 73ff 0a3e 4b8d 553d f3cb 5d3e 1b44 583e
00000050: 5bbe 943d bf99 80be 7822 b93d 5a61 e43d
00000060: bdb4 bdbc 1530 8cbd 66a3 21be 748f d7bc
00000070: 257c 10be 28bb 6b3e bbdf 86be 729a bb3d
00000080: 1ffe 13be bc6c 47bd 6262 a0bd 93a0 243e
00000090: c90a 01be 2fe9 7bbe 4aab 2bbe efc7 68be
000000a0: 17cc 803e db86 1ebd 156f 33be 7c45 79be
000000b0: 1609 24be 1fa9 813e d652 d03d e943 b23c
000000c0: 6373 343e 997f 723e 967a b7bd 6b3a 6ebe
000000d0: 2d0d eabd c987 073d 6bc8 0ebe 78e0 86bd
000000e0: 1f2a 4f3e c8ad 803c 973b 4c3e f352 463e
000000f0: f2e1 863e 5891 113e 1128 bbbd 26c8 aabd
00000100: f2f2 193c 52b0 973d 6662 90bd bc70 413e
00000110: 8cce b3bd ca84 29be 8075 713e ec56 803e
00000120: 6985 e7bc 6f9b 063e a7f5 b7bd d61a 713c
00000130: d39b 1ebe 74bf b5bc 4b0f e93d e478 293e
00000140: d552 38be 0826 24bd 50cc 32be f7a0 e8bc
00000150: 2da2 2cbe 6f25 363e daec 4d3e ef2a 8dbe
00000160: 5903 83be b9d1 0bbe 571d 2abe 7fd5 54bc
00000170: 4bbe 863d dc58 bd3d 38c8 a5bd a095 8dbb
00000180: 6e28 82bc 9747 e43d 9baf 793e c098 0ebe
00000190: b483 993d 8204 b03d 31d4 1dbe a4b9 c8bb
000001a0: 0ada 62bd be81 cf3d 28e2 e3bd a226 47be
000001b0: c4d6 f6bd 6c71 1a3e 0fd0 1abe 3f2b 71be
000001c0: c02f 0a3e 4512 8dbe a958 8c3d 8b7f 13bc
000001d0: 2379 1abe c032 b73c 2be6 2bbe 9c90 92bd
000001e0: dd70 ffbd c2b3 08be b2f9 5c3d e2f9 2cbe
000001f0: 2369 343d 143f 39be b54e 5b3e 86f0 8f3d
00000200: 3f5b 7cbe f795 e2bd 2d16 5d3e 5beb 273d
00000210: 5020 5fbd f66e 39be 227a 3dbd f332 babd
00000220: 3929 d1bb 2d64 1ebd e275 50be 9f2a fa3d
00000230: 39c5 7d3e cf95 22be d5b9 adbd 8848 37bd
00000240: 8089 51bd 7c55 243e 4a17 45be 31dd c93a
00000250: 7da5 7bbe 9807 583e 3168 6cbd 4c88 3ebe
00000260: 0609 35be ee21 19be c631 8a3e 05da 3ebe
00000270: 00f3 5abe 092c c53c f9c9 6cbe c590 ca3c
00000280: d664 483e 086c 063e b478 1a3e a38a 83be
00000290: b51d 8bbe 59df 413c 515f 583e c9be 27be
000002a0: 33ce 213e 4adc e3bd 92c2 723e 4940 003e
000002b0: 6d58 313e 34d2 313e 5cc0 423e cca2 8dbe
000002c0: c69f cf3d 416c be3d a75c 78be 7a4b 5f3e
000002d0: e13e 7d3e 768a b23d 7e65 08be dc2c 0c3d
000002e0: 6892 813e cb58 33bd 01de e4bd 1bcf 84be
000002f0: 94d4 81be 4ed6 893e 0a77 3e3e 68f9 cd3d
00000300: 408f 49bb fe64 743c f4c7 7cbd 877a bf3d
00000310: 6496 d43d 8bc1 093e cfb4 eabd 56d6 8cbe
00000320: 6c50 81be be30 c0bd fd2c 13be 486e d8bc
00000330: c694 12be 8980 b43d d47e a43d 408c 18be
00000340: 9dc8 74be 2eed 593e 28fc 85bd 000d fb3d
00000350: 52d4 44be a49e 7b3e dba3 3dbe 2c28 443e
00000360: 50e1 74be c7df 00be 8530 33be 9a82 2a3d
00000370: 65db 5e3e 25da 81be dfa6 5abe cb0d 893e
00000380: 8abb bcbd ec2d 623d 298b 8c3e ca6f 7d3e
00000390: 6e4c 433d a440 9cbd 0ba0 31be 92f3 0a3e
000003a0: b163 d13d e9b0 b33c 6ea1 7d3e 5c47 193e
000003b0: cd0e 0dbd 6fd8 053d 7916 babd 51a3 763d
000003c0: 3c32 1ebe 9ab1 653d dd61 773d b880 a73d
000003d0: d1a7 5d3d 19a9 053d 4948 243e 07f8 f73d
000003e0: 6e67 163e 1e4c d93d 722d 313e 31a8 c7bd
000003f0: 1c83 46be a81a 07be 41c8 37be c912 57be

blinear2.weight f4 [1, 512]
0.018241238 0.034336798 -0.021035701 -0.028110893 0.03934055 -0.033667624 0.004144628 -0.052039765
0.02488599 0.034805052 0.032337394 0.055563264 0.006397894 0.04787117 0.042378955 0.029429952
-0.03733749 0.0361959 -0.0070238146 0.017569441 -0.00050032226 -0.016467018 0.03747803 0.0033120166
-0.013727205 0.031880174 -0.0416985 -0.056296773 0.028925907 0.0058466084 0.03748892 -0.007272676
0.03607244 -0.030206863 0.029866667 -0.0032702954 0.0036872076 0.03590262 0.0055075097 -0.0013491728
0.019513212 -0.046665564 -0.013982346 -0.023800965 -0.00670888 -0.05430727 -0.010528745 -0.035822265
-0.03505534 0.0065549877 0.053524643 -0.013512334 -0.042011395 0.028208071 0.0058863093 0.024141032
0.03321745 0.0230177 0.007909127 -0.036600932 -0.04069317 -0.06369633 0.026380483 -0.02448623
0.0039847074 -0.012622144 0.0037487359 0.014157855 -0.017435556 0.00598388 0.026937837 0.0050910832
0.010096368 0.008360655 -0.047347266 -0.036302023 -0.047158256 -0.008549136 -0.04795555 -0.031693004
0.037668653 -0.02591399 0.007514372 0.013584384 -0.011644313 -0.034059364 0.013996575 -0.02450396
-0.03695727 -0.027581133 -0.006743952 0.07685226 -0.02496483 -0.04372431 -0.056056157 0.040409368
-0.04217014 -0.0480799 -0.0011721401 -0.027204625 0.02002802 0.043029804 0.0032245433 -0.0020403753
0.020622015 -0.013273797 -0.047911968 0.022313414 -0.024521079 0.015327403 -0.0137340985 0.0114053795
0.0211681 0.038308613 0.018472401 -0.049700554 -0.00029859834 0.025297789 0.03279234 -0.013503356
-0.037771404 0.009984485 0.032593764 -0.018581117 0.0043664966 0.009684714 0.01604221 0.037048187
-0.0023231867 -0.00949117 0.018788332 -0.02486764 0.03719029 0.005650488 0.043952588 0.030802118
0.060092777 -0.048356656 -0.009822567 0.004576116 -0.050943874 0.01966029 0.013603241 -0.044079386
-0.018851943 -0.032400604 -0.00066965533 0.0058775106 -0.01336789 -0.035328697 0.013202992 0.014993299
-0.00333349 -0.01996961 -0.0069464967 0.02315113 -0.026110923 -0.030707441 -0.013774106 0.035248414
-0.006495604 0.028594786 0.033521604 0.032605663 -0.02007342 -0.020941887 0.016935134 0.010719029
-0.006159415 -0.0082244985 -0.034238037 0.01460978 -0.003984668 0.02134779 -0.008115697 -0.021659287
0.021111742 0.038445927 0.02719187 0.046391595 -0.028416678 0.007811043 -0.016639749 0.0024449755
-0.0067703193 0.012031063 -0.023587517 0.03373983 0.0639541 0.0048076953 0.007911509 -0.02384489
-0.0040424103 0.023602428 0.053304736 -0.010683482 0.0124002695 -0.06109356 0.017824227 0.018584024
0.037272926 0.03985869 -0.033460684 0.016450156 -0.016775412 0.0370846 -0.036940742 0.01731379
0.011495044 -0.009608872 0.025822299 0.012990835 0.027384385 0.021881498 -0.012322388 0.033552416
0.017858416 -0.015777001 -0.03265685 0.03396838 0.006640314 0.0058027245 0.026923755 -0.0071405577
-0.016782654 0.0056883185 -0.0036013774 0.012900121 -0.02708293 -0.001372418 -0.009171925 0.01032476
-0.018038986 0.042389095 0.047349837 0.024525171 -0.046121042 0.012412644 0.030431028 0.038598273
-0.04237163 0.03588655 -0.011423404 0.032694787 0.010879965 -0.0073375334 -0.045220755 -0.009322997
-0.017642856 0.022568503 -0.022394631 0.020427493 0.014625087 -0.022517782 0.016928833 -0.04981937
00000000: a66e 953c bea4 0c3d 1053 acbc d148 e6bc
00000010: 8e23 213d 10e7 09bd a9cf 873b a627 55bd
00000020: b4dd cb3c be8f 0e3d 3774 043d 4e96 633d
00000030: 6da5 d13b 8f14 443d 8e95 2d3d 1517 f13c
00000040: 32ef 18bd 2742 143d 0728 e6bb caed 8f3c
00000050: 0f28 03ba d7e5 86bc 9082 193d 6b0e 593b
00000060: 12e8 60bc c994 023d 0ccc 2abd 7297 66bd
00000070: 06f6 ec3c e894 bf3b fb8d 193d a14f eebb
00000080: b2c0 133d 6274 f7bc f1aa f43c 7452 56bb
00000090: 14a5 713b a00e 133d 5778 b43b bad6 b0ba
000000a0: 2cda 9f3c 6424 3fbd 3616 65bc 3efa c2bc
000000b0: 2ad6 dbbb 4d71 5ebd c280 2cbc 5eba 12bd
000000c0: 3096 0fbd 39cb d63b a83c 5b3d d662 5dbc
000000d0: 2414 2cbd 9d14 e73c f1e1 c03b 6ac3 c53c
000000e0: 050f 083d 9e8f bc3c 4895 013c dcea 15bd
000000f0: e2ad 26bd 3973 82bd e21b d83c 5997 c8bc
00000100: 2692 823b 1ccd 4ebc 5aad 753b 59f6 673c
00000110: 03d5 8ebc 6c14 c43b bdac dc3c 1ad3 a63b
00000120: 3d6b 253c 21fb 083c 35ef 41bd 6eb1 14bd
00000130: 0429 41bd ad11 0cbc 0a6d 44bd 86d0 01bd
00000140: 724a 1a3d 9349 d4bc 1f3b f63b 0991 5e3c
00000150: cac7 3ebc d581 0bbd e451 653c 87bc c8bc
00000160: 8260 17bd d4f1 e1bc 5ffc dcbb b864 9d3d
00000170: 0b83 ccbc 4318 33bd 249b 65bd 4b84 253d
00000180: 99ba 2cbd 6eef 44bd 7fa2 99ba 3cdc debc
00000190: cd11 a43c 0540 303d dc52 533b d1b7 05bb
000001a0: 80ef a83c 577a 59bc 573f 44bd 9fca b63c
000001b0: 6ee0 c8bc ca1f 7b3c fc04 61bc a1dd 3a3c
000001c0: b968 ad3c 7ee9 1c3d 6f53 973c cf92 4bbd
000001d0: 318d 9cb9 4f3d cf3c 4351 063d 2e3d 5dbc
000001e0: 30b6 1abd f795 233c 0a81 053d 6d37 98bc
000001f0: d414 8f3b a2ac 1e3c f46a 833c d7bf 173d
00000200: 9b40 18bb da80 1bbc fde9 993c 39b7 cbbc
00000210: d854 183d bb27 b93b a107 343d b954 fc3c
00000220: d823 763d a111 46bd d5ee 20bc 3ef3 953b
00000230: 86aa 50bd 9e0e a13c 21e0 5e3c 968c 34bd
00000240: 646f 9abc 7fb6 04bd cf8b 2fba 2298 c03b
00000250: ff04 5bbc d3b4 10bd 5d51 583c 74a6 753c
00000260: af76 5abb 4f97 a3bc 709f e3bb 70a7 bd3c
00000270: 93e6 d5bc 2c8e fbbc caac 61bc a460 103d
00000280: 13d9 d4bb 9d3f ea3c f34d 093d 848d 053d
00000290: 0371 a4bc 528e abbc 8dbb 8a3c de9e 2f3c
000002a0: ebd4 c9bb 0cc0 06bc 2f3d 0cbd dc5d 6f3c
000002b0: d191 82bb 8fe1 ae3c b3f7 04bc d16e b1bc
000002c0: 88f2 ac3c 7a79 1d3d 7cc1 de3c 1d05 3e3d
000002d0: 18ca e8bc c7f3 ff3b 1550 88bc e23b 203b
000002e0: 8ed9 ddbb f01d 453c 9c3a c1bc c732 0a3d
000002f0: 5efa 823d df89 9d3b 469f 013c 5c56 c3bc
00000300: 3276 84bb e159 c13c 1156 5a3d c509 2fbc
00000310: 802a 4b3c 3e3d 7abd 1d04 923c 863d 983c
00000320: 7fab 183d de42 233d 120e 09bd 7ac2 863c
00000330: 976c 89bc 06e6 173d 2d4f 17bd a6d5 8d3c
00000340: b655 3c3c 886e 1dbc 4989 d33c 83d7 543c
00000350: 3855 e03c d440 b33c d7e3 49bc 426e 093d
00000360: d04b 923c c53e 81bc 30c3 05bd 6e22 0b3d
00000370: fe96 d93b c824 be3b 358f dc3c 57fb e9bb
00000380: c77b 89bc 1365 ba3b 1605 6cbb 075b 533c
00000390: 05dd ddbc b5e2 b3ba d745 16bc 2f29 293c
000003a0: 7fc6 93bc 30a0 2d3d e7f1 413d 03e9 c83c
000003b0: 6be9 3cbd 675e 4b3c 7e4a f93c 3919 1e3d
000003c0: e08d 2dbd c6fd 123d 3b29 3bbc f8ea 053d
000003d0: e141 323c b16f f0bb 6639 39bd 7cbf 18bc
000003e0: c087 90bc 95e1 b83c f274 b7bc 8f57 a73c
000003f0: 109e 6f3c 3677 b8bc 56ae 8a3c 650f 4cbd
