summit/benchmarks/experiment_emulator/trained_models/BNN/baumgartner_aniline_cn_crosscoupling_yield_3_BNN_model.pt (torch_old, 23792 bytes, 35 tensors)

blinear1.weight_mu f4 [24, 10]
0	0xbbd4842a	-0.0064854817
1	0x3d026feb	0.031845015
2	0x3ad54ee9	0.0016274127
3	0x3cc3496c	0.023838721
4	0x3d64b4af	0.055836376
5	0x3d6ce442	0.05783487
6	0x3daeb56d	0.08530698
7	0x3dfd2246	0.12360053
8	0x3d49b1c7	0.049241807
9	0xbdf42bdb	-0.11922427
10	0x3c8d8489	0.017275112
11	0x3dca36d0	0.09873736
12	0x3cdd5bd2	0.027021322
13	0x3d564164	0.052308455
14	0x3be84c34	0.0070891622
15	0xbd070631	-0.03296489
16	0x3d4bc3f2	0.049747415
17	0x3d3f0ab5	0.04664107
18	0x3da0047d	0.07813356
19	0xbde0de40	-0.10979891
20	0x3db08172	0.0861844
21	0x3e5788d1	0.21048285
22	0x3d33dcb3	0.043911647
23	0x3dc669ef	0.09688174
24	0x3d5fd987	0.05465081
25	0xbc3e8ad8	-0.011629783
26	0x3de4c892	0.11171068
27	0xbd6a7871	-0.057243768
28	0x3df9117b	0.12161537
29	0xbdd8f628	-0.105938256
30	0xba18cec8	-0.00058291527
31	0xbdfa2360	-0.122137785
32	0xbd8c35aa	-0.06846173
33	0x3ddfb8f1	0.10923947
34	0xbcf40427	-0.029787136
35	0xbd0c0703	-0.034186374
36	0xbdd8aee6	-0.10580234
37	0xbe695667	-0.22786866
38	0x3db95572	0.090495005
39	0x3e00a7fe	0.12564084
40	0xbc5356ef	-0.012899145
41	0x3dd931e0	0.10605216
42	0x3d87a576	0.06623356
43	0x3cfd51c6	0.030922782
44	0x3d8d294a	0.06892641
45	0x3c84d713	0.016215837
46	0x3e3096b7	0.17244993
47	0x3d3cadfa	0.046064354
48	0x3db67b07	0.08910184
49	0xbe0960ee	-0.13415882
50	0xbab6c3a4	-0.0013943803
51	0x3d949332	0.07254638
52	0x3c4323ac	0.01191036
53	0x3d556faf	0.052108463
54	0x3d3c8f83	0.0460353
55	0x3db744a3	0.08948638
56	0x3df91d86	0.12163834
57	0x3e15916a	0.14606252
58	0x3d8f45b8	0.0699572
59	0xbdff7e83	-0.12475302
60	0xbcb5f8a9	-0.022213297
61	0x3cab5e8c	0.020919107
62	0x3bb14ff3	0.005411142
63	0x3ceb4021	0.028717102
64	0x3d547d53	0.05187733
65	0x3d525016	0.051345907
66	0x3dca207c	0.09869477
67	0x3deb7a44	0.1149793
68	0x3d1dfab1	0.038569156
69	0xbdd1455d	-0.10218308
70	0x3d910703	0.070814155
71	0x3b589d3b	0.00330527
72	0x3c4d59f6	0.012533655
73	0x3d3b30cd	0.045700837
74	0x3d5c18ab	0.053734463
75	0x3d89fdce	0.067378625
76	0x3da2886a	0.07936175
77	0x3d0c4d52	0.034253426
78	0x3dd21520	0.102579355
79	0xbdaba38f	-0.08380806
80	0xbce33ba9	-0.02773841
81	0xbe03d610	-0.12874627
82	0xbd248330	-0.040164173
83	0x3dbc749e	0.092019305
84	0x3d313c1f	0.043270227
85	0xbd57804f	-0.0526126
86	0xbcd8062c	-0.02637013
87	0xbe727f71	-0.23681428
88	0x3dc0f8db	0.094224654
89	0x3e0fff60	0.14062262
90	0x3b8fd5fa	0.0043895217
91	0x3c4bcd32	0.012439059
92	0xbbe4b2ab	-0.0069793067
93	0x3ca010d0	0.019539267
94	0x3cef24a2	0.029192273
95	0x3d7503f0	0.05981821
96	0x3da5a0cc	0.0808731
97	0x3dde0ff6	0.10842888
98	0x3c9037e5	0.017604778
99	0xbda766c6	-0.08173899
100	0x3d831c84	0.06401923
101	0x3d5cd55f	0.053914424
102	0x3c963044	0.018333562
103	0x3d35cf8e	0.044387393
104	0x3d6a211b	0.057160478
105	0x3df61952	0.12016548
106	0x3dc4575e	0.095869765
107	0x3ddda66b	0.10822757
108	0x3d701c98	0.05862102
109	0xbdf31244	-0.11868718
110	0xbc6d9792	-0.014501469
111	0x3c643fdc	0.013931241
112	0xbb820ecb	-0.0039690486
113	0x3d011eb2	0.031523414
114	0x3d88b279	0.06674666
115	0x3dd1daca	0.10246809
116	0x3df85d55	0.12127177
117	0x3e0e7dde	0.13915202
118	0xbb8e25d6	-0.0043380065
119	0xbdeb4fff	-0.114898674
120	0xbdb5f3e4	-0.08884409
121	0xbde969d7	-0.113971405
122	0xbc68b40c	-0.014203083
123	0xbd1cbe0c	-0.03826718
124	0x3c4473ee	0.01199053
125	0x3c857a5c	0.016293697
126	0x3dce479e	0.10072254
127	0x3e362367	0.17786942
128	0xbc2baefd	-0.010478732
129	0xbd6b6d72	-0.057477422
130	0xbc9d009a	-0.019165326
131	0xbd190cba	-0.037365653
132	0x3bab6c9b	0.0052314526
133	0x3d31464e	0.04327994
134	0x3d89abfb	0.06722256
135	0x3d9c00fe	0.07617377
136	0x3e1d85d8	0.15383089
137	0x3df6d560	0.12052417
138	0x3d2737a2	0.04082454
139	0xbdbdcfe2	-0.09268166
140	0x3d2a18e5	0.041527648
141	0x3d6fb09e	0.058518045
142	0xbdef5b2e	-0.11687313
143	0xbc8951ba	-0.016762603
144	0x3dce0b14	0.10060707
145	0xbc965d1e	-0.018354949
146	0xbd84e34b	-0.06488665
147	0x3cf71b8f	0.030164508
148	0x3d81fc76	0.06346981
149	0xbd9984d6	-0.074960396
150	0xbc05a92a	-0.008158008
151	0xbe2d2a96	-0.16910776
152	0xbd2837ad	-0.04106872
153	0x3ca0a0b3	0.019607877
154	0xbcb1cd69	-0.021704393
155	0x3d0aad16	0.033856474
156	0x3d6f8097	0.058472242
157	0x3e12ab70	0.1432321
158	0xbe0a65bc	-0.13515371
159	0xbd540555	-0.051762898
160	0xbbcd40af	-0.0062638144
161	0x3caeaa1a	0.021321345
162	0x3bf77491	0.0075517376
163	0x3c1d5036	0.009601643
164	0x3d7d9f6b	0.06191961
165	0x3d834f0b	0.064115606
166	0x3de31892	0.11088671
167	0x3e04b1a5	0.12958391
168	0x3d332b98	0.043742746
169	0xbdf0354c	-0.117289156
170	0xbcc0f856	-0.023555916
171	0xbd585314	-0.052813604
172	0xbd7ed99f	-0.06221926
173	0x3e00ef6f	0.12591337
174	0x3d6d6f17	0.05796727
175	0x3dfb11cf	0.12259256
176	0x3acf22fe	0.0015803275
177	0x3def755f	0.11692309
178	0x3dc01e66	0.09380798
179	0xbdc35c1a	-0.09539051
180	0x3d7dd327	0.06196895
181	0xbe1de5a1	-0.15419628
182	0xbd33bc7b	-0.04388092
183	0xbc53e106	-0.012932068
184	0x3d434743	0.047675382
185	0xbd068ca5	-0.032848973
186	0xbdb1d513	-0.08683219
187	0xbe53f374	-0.20698339
188	0x3da531e8	0.080661595
189	0x3de918b0	0.11381662
190	0x3d64b32b	0.05583493
191	0x3dd89a69	0.105763264
192	0x3bd495ac	0.006487569
193	0x3ce55921	0.027996602
194	0x3d3bfcf6	0.04589554
195	0x3bfe024b	0.007751738
196	0x3d5b73ac	0.05357711
197	0x3d9c1047	0.07620292
198	0x3d9a65ab	0.07538923
199	0xbdf03627	-0.11729079
200	0xbcdb98ac	-0.026806198
201	0xbd5c529e	-0.053789727
202	0xbb68cac3	-0.0035521246
203	0x3cfe9fa2	0.031081978
204	0x3d6fa7f8	0.058509797
205	0x3d944bd0	0.072410226
206	0x3db6bc53	0.08922639
207	0x3de263fd	0.110542275
208	0x3d305b6e	0.043055944
209	0xbdb0c90d	-0.086320974
210	0x3d3f6abe	0.046732657
211	0x3e399e30	0.1812675
212	0x3c930eef	0.017951457
213	0x3d8d8c95	0.069115795
214	0x3d75ee5c	0.06004177
215	0xbd04abc1	-0.03239036
216	0x3d802162	0.06256367
217	0x3b3ae8cc	0.0028520105
218	0x3e2a6839	0.1664132
219	0xbde7785b	-0.11302253
220	0xbb8200bf	-0.003967374
221	0xbde2ebe7	-0.11080151
222	0xbd815202	-0.0631447
223	0x3dd2889f	0.10279965
224	0xbcdfd2b8	-0.027322158
225	0xbcfd3453	-0.03090874
226	0xbdeeb655	-0.11655871
227	0xbe61bf6f	-0.22045682
228	0x3d88cfa6	0.06680231
229	0x3e22c0fe	0.15893933
230	0xbb00090c	-0.0019536642
231	0x3cc4f45b	0.024042299
232	0x3bf2ea6b	0.0074131987
233	0x3cd08dd0	0.025458246
234	0x3d6bc161	0.057557467
235	0x3d82636e	0.06366621
236	0x3d6c1cc3	0.057644617
237	0x3e29ff5a	0.16601315
238	0x3d063ebc	0.032774672
239	0xbdeee429	-0.11664612

blinear1.weight_rho f4 [24, 10]
0	0xc0af0449	-5.469273
1	0xc0b6c30f	-5.711311
2	0xc0abf5f1	-5.373772
3	0xc0ae3d0c	-5.444952
4	0xc0b15c5a	-5.5425234
5	0xc0b1dbe7	-5.5580935
6	0xc0aff174	-5.4982243
7	0xc0b080e4	-5.5157337
8	0xc0b3f107	-5.6231723
9	0xc0a9a7d0	-5.301735
10	0xc0b2c295	-5.5862527
11	0xc0b2db3b	-5.5892615
12	0xc0b35f1b	-5.6053596
13	0xc0afbbdf	-5.4916835
14	0xc0af5372	-5.478936
15	0xc0b14eb4	-5.5408573
16	0xc0af13fa	-5.4711885
17	0xc0ad1ada	-5.409528
18	0xc0b62680	-5.6921997
19	0xc0a5b717	-5.1786
20	0xc0b964ea	-5.7935686
21	0xc0b1790e	-5.546027
22	0xc0b469a8	-5.6378975
23	0xc0b2ed2f	-5.591453
24	0xc0b01536	-5.502589
25	0xc0b0946e	-5.518119
26	0xc0b41b72	-5.6283503
27	0xc0ae4365	-5.445727
28	0xc0b166ad	-5.5437837
29	0xc0a9a9a0	-5.301956
30	0xc0b09578	-5.5182457
31	0xc0b517f3	-5.6591735
32	0xc0af08a1	-5.4698033
33	0xc0b30383	-5.5941787
34	0xc0b249ce	-5.5715094
35	0xc0ae14fa	-5.4400606
36	0xc0aeb7d8	-5.459942
37	0xc0affca0	-5.499588
38	0xc0b58b02	-5.6732187
39	0xc0acbc31	-5.3979726
40	0xc0b59253	-5.674112
41	0xc0b62c83	-5.6929336
42	0xc0b4e911	-5.6534505
43	0xc0b24094	-5.570383
44	0xc0b256a6	-5.573077
45	0xc0aefd32	-5.4684076
46	0xc0b5b4d5	-5.678324
47	0xc0b3d39c	-5.619581
48	0xc0b08c23	-5.5171065
49	0xc0b24b55	-5.571696
50	0xc0b52b2a	-5.661519
51	0xc0b547a7	-5.6649966
52	0xc0b4b979	-5.6476407
53	0xc0b1b501	-5.553345
54	0xc0b1bc09	-5.5542035
55	0xc0b0c8c9	-5.52451
56	0xc0b240cd	-5.5704103
57	0xc0ad0d37	-5.407863
58	0xc0b3d107	-5.619266
59	0xc0b1fff7	-5.5624957
60	0xc0b4bea9	-5.648274
61	0xc0b3306b	-5.5996604
62	0xc0b58efe	-5.673705
63	0xc0af5eab	-5.480306
64	0xc0b31d5c	-5.597334
65	0xc0b07ca7	-5.5152164
66	0xc0b3a8fd	-5.6143785
67	0xc0adef70	-5.435478
68	0xc0b26993	-5.5753875
69	0xc0af4f36	-5.4784193
70	0xc0b7493f	-5.727691
71	0xc0add9cb	-5.432836
72	0xc0b0f6bf	-5.5301204
73	0xc0a94703	-5.2899184
74	0xc0a95f7e	-5.2929068
75	0xc0aa6401	-5.3247075
76	0xc0aa0e75	-5.314265
77	0xc0a72469	-5.2231946
78	0xc0a99d9f	-5.300491
79	0xc0a735bc	-5.2253094
80	0xc0b9258d	-5.785834
81	0xc0b40573	-5.625665
82	0xc0b87854	-5.7646885
83	0xc0afc292	-5.4925013
84	0xc0b6e5a4	-5.7155323
85	0xc0b2d499	-5.588452
86	0xc0b6602b	-5.6992393
87	0xc0abf438	-5.373562
88	0xc0b6610d	-5.699347
89	0xc0a93de2	-5.288804
90	0xc0b5935e	-5.674239
91	0xc0b33039	-5.5996366
92	0xc0b3dbb6	-5.62057
93	0xc0af03db	-5.4692206
94	0xc0af2187	-5.4728427
95	0xc0afcc00	-5.4936523
96	0xc0b100ab	-5.5313315
97	0xc0b14da0	-5.5407257
98	0xc0b3a9c2	-5.6144724
99	0xc0a477b1	-5.139611
100	0xc0b79443	-5.7368484
101	0xc0b302f1	-5.594109
102	0xc0b28bbd	-5.579558
103	0xc0b253b0	-5.5727158
104	0xc0b0a7fb	-5.5205054
105	0xc0ad4d7c	-5.4157085
106	0xc0b0e374	-5.5277653
107	0xc0b00eee	-5.5018225
108	0xc0ae3864	-5.4443836
109	0xc0ac2ab4	-5.380213
110	0xc0b8cbc8	-5.7748756
111	0xc0b31735	-5.596583
112	0xc0b7decb	-5.7459464
113	0xc0b64223	-5.6955733
114	0xc0b53799	-5.663037
115	0xc0b588f1	-5.6729665
116	0xc0b22cf3	-5.567987
117	0xc0b2d18b	-5.588079
118	0xc0b31ccc	-5.5972652
119	0xc0ada8ba	-5.4268465
120	0xc0b2c3a7	-5.5863833
121	0xc0b520c3	-5.660249
122	0xc0b5191a	-5.659314
123	0xc0b21fbc	-5.566374
124	0xc0af9feb	-5.488271
125	0xc0b3a97b	-5.6144385
126	0xc0acc1c0	-5.398651
127	0xc0b21181	-5.5646367
128	0xc0aefbca	-5.468236
129	0xc0a4d8e1	-5.1514745
130	0xc0b24247	-5.5705905
131	0xc0b16a84	-5.5442524
132	0xc0b18a21	-5.5481114
133	0xc0b2786d	-5.5772004
134	0xc0b912f1	-5.783562
135	0xc0afe3d2	-5.49656
136	0xc0ab2349	-5.3480573
137	0xc0b18acb	-5.5481925
138	0xc0afaf95	-5.4901834
139	0xc0ac396c	-5.3820095
140	0xc0b05ed4	-5.5115757
141	0xc0b1acb8	-5.552334
142	0xc0b276e2	-5.577012
143	0xc0ac5a30	-5.386009
144	0xc0afa9c7	-5.489475
145	0xc0ab3690	-5.3504105
146	0xc0a90172	-5.2814264
147	0xc0aa70e9	-5.326283
148	0xc0b348b4	-5.602625
149	0xc0a5920b	-5.1740775
150	0xc0b040ee	-5.507926
151	0xc0b23e3b	-5.5700965
152	0xc0aea313	-5.4574065
153	0xc0ae2e37	-5.4431415
154	0xc0ad0003	-5.4062514
155	0xc0b096bd	-5.5184007
156	0xc0b1ccc2	-5.556245
157	0xc0b16846	-5.5439787
158	0xc0aef3cb	-5.46726
159	0xc0a8e9bf	-5.2785335
160	0xc0b534b8	-5.6626854
161	0xc0b45d13	-5.6363616
162	0xc0b08ce4	-5.5171986
163	0xc0b42204	-5.6291523
164	0xc0b1c1d4	-5.5549107
165	0xc0b18936	-5.5479994
166	0xc0aefe60	-5.4685516
167	0xc0b2102c	-5.564474
168	0xc0adf65e	-5.436324
169	0xc0a883ac	-5.266073
170	0xc0b69ec7	-5.706882
171	0xc0b24c42	-5.571809
172	0xc0b32680	-5.5984497
173	0xc0ac98d0	-5.393654
174	0xc0af37be	-5.4755545
175	0xc0af6d27	-5.4820743
176	0xc0b1cec9	-5.5564923
177	0xc0aff2ce	-5.4983892
178	0xc0aeb4ec	-5.459585
179	0xc0a888c3	-5.2666945
180	0xc0b286dd	-5.578963
181	0xc0b3b4f5	-5.6158395
182	0xc0b55df5	-5.6677194
183	0xc0ac6a5e	-5.3879843
184	0xc0b6c163	-5.711107
185	0xc0af8f26	-5.486224
186	0xc0a9d758	-5.307537
187	0xc0abb758	-5.366131
188	0xc0b44793	-5.633737
189	0xc0a92533	-5.285791
190	0xc0b7bf13	-5.7420745
191	0xc0b326d7	-5.598491
192	0xc0b58702	-5.6727304
193	0xc0b199ec	-5.5500393
194	0xc0acff8d	-5.406195
195	0xc0aeba35	-5.4602304
196	0xc0b103f5	-5.531733
197	0xc0ad2899	-5.411206
198	0xc0afbf51	-5.492104
199	0xc0a5aa8b	-5.177068
200	0xc0b1bf54	-5.5546055
201	0xc0b1408f	-5.5391307
202	0xc0b24e3c	-5.57205
203	0xc0ac31b7	-5.3810687
204	0xc0b00be3	-5.501451
205	0xc0b09436	-5.518092
206	0xc0ae2744	-5.442293
207	0xc0ac2cd4	-5.380472
208	0xc0afd50e	-5.4947577
209	0xc0a7f097	-5.248119
210	0xc0bbc427	-5.8676944
211	0xc0b5789a	-5.670972
212	0xc0b7941b	-5.7368293
213	0xc0af2156	-5.4728193
214	0xc0b76379	-5.7308927
215	0xc0ac741b	-5.389173
216	0xc0ad6a86	-5.4192533
217	0xc0b10d40	-5.5328674
218	0xc0b018b6	-5.5030165
219	0xc0a9b97e	-5.303893
220	0xc0b96efa	-5.794797
221	0xc0b87b05	-5.765017
222	0xc0b2dab6	-5.589198
223	0xc0b5e7fc	-5.6845684
224	0xc0b36608	-5.606205
225	0xc0ae22f5	-5.441767
226	0xc0af3626	-5.47536
227	0xc0aee7fb	-5.465818
228	0xc0b565aa	-5.66866
229	0xc0b2465d	-5.5710893
230	0xc0b54b88	-5.66547
231	0xc0b6ae1f	-5.708755
232	0xc0b0f671	-5.530083
233	0xc0ad1a79	-5.4094815
234	0xc0b40080	-5.625061
235	0xc0b23170	-5.568535
236	0xc0ae7eee	-5.4529943
237	0xc0b068bb	-5.5127845
238	0xc0b2cb8f	-5.5873485
239	0xc0a7ccbc	-5.243742

blinear1.bias_mu f4 [24]
0	0x3d12ca4d	0.03583746
1	0x3cae8343	0.021302825
2	0x3bc655c8	0.0060527064
3	0x3c9de5ef	0.01927468
4	0x3cfca933	0.0308424
5	0x3d8252c2	0.06363441
6	0x3d238c11	0.0399285
7	0x3d125d11	0.035733286
8	0x3d1dbef1	0.038512174
9	0x3cfb2703	0.03065825
10	0x3d1de2d3	0.038546395
11	0x3d44243f	0.04788613
12	0x3d099ff9	0.033599827
13	0x3d34b25f	0.04411542
14	0x3c5a0525	0.013306891
15	0x3be1ade0	0.0068871826
16	0x3d25e9df	0.04050624
17	0x3d8f9411	0.07010663
18	0xbc7531e9	-0.014965513
19	0x3cb08bf7	0.021551115
20	0x3d20c95e	0.03925454
21	0x3c9b37e2	0.018947545
22	0x3d09ca99	0.033640478
23	0x3d0d823c	0.03454803

blinear1.bias_rho f4 [24]
0	0xc0a8233e	-5.254302
1	0xc0aa6852	-5.3252344
2	0xc0a9fcd8	-5.3121147
3	0xc0a40461	-5.1255345
4	0xc0a86b49	-5.2630963
5	0xc0a6b745	-5.209872
6	0xc0a582a9	-5.1721997
7	0xc0a9e025	-5.3086114
8	0xc0aacf80	-5.3378296
9	0xc0a2fe29	-5.0935254
10	0xc0a8ee3c	-5.2790813
11	0xc0a85aa0	-5.2610626
12	0xc0a1376d	-5.038016
13	0xc0ab4041	-5.3515935
14	0xc0a437ef	-5.131828
15	0xc0ac7735	-5.3895516
16	0xc0a643b1	-5.195763
17	0xc0a6565a	-5.198041
18	0xc0a50143	-5.156404
19	0xc0a66c2b	-5.200704
20	0xc0a4b1ad	-5.146689
21	0xc0a1e768	-5.059498
22	0xc0a549bd	-5.1652513
23	0xc0a4c38b	-5.14887

blinear1.weight_sampler.mu f4 [24, 10]
0	0xbbd4842a	-0.0064854817
1	0x3d026feb	0.031845015
2	0x3ad54ee9	0.0016274127
3	0x3cc3496c	0.023838721
4	0x3d64b4af	0.055836376
5	0x3d6ce442	0.05783487
6	0x3daeb56d	0.08530698
7	0x3dfd2246	0.12360053
8	0x3d49b1c7	0.049241807
9	0xbdf42bdb	-0.11922427
10	0x3c8d8489	0.017275112
11	0x3dca36d0	0.09873736
12	0x3cdd5bd2	0.027021322
13	0x3d564164	0.052308455
14	0x3be84c34	0.0070891622
15	0xbd070631	-0.03296489
16	0x3d4bc3f2	0.049747415
17	0x3d3f0ab5	0.04664107
18	0x3da0047d	0.07813356
19	0xbde0de40	-0.10979891
20	0x3db08172	0.0861844
21	0x3e5788d1	0.21048285
22	0x3d33dcb3	0.043911647
23	0x3dc669ef	0.09688174
24	0x3d5fd987	0.05465081
25	0xbc3e8ad8	-0.011629783
26	0x3de4c892	0.11171068
27	0xbd6a7871	-0.057243768
28	0x3df9117b	0.12161537
29	0xbdd8f628	-0.105938256
30	0xba18cec8	-0.00058291527
31	0xbdfa2360	-0.122137785
32	0xbd8c35aa	-0.06846173
33	0x3ddfb8f1	0.10923947
34	0xbcf40427	-0.029787136
35	0xbd0c0703	-0.034186374
36	0xbdd8aee6	-0.10580234
37	0xbe695667	-0.22786866
38	0x3db95572	0.090495005
39	0x3e00a7fe	0.12564084
40	0xbc5356ef	-0.012899145
41	0x3dd931e0	0.10605216
42	0x3d87a576	0.06623356
43	0x3cfd51c6	0.030922782
44	0x3d8d294a	0.06892641
45	0x3c84d713	0.016215837
46	0x3e3096b7	0.17244993
47	0x3d3cadfa	0.046064354
48	0x3db67b07	0.08910184
49	0xbe0960ee	-0.13415882
50	0xbab6c3a4	-0.0013943803
51	0x3d949332	0.07254638
52	0x3c4323ac	0.01191036
53	0x3d556faf	0.052108463
54	0x3d3c8f83	0.0460353
55	0x3db744a3	0.08948638
56	0x3df91d86	0.12163834
57	0x3e15916a	0.14606252
58	0x3d8f45b8	0.0699572
59	0xbdff7e83	-0.12475302
60	0xbcb5f8a9	-0.022213297
61	0x3cab5e8c	0.020919107
62	0x3bb14ff3	0.005411142
63	0x3ceb4021	0.028717102
64	0x3d547d53	0.05187733
65	0x3d525016	0.051345907
66	0x3dca207c	0.09869477
67	0x3deb7a44	0.1149793
68	0x3d1dfab1	0.038569156
69	0xbdd1455d	-0.10218308
70	0x3d910703	0.070814155
71	0x3b589d3b	0.00330527
72	0x3c4d59f6	0.012533655
73	0x3d3b30cd	0.045700837
74	0x3d5c18ab	0.053734463
75	0x3d89fdce	0.067378625
76	0x3da2886a	0.07936175
77	0x3d0c4d52	0.034253426
78	0x3dd21520	0.102579355
79	0xbdaba38f	-0.08380806
80	0xbce33ba9	-0.02773841
81	0xbe03d610	-0.12874627
82	0xbd248330	-0.040164173
83	0x3dbc749e	0.092019305
84	0x3d313c1f	0.043270227
85	0xbd57804f	-0.0526126
86	0xbcd8062c	-0.02637013
87	0xbe727f71	-0.23681428
88	0x3dc0f8db	0.094224654
89	0x3e0fff60	0.14062262
90	0x3b8fd5fa	0.0043895217
91	0x3c4bcd32	0.012439059
92	0xbbe4b2ab	-0.0069793067
93	0x3ca010d0	0.019539267
94	0x3cef24a2	0.029192273
95	0x3d7503f0	0.05981821
96	0x3da5a0cc	0.0808731
97	0x3dde0ff6	0.10842888
98	0x3c9037e5	0.017604778
99	0xbda766c6	-0.08173899
100	0x3d831c84	0.06401923
101	0x3d5cd55f	0.053914424
102	0x3c963044	0.018333562
103	0x3d35cf8e	0.044387393
104	0x3d6a211b	0.057160478
105	0x3df61952	0.12016548
106	0x3dc4575e	0.095869765
107	0x3ddda66b	0.10822757
108	0x3d701c98	0.05862102
109	0xbdf31244	-0.11868718
110	0xbc6d9792	-0.014501469
111	0x3c643fdc	0.013931241
112	0xbb820ecb	-0.0039690486
113	0x3d011eb2	0.031523414
114	0x3d88b279	0.06674666
115	0x3dd1daca	0.10246809
116	0x3df85d55	0.12127177
117	0x3e0e7dde	0.13915202
118	0xbb8e25d6	-0.0043380065
119	0xbdeb4fff	-0.114898674
120	0xbdb5f3e4	-0.08884409
121	0xbde969d7	-0.113971405
122	0xbc68b40c	-0.014203083
123	0xbd1cbe0c	-0.03826718
124	0x3c4473ee	0.01199053
125	0x3c857a5c	0.016293697
126	0x3dce479e	0.10072254
127	0x3e362367	0.17786942
128	0xbc2baefd	-0.010478732
129	0xbd6b6d72	-0.057477422
130	0xbc9d009a	-0.019165326
131	0xbd190cba	-0.037365653
132	0x3bab6c9b	0.0052314526
133	0x3d31464e	0.04327994
134	0x3d89abfb	0.06722256
135	0x3d9c00fe	0.07617377
136	0x3e1d85d8	0.15383089
137	0x3df6d560	0.12052417
138	0x3d2737a2	0.04082454
139	0xbdbdcfe2	-0.09268166
140	0x3d2a18e5	0.041527648
141	0x3d6fb09e	0.058518045
142	0xbdef5b2e	-0.11687313
143	0xbc8951ba	-0.016762603
144	0x3dce0b14	0.10060707
145	0xbc965d1e	-0.018354949
146	0xbd84e34b	-0.06488665
147	0x3cf71b8f	0.030164508
148	0x3d81fc76	0.06346981
149	0xbd9984d6	-0.074960396
150	0xbc05a92a	-0.008158008
151	0xbe2d2a96	-0.16910776
152	0xbd2837ad	-0.04106872
153	0x3ca0a0b3	0.019607877
154	0xbcb1cd69	-0.021704393
155	0x3d0aad16	0.033856474
156	0x3d6f8097	0.058472242
157	0x3e12ab70	0.1432321
158	0xbe0a65bc	-0.13515371
159	0xbd540555	-0.051762898
160	0xbbcd40af	-0.0062638144
161	0x3caeaa1a	0.021321345
162	0x3bf77491	0.0075517376
163	0x3c1d5036	0.009601643
164	0x3d7d9f6b	0.06191961
165	0x3d834f0b	0.064115606
166	0x3de31892	0.11088671
167	0x3e04b1a5	0.12958391
168	0x3d332b98	0.043742746
169	0xbdf0354c	-0.117289156
170	0xbcc0f856	-0.023555916
171	0xbd585314	-0.052813604
172	0xbd7ed99f	-0.06221926
173	0x3e00ef6f	0.12591337
174	0x3d6d6f17	0.05796727
175	0x3dfb11cf	0.12259256
176	0x3acf22fe	0.0015803275
177	0x3def755f	0.11692309
178	0x3dc01e66	0.09380798
179	0xbdc35c1a	-0.09539051
180	0x3d7dd327	0.06196895
181	0xbe1de5a1	-0.15419628
182	0xbd33bc7b	-0.04388092
183	0xbc53e106	-0.012932068
184	0x3d434743	0.047675382
185	0xbd068ca5	-0.032848973
186	0xbdb1d513	-0.08683219
187	0xbe53f374	-0.20698339
188	0x3da531e8	0.080661595
189	0x3de918b0	0.11381662
190	0x3d64b32b	0.05583493
191	0x3dd89a69	0.105763264
192	0x3bd495ac	0.006487569
193	0x3ce55921	0.027996602
194	0x3d3bfcf6	0.04589554
195	0x3bfe024b	0.007751738
196	0x3d5b73ac	0.05357711
197	0x3d9c1047	0.07620292
198	0x3d9a65ab	0.07538923
199	0xbdf03627	-0.11729079
200	0xbcdb98ac	-0.026806198
201	0xbd5c529e	-0.053789727
202	0xbb68cac3	-0.0035521246
203	0x3cfe9fa2	0.031081978
204	0x3d6fa7f8	0.058509797
205	0x3d944bd0	0.072410226
206	0x3db6bc53	0.08922639
207	0x3de263fd	0.110542275
208	0x3d305b6e	0.043055944
209	0xbdb0c90d	-0.086320974
210	0x3d3f6abe	0.046732657
211	0x3e399e30	0.1812675
212	0x3c930eef	0.017951457
213	0x3d8d8c95	0.069115795
214	0x3d75ee5c	0.06004177
215	0xbd04abc1	-0.03239036
216	0x3d802162	0.06256367
217	0x3b3ae8cc	0.0028520105
218	0x3e2a6839	0.1664132
219	0xbde7785b	-0.11302253
220	0xbb8200bf	-0.003967374
221	0xbde2ebe7	-0.11080151
222	0xbd815202	-0.0631447
223	0x3dd2889f	0.10279965
224	0xbcdfd2b8	-0.027322158
225	0xbcfd3453	-0.03090874
226	0xbdeeb655	-0.11655871
227	0xbe61bf6f	-0.22045682
228	0x3d88cfa6	0.06680231
229	0x3e22c0fe	0.15893933
230	0xbb00090c	-0.0019536642
231	0x3cc4f45b	0.024042299
232	0x3bf2ea6b	0.0074131987
233	0x3cd08dd0	0.025458246
234	0x3d6bc161	0.057557467
235	0x3d82636e	0.06366621
236	0x3d6c1cc3	0.057644617
237	0x3e29ff5a	0.16601315
238	0x3d063ebc	0.032774672
239	0xbdeee429	-0.11664612

blinear1.weight_sampler.rho f4 [24, 10]
0	0xc0af0449	-5.469273
1	0xc0b6c30f	-5.711311
2	0xc0abf5f1	-5.373772
3	0xc0ae3d0c	-5.444952
4	0xc0b15c5a	-5.5425234
5	0xc0b1dbe7	-5.5580935
6	0xc0aff174	-5.4982243
7	0xc0b080e4	-5.5157337
8	0xc0b3f107	-5.6231723
9	0xc0a9a7d0	-5.301735
10	0xc0b2c295	-5.5862527
11	0xc0b2db3b	-5.5892615
12	0xc0b35f1b	-5.6053596
13	0xc0afbbdf	-5.4916835
14	0xc0af5372	-5.478936
15	0xc0b14eb4	-5.5408573
16	0xc0af13fa	-5.4711885
17	0xc0ad1ada	-5.409528
18	0xc0b62680	-5.6921997
19	0xc0a5b717	-5.1786
20	0xc0b964ea	-5.7935686
21	0xc0b1790e	-5.546027
22	0xc0b469a8	-5.6378975
23	0xc0b2ed2f	-5.591453
24	0xc0b01536	-5.502589
25	0xc0b0946e	-5.518119
26	0xc0b41b72	-5.6283503
27	0xc0ae4365	-5.445727
28	0xc0b166ad	-5.5437837
29	0xc0a9a9a0	-5.301956
30	0xc0b09578	-5.5182457
31	0xc0b517f3	-5.6591735
32	0xc0af08a1	-5.4698033
33	0xc0b30383	-5.5941787
34	0xc0b249ce	-5.5715094
35	0xc0ae14fa	-5.4400606
36	0xc0aeb7d8	-5.459942
37	0xc0affca0	-5.499588
38	0xc0b58b02	-5.6732187
39	0xc0acbc31	-5.3979726
40	0xc0b59253	-5.674112
41	0xc0b62c83	-5.6929336
42	0xc0b4e911	-5.6534505
43	0xc0b24094	-5.570383
44	0xc0b256a6	-5.573077
45	0xc0aefd32	-5.4684076
46	0xc0b5b4d5	-5.678324
47	0xc0b3d39c	-5.619581
48	0xc0b08c23	-5.5171065
49	0xc0b24b55	-5.571696
50	0xc0b52b2a	-5.661519
51	0xc0b547a7	-5.6649966
52	0xc0b4b979	-5.6476407
53	0xc0b1b501	-5.553345
54	0xc0b1bc09	-5.5542035
55	0xc0b0c8c9	-5.52451
56	0xc0b240cd	-5.5704103
57	0xc0ad0d37	-5.407863
58	0xc0b3d107	-5.619266
59	0xc0b1fff7	-5.5624957
60	0xc0b4bea9	-5.648274
61	0xc0b3306b	-5.5996604
62	0xc0b58efe	-5.673705
63	0xc0af5eab	-5.480306
64	0xc0b31d5c	-5.597334
65	0xc0b07ca7	-5.5152164
66	0xc0b3a8fd	-5.6143785
67	0xc0adef70	-5.435478
68	0xc0b26993	-5.5753875
69	0xc0af4f36	-5.4784193
70	0xc0b7493f	-5.727691
71	0xc0add9cb	-5.432836
72	0xc0b0f6bf	-5.5301204
73	0xc0a94703	-5.2899184
74	0xc0a95f7e	-5.2929068
75	0xc0aa6401	-5.3247075
76	0xc0aa0e75	-5.314265
77	0xc0a72469	-5.2231946
78	0xc0a99d9f	-5.300491
79	0xc0a735bc	-5.2253094
80	0xc0b9258d	-5.785834
81	0xc0b40573	-5.625665
82	0xc0b87854	-5.7646885
83	0xc0afc292	-5.4925013
84	0xc0b6e5a4	-5.7155323
85	0xc0b2d499	-5.588452
86	0xc0b6602b	-5.6992393
87	0xc0abf438	-5.373562
88	0xc0b6610d	-5.699347
89	0xc0a93de2	-5.288804
90	0xc0b5935e	-5.674239
91	0xc0b33039	-5.5996366
92	0xc0b3dbb6	-5.62057
93	0xc0af03db	-5.4692206
94	0xc0af2187	-5.4728427
95	0xc0afcc00	-5.4936523
96	0xc0b100ab	-5.5313315
97	0xc0b14da0	-5.5407257
98	0xc0b3a9c2	-5.6144724
99	0xc0a477b1	-5.139611
100	0xc0b79443	-5.7368484
101	0xc0b302f1	-5.594109
102	0xc0b28bbd	-5.579558
103	0xc0b253b0	-5.5727158
104	0xc0b0a7fb	-5.5205054
105	0xc0ad4d7c	-5.4157085
106	0xc0b0e374	-5.5277653
107	0xc0b00eee	-5.5018225
108	0xc0ae3864	-5.4443836
109	0xc0ac2ab4	-5.380213
110	0xc0b8cbc8	-5.7748756
111	0xc0b31735	-5.596583
112	0xc0b7decb	-5.7459464
113	0xc0b64223	-5.6955733
114	0xc0b53799	-5.663037
115	0xc0b588f1	-5.6729665
116	0xc0b22cf3	-5.567987
117	0xc0b2d18b	-5.588079
118	0xc0b31ccc	-5.5972652
119	0xc0ada8ba	-5.4268465
120	0xc0b2c3a7	-5.5863833
121	0xc0b520c3	-5.660249
122	0xc0b5191a	-5.659314
123	0xc0b21fbc	-5.566374
124	0xc0af9feb	-5.488271
125	0xc0b3a97b	-5.6144385
126	0xc0acc1c0	-5.398651
127	0xc0b21181	-5.5646367
128	0xc0aefbca	-5.468236
129	0xc0a4d8e1	-5.1514745
130	0xc0b24247	-5.5705905
131	0xc0b16a84	-5.5442524
132	0xc0b18a21	-5.5481114
133	0xc0b2786d	-5.5772004
134	0xc0b912f1	-5.783562
135	0xc0afe3d2	-5.49656
136	0xc0ab2349	-5.3480573
137	0xc0b18acb	-5.5481925
138	0xc0afaf95	-5.4901834
139	0xc0ac396c	-5.3820095
140	0xc0b05ed4	-5.5115757
141	0xc0b1acb8	-5.552334
142	0xc0b276e2	-5.577012
143	0xc0ac5a30	-5.386009
144	0xc0afa9c7	-5.489475
145	0xc0ab3690	-5.3504105
146	0xc0a90172	-5.2814264
147	0xc0aa70e9	-5.326283
148	0xc0b348b4	-5.602625
149	0xc0a5920b	-5.1740775
150	0xc0b040ee	-5.507926
151	0xc0b23e3b	-5.5700965
152	0xc0aea313	-5.4574065
153	0xc0ae2e37	-5.4431415
154	0xc0ad0003	-5.4062514
155	0xc0b096bd	-5.5184007
156	0xc0b1ccc2	-5.556245
157	0xc0b16846	-5.5439787
158	0xc0aef3cb	-5.46726
159	0xc0a8e9bf	-5.2785335
160	0xc0b534b8	-5.6626854
161	0xc0b45d13	-5.6363616
162	0xc0b08ce4	-5.5171986
163	0xc0b42204	-5.6291523
164	0xc0b1c1d4	-5.5549107
165	0xc0b18936	-5.5479994
166	0xc0aefe60	-5.4685516
167	0xc0b2102c	-5.564474
168	0xc0adf65e	-5.436324
169	0xc0a883ac	-5.266073
170	0xc0b69ec7	-5.706882
171	0xc0b24c42	-5.571809
172	0xc0b32680	-5.5984497
173	0xc0ac98d0	-5.393654
174	0xc0af37be	-5.4755545
175	0xc0af6d27	-5.4820743
176	0xc0b1cec9	-5.5564923
177	0xc0aff2ce	-5.4983892
178	0xc0aeb4ec	-5.459585
179	0xc0a888c3	-5.2666945
180	0xc0b286dd	-5.578963
181	0xc0b3b4f5	-5.6158395
182	0xc0b55df5	-5.6677194
183	0xc0ac6a5e	-5.3879843
184	0xc0b6c163	-5.711107
185	0xc0af8f26	-5.486224
186	0xc0a9d758	-5.307537
187	0xc0abb758	-5.366131
188	0xc0b44793	-5.633737
189	0xc0a92533	-5.285791
190	0xc0b7bf13	-5.7420745
191	0xc0b326d7	-5.598491
192	0xc0b58702	-5.6727304
193	0xc0b199ec	-5.5500393
194	0xc0acff8d	-5.406195
195	0xc0aeba35	-5.4602304
196	0xc0b103f5	-5.531733
197	0xc0ad2899	-5.411206
198	0xc0afbf51	-5.492104
199	0xc0a5aa8b	-5.177068
200	0xc0b1bf54	-5.5546055
201	0xc0b1408f	-5.5391307
202	0xc0b24e3c	-5.57205
203	0xc0ac31b7	-5.3810687
204	0xc0b00be3	-5.501451
205	0xc0b09436	-5.518092
206	0xc0ae2744	-5.442293
207	0xc0ac2cd4	-5.380472
208	0xc0afd50e	-5.4947577
209	0xc0a7f097	-5.248119
210	0xc0bbc427	-5.8676944
211	0xc0b5789a	-5.670972
212	0xc0b7941b	-5.7368293
213	0xc0af2156	-5.4728193
214	0xc0b76379	-5.7308927
215	0xc0ac741b	-5.389173
216	0xc0ad6a86	-5.4192533
217	0xc0b10d40	-5.5328674
218	0xc0b018b6	-5.5030165
219	0xc0a9b97e	-5.303893
220	0xc0b96efa	-5.794797
221	0xc0b87b05	-5.765017
222	0xc0b2dab6	-5.589198
223	0xc0b5e7fc	-5.6845684
224	0xc0b36608	-5.606205
225	0xc0ae22f5	-5.441767
226	0xc0af3626	-5.47536
227	0xc0aee7fb	-5.465818
228	0xc0b565aa	-5.66866
229	0xc0b2465d	-5.5710893
230	0xc0b54b88	-5.66547
231	0xc0b6ae1f	-5.708755
232	0xc0b0f671	-5.530083
233	0xc0ad1a79	-5.4094815
234	0xc0b40080	-5.625061
235	0xc0b23170	-5.568535
236	0xc0ae7eee	-5.4529943
237	0xc0b068bb	-5.5127845
238	0xc0b2cb8f	-5.5873485
239	0xc0a7ccbc	-5.243742

blinear1.weight_sampler.eps_w f4 [24, 10]
0	0x3eb52f91	0.35387853
1	0xbf67f954	-0.9061482
2	0x3f0fb7d3	0.5613987
3	0x3f98589e	1.1902044
4	0xbf3f4b02	-0.7472383
5	0xbf95e1b9	-1.170951
6	0xbf4c4273	-0.79788893
7	0x3e7242ad	0.23658247
8	0x3f12c20d	0.5732735
9	0x3f4e57e4	0.8060286
10	0x3f75e585	0.96053344
11	0x3faddaaf	1.3582362
12	0x3ff4b450	1.9117527
13	0xbf69e340	-0.9136238
14	0x3f300ef4	0.68772817
15	0x3f3b9061	0.7326718
16	0xbf66f30f	-0.9021463
17	0xbca8c891	-0.02060345
18	0xbcd56f97	-0.026054187
19	0x3d8f380a	0.069931105
20	0x3f7931b1	0.9734145
21	0xbf4d5a72	-0.80216134
22	0x3f53e9c6	0.82778585
23	0xbd753245	-0.059862394
24	0x3faf2786	1.3683937
25	0xbefb66f9	-0.49102
26	0xbf26fd26	-0.65230024
27	0xbf9f6022	-1.2451212
28	0xc02b68d3	-2.678273
29	0x3daa50bb	0.08316179
30	0x3f78cf25	0.9719108
31	0x3e0f53a2	0.13996747
32	0xbfa36e89	-1.2768108
33	0xbbd5a94d	-0.0065204264
34	0xbec2a956	-0.38019818
35	0x3f3726cf	0.7154359
36	0x3fb14d3a	1.3851693
37	0xbf25d244	-0.64773965
38	0xbf361156	-0.711202
39	0xbf332f5f	-0.6999416
40	0x3f0c0777	0.5469889
41	0x3ea3ccbe	0.31992143
42	0x3fd9da8a	1.7019818
43	0x3e7d4b96	0.24735865
44	0x3e951ee4	0.2912513
45	0xbf78d9db	-0.9720742
46	0x3f52e4ce	0.8238038
47	0xbd2b4f5d	-0.041823734
48	0x3f652d6a	0.8952242
49	0xbe274914	-0.16336471
50	0xc0380b38	-2.8756847
51	0x400ca702	2.1976933
52	0x3da49b74	0.08037463
53	0xbf15e90a	-0.58558714
54	0xbf2e0484	-0.6797564
55	0xbe5587f6	-0.20852646
56	0x3f1d31b2	0.61403954
57	0x3f91a97e	1.137985
58	0x3e0ec841	0.13943578
59	0xbdf4b63b	-0.1194882
60	0x3ea17a2a	0.31538516
61	0xbf3d0ffd	-0.7385252
62	0x3fcd8901	1.6057435
63	0x3feae08f	1.834978
64	0xbf2f179a	-0.6839539
65	0xbf6972e0	-0.9119091
66	0x3e1d7271	0.15375687
67	0x3ef55dbd	0.4792308
68	0xbe58f4a2	-0.2118707
69	0xbee57953	-0.44819126
70	0x3f6fd0b7	0.9367785
71	0xbd4c0828	-0.049812466
72	0xbfc885d1	-1.5665838
73	0xbe5eafb2	-0.2174671
74	0xbfbc324a	-1.4702847
75	0xbfa630d3	-1.298365
76	0xbfa605b9	-1.2970496
77	0x3fb1c32e	1.3887689
78	0x3f4bd8f9	0.7962795
79	0x3f437545	0.76350814
80	0xbf293215	-0.66092044
81	0xbfa4a4b0	-1.2862759
82	0xbe9d8d79	-0.30771998
83	0x3fb1a0dd	1.3877217
84	0xbf70f605	-0.94125396
85	0x3fd8b1c8	1.6929255
86	0x3f2befe0	0.67162895
87	0x3e5d9164	0.21637493
88	0x3ed89622	0.42302042
89	0xbfbf2197	-1.4932126
90	0xbddb33b8	-0.10703224
91	0xbfa45af7	-1.284026
92	0x3ea70360	0.32619762
93	0x3f6e8812	0.93176377
94	0x3ddf15cd	0.1089283
95	0xbff2dcce	-1.8973634
96	0x3f2ac530	0.66707134
97	0x3f1e06ae	0.6172894
98	0x3fcae0b0	1.5849819
99	0x3ff9af09	1.9506541
100	0x3f662f1a	0.8991562
101	0x3fe2b8b8	1.7712622
102	0x3f5e05b7	0.8672747
103	0x3e83b1ba	0.25721532
104	0x3fd0148b	1.6256269
105	0xbf636482	-0.8882524
106	0xbd916e35	-0.071010984
107	0xbed5ba47	-0.4174368
108	0xbc03f025	-0.00805286
109	0xbedbc6c0	-0.42925072
110	0xc00c10ee	-2.1885333
111	0x3f90f905	1.1325995
112	0xbd0bfe67	-0.034178164
113	0x3fe6ce06	1.8031623
114	0x3ed4869f	0.41508958
115	0xbf23d41b	-0.6399552
116	0x3cf1a413	0.029497182
117	0xbffd4ebd	-1.9789654
118	0x3e4cc732	0.19997862
119	0x3f3b0d1e	0.7306689
120	0xbe2ecead	-0.17071028
121	0x3d9b82f3	0.07593336
122	0x3f76e635	0.9644502
123	0xbff622ae	-1.9229333
124	0xbea48183	-0.3213006
125	0x3fc3b7c2	1.5290453
126	0x3ff2532b	1.8931631
127	0xbf8fb951	-1.1228429
128	0x3fc892bf	1.5669783
129	0xbf047e3e	-0.5175513
130	0xbfc061d3	-1.5029854
131	0xbeac4c97	-0.33652183
132	0xbf3b9b16	-0.7328352
133	0x3fea18c8	1.8288813
134	0x3f6c540b	0.9231574
135	0x3f396ee3	0.72434825
136	0x3fe3f114	1.7807946
137	0x3eedd6a1	0.4645281
138	0x3c16103b	0.009159143
139	0x3f6afcc2	0.9179193
140	0x3f1d1f57	0.61375946
141	0xbda88940	-0.08229303
142	0xbe11aaaa	-0.1422526
143	0x3e87fdf9	0.26560953
144	0xbf704888	-0.93860674
145	0x3f82f49b	1.0230898
146	0x3ef860d6	0.4851138
147	0x3ec3497c	0.38142002
148	0x3f819c21	1.0125772
149	0xbfe4bd67	-1.7870301
150	0xbfb7d39e	-1.4361455
151	0xbf8b1a32	-1.0867369
152	0xbf03d2d2	-0.5149356
153	0xbf854cc9	-1.0414058
154	0xbd868858	-0.06568974
155	0x3ef1652a	0.47147495
156	0xbfe5ebc5	-1.7962576
157	0x3dfda7b5	0.12385503
158	0x3f95c72e	1.170141
159	0xbe77c13a	-0.24194804
160	0x400904e9	2.1409247
161	0x3f1061ea	0.56399405
162	0x3f5d26c2	0.86387265
163	0x3f18720f	0.5954904
164	0xbfb88909	-1.441682
165	0xbfa8dd63	-1.3192562
166	0xbe3acefe	-0.18243024
167	0x3fd0cd1d	1.6312596
168	0x3dbee4f5	0.09321014
169	0x3f7acb62	0.9796659
170	0xbe3e8ab8	-0.18607605
171	0x3dcc3f00	0.09972954
172	0xbf7ce4b2	-0.9878646
173	0x3f366a58	0.7125602
174	0xbed159d0	-0.40888834
175	0xbdbfb296	-0.093602344
176	0xbf227183	-0.63454455
177	0xbf8fe18b	-1.1240705
178	0xbcd915ea	-0.026499707
179	0xbdec8241	-0.115482815
180	0x3f00066d	0.50009805
181	0xbec6bc56	-0.38815564
182	0xbe2f59e0	-0.17124128
183	0x3f18a8b4	0.5963242
184	0x3eb9d845	0.36297813
185	0x3f84f9b0	1.0388699
186	0xbe8324e9	-0.25614098
187	0xbdd1f77f	-0.10252284
188	0x3fae4ce0	1.361721
189	0x3f979502	1.1842349
190	0xbf20130a	-0.6252905
191	0x3f0d344d	0.5515793
192	0xbfcecead	-1.6156822
193	0x3e8ca178	0.2746694
194	0x4054d335	3.325391
195	0x3f2462bb	0.6421315
196	0xbf803877	-1.0017232
197	0xbf2f0dec	-0.6838062
198	0xbf4c1662	-0.79721653
199	0xbf0c5456	-0.54816186
200	0xbf2513d1	-0.6448336
201	0xc0235c95	-2.5525258
202	0x3f61ba47	0.8817486
203	0xbd761b2a	-0.0600845
204	0xbed53c6c	-0.4164766
205	0x3f7559db	0.95840234
206	0x3dd2b26e	0.10287939
207	0x3fbe46f8	1.4865408
208	0x3f34e6c2	0.7066461
209	0xbee59ada	-0.44844705
210	0xbf6d46b6	-0.9268602
211	0x3f98d24a	1.1939175
212	0x3e0e9a62	0.1392608
213	0x3e5cf411	0.21577479
214	0x3efb55b7	0.49088833
215	0x3f38b034	0.72143865
216	0xbfd751cc	-1.6821837
217	0xbd837f6c	-0.06420788
218	0xbecbadef	-0.39781138
219	0xc0133abf	-2.3004606
220	0x3e6aee4c	0.22942466
221	0x3f4ff352	0.8123065
222	0xbf77db64	-0.9681914
223	0x3f6f1240	0.9338722
224	0x3fad118e	1.3520982
225	0x3f06ab0a	0.52604735
226	0x3ecd294b	0.40070567
227	0x3e0cea9d	0.13761373
228	0xbe01aa75	-0.1266268
229	0xbf8a21ef	-1.0791606
230	0xbf2e9c3d	-0.6820715
231	0x3d49b4b1	0.049244586
232	0x3e10e66a	0.14150396
233	0xbe34cb5b	-0.17655699
234	0xbd10e704	-0.035376564
235	0xbe88e03c	-0.26733577
236	0xbf467a89	-0.77530724
237	0xbfac223c	-1.3447948
238	0xbee60b4c	-0.44930494
239	0xbf270e03	-0.65255755

blinear1.bias_sampler.mu f4 [24]
0	0x3d12ca4d	0.03583746
1	0x3cae8343	0.021302825
2	0x3bc655c8	0.0060527064
3	0x3c9de5ef	0.01927468
4	0x3cfca933	0.0308424
5	0x3d8252c2	0.06363441
6	0x3d238c11	0.0399285
7	0x3d125d11	0.035733286
8	0x3d1dbef1	0.038512174
9	0x3cfb2703	0.03065825
10	0x3d1de2d3	0.038546395
11	0x3d44243f	0.04788613
12	0x3d099ff9	0.033599827
13	0x3d34b25f	0.04411542
14	0x3c5a0525	0.013306891
15	0x3be1ade0	0.0068871826
16	0x3d25e9df	0.04050624
17	0x3d8f9411	0.07010663
18	0xbc7531e9	-0.014965513
19	0x3cb08bf7	0.021551115
20	0x3d20c95e	0.03925454
21	0x3c9b37e2	0.018947545
22	0x3d09ca99	0.033640478
23	0x3d0d823c	0.03454803

blinear1.bias_sampler.rho f4 [24]
0	0xc0a8233e	-5.254302
1	0xc0aa6852	-5.3252344
2	0xc0a9fcd8	-5.3121147
3	0xc0a40461	-5.1255345
4	0xc0a86b49	-5.2630963
5	0xc0a6b745	-5.209872
6	0xc0a582a9	-5.1721997
7	0xc0a9e025	-5.3086114
8	0xc0aacf80	-5.3378296
9	0xc0a2fe29	-5.0935254
10	0xc0a8ee3c	-5.2790813
11	0xc0a85aa0	-5.2610626
12	0xc0a1376d	-5.038016
13	0xc0ab4041	-5.3515935
14	0xc0a437ef	-5.131828
15	0xc0ac7735	-5.3895516
16	0xc0a643b1	-5.195763
17	0xc0a6565a	-5.198041
18	0xc0a50143	-5.156404
19	0xc0a66c2b	-5.200704
20	0xc0a4b1ad	-5.146689
21	0xc0a1e768	-5.059498
22	0xc0a549bd	-5.1652513
23	0xc0a4c38b	-5.14887

blinear1.bias_sampler.eps_w f4 [24]
0	0xbf36e01b	-0.7143571
1	0xbf1c300f	-0.6101083
2	0xbf33df09	-0.702622
3	0x3f949d20	1.1610451
4	0xbf0f4961	-0.5597134
5	0xbfc93666	-1.5719726
6	0xbe1637d1	-0.1466973
7	0xbf584ad6	-0.8448919
8	0xbfae94d8	-1.3639174
9	0x3dbe1d65	0.0928295
10	0xbf61475c	-0.8799951
11	0x3f7e6d76	0.99385774
12	0x3f2e016e	0.6797093
13	0x3ee0592b	0.4381803
14	0xbf91f2d3	-1.1402229
15	0xc00878f7	-2.132383
16	0xbe738d2b	-0.2378432
17	0x3ef3bbb6	0.4760415
18	0x3ea399c3	0.31953248
19	0x3e1dc10d	0.15405674
20	0x3e8f8b70	0.2803607
21	0xbfa410d4	-1.2817636
22	0x3e2f392c	0.17111653
23	0xbf046b05	-0.517258

blinear2.weight_mu f4 [24, 24]
0	0x3d97ce33	0.07412376
1	0x3d35b308	0.04436019
2	0x3def66e2	0.11689545
3	0xbe236d6e	-0.15959713
4	0x3d9c123c	0.076206654
5	0x3e3ff329	0.18745102
6	0x3d97b5f9	0.074077554
7	0x3d68f6fc	0.056876168
8	0xbe0b093e	-0.13577744
9	0x3d9115e7	0.07084256
10	0x3d97ce98	0.074124515
11	0x3db17130	0.08664167
12	0x3df13661	0.1177795
13	0x3daea9dc	0.08528492
14	0x3d8a524b	0.067539774
15	0x3e13a290	0.14417481
16	0x3d9fc69f	0.07801556
17	0x3cd5e1eb	0.026108703
18	0xbe02ea2f	-0.12784646
19	0x3d94addf	0.07259726
20	0xbcc1c3a4	-0.023652859
21	0x3db27fdb	0.08715793
22	0xbe30cb37	-0.1726502
23	0x3d986168	0.07440454
24	0x3dba256c	0.09089169
25	0x3df4ec7a	0.11959167
26	0x3e10009a	0.1406273
27	0xbe2ead1d	-0.17058225
28	0x3dd9b358	0.1062991
29	0x3dccbd73	0.09997072
30	0x3dafa138	0.08575672
31	0x3d95e22c	0.073185295
32	0xbe223495	-0.15840371
33	0x3db479a8	0.088122666
34	0x3dcb5453	0.09928193
35	0x3dc300bc	0.095216244
36	0x3e1955d3	0.14974146
37	0x3dabcacc	0.0838829
38	0x3d983a1f	0.07432961
39	0x3e1ba15a	0.1519827
40	0x3db62246	0.08893256
41	0x3db946cf	0.09046709
42	0xbe388547	-0.18019591
43	0x3dd93c6b	0.10607227
44	0xbd22a9a2	-0.039712556
45	0x3dfdeed0	0.123990655
46	0xbe6641f0	-0.2248609
47	0x3d3dc4bb	0.046330195
48	0x3dfd25a9	0.12360699
49	0x3d91099b	0.0708191
50	0x3df1284f	0.117752664
51	0xbe380fda	-0.17974797
52	0x3e86b9e1	0.2631369
53	0x3dc085df	0.09400534
54	0x3df39f6a	0.1189564
55	0x3d72b416	0.059253775
56	0xbe1d16fd	-0.153408
57	0x3d5d8b03	0.05408765
58	0x3d97bf9a	0.07409592
59	0x3dc97add	0.098378874
60	0x3dff7d8a	0.124751166
61	0x3dc0a18c	0.094058126
62	0x3d82916c	0.06375393
63	0x3e2644b8	0.16237152
64	0x3dc0b925	0.094103135
65	0x3c1e71bd	0.009670672
66	0xbe2e4ac9	-0.17020716
67	0x3d539a63	0.051660907
68	0x3dea4cc8	0.11440426
69	0x3de8e965	0.113726415
70	0xbe45b145	-0.19305904
71	0x3dbc3c0d	0.09191141
72	0xbc94a883	-0.018146759
73	0xbd5e3c02	-0.054256447
74	0xbd095cd7	-0.033535805
75	0x3e542774	0.20718175
76	0xbd63ab25	-0.055583138
77	0xbd282396	-0.041049562
78	0xbca6b3de	-0.02034944
79	0x3c675611	0.014119641
80	0x3e470e47	0.1943904
81	0xbd085372	-0.033282705
82	0xbcf233c6	-0.029565703
83	0xbd2aff7c	-0.041747555
84	0xbdce2a21	-0.10066629
85	0x3c806870	0.0156748
86	0x3d8919be	0.06694363
87	0xbda3d195	-0.07998959
88	0xbd2e4538	-0.04254648
89	0x3d4ec40e	0.05047994
90	0x3e4b260a	0.1983873
91	0xbd311d34	-0.04324074
92	0x3ce311f8	0.02771853
93	0xbd74add0	-0.059736073
94	0x3e4edb9f	0.20200966
95	0xbd1f4bfb	-0.03889082
96	0xbaa7e3d3	-0.0012808986
97	0xbaa626e9	-0.0012676391
98	0xbb4d1e54	-0.0031298595
99	0x3ab7f466	0.0014034628
100	0xbb27ae8f	-0.0025586223
101	0xbb1e3f26	-0.0024146526
102	0xba59ff46	-0.0008315932
103	0xbac6b168	-0.0015159072
104	0x3992179f	0.0002786489
105	0xba0e13f8	-0.00054198457
106	0xbb15f86d	-0.002288367
107	0xbaada707	-0.001324863
108	0x38890b45	6.534768e-05
109	0xba54f9ae	-0.00081243634
110	0xbae6a3be	-0.0017596406
111	0x3a576bac	0.00082176435
112	0xba8b082e	-0.0010607296
113	0xba9b5e85	-0.001185373
114	0x3a832075	0.001000418
115	0xbb01f4fe	-0.0019829865
116	0xba06420c	-0.0005121536
117	0xbb57e712	-0.0032944125
118	0x396633e8	0.00021953846
119	0xbaa1015c	-0.001228373
120	0x3c726c08	0.0147962645
121	0x3c435093	0.011921066
122	0x3c689023	0.014194521
123	0xbcb299e6	-0.0218019
124	0x3c0dfe28	0.008666553
125	0x3c7fb3a2	0.015606793
126	0x3c70ff63	0.014709326
127	0x3c1f94b2	0.009740042
128	0xbc9403ef	-0.018068282
129	0x3c4cc6ac	0.012498539
130	0x3c4a4827	0.012346304
131	0x3c70830d	0.014679682
132	0x3c9217fa	0.017833699
133	0x3c67f959	0.01415857
134	0x3c940728	0.018069819
135	0x3ccb957f	0.024851559
136	0x3c64a9cc	0.013956498
137	0x3ca38dd3	0.019965088
138	0xbc72989d	-0.014806894
139	0x3c67f315	0.014157076
140	0x3c6c87c3	0.014436665
141	0x3c712bca	0.014719913
142	0xbcaad8c5	-0.020855317
143	0x3c8409ee	0.016118016
144	0x3dc54f51	0.09634269
145	0x3d8b3660	0.067974806
146	0x3e0141a6	0.12622699
147	0xbe29620d	-0.1654131
148	0x3d492731	0.04910964
149	0x3dde1137	0.10843127
150	0x3dbada96	0.09123723
151	0x3b952bd6	0.004552345
152	0xbe23d214	-0.15998107
153	0x3d82186b	0.063523136
154	0x3d9b7f3e	0.07592629
155	0x3dcd8eef	0.10037028
156	0x3df4a721	0.1194594
157	0x3dc5485b	0.09632941
158	0x3da26df2	0.07931127
159	0x3e1d3e1f	0.15355729
160	0x3dbc1534	0.09183732
161	0x3dbfd4bf	0.0936675
162	0xbe162a1c	-0.14664501
163	0x3da88141	0.08227778
164	0x3d9e6e2d	0.07735858
165	0x3ddc5bcf	0.107596986
166	0xbe2e9284	-0.17048079
167	0x3d7c112c	0.061539814
168	0xbd18c672	-0.037298627
169	0xbdafe72a	-0.08589013
170	0xbdc4c486	-0.09607796
171	0x3e60022a	0.21875826
172	0xbd83d72c	-0.06437525
173	0xbcb7fad2	-0.022458468
174	0xbd152740	-0.036414385
175	0x3d1a75df	0.037710067
176	0x3e5794db	0.21052878
177	0xbd463966	-0.048394583
178	0xbd084f12	-0.033278532
179	0xbd3958fa	-0.04525087
180	0xbe109ab5	-0.14121516
181	0x3c43afac	0.011943739
182	0x3cfbe26b	0.030747613
183	0xbdc97b82	-0.0983801
184	0xbd0eae38	-0.034834117
185	0x3d982512	0.074289456
186	0x3e59e1f3	0.21277599
187	0xbd680620	-0.056646466
188	0x3c71e7dd	0.014764753
189	0xbd6f4afb	-0.058421116
190	0x3e50c850	0.20388913
191	0xbd45be09	-0.048276935
192	0xbcf33e9a	-0.029692937
193	0xbd898554	-0.067148834
194	0xbdbba9bd	-0.091632344
195	0x3e5a3648	0.21309769
196	0xbd31efbf	-0.04344153
197	0xbd0401e5	-0.03222837
198	0xbc77515c	-0.015095081
199	0x3d843f89	0.06457431
200	0x3e4f6a5c	0.20255417
201	0xbce42414	-0.027849235
202	0xbd13d705	-0.03609373
203	0xbcdafd31	-0.02673206
204	0xbdd9e570	-0.10639465
205	0x3c8eea7b	0.017445793
206	0x3cfa46eb	0.030551394
207	0xbdd44d36	-0.10366289
208	0xbca0dd23	-0.019636696
209	0x3d85ede8	0.06539518
210	0x3e52094b	0.20511357
211	0xbd8ab8c5	-0.06773523
212	0x3d0a7cd0	0.033810437
213	0xbd47b14c	-0.048753068
214	0x3e5a1ca7	0.21299993
215	0xbd5027d6	-0.05081924
216	0x3db0c11f	0.08630585
217	0x3dad9726	0.08476095
218	0x3e0007bc	0.1250295
219	0xbe3f8d8a	-0.18706337
220	0x3d17e8ac	0.037087128
221	0x3dbb312e	0.0914024
222	0x3db5da71	0.08879555
223	0xbd52b878	-0.051445454
224	0xbe2b67fd	-0.16738887
225	0x3d944809	0.07240302
226	0xba70233e	-0.0009160525
227	0x3d9a6464	0.07538679
228	0x3e1cea07	0.1532365
229	0x3dc7a920	0.09749055
230	0x3db0055d	0.08594773
231	0x3e299426	0.1656042
232	0x3dbfce6f	0.09365546
233	0x3e0299f1	0.12754036
234	0xbe175d44	-0.14781672
235	0x3d933e11	0.071895726
236	0x3db39adc	0.087697715
237	0x3deed329	0.11661369
238	0xbe42033e	-0.1894655
239	0x3d723f94	0.059142664
240	0x3da751e6	0.08169918
241	0x3d8ce477	0.06879514
242	0x3e0801ce	0.13281938
243	0xbe5ba1a2	-0.21448377
244	0x3dd2778b	0.10276707
245	0x3dd7c268	0.10535127
246	0x3dbe2bfd	0.09285734
247	0x3dffade9	0.124843426
248	0xbe3a2129	-0.18176712
249	0x3d47107e	0.048599713
250	0x3d80b9fb	0.06285473
251	0x3de975cc	0.11399421
252	0x3e0e7990	0.1391356
253	0x3ddfe7a4	0.10932854
254	0x3da5faad	0.08104453
255	0x3dff8332	0.124761954

blinear2.weight_rho f4 [24, 24]
0	0xc0a6cd35	-5.2125497
1	0xc0abe352	-5.371499
2	0xc0b21010	-5.5644608
3	0xc0a473f6	-5.1391554
4	0xc0adadb0	-5.427452
5	0xc0ad6df7	-5.4196734
6	0xc0ac0b2b	-5.3763633
7	0xc0af2e93	-5.4744353
8	0xc0ab2ff8	-5.3496056
9	0xc0a9e9b7	-5.3097796
10	0xc0b1bd38	-5.554348
11	0xc0ac1032	-5.376977
12	0xc0a88061	-5.2656713
13	0xc0aee80e	-5.465827
14	0xc0a7be55	-5.241984
15	0xc0aa7e16	-5.3278913
16	0xc0ab20e9	-5.3477674
17	0xc0ad6a5b	-5.419233
18	0xc09eef50	-4.966713
19	0xc0b0879f	-5.5165553
20	0xc0afc62d	-5.4929414
21	0xc0b29f97	-5.581981
22	0xc0a80986	-5.2511625
23	0xc0ab5f5f	-5.355392
24	0xc0afa0b7	-5.4883685
25	0xc0aadf6a	-5.339772
26	0xc0b20150	-5.56266
27	0xc0ae2b27	-5.4427676
28	0xc0b26edd	-5.576033
29	0xc0b35546	-5.6041594
30	0xc0b0aa14	-5.5207615
31	0xc0b1ad81	-5.5524297
32	0xc0a5c3b9	-5.180142
33	0xc0a8e3d3	-5.2778106
34	0xc0b395a5	-5.612017
35	0xc0af3f6a	-5.476491
36	0xc0aba30d	-5.3636537
37	0xc0ae99b7	-5.456264
38	0xc0acc730	-5.399315
39	0xc0a83890	-5.2569046
40	0xc0b14b2f	-5.5404277
41	0xc0af6707	-5.4813266
42	0xc0a5d549	-5.182286
43	0xc0acef7f	-5.4042354
44	0xc0ad8ea4	-5.423662
45	0xc0b05109	-5.509892
46	0xc0abe297	-5.37141
47	0xc0a97b57	-5.296306
48	0xc0aeccc3	-5.4624953
49	0xc0aee70c	-5.465704
50	0xc0af7b89	-5.48383
51	0xc0a7fb1e	-5.249404
52	0xc0adb541	-5.4283757
53	0xc0ae2934	-5.4425297
54	0xc0acb4a4	-5.397051
55	0xc0b147bc	-5.5400066
56	0xc0addb8b	-5.4330497
57	0xc0ab3c04	-5.351076
58	0xc0ae768f	-5.4519725
59	0xc0b0a4bf	-5.5201106
60	0xc0ae16cc	-5.440283
61	0xc0af3f2d	-5.476462
62	0xc0a8dea2	-5.277177
63	0xc0b14577	-5.5397296
64	0xc0adf0b4	-5.4356327
65	0xc0b0f875	-5.530329
66	0xc0a85b3c	-5.261137
67	0xc0adff8e	-5.4374456
68	0xc0b1029a	-5.5315676
69	0xc0acf871	-5.4053273
70	0xc0a6572c	-5.198141
71	0xc0ac4f98	-5.384716
72	0xc0a548e1	-5.1651464
73	0xc0a9d9b5	-5.3078256
74	0xc0ac7291	-5.388985
75	0xc0a98ac6	-5.29819
76	0xc0a863db	-5.2621894
77	0xc0aab6d8	-5.33482
78	0xc0a4c5b2	-5.1491327
79	0xc0a76fbf	-5.232391
80	0xc0a77f6e	-5.2343054
81	0xc0a85f40	-5.261627
82	0xc0ab6f96	-5.3573713
83	0xc0a75685	-5.2293115
84	0xc0a2e926	-5.0909605
85	0xc0adbf46	-5.429599
86	0xc0a9f762	-5.311448
87	0xc0a60755	-5.188395
88	0xc0a2eb63	-5.0912337
89	0xc0a9ff3e	-5.3124075
90	0xc0a4de9f	-5.1521754
91	0xc0a8f7e4	-5.28026
92	0xc0a881d4	-5.265848
93	0xc0a88b56	-5.267009
94	0xc0a58c69	-5.17339
95	0xc0a3213b	-5.0978065
96	0xc0a91bf9	-5.2846646
97	0xc0a088d0	-5.0167007
98	0xc0a8681d	-5.262709
99	0xc0a2bb61	-5.0853734
100	0xc0aa8024	-5.328142
101	0xc0a73d66	-5.226245
102	0xc0a506b9	-5.1570706
103	0xc0a28b10	-5.0794754
104	0xc0a06d1b	-5.0133185
105	0xc0a42f75	-5.130793
106	0xc09fad33	-4.9898925
107	0xc0a5bd21	-5.179337
108	0xc0aa20e1	-5.3165135
109	0xc0a56c87	-5.169498
110	0xc0a32e51	-5.099404
111	0xc0a211b9	-5.0646634
112	0xc0a619cf	-5.1906505
113	0xc0a622bb	-5.1917396
114	0xc0aa9de7	-5.331775
115	0xc0a6e3f9	-5.2153287
116	0xc0a3bc08	-5.116703
117	0xc0a0c6c6	-5.0242643
118	0xc0a471a1	-5.1388707
119	0xc0a26c53	-5.075723
120	0xc0a7d6df	-5.2449794
121	0xc0a7ef65	-5.247973
122	0xc0a61025	-5.189471
123	0xc0a55d12	-5.167611
124	0xc09ff2a8	-4.998371
125	0xc0a36bf9	-5.1069303
126	0xc0a2c096	-5.086009
127	0xc0ae170c	-5.4403133
128	0xc0a339de	-5.100814
129	0xc0a3677d	-5.106383
130	0xc0a61dcf	-5.1911387
131	0xc0a51736	-5.1590834
132	0xc0a5618d	-5.168158
133	0xc0ac055c	-5.375654
134	0xc0a235d0	-5.069069
135	0xc0ab6a4b	-5.356725
136	0xc0a7351d	-5.2252336
137	0xc0a08b5b	-5.017011
138	0xc0a78c03	-5.2358413
139	0xc0a56712	-5.168832
140	0xc0a32800	-5.098633
141	0xc0a09743	-5.0184646
142	0xc0a7b17c	-5.2404156
143	0xc0a0be0a	-5.023198
144	0xc0a91253	-5.283487
145	0xc0aa4fa1	-5.3222203
146	0xc0ad4f05	-5.415896
147	0xc0aa29e6	-5.3176146
148	0xc0b3a1f2	-5.6135187
149	0xc0b2766f	-5.576957
150	0xc0ace42d	-5.4028535
151	0xc0ac1780	-5.3778687
152	0xc0ab0415	-5.3442483
153	0xc0ad7827	-5.420917
154	0xc0aecbdc	-5.462385
155	0xc0ae7bbc	-5.4526043
156	0xc0ac9953	-5.3937163
157	0xc0b08b07	-5.516971
158	0xc0ad9862	-5.4248514
159	0xc0abb315	-5.3656106
160	0xc0ae50f1	-5.4473805
161	0xc0b279bf	-5.5773616
162	0xc0a4e949	-5.153477
163	0xc0ad0830	-5.4072495
164	0xc0b13f81	-5.539002
165	0xc0b128d4	-5.536234
166	0xc0a93a3f	-5.28836
167	0xc0aebb71	-5.460381
168	0xc0a65094	-5.197336
169	0xc0a6e2b5	-5.215174
170	0xc0a83fa5	-5.257769
171	0xc0a95c7a	-5.2925386
172	0xc0a862ff	-5.2620845
173	0xc0ab9fee	-5.3632727
174	0xc0a63961	-5.1945043
175	0xc0ac114a	-5.3771105
176	0xc0a8dfa5	-5.2773004
177	0xc0a62cf3	-5.192987
178	0xc0ab8fa2	-5.3612833
179	0xc0a84dbc	-5.259489
180	0xc0a42770	-5.129814
181	0xc0a68155	-5.2032876
182	0xc0a74eaa	-5.2283525
183	0xc0a7f396	-5.2484846
184	0xc0a8e90a	-5.278447
185	0xc0acef74	-5.40423
186	0xc0a264ee	-5.0748205
187	0xc0a65a4f	-5.198524
188	0xc0a7d606	-5.244876
189	0xc0ac8c9f	-5.3921657
190	0xc0ab8740	-5.36026
191	0xc0a8478d	-5.258734
192	0xc0a99eea	-5.3006487
193	0xc0a3f8b9	-5.1241117
194	0xc0aba833	-5.364282
195	0xc0a84c59	-5.25932
196	0xc0ac0a9a	-5.376294
197	0xc0a8d52c	-5.276022
198	0xc0a47d4c	-5.140295
199	0xc0a80c95	-5.251536
200	0xc0a5e0fb	-5.1837134
201	0xc0a28a70	-5.079399
202	0xc0aaf2c2	-5.3421335
203	0xc0aaaf76	-5.3339186
204	0xc0a69810	-5.2060623
205	0xc0a6238d	-5.1918397
206	0xc0a9941a	-5.299329
207	0xc0a4aebb	-5.1463294
208	0xc0aaeb84	-5.3412495
209	0xc0a7e875	-5.247126
210	0xc0a74072	-5.226617
211	0xc0a8a8ca	-5.270604
212	0xc0a9aad9	-5.3021054
213	0xc0abc5c8	-5.367893
214	0xc0a82893	-5.254953
215	0xc0a24353	-5.0707183
216	0xc0ab1fb8	-5.347622
217	0xc0af9011	-5.486336
218	0xc0b11ae7	-5.534534
219	0xc0a422bb	-5.1292396
220	0xc0b0828e	-5.515937
221	0xc0b04e12	-5.50953
222	0xc0aaaa26	-5.33327
223	0xc0ad6fe7	-5.41991
224	0xc0a5e101	-5.1837163
225	0xc0ab3194	-5.349802
226	0xc0abf674	-5.3738346
227	0xc0adfa2a	-5.4367876
228	0xc0ac9662	-5.3933573
229	0xc0acd71b	-5.401258
230	0xc0a76f40	-5.2323303
231	0xc0a94cb2	-5.290612
232	0xc0afb040	-5.490265
233	0xc0b2022c	-5.562765
234	0xc0a51663	-5.1589828
235	0xc0ad456e	-5.4147253
236	0xc0a80635	-5.2507577
237	0xc0b25a0d	-5.5734925
238	0xc0a46a41	-5.1379704
239	0xc0b21480	-5.5650024
240	0xc0ae9ce7	-5.456653
241	0xc0ad547e	-5.416564
242	0xc0aeabdb	-5.4584785
243	0xc0a6b037	-5.2090106
244	0xc0b25b7b	-5.573667
245	0xc0b58ee8	-5.6736946
246	0xc0aeddfb	-5.464597
247	0xc0b2a5a0	-5.582718
248	0xc0a7dcdb	-5.24571
249	0xc0a927cd	-5.2861085
250	0xc0b17f42	-5.5467844
251	0xc0b06e89	-5.513493
252	0xc0ad1491	-5.4087605
253	0xc0b025d6	-5.5046186
254	0xc0b02609	-5.504643
255	0xc0ad9a8b	-5.425115

blinear2.bias_mu f4 [24]
0	0x3d1df3d3	0.038562607
1	0x3d42b9a4	0.047540322
2	0x3d474494	0.048649386
3	0x3d212a05	0.039346714
4	0xb8fac401	-0.000119574375
5	0x3bf7faf6	0.0075677587
6	0x3d38a4eb	0.045079153
7	0x3d59c757	0.05316862
8	0x3d2b47be	0.041816466
9	0x3d2f1391	0.04274327
10	0x3d7188ad	0.058968235
11	0x3b158e5a	0.0022820444
12	0x3d2f8a11	0.04285628
13	0x3d7a392b	0.061089676
14	0x3d570db7	0.052503314
15	0x38ebcea8	0.00011244166
16	0x3d0fca03	0.035104763
17	0x3d1f36ab	0.038870495
18	0x3d52dae2	0.051478274
19	0x3da12f82	0.078703895
20	0x3d38b5f1	0.045095388
21	0x3d5ea885	0.05435993
22	0x3cf0e95f	0.029408155
23	0x3d3e3859	0.046440456

blinear2.bias_rho f4 [24]
0	0xc0a2c6d8	-5.086773
1	0xc0a6c27e	-5.2112417
2	0xc0a29244	-5.0803547
3	0xc0a20b68	-5.0638924
4	0xc0a3d91b	-5.120252
5	0xc0a01d87	-5.0036044
6	0xc0a96e8e	-5.2947454
7	0xc0a552c4	-5.166353
8	0xc0a31de8	-5.0974007
9	0xc0a61a66	-5.1907225
10	0xc0a67863	-5.2021956
11	0xc0a1ce3c	-5.056425
12	0xc0a47c0b	-5.140142
13	0xc0a4a341	-5.1449285
14	0xc0a66cf2	-5.200799
15	0xc0a3d174	-5.119318
16	0xc0a0fda4	-5.030962
17	0xc0a4ab73	-5.145929
18	0xc09d3f39	-4.9139676
19	0xc0a670de	-5.2012777
20	0xc09f32cc	-4.974951
21	0xc0a82570	-5.25457
22	0xc0a7e88c	-5.247137
23	0xc0a41cd9	-5.1285214
