summit/benchmarks/experiment_emulator/trained_models/BNN/baumgartner_primary_amine_yld_3_BNN_model.pt (torch, 27807 bytes, 35 tensors)

blinear1.weight_mu f4 [24, 10]
000000 a1 a5 07 3e 30 ad 87 bc cc 87 f1 bd 90 8b d6 b9
       0.13246776 -0.016562074 -0.11793479 -0.00040921243
000010 50 fd a2 bc e8 6f 53 bd 47 24 7b 3d 1e d8 8f ba
       -0.01989618 -0.051620394 0.061313894 -0.0010974442
000020 e3 31 84 bd ea 37 b6 bd f5 09 6a 3d 2c 25 34 3d
       -0.06454828 -0.088973835 0.057138402 0.043980762
000030 12 38 22 3c 32 02 4b be b3 26 9b 3a 38 6e 95 3c
       0.0099010635 -0.19825056 0.0011837095 0.018241033
000040 22 8f b0 bd f6 07 ce 3d 49 31 98 3b 18 a1 73 bd
       -0.086210504 0.10060112 0.004644547 -0.059479803
000050 7b ce 3c 3c 62 6e 02 3c 4a eb 8f 3d 27 2d 6e 3d
       0.011523838 0.007960888 0.070273 0.05814853
000060 2e 95 66 3d ac 12 1e 3d ae eb 6f bd 71 cd 21 bd
       0.056294613 0.038592026 -0.05857437 -0.039502565
000070 ca b6 16 bb d7 a0 d8 3c c4 98 1b bb dc e0 20 3e
       -0.0022997134 0.026443882 -0.0023742178 0.15710777
000080 21 34 db 3c 0b bd 07 3e 8f 7f c5 ba 7a 3e bb 3b
       0.026758255 0.13255708 -0.0015067923 0.005714235
000090 64 04 e9 bc dd 11 92 bd 74 a1 56 3b 74 f2 a7 3d
       -0.028444476 -0.071323134 0.0032750042 0.08200541
0000a0 ae f7 4b 3d 2b 6a 1e bd f7 05 99 3d 35 69 2f be
       0.049796753 -0.03867547 0.07471841 -0.17129977
0000b0 7b c3 0d bd a3 33 f3 3d 97 39 b0 bd 5d db 15 3a
       -0.034610253 0.11875083 -0.086047344 0.00057165866
0000c0 aa 77 d4 3c 2a 82 2a 3d 1e c9 02 3e e4 50 81 3d
       0.025935967 0.04162804 0.12772033 0.06314257
0000d0 01 0a df 3b a0 4a 46 3c 01 9b af 3c 2b b0 aa bc
       0.0068066125 0.012102753 0.021436216 -0.020835957
0000e0 d8 7e 26 bd 31 29 24 be 7c e4 bb 3d 39 11 c4 bd
       -0.04064831 -0.16031338 0.09174439 -0.095735975
0000f0 5f 4f 3c 3d 21 78 07 bd 47 88 8c 3d 62 cf 9e bd
       0.04597413 -0.03307355 0.0686193 -0.07754399
000100 a4 b7 f6 bd ba 5f 02 be ca f4 8c 3d 30 c8 07 3d
       -0.120467454 -0.1273183 0.06882627 0.033149898
000110 1f 70 10 bd 9d 78 4a 3d 39 74 88 bc 05 e2 35 bd
       -0.035263177 0.049431432 -0.016656982 -0.044405002
000120 8d c0 0f bb f7 84 91 3a e9 61 2c be cd 24 a9 bd
       -0.0021934838 0.0011102249 -0.16834225 -0.08258972
000130 b2 4e 92 3c 56 9c ad 3c 5b 43 01 3e 0f fa 5e be
       0.01785979 0.02119271 0.1262335 -0.21775077
000140 b1 2f 08 be 25 78 f9 bc 14 14 47 bd 36 05 5d 3d
       -0.13299443 -0.030452797 -0.048603132 0.053960048
000150 cc f7 9d 3d 25 28 26 3c 46 f3 4a 3c 2e e3 e6 3d
       0.07713279 0.010141407 0.0123871025 0.112738
000160 6e 57 8d 3c a9 4c 69 3e 20 ab 68 bd 62 24 85 bc
       0.017253604 0.2278315 -0.056803823 -0.0162527
000170 c2 e7 3b bd f4 7b 05 be 17 10 4e 3e 7e f1 8e bc
       -0.04587532 -0.13035566 0.20123325 -0.017449137
000180 0a 91 fb bd ca 50 04 be 8c fc 9c 3d db 01 2f bb
       -0.122835234 -0.12921444 0.07665357 -0.0026703987
000190 dd 8c d0 bd 17 33 e6 bb 06 50 01 bd 5d 81 96 3b
       -0.101831175 -0.0070251334 -0.031570457 0.004593058
0001a0 d5 99 c9 ba cf 39 0e bc d2 cf fe bc 18 fb 8d 3d
       -0.0015380929 -0.008680775 -0.031104956 0.06932658
0001b0 c9 68 a3 bd 0d 97 6d ba 2d fc 0d 3d 38 79 e9 3d
       -0.079789706 -0.0009063341 0.03466432 0.11400074
0001c0 12 4a db b9 88 0b 93 3d 96 8f 22 bd 70 22 12 3d
       -0.00041826122 0.07179934 -0.039687715 0.035677373
0001d0 ea 77 fd 3d ca ab bb bd ed 33 2d bd 49 e7 19 3e
       0.123763874 -0.091636255 -0.04228585 0.15029635
0001e0 0e cf 00 bb d6 1e 60 3d 22 79 2e ba 94 50 66 3d
       -0.0019654664 0.054716907 -0.00066556234 0.05622919
0001f0 40 4d 0e 3e 47 ee 55 bd 59 9e bd 3a a4 35 b1 3d
       0.13896656 -0.052229192 0.0014466747 0.08652809
000200 97 d7 60 3d d7 7d 37 bd 90 e2 5d 3a 61 02 67 bb
       0.054893102 -0.044797745 0.00084642414 -0.003524922
000210 5f aa c8 3c c7 af 62 3d 3a d1 ef bd 0b be a7 bb
       0.024495302 0.055343416 -0.11709829 -0.0051190904
000220 3d 1b e3 bc db 7b 16 3b 16 60 64 bd 71 8a 36 3d
       -0.02772295 0.0022962007 -0.055755697 0.04456562
000230 f1 bd a9 bc d1 b4 31 3d 71 4e 92 3d a9 c1 b0 bd
       -0.020720454 0.04338533 0.07143868 -0.08630688
000240 54 44 4e 3d 1d e0 70 3d f8 af a0 bc 72 f0 af bc
       0.05035813 0.05880748 -0.019615158 -0.021476958
000250 94 73 77 bd b5 58 4c 3c 8d 42 12 3d ea 51 0f 3e
       -0.06041296 0.012472321 0.035708 0.13996091
000260 ef 4a 55 bc 52 66 16 3e d0 10 b1 bd 5d 32 3f 3d
       -0.013018354 0.1468747 -0.08645785 0.04667889
000270 81 10 3f be 60 fd 5b bb 11 41 c8 bc 1f 33 83 3d
       -0.1865864 -0.0033567771 -0.024445089 0.06406235
000280 aa e0 43 3e a0 be a5 3c 31 be 43 be f6 35 84 3d
       0.19128671 0.020232499 -0.19115521 0.06455605
000290 f3 2b 8b 3d 25 1a b5 3c 13 51 d2 bb de dd 75 bb
       0.06795492 0.022107193 -0.006418356 -0.0037516276
0002a0 06 c5 ed 3c 3a 77 89 3d 04 42 bf 3d a0 f6 25 bd
       0.029024612 0.06712194 0.09338763 -0.040518403
0002b0 21 ae 22 bb 8b 86 df 3c 1d 9d c9 bd c4 c6 42 bd
       -0.0024823027 0.027285835 -0.0984442 -0.04755284
0002c0 5c 19 78 3d 4c fd 3f be 4a 58 36 3d 98 40 de 3d
       0.06057106 -0.18748969 0.044517793 0.10852164
0002d0 46 83 a4 bd d1 1b c1 bc 2a 48 42 3d e7 eb 83 bd
       -0.08032851 -0.023572834 0.047432102 -0.06441479
0002e0 18 bf 38 bb 00 de b6 bd 89 81 0e bd a3 90 82 3d
       -0.0028190073 -0.08929062 -0.034791503 0.063752435
0002f0 b8 45 8f 3d 8b 48 1e 3e bf 89 b5 3d 79 2c 33 3d
       0.0699572 0.1545736 0.088641636 0.043743584
000300 cd 9e d8 3d f4 f1 8a bd f8 7f 14 be 6e 94 33 3b
       0.10577164 -0.0678443 -0.14501941 0.0027401703
000310 12 bf 14 3d 40 3a 34 3c de 3a 71 3b 00 b2 c8 38
       0.03631503 0.011000216 0.003680877 9.569898e-05
000320 ca 7d 9f bd 54 c4 89 be 0c 4a d8 3d 7d 51 c9 bd
       -0.07787664 -0.269076 0.10560998 -0.09829996
000330 f7 cc 83 bb fa 56 03 bd e4 86 de 3c be e5 af bc
       -0.0040222364 -0.03206537 0.02716393 -0.021471854
000340 bf 1f e2 bc 2d d4 10 3b 00 aa db 3a af 4e be bd
       -0.027603028 0.0022099123 0.0016759038 -0.092923515
000350 15 e4 79 3d 86 2e f3 3d d9 25 9d bd fa 8d 57 3e
       0.06100853 0.11874108 -0.076732345 0.21050254
000360 c2 98 24 3b 1e c6 ae bc 14 a5 2a 3d 84 ec f3 bd
       0.0025115465 -0.021334704 0.041661337 -0.11910346
000370 1d c2 e1 bc 25 ea 73 b9 34 d1 87 3c 56 69 34 bb
       -0.02755838 -0.00023261512 0.016579248 -0.0027528605
000380 98 9c 8f 38 bd eb ee 3c fe c3 f7 b9 6d 92 4c 3d
       6.847939e-05 0.029165143 -0.00047257537 0.04994433
000390 69 cb 18 3a ea 06 07 3d 41 8b 9d bd ee e4 c1 3c
       0.00058286503 0.03296558 -0.07692576 0.023668732
0003a0 43 01 16 3e cb 9c ff bd 7d 73 d9 bd 0f 2f dd 3d
       0.14648919 -0.12481078 -0.10617731 0.10799991
0003b0 08 1e 70 bc 92 d4 8b be 7c 33 cf 3d a4 00 78 bd
       -0.0146555975 -0.27310616 0.10117242 -0.060547486

blinear1.weight_rho f4 [24, 10]
000000 30 1b e5 c0 a0 62 dc c0 1b 13 e1 c0 f4 eb e1 c0
       -7.159569 -6.887039 -7.033582 -7.060053
000010 af 13 dc c0 84 75 de c0 18 ae dd c0 66 41 e7 c0
       -6.877403 -6.951845 -6.9275017 -7.226733
000020 a0 dc dc c0 df 34 e4 c0 84 19 e2 c0 f4 b0 db c0
       -6.901932 -7.131454 -7.0656147 -6.8653507
000030 d9 5c df c0 0d 12 e0 c0 3a 65 e4 c0 be e4 e0 c0
       -6.980084 -7.0022035 -7.1373568 -7.0279226
000040 4c 80 e4 c0 c9 58 e4 c0 f8 d6 dc c0 b0 6a dc c0
       -7.1406612 -7.135838 -6.9012413 -6.8880234
000050 6b 1b df c0 f0 0c e5 c0 20 63 e1 c0 44 2a dd c0
       -6.972097 -7.1578293 -7.04335 -6.9114094
000060 ec ce dd c0 7d a0 e2 c0 1b b8 d9 c0 9a 84 e1 c0
       -6.931509 -7.082091 -6.803724 -7.0474367
000070 77 33 e5 c0 6a 60 e0 c0 c4 b1 e3 c0 b7 2a e0 c0
       -7.1625323 -7.0117693 -7.11545 -7.005214
000080 22 eb dd c0 5c c0 e3 c0 c9 9f dd c0 01 19 e0 c0
       -6.9349527 -7.1172314 -6.925755 -7.003052
000090 a7 28 e0 c0 29 bf dc c0 a6 fb e0 c0 87 d5 e1 c0
       -7.0049624 -6.898335 -7.030719 -7.0573153
0000a0 9d 4a e0 c0 53 25 e0 c0 b7 6b e3 c0 bb d3 dd c0
       -7.009108 -7.004556 -7.106899 -6.932096
0000b0 f2 32 df c0 dc d3 e0 c0 ad 0e e3 c0 92 dd de c0
       -6.974969 -7.0258617 -7.0955415 -6.964547
0000c0 9d d0 df c0 58 48 de c0 94 de e0 c0 ee 47 df c0
       -6.9942155 -6.946331 -7.02717 -6.9775305
0000d0 c6 9a dc c0 93 ae dc c0 74 79 e0 c0 37 ff de c0
       -6.8938932 -6.8963103 -7.014826 -6.968654
0000e0 9f 63 d9 c0 c7 7a e2 c0 6c 09 df c0 7d 75 dd c0
       -6.793411 -7.0774875 -6.9699 -6.920592
0000f0 f3 0a dc c0 3d 37 e7 c0 71 c8 de c0 86 b4 db c0
       -6.8763366 -7.225493 -6.961968 -6.8657866
000100 a8 65 e4 c0 ce af e1 c0 49 13 de c0 cc 84 e0 c0
       -7.137409 -7.0527105 -6.939854 -7.0162106
000110 8c ff e1 c0 a9 23 e6 c0 55 52 df c0 7b c5 e6 c0
       -7.0624447 -7.191853 -6.9788003 -7.2116065
000120 3c 41 dd c0 b1 3e dc c0 a6 73 de c0 68 fb de c0
       -6.914213 -6.8826528 -6.9516172 -6.9681892
000130 4d 2c e0 c0 ac 7e dc c0 09 1c dd c0 13 7b de c0
       -7.005408 -6.890463 -6.9096723 -6.9525237
000140 3e cd df c0 28 1d df c0 53 bf df c0 be 61 dc c0
       -6.993804 -6.972309 -6.992105 -6.8869314
000150 f4 8b e4 c0 b2 5f df c0 ac b4 de c0 9d 57 df c0
       -7.142084 -6.9804316 -6.9595547 -6.979445
000160 db 33 de c0 3a b8 de c0 fa 93 dd c0 1d fd dd c0
       -6.94383 -6.9599886 -6.9243135 -6.9371476
000170 37 62 e1 c0 b8 68 de c0 b8 84 e0 c0 6a 08 d8 c0
       -7.043239 -6.950283 -7.016201 -6.751027
000180 7f 16 e3 c0 43 1f de c0 b5 1d e0 c0 30 57 e5 c0
       -7.096496 -6.941316 -7.0036263 -7.166893
000190 36 8d df c0 e4 a3 db c0 91 84 e1 c0 f1 1a e0 c0
       -6.9859877 -6.863756 -7.0474324 -7.0032887
0001a0 16 de de c0 c7 84 e1 c0 ea b2 e2 c0 37 9f dc c0
       -6.96461 -7.047458 -7.08434 -6.8944354
0001b0 17 67 e3 c0 b7 3c e0 c0 5f 60 dc c0 96 bb e2 c0
       -7.106334 -7.0074115 -6.886764 -7.0853987
0001c0 9a cc de c0 ab 29 e2 c0 67 0c df c0 ff 69 e2 c0
       -6.962476 -7.0675864 -6.970264 -7.075439
0001d0 a9 6f d8 c0 db 36 e0 c0 ba 9b e4 c0 61 f5 db c0
       -6.7636304 -7.006696 -7.1440096 -6.8737035
0001e0 29 87 de c0 7b 03 df c0 4c 0c df c0 c6 23 e2 c0
       -6.953999 -6.969175 -6.970251 -7.066867
0001f0 4f 96 df c0 f4 5d e3 c0 77 5b e3 c0 3d 61 e1 c0
       -6.987098 -7.105219 -7.104915 -7.04312
000200 16 c1 dc c0 b1 06 dd c0 86 56 e0 c0 d0 18 de c0
       -6.89857 -6.907067 -7.010562 -6.940529
000210 e2 7d e2 c0 e9 d2 db c0 02 d1 e2 c0 3b 96 dd c0
       -7.0778666 -6.869496 -7.0880136 -6.9245887
000220 f5 04 e0 c0 ad 14 e0 c0 fa af e3 c0 32 53 e0 c0
       -7.000605 -7.002524 -7.1152315 -7.0101557
000230 9a 8a e4 c0 6b 38 e2 c0 8c 73 e0 c0 9b de dc c0
       -7.141919 -7.069387 -7.014105 -6.9021735
000240 43 c6 e1 c0 6e e9 da c0 50 e0 e7 c0 2c e6 dc c0
       -7.055452 -6.840995 -7.246132 -6.903097
000250 2d cb df c0 b5 d0 de c0 5d a5 df c0 e6 96 de c0
       -6.9935517 -6.962977 -6.988936 -6.95592
000260 af 0e dd c0 e2 f3 de c0 ad d9 df c0 7b 27 e6 c0
       -6.9080424 -6.967271 -6.9953218 -7.1923194
000270 3a e5 d8 c0 d7 9a de c0 96 25 e3 c0 48 25 e1 c0
       -6.7779818 -6.9564013 -7.098338 -7.035801
000280 be 53 dd c0 66 43 e4 c0 88 01 e1 c0 e0 78 de c0
       -6.9164724 -7.1332273 -7.031437 -6.9522552
000290 e5 5f dd c0 d7 78 de c0 4c d0 df c0 fa 9d e0 c0
       -6.917956 -6.952251 -6.994177 -7.0192842
0002a0 7a 1c e1 c0 b6 05 df c0 06 4b d9 c0 b3 c9 da c0
       -7.034726 -6.969447 -6.790408 -6.8371215
0002b0 14 e4 de c0 aa 9d e4 c0 e8 d6 e1 c0 6a 92 db c0
       -6.9653416 -7.144246 -7.0574837 -6.861623
0002c0 e9 03 e2 c0 99 58 e0 c0 30 13 dd c0 3e f6 dc c0
       -7.0629773 -7.010815 -6.908592 -6.905059
0002d0 94 52 df c0 cc 0c e6 c0 49 ff e1 c0 bb 2e e0 c0
       -6.9788303 -7.189062 -7.0624127 -7.0057044
0002e0 56 67 e2 c0 73 bd dc c0 76 d0 df c0 8c ca e3 c0
       -7.0751143 -6.898126 -6.994197 -7.118475
0002f0 06 19 de c0 af 44 df c0 7c bb dd c0 e0 8e de c0
       -6.9405546 -6.977134 -6.9291363 -6.954941
000300 41 36 de c0 38 1a e2 c0 42 ee df c0 7a b7 dd c0
       -6.944123 -7.0657005 -6.997834 -6.928647
000310 94 47 db c0 65 e1 e0 c0 90 1c dc c0 6e 02 e3 c0
       -6.8524876 -7.027514 -6.8784866 -7.0940466
000320 fe 22 e1 c0 07 a4 df c0 7f 73 e3 c0 ae a3 de c0
       -7.0355215 -6.988773 -7.1078486 -6.9574804
000330 26 a8 dc c0 94 4a dd c0 bd e0 e1 c0 02 87 e6 c0
       -6.895526 -6.915354 -7.058684 -7.2039804
000340 f1 60 dd c0 e4 21 e3 c0 93 d1 dd c0 c4 f3 df c0
       -6.9180837 -7.097887 -6.931833 -6.9985065
000350 3f 22 e3 c0 ab 23 dd c0 48 52 dc c0 d7 cc de c0
       -7.0979304 -6.910604 -6.885044 -6.962505
000360 f5 54 d9 c0 1e 47 dd c0 34 79 d5 c0 4f 46 df c0
       -6.7916207 -6.9149313 -6.6710453 -6.9773326
000370 aa 86 e2 c0 42 69 d9 c0 66 7a dd c0 8a a2 df c0
       -7.0789385 -6.794099 -6.921191 -6.988591
000380 33 c7 dd c0 cb c5 e2 c0 c8 ad dd c0 d4 ba da c0
       -6.9305663 -7.0866446 -6.9274635 -6.835306
000390 99 c1 da c0 29 bb e0 c0 f6 65 e2 c0 c4 a6 e1 c0
       -6.8361325 -7.0228467 -7.0749464 -7.051607
0003a0 a6 f7 e7 c0 84 63 de c0 88 63 e4 c0 a1 bc dd c0
       -7.2489805 -6.949648 -7.13715 -6.929276
0003b0 0e 7c e2 c0 88 70 de c0 0a 00 e2 c0 d8 5d df c0
       -7.0776434 -6.9512367 -7.062505 -6.9802055

blinear1.bias_mu f4 [24]
000000 b4 85 98 3d f0 8e 84 3e cd cb ef ba be 29 12 b9
       0.07447377 0.25890303 -0.001829499 -0.00013939195
000010 fc ad 17 bd 11 25 a8 3c 2e 6f a7 3d 5d 48 64 bd
       -0.03703116 0.020525487 0.08175503 -0.055733074
000020 af 3d ad 3d 07 19 3c 3d 62 48 8f 3d 44 e9 64 39
       0.08459031 0.045922305 0.06996228 0.00021830673
000030 7b 44 73 bc 20 8d 66 3d 4c a1 be 3c d2 66 23 bd
       -0.01484787 0.05628693 0.023270272 -0.03989298
000040 9d 8e 90 bb 26 33 b4 bc fc c6 c1 bd 14 76 18 3e
       -0.004411532 -0.021997046 -0.094617814 0.14888793
000050 ed 46 db bc 6e a7 51 3e 5d bc 29 be 09 bf 7d bd
       -0.026767218 0.20474026 -0.16575761 -0.061949763

blinear1.bias_rho f4 [24]
000000 cb 1d e0 c0 55 b0 e7 c0 e4 2a e1 c0 98 e9 e1 c0
       -7.003637 -7.240275 -7.0364857 -7.059765
000010 75 e5 e0 c0 b1 f0 e5 c0 0c 76 db c0 37 cf df c0
       -7.02801 -7.1856313 -6.85816 -6.994045
000020 d7 b2 dd c0 59 2e e1 c0 8b b9 df c0 0e 7b d9 c0
       -6.928081 -7.0369077 -6.9913993 -6.7962713
000030 c7 0f e4 c0 f0 f2 d8 c0 78 61 e2 c0 eb 0a e8 c0
       -7.126926 -6.7796555 -7.074398 -7.2513328
000040 91 ce d6 c0 82 8c e5 c0 10 12 e2 c0 56 4f dd c0
       -6.7127156 -7.173402 -7.064705 -6.9159346
000050 4b ff e0 c0 7f 7d dd c0 c7 94 e2 c0 4d 08 e0 c0
       -7.0311637 -6.9215693 -7.0806613 -7.0010133

blinear1.weight_sampler.mu f4 [24, 10]
000000 a1 a5 07 3e 30 ad 87 bc cc 87 f1 bd 90 8b d6 b9
       0.13246776 -0.016562074 -0.11793479 -0.00040921243
000010 50 fd a2 bc e8 6f 53 bd 47 24 7b 3d 1e d8 8f ba
       -0.01989618 -0.051620394 0.061313894 -0.0010974442
000020 e3 31 84 bd ea 37 b6 bd f5 09 6a 3d 2c 25 34 3d
       -0.06454828 -0.088973835 0.057138402 0.043980762
000030 12 38 22 3c 32 02 4b be b3 26 9b 3a 38 6e 95 3c
       0.0099010635 -0.19825056 0.0011837095 0.018241033
000040 22 8f b0 bd f6 07 ce 3d 49 31 98 3b 18 a1 73 bd
       -0.086210504 0.10060112 0.004644547 -0.059479803
000050 7b ce 3c 3c 62 6e 02 3c 4a eb 8f 3d 27 2d 6e 3d
       0.011523838 0.007960888 0.070273 0.05814853
000060 2e 95 66 3d ac 12 1e 3d ae eb 6f bd 71 cd 21 bd
       0.056294613 0.038592026 -0.05857437 -0.039502565
000070 ca b6 16 bb d7 a0 d8 3c c4 98 1b bb dc e0 20 3e
       -0.0022997134 0.026443882 -0.0023742178 0.15710777
000080 21 34 db 3c 0b bd 07 3e 8f 7f c5 ba 7a 3e bb 3b
       0.026758255 0.13255708 -0.0015067923 0.005714235
000090 64 04 e9 bc dd 11 92 bd 74 a1 56 3b 74 f2 a7 3d
       -0.028444476 -0.071323134 0.0032750042 0.08200541
0000a0 ae f7 4b 3d 2b 6a 1e bd f7 05 99 3d 35 69 2f be
       0.049796753 -0.03867547 0.07471841 -0.17129977
0000b0 7b c3 0d bd a3 33 f3 3d 97 39 b0 bd 5d db 15 3a
       -0.034610253 0.11875083 -0.086047344 0.00057165866
0000c0 aa 77 d4 3c 2a 82 2a 3d 1e c9 02 3e e4 50 81 3d
       0.025935967 0.04162804 0.12772033 0.06314257
0000d0 01 0a df 3b a0 4a 46 3c 01 9b af 3c 2b b0 aa bc
       0.0068066125 0.012102753 0.021436216 -0.020835957
0000e0 d8 7e 26 bd 31 29 24 be 7c e4 bb 3d 39 11 c4 bd
       -0.04064831 -0.16031338 0.09174439 -0.095735975
0000f0 5f 4f 3c 3d 21 78 07 bd 47 88 8c 3d 62 cf 9e bd
       0.04597413 -0.03307355 0.0686193 -0.07754399
000100 a4 b7 f6 bd ba 5f 02 be ca f4 8c 3d 30 c8 07 3d
       -0.120467454 -0.1273183 0.06882627 0.033149898
000110 1f 70 10 bd 9d 78 4a 3d 39 74 88 bc 05 e2 35 bd
       -0.035263177 0.049431432 -0.016656982 -0.044405002
000120 8d c0 0f bb f7 84 91 3a e9 61 2c be cd 24 a9 bd
       -0.0021934838 0.0011102249 -0.16834225 -0.08258972
000130 b2 4e 92 3c 56 9c ad 3c 5b 43 01 3e 0f fa 5e be
       0.01785979 0.02119271 0.1262335 -0.21775077
000140 b1 2f 08 be 25 78 f9 bc 14 14 47 bd 36 05 5d 3d
       -0.13299443 -0.030452797 -0.048603132 0.053960048
000150 cc f7 9d 3d 25 28 26 3c 46 f3 4a 3c 2e e3 e6 3d
       0.07713279 0.010141407 0.0123871025 0.112738
000160 6e 57 8d 3c a9 4c 69 3e 20 ab 68 bd 62 24 85 bc
       0.017253604 0.2278315 -0.056803823 -0.0162527
000170 c2 e7 3b bd f4 7b 05 be 17 10 4e 3e 7e f1 8e bc
       -0.04587532 -0.13035566 0.20123325 -0.017449137
000180 0a 91 fb bd ca 50 04 be 8c fc 9c 3d db 01 2f bb
       -0.122835234 -0.12921444 0.07665357 -0.0026703987
000190 dd 8c d0 bd 17 33 e6 bb 06 50 01 bd 5d 81 96 3b
       -0.101831175 -0.0070251334 -0.031570457 0.004593058
0001a0 d5 99 c9 ba cf 39 0e bc d2 cf fe bc 18 fb 8d 3d
       -0.0015380929 -0.008680775 -0.031104956 0.06932658
0001b0 c9 68 a3 bd 0d 97 6d ba 2d fc 0d 3d 38 79 e9 3d
       -0.079789706 -0.0009063341 0.03466432 0.11400074
0001c0 12 4a db b9 88 0b 93 3d 96 8f 22 bd 70 22 12 3d
       -0.00041826122 0.07179934 -0.039687715 0.035677373
0001d0 ea 77 fd 3d ca ab bb bd ed 33 2d bd 49 e7 19 3e
       0.123763874 -0.091636255 -0.04228585 0.15029635
0001e0 0e cf 00 bb d6 1e 60 3d 22 79 2e ba 94 50 66 3d
       -0.0019654664 0.054716907 -0.00066556234 0.05622919
0001f0 40 4d 0e 3e 47 ee 55 bd 59 9e bd 3a a4 35 b1 3d
       0.13896656 -0.052229192 0.0014466747 0.08652809
000200 97 d7 60 3d d7 7d 37 bd 90 e2 5d 3a 61 02 67 bb
       0.054893102 -0.044797745 0.00084642414 -0.003524922
000210 5f aa c8 3c c7 af 62 3d 3a d1 ef bd 0b be a7 bb
       0.024495302 0.055343416 -0.11709829 -0.0051190904
000220 3d 1b e3 bc db 7b 16 3b 16 60 64 bd 71 8a 36 3d
       -0.02772295 0.0022962007 -0.055755697 0.04456562
000230 f1 bd a9 bc d1 b4 31 3d 71 4e 92 3d a9 c1 b0 bd
       -0.020720454 0.04338533 0.07143868 -0.08630688
000240 54 44 4e 3d 1d e0 70 3d f8 af a0 bc 72 f0 af bc
       0.05035813 0.05880748 -0.019615158 -0.021476958
000250 94 73 77 bd b5 58 4c 3c 8d 42 12 3d ea 51 0f 3e
       -0.06041296 0.012472321 0.035708 0.13996091
000260 ef 4a 55 bc 52 66 16 3e d0 10 b1 bd 5d 32 3f 3d
       -0.013018354 0.1468747 -0.08645785 0.04667889
000270 81 10 3f be 60 fd 5b bb 11 41 c8 bc 1f 33 83 3d
       -0.1865864 -0.0033567771 -0.024445089 0.06406235
000280 aa e0 43 3e a0 be a5 3c 31 be 43 be f6 35 84 3d
       0.19128671 0.020232499 -0.19115521 0.06455605
000290 f3 2b 8b 3d 25 1a b5 3c 13 51 d2 bb de dd 75 bb
       0.06795492 0.022107193 -0.006418356 -0.0037516276
0002a0 06 c5 ed 3c 3a 77 89 3d 04 42 bf 3d a0 f6 25 bd
       0.029024612 0.06712194 0.09338763 -0.040518403
0002b0 21 ae 22 bb 8b 86 df 3c 1d 9d c9 bd c4 c6 42 bd
       -0.0024823027 0.027285835 -0.0984442 -0.04755284
0002c0 5c 19 78 3d 4c fd 3f be 4a 58 36 3d 98 40 de 3d
       0.06057106 -0.18748969 0.044517793 0.10852164
0002d0 46 83 a4 bd d1 1b c1 bc 2a 48 42 3d e7 eb 83 bd
       -0.08032851 -0.023572834 0.047432102 -0.06441479
0002e0 18 bf 38 bb 00 de b6 bd 89 81 0e bd a3 90 82 3d
       -0.0028190073 -0.08929062 -0.034791503 0.063752435
0002f0 b8 45 8f 3d 8b 48 1e 3e bf 89 b5 3d 79 2c 33 3d
       0.0699572 0.1545736 0.088641636 0.043743584
000300 cd 9e d8 3d f4 f1 8a bd f8 7f 14 be 6e 94 33 3b
       0.10577164 -0.0678443 -0.14501941 0.0027401703
000310 12 bf 14 3d 40 3a 34 3c de 3a 71 3b 00 b2 c8 38
       0.03631503 0.011000216 0.003680877 9.569898e-05
000320 ca 7d 9f bd 54 c4 89 be 0c 4a d8 3d 7d 51 c9 bd
       -0.07787664 -0.269076 0.10560998 -0.09829996
000330 f7 cc 83 bb fa 56 03 bd e4 86 de 3c be e5 af bc
       -0.0040222364 -0.03206537 0.02716393 -0.021471854
000340 bf 1f e2 bc 2d d4 10 3b 00 aa db 3a af 4e be bd
       -0.027603028 0.0022099123 0.0016759038 -0.092923515
000350 15 e4 79 3d 86 2e f3 3d d9 25 9d bd fa 8d 57 3e
       0.06100853 0.11874108 -0.076732345 0.21050254
000360 c2 98 24 3b 1e c6 ae bc 14 a5 2a 3d 84 ec f3 bd
       0.0025115465 -0.021334704 0.041661337 -0.11910346
000370 1d c2 e1 bc 25 ea 73 b9 34 d1 87 3c 56 69 34 bb
       -0.02755838 -0.00023261512 0.016579248 -0.0027528605
000380 98 9c 8f 38 bd eb ee 3c fe c3 f7 b9 6d 92 4c 3d
       6.847939e-05 0.029165143 -0.00047257537 0.04994433
000390 69 cb 18 3a ea 06 07 3d 41 8b 9d bd ee e4 c1 3c
       0.00058286503 0.03296558 -0.07692576 0.023668732
0003a0 43 01 16 3e cb 9c ff bd 7d 73 d9 bd 0f 2f dd 3d
       0.14648919 -0.12481078 -0.10617731 0.10799991
0003b0 08 1e 70 bc 92 d4 8b be 7c 33 cf 3d a4 00 78 bd
       -0.0146555975 -0.27310616 0.10117242 -0.060547486

blinear1.weight_sampler.rho f4 [24, 10]
000000 30 1b e5 c0 a0 62 dc c0 1b 13 e1 c0 f4 eb e1 c0
       -7.159569 -6.887039 -7.033582 -7.060053
000010 af 13 dc c0 84 75 de c0 18 ae dd c0 66 41 e7 c0
       -6.877403 -6.951845 -6.9275017 -7.226733
000020 a0 dc dc c0 df 34 e4 c0 84 19 e2 c0 f4 b0 db c0
       -6.901932 -7.131454 -7.0656147 -6.8653507
000030 d9 5c df c0 0d 12 e0 c0 3a 65 e4 c0 be e4 e0 c0
       -6.980084 -7.0022035 -7.1373568 -7.0279226
000040 4c 80 e4 c0 c9 58 e4 c0 f8 d6 dc c0 b0 6a dc c0
       -7.1406612 -7.135838 -6.9012413 -6.8880234
000050 6b 1b df c0 f0 0c e5 c0 20 63 e1 c0 44 2a dd c0
       -6.972097 -7.1578293 -7.04335 -6.9114094
000060 ec ce dd c0 7d a0 e2 c0 1b b8 d9 c0 9a 84 e1 c0
       -6.931509 -7.082091 -6.803724 -7.0474367
000070 77 33 e5 c0 6a 60 e0 c0 c4 b1 e3 c0 b7 2a e0 c0
       -7.1625323 -7.0117693 -7.11545 -7.005214
000080 22 eb dd c0 5c c0 e3 c0 c9 9f dd c0 01 19 e0 c0
       -6.9349527 -7.1172314 -6.925755 -7.003052
000090 a7 28 e0 c0 29 bf dc c0 a6 fb e0 c0 87 d5 e1 c0
       -7.0049624 -6.898335 -7.030719 -7.0573153
0000a0 9d 4a e0 c0 53 25 e0 c0 b7 6b e3 c0 bb d3 dd c0
       -7.009108 -7.004556 -7.106899 -6.932096
0000b0 f2 32 df c0 dc d3 e0 c0 ad 0e e3 c0 92 dd de c0
       -6.974969 -7.0258617 -7.0955415 -6.964547
0000c0 9d d0 df c0 58 48 de c0 94 de e0 c0 ee 47 df c0
       -6.9942155 -6.946331 -7.02717 -6.9775305
0000d0 c6 9a dc c0 93 ae dc c0 74 79 e0 c0 37 ff de c0
       -6.8938932 -6.8963103 -7.014826 -6.968654
0000e0 9f 63 d9 c0 c7 7a e2 c0 6c 09 df c0 7d 75 dd c0
       -6.793411 -7.0774875 -6.9699 -6.920592
0000f0 f3 0a dc c0 3d 37 e7 c0 71 c8 de c0 86 b4 db c0
       -6.8763366 -7.225493 -6.961968 -6.8657866
000100 a8 65 e4 c0 ce af e1 c0 49 13 de c0 cc 84 e0 c0
       -7.137409 -7.0527105 -6.939854 -7.0162106
000110 8c ff e1 c0 a9 23 e6 c0 55 52 df c0 7b c5 e6 c0
       -7.0624447 -7.191853 -6.9788003 -7.2116065
000120 3c 41 dd c0 b1 3e dc c0 a6 73 de c0 68 fb de c0
       -6.914213 -6.8826528 -6.9516172 -6.9681892
000130 4d 2c e0 c0 ac 7e dc c0 09 1c dd c0 13 7b de c0
       -7.005408 -6.890463 -6.9096723 -6.9525237
000140 3e cd df c0 28 1d df c0 53 bf df c0 be 61 dc c0
       -6.993804 -6.972309 -6.992105 -6.8869314
000150 f4 8b e4 c0 b2 5f df c0 ac b4 de c0 9d 57 df c0
       -7.142084 -6.9804316 -6.9595547 -6.979445
000160 db 33 de c0 3a b8 de c0 fa 93 dd c0 1d fd dd c0
       -6.94383 -6.9599886 -6.9243135 -6.9371476
000170 37 62 e1 c0 b8 68 de c0 b8 84 e0 c0 6a 08 d8 c0
       -7.043239 -6.950283 -7.016201 -6.751027
000180 7f 16 e3 c0 43 1f de c0 b5 1d e0 c0 30 57 e5 c0
       -7.096496 -6.941316 -7.0036263 -7.166893
000190 36 8d df c0 e4 a3 db c0 91 84 e1 c0 f1 1a e0 c0
       -6.9859877 -6.863756 -7.0474324 -7.0032887
0001a0 16 de de c0 c7 84 e1 c0 ea b2 e2 c0 37 9f dc c0
       -6.96461 -7.047458 -7.08434 -6.8944354
0001b0 17 67 e3 c0 b7 3c e0 c0 5f 60 dc c0 96 bb e2 c0
       -7.106334 -7.0074115 -6.886764 -7.0853987
0001c0 9a cc de c0 ab 29 e2 c0 67 0c df c0 ff 69 e2 c0
       -6.962476 -7.0675864 -6.970264 -7.075439
0001d0 a9 6f d8 c0 db 36 e0 c0 ba 9b e4 c0 61 f5 db c0
       -6.7636304 -7.006696 -7.1440096 -6.8737035
0001e0 29 87 de c0 7b 03 df c0 4c 0c df c0 c6 23 e2 c0
       -6.953999 -6.969175 -6.970251 -7.066867
0001f0 4f 96 df c0 f4 5d e3 c0 77 5b e3 c0 3d 61 e1 c0
       -6.987098 -7.105219 -7.104915 -7.04312
000200 16 c1 dc c0 b1 06 dd c0 86 56 e0 c0 d0 18 de c0
       -6.89857 -6.907067 -7.010562 -6.940529
000210 e2 7d e2 c0 e9 d2 db c0 02 d1 e2 c0 3b 96 dd c0
       -7.0778666 -6.869496 -7.0880136 -6.9245887
000220 f5 04 e0 c0 ad 14 e0 c0 fa af e3 c0 32 53 e0 c0
       -7.000605 -7.002524 -7.1152315 -7.0101557
000230 9a 8a e4 c0 6b 38 e2 c0 8c 73 e0 c0 9b de dc c0
       -7.141919 -7.069387 -7.014105 -6.9021735
000240 43 c6 e1 c0 6e e9 da c0 50 e0 e7 c0 2c e6 dc c0
       -7.055452 -6.840995 -7.246132 -6.903097
000250 2d cb df c0 b5 d0 de c0 5d a5 df c0 e6 96 de c0
       -6.9935517 -6.962977 -6.988936 -6.95592
000260 af 0e dd c0 e2 f3 de c0 ad d9 df c0 7b 27 e6 c0
       -6.9080424 -6.967271 -6.9953218 -7.1923194
000270 3a e5 d8 c0 d7 9a de c0 96 25 e3 c0 48 25 e1 c0
       -6.7779818 -6.9564013 -7.098338 -7.035801
000280 be 53 dd c0 66 43 e4 c0 88 01 e1 c0 e0 78 de c0
       -6.9164724 -7.1332273 -7.031437 -6.9522552
000290 e5 5f dd c0 d7 78 de c0 4c d0 df c0 fa 9d e0 c0
       -6.917956 -6.952251 -6.994177 -7.0192842
0002a0 7a 1c e1 c0 b6 05 df c0 06 4b d9 c0 b3 c9 da c0
       -7.034726 -6.969447 -6.790408 -6.8371215
0002b0 14 e4 de c0 aa 9d e4 c0 e8 d6 e1 c0 6a 92 db c0
       -6.9653416 -7.144246 -7.0574837 -6.861623
0002c0 e9 03 e2 c0 99 58 e0 c0 30 13 dd c0 3e f6 dc c0
       -7.0629773 -7.010815 -6.908592 -6.905059
0002d0 94 52 df c0 cc 0c e6 c0 49 ff e1 c0 bb 2e e0 c0
       -6.9788303 -7.189062 -7.0624127 -7.0057044
0002e0 56 67 e2 c0 73 bd dc c0 76 d0 df c0 8c ca e3 c0
       -7.0751143 -6.898126 -6.994197 -7.118475
0002f0 06 19 de c0 af 44 df c0 7c bb dd c0 e0 8e de c0
       -6.9405546 -6.977134 -6.9291363 -6.954941
000300 41 36 de c0 38 1a e2 c0 42 ee df c0 7a b7 dd c0
       -6.944123 -7.0657005 -6.997834 -6.928647
000310 94 47 db c0 65 e1 e0 c0 90 1c dc c0 6e 02 e3 c0
       -6.8524876 -7.027514 -6.8784866 -7.0940466
000320 fe 22 e1 c0 07 a4 df c0 7f 73 e3 c0 ae a3 de c0
       -7.0355215 -6.988773 -7.1078486 -6.9574804
000330 26 a8 dc c0 94 4a dd c0 bd e0 e1 c0 02 87 e6 c0
       -6.895526 -6.915354 -7.058684 -7.2039804
000340 f1 60 dd c0 e4 21 e3 c0 93 d1 dd c0 c4 f3 df c0
       -6.9180837 -7.097887 -6.931833 -6.9985065
000350 3f 22 e3 c0 ab 23 dd c0 48 52 dc c0 d7 cc de c0
       -7.0979304 -6.910604 -6.885044 -6.962505
000360 f5 54 d9 c0 1e 47 dd c0 34 79 d5 c0 4f 46 df c0
       -6.7916207 -6.9149313 -6.6710453 -6.9773326
000370 aa 86 e2 c0 42 69 d9 c0 66 7a dd c0 8a a2 df c0
       -7.0789385 -6.794099 -6.921191 -6.988591
000380 33 c7 dd c0 cb c5 e2 c0 c8 ad dd c0 d4 ba da c0
       -6.9305663 -7.0866446 -6.9274635 -6.835306
000390 99 c1 da c0 29 bb e0 c0 f6 65 e2 c0 c4 a6 e1 c0
       -6.8361325 -7.0228467 -7.0749464 -7.051607
0003a0 a6 f7 e7 c0 84 63 de c0 88 63 e4 c0 a1 bc dd c0
       -7.2489805 -6.949648 -7.13715 -6.929276
0003b0 0e 7c e2 c0 88 70 de c0 0a 00 e2 c0 d8 5d df c0
       -7.0776434 -6.9512367 -7.062505 -6.9802055

blinear1.weight_sampler.eps_w f4 [24, 10]
000000 f1 35 ac 3e 4b 2a a5 bf e3 8d b9 3f 37 21 8c be
       0.33634904 -1.2903532 1.4496425 -0.2736909
000010 63 7d f3 be bb 91 c1 3d a8 31 4e be d7 d7 3c c0
       -0.475566 0.09451624 -0.2013613 -2.9506738
000020 dd 3e 3b bd c9 1e 4d bf d8 29 82 3f 65 fd 93 3f
       -0.045714248 -0.801251 1.016902 1.1561705
000030 e8 d1 9b 3f 3c b8 b3 bf ee 18 1a 3f dd 12 0f bf
       1.2173433 -1.4040599 0.6019429 -0.5588816
000040 44 4e d5 3f 28 79 84 3f f4 ed 50 bf 3a 3c 5a bd
       1.666451 1.0349474 -0.8161309 -0.053280093
000050 7c 1d f3 be 3b 99 4e be 62 08 ef 3f b4 5e 16 3f
       -0.47483432 -0.2017564 1.8674433 0.58738256
000060 83 cb 39 3f ad 12 88 3e 1b 8d ef be 22 c4 01 bf
       0.7257616 0.26576748 -0.46787342 -0.506899
000070 9c fd 2d 3f 13 ba 25 3e c3 34 ac 3f de 96 6e 3f
       0.679651 0.16184263 1.3453602 0.93198955
000080 43 c5 bb bf 5b c9 b4 3f 4a 8a a2 bf 48 4e e3 be
       -1.4669574 1.4123949 -1.2698452 -0.4439566
000090 01 10 0d bf 05 e5 88 bf 37 aa 46 c0 57 69 49 3f
       -0.55102545 -1.0694891 -3.104139 0.7867636
0000a0 3d ae 86 bf bc e5 fc 3e ba 7d 7a bf 47 21 b5 3d
       -1.0521923 0.49394023 -0.97848094 0.08844238
0000b0 55 39 0c 3f 35 67 b6 3e e9 8c 84 3f 20 d5 36 3f
       0.5477498 0.35625616 1.0355502 0.7141895
0000c0 4e 5d 1e bf f8 56 68 be d7 56 e8 3e e1 b7 46 3f
       -0.6186112 -0.22689426 0.45378754 0.77624327
0000d0 26 b4 41 be e9 0d 4b 3f f2 7b 00 bf e7 c9 8a bf
       -0.18916377 0.793181 -0.50189126 -1.0842866
0000e0 2e f7 1a 3f ca 06 57 3e 93 0a a3 be 57 a3 ac 3f
       0.60533416 0.20998684 -0.31844005 1.3487347
0000f0 ce 6d 7e bf ca 60 d3 bf fb 6a 0d bf 9f a7 1d 3d
       -0.993863 -1.6513913 -0.55241364 0.038489934
000100 de 54 7a 3e 35 e6 3e bf e8 5e 13 3d 10 4c 51 3f
       0.24446437 -0.7457002 0.03597918 0.8175669
000110 56 89 93 3e be fa 58 bf 85 41 40 bf f5 e4 be be
       0.28815717 -0.847576 -0.75099975 -0.37284055
000120 a2 35 54 bf df bc c3 bf 15 48 8f 3f 5b a5 32 3f
       -0.8289434 -1.5292014 1.1193873 0.6978356
000130 31 ed b0 be e1 e9 e5 be 67 e4 9c bf 74 8b d7 bf
       -0.34555963 -0.44904998 -1.2257203 -1.6839433
000140 56 66 5c bf 05 f3 5a 3f 09 93 d0 3f ac d1 ae be
       -0.8609365 0.8552707 1.6294872 -0.34144342
000150 93 d4 b4 bf 0e 74 de bf a5 37 ad bd 9a 31 e8 bd
       -1.4127373 -1.7379167 -0.08457879 -0.11337586
000160 d8 5c 8e 3b 94 e0 78 3f 70 84 5a bf 79 c3 2d 3e
       0.004344564 0.9721768 -0.85358334 0.16969098
000170 35 7c ed bf f6 ac 1a 3e 1f 2a d3 be 5f 64 0d 3f
       -1.855353 0.15105042 -0.41243073 0.5523128
000180 41 1b 4e c0 1a f7 7e be d1 b9 91 3f 06 76 2b 3f
       -3.2204134 -0.2489895 1.1384832 0.66976964
000190 a6 9d af 3f d8 05 e7 be 35 f7 e2 bf 12 dc c0 3f
       1.3719985 -0.45121646 -1.7731692 1.506716
0001a0 5f 9e f1 3f 2a 6f e7 3e 4c 92 49 bf 4d fa c2 bf
       1.8876456 0.45202 -0.78738856 -1.5232636
0001b0 86 a4 63 bf 05 ff bc be 54 09 8b bf e7 3b 0d 3f
       -0.8892292 -0.36913314 -1.0862222 0.5516953
0001c0 1d 83 b0 bd 4e 98 0e 3f 88 7a 45 bf b0 cc 57 bf
       -0.08618758 0.5570115 -0.7714009 -0.84296703
0001d0 24 63 4f bf 2a d3 9f bd 07 f5 8c 3e b6 0d 2c 3d
       -0.8101065 -0.07803948 0.2753069 0.042005263
0001e0 09 70 10 40 66 56 b7 bf 37 ef f0 be f5 dd dc bf
       2.256838 -1.4323242 -0.47057506 -1.7255236
0001f0 95 db d9 3f 63 bc 22 bf e4 34 af 3e cf 4e e4 bf
       1.7020136 -0.63568705 0.3422004 -1.783655
000200 40 de ed be a7 4c 40 3f e7 da df bf b2 06 98 3f
       -0.46458626 0.7511696 -1.7488679 1.1877043
000210 af 5b 04 3f d2 46 40 3e 0f 1f b0 bf 87 9e b8 3e
       0.517024 0.18777016 -1.3759478 0.36058447
000220 0f 95 2c 40 01 cd 7a be 07 bb 09 bf d7 ab b2 3d
       2.6965978 -0.24492265 -0.53801006 0.08724182
000230 7e ea 54 3e bd 7c 16 3f bb 49 b4 be c5 ef c0 3e
       0.20792577 0.58784086 -0.35212502 0.3768293
000240 67 22 b2 be ad 86 7a 3d 0d de 9e bd bf a7 4a 3f
       -0.34791872 0.061163593 -0.077571966 0.7916221
000250 b5 69 66 3e a6 15 db 3f 46 e2 db be 8d 37 74 be
       0.22501262 1.7115982 -0.4294607 -0.23849316
000260 8d 77 d5 3f 2c 69 66 bf ef c4 50 3f be be 09 be
       1.6677109 -0.9000423 0.81550497 -0.13451669
000270 9f f3 6b 3f 8a ae ed bf 45 92 08 bf 25 37 25 bf
       0.9216861 -1.856889 -0.5334819 -0.6453727
000280 87 69 b3 bf 79 a3 58 3f 60 96 f9 3e 7e 4c 47 3d
       -1.4016579 0.8462444 0.4874754 0.048656933
000290 de d1 0c 3f fe dc 98 be 55 fa 7c bf b7 53 a6 be
       0.5500773 -0.29856104 -0.98819476 -0.32485744
0002a0 9a 84 cc 3f 7d d4 4c be 6b ce d9 bd aa fd 81 3f
       1.5977967 -0.20002933 -0.10635074 1.0155537
0002b0 92 16 95 3f 47 08 cb bd 68 c1 8e 3e e7 a9 40 bf
       1.1647513 -0.09913688 0.27881932 -0.7525925
0002c0 53 fd 13 bb b1 4b 38 3e fe 0a 13 be e4 bb 46 3f
       -0.0022581413 0.17997624 -0.14359662 0.7763045
0002d0 b2 8d c6 bf 1a ad f5 bd 75 e6 90 3f 24 f2 5c 3f
       -1.5511992 -0.11995907 1.132033 0.8630698
0002e0 2c a3 86 bd 49 3c 64 3f c5 07 04 3e fe 30 99 be
       -0.06574091 0.8915449 0.12893589 -0.2992019
0002f0 06 17 9f bf ca 5b 96 3f f8 d3 7b bf 0d a2 38 bf
       -1.2428901 1.1746762 -0.98370314 -0.7212227
000300 57 1c 0a c0 5d 6a 4e 3e 56 32 9e be 07 2d 81 bf
       -2.1579797 0.20157762 -0.30897778 -1.0091866
000310 63 1a d0 be 06 7d 71 3f 47 22 1e be 6a e2 c8 3e
       -0.4064513 0.94331396 -0.15442763 0.3923524
000320 85 42 0b bf a6 aa da bf ea dd 16 3f e7 77 3a bf
       -0.54398376 -1.7083328 0.58932364 -0.72839206
000330 72 5c 03 c0 d3 5e 1d bf c0 9c e9 3e 41 1b ac bf
       -2.0525174 -0.61472815 0.45627403 -1.3445817
000340 85 c7 82 bf 73 44 bc 3f 31 07 c3 be a3 f9 a3 bf
       -1.0217139 1.4708389 -0.38091424 -1.2810558
000350 95 c7 e3 bd e8 d3 bc 3e 4b d5 cd 3f e5 a4 1a 3f
       -0.111220516 0.36880422 1.6080717 0.6040786
000360 4d 62 6a be cb ca 02 c0 cd 2f 92 3f f4 5b 9e 3f
       -0.22889061 -2.0436275 1.1420838 1.2371812
000370 b4 5d 12 c0 25 9b c3 3f fe 84 16 be 4f 1a 23 3f
       -2.2869692 1.5281721 -0.1469917 0.6371202
000380 71 47 ab be 66 6c a7 3f 80 88 37 bf ce 27 16 be
       -0.33452943 1.3079956 -0.7169266 -0.14663622
000390 4d 51 03 3f 84 98 87 3f 89 cb 0c 3f 76 34 58 3f
       0.5129593 1.0593419 0.5499807 0.8445505
0003a0 9f b1 ae bf 1e 89 f5 bd 34 0d d3 3f 9d a2 61 bf
       -1.3647956 -0.11989044 1.6488404 -0.88138753
0003b0 54 fc 5d 3f 45 b5 99 bf 24 0a 47 3f c9 25 9b 3e
       0.8671315 -1.2008444 0.7774985 0.30302265

blinear1.bias_sampler.mu f4 [24]
000000 b4 85 98 3d f0 8e 84 3e cd cb ef ba be 29 12 b9
       0.07447377 0.25890303 -0.001829499 -0.00013939195
000010 fc ad 17 bd 11 25 a8 3c 2e 6f a7 3d 5d 48 64 bd
       -0.03703116 0.020525487 0.08175503 -0.055733074
000020 af 3d ad 3d 07 19 3c 3d 62 48 8f 3d 44 e9 64 39
       0.08459031 0.045922305 0.06996228 0.00021830673
000030 7b 44 73 bc 20 8d 66 3d 4c a1 be 3c d2 66 23 bd
       -0.01484787 0.05628693 0.023270272 -0.03989298
000040 9d 8e 90 bb 26 33 b4 bc fc c6 c1 bd 14 76 18 3e
       -0.004411532 -0.021997046 -0.094617814 0.14888793
000050 ed 46 db bc 6e a7 51 3e 5d bc 29 be 09 bf 7d bd
       -0.026767218 0.20474026 -0.16575761 -0.061949763

blinear1.bias_sampler.rho f4 [24]
000000 cb 1d e0 c0 55 b0 e7 c0 e4 2a e1 c0 98 e9 e1 c0
       -7.003637 -7.240275 -7.0364857 -7.059765
000010 75 e5 e0 c0 b1 f0 e5 c0 0c 76 db c0 37 cf df c0
       -7.02801 -7.1856313 -6.85816 -6.994045
000020 d7 b2 dd c0 59 2e e1 c0 8b b9 df c0 0e 7b d9 c0
       -6.928081 -7.0369077 -6.9913993 -6.7962713
000030 c7 0f e4 c0 f0 f2 d8 c0 78 61 e2 c0 eb 0a e8 c0
       -7.126926 -6.7796555 -7.074398 -7.2513328
000040 91 ce d6 c0 82 8c e5 c0 10 12 e2 c0 56 4f dd c0
       -6.7127156 -7.173402 -7.064705 -6.9159346
000050 4b ff e0 c0 7f 7d dd c0 c7 94 e2 c0 4d 08 e0 c0
       -7.0311637 -6.9215693 -7.0806613 -7.0010133

blinear1.bias_sampler.eps_w f4 [24]
000000 cf 25 00 bf f6 54 2b be bc fe 9a 3f d4 06 fe 3e
       -0.5005769 -0.16731629 1.2108989 0.49614584
000010 cd 29 8c 3c 12 da 9c be 30 b0 3d bc 24 6e 88 be
       0.017109776 -0.30635124 -0.011577651 -0.2664653
000020 1a 1d 16 bf 59 bd 95 3e 51 20 95 be 60 7d 06 be
       -0.58638155 0.29246023 -0.29126218 -0.13133764
000030 4e 0f 50 3f e8 42 cb 3d 90 7b 48 3f b9 3a 63 3f
       0.81273353 0.09924871 0.7831354 0.8876148
000040 03 ec 05 bd a6 37 ae be 49 20 a2 3e 12 35 d3 3c
       -0.03269578 -0.3402683 0.31665257 0.025782142
000050 ea fc 87 3e 6c 01 18 be bb 35 90 3e 64 1b 89 bf
       0.26560146 -0.14844292 0.28165993 -1.0711484

blinear2.weight_mu f4 [24, 24]
000000 18 1f 1c bb ce 6a 81 3d 78 f5 59 3e 02 e6 87 3a
       -0.0023822244 0.063191995 0.21285045 0.001036823
000010 2e 3e 24 bd 9b 55 27 be 23 dd b3 3d 2c 0f b8 3c
       -0.04009836 -0.1634125 0.08782413 0.022468172
000020 5b 66 3f 3d bf 90 1e 3d 52 90 de bc be 23 01 bb
       0.046728473 0.03871226 -0.027168427 -0.0019705142
000030 af c3 8d bd 22 78 a6 bd 06 67 5e 3d c1 49 c3 bd
       -0.06922089 -0.08128382 0.05429747 -0.09535552
000040 20 11 33 3b fe 46 b5 3b 80 78 2a 3c 70 c7 bf 3d
       0.002732344 0.0055321446 0.010404706 0.093642116
000050 45 f0 57 3e 01 c5 f1 3b 9c 3a 4e bc 54 e4 49 3d
       0.2108775 0.007378221 -0.012587216 0.049290016
000060 3e 10 e0 bb ba 0c 4c bc 4f f5 64 3d 80 e7 18 3e
       -0.0068378737 -0.012454206 0.055898007 0.1493206
000070 d8 87 1b be 86 39 e2 bc d6 7e 11 3d a1 84 ec 3c
       -0.15188539 -0.02761532 0.03552135 0.028871836
000080 0f b3 1c be c9 27 86 bd 72 6c e0 3d e4 1b 2d bd
       -0.1530268 -0.06550557 0.10958184 -0.042262927
000090 67 72 12 bb ab ee 1b bd 1f bb 23 3d 7f b8 46 3b
       -0.002234602 -0.03806941 0.039973374 0.003032237
0000a0 ec 4c ef bd 60 7d ed 3a 25 50 04 3e e6 39 03 3c
       -0.116845936 0.001811903 0.12921198 0.0080094095
0000b0 09 03 4b bd 34 a9 6e bd b0 93 36 be 50 c3 f7 bc
       -0.04956344 -0.058266833 -0.17829776 -0.0302445
0000c0 97 69 43 be 33 af 42 bd 18 5d d7 3a 54 74 92 bc
       -0.19083248 -0.047530364 0.0016430942 -0.017877735
0000d0 31 94 d3 bb 8b f4 82 bd f7 83 24 bd d3 33 8e 3e
       -0.006456875 -0.06394299 -0.040164914 0.27773914
0000e0 db 15 62 3e 95 29 d8 3d f9 f5 94 3d 2e fa 79 3d
       0.2207865 0.10554806 0.07273478 0.061029606
0000f0 d4 35 52 bd 85 15 82 3d 95 fd 68 3a 5e 49 cf 3d
       -0.051320866 0.06351761 0.00088878843 0.101214156
000100 c9 5b e2 bd 32 6b d2 bd d8 34 f2 bd b0 78 d1 3d
       -0.11052663 -0.10274352 -0.118264854 0.102280974
000110 a6 0d 14 be f8 ee 06 3c 8d 1f 1e bd 75 10 a8 3c
       -0.14458331 0.0082356855 -0.038604308 0.02051566
000120 05 9c 36 3c 05 c8 24 3d 97 c4 1c 3b 04 3b 6d 3b
       0.011145596 0.040229816 0.0023920888 0.0036198506
000130 47 c0 ae be 94 15 4b bb b4 90 7d bc 4b 8e c3 3c
       -0.3413107 -0.0030988203 -0.015476394 0.023871562
000140 27 53 53 3c c8 ea 6c bd 2b 47 08 be 55 b7 b0 bc
       0.012898243 -0.057841092 -0.13308398 -0.021571795
000150 84 55 8c 3d 81 d1 f3 3b 50 6e 18 3c 8a aa 16 bd
       0.06852248 0.0074407463 0.009303644 -0.036783732
000160 78 aa dd b8 f2 4d 23 3d 85 65 b3 bd 15 4f 92 3d
       -0.000105698535 0.039869256 -0.08759598 0.0714399
000170 7b 14 23 bd 05 65 fa 3d 50 ee d4 3c de b5 d0 bd
       -0.039814454 0.12226299 0.025992543 -0.101909384
000180 d0 9e 90 3d a3 5a 3c 3d 82 d1 84 3e f9 71 ac be
       0.07061541 0.045984875 0.25941092 -0.33680704
000190 83 18 ba 3a 46 6d f9 bd 1e 18 8d 3c 56 72 a1 3d
       0.0014197979 -0.121790454 0.017223414 0.07883136
0001a0 52 9d 61 3a 1d 05 08 3c 85 ed f5 bc 94 a3 f4 3c
       0.00086065114 0.008302 -0.030020485 0.029863156
0001b0 03 78 81 3d 5a 73 7f bd b0 3f ce bb b3 24 9f 3c
       0.063217185 -0.062365867 -0.0062942132 0.01942668
0001c0 02 5e af bc 28 ee e1 bd 05 ec 0a be 37 c2 db 3c
       -0.021407131 -0.11031753 -0.13566597 0.026826007
0001d0 09 1c 3a bc 34 99 c3 3c 47 bf 2d 3e d1 fb 43 3b
       -0.011359223 0.023876764 0.16967498 0.0029904733
0001e0 f5 b6 0f 3d a7 98 37 3b f3 a3 12 3e d7 20 14 be
       0.03508659 0.0028014572 0.14320354 -0.14465652
0001f0 0e 36 87 3c 89 1a 4a 3d 42 f3 2a bb dd e6 3b 3d
       0.016505267 0.049341712 -0.0026084934 0.045874465
000200 15 a6 53 bd ed c2 81 bd db 0e 7d 3b 85 f1 23 3d
       -0.05167206 -0.06336007 0.003861359 0.040025253
000210 39 f3 ec bb e0 eb c9 bc 62 2f b2 3c 1e 08 0d bd
       -0.007231143 -0.024648607 0.02175111 -0.03443157
000220 ba c1 9d bb 30 7d 8f b9 5c f9 ff 3a ea ef a6 b9
       -0.004814354 -0.00027368357 0.0019529271 -0.00031840737
000230 8a da af 3d cc 3b 17 be d5 5c 43 bd e5 ca ae 3d
       0.08586605 -0.14768904 -0.047695953 0.08534793
000240 94 12 8e bd 65 87 8d 3d e1 9c 20 3e 78 9e 36 bd
       -0.06937137 0.0691059 0.15684845 -0.04458472
000250 70 bc 9e 3d 5e 9f 28 be 76 4d e2 ba 7b fe 43 39
       0.07750785 -0.16467044 -0.0017265517 0.0001869145
000260 7e 21 1c 3d 60 3b 87 bb 4b fc 93 bd 04 4d 74 3b
       0.03811788 -0.004126951 -0.072258554 0.003727735
000270 11 6c 03 3e ae cb 2e b9 5b e6 5a 3d 8a 29 bb bd
       0.12834193 -0.0001666981 0.05344234 -0.09138782
000280 26 b7 ea 39 49 a1 81 bd 03 95 bb 3b ad a4 72 bd
       0.00044768414 -0.06329591 0.0057245507 -0.05923908
000290 6a 61 05 be 3d 20 55 bb 5f 7c 7d 3d ca e4 0b bd
       -0.13025442 -0.0032520436 0.061886188 -0.034153737
0002a0 03 72 92 3d a5 1d d5 bc 97 e6 c0 3a 99 db 07 bc
       0.07150652 -0.026015112 0.0014717159 -0.008292102
0002b0 86 e3 ae 3c fe 37 51 bd 92 03 e6 3d f5 78 46 3d
       0.021348726 -0.05107879 0.1123115 0.048455197
0002c0 30 a0 03 3d 6f 14 4e bc e7 c4 b7 bd e1 29 dc bd
       0.03213519 -0.012578114 -0.08973103 -0.10750175
0002d0 ba 35 8f be 12 38 d6 3d 11 15 10 3d 9c ae 37 3e
       -0.27970678 0.10459913 0.03517634 0.17937702
0002e0 a4 88 fd bd d6 59 0b 3e 03 72 3a 3d 6c 53 60 3c
       -0.12379578 0.13608488 0.045518886 0.013691764
0002f0 36 4f 11 bd 50 5b 12 bb 6b a5 a3 3d 04 06 91 3d
       -0.035475932 -0.0022332259 0.07990535 0.070812255
000300 49 07 2e 3e e7 24 11 3e 5d b1 3b bc 7f d2 e6 bc
       0.16994967 0.14174233 -0.011455861 -0.028176544
000310 be dd e0 bb e8 ba 32 3e 7a 92 e2 3c 35 d0 13 3e
       -0.006862371 0.17454112 0.027657736 0.14434893
000320 51 44 2d 3e 37 d4 b4 bd 3b 92 27 bb 6d 7d 9a bd
       0.16920592 -0.08829539 -0.0025569338 -0.07543454
000330 ce 44 92 3d 82 9d 8f bd 32 41 97 3d 8f f1 25 3e
       0.0714203 -0.07012464 0.07385482 0.16205429
000340 bb 80 35 3d b0 c4 55 be 06 3a fe bc f4 13 39 3d
       0.04431222 -0.20875812 -0.031033527 0.045185044
000350 d3 6c df bc e5 d2 8c 3c 0b 30 ea bd 4c be af bb
       -0.027273571 0.017190406 -0.11434945 -0.0053632613
000360 e8 b7 f4 3c 12 5b 5d 3c c8 0f 52 3d 78 2b e8 3d
       0.02987285 0.013510482 0.05128458 0.11336416
000370 98 5e 4d bd 2f 3b 2b 3d 88 2a 92 38 21 e7 8f 3c
       -0.05013904 0.04180449 6.9697446e-05 0.017566266
000380 85 ae ba 3c e0 15 be bd b3 bb ca bd ba a9 18 3e
       0.022788296 -0.09281516 -0.09899082 0.14908496
000390 e6 5c ff 3c 62 c6 8f 3c ce 07 ea 3b 6a d5 ea bc
       0.031172227 0.017550651 0.0071420437 -0.028666217
0003a0 78 4c 3d 3c 3e 00 9a 3b 68 1d 5a 3e 24 a8 17 3d
       0.011553876 0.004699736 0.2130028 0.037025586
0003b0 d7 91 71 3d 94 35 46 bd 03 25 69 3d 36 98 23 be
       0.058976974 -0.04839094 0.056920063 -0.15976033
0003c0 cc 51 86 39 c7 d7 2d bb 48 c2 1b 3d 10 f1 a9 bc
       0.00025619415 -0.0026526318 0.038027078 -0.02074483
0003d0 6d b4 e5 3c e8 13 4c bd 12 33 b6 bb 39 06 c0 bc
       0.028040135 -0.04982367 -0.0055602873 -0.023440467
0003e0 3b 79 e0 3d 84 c7 c8 bd b4 52 fd ba f3 a9 04 bd
       0.10960623 -0.098036796 -0.0019327016 -0.03238864
0003f0 f6 36 f2 bd 0e 1c ec bb 2c da aa bd bc 68 e3 3d
       -0.11826889 -0.007205493 -0.08342394 0.11103961

blinear2.weight_rho f4 [24, 24]
000000 f5 90 de c0 c2 e8 df c0 c4 a9 e0 c0 06 70 d6 c0
       -6.955195 -6.997163 -7.0207233 -6.7011747
000010 81 de e5 c0 f7 49 df c0 d8 7d e0 c0 09 14 dc c0
       -7.183411 -6.977779 -7.015362 -6.8774457
000020 ab 72 e4 c0 98 b8 e0 c0 5e bf df c0 11 7e e1 c0
       -7.1389976 -7.0225334 -6.9921103 -7.046639
000030 23 be df c0 36 d7 d7 c0 b1 e2 e2 c0 96 e7 dc c0
       -6.99196 -6.745021 -7.0901723 -6.90327
000040 35 56 e4 c0 65 da e3 c0 77 de e3 c0 73 38 e1 c0
       -7.1355233 -7.1204095 -7.1209064 -7.038141
000050 fd 38 df c0 92 ee de c0 99 8c e1 c0 bd 1b df c0
       -6.9757066 -6.9666224 -7.048413 -6.972136
000060 06 9b d9 c0 c7 6c d9 c0 75 27 de c0 e0 8f df c0
       -6.8001738 -6.7945285 -6.9423165 -6.986313
000070 c1 24 dd c0 79 30 de c0 7d 48 de c0 6b 8e e1 c0
       -6.9107366 -6.943417 -6.9463487 -7.048635
000080 d4 92 dd c0 ad 06 e6 c0 dc ef dc c0 20 12 e1 c0
       -6.9241734 -7.188315 -6.9042797 -7.0334625
000090 3b 4e e3 c0 73 98 dc c0 d4 82 e0 c0 0c dc de c0
       -7.1032996 -6.8936095 -7.01597 -6.964361
0000a0 30 23 e6 c0 41 b6 dc c0 a4 1b e4 c0 f5 47 db c0
       -7.1917953 -6.897248 -7.128374 -6.852534
0000b0 68 ff e1 c0 30 a0 e1 c0 f8 15 dc c0 61 01 df c0
       -7.0624275 -7.050804 -6.8776817 -6.9689183
0000c0 ca 68 e0 c0 ca 3a e6 c0 71 ee e1 c0 22 45 e4 c0
       -7.0127916 -7.1946764 -7.0603566 -7.133439
0000d0 ac 60 db c0 32 ec e0 c0 70 90 df c0 2d 0e e3 c0
       -6.855551 -7.0288324 -6.9863815 -7.0954804
0000e0 47 c6 e1 c0 97 0a df c0 34 88 df c0 d7 af de c0
       -7.055454 -6.9700427 -6.9853764 -6.958965
0000f0 37 5d df c0 dd 88 dd c0 49 c7 df c0 1f 86 e0 c0
       -6.980129 -6.922957 -6.993077 -7.016372
000100 9e c9 e0 c0 62 0b e5 c0 70 80 e3 c0 e1 9e e1 c0
       -7.0246115 -7.1576395 -7.1094284 -7.0506444
000110 58 06 dc c0 dd bd dd c0 20 ca e3 c0 52 f5 d8 c0
       -6.8757744 -6.9294267 -7.1184235 -6.7799463
000120 4a 82 db c0 99 7d e0 c0 58 d6 dc c0 b4 b0 e4 c0
       -6.8596544 -7.0153317 -6.901165 -7.14657
000130 32 5d df c0 63 29 d9 c0 33 b3 dd c0 71 e3 dd c0
       -6.9801264 -6.786302 -6.928125 -6.934014
000140 27 71 e1 c0 23 e1 dd c0 ba cd de c0 e6 e4 e7 c0
       -7.0450625 -6.9337325 -6.962613 -7.2466917
000150 76 4a da c0 a0 54 d9 c0 9b a8 dc c0 7a ab e7 c0
       -6.8215895 -6.79158 -6.8955817 -7.239682
000160 32 45 df c0 41 16 db c0 f1 09 e2 c0 dd 66 e0 c0
       -6.9771967 -6.8464665 -7.0637136 -7.0125566
000170 60 ff e4 c0 7f 5b dc c0 7f 12 e5 c0 c0 9f df c0
       -7.1561737 -6.886169 -7.158508 -6.9882507
000180 23 58 e1 c0 1c 97 e4 c0 57 ac e0 c0 5c 40 de c0
       -7.042009 -7.143446 -7.0210376 -6.9453564
000190 ce 71 e3 c0 12 5e e2 c0 e4 2b df c0 43 eb dc c0
       -7.107642 -7.073983 -6.9741077 -6.9037185
0001a0 f4 45 e2 c0 bb fd df c0 f9 4e dd c0 a0 57 e0 c0
       -7.071039 -6.999723 -6.91589 -7.0106964
0001b0 80 e2 e1 c0 b4 90 e2 c0 50 b3 d7 c0 2e a9 dd c0
       -7.058899 -7.080164 -6.7406387 -6.926902
0001c0 a6 12 e5 c0 10 9c e1 c0 af e1 df c0 3a 01 d7 c0
       -7.1585264 -7.0503006 -6.9962993 -6.7188997
0001d0 a4 e7 de c0 4d 08 de c0 6d c1 de c0 67 a6 de c0
       -6.9657764 -6.9385133 -6.9611115 -6.957813
0001e0 de 10 e0 c0 28 04 dc c0 55 9f de c0 bb f1 dc c0
       -7.002059 -6.8755074 -6.9569497 -6.904508
0001f0 3a 23 dc c0 44 a5 dc c0 5b 11 de c0 a3 80 e2 c0
       -6.8793 -6.895174 -6.9396186 -7.0782027
000200 72 1f e4 c0 9a 4c e2 c0 e5 74 dd c0 81 c2 dc c0
       -7.1288385 -7.071851 -6.9205194 -6.898743
000210 ae 58 e1 c0 51 48 e0 c0 6e c0 e0 c0 89 37 e7 c0
       -7.042075 -7.0088277 -7.02349 -7.225529
000220 dd 41 e4 c0 86 5b dd c0 2f bc e0 c0 93 aa de c0
       -7.13304 -6.9174223 -7.0229716 -6.958322
000230 8e ef dd c0 60 c6 df c0 af 63 dd c0 ff 39 df c0
       -6.9354925 -6.9929657 -6.9184184 -6.9758296
000240 63 54 e0 c0 d8 da e1 c0 c2 86 e3 c0 16 7b dd c0
       -7.010301 -7.0579643 -7.1102 -6.921275
000250 62 22 e6 c0 7a d1 d6 c0 7f b4 df c0 dd bb d9 c0
       -7.191697 -6.713071 -6.990783 -6.8041825
000260 ab 99 e1 c0 6e d8 e4 c0 70 d3 dc c0 d4 ee df c0
       -7.0500083 -7.1514196 -6.9008102 -6.997904
000270 2e c0 e3 c0 51 ab e6 c0 dd db e5 c0 17 72 db c0
       -7.1172094 -7.2084126 -7.183089 -6.857677
000280 2e da de c0 40 86 e2 c0 f5 70 dd c0 0c f8 de c0
       -6.9641333 -7.078888 -6.9200387 -6.967779
000290 16 d7 e0 c0 f8 1d e6 c0 f2 6f e2 c0 1c 50 e0 c0
       -7.0262556 -7.1911583 -7.076165 -7.009779
0002a0 cc 9b e1 c0 04 cb e3 c0 fc 94 dd c0 4d 47 e4 c0
       -7.050268 -7.118532 -6.9244366 -7.1337037
0002b0 e3 31 e0 c0 08 8d dc c0 cc 7f de c0 c9 4e df c0
       -7.0060897 -6.8922157 -6.9531 -6.9783673
0002c0 44 84 de c0 51 fb e3 c0 44 19 e3 c0 c3 28 e1 c0
       -6.9536457 -7.1244283 -7.096834 -7.036226
0002d0 03 0f e1 c0 82 7d d8 c0 5d c3 e1 c0 9b e5 e1 c0
       -7.0330825 -6.765321 -7.055098 -7.059278
0002e0 e6 46 e0 c0 06 48 e5 c0 71 95 e5 c0 0b dd e0 c0
       -7.0086546 -7.165042 -7.1744924 -7.026983
0002f0 f7 de e0 c0 78 cf de c0 2a b0 df c0 95 ac dd c0
       -7.0272174 -6.962826 -6.9902544 -6.927317
000300 92 ec de c0 08 d3 db c0 77 99 de c0 0c b0 dd c0
       -6.966378 -6.8695107 -6.9562335 -6.92774
000310 ba 33 dc c0 0f 08 e0 c0 24 b0 dd c0 2a 84 e1 c0
       -6.8813143 -7.0009837 -6.9277515 -7.0473833
000320 bd ac dc c0 e1 d4 e1 c0 c7 0b e3 c0 bb 09 e1 c0
       -6.896086 -7.057236 -7.0951877 -7.032438
000330 9e 37 e0 c0 eb dc dd c0 a1 e3 e5 c0 6e ae de c0
       -7.006789 -6.9332175 -7.1840367 -6.9587927
000340 f7 29 e2 c0 9d 44 dd c0 97 e5 e2 c0 93 1a e3 c0
       -7.0676227 -6.9146256 -7.090526 -7.096994
000350 ed d3 e0 c0 e4 47 de c0 87 2c e0 c0 e9 22 e3 c0
       -7.02587 -6.9462757 -7.0054355 -7.0980115
000360 52 1b db c0 d7 14 e1 c0 b5 f2 df c0 29 d0 de c0
       -6.847085 -7.033794 -6.9983773 -6.96291
000370 88 e4 db c0 f1 14 dc c0 af d4 dd c0 ab 30 dd c0
       -6.871647 -6.8775563 -6.9322124 -6.912191
000380 25 6f dc c0 72 03 e2 c0 1f 9e da c0 1b b8 e1 c0
       -6.8885674 -7.0629206 -6.831802 -7.053724
000390 e2 a7 dc c0 07 2a de c0 8a 6a dd c0 12 0c df c0
       -6.8954935 -6.9426303 -6.9192553 -6.9702234
0003a0 c3 0e e1 c0 ea c2 e1 c0 0f 37 dc c0 fe 52 e3 c0
       -7.033052 -7.055043 -6.881721 -7.103881
0003b0 21 71 e0 c0 9a 1f d9 c0 ca 64 e6 c0 6b 77 e3 c0
       -7.0138097 -6.7851076 -7.1998034 -7.1083274
0003c0 3f 69 da c0 a8 a6 dc c0 63 be db c0 18 2e e0 c0
       -6.8253474 -6.895344 -6.8669906 -7.0056267
0003d0 31 8c dc c0 24 12 e2 c0 f1 e0 e3 c0 1e af d9 c0
       -6.892113 -7.0647144 -7.1212087 -6.8026266
0003e0 fa 6f e4 c0 c3 6d e2 c0 47 5b de c0 3c fd de c0
       -7.138669 -7.0758986 -6.9486423 -6.9684124
0003f0 04 d7 db c0 75 8b dc c0 d8 ad e1 c0 cc 26 df c0
       -6.869997 -6.8920236 -7.052471 -6.973486

blinear2.bias_mu f4 [24]
000000 13 82 0c 3d 75 15 24 3e 25 51 02 be cd fa 77 3b
       0.034303736 0.1602381 -0.12726267 0.0037838698
000010 a2 56 8a 3d 77 13 91 3d d2 3a 69 3d 96 f5 8c 3c
       0.06754805 0.07083791 0.05694086 0.017206948
000020 8d f8 18 bd 43 c5 a7 3d c4 25 6e bd f0 8c ff bd
       -0.03734641 0.081919216 -0.058141485 -0.124780536
000030 91 d8 03 3d ab 58 c2 3d 2c 5b ca 3d 5f 98 88 3d
       0.032188956 0.09489568 0.09880671 0.066696875
000040 c3 64 e8 3c fb af 76 3d 26 6d 32 3c d7 a3 bc 3c
       0.02836836 0.06022642 0.010890281 0.023027344
000050 08 f6 c3 bb 21 bb 07 3e 6a 83 b6 3d 3a e3 d4 bc
       -0.005980257 0.13254978 0.08911784 -0.025987256
