summit/benchmarks/experiment_emulator/trained_models/BNN/baumgartner_aniline_cn_crosscoupling_descriptors_yield_3_BNN_model.pt (torch_old, 24661 bytes, 35 tensors)

blinear1.weight_mu f4 [24, 13]
0.014714998 0.065419465 0.0006385094 -0.035272066 0.011551704 -0.031660374 -0.037494626 0.00030809207
0.12414481 0.036026105 -0.0035991305 0.004076047 0.016219847 -0.016796364 -0.04403319 -0.038354747
0.001541539 0.022976553 0.00050461595 -0.002753227 3.5763172e-05 0.15556598 0.00033950224 -0.013265372
-0.0027899859 -0.009625976 -0.00018981057 -0.021053342 0.019966068 0.022558432 0.027206019 0.022926526
0.022207001 0.0007531121 0.15694529 -0.011565456 -0.048274357 -0.042469583 0.0537068 0.0040192315
0.17036726 0.044222124 -0.0028158855 0.029101256 -0.0006057403 -0.008220332 -0.0015875575 0.04741263
0.06802554 0.07704408 0.070374094 -0.0689695 0.036694493 0.06684067 -0.001753937 -0.040606625
0.005376593 -0.03453052 -0.049746606 -2.0953545e-05 0.12206273 0.03903769 -0.00085671025 0.006656369
0.019040354 -0.015505021 -0.038523264 -0.021306507 -0.0012654188 0.019341283 -0.0015681871 0.0037407088
3.4480625e-05 0.15562032 0.024295388 -0.0066007203 -0.0022220854 -0.036126588 0.01955505 0.17836139
0.05457829 0.00060285605 0.02719341 0.00088765216 -0.0035024078 -0.00031658227 0.009573895 0.074415006
0.063080564 0.06779666 -0.058823228 0.0017558532 0.056432962 -0.0044357623 -0.030122958 0.02155577
-0.02962075 -0.033267 -1.6172198e-06 0.12119608 0.036458157 -0.003963225 0.005536843 0.012918211
-0.012972793 -0.050570328 -0.040283572 0.0011533317 0.028071895 0.00073822495 -0.003237445 2.018815e-05
0.18721248 0.015628632 -0.0110761225 -0.009677596 -0.026695518 0.008756219 0.089951284 0.002378269
-0.030942338 0.013976698 -0.028144272 -0.041763067 0.00035108795 0.13097249 0.04150888 -0.0022622098
0.007290248 0.02092547 0.014481414 0.07977159 0.0048154136 -0.029477032 0.01693318 -0.026776284
-0.038197193 -0.0007539797 0.11615917 0.038062476 -0.0028008213 0.00636488 0.0201548 -0.00067513756
-0.00931536 0.025046151 0.03231861 0.028376658 0.022287667 0.024551304 0.004064808 0.14621231
-0.0048894626 -0.047014806 -0.03490982 0.050034728 0.012720024 0.18558607 0.052340515 0.0016023631
0.029090157 0.0014142387 -0.0026256193 0.00040495742 0.04198384 0.07583244 0.07744325 0.07945631
-0.07753561 -0.035167407 -0.075549096 0.0044820933 -0.0005096502 0.013744255 -0.0025202367 -0.0046038735
-0.0011811453 0.12155265 -0.029212574 -0.0757042 -0.068028495 0.11865634 0.005248797 0.14219818
0.035796355 0.0093003195 0.034265473 0.0077071325 0.009056691 -4.9765047e-05 0.08520638 0.06759569
0.06680159 0.06735146 -0.06279462 0.014531276 0.15028116 0.030740345 -0.004899395 0.029847758
0.0047079115 -0.011538256 0.00018079634 0.04316775 0.069832906 0.065027565 0.06623359 -0.05730075
0.012965446 0.07326761 0.005379954 -0.034762662 0.014342212 -0.032427505 -0.040609043 -0.0005283903
0.127214 0.03575894 -0.007945247 0.0005600535 0.025427612 -0.0025704622 -0.017901925 0.021942683
0.008953002 0.03029701 0.028007604 0.01584999 0.001725699 0.13669357 0.0065602735 -0.037758607
-0.03180138 0.035072297 0.0095524425 0.10137366 0.0038259358 -0.036235098 0.014495306 -0.03631354
-0.035118178 0.00045756754 0.12374726 0.042143356 0.0020902816 0.00930874 0.023198575 0.0055118706
0.045139767 -0.008502087 -0.035244443 0.02256017 -0.035047803 -0.04476775 -0.000104898936 0.12107765
00000000: 2d17 713c a4fa 853d a461 273a 7179 10bd
00000010: 5c43 3d3c 4fae 01bd f793 19bd 6b87 a139
00000020: a23f fe3d 1c90 133d 64df 6bbb 5c90 853b
00000030: 7cdf 843c 8798 89bc 255c 34bd de19 1dbd
00000040: 770d ca3a 5339 bc3c 3448 043a 7c6f 34bb
00000050: 6a00 1638 b04c 1f3e 38ff b139 0157 59bc
00000060: 32d8 36bb 45b6 1dbc e307 47b9 0f78 acbc
00000070: e18f a33c 76cc b83c 28df de3c 69d0 bb3c
00000080: 75eb b53c 7f6c 453a 44b6 203e 0a7d 3dbc
00000090: 55bb 45bd 96f4 2dbd a9fb 5b3d c2b3 833b
000000a0: c174 2e3e 4222 353d b88a 38bb c265 ee3c
000000b0: 8bca 1eba 92ae 06bc 9715 d0ba bf33 423d
000000c0: f950 8b3d 49c9 9d3d 4b20 903d e23f 8dbd
000000d0: f74c 163d c3e3 883d 5ce4 e5ba 2253 26bd
000000e0: 222e b03b e06f 0dbd 19c3 4bbd 65c5 afb7
000000f0: 06fc f93d fce5 1f3d da94 60ba ac1d da3b
00000100: 84fa 9b3c c608 7ebc 92ca 1dbd fc8a aebc
00000110: 69dc a5ba 9c71 9e3c a18b cdba ae26 753b
00000120: 4a9f 1038 ef5a 1f3e 1f07 c73c db4a d8bb
00000130: 68a0 11bb 79f9 13bd ea31 a03c 5ea4 363e
00000140: 7c8d 5f3d fc08 1e3a b7c4 de3c 54b1 683a
00000150: a788 65bb f4fa a5b9 d3db 1c3c e566 983d
00000160: 6230 813d fad8 8a3d a0f0 70bd a824 e63a
00000170: 4026 673d df59 91bb 6cc4 f6bc ba95 b03c
00000180: 37a7 f2bc fa42 08bd 400f d9b5 a735 f83d
00000190: 2655 153d f1dd 81bb 686e b53b e7a6 533c
000001a0: d68b 54bc d522 4fbd 6300 25bd 642b 973a
000001b0: 08f7 e53c 7085 413a 502b 54bb b959 a937
000001c0: a1b4 3f3e 9e07 803c a078 35bc c88e 1ebc
000001d0: 8fb0 dabc 3f76 0f3c 6138 b83d bcdc 1b3b
000001e0: c97a fdbc 85fe 643c d18e e6bc c00f 2bbd
000001f0: 3a12 b839 a71d 063e 3705 2a3d 9541 14bb
00000200: 08e3 ee3b e46b ab3c 7443 6d3c 4a5f a33d
00000210: 9eca 9d3b d179 f1bc 74b7 8a3c f059 dbbc
00000220: a974 1cbd b9a6 45ba dce4 ed3d 66e7 1b3d
00000230: fc8d 37bb 7c90 d03b ae1b a53c b7fb 30ba
00000240: 749f 18bc 962d cd3c 8560 043d 2a76 e83c
00000250: a094 b63c d11f c93c 1532 853b aeb8 153e
00000260: c937 a0bb 9992 40bd 99fd 0ebd 37f1 4c3d
00000270: a667 503c 460a 3e3e 0263 563d 6206 d23a
00000280: 7b4e ee3c fa5d b93a 9512 2cbb 7750 d439
00000290: 3ff7 2b3d 0a4e 9b3d 919a 9e3d fdb9 a23d
000002a0: fdca 9ebd b30b 10bd 7cb9 9abd 86de 923b
000002b0: 0c9a 05ba 952f 613c 8e2a 25bb 17dc 96bb
000002c0: a9d0 9aba 99f0 f83d 354f efbc ce0a 9bbd
000002d0: 8652 8bbd 1802 f33d 1afe ab3b 669c 113e
000002e0: 339f 123d 5e60 183c f459 0c3d 1d8c fc3b
000002f0: 8462 143c d0ba 50b8 af80 ae3d 9c6f 8a3d
00000300: 46cf 883d 90ef 893d 779a 80bd 9714 6e3c
00000310: 4ee3 193e 2dd3 fb3c 1b8b a0bb 4983 f43c
00000320: d344 9a3b f40a 3dbc 2694 3d39 abd0 303d
00000330: 8e04 8f3d 2c2d 853d 7aa5 873d 31b4 6abd
00000340: 066d 543c 540d 963d 534a b03b 4b63 0ebd
00000350: 99fb 6a3c b4d2 04bd ab55 26bd ac83 0aba
00000360: 6344 023e f777 123d c82c 02bc 8ed0 123a
00000370: 914d d03c 3375 28bb 0fa7 92bc 24c1 b33c
00000380: 9daf 123c 6f31 f83c 3470 e53c d7d7 813c
00000390: da30 e23a 66f9 0b3e 90f7 d63b c5a8 1abd
000003a0: 2a42 02bd f8a7 0f3d d981 1c3c fe9c cf3d
000003b0: 8dbc 7a3b 416b 14bd b87d 6d3c 82bd 14bd
000003c0: 14d8 0fbd ade5 ef39 346f fd3d 839e 2c3d
000003d0: 1bfd 083b af83 183c f00a be3c ec9c b43b
000003e0: 7ae4 383d 564c 0bbc 7a5c 10bd 1bd0 b83c
000003f0: 498e 0fbd 635e 37bd 30fd dbb8 8ff7 f73d

blinear1.weight_rho f4 [24, 13]
-5.555442 -5.6414146 -5.5733337 -5.6096125 -5.694273 -5.666898 -5.5972247 -5.378472
-5.538606 -5.4562654 -5.6349535 -5.677797 -5.5889196 -5.470337 -5.6139264 -5.807712
-5.6073117 -5.7884574 -5.7015166 -5.4190784 -5.534268 -5.601973 -5.4448466 -5.51694
-5.5832357 -5.797039 -5.6345882 -5.62168 -5.6853814 -5.6102123 -5.5937414 -5.6662793
-5.587602 -5.357424 -5.665594 -5.4975767 -5.590357 -5.6564918 -5.5827928 -5.6101017
-5.69815 -5.645686 -5.69433 -5.672697 -5.464216 -5.565575 -5.556572 -5.5679474
-5.713067 -5.540874 -5.6744947 -5.8275394 -5.517774 -5.448549 -5.5175266 -5.559103
-5.684091 -5.5816813 -5.724531 -5.501951 -5.699555 -5.670576 -5.771448 -5.3870554
-5.566722 -5.593972 -5.633303 -5.591678 -5.6213317 -5.4432015 -5.680037 -5.564212
-5.2025337 -5.562335 -5.668868 -5.8095603 -5.6595263 -5.6723003 -5.6893907 -5.623336
-5.7203794 -5.7114882 -5.6430225 -5.512431 -5.754305 -5.4679437 -5.5565634 -5.733741
-5.56313 -5.6829653 -5.760429 -5.6309566 -5.365074 -5.7083387 -5.6408796 -5.715136
-5.488743 -5.5116167 -5.4647408 -5.5165687 -5.516863 -5.5772805 -5.5584865 -5.7696624
-5.601627 -5.668998 -5.678879 -5.5870876 -5.7396092 -5.7603884 -5.6526723 -5.325646
-5.713115 -5.5751123 -5.846577 -5.514901 -5.645391 -5.5539517 -5.4988575 -5.665044
-5.5129204 -5.7048936 -5.5842137 -5.603586 -5.4233456 -5.5259275 -5.5773487 -5.5809097
-5.6956806 -5.7310395 -5.6146708 -5.589141 -5.6112723 -5.687453 -5.4170775 -5.7964015
-5.4736123 -5.492775 -5.7344003 -5.713359 -5.440958 -5.544816 -5.592072 -5.5261245
-5.6050463 -5.714409 -5.597913 -5.6715407 -5.6680975 -5.4620876 -5.5381017 -5.3989196
-5.532444 -5.5191617 -5.624531 -5.5052023 -5.6138206 -5.7558174 -5.5926347 -5.594278
-5.7019796 -5.7484183 -5.6526337 -5.415982 -5.5668607 -5.425144 -5.472835 -5.49912
-5.657834 -5.7420373 -5.5128784 -5.6763988 -5.575625 -5.5041695 -5.724489 -5.532774
-5.4534726 -5.5962133 -5.401434 -5.577333 -5.666702 -5.555728 -5.6114264 -5.6435256
-5.6367445 -5.840061 -5.5390377 -5.659703 -5.5539474 -5.518775 -5.692398 -5.6435394
-5.555076 -5.629605 -5.831764 -5.6851206 -5.613041 -5.6245255 -5.4987617 -5.51306
-5.291976 -5.578985 -5.4869766 -5.487989 -5.582882 -5.4921384 -5.477366 -5.615887
-5.67948 -5.5033994 -5.5639224 -5.5334783 -5.542168 -5.607154 -5.665419 -5.374276
-5.5371184 -5.706535 -5.4729347 -5.7338505 -5.5596824 -5.533956 -5.722914 -5.5281224
-5.577637 -5.478718 -5.5153327 -5.72373 -5.2721453 -5.680442 -5.5137825 -5.610698
-5.6656604 -5.6999316 -5.5928035 -5.460352 -5.608636 -5.600272 -5.6077747 -5.53144
-5.7907705 -5.5596924 -5.8046455 -5.596194 -5.463299 -5.6045947 -5.7098093 -5.5783668
-5.634078 -5.708601 -5.442143 -5.601854 -5.6527567 -5.5198226 -5.593816 -5.70963
00000000: 2ec6 b1c0 7886 b4c0 c058 b2c0 f281 b3c0
00000010: 7c37 b6c0 3a57 b5c0 771c b3c0 711c acc0
00000020: 433c b1c0 ba99 aec0 8a51 b4c0 83b0 b5c0
00000030: 6ed8 b2c0 000d afc0 49a5 b3c0 c7d8 b9c0
00000040: 196f b3c0 0b3b b9c0 d372 b6c0 1769 adc0
00000050: b918 b1c0 5d43 b3c0 2f3c aec0 c68a b0c0
00000060: dea9 b2c0 5881 b9c0 8c4e b4c0 cde4 b3c0
00000070: a5ee b5c0 dc86 b3c0 eeff b2c0 2952 b5c0
00000080: a3cd b2c0 0470 abc0 8c4c b5c0 26ec afc0
00000090: 34e4 b2c0 fb01 b5c0 3da6 b2c0 f485 b3c0
000000a0: 3f57 b6c0 76a9 b4c0 f437 b6c0 bc86 b5c0
000000b0: dcda aec0 3119 b2c0 70cf b1c0 a02c b2c0
000000c0: 72d1 b6c0 d74e b1c0 7695 b5c0 347b bac0
000000d0: 9b91 b0c0 835a aec0 948f b0c0 2ce4 b1c0
000000e0: 13e4 b5c0 229d b2c0 5c2f b7c0 fc0f b0c0
000000f0: c162 b6c0 5c75 b5c0 b4af b8c0 c262 acc0
00000100: 9622 b2c0 d201 b3c0 0544 b4c0 07ef b2c0
00000110: f3e1 b3c0 b52e aec0 ddc2 b5c0 060e b2c0
00000120: 287b a6c0 a6fe b1c0 5e67 b5c0 ebe7 b9c0
00000130: d71a b5c0 7c83 b5c0 7d0f b6c0 5ef2 b3c0
00000140: 590d b7c0 83c4 b6c0 a493 b4c0 d665 b0c0
00000150: 4423 b8c0 65f9 aec0 5ecf b1c0 ce7a b7c0
00000160: 2905 b2c0 dada b5c0 6f55 b8c0 cc30 b4c0
00000170: b0ae abc0 b6aa b6c0 1682 b4c0 65e2 b6c0
00000180: c8a3 afc0 2a5f b0c0 28df aec0 bb87 b0c0
00000190: 248a b0c0 1579 b2c0 1fdf b1c0 13a1 b8c0
000001a0: 8740 b3c0 6e68 b5c0 60b9 b5c0 6cc9 b2c0
000001b0: e1aa b7c0 1a55 b8c0 b1e2 b4c0 b16b aac0
000001c0: d7d1 b6c0 5267 b2c0 2917 bbc0 127a b0c0
000001d0: 0ba7 b4c0 f9b9 b1c0 a4f6 afc0 0a48 b5c0
000001e0: d869 b0c0 7d8e b6c0 e1b1 b2c0 9450 b3c0
000001f0: 0c8c adc0 66d4 b0c0 a479 b2c0 d096 b2c0
00000200: 0443 b6c0 ad64 b7c0 62ab b3c0 3eda b2c0
00000210: 8b8f b3c0 9dff b5c0 b358 adc0 1f7c b9c0
00000220: d527 afc0 d0c4 afc0 3580 b7c0 d6d3 b6c0
00000230: 541c aec0 226f b1c0 41f2 b2c0 03d6 b0c0
00000240: 8a5c b3c0 70dc b6c0 1a22 b3c0 437d b5c0
00000250: 0e61 b5c0 6cc9 aec0 2138 b1c0 f3c3 acc0
00000260: c809 b1c0 f99c b0c0 28fc b3c0 9e2a b0c0
00000270: 6ba4 b3c0 a82f b8c0 ddf6 b2c0 5304 b3c0
00000280: 9e76 b6c0 0bf3 b7c0 60e2 b4c0 b94f adc0
00000290: b923 b2c0 c89a adc0 7721 afc0 cbf8 afc0
000002a0: fa0c b5c0 c5be b7c0 8069 b0c0 0fa5 b5c0
000002b0: 856b b2c0 2822 b0c0 042f b7c0 7c0c b1c0
000002c0: d982 aec0 2e14 b3c0 8cd8 acc0 8379 b2c0
000002d0: 9f55 b5c0 86c8 b1c0 ce90 b3c0 c397 b4c0
000002e0: 3660 b4c0 c8e1 bac0 cc3f b1c0 491c b5c0
000002f0: f0b9 b1c0 ce99 b0c0 2028 b6c0 e097 b4c0
00000300: 2fc3 b1c0 b925 b4c0 d09d bac0 82ec b5c0
00000310: 089e b3c0 1dfc b3c0 dbf5 afc0 fd6a b0c0
00000320: de57 a9c0 0c87 b2c0 5095 afc0 9b9d afc0
00000330: f8a6 b2c0 99bf afc0 9546 afc0 59b5 b3c0
00000340: 4dbe b5c0 d91b b0c0 a70b b2c0 4112 b1c0
00000350: 7159 b1c0 ce6d b3c0 1d4b b5c0 12fa abc0
00000360: 1330 b1c0 ef9b b6c0 4822 afc0 b47b b7c0
00000370: ebe8 b1c0 2b16 b1c0 1d22 b7c0 61e6 b0c0
00000380: 017c b2c0 a851 afc0 9b7d b0c0 cc28 b7c0
00000390: 6ab5 a8c0 2ec6 b5c0 e870 b0c0 d78a b3c0
000003a0: 174d b5c0 d765 b6c0 3ff8 b2c0 34bb aec0
000003b0: f279 b3c0 6e35 b3c0 e472 b3c0 8e01 b1c0
000003c0: fe4d b9c0 00e9 b1c0 a8bf b9c0 0514 b3c0
000003d0: 58d3 aec0 d758 b3c0 c2b6 b6c0 fb81 b2c0
000003e0: 5e4a b4c0 dcac b6c0 0926 aec0 6342 b3c0
000003f0: 62e3 b4c0 63a2 b0c0 8a00 b3c0 4ab5 b6c0

blinear1.bias_mu f4 [24]
0.019476969 0.07091444 0.044894226 0.016466564 0.021299435 0.07721549 0.007838448 0.034249097
0.0921192 0.029642437 0.02002085 0.044791166 0.013746331 0.021528617 0.041856334 0.015039641
0.027141212 0.03740665 0.025309328 0.02771091 0.04662555 0.017627137 -0.0016844933 0.013213666
00000000: 2a8e 9f3c 973b 913d 02e3 373d e3e4 863c
00000010: 277c ae3c 2823 9e3d d56c 003c c848 0c3d
00000020: fea8 bc3d b2d4 f23c c402 a43c f176 373d
00000030: 4b38 613c c85c b03c 8c71 2b3d d468 763c
00000040: 3f57 de3c b737 193d 8255 cf3c fe01 e33c
00000050: 6ffa 3e3d c966 903c 37ca dcba 227e 583c

blinear1.bias_rho f4 [24]
-5.4795446 -5.378049 -5.411726 -5.5336056 -5.35062 -5.3820553 -5.4273124 -5.302411
-5.514504 -5.561236 -5.3834486 -5.5231395 -5.4474783 -5.4738445 -5.224609 -5.3467755
-5.42661 -5.3456798 -5.1664653 -5.541159 -5.60481 -5.440423 -5.6153417 -5.466656
00000000: 6e58 afc0 fa18 acc0 dc2c adc0 4c13 b1c0
00000010: 4738 abc0 cc39 acc0 8bac adc0 5aad a9c0
00000020: d176 b0c0 a5f5 b1c0 3645 acc0 8fbd b0c0
00000030: be51 aec0 bc29 afc0 ff2f a7c0 c918 abc0
00000040: caa6 adc0 cf0f abc0 af53 a5c0 2d51 b1c0
00000050: 9b5a b3c0 f217 aec0 e1b0 b3c0 d9ee aec0

blinear1.weight_sampler.mu f4 [24, 13]
0.014714998 0.065419465 0.0006385094 -0.035272066 0.011551704 -0.031660374 -0.037494626 0.00030809207
0.12414481 0.036026105 -0.0035991305 0.004076047 0.016219847 -0.016796364 -0.04403319 -0.038354747
0.001541539 0.022976553 0.00050461595 -0.002753227 3.5763172e-05 0.15556598 0.00033950224 -0.013265372
-0.0027899859 -0.009625976 -0.00018981057 -0.021053342 0.019966068 0.022558432 0.027206019 0.022926526
0.022207001 0.0007531121 0.15694529 -0.011565456 -0.048274357 -0.042469583 0.0537068 0.0040192315
0.17036726 0.044222124 -0.0028158855 0.029101256 -0.0006057403 -0.008220332 -0.0015875575 0.04741263
0.06802554 0.07704408 0.070374094 -0.0689695 0.036694493 0.06684067 -0.001753937 -0.040606625
0.005376593 -0.03453052 -0.049746606 -2.0953545e-05 0.12206273 0.03903769 -0.00085671025 0.006656369
0.019040354 -0.015505021 -0.038523264 -0.021306507 -0.0012654188 0.019341283 -0.0015681871 0.0037407088
3.4480625e-05 0.15562032 0.024295388 -0.0066007203 -0.0022220854 -0.036126588 0.01955505 0.17836139
0.05457829 0.00060285605 0.02719341 0.00088765216 -0.0035024078 -0.00031658227 0.009573895 0.074415006
0.063080564 0.06779666 -0.058823228 0.0017558532 0.056432962 -0.0044357623 -0.030122958 0.02155577
-0.02962075 -0.033267 -1.6172198e-06 0.12119608 0.036458157 -0.003963225 0.005536843 0.012918211
-0.012972793 -0.050570328 -0.040283572 0.0011533317 0.028071895 0.00073822495 -0.003237445 2.018815e-05
0.18721248 0.015628632 -0.0110761225 -0.009677596 -0.026695518 0.008756219 0.089951284 0.002378269
-0.030942338 0.013976698 -0.028144272 -0.041763067 0.00035108795 0.13097249 0.04150888 -0.0022622098
0.007290248 0.02092547 0.014481414 0.07977159 0.0048154136 -0.029477032 0.01693318 -0.026776284
-0.038197193 -0.0007539797 0.11615917 0.038062476 -0.0028008213 0.00636488 0.0201548 -0.00067513756
-0.00931536 0.025046151 0.03231861 0.028376658 0.022287667 0.024551304 0.004064808 0.14621231
-0.0048894626 -0.047014806 -0.03490982 0.050034728 0.012720024 0.18558607 0.052340515 0.0016023631
0.029090157 0.0014142387 -0.0026256193 0.00040495742 0.04198384 0.07583244 0.07744325 0.07945631
-0.07753561 -0.035167407 -0.075549096 0.0044820933 -0.0005096502 0.013744255 -0.0025202367 -0.0046038735
-0.0011811453 0.12155265 -0.029212574 -0.0757042 -0.068028495 0.11865634 0.005248797 0.14219818
0.035796355 0.0093003195 0.034265473 0.0077071325 0.009056691 -4.9765047e-05 0.08520638 0.06759569
0.06680159 0.06735146 -0.06279462 0.014531276 0.15028116 0.030740345 -0.004899395 0.029847758
0.0047079115 -0.011538256 0.00018079634 0.04316775 0.069832906 0.065027565 0.06623359 -0.05730075
0.012965446 0.07326761 0.005379954 -0.034762662 0.014342212 -0.032427505 -0.040609043 -0.0005283903
0.127214 0.03575894 -0.007945247 0.0005600535 0.025427612 -0.0025704622 -0.017901925 0.021942683
0.008953002 0.03029701 0.028007604 0.01584999 0.001725699 0.13669357 0.0065602735 -0.037758607
-0.03180138 0.035072297 0.0095524425 0.10137366 0.0038259358 -0.036235098 0.014495306 -0.03631354
-0.035118178 0.00045756754 0.12374726 0.042143356 0.0020902816 0.00930874 0.023198575 0.0055118706
0.045139767 -0.008502087 -0.035244443 0.02256017 -0.035047803 -0.04476775 -0.000104898936 0.12107765
00000000: 2d17 713c a4fa 853d a461 273a 7179 10bd
00000010: 5c43 3d3c 4fae 01bd f793 19bd 6b87 a139
00000020: a23f fe3d 1c90 133d 64df 6bbb 5c90 853b
00000030: 7cdf 843c 8798 89bc 255c 34bd de19 1dbd
00000040: 770d ca3a 5339 bc3c 3448 043a 7c6f 34bb
00000050: 6a00 1638 b04c 1f3e 38ff b139 0157 59bc
00000060: 32d8 36bb 45b6 1dbc e307 47b9 0f78 acbc
00000070: e18f a33c 76cc b83c 28df de3c 69d0 bb3c
00000080: 75eb b53c 7f6c 453a 44b6 203e 0a7d 3dbc
00000090: 55bb 45bd 96f4 2dbd a9fb 5b3d c2b3 833b
000000a0: c174 2e3e 4222 353d b88a 38bb c265 ee3c
000000b0: 8bca 1eba 92ae 06bc 9715 d0ba bf33 423d
000000c0: f950 8b3d 49c9 9d3d 4b20 903d e23f 8dbd
000000d0: f74c 163d c3e3 883d 5ce4 e5ba 2253 26bd
000000e0: 222e b03b e06f 0dbd 19c3 4bbd 65c5 afb7
000000f0: 06fc f93d fce5 1f3d da94 60ba ac1d da3b
00000100: 84fa 9b3c c608 7ebc 92ca 1dbd fc8a aebc
00000110: 69dc a5ba 9c71 9e3c a18b cdba ae26 753b
00000120: 4a9f 1038 ef5a 1f3e 1f07 c73c db4a d8bb
00000130: 68a0 11bb 79f9 13bd ea31 a03c 5ea4 363e
00000140: 7c8d 5f3d fc08 1e3a b7c4 de3c 54b1 683a
00000150: a788 65bb f4fa a5b9 d3db 1c3c e566 983d
00000160: 6230 813d fad8 8a3d a0f0 70bd a824 e63a
00000170: 4026 673d df59 91bb 6cc4 f6bc ba95 b03c
00000180: 37a7 f2bc fa42 08bd 400f d9b5 a735 f83d
00000190: 2655 153d f1dd 81bb 686e b53b e7a6 533c
000001a0: d68b 54bc d522 4fbd 6300 25bd 642b 973a
000001b0: 08f7 e53c 7085 413a 502b 54bb b959 a937
000001c0: a1b4 3f3e 9e07 803c a078 35bc c88e 1ebc
000001d0: 8fb0 dabc 3f76 0f3c 6138 b83d bcdc 1b3b
000001e0: c97a fdbc 85fe 643c d18e e6bc c00f 2bbd
000001f0: 3a12 b839 a71d 063e 3705 2a3d 9541 14bb
00000200: 08e3 ee3b e46b ab3c 7443 6d3c 4a5f a33d
00000210: 9eca 9d3b d179 f1bc 74b7 8a3c f059 dbbc
00000220: a974 1cbd b9a6 45ba dce4 ed3d 66e7 1b3d
00000230: fc8d 37bb 7c90 d03b ae1b a53c b7fb 30ba
00000240: 749f 18bc 962d cd3c 8560 043d 2a76 e83c
00000250: a094 b63c d11f c93c 1532 853b aeb8 153e
00000260: c937 a0bb 9992 40bd 99fd 0ebd 37f1 4c3d
00000270: a667 503c 460a 3e3e 0263 563d 6206 d23a
00000280: 7b4e ee3c fa5d b93a 9512 2cbb 7750 d439
00000290: 3ff7 2b3d 0a4e 9b3d 919a 9e3d fdb9 a23d
000002a0: fdca 9ebd b30b 10bd 7cb9 9abd 86de 923b
000002b0: 0c9a 05ba 952f 613c 8e2a 25bb 17dc 96bb
000002c0: a9d0 9aba 99f0 f83d 354f efbc ce0a 9bbd
000002d0: 8652 8bbd 1802 f33d 1afe ab3b 669c 113e
000002e0: 339f 123d 5e60 183c f459 0c3d 1d8c fc3b
000002f0: 8462 143c d0ba 50b8 af80 ae3d 9c6f 8a3d
00000300: 46cf 883d 90ef 893d 779a 80bd 9714 6e3c
00000310: 4ee3 193e 2dd3 fb3c 1b8b a0bb 4983 f43c
00000320: d344 9a3b f40a 3dbc 2694 3d39 abd0 303d
00000330: 8e04 8f3d 2c2d 853d 7aa5 873d 31b4 6abd
00000340: 066d 543c 540d 963d 534a b03b 4b63 0ebd
00000350: 99fb 6a3c b4d2 04bd ab55 26bd ac83 0aba
00000360: 6344 023e f777 123d c82c 02bc 8ed0 123a
00000370: 914d d03c 3375 28bb 0fa7 92bc 24c1 b33c
00000380: 9daf 123c 6f31 f83c 3470 e53c d7d7 813c
00000390: da30 e23a 66f9 0b3e 90f7 d63b c5a8 1abd
000003a0: 2a42 02bd f8a7 0f3d d981 1c3c fe9c cf3d
000003b0: 8dbc 7a3b 416b 14bd b87d 6d3c 82bd 14bd
000003c0: 14d8 0fbd ade5 ef39 346f fd3d 839e 2c3d
000003d0: 1bfd 083b af83 183c f00a be3c ec9c b43b
000003e0: 7ae4 383d 564c 0bbc 7a5c 10bd 1bd0 b83c
000003f0: 498e 0fbd 635e 37bd 30fd dbb8 8ff7 f73d

blinear1.weight_sampler.rho f4 [24, 13]
-5.555442 -5.6414146 -5.5733337 -5.6096125 -5.694273 -5.666898 -5.5972247 -5.378472
-5.538606 -5.4562654 -5.6349535 -5.677797 -5.5889196 -5.470337 -5.6139264 -5.807712
-5.6073117 -5.7884574 -5.7015166 -5.4190784 -5.534268 -5.601973 -5.4448466 -5.51694
-5.5832357 -5.797039 -5.6345882 -5.62168 -5.6853814 -5.6102123 -5.5937414 -5.6662793
-5.587602 -5.357424 -5.665594 -5.4975767 -5.590357 -5.6564918 -5.5827928 -5.6101017
-5.69815 -5.645686 -5.69433 -5.672697 -5.464216 -5.565575 -5.556572 -5.5679474
-5.713067 -5.540874 -5.6744947 -5.8275394 -5.517774 -5.448549 -5.5175266 -5.559103
-5.684091 -5.5816813 -5.724531 -5.501951 -5.699555 -5.670576 -5.771448 -5.3870554
-5.566722 -5.593972 -5.633303 -5.591678 -5.6213317 -5.4432015 -5.680037 -5.564212
-5.2025337 -5.562335 -5.668868 -5.8095603 -5.6595263 -5.6723003 -5.6893907 -5.623336
-5.7203794 -5.7114882 -5.6430225 -5.512431 -5.754305 -5.4679437 -5.5565634 -5.733741
-5.56313 -5.6829653 -5.760429 -5.6309566 -5.365074 -5.7083387 -5.6408796 -5.715136
-5.488743 -5.5116167 -5.4647408 -5.5165687 -5.516863 -5.5772805 -5.5584865 -5.7696624
-5.601627 -5.668998 -5.678879 -5.5870876 -5.7396092 -5.7603884 -5.6526723 -5.325646
-5.713115 -5.5751123 -5.846577 -5.514901 -5.645391 -5.5539517 -5.4988575 -5.665044
-5.5129204 -5.7048936 -5.5842137 -5.603586 -5.4233456 -5.5259275 -5.5773487 -5.5809097
-5.6956806 -5.7310395 -5.6146708 -5.589141 -5.6112723 -5.687453 -5.4170775 -5.7964015
-5.4736123 -5.492775 -5.7344003 -5.713359 -5.440958 -5.544816 -5.592072 -5.5261245
-5.6050463 -5.714409 -5.597913 -5.6715407 -5.6680975 -5.4620876 -5.5381017 -5.3989196
-5.532444 -5.5191617 -5.624531 -5.5052023 -5.6138206 -5.7558174 -5.5926347 -5.594278
-5.7019796 -5.7484183 -5.6526337 -5.415982 -5.5668607 -5.425144 -5.472835 -5.49912
-5.657834 -5.7420373 -5.5128784 -5.6763988 -5.575625 -5.5041695 -5.724489 -5.532774
-5.4534726 -5.5962133 -5.401434 -5.577333 -5.666702 -5.555728 -5.6114264 -5.6435256
-5.6367445 -5.840061 -5.5390377 -5.659703 -5.5539474 -5.518775 -5.692398 -5.6435394
-5.555076 -5.629605 -5.831764 -5.6851206 -5.613041 -5.6245255 -5.4987617 -5.51306
-5.291976 -5.578985 -5.4869766 -5.487989 -5.582882 -5.4921384 -5.477366 -5.615887
-5.67948 -5.5033994 -5.5639224 -5.5334783 -5.542168 -5.607154 -5.665419 -5.374276
-5.5371184 -5.706535 -5.4729347 -5.7338505 -5.5596824 -5.533956 -5.722914 -5.5281224
-5.577637 -5.478718 -5.5153327 -5.72373 -5.2721453 -5.680442 -5.5137825 -5.610698
-5.6656604 -5.6999316 -5.5928035 -5.460352 -5.608636 -5.600272 -5.6077747 -5.53144
-5.7907705 -5.5596924 -5.8046455 -5.596194 -5.463299 -5.6045947 -5.7098093 -5.5783668
-5.634078 -5.708601 -5.442143 -5.601854 -5.6527567 -5.5198226 -5.593816 -5.70963
00000000: 2ec6 b1c0 7886 b4c0 c058 b2c0 f281 b3c0
00000010: 7c37 b6c0 3a57 b5c0 771c b3c0 711c acc0
00000020: 433c b1c0 ba99 aec0 8a51 b4c0 83b0 b5c0
00000030: 6ed8 b2c0 000d afc0 49a5 b3c0 c7d8 b9c0
00000040: 196f b3c0 0b3b b9c0 d372 b6c0 1769 adc0
00000050: b918 b1c0 5d43 b3c0 2f3c aec0 c68a b0c0
00000060: dea9 b2c0 5881 b9c0 8c4e b4c0 cde4 b3c0
00000070: a5ee b5c0 dc86 b3c0 eeff b2c0 2952 b5c0
00000080: a3cd b2c0 0470 abc0 8c4c b5c0 26ec afc0
00000090: 34e4 b2c0 fb01 b5c0 3da6 b2c0 f485 b3c0
000000a0: 3f57 b6c0 76a9 b4c0 f437 b6c0 bc86 b5c0
000000b0: dcda aec0 3119 b2c0 70cf b1c0 a02c b2c0
000000c0: 72d1 b6c0 d74e b1c0 7695 b5c0 347b bac0
000000d0: 9b91 b0c0 835a aec0 948f b0c0 2ce4 b1c0
000000e0: 13e4 b5c0 229d b2c0 5c2f b7c0 fc0f b0c0
000000f0: c162 b6c0 5c75 b5c0 b4af b8c0 c262 acc0
00000100: 9622 b2c0 d201 b3c0 0544 b4c0 07ef b2c0
00000110: f3e1 b3c0 b52e aec0 ddc2 b5c0 060e b2c0
00000120: 287b a6c0 a6fe b1c0 5e67 b5c0 ebe7 b9c0
00000130: d71a b5c0 7c83 b5c0 7d0f b6c0 5ef2 b3c0
00000140: 590d b7c0 83c4 b6c0 a493 b4c0 d665 b0c0
00000150: 4423 b8c0 65f9 aec0 5ecf b1c0 ce7a b7c0
00000160: 2905 b2c0 dada b5c0 6f55 b8c0 cc30 b4c0
00000170: b0ae abc0 b6aa b6c0 1682 b4c0 65e2 b6c0
00000180: c8a3 afc0 2a5f b0c0 28df aec0 bb87 b0c0
00000190: 248a b0c0 1579 b2c0 1fdf b1c0 13a1 b8c0
000001a0: 8740 b3c0 6e68 b5c0 60b9 b5c0 6cc9 b2c0
000001b0: e1aa b7c0 1a55 b8c0 b1e2 b4c0 b16b aac0
000001c0: d7d1 b6c0 5267 b2c0 2917 bbc0 127a b0c0
000001d0: 0ba7 b4c0 f9b9 b1c0 a4f6 afc0 0a48 b5c0
000001e0: d869 b0c0 7d8e b6c0 e1b1 b2c0 9450 b3c0
000001f0: 0c8c adc0 66d4 b0c0 a479 b2c0 d096 b2c0
00000200: 0443 b6c0 ad64 b7c0 62ab b3c0 3eda b2c0
00000210: 8b8f b3c0 9dff b5c0 b358 adc0 1f7c b9c0
00000220: d527 afc0 d0c4 afc0 3580 b7c0 d6d3 b6c0
00000230: 541c aec0 226f b1c0 41f2 b2c0 03d6 b0c0
00000240: 8a5c b3c0 70dc b6c0 1a22 b3c0 437d b5c0
00000250: 0e61 b5c0 6cc9 aec0 2138 b1c0 f3c3 acc0
00000260: c809 b1c0 f99c b0c0 28fc b3c0 9e2a b0c0
00000270: 6ba4 b3c0 a82f b8c0 ddf6 b2c0 5304 b3c0
00000280: 9e76 b6c0 0bf3 b7c0 60e2 b4c0 b94f adc0
00000290: b923 b2c0 c89a adc0 7721 afc0 cbf8 afc0
000002a0: fa0c b5c0 c5be b7c0 8069 b0c0 0fa5 b5c0
000002b0: 856b b2c0 2822 b0c0 042f b7c0 7c0c b1c0
000002c0: d982 aec0 2e14 b3c0 8cd8 acc0 8379 b2c0
000002d0: 9f55 b5c0 86c8 b1c0 ce90 b3c0 c397 b4c0
000002e0: 3660 b4c0 c8e1 bac0 cc3f b1c0 491c b5c0
000002f0: f0b9 b1c0 ce99 b0c0 2028 b6c0 e097 b4c0
00000300: 2fc3 b1c0 b925 b4c0 d09d bac0 82ec b5c0
00000310: 089e b3c0 1dfc b3c0 dbf5 afc0 fd6a b0c0
00000320: de57 a9c0 0c87 b2c0 5095 afc0 9b9d afc0
00000330: f8a6 b2c0 99bf afc0 9546 afc0 59b5 b3c0
00000340: 4dbe b5c0 d91b b0c0 a70b b2c0 4112 b1c0
00000350: 7159 b1c0 ce6d b3c0 1d4b b5c0 12fa abc0
00000360: 1330 b1c0 ef9b b6c0 4822 afc0 b47b b7c0
00000370: ebe8 b1c0 2b16 b1c0 1d22 b7c0 61e6 b0c0
00000380: 017c b2c0 a851 afc0 9b7d b0c0 cc28 b7c0
00000390: 6ab5 a8c0 2ec6 b5c0 e870 b0c0 d78a b3c0
000003a0: 174d b5c0 d765 b6c0 3ff8 b2c0 34bb aec0
000003b0: f279 b3c0 6e35 b3c0 e472 b3c0 8e01 b1c0
000003c0: fe4d b9c0 00e9 b1c0 a8bf b9c0 0514 b3c0
000003d0: 58d3 aec0 d758 b3c0 c2b6 b6c0 fb81 b2c0
000003e0: 5e4a b4c0 dcac b6c0 0926 aec0 6342 b3c0
000003f0: 62e3 b4c0 63a2 b0c0 8a00 b3c0 4ab5 b6c0

blinear1.weight_sampler.eps_w f4 [24, 13]
-0.0932114 0.86770904 -1.3810726 -0.07190731 -0.23431489 0.4109262 0.2812611 1.4609808
0.258834 -0.9467822 -0.11687297 -1.5296112 -2.0122702 0.7677291 -0.8277558 -1.6669121
0.3326794 0.72131747 -1.1399206 0.23085108 -0.20022626 0.79803884 -2.0610845 -0.79643786
-1.7003777 -1.0430665 -0.953857 -0.49830627 0.45850557 -0.7333769 1.1846071 -0.70467645
0.72765887 1.3778855 0.2696749 -1.4627753 -0.65285873 -1.4995136 -0.6641765 0.55065
1.4474493 0.020526009 -0.19674762 -0.49752748 1.6394717 2.1059692 -0.086776584 -1.6384742
-0.42131603 -0.4296651 1.5485516 -0.06585244 0.25728863 -0.09486775 0.6770215 -0.623344
-0.16500534 -1.6858536 0.69396186 -0.029178288 -0.2026469 1.0149308 -0.27915055 -0.7588647
0.0050103716 1.2209281 -1.6575942 0.60132164 -1.0719925 0.37404978 0.93504673 -0.2662946
-0.4465768 -0.3102381 -0.11094186 0.82640165 -1.0555874 0.0612295 -0.1478961 0.8361144
1.677118 -0.08376155 1.0184628 2.4472082 -0.17425759 -1.1429741 0.5710162 0.94593835
-0.33111513 -2.8862581 -0.29178107 -1.1710584 -0.017671596 0.67357755 0.06029595 -0.03903854
-1.103665 -0.99950874 0.013914867 1.0146233 -0.9022264 0.31637293 0.87407714 2.884893
0.3649982 -0.15976278 1.2290778 1.1531188 0.7431379 0.856862 -1.433384 0.9578536
-0.13860916 1.1206805 -0.7033058 1.0300231 0.85246086 -0.13413692 -0.6939983 -0.7590781
-0.5131162 0.5066373 -0.04103754 1.1414757 1.9966748 0.59911734 -0.3386186 -1.4156135
1.0848799 0.2578832 -0.07317021 -1.046451 0.62499136 -0.8761046 1.8826638 0.51042783
-0.4999897 -0.17980139 -0.47681335 2.626735 0.33052602 -0.9314329 -1.3348418 -0.45846206
0.07256869 -0.28586867 -0.8602578 1.8028744 -0.21260403 1.2660406 0.86108893 0.25229183
-1.8496033 -1.6536288 0.53414613 2.0945504 0.48381233 0.96052605 0.39461258 0.8866552
-0.10979021 -1.457837 -2.1329026 -2.5356793 2.3407092 -1.6619291 -0.9925508 -0.13136776
0.9211446 1.4280293 0.31324545 -1.5776216 -1.0990244 0.1652569 1.1434499 1.2961851
1.4829863 -0.08439846 -0.2712894 0.6465152 0.44326314 -1.0071955 1.122182 -0.9062264
-1.0837297 -0.39014125 -1.0873158 -0.093686864 0.66969985 -0.2698608 0.78861207 0.032849334
-0.09567855 2.5235503 0.9900667 0.0013524698 1.3427057 0.6445236 -1.3079894 0.8691003
0.026463721 -0.10712464 -0.9491988 1.3521428 0.98403215 -0.29397193 -0.3546728 -0.53376096
1.634268 0.09534737 -1.1726667 -0.02845048 -0.8459869 -1.793359 0.37327757 1.64157
-1.140477 0.7470325 -0.22937691 -0.71558875 -2.1107824 0.23565283 0.623398 0.9695207
2.062092 0.345505 2.0495617 0.5787398 -0.19463107 -0.51049745 -0.8104082 2.671945
-1.3757435 -1.6387264 -0.74998575 -1.01058 0.9610161 -0.026704991 0.8495105 -1.6523955
0.020805877 -0.18003522 -1.6668568 -2.5190022 -0.8195934 0.059074055 0.10121117 1.0330337
0.15580408 1.3116883 -0.38045704 -0.016030436 -1.532682 0.03220964 -2.8617039 -0.4276305
00000000: 9ee5 bebd 2e22 5e3f fdc6 b0bf 2444 93bd
00000010: 3ef0 6fbe eb64 d23e 7401 903e 6b01 bb3f
00000020: e485 843e 5160 72bf 185b efbd 4dca c3bf
00000030: 09c9 00c0 e589 443f cee7 53bf 605d d5bf
00000040: f454 aa3e 43a8 383f ebe8 91bf 3a64 6c3e
00000050: 1d08 4dbe 464c 4c3f cfe8 03c0 5ae3 4bbf
00000060: faa5 d9bf 3483 85bf f92f 74bf 0022 ffbe
00000070: 3ec1 ea3e 97be 3bbf 35a1 973f ad65 34bf
00000080: da47 3a3f 8d5e b03f d412 8a3e 393c bbbf
00000090: c021 27bf 10f0 bfbf 7907 2abf 66f7 0c3f
000000a0: 0546 b93f 2926 a83c 3578 49be ecbb febe
000000b0: 35da d13f 33c8 0640 ecb7 b1bd 86b9 d1bf
000000c0: bcb6 d7be 10fd dbbe f036 c63f a5dd 86bd
000000d0: 56bb 833e 064a c2bd 4851 2d3f 7993 1fbf
000000e0: 29f7 28be 0dca d7bf 7ca7 313f 4e07 efbc
000000f0: ab82 4fbe 41e9 813f d2ec 8ebe f544 42bf
00000100: 0b2e a43b 5f47 9c3f 0c2c d4bf 37f0 193f
00000110: 0d37 89bf 7483 bf3e 395f 6f3f c457 88be
00000120: b7a5 e4be 87d7 9ebe 7c35 e3bd 0f8f 533f
00000130: 7d1d 87bf c9cb 7a3d 1372 17be 980b 563f
00000140: cdab d63f 2d8b abbd fd5c 823f 0f9f 1c40
00000150: 9570 32be fa4c 92bf 1e2e 123f 0429 723f
00000160: ec87 a9be 74b8 38c0 5464 95be 3ee5 95bf
00000170: 06c4 90bc 946f 2c3f e3f8 763d e0e6 1fbd
00000180: e544 8dbf cedf 7fbf 2ffb 633c 2ddf 813f
00000190: 4ff8 66bf a2fb a13e 85c3 5f3f 16a2 3840
000001a0: 0be1 ba3e db98 23be 6c52 9d3f 6699 933f
000001b0: 493e 3e3f 4f5b 5b3f 2079 b7bf e535 753f
000001c0: 8fef 0dbe 7572 8f3f d90b 34bf ccd7 833f
000001d0: e03a 5a3f 305b 09be dfa9 31bf f152 42bf
000001e0: 955b 03bf fbb2 013f fb16 28bd e01b 923f
000001f0: 0a93 ff3f c15f 193f 6b5f adbe d332 b5bf
00000200: 58dd 8a3f 4409 843e 43da 95bd 1bf2 85bf
00000210: 6fff 1f3f 6448 60bf 21fb f03f 66ab 023f
00000220: a6fe ffbe db1d 38be e120 f4be 6d1c 2840
00000230: b53a a93e 6372 6ebf 19dc aabf 8abb eabe
00000240: e59e 943d 615d 92be db39 5cbf 97c4 e63f
00000250: dfb4 59be 9e0d a23f 5370 5c3f 652c 813e
00000260: cdbf ecbf 1caa d3bf cdbd 083f 1d0d 0640
00000270: 40b6 f73e 09e5 753f a90a ca3e d6fb 623f
00000280: b1d9 e0bd 679a babf 7a81 08c0 9248 22c0
00000290: 2ece 1540 18ba d4bf cf17 7ebf 4585 06be
000002a0: 22d0 6b3f aac9 b63f b561 a03e 81ef c9bf
000002b0: d5ac 8cbf 1b39 293e 915c 923f 65e9 a53f
000002c0: 7fd2 bd3f 1ad9 acbd 72e6 8abe 0582 253f
000002d0: 63f3 e23e c8eb 80bf a9a3 8f3f 74fe 67bf
000002e0: a8b7 8abf 98c0 c7be 2a2d 8bbf e6de bfbd
000002f0: 7371 2b3f 322b 8abe 7be2 493f 068d 063d
00000300: 1ef3 c3bd d981 2140 0375 7d3f 5b45 b13a
00000310: c8dd ab3f 80ff 243f 326c a7bf 5b7d 5e3f
00000320: 72ca d83c 2a64 dbbd b1fe 72bf 0413 ad3f
00000330: 88e9 7b3f 7d83 96be ac97 b5be 8fa4 08bf
00000340: b22f d13f 7b45 c33d f119 96bf fb10 e9bc
00000350: 9992 58bf ca8c e5bf 3d1e bf3e f71e d23f
00000360: 26fb 91bf 863d 3f3f c8e1 6abe d330 37bf
00000370: 0f17 07c0 fa4e 713e 0397 1f3f 8232 783f
00000380: 51f9 0340 08e6 b03e 052c 0340 4b28 143f
00000390: 5e4d 47be f6af 02bf e976 4fbf 2601 2b40
000003a0: 5d18 b0bf c9c1 d1bf 11ff 3fbf af5a 81bf
000003b0: 2705 763f 6dc4 dabc 8579 593f b281 d3bf
000003c0: 1671 aa3c 275b 38be 905b d5bf 5537 21c0
000003d0: e0d0 51bf a3f7 713d cd47 cf3d 733a 843f
000003e0: 1b8b 1f3e 67e5 a73f 44cb c2be 4352 83bc
000003f0: ec2e c4bf 41ee 033d 2826 37c0 63f2 dabe

blinear1.bias_sampler.mu f4 [24]
0.019476969 0.07091444 0.044894226 0.016466564 0.021299435 0.07721549 0.007838448 0.034249097
0.0921192 0.029642437 0.02002085 0.044791166 0.013746331 0.021528617 0.041856334 0.015039641
0.027141212 0.03740665 0.025309328 0.02771091 0.04662555 0.017627137 -0.0016844933 0.013213666
00000000: 2a8e 9f3c 973b 913d 02e3 373d e3e4 863c
00000010: 277c ae3c 2823 9e3d d56c 003c c848 0c3d
00000020: fea8 bc3d b2d4 f23c c402 a43c f176 373d
00000030: 4b38 613c c85c b03c 8c71 2b3d d468 763c
00000040: 3f57 de3c b737 193d 8255 cf3c fe01 e33c
00000050: 6ffa 3e3d c966 903c 37ca dcba 227e 583c

blinear1.bias_sampler.rho f4 [24]
-5.4795446 -5.378049 -5.411726 -5.5336056 -5.35062 -5.3820553 -5.4273124 -5.302411
-5.514504 -5.561236 -5.3834486 -5.5231395 -5.4474783 -5.4738445 -5.224609 -5.3467755
-5.42661 -5.3456798 -5.1664653 -5.541159 -5.60481 -5.440423 -5.6153417 -5.466656
00000000: 6e58 afc0 fa18 acc0 dc2c adc0 4c13 b1c0
00000010: 4738 abc0 cc39 acc0 8bac adc0 5aad a9c0
00000020: d176 b0c0 a5f5 b1c0 3645 acc0 8fbd b0c0
00000030: be51 aec0 bc29 afc0 ff2f a7c0 c918 abc0
00000040: caa6 adc0 cf0f abc0 af53 a5c0 2d51 b1c0
00000050: 9b5a b3c0 f217 aec0 e1b0 b3c0 d9ee aec0

blinear1.bias_sampler.eps_w f4 [24]
0.12052022 0.9612357 -0.23852044 0.51164436 1.858094 0.24753204 -1.478122 -1.1070167
-0.3439248 -0.5261134 1.6656295 -1.4246237 -1.0197347 0.70497066 1.3072809 2.1405306
-1.4376643 -1.338218 -1.3638004 -1.4728373 -1.6890215 0.06085819 0.38619187 0.62613505
00000000: 4ed3 f63d 8b13 763f b43e 74be 20fb 023f
00000010: 06d6 ed3f 0a79 7d3e 1a33 bdbf b9b2 8dbf
00000020: e916 b0be 5eaf 06bf 5933 d53f 125a b6bf
00000030: ab86 82bf f578 343f fb54 a73f 74fe 0840
00000040: 6205 b8bf ba4a abbf 0391 aebf ef85 bcbf
00000050: db31 d8bf 7046 793d f1ba c53e 634a 203f

blinear2.weight_mu f4 [24, 24]
0.052186232 0.078054644 0.07149582 0.10721257 0.056774817 0.09885404 0.07769936 0.05958626
0.09694172 0.06056716 0.062190693 0.07325709 0.111957066 0.10079428 0.10745058 0.064452134
0.06264466 0.07264615 0.02976121 0.061961565 0.13042471 0.055142764 0.099531226 0.108205356
0.057621982 0.08445789 0.089141086 0.10050376 0.04605842 0.09529301 0.08614117 0.0596101
0.111280985 0.07174233 0.05852893 0.076627165 0.11419683 0.08910102 0.09866727 0.06675306
-0.03094161 0.07829079 0.0634598 0.05745612 0.13950633 0.06650466 0.10325505 0.11703177
0.05037003 0.07749063 0.08194427 0.09757987 0.059782222 0.09420632 0.085362226 0.05455124
0.113256045 0.06464861 0.05964673 0.06065314 0.114987284 0.090304166 0.10989537 0.07001175
0.05958218 0.067821495 0.06136373 0.057441954 0.13577521 0.0589611 0.09483188 0.11594766
0.0703391 0.08699609 0.095598005 0.11523346 0.076908045 0.11437272 0.091233365 0.07198139
0.12186029 0.073245496 0.07078466 0.08730639 0.18583722 0.10698165 0.110398054 0.07102761
0.08103897 0.08411558 0.07692572 0.067340754 0.14475371 0.06309374 0.10080325 0.11322919
0.06931309 0.08919916 0.094378054 0.10609343 0.074906066 0.10474815 0.10561036 0.06372067
0.11319208 0.097373076 0.06363729 0.07975375 0.12113061 0.09488767 0.11398976 0.073269546
0.06972362 0.026445406 0.07423087 0.06979046 0.14594187 0.12042251 0.09380172 0.11647634
0.055151735 0.08883053 0.081483305 0.11123721 0.055232223 0.10390216 0.089250386 0.06500036
0.096897185 0.06862178 0.06396008 0.083978534 0.11722646 0.09394642 0.118016236 0.06969343
0.056265607 0.07250746 0.05771597 0.06559394 0.12039959 0.05799761 0.09592522 0.12465857
0.06703415 0.08495373 0.078669876 0.11434245 0.06903595 0.10072189 0.09608958 0.06131511
0.115736865 0.0718095 0.059775323 0.06871823 0.11495133 0.09436173 0.11467223 0.07704181
0.071299925 0.067498565 0.074739724 0.061383855 0.12040727 0.052627325 0.09412913 0.117234156
0.065596804 0.091068864 0.080641486 0.11438537 0.03549524 0.10125584 0.09698483 0.059185077
0.11262267 0.06613221 0.0661676 0.075051226 0.11275448 0.09802299 0.1094274 0.06952215
0.0518237 0.070235156 0.053426452 0.0730565 0.12229418 0.061642684 0.097398475 0.12153122
0.0016167089 0.014512178 -0.0015554053 0.010149884 0.0038596569 0.013175355 0.010753803 0.004584238
0.019378219 0.006052843 0.0037777242 -0.0010782521 0.011598173 0.0012470044 0.0075012743 0.010557405
0.004504893 0.0009268963 -0.027815554 0.0057462705 0.01286156 -0.0007167066 0.014215253 0.010853048
-0.0011957153 -0.0023688283 -0.0009341482 -0.0012419575 -0.0011013505 -0.0024188727 -0.0011470583 -0.001181179
-0.0023153797 -0.0014079423 -0.0011686749 -0.0002839185 -0.0024281861 0.00030939022 -0.0019515529 -0.0010623066
-0.00053404795 -5.8200643e-05 -0.0010487032 -0.0007893996 -0.0028402705 -0.0004543434 -0.0008418956 -0.0017143085
0.05362101 0.07367521 0.07057396 0.107573144 0.051185306 0.04410115 0.08710359 0.053532816
0.10699025 0.061179493 0.055250373 0.06749706 0.1142549 0.08947737 0.10482419 0.06797541
00000000: 3bc1 553d 1ddb 9f3d 676c 923d 4492 db3d
00000010: b68c 683d fd73 ca3d d820 9f3d b910 743d
00000020: 6189 c63d 4515 783d abbb 7e3d d007 963d
00000030: bf49 e53d 3b6d ce3d 0d0f dc3d 7bff 833d
00000040: d84b 803d 81c7 943d c8cd f33c 69cb 7d3d
00000050: 0e8e 053e 61dd 613d 07d7 cb3d c59a dd3d
00000060: 0705 6c3d 42f8 ac3d 9a8f b63d ead4 cd3d
00000070: c1a7 3c3d fb28 c33d c86a b03d b829 743d
00000080: 49e7 e33d a5ed 923d 08bc 6f3d b4ee 9c3d
00000090: 07e0 e93d 987a b63d 1112 ca3d d4b5 883d
000000a0: 4279 fdbc ec56 a03d 36f7 813d 1c57 6b3d
000000b0: bfda 0e3e 9833 883d 6277 d33d 5aae ef3d
000000c0: ce50 4e3d 68b3 9e3d 66d2 a73d f4d7 c73d
000000d0: 34de 743d 3eef c03d 64d2 ae3d 1f71 5f3d
000000e0: c9f2 e73d 7e66 843d 2150 743d 6d6f 783d
000000f0: 747e eb3d 64f1 b83d d310 e13d 5262 8f3d
00000100: 720c 743d ffe5 8a3d 8958 7b3d 4148 6b3d
00000110: a808 0b3e 3281 713d 3737 c23d f775 ed3d
00000120: f20d 903d 022b b23d e3c8 c33d 85ff eb3d
00000130: f781 9d3d 3f3c ea3d 8fd8 ba3d fb6a 933d
00000140: e391 f93d bc01 963d 8cf7 903d b1cd b23d
00000150: 1d4c 3e3e 3219 db3d 6018 e23d ec76 913d
00000160: c2f7 a53d ca44 ac3d 3b8b 9d3d f3e9 893d
00000170: 513a 143e 4a37 813d ef71 ce3d b5e4 e73d
00000180: 05f4 8d3d 0dae b63d 4849 c13d 8347 d93d
00000190: 5a68 993d 3386 d63d 3f4a d83d fc7f 823d
000001a0: 40d1 e73d 896b c73d 4454 823d ef55 a33d
000001b0: 5313 f83d 7754 c23d 7773 e93d 580e 963d
000001c0: 42cb 8e3d 09a4 d83c 5b06 983d 4dee 8e3d
000001d0: c971 153e 14a0 f63d 1e1b c03d 268b ee3d
000001e0: c9e6 613d c8ec b53d b8e0 a63d 56d0 e33d
000001f0: 2f3b 623d a8ca d43d e8c8 b63d e91e 853d
00000200: 0872 c63d 9389 8c3d 81fd 823d f0fc ab3d
00000210: 6d14 f03d fb66 c03d 7fb2 f13d 6ebb 8e3d
00000220: c476 663d cb7e 943d 9567 6c3d 1e56 863d
00000230: 0f94 f63d e78e 6d3d 7174 c43d fe4c ff3d
00000240: 3349 893d 39fc ad3d ac1d a13d 602c ea3d
00000250: b862 8d3d 4747 ce3d 9dca c43d 8e25 7b3d
00000260: 7307 ed3d dc10 933d f8d6 743d 25bc 8c3d
00000270: 9a6b eb3d b940 c13d 46d9 ea3d 19c8 9d3d
00000280: b205 923d b03c 8a3d 2411 993d a36d 7b3d
00000290: 1698 f63d c08f 573d c6c6 c03d 7618 f03d
000002a0: 9e57 863d 5082 ba3d 5d27 a53d e042 ea3d
000002b0: 7563 113d 395f cf3d fc9f c63d 0d6c 723d
000002c0: b7a6 e63d 5370 873d e182 873d 75b4 993d
000002d0: d2eb e63d 47c0 c83d 791b e03d a161 8e3d
000002e0: 1745 543d 73d7 8f3d b2d5 5a3d a59e 953d
000002f0: 5f75 fa3d 0a7d 7c3d da78 c73d 5ce5 f83d
00000300: c0e7 d33a 7cc4 6d3c bede cbba b34b 263c
00000310: 4cf2 7c3b 72dd 573c b830 303c 6037 963b
00000320: 12bf 9e3c ed56 c63b b293 773b 2354 8dba
00000330: 4306 3e3c 8672 a33a 40cd f53b f7f8 2c3c
00000340: c89d 933b f5fa 723a 72dd e3bc 364b bc3b
00000350: 4bb9 523c 5ee1 3bba 18e7 683c fcd0 313c
00000360: 8cb9 9cba 583e 1bbb a0e1 74ba 2ec9 a2ba
00000370: 315b 90ba f385 1ebb e458 96ba cad1 9aba
00000380: a0bd 17bb b48a b8ba 392e 99ba e5da 94b9
00000390: 3422 1fbb a735 a239 40cb ffba 183d 8bba
000003a0: 5aff 0bba 771c 74b8 a474 89ba b6ef 4eba
000003b0: d523 3abb f034 eeb9 a8b2 5cba a6b2 e0ba
000003c0: b4a1 5b3d 07e3 963d 1589 903d 4f4f dc3d
000003d0: afa7 513d 68a3 343d 5e63 b23d 3a45 5b3d
000003e0: b41d db3d 5997 7a3d 374e 623d e63b 8a3d
000003f0: 79fe e93d e93f b73d 11ae d63d b136 8b3d

blinear2.weight_rho f4 [24, 24]
-5.425905 -5.5501447 -5.4545755 -5.354798 -5.5411673 -5.486926 -5.598532 -5.481378
-5.441126 -5.510875 -5.4865494 -5.4867234 -5.363703 -5.466695 -5.594775 -5.571445
-5.4832225 -5.35329 -5.489457 -5.3874645 -5.2880335 -5.690247 -5.4757195 -5.479392
-5.4740252 -5.407454 -5.5418825 -5.4098763 -5.42313 -5.7335887 -5.521245 -5.4943643
-5.2742677 -5.657301 -5.2952085 -5.5901384 -5.4034925 -5.4521637 -5.4853177 -5.6143217
-5.4202085 -5.5062833 -5.57765 -5.379508 -5.5663266 -5.5545225 -5.5194926 -5.550059
-5.4381523 -5.344619 -5.4690933 -5.465063 -5.4923663 -5.559659 -5.519662 -5.344999
-5.5606 -5.743319 -5.7038507 -5.488275 -5.5635567 -5.3605046 -5.5481806 -5.5042763
-5.5541897 -5.3760457 -5.48256 -5.5419426 -5.557764 -5.5637617 -5.438123 -5.700497
-5.5636387 -5.340968 -5.4812527 -5.4293528 -5.545941 -5.5100007 -5.5739756 -5.539587
-5.5544925 -5.4038997 -5.590025 -5.557285 -5.5779204 -5.4726906 -5.571484 -5.6646485
-5.535582 -5.442777 -5.619203 -5.4395103 -5.418068 -5.453345 -5.603682 -5.494519
-5.4071193 -5.308281 -5.7310915 -5.5626035 -5.450824 -5.401904 -5.703146 -5.6391134
-5.410218 -5.4727592 -5.6197996 -5.4141974 -5.466961 -5.49855 -5.233124 -5.447228
-5.573356 -5.5185895 -5.4118247 -5.4963164 -5.491268 -5.4977837 -5.5295625 -5.5951505
-5.3317165 -5.619547 -5.565494 -5.4675217 -5.7102103 -5.4964294 -5.6404023 -5.5355406
-5.717046 -5.421278 -5.689231 -5.4900904 -5.4886627 -5.5637593 -5.532889 -5.6278834
-5.570779 -5.3434496 -5.5135255 -5.426465 -5.5213757 -5.623641 -5.441167 -5.587891
-5.5415998 -5.3874316 -5.467725 -5.640127 -5.5083895 -5.613586 -5.4404035 -5.5938454
-5.6508145 -5.4044614 -5.611583 -5.62793 -5.517502 -5.5510144 -5.3766866 -5.585435
-5.514503 -5.5216284 -5.3946095 -5.4028726 -5.5971484 -5.555057 -5.5807567 -5.3732696
-5.594815 -5.4404316 -5.77185 -5.563939 -5.4907084 -5.6784215 -5.645488 -5.4590406
-5.6740923 -5.4092345 -5.5276423 -5.8171005 -5.5493174 -5.4134297 -5.590035 -5.5756316
-5.4356933 -5.4459953 -5.499839 -5.458213 -5.4673824 -5.632309 -5.5575523 -5.5407734
-5.498079 -5.4525723 -5.363007 -5.318669 -5.222465 -5.643902 -5.4348187 -5.40781
-5.6376843 -5.651592 -5.4136806 -5.667959 -5.323856 -5.3632307 -5.563441 -5.3704405
-5.5253115 -5.4282146 -5.4505033 -5.3331375 -5.415169 -5.350728 -5.52193 -5.45891
-5.486684 -5.4212565 -5.5375133 -5.3178587 -5.275519 -5.281525 -5.571781 -5.5132866
-5.400708 -5.496903 -5.3630486 -5.495263 -5.6056714 -5.4669123 -5.349743 -5.4218607
-5.3135424 -5.3996453 -5.437037 -5.4880476 -5.301891 -5.445922 -5.26531 -5.310187
-5.5905614 -5.5428233 -5.4033566 -5.542129 -5.498228 -5.4159174 -5.601458 -5.4431825
-5.5003266 -5.5779953 -5.522363 -5.647841 -5.4877157 -5.5108075 -5.384788 -5.4866037
00000000: 04a1 adc0 c99a b1c0 e28b aec0 815a abc0
00000010: 3e51 b1c0 e694 afc0 2d27 b3c0 7367 afc0
00000020: b41d aec0 1759 b0c0 d091 afc0 3d93 afc0
00000030: 74a3 abc0 2aef aec0 6608 b3c0 4749 b2c0
00000040: 8f76 afc0 274e abc0 a2a9 afc0 1c66 acc0
00000050: 9237 a9c0 8116 b6c0 1839 afc0 2e57 afc0
00000060: 372b afc0 dd09 adc0 1a57 b1c0 b51d adc0
00000070: 488a adc0 8f79 b7c0 0aae b0c0 d5d1 afc0
00000080: cdc6 a8c0 9c08 b5c0 5972 a9c0 6ae2 b2c0
00000090: 69e9 acc0 2078 aec0 b987 afc0 86a8 b3c0
000000a0: 5972 adc0 7933 b0c0 1c7c b2c0 ee24 acc0
000000b0: 591f b2c0 a6be b1c0 af9f b0c0 159a b1c0
000000c0: 5805 aec0 1e07 abc0 d002 afc0 cce1 aec0
000000d0: 77c1 afc0 bae8 b1c0 12a1 b0c0 3b0a abc0
000000e0: 6ff0 b1c0 45c9 b7c0 f285 b6c0 f39f afc0
000000f0: a808 b2c0 4189 abc0 b28a b1c0 0823 b0c0
00000100: ecbb b1c0 9108 acc0 2271 afc0 9857 b1c0
00000110: 34d9 b1c0 560a b2c0 1b05 aec0 796a b6c0
00000120: 5409 b2c0 36e9 aac0 6c66 afc0 42bd adc0
00000130: 5978 b1c0 ed51 b0c0 025e b2c0 4c44 b1c0
00000140: 67be b1c0 bfec acc0 7ce1 b2c0 47d5 b1c0
00000150: 537e b2c0 4820 afc0 9949 b2c0 cd44 b5c0
00000160: 7d23 b1c0 3b2b aec0 83d0 b3c0 7810 aec0
00000170: d060 adc0 cd81 aec0 5d51 b3c0 1ad3 afc0
00000180: 1f07 adc0 70dd a9c0 1a65 b7c0 d900 b2c0
00000190: 266d aec0 66dc acc0 2c80 b6c0 9e73 b4c0
000001a0: 8120 adc0 d820 afc0 66d5 b3c0 1b41 adc0
000001b0: 58f1 aec0 1ff4 afc0 c075 a7c0 b14f aec0
000001c0: ef58 b2c0 4998 b0c0 ab2d adc0 d3e1 afc0
000001d0: 78b8 afc0 d8ed afc0 2df2 b0c0 790b b3c0
000001e0: 6c9d aac0 54d3 b3c0 8718 b2c0 f0f5 aec0
000001f0: 0bba b6c0 c0e2 afc0 2d7e b4c0 2623 b1c0
00000200: 0af2 b6c0 1c7b adc0 2e0e b6c0 d2ae afc0
00000210: 20a3 afc0 510a b2c0 6d0d b1c0 9f17 b4c0
00000220: d243 b2c0 8afd aac0 cd6e b0c0 9aa5 adc0
00000230: 1caf b0c0 def4 b3c0 0a1e aec0 01d0 b2c0
00000240: c954 b1c0 d765 acc0 9af7 aec0 ec7b b4c0
00000250: ba44 b0c0 7fa2 b3c0 c917 aec0 c800 b3c0
00000260: 79d3 b4c0 59f1 acc0 1792 b3c0 0118 b4c0
00000270: 608f b0c0 e9a1 b1c0 d10d acc0 e2bb b2c0
00000280: cf76 b0c0 2eb1 b0c0 a4a0 acc0 55e4 acc0
00000290: d71b b3c0 07c3 b1c0 8f95 b2c0 d3f1 abc0
000002a0: b908 b3c0 0418 aec0 ffb2 b8c0 ca0b b2c0
000002b0: e2b3 afc0 a1b5 b5c0 d6a7 b4c0 76b0 aec0
000002c0: 2a92 b5c0 7318 adc0 72e2 b0c0 b025 bac0
000002d0: 0294 b1c0 d13a adc0 91e1 b2c0 936b b2c0
000002e0: 33f1 adc0 9845 aec0 aefe afc0 aea9 aec0
000002f0: ccf4 aec0 e03b b4c0 78d7 b1c0 044e b1c0
00000300: 43f0 afc0 797b aec0 c19d abc0 8932 aac0
00000310: 6f1e a7c0 d89a b4c0 09ea adc0 c80c adc0
00000320: e967 b4c0 d7d9 b4c0 df3c adc0 ec5f b5c0
00000330: 075d aac0 969f abc0 b507 b2c0 a6da abc0
00000340: 5acf b0c0 efb3 adc0 866a aec0 10a9 aac0
00000350: 1049 adc0 2a39 abc0 a7b3 b0c0 64af aec0
00000360: ea92 afc0 ef7a adc0 4f33 b1c0 e62b aac0
00000370: 0dd1 a8c0 4102 a9c0 084c b2c0 d86c b0c0
00000380: 9ad2 acc0 a1e6 afc0 189e abc0 32d9 afc0
00000390: a961 b3c0 f2f0 aec0 1831 abc0 e27f adc0
000003a0: 8a08 aac0 e5c9 acc0 35fc adc0 169e afc0
000003b0: 17a9 a9c0 fe44 aec0 6b7d a8c0 0ded a9c0
000003c0: e1e5 b2c0 cf5e b1c0 4ce8 acc0 1f59 b1c0
000003d0: 7cf1 afc0 324f adc0 253f b3c0 8d2e aec0
000003e0: ad02 b0c0 f07e b2c0 33b7 b0c0 1dbb b4c0
000003f0: 5e9b afc0 8958 b0c0 2f50 acc0 4292 afc0

blinear2.bias_mu f4 [24]
0.0060630837 0.009511118 0.005319296 0.017860575 0.030083166 0.010084082 0.010620045 0.009157763
0.0012669301 -0.0027687503 0.007982398 0.0214441 0.019617163 0.005693002 0.035271883 0.009518589
0.01048956 0.033867702 0.00243921 0.00926418 0.10965686 0.026799846 -0.002358409 0.016251346
00000000: d5ac c63b 85d4 1b3c 7d4d ae3b 5750 923c
00000010: f970 f63c b537 253c b2ff 2d3c 710a 163c
00000020: 1f0f a63a ec73 35bb 9bc8 023c 8aab af3c
00000030: 2cb4 a03c 5d8c ba3b 4079 103d dbf3 1b3c
00000040: 67dc 2b3c dcb8 0a3d 27db 1f3b cac8 173c
00000050: c793 e03d 5a8b db3c 8a8f 1abb 8b21 853c

blinear2.bias_rho f4 [24]
-5.4226255 -5.433337 -5.452517 -5.421451 -5.2562666 -5.416368 -5.4494653 -5.4642015
-5.5762534 -5.25556 -5.6319866 -5.488749 -5.312471 -5.346096 -5.4771085 -5.421727
-5.3186407 -5.5294104 -5.306977 -5.4826713 -5.4039435 -5.3975043 -5.3044 -5.5860543
00000000: 2686 adc0 e6dd adc0 057b aec0 877c adc0
00000010: 5633 a8c0 e352 adc0 0562 aec0 bdda aec0
00000020: ab70 b2c0 8c2d a8c0 3c39 b4c0 d5a3 afc0
00000030: c3ff a9c0 3813 abc0 7944 afc0 ca7e adc0
00000040: 4e32 aac0 eef0 b0c0 c1d2 a9c0 0b72 afc0
00000050: 1bed acc0 5bb8 acc0 a5bd a9c0 f5c0 b2c0
