summit/benchmarks/experiment_emulator/trained_models/BNN/baumgartner_aniline_cn_crosscoupling_descriptors_yield_6_BNN_model.pt (torch_old, 24661 bytes, 35 tensors)

blinear1.weight_mu f4 [24, 13]
000000 d4 07 96 bd 2d b9 fc 3d 9f 10 98 bd a5 e4 c7 bc
       -0.07325712 0.12340007 -0.07425045 -0.024401018
000010 17 5d 13 3e a6 ad a4 3d 02 2b 33 3d 77 8a f1 bb
       0.1439098 0.08040933 0.043742187 -0.0073712426
000020 a1 35 20 bd 01 89 86 bd 0b 24 0a be 98 b2 a0 bc
       -0.039113645 -0.065691 -0.13490312 -0.01961641
000030 92 a6 4e 3d 7e 96 ae 3c 4f 98 11 bd 28 43 ce bd
       0.050451823 0.021311995 -0.035545643 -0.10071403
000040 bd 9b 83 bd 33 6c 18 be 82 93 6f be c4 95 a9 bd
       -0.06426189 -0.14885025 -0.23396114 -0.08280519
000050 99 ea eb 3a e4 7c 4d 3c 04 49 75 be dd f3 a9 bc
       0.0017998993 0.012541983 -0.23953635 -0.020746166
000060 5a a8 81 3c 4c 54 d2 3d 95 f3 59 3d 20 34 7e 3e
       0.015827347 0.102699846 0.053210814 0.24824572
000070 f7 46 11 3d 4a 82 5c bd 4f 5d d4 3c 62 a2 5e 3d
       0.035468068 -0.05383519 0.0259234 0.05435408
000080 50 ac 96 bd 5e db 23 39 73 9d 93 bd f8 91 90 3e
       -0.07357085 0.00015626612 -0.072077654 0.28236365
000090 5d 44 1f bc 2b 2c cc bd d8 44 e9 bc c8 29 27 3e
       -0.009720889 -0.09969362 -0.02847521 0.16324532
0000a0 a1 01 26 3e 67 39 f4 3c 2a 82 3b 3e 62 1d 85 bd
       0.16211559 0.029812528 0.18311372 -0.06499745
0000b0 ee 9f 6d bd 57 c0 5c 3d 2b b0 0f 3b ce 46 21 3e
       -0.05801385 0.053894367 0.0021925073 0.15749666
0000c0 91 5b ba 3d ea ff d3 3d 3f 10 57 bd 02 b0 7c bd
       0.09099496 0.10351546 -0.052505728 -0.06169129
0000d0 4a 46 95 bd a6 cc d9 3d 7c 7e 92 bd 53 2a 20 3e
       -0.07288797 0.10634737 -0.07153031 0.15641145
0000e0 9c ca db 3d 98 25 5a bd 4f 92 a2 3d 99 59 bc b9
       0.10732004 -0.05325851 0.079380624 -0.0003592491
0000f0 4f b9 dd 3d 07 8a cd 3d 62 b3 2f 3e 96 77 56 bb
       0.108263604 0.10036092 0.17158273 -0.0032725087
000100 e3 ad 0b be 67 93 8a 3d 6b 4b 80 be 31 c8 5b be
       -0.13640551 0.06766396 -0.2505754 -0.21463086
000110 ee 2e 84 bd 4f b2 34 3d 3f 15 01 3d 40 0b d1 bd
       -0.06454264 0.04411536 0.031514402 -0.10207224
000120 2c d4 69 ba 28 a1 8a be c9 54 0b 3e d8 6b c2 ba
       -0.00089198607 -0.27076077 0.13606562 -0.0014833165
000130 9b ec ce 3c 83 ec b8 3d c3 64 83 3d 9a 47 96 3e
       0.025259307 0.09029486 0.06415703 0.29351503
000140 56 55 cd bd e1 9b 1b bd a3 18 8a 3d 5a 81 01 be
       -0.10026042 -0.037990455 0.0674298 -0.12647
000150 6a 69 00 be e1 66 e5 3a ce e8 c5 bc 32 fd 67 3c
       -0.12540212 0.0017501974 -0.024158861 0.014159488
000160 05 a2 98 3d db f4 4b bd 39 5f 96 bc d8 26 b0 bc
       0.07452778 -0.04979406 -0.018355953 -0.021502897
000170 7a cc 8c bc 0d d1 16 3d 29 64 12 be 33 c3 15 3d
       -0.017187346 0.03682046 -0.1429602 0.03656311
000180 a0 cf 68 3d 53 35 88 3d 4b eb 30 39 95 13 79 3d
       0.05683863 0.06650796 0.00016872321 0.06080969
000190 08 c1 7e bd a7 b1 72 bd a6 a2 d3 bd 0c ef 3f 3e
       -0.062195808 -0.059251454 -0.10333757 0.18743533
0001a0 6d ad ff bb 83 4a 27 bd 4b ed 83 3d 74 51 5d bc
       -0.0078026564 -0.040842544 0.064417444 -0.0135081895
0001b0 3b ee a1 bd 57 22 55 3c 9d 71 9f bd 39 d2 6d 3a
       -0.07906767 0.013008676 -0.07785342 0.0009072158
0001c0 ca 83 18 3e 71 78 c8 bd 37 ba cc 3b 7e f4 9d 3b
       0.14894024 -0.097885974 0.0062477845 0.0048204055
0001d0 3c 61 b1 3d 98 7a bb bd 2f 21 69 bd 38 da 93 bd
       0.08661124 -0.09154242 -0.056916412 -0.07219356
0001e0 19 51 f7 3d 0a 6d 05 3e c9 ed b0 3d 9e 0a 21 3e
       0.12076015 0.13029876 0.08639104 0.15726706
0001f0 b4 fa 0a 39 6a ca 68 3e 5a 6b e8 3c 16 4d c3 bd
       0.000132541 0.22733465 0.028371502 -0.09536187
000200 fd 12 58 be 83 fb 2a bb 35 0f c4 bd 3d 53 18 3e
       -0.21100993 -0.0026089854 -0.09573213 0.14875503
000210 ea 6d 66 3d fb 4f 04 3e f9 34 48 bd dc 84 c0 3d
       0.056257166 0.12921135 -0.048878644 0.09400341
000220 cb 63 76 bd 5e 27 fc ba 70 50 28 3e 79 88 88 3e
       -0.060153764 -0.0019237807 0.16436934 0.2666662
000230 34 cc 4e 3d cf 51 4e 3e 5c 93 a4 be 24 90 93 bc
       0.050487712 0.20148395 -0.32143676 -0.018013068
000240 04 ef 94 3d 88 da 86 be 27 4a d2 bd 29 c2 5c 3c
       0.07272151 -0.263386 -0.1026805 0.013474026
000250 67 e2 7b bd f2 a8 c8 bd 6c f0 0d bb 14 fb e1 3d
       -0.06149521 -0.09797849 -0.0021658195 0.110342175
000260 50 a4 af bc 4f 60 89 3d 24 dd c9 3d 95 ae 46 bd
       -0.021440655 0.067078225 0.09856632 -0.04850634
000270 5a 10 da bb d3 20 0c be c3 99 45 bc fc c3 c3 3b
       -0.0066547813 -0.13684396 -0.012060585 0.005974291
000280 7c 57 a9 bd 2e 2c 8c 3d fc e2 c5 bd 9c d8 0c 3a
       -0.082686394 0.06844364 -0.096624345 0.00053728535
000290 ac 30 09 3e 96 f9 10 be e2 88 3d be 62 e1 0d 3d
       0.13397473 -0.1415771 -0.18509248 0.03463877
0002a0 d7 71 4a 3e 62 df 84 3d 59 83 ab 3d 4b b8 e6 bb
       0.19769989 0.064879194 0.08374662 -0.0070410124
0002b0 86 48 c7 bd b8 f1 fc bc 5c 03 ba bd ea b7 3b bd
       -0.097306296 -0.03087698 -0.09082672 -0.04582969
0002c0 74 d8 61 b9 81 93 ef 3d 08 91 01 3e 27 ba fe 3b
       -0.00021538307 0.11698056 0.12652981 0.007773656
0002d0 47 dd af bc 5e 47 dc 3d 24 07 0e bc b6 18 03 3d
       -0.021467818 0.107558 -0.008668695 0.032005988
0002e0 6a aa 80 bd f1 d2 d6 3c b0 8a f5 3c b5 89 1f bd
       -0.06282504 0.026223632 0.029973358 -0.038949687
0002f0 57 15 3a 3d 14 e7 42 b9 04 3e 8f 3e 79 17 e1 bd
       0.045430508 -0.00018587365 0.27977002 -0.10990805
000300 cc 95 4c be 2a 02 75 be 49 b2 80 3e 7a 76 80 3d
       -0.19979018 -0.23926607 0.2513602 0.062725976
000310 71 46 e1 3d ed af a2 3d 1e 8e 14 3e c7 d7 ff 3b
       0.10999764 0.079437114 0.14507338 0.007807705
000320 b5 e3 d6 3d c1 79 6d bd b8 31 94 ba a1 e7 21 3d
       0.104926504 -0.05797744 -0.0011306321 0.03952754
000330 7a 52 6a bc 08 39 90 3c 95 0d 13 be 72 92 f4 3b
       -0.0143018905 0.01760532 -0.1436065 0.0074637467
000340 fc 00 53 3d 5c 18 3a 3d 8a ae e3 bc b9 76 ee 3c
       0.05151461 0.045433387 -0.027793188 0.029109346
000350 be c8 35 be ea db 13 3d 60 35 f3 ba 5c b3 be 39
       -0.17752358 0.0360984 -0.0018555336 0.00036373257
000360 4a db 60 be a0 89 1d be 4f 6d 8b bd b3 7b 48 be
       -0.21958652 -0.15384531 -0.06807958 -0.19578438
000370 d0 36 37 be f5 8d 9b 3c 7f a7 61 bd 02 1e 2b 3d
       -0.17892003 0.018988589 -0.055091377 0.041776665
000380 b4 b3 10 bd 86 62 00 3e 30 f5 0a 3d f5 33 30 bd
       -0.03532763 0.12537584 0.033925235 -0.0430183
000390 3e 72 0a 3b 6c 41 50 3e df d9 2a 3e 5c 37 e9 3b
       0.0021125223 0.20337456 0.16684674 0.007117195
0003a0 51 07 46 bd 7e 9c 6e be 49 d3 a9 3b 75 91 1d 3e
       -0.04834682 -0.23301885 0.005182658 0.15387519
0003b0 3f 59 06 3d b2 59 2b 3e 93 6e d1 3d dd 1e 82 bd
       0.032799955 0.16733435 0.102261685 -0.06353543
0003c0 ec fd ba bd cd 47 0e 3b e6 d1 8d bd 19 6a 32 3d
       -0.09130463 0.0021710277 -0.069248006 0.043558214
0003d0 29 e7 d7 3d 16 43 34 3e 01 c8 56 bd 10 18 ee 3c
       0.10542137 0.17603716 -0.052436832 0.029064208
0003e0 1e e9 60 3e ab bb e4 3d 34 a9 11 bd 60 14 34 3c
       0.21963927 0.11168607 -0.035561755 0.010991186
0003f0 96 a1 4e 3d 97 59 8d bc 2f 73 ad 3a 81 2c e3 3d
       0.05044707 -0.017254634 0.001323318 0.11092473

blinear1.weight_rho f4 [24, 13]
000000 f4 2d ae c0 ae 01 b6 c0 9d 85 b4 c0 45 a9 b6 c0
       -5.4431095 -5.687705 -5.64131 -5.708163
000010 52 fb b4 c0 c6 76 b4 c0 d8 60 b6 c0 21 28 ad c0
       -5.6556787 -5.6394987 -5.6993217 -5.4111485
000020 43 2c b5 c0 26 8b b2 c0 7f 86 b4 c0 3f a2 b7 c0
       -5.661653 -5.579486 -5.641418 -5.7385554
000030 90 f9 b0 c0 e8 c6 ba c0 e2 2c b7 c0 f0 0c b2 c0
       -5.530464 -5.8367805 -5.724229 -5.5640793
000040 a4 4c b3 c0 a2 ff b0 c0 f8 2a b6 c0 18 71 b2 c0
       -5.6031055 -5.531205 -5.692745 -5.5763054
000050 8e 54 b2 c0 af ba b5 c0 9e ce b1 c0 93 ea af c0
       -5.5728216 -5.6790385 -5.556472 -5.4973845
000060 cc 8c b8 c0 2e 05 b4 c0 d3 e1 b8 c0 f4 81 b9 c0
       -5.767187 -5.6256323 -5.7775664 -5.7971134
000070 96 d1 b7 c0 7e 3d b7 c0 21 05 ba c0 8f 05 b8 c0
       -5.744334 -5.7262564 -5.813126 -5.7506785
000080 77 ea b4 c0 f0 91 b1 c0 ce d6 ba c0 2c a1 b5 c0
       -5.653621 -5.5490646 -5.8387213 -5.6759243
000090 e1 a2 b7 c0 94 ac ba c0 a5 57 bd c0 41 f6 c0 c0
       -5.7386327 -5.8335667 -5.916949 -6.0300603
0000a0 7a 63 ba c0 f3 0a bd c0 39 59 bb c0 9f 9d be c0
       -5.824643 -5.9075866 -5.8546414 -5.956741
0000b0 09 70 bb c0 f1 13 bd c0 f7 9b af c0 4d ec b9 c0
       -5.857426 -5.9086843 -5.4877887 -5.8100953
0000c0 2f 14 bd c0 bb 07 be c0 f5 36 be c0 b4 71 bf c0
       -5.908714 -5.9384437 -5.9442086 -5.98263
0000d0 21 52 b8 c0 85 80 b9 c0 1b 17 bf c0 44 a3 bb c0
       -5.7600255 -5.7969384 -5.9715705 -5.86368
0000e0 94 7d b9 c0 41 9a bc c0 e4 95 b9 c0 e3 08 b2 c0
       -5.7965794 -5.89383 -5.799547 -5.563585
0000f0 ba eb bd c0 2e 13 b3 c0 4e ee b6 c0 85 0c bf c0
       -5.935025 -5.5960913 -5.71659 -5.9702783
000100 1c f2 bf c0 3e 85 ba c0 aa 2b bc c0 ff 6d bb c0
       -5.9983044 -5.828765 -5.88033 -5.8571773
000110 5e fc ba c0 ef 89 b3 c0 75 c0 ba c0 f2 a4 b8 c0
       -5.8433065 -5.6105876 -5.8359933 -5.770135
000120 7a ec b2 c0 a2 e1 b7 c0 c3 2e ba c0 ef c2 bc c0
       -5.591367 -5.746293 -5.818208 -5.8987956
000130 9c b3 bc c0 6c 0e ba c0 3c 1f be c0 e5 f3 ba c0
       -5.896925 -5.8142605 -5.941313 -5.8422723
000140 e3 ff be c0 fa 7e b8 c0 55 31 b9 c0 90 a2 bb c0
       -5.968736 -5.7655 -5.787272 -5.863594
000150 84 ef b9 c0 dc 1f ae c0 dd ba bc c0 4a 91 c1 c0
       -5.8104877 -5.441389 -5.8978105 -6.0489855
000160 71 33 c0 c0 91 b0 bd c0 e8 2f ba c0 21 63 b9 c0
       -6.0062795 -5.9278035 -5.818348 -5.7933507
000170 54 82 b5 c0 28 cb b6 c0 8d e0 b7 c0 cd 72 b8 c0
       -5.672159 -5.7122993 -5.746161 -5.764014
000180 32 e8 b5 c0 a9 f3 b6 c0 2d 7e b0 c0 25 a2 b6 c0
       -5.684594 -5.7172437 -5.5154023 -5.707293
000190 90 78 b5 c0 12 a4 ba c0 aa 50 b7 c0 95 d7 af c0
       -5.670967 -5.832528 -5.7285967 -5.495066
0001a0 47 95 b7 c0 b4 d2 b5 c0 47 08 b6 c0 9d be b4 c0
       -5.7369723 -5.6819706 -5.6885104 -5.648268
0001b0 d4 3e b2 c0 46 fd b0 c0 df 38 b5 c0 ed 98 b0 c0
       -5.5701694 -5.530917 -5.6631923 -5.5186677
0001c0 1c ba b6 c0 01 3a b5 c0 45 7b b5 c0 82 36 b7 c0
       -5.7102184 -5.6633306 -5.6712976 -5.725404
0001d0 e6 3a b1 c0 20 96 b4 c0 85 d1 b5 c0 e1 2a b1 c0
       -5.5384398 -5.643326 -5.681826 -5.5364842
0001e0 8c ca b7 c0 ae a3 b7 c0 e0 9a b6 c0 67 2a b8 c0
       -5.743475 -5.7387304 -5.7064056 -5.755176
0001f0 18 01 b5 c0 0a 40 bc c0 e6 62 b5 c0 49 d6 b7 c0
       -5.6563835 -5.8828173 -5.6683226 -5.744908
000200 eb 8f b6 c0 d1 85 b9 c0 cb 3b bd c0 d0 c7 bb c0
       -5.705068 -5.797585 -5.913549 -5.868141
000210 08 e4 be c0 96 8f b7 c0 a7 97 b6 c0 2e 47 b8 c0
       -5.965336 -5.7362776 -5.7060122 -5.758689
000220 a0 89 b5 c0 15 95 b3 c0 0a 41 bc c0 b2 2d bb c0
       -5.67305 -5.6119485 -5.8829393 -5.849328
000230 e0 2f bc c0 45 33 b7 c0 4a 07 ba c0 0b e4 ba c0
       -5.880844 -5.7250085 -5.81339 -5.8403373
000240 f4 3d b6 c0 dc d5 b7 c0 75 14 b6 c0 57 24 b7 c0
       -5.6950626 -5.744856 -5.689997 -5.723186
000250 4c 6b bc c0 7d 03 b2 c0 ba cb b2 c0 92 c9 b9 c0
       -5.888098 -5.562926 -5.587369 -5.8058558
000260 79 da b8 c0 d8 6d bc c0 0d 26 bd c0 f6 a3 bd c0
       -5.776669 -5.8884087 -5.910895 -5.926265
000270 ad a0 b4 c0 1e 98 b3 c0 4e f4 b6 c0 d9 4b b6 c0
       -5.6446137 -5.612319 -5.7173223 -5.6967587
000280 c9 c7 bc c0 06 22 b9 c0 7e 66 b6 c0 b2 9e b0 c0
       -5.899388 -5.7854033 -5.7000113 -5.519372
000290 7e 88 bc c0 1d a6 b8 c0 26 4f b7 c0 3b cc b8 c0
       -5.8916616 -5.7702775 -5.7284117 -5.7749305
0002a0 cc 6c b8 c0 9e 83 bb c0 26 18 b9 c0 0c 3d b2 c0
       -5.763281 -5.8598166 -5.784198 -5.569952
0002b0 bd 07 b9 c0 62 df bc c0 a4 48 ba c0 0d e4 b9 c0
       -5.7821946 -5.9022684 -5.8213673 -5.809088
0002c0 b4 91 b4 c0 0c 8b bc c0 44 81 b7 c0 d0 60 b9 c0
       -5.642786 -5.8919735 -5.7345295 -5.793068
0002d0 4b 32 b6 c0 1a a9 ba c0 db d5 be c0 a0 60 ba c0
       -5.6936393 -5.8331423 -5.9636054 -5.824295
0002e0 d0 5d bd c0 c1 84 b8 c0 20 0b b5 c0 fb 90 bd c0
       -5.9177017 -5.7662053 -5.657608 -5.923948
0002f0 74 6d bb c0 6d 37 af c0 a2 c7 be c0 ab 00 bc c0
       -5.857111 -5.475516 -5.9618692 -5.8750815
000300 aa 91 bb c0 ee fb bc c0 30 7b bc c0 16 bd b3 c0
       -5.8615313 -5.905753 -5.8900375 -5.616832
000310 57 50 af c0 9b 99 b5 c0 c8 cd b6 c0 a5 86 b4 c0
       -5.478557 -5.6750007 -5.71262 -5.641436
000320 38 fe b9 c0 9a 12 b7 c0 71 d7 b3 c0 24 74 b4 c0
       -5.8122826 -5.7210207 -5.620049 -5.6391773
000330 8a 13 b1 c0 7d 35 b4 c0 f9 5f b4 c0 0b 6c b1 c0
       -5.533635 -5.6315293 -5.6367154 -5.544439
000340 b7 7d b5 c0 91 c7 b8 c0 17 73 ba c0 27 06 bb c0
       -5.671596 -5.774361 -5.826549 -5.844501
000350 c9 60 b8 c0 56 f3 b3 c0 75 ac b2 c0 4a 92 af c0
       -5.7618146 -5.623454 -5.583552 -5.4866076
000360 82 2d bc c0 3b e7 b7 c0 14 62 b4 c0 7d f6 b6 c0
       -5.880555 -5.7469764 -5.6369724 -5.717589
000370 7e 41 b7 c0 65 b8 bb c0 81 9a b9 c0 6b 88 b7 c0
       -5.7267447 -5.866259 -5.8001103 -5.7354026
000380 55 54 b8 c0 e3 e2 b9 c0 40 62 b9 c0 ac 1e b8 c0
       -5.7602944 -5.808946 -5.7932434 -5.753744
000390 6e c8 aa c0 eb b4 b6 c0 c8 61 ba c0 3a 12 ba c0
       -5.3369665 -5.7095847 -5.824436 -5.814725
0003a0 c9 04 b8 c0 98 f4 bd c0 26 cc b9 c0 3b 48 ba c0
       -5.750584 -5.9361076 -5.8061705 -5.821317
0003b0 d2 2d bf c0 dc 25 b8 c0 5f ee b6 c0 f8 ff b6 c0
       -5.9743433 -5.7546215 -5.716598 -5.718746
0003c0 5a d3 ba c0 6f 2d b5 c0 83 01 bd c0 d8 85 bb c0
       -5.8382998 -5.661796 -5.9064345 -5.8600883
0003d0 4c e1 b6 c0 af 42 b6 c0 0e ee b6 c0 97 ac b8 c0
       -5.715002 -5.69564 -5.7165594 -5.771068
0003e0 43 62 bc c0 64 77 b8 c0 59 f9 b4 c0 32 ea bd c0
       -5.886995 -5.764574 -5.655438 -5.9348383
0003f0 a4 d7 be c0 0c 5b ba c0 8c b8 af c0 a5 b7 b9 c0
       -5.9638233 -5.823614 -5.4912777 -5.8036675

blinear1.bias_mu f4 [24]
000000 db 6d a6 bc 1d 2e 19 bc e2 3d c8 bc 8f 7f 27 3e
       -0.020316055 -0.009349373 -0.02444357 0.16357253
000010 0b f4 44 3e 33 fe b4 3d 12 ad 3d 3d 89 ab 90 bb
       0.1923372 0.08837547 0.04630763 -0.00441498
000020 4c ea 03 bd 31 c7 7b bd 4a 99 8b 3c 9c 28 3f 3d
       -0.032205865 -0.06146926 0.017040867 0.046669587
000030 f6 07 01 bc 02 34 8d 3d 4c 13 90 3d c5 81 1f bc
       -0.007875433 0.06894685 0.070349306 -0.009735529
000040 fa 84 25 3d 22 bf c3 3d b7 3f f2 bc 91 44 23 3d
       0.04041002 0.0955794 -0.029571397 0.039860312
000050 c5 61 16 3e 05 fc e4 3b 28 77 ec 39 a6 ca 09 3b
       0.14685734 0.006988051 0.00045102206 0.002102533

blinear1.bias_rho f4 [24]
000000 b3 5c b2 c0 40 bc ad c0 14 a8 b3 c0 a5 d9 af c0
       -5.573816 -5.4292297 -5.6142673 -5.495318
000010 15 da ae c0 62 7a b0 c0 a4 c5 b0 c0 66 8d af c0
       -5.4641213 -5.5149393 -5.524126 -5.4860106
000020 7b 7c b4 c0 b4 a3 ab c0 35 03 b4 c0 7c 5e ae c0
       -5.6401954 -5.3637333 -5.6253915 -5.4490337
000030 6e ed b7 c0 f6 3b af c0 00 aa b0 c0 13 43 b0 c0
       -5.747733 -5.4760695 -5.520752 -5.508188
000040 d3 36 af c0 f7 ca ac c0 86 87 b6 c0 c5 d1 b1 c0
       -5.4754424 -5.399776 -5.7040434 -5.5568566
000050 95 90 b6 c0 b9 7f a9 c0 16 10 b5 c0 a3 82 b9 c0
       -5.705149 -5.296841 -5.6582136 -5.797197

blinear1.weight_sampler.mu f4 [24, 13]
000000 d4 07 96 bd 2d b9 fc 3d 9f 10 98 bd a5 e4 c7 bc
       -0.07325712 0.12340007 -0.07425045 -0.024401018
000010 17 5d 13 3e a6 ad a4 3d 02 2b 33 3d 77 8a f1 bb
       0.1439098 0.08040933 0.043742187 -0.0073712426
000020 a1 35 20 bd 01 89 86 bd 0b 24 0a be 98 b2 a0 bc
       -0.039113645 -0.065691 -0.13490312 -0.01961641
000030 92 a6 4e 3d 7e 96 ae 3c 4f 98 11 bd 28 43 ce bd
       0.050451823 0.021311995 -0.035545643 -0.10071403
000040 bd 9b 83 bd 33 6c 18 be 82 93 6f be c4 95 a9 bd
       -0.06426189 -0.14885025 -0.23396114 -0.08280519
000050 99 ea eb 3a e4 7c 4d 3c 04 49 75 be dd f3 a9 bc
       0.0017998993 0.012541983 -0.23953635 -0.020746166
000060 5a a8 81 3c 4c 54 d2 3d 95 f3 59 3d 20 34 7e 3e
       0.015827347 0.102699846 0.053210814 0.24824572
000070 f7 46 11 3d 4a 82 5c bd 4f 5d d4 3c 62 a2 5e 3d
       0.035468068 -0.05383519 0.0259234 0.05435408
000080 50 ac 96 bd 5e db 23 39 73 9d 93 bd f8 91 90 3e
       -0.07357085 0.00015626612 -0.072077654 0.28236365
000090 5d 44 1f bc 2b 2c cc bd d8 44 e9 bc c8 29 27 3e
       -0.009720889 -0.09969362 -0.02847521 0.16324532
0000a0 a1 01 26 3e 67 39 f4 3c 2a 82 3b 3e 62 1d 85 bd
       0.16211559 0.029812528 0.18311372 -0.06499745
0000b0 ee 9f 6d bd 57 c0 5c 3d 2b b0 0f 3b ce 46 21 3e
       -0.05801385 0.053894367 0.0021925073 0.15749666
0000c0 91 5b ba 3d ea ff d3 3d 3f 10 57 bd 02 b0 7c bd
       0.09099496 0.10351546 -0.052505728 -0.06169129
0000d0 4a 46 95 bd a6 cc d9 3d 7c 7e 92 bd 53 2a 20 3e
       -0.07288797 0.10634737 -0.07153031 0.15641145
0000e0 9c ca db 3d 98 25 5a bd 4f 92 a2 3d 99 59 bc b9
       0.10732004 -0.05325851 0.079380624 -0.0003592491
0000f0 4f b9 dd 3d 07 8a cd 3d 62 b3 2f 3e 96 77 56 bb
       0.108263604 0.10036092 0.17158273 -0.0032725087
000100 e3 ad 0b be 67 93 8a 3d 6b 4b 80 be 31 c8 5b be
       -0.13640551 0.06766396 -0.2505754 -0.21463086
000110 ee 2e 84 bd 4f b2 34 3d 3f 15 01 3d 40 0b d1 bd
       -0.06454264 0.04411536 0.031514402 -0.10207224
000120 2c d4 69 ba 28 a1 8a be c9 54 0b 3e d8 6b c2 ba
       -0.00089198607 -0.27076077 0.13606562 -0.0014833165
000130 9b ec ce 3c 83 ec b8 3d c3 64 83 3d 9a 47 96 3e
       0.025259307 0.09029486 0.06415703 0.29351503
000140 56 55 cd bd e1 9b 1b bd a3 18 8a 3d 5a 81 01 be
       -0.10026042 -0.037990455 0.0674298 -0.12647
000150 6a 69 00 be e1 66 e5 3a ce e8 c5 bc 32 fd 67 3c
       -0.12540212 0.0017501974 -0.024158861 0.014159488
000160 05 a2 98 3d db f4 4b bd 39 5f 96 bc d8 26 b0 bc
       0.07452778 -0.04979406 -0.018355953 -0.021502897
000170 7a cc 8c bc 0d d1 16 3d 29 64 12 be 33 c3 15 3d
       -0.017187346 0.03682046 -0.1429602 0.03656311
000180 a0 cf 68 3d 53 35 88 3d 4b eb 30 39 95 13 79 3d
       0.05683863 0.06650796 0.00016872321 0.06080969
000190 08 c1 7e bd a7 b1 72 bd a6 a2 d3 bd 0c ef 3f 3e
       -0.062195808 -0.059251454 -0.10333757 0.18743533
0001a0 6d ad ff bb 83 4a 27 bd 4b ed 83 3d 74 51 5d bc
       -0.0078026564 -0.040842544 0.064417444 -0.0135081895
0001b0 3b ee a1 bd 57 22 55 3c 9d 71 9f bd 39 d2 6d 3a
       -0.07906767 0.013008676 -0.07785342 0.0009072158
0001c0 ca 83 18 3e 71 78 c8 bd 37 ba cc 3b 7e f4 9d 3b
       0.14894024 -0.097885974 0.0062477845 0.0048204055
0001d0 3c 61 b1 3d 98 7a bb bd 2f 21 69 bd 38 da 93 bd
       0.08661124 -0.09154242 -0.056916412 -0.07219356
0001e0 19 51 f7 3d 0a 6d 05 3e c9 ed b0 3d 9e 0a 21 3e
       0.12076015 0.13029876 0.08639104 0.15726706
0001f0 b4 fa 0a 39 6a ca 68 3e 5a 6b e8 3c 16 4d c3 bd
       0.000132541 0.22733465 0.028371502 -0.09536187
000200 fd 12 58 be 83 fb 2a bb 35 0f c4 bd 3d 53 18 3e
       -0.21100993 -0.0026089854 -0.09573213 0.14875503
000210 ea 6d 66 3d fb 4f 04 3e f9 34 48 bd dc 84 c0 3d
       0.056257166 0.12921135 -0.048878644 0.09400341
000220 cb 63 76 bd 5e 27 fc ba 70 50 28 3e 79 88 88 3e
       -0.060153764 -0.0019237807 0.16436934 0.2666662
000230 34 cc 4e 3d cf 51 4e 3e 5c 93 a4 be 24 90 93 bc
       0.050487712 0.20148395 -0.32143676 -0.018013068
000240 04 ef 94 3d 88 da 86 be 27 4a d2 bd 29 c2 5c 3c
       0.07272151 -0.263386 -0.1026805 0.013474026
000250 67 e2 7b bd f2 a8 c8 bd 6c f0 0d bb 14 fb e1 3d
       -0.06149521 -0.09797849 -0.0021658195 0.110342175
000260 50 a4 af bc 4f 60 89 3d 24 dd c9 3d 95 ae 46 bd
       -0.021440655 0.067078225 0.09856632 -0.04850634
000270 5a 10 da bb d3 20 0c be c3 99 45 bc fc c3 c3 3b
       -0.0066547813 -0.13684396 -0.012060585 0.005974291
000280 7c 57 a9 bd 2e 2c 8c 3d fc e2 c5 bd 9c d8 0c 3a
       -0.082686394 0.06844364 -0.096624345 0.00053728535
000290 ac 30 09 3e 96 f9 10 be e2 88 3d be 62 e1 0d 3d
       0.13397473 -0.1415771 -0.18509248 0.03463877
0002a0 d7 71 4a 3e 62 df 84 3d 59 83 ab 3d 4b b8 e6 bb
       0.19769989 0.064879194 0.08374662 -0.0070410124
0002b0 86 48 c7 bd b8 f1 fc bc 5c 03 ba bd ea b7 3b bd
       -0.097306296 -0.03087698 -0.09082672 -0.04582969
0002c0 74 d8 61 b9 81 93 ef 3d 08 91 01 3e 27 ba fe 3b
       -0.00021538307 0.11698056 0.12652981 0.007773656
0002d0 47 dd af bc 5e 47 dc 3d 24 07 0e bc b6 18 03 3d
       -0.021467818 0.107558 -0.008668695 0.032005988
0002e0 6a aa 80 bd f1 d2 d6 3c b0 8a f5 3c b5 89 1f bd
       -0.06282504 0.026223632 0.029973358 -0.038949687
0002f0 57 15 3a 3d 14 e7 42 b9 04 3e 8f 3e 79 17 e1 bd
       0.045430508 -0.00018587365 0.27977002 -0.10990805
000300 cc 95 4c be 2a 02 75 be 49 b2 80 3e 7a 76 80 3d
       -0.19979018 -0.23926607 0.2513602 0.062725976
000310 71 46 e1 3d ed af a2 3d 1e 8e 14 3e c7 d7 ff 3b
       0.10999764 0.079437114 0.14507338 0.007807705
000320 b5 e3 d6 3d c1 79 6d bd b8 31 94 ba a1 e7 21 3d
       0.104926504 -0.05797744 -0.0011306321 0.03952754
000330 7a 52 6a bc 08 39 90 3c 95 0d 13 be 72 92 f4 3b
       -0.0143018905 0.01760532 -0.1436065 0.0074637467
000340 fc 00 53 3d 5c 18 3a 3d 8a ae e3 bc b9 76 ee 3c
       0.05151461 0.045433387 -0.027793188 0.029109346
000350 be c8 35 be ea db 13 3d 60 35 f3 ba 5c b3 be 39
       -0.17752358 0.0360984 -0.0018555336 0.00036373257
000360 4a db 60 be a0 89 1d be 4f 6d 8b bd b3 7b 48 be
       -0.21958652 -0.15384531 -0.06807958 -0.19578438
000370 d0 36 37 be f5 8d 9b 3c 7f a7 61 bd 02 1e 2b 3d
       -0.17892003 0.018988589 -0.055091377 0.041776665
000380 b4 b3 10 bd 86 62 00 3e 30 f5 0a 3d f5 33 30 bd
       -0.03532763 0.12537584 0.033925235 -0.0430183
000390 3e 72 0a 3b 6c 41 50 3e df d9 2a 3e 5c 37 e9 3b
       0.0021125223 0.20337456 0.16684674 0.007117195
0003a0 51 07 46 bd 7e 9c 6e be 49 d3 a9 3b 75 91 1d 3e
       -0.04834682 -0.23301885 0.005182658 0.15387519
0003b0 3f 59 06 3d b2 59 2b 3e 93 6e d1 3d dd 1e 82 bd
       0.032799955 0.16733435 0.102261685 -0.06353543
0003c0 ec fd ba bd cd 47 0e 3b e6 d1 8d bd 19 6a 32 3d
       -0.09130463 0.0021710277 -0.069248006 0.043558214
0003d0 29 e7 d7 3d 16 43 34 3e 01 c8 56 bd 10 18 ee 3c
       0.10542137 0.17603716 -0.052436832 0.029064208
0003e0 1e e9 60 3e ab bb e4 3d 34 a9 11 bd 60 14 34 3c
       0.21963927 0.11168607 -0.035561755 0.010991186
0003f0 96 a1 4e 3d 97 59 8d bc 2f 73 ad 3a 81 2c e3 3d
       0.05044707 -0.017254634 0.001323318 0.11092473

blinear1.weight_sampler.rho f4 [24, 13]
000000 f4 2d ae c0 ae 01 b6 c0 9d 85 b4 c0 45 a9 b6 c0
       -5.4431095 -5.687705 -5.64131 -5.708163
000010 52 fb b4 c0 c6 76 b4 c0 d8 60 b6 c0 21 28 ad c0
       -5.6556787 -5.6394987 -5.6993217 -5.4111485
000020 43 2c b5 c0 26 8b b2 c0 7f 86 b4 c0 3f a2 b7 c0
       -5.661653 -5.579486 -5.641418 -5.7385554
000030 90 f9 b0 c0 e8 c6 ba c0 e2 2c b7 c0 f0 0c b2 c0
       -5.530464 -5.8367805 -5.724229 -5.5640793
000040 a4 4c b3 c0 a2 ff b0 c0 f8 2a b6 c0 18 71 b2 c0
       -5.6031055 -5.531205 -5.692745 -5.5763054
000050 8e 54 b2 c0 af ba b5 c0 9e ce b1 c0 93 ea af c0
       -5.5728216 -5.6790385 -5.556472 -5.4973845
000060 cc 8c b8 c0 2e 05 b4 c0 d3 e1 b8 c0 f4 81 b9 c0
       -5.767187 -5.6256323 -5.7775664 -5.7971134
000070 96 d1 b7 c0 7e 3d b7 c0 21 05 ba c0 8f 05 b8 c0
       -5.744334 -5.7262564 -5.813126 -5.7506785
000080 77 ea b4 c0 f0 91 b1 c0 ce d6 ba c0 2c a1 b5 c0
       -5.653621 -5.5490646 -5.8387213 -5.6759243
000090 e1 a2 b7 c0 94 ac ba c0 a5 57 bd c0 41 f6 c0 c0
       -5.7386327 -5.8335667 -5.916949 -6.0300603
0000a0 7a 63 ba c0 f3 0a bd c0 39 59 bb c0 9f 9d be c0
       -5.824643 -5.9075866 -5.8546414 -5.956741
0000b0 09 70 bb c0 f1 13 bd c0 f7 9b af c0 4d ec b9 c0
       -5.857426 -5.9086843 -5.4877887 -5.8100953
0000c0 2f 14 bd c0 bb 07 be c0 f5 36 be c0 b4 71 bf c0
       -5.908714 -5.9384437 -5.9442086 -5.98263
0000d0 21 52 b8 c0 85 80 b9 c0 1b 17 bf c0 44 a3 bb c0
       -5.7600255 -5.7969384 -5.9715705 -5.86368
0000e0 94 7d b9 c0 41 9a bc c0 e4 95 b9 c0 e3 08 b2 c0
       -5.7965794 -5.89383 -5.799547 -5.563585
0000f0 ba eb bd c0 2e 13 b3 c0 4e ee b6 c0 85 0c bf c0
       -5.935025 -5.5960913 -5.71659 -5.9702783
000100 1c f2 bf c0 3e 85 ba c0 aa 2b bc c0 ff 6d bb c0
       -5.9983044 -5.828765 -5.88033 -5.8571773
000110 5e fc ba c0 ef 89 b3 c0 75 c0 ba c0 f2 a4 b8 c0
       -5.8433065 -5.6105876 -5.8359933 -5.770135
000120 7a ec b2 c0 a2 e1 b7 c0 c3 2e ba c0 ef c2 bc c0
       -5.591367 -5.746293 -5.818208 -5.8987956
000130 9c b3 bc c0 6c 0e ba c0 3c 1f be c0 e5 f3 ba c0
       -5.896925 -5.8142605 -5.941313 -5.8422723
000140 e3 ff be c0 fa 7e b8 c0 55 31 b9 c0 90 a2 bb c0
       -5.968736 -5.7655 -5.787272 -5.863594
000150 84 ef b9 c0 dc 1f ae c0 dd ba bc c0 4a 91 c1 c0
       -5.8104877 -5.441389 -5.8978105 -6.0489855
000160 71 33 c0 c0 91 b0 bd c0 e8 2f ba c0 21 63 b9 c0
       -6.0062795 -5.9278035 -5.818348 -5.7933507
000170 54 82 b5 c0 28 cb b6 c0 8d e0 b7 c0 cd 72 b8 c0
       -5.672159 -5.7122993 -5.746161 -5.764014
000180 32 e8 b5 c0 a9 f3 b6 c0 2d 7e b0 c0 25 a2 b6 c0
       -5.684594 -5.7172437 -5.5154023 -5.707293
000190 90 78 b5 c0 12 a4 ba c0 aa 50 b7 c0 95 d7 af c0
       -5.670967 -5.832528 -5.7285967 -5.495066
0001a0 47 95 b7 c0 b4 d2 b5 c0 47 08 b6 c0 9d be b4 c0
       -5.7369723 -5.6819706 -5.6885104 -5.648268
0001b0 d4 3e b2 c0 46 fd b0 c0 df 38 b5 c0 ed 98 b0 c0
       -5.5701694 -5.530917 -5.6631923 -5.5186677
0001c0 1c ba b6 c0 01 3a b5 c0 45 7b b5 c0 82 36 b7 c0
       -5.7102184 -5.6633306 -5.6712976 -5.725404
0001d0 e6 3a b1 c0 20 96 b4 c0 85 d1 b5 c0 e1 2a b1 c0
       -5.5384398 -5.643326 -5.681826 -5.5364842
0001e0 8c ca b7 c0 ae a3 b7 c0 e0 9a b6 c0 67 2a b8 c0
       -5.743475 -5.7387304 -5.7064056 -5.755176
0001f0 18 01 b5 c0 0a 40 bc c0 e6 62 b5 c0 49 d6 b7 c0
       -5.6563835 -5.8828173 -5.6683226 -5.744908
000200 eb 8f b6 c0 d1 85 b9 c0 cb 3b bd c0 d0 c7 bb c0
       -5.705068 -5.797585 -5.913549 -5.868141
000210 08 e4 be c0 96 8f b7 c0 a7 97 b6 c0 2e 47 b8 c0
       -5.965336 -5.7362776 -5.7060122 -5.758689
000220 a0 89 b5 c0 15 95 b3 c0 0a 41 bc c0 b2 2d bb c0
       -5.67305 -5.6119485 -5.8829393 -5.849328
000230 e0 2f bc c0 45 33 b7 c0 4a 07 ba c0 0b e4 ba c0
       -5.880844 -5.7250085 -5.81339 -5.8403373
000240 f4 3d b6 c0 dc d5 b7 c0 75 14 b6 c0 57 24 b7 c0
       -5.6950626 -5.744856 -5.689997 -5.723186
000250 4c 6b bc c0 7d 03 b2 c0 ba cb b2 c0 92 c9 b9 c0
       -5.888098 -5.562926 -5.587369 -5.8058558
000260 79 da b8 c0 d8 6d bc c0 0d 26 bd c0 f6 a3 bd c0
       -5.776669 -5.8884087 -5.910895 -5.926265
000270 ad a0 b4 c0 1e 98 b3 c0 4e f4 b6 c0 d9 4b b6 c0
       -5.6446137 -5.612319 -5.7173223 -5.6967587
000280 c9 c7 bc c0 06 22 b9 c0 7e 66 b6 c0 b2 9e b0 c0
       -5.899388 -5.7854033 -5.7000113 -5.519372
000290 7e 88 bc c0 1d a6 b8 c0 26 4f b7 c0 3b cc b8 c0
       -5.8916616 -5.7702775 -5.7284117 -5.7749305
0002a0 cc 6c b8 c0 9e 83 bb c0 26 18 b9 c0 0c 3d b2 c0
       -5.763281 -5.8598166 -5.784198 -5.569952
0002b0 bd 07 b9 c0 62 df bc c0 a4 48 ba c0 0d e4 b9 c0
       -5.7821946 -5.9022684 -5.8213673 -5.809088
0002c0 b4 91 b4 c0 0c 8b bc c0 44 81 b7 c0 d0 60 b9 c0
       -5.642786 -5.8919735 -5.7345295 -5.793068
0002d0 4b 32 b6 c0 1a a9 ba c0 db d5 be c0 a0 60 ba c0
       -5.6936393 -5.8331423 -5.9636054 -5.824295
0002e0 d0 5d bd c0 c1 84 b8 c0 20 0b b5 c0 fb 90 bd c0
       -5.9177017 -5.7662053 -5.657608 -5.923948
0002f0 74 6d bb c0 6d 37 af c0 a2 c7 be c0 ab 00 bc c0
       -5.857111 -5.475516 -5.9618692 -5.8750815
000300 aa 91 bb c0 ee fb bc c0 30 7b bc c0 16 bd b3 c0
       -5.8615313 -5.905753 -5.8900375 -5.616832
000310 57 50 af c0 9b 99 b5 c0 c8 cd b6 c0 a5 86 b4 c0
       -5.478557 -5.6750007 -5.71262 -5.641436
000320 38 fe b9 c0 9a 12 b7 c0 71 d7 b3 c0 24 74 b4 c0
       -5.8122826 -5.7210207 -5.620049 -5.6391773
000330 8a 13 b1 c0 7d 35 b4 c0 f9 5f b4 c0 0b 6c b1 c0
       -5.533635 -5.6315293 -5.6367154 -5.544439
000340 b7 7d b5 c0 91 c7 b8 c0 17 73 ba c0 27 06 bb c0
       -5.671596 -5.774361 -5.826549 -5.844501
000350 c9 60 b8 c0 56 f3 b3 c0 75 ac b2 c0 4a 92 af c0
       -5.7618146 -5.623454 -5.583552 -5.4866076
000360 82 2d bc c0 3b e7 b7 c0 14 62 b4 c0 7d f6 b6 c0
       -5.880555 -5.7469764 -5.6369724 -5.717589
000370 7e 41 b7 c0 65 b8 bb c0 81 9a b9 c0 6b 88 b7 c0
       -5.7267447 -5.866259 -5.8001103 -5.7354026
000380 55 54 b8 c0 e3 e2 b9 c0 40 62 b9 c0 ac 1e b8 c0
       -5.7602944 -5.808946 -5.7932434 -5.753744
000390 6e c8 aa c0 eb b4 b6 c0 c8 61 ba c0 3a 12 ba c0
       -5.3369665 -5.7095847 -5.824436 -5.814725
0003a0 c9 04 b8 c0 98 f4 bd c0 26 cc b9 c0 3b 48 ba c0
       -5.750584 -5.9361076 -5.8061705 -5.821317
0003b0 d2 2d bf c0 dc 25 b8 c0 5f ee b6 c0 f8 ff b6 c0
       -5.9743433 -5.7546215 -5.716598 -5.718746
0003c0 5a d3 ba c0 6f 2d b5 c0 83 01 bd c0 d8 85 bb c0
       -5.8382998 -5.661796 -5.9064345 -5.8600883
0003d0 4c e1 b6 c0 af 42 b6 c0 0e ee b6 c0 97 ac b8 c0
       -5.715002 -5.69564 -5.7165594 -5.771068
0003e0 43 62 bc c0 64 77 b8 c0 59 f9 b4 c0 32 ea bd c0
       -5.886995 -5.764574 -5.655438 -5.9348383
0003f0 a4 d7 be c0 0c 5b ba c0 8c b8 af c0 a5 b7 b9 c0
       -5.9638233 -5.823614 -5.4912777 -5.8036675

blinear1.weight_sampler.eps_w f4 [24, 13]
000000 36 cb 06 c0 93 d1 51 3e 4a 94 70 bf db 4a 84 3e
       -2.106153 0.20490102 -0.9397627 0.2583836
000010 40 94 62 bf 15 93 72 bf 84 46 85 3f ce 8f 29 3f
       -0.8850746 -0.9475568 1.0412145 0.66235054
000020 61 77 21 bf 96 23 98 3f 83 0f e7 3f cb 35 c6 bd
       -0.6307278 1.188586 1.8051609 -0.09678229
000030 76 ad 41 3e 2a 21 c7 be fc 90 38 bf 95 5b ba 3d
       0.18913826 -0.3889249 -0.7209623 0.09099499
000040 9b da 40 be 99 b9 81 3f 26 87 f2 3f 47 c0 0d bf
       -0.18833391 1.0134765 1.8947494 -0.55371517
000050 fa f0 8f bf 2f b8 8f 3f 96 ba e2 3e 28 c9 84 bf
       -1.1245415 1.1228083 0.4428298 -1.0373888
000060 94 45 b8 be 78 81 f9 3e b4 ed 7f be c2 06 c7 bf
       -0.35990584 0.4873159 -0.2499302 -1.5548937
000070 d6 f1 15 3f 00 86 6c bf b3 91 b7 bf e2 ee 02 40
       0.5857214 -0.9239197 -1.4341339 2.0458302
000080 1b cf 68 be 12 81 d2 be c4 cc 8e 3d af 39 06 3f
       -0.22735254 -0.41114098 0.0697265 0.5243177
000090 1b 0d cb 3d 5d db 6a 3e 7b b9 b2 3f 32 5a 0c 40
       0.09914609 0.22935243 1.3962854 2.193005
0000a0 9e 80 2a bf 2f 17 f4 3f 0b 8a 13 bf 92 b7 39 bf
       -0.66602504 1.9069575 -0.5763251 -0.7254573
0000b0 9f 0f c5 bf f0 cd 56 bf a6 d1 bc be e3 10 98 3f
       -1.5395392 -0.83907986 -0.368787 1.1880153
0000c0 5a ad 44 bf a7 09 e9 3e 5b d0 f5 bf 53 bb 9e be
       -0.76827013 0.45515177 -1.920421 -0.31002292
0000d0 17 d2 8d be b9 25 a4 bf 0a a8 60 3f 54 bb b5 3e
       -0.27699348 -1.2824012 0.8775641 0.35494483
0000e0 40 30 7b 3f a8 8a 75 bf 25 83 8a bf a8 bf 1c be
       0.981205 -0.959147 -1.0821272 -0.15307486
0000f0 d9 ef b1 bf 5b 00 11 3f 00 34 a1 3f fd 37 27 bf
       -1.3901321 0.5664117 1.2593994 -0.65319806
000100 d3 e9 19 bf 3e 16 f2 3f 4f 98 23 be 89 ca 4b be
       -0.6012241 1.8913038 -0.1597607 -0.1990148
000110 4a 74 90 3f 7f 0b 4a 3f 50 2d fc 3f 49 8f 01 3f
       1.1285489 0.7892379 1.9701328 0.5060926
000120 5d 30 8b be b0 09 c1 bf e5 ce 3c 3d bd 10 0c 3e
       -0.27185336 -1.5081081 0.046095748 0.1367826
000130 d1 4c e8 3e 7f 9c 6d 3f 25 6d 41 3f be dd 0f bf
       0.45371106 0.9281692 0.75557166 -0.56197727
000140 52 d1 b1 3f d4 0e 6b 3e 67 08 a7 3f 11 4d de 3f
       1.3892004 0.22954875 1.3049439 1.7367269
000150 c2 02 2e bf 94 c8 06 bf 82 53 5d 3f c4 01 bf 3f
       -0.6797296 -0.5264981 0.8645555 1.4922414
000160 3a 77 3f 3f cb 84 20 bf 18 bb 6b bf a8 d1 31 3f
       0.747913 -0.62702626 -0.9208236 0.69460535
000170 36 60 b0 bf b2 87 13 bf 50 76 db be 5d 11 49 3f
       -1.3779361 -0.5762893 -0.42863703 0.7854212
000180 4b 92 a0 bf b5 34 51 be 93 ad 9f 3e 3e e1 49 bf
       -1.2544645 -0.20430262 0.31187114 -0.7885932
000190 5e 78 78 3f fc ca d6 3f 8d 45 5d bf d1 62 2d 3f
       0.97058666 1.6780696 -0.8643425 0.67728907
0001a0 ce d1 a4 3f 75 c5 32 bf d7 b3 90 be 92 34 7a bf
       1.2876527 -0.69832546 -0.28262207 -0.97736466
0001b0 29 60 dc 3e 5f a2 72 3f bc 04 0a 40 8f 99 ce 3f
       0.43042114 0.9477901 2.156539 1.6140612
0001c0 0b a0 20 3f 4c a5 93 3d 0c bb 0c 3f fb 11 91 3f
       0.62744206 0.07209262 0.5497291 1.1333612
0001d0 6a 48 b4 3e f9 35 b3 be 11 52 cf bf 6b cf 17 3c
       0.35211498 -0.35002115 -1.619692 0.009265761
0001e0 b9 f5 4b be 5f 32 b7 bf 53 1a 92 3e 47 04 fa bf
       -0.19917955 -1.4312247 0.2853571 -1.9532555
0001f0 c6 67 9b 3e 28 95 88 3f 65 d9 65 bf 8e 09 24 3f
       0.3035261 1.0670519 -0.8978484 0.6407708
000200 db 31 24 3f 73 c6 0c 3f c4 af c9 bf ce 7b 25 3f
       0.64138573 0.5499031 -1.5756764 0.64642036
000210 64 a4 8c be 39 44 a4 3f d5 a7 5a bf be 69 b0 3e
       -0.2746917 1.283332 -0.8541234 0.34455675
000220 47 4e d1 be 9b 31 49 3f 5e 48 e3 3f 4c 5c 5b 3f
       -0.40880033 0.78591317 1.775646 0.8568771
000230 29 cb c3 bf cb d0 1d bf 6b 07 68 3f 4e a3 ee 3e
       -1.5296375 -0.6164672 0.9063632 0.46608967
000240 af 96 f1 3f e0 5b 9c bf be e5 55 bf 79 22 42 3e
       1.887411 -1.2215538 -0.83553684 0.18958463
000250 11 ab 3b 3f e3 6a 9f 3f 3c 47 c3 3f c8 b8 14 3e
       0.733079 1.2454494 1.5256114 0.14523613
000260 ca 4e c4 bf 8f e4 97 bf 55 88 3e 3f 87 47 97 3f
       -1.5336545 -1.1866626 0.74426776 1.1818703
000270 1f a0 01 3e 69 5f 9c 3e b7 25 81 3f f8 ed 15 3f
       0.12658738 0.30541542 1.0089635 0.58566236
000280 a7 83 b6 3f f0 59 55 3f 6d f1 ee bc 5c e3 37 3d
       1.4258927 0.8334036 -0.029167855 0.04489456
000290 dc 44 a1 3d df b0 e6 3e f7 77 74 3d b6 13 0f 3f
       0.07874462 0.45056817 0.05968472 0.5588945
0002a0 e0 c1 55 3f 88 8f d0 bd 06 6d f0 3d 70 c9 03 3e
       0.83498955 -0.101836264 0.117395446 0.12869811
0002b0 6e 1c f2 bf b5 c2 73 bf bc 2f b5 bd 07 54 88 bf
       -1.8914926 -0.95218974 -0.08846995 -1.0650643
0002c0 51 4b e1 3e dc 1d 95 be 04 84 f4 bd 6b 5c 55 bd
       0.44002774 -0.29124343 -0.119392425 -0.05209009
0002d0 6c 6d e7 be 56 46 0f 40 2b 39 35 3f 28 f9 d8 3f
       -0.4520067 2.238668 0.70790356 1.6951036
0002e0 0a e4 11 bf 6a 13 14 3b c3 c5 20 bf 9d 56 13 bf
       -0.56988585 0.002259458 -0.6280176 -0.57554036
0002f0 08 4b 94 3f 5f 8b c5 3f 8b c6 ed bf 9c 8b 6f 3e
       1.1585398 1.5433158 -1.8576216 0.233931
000300 28 de ab bd 08 46 1e 3f 51 9e 76 3d 03 6d 6f bf
       -0.08391982 0.6182561 0.060209576 -0.93525714
000310 80 86 be bf 38 73 e9 3d 24 44 ec 3d c3 27 6b 3f
       -1.4884796 0.11398929 0.11536434 0.91857547
000320 d8 75 2e 3f 68 fe 7b bf 5f 58 27 c0 b3 07 35 bf
       0.68148565 -0.9843507 -2.6147687 -0.70714873
000330 24 80 8d bf 31 51 11 3e d4 3f 58 bf d8 2b 87 3f
       -1.105473 0.14191128 -0.84472394 1.0560255
000340 a0 75 a2 be 43 a4 6d be 2e 6c 13 3f 33 45 39 be
       -0.31730366 -0.23207192 0.57586944 -0.18092804
000350 f4 a8 91 3e 5d a2 ea 3d 4d dc 69 bf 21 35 21 3f
       0.28449214 0.114567496 -0.9135178 0.62971693
000360 9c fb 97 bf 72 b5 60 3f d6 1e 23 bf 0a ea 06 c0
       -1.187366 0.87776864 -0.63718927 -2.1080346
000370 d4 0b 91 bf 5d ac 57 3f 55 cd a6 bf 22 11 83 be
       -1.1331735 0.8424738 -1.3031412 -0.2559901
000380 20 ab ee 3f ad 24 19 40 ac 7a e7 bd 32 bc 35 3d
       1.8645973 2.3928635 -0.11302695 0.04436893
000390 cc 85 a2 3d 41 83 ce 3f aa cc 56 3e fa 7c 0c 3f
       0.07935676 1.6133806 0.2097651 0.548782
0003a0 e2 7a 73 bf fc 46 9d bf 43 0d 5f 3f 7f 47 28 be
       -0.9510938 -1.2287288 0.8712961 -0.16433524
0003b0 28 08 b4 be 04 96 ea bf 01 f1 06 3f 60 10 d2 be
       -0.35162473 -1.8327031 0.5271149 -0.41028118
0003c0 ee 0b 82 3f 36 4a 96 3f 25 d8 54 bf 13 3a aa bf
       1.0159891 1.1741397 -0.8314231 -1.3298973
0003d0 26 92 64 3f 43 57 35 3e 45 71 1e 3e e3 a4 b7 3f
       0.89285505 0.17709069 0.15472896 1.4347194
0003e0 0a ab b4 3e 76 ac b2 3f 7c 86 6e 3e 2b 77 2a be
       0.35286742 1.3958881 0.23293489 -0.16647021
0003f0 70 8e 9e 3e 7b db 73 3f 83 b9 53 bf 57 0e 02 3f
       0.30968046 0.95256776 -0.82704943 0.5080313

blinear1.bias_sampler.mu f4 [24]
000000 db 6d a6 bc 1d 2e 19 bc e2 3d c8 bc 8f 7f 27 3e
       -0.020316055 -0.009349373 -0.02444357 0.16357253
000010 0b f4 44 3e 33 fe b4 3d 12 ad 3d 3d 89 ab 90 bb
       0.1923372 0.08837547 0.04630763 -0.00441498
000020 4c ea 03 bd 31 c7 7b bd 4a 99 8b 3c 9c 28 3f 3d
       -0.032205865 -0.06146926 0.017040867 0.046669587
000030 f6 07 01 bc 02 34 8d 3d 4c 13 90 3d c5 81 1f bc
       -0.007875433 0.06894685 0.070349306 -0.009735529
000040 fa 84 25 3d 22 bf c3 3d b7 3f f2 bc 91 44 23 3d
       0.04041002 0.0955794 -0.029571397 0.039860312
000050 c5 61 16 3e 05 fc e4 3b 28 77 ec 39 a6 ca 09 3b
       0.14685734 0.006988051 0.00045102206 0.002102533

blinear1.bias_sampler.rho f4 [24]
000000 b3 5c b2 c0 40 bc ad c0 14 a8 b3 c0 a5 d9 af c0
       -5.573816 -5.4292297 -5.6142673 -5.495318
000010 15 da ae c0 62 7a b0 c0 a4 c5 b0 c0 66 8d af c0
       -5.4641213 -5.5149393 -5.524126 -5.4860106
000020 7b 7c b4 c0 b4 a3 ab c0 35 03 b4 c0 7c 5e ae c0
       -5.6401954 -5.3637333 -5.6253915 -5.4490337
000030 6e ed b7 c0 f6 3b af c0 00 aa b0 c0 13 43 b0 c0
       -5.747733 -5.4760695 -5.520752 -5.508188
000040 d3 36 af c0 f7 ca ac c0 86 87 b6 c0 c5 d1 b1 c0
       -5.4754424 -5.399776 -5.7040434 -5.5568566
000050 95 90 b6 c0 b9 7f a9 c0 16 10 b5 c0 a3 82 b9 c0
       -5.705149 -5.296841 -5.6582136 -5.797197

blinear1.bias_sampler.eps_w f4 [24]
000000 89 95 a3 be d0 33 c5 be 91 0d 71 be 8a a1 06 3f
       -0.31950024 -0.38516092 -0.23540331 0.5259024
000010 55 c1 7e bf 80 a9 40 bd 39 f7 2a 3f ef fc 38 bf
       -0.9951375 -0.047036648 0.6678348 -0.72260946
000020 2c e1 a9 bf 36 eb 89 3f c3 5b d1 bf 37 e7 b4 bf
       -1.3271842 1.0774906 -1.6356128 -1.4133061
000030 97 00 99 3e a1 aa 5c 3f f2 de bb be 26 6f 0b bf
       0.29883263 0.8619786 -0.3669353 -0.54466474
000040 33 3d 65 3e 0c e3 99 3f ab ef c2 be 07 06 ef be
       0.22386627 1.2022414 -0.38073477 -0.46684286
000050 c3 44 a9 bf cd 55 6b be ae 82 f9 be 68 32 99 3f
       -1.322411 -0.22981949 -0.48732513 1.1968508

blinear2.weight_mu f4 [24, 24]
000000 54 25 2b bc 77 10 0b bc 81 8d b5 bb 42 8f aa 3d
       -0.010445911 -0.008487812 -0.00554055 0.083281055
000010 22 ab 8e bd 3e 0d 50 bd 86 7f c8 bc 93 36 9b 3c
       -0.06966235 -0.05079388 -0.02447487 0.018946921
000020 45 b6 e0 bc 61 72 ab 3c fb 6a 81 bc ef e6 3a bc
       -0.027430663 0.020928564 -0.015798083 -0.011407598
000030 04 5c 8e 3c 6c 66 47 bd ce 64 bb 3b 8e 51 0a bd
       0.01737786 -0.04868166 0.005718804 -0.033769183
000040 70 95 ea bc 23 f2 b9 bd 02 0f ce 3c c9 c8 a8 bd
       -0.02863571 -0.09079387 0.02515364 -0.08241422
000050 74 0a 67 bd 99 a8 0c bd 85 23 58 3d 47 c7 3a bd
       -0.056406453 -0.034340475 0.05276825 -0.045600202
000060 5a 09 b9 3d c6 b1 54 bd fa 2e 14 3e fc 33 5d bc
       0.09034987 -0.05192735 0.14471045 -0.013501164
000070 0d 5c 87 3d 7a 7d 33 bd b9 aa 34 3d 8b 70 34 3d
       0.06609354 -0.043820836 0.044108126 0.04405264
000080 e0 40 e9 bb ec 5a 58 bd 54 df 06 3d 5b 26 51 bd
       -0.0071183294 -0.052821085 0.032927826 -0.05106197
000090 96 85 90 3d d8 5d 96 3d 5c 95 56 3d 3e 31 b9 bc
       0.070567295 0.07342118 0.052388534 -0.022606488
0000a0 63 85 f8 3c 0b 93 31 3e 6e 1d 9f bc a3 d1 b0 3d
       0.030337041 0.17341249 -0.019423213 0.08633735
0000b0 26 37 31 3e 3d 76 c2 3c 15 62 38 3e 82 d9 e5 3d
       0.17306194 0.023738021 0.18006165 0.11223127
0000c0 fb 91 93 3d 41 58 b1 3d 37 49 c0 bd 1e 97 e1 bd
       0.07205578 0.08659411 -0.093889646 -0.110151514
0000d0 f4 5d 3c bc 90 33 1c 3e c3 e2 ca 3c 33 ef 74 bd
       -0.01149701 0.15254045 0.024766332 -0.05979843
0000e0 32 e9 22 bc e3 fd 78 bc 79 3a c6 bd c1 31 9a 3d
       -0.009943293 -0.01519725 -0.096791215 0.07529021
0000f0 29 6a a9 bc f6 c0 65 bd 59 27 b3 bd 5e e5 c4 3c
       -0.020680504 -0.056092225 -0.08747739 0.024035152
000100 85 18 11 3e a7 2e 8b bd 7f ad 2f 3c e5 92 11 be
       0.1416951 -0.067960076 0.010722517 -0.14216192
000110 9a 6f 77 bd 90 a3 eb bc fa 61 94 bc 5d a2 7b 3d
       -0.060409166 -0.028764516 -0.018113125 0.06143414
000120 6f a8 08 be 06 4b 1a bc c0 bc f2 3d 7c 2d 2b 3e
       -0.13345502 -0.009417301 0.118524075 0.1671657
000130 e5 2c 89 bb 64 78 c3 bd 7f e0 ec 3c 68 5a c6 3d
       -0.00418626 -0.09544447 0.028915642 0.096852124
000140 d1 72 6c 3c 1d f3 db 3d 1c fb 5d 3e 83 0b a1 3d
       0.014431671 0.107397296 0.21677822 0.07863524
000150 73 e0 a8 3d 59 4e 33 3e de a6 89 3e f3 f9 a6 bd
       0.08245935 0.17510356 0.26885122 -0.08153143
000160 08 1b 02 be 77 ae 31 3e d9 2d cb 3d a0 84 2c 3e
       -0.12705624 0.1735171 0.09920854 0.16847467
000170 c6 4d 83 3e a3 b2 67 3c d0 94 1f 3e 50 a6 86 bd
       0.25645274 0.014141711 0.15584111 -0.0657469
000180 1e 72 da bb 98 17 31 3d fa d6 d1 3d 7e db 4d 3d
       -0.006666436 0.04323539 0.10246082 0.050258152
000190 2c 4b 41 3e c7 78 38 3e 62 96 01 3e 35 ad 26 3e
       0.18876332 0.18014823 0.12655023 0.1627701
0001a0 64 67 a9 3d 2e 16 8a 3b 91 a0 14 3e 0d 55 47 3e
       0.08271673 0.00421407 0.14514376 0.19466038
0001b0 5c 89 83 3d 50 77 a6 3c e7 56 c8 3d 0f 0c 56 3b
       0.064226836 0.020320565 0.097822 0.0032660996
0001c0 5b f8 1a be 8c 44 dc 3d 49 7b 0a be e7 2d fa 3d
       -0.15133803 0.10755262 -0.13523592 0.122157864
0001d0 9a 74 30 3d bc f9 0d 3c ca 04 69 3e 93 7d d7 3d
       0.04307995 0.008665498 0.22755733 0.10521998
0001e0 85 81 81 3d 58 dc f7 3d 20 f3 1e 3d b8 69 d8 3d
       0.06323532 0.12102574 0.03880608 0.10567039
0001f0 96 c6 d9 3d b8 06 3d be 73 bb 5f 3e f9 a2 33 3d
       0.106335804 -0.18459594 0.2184885 0.043856595
000200 8a da b7 3d 4d 3c f4 3c 9f 95 37 3e ab 41 d4 3d
       0.0897723 0.02981391 0.1792817 0.10364088
000210 44 67 5c 3e 27 89 94 bb bd 65 5c 3e 5e 2e cf 3d
       0.21523768 -0.0045329514 0.21523185 0.10116266
000220 a5 9a 17 be 21 1d 53 3e 26 b7 21 3e b9 c6 09 3d
       -0.14805086 0.2061658 0.15792522 0.033636782
000230 00 2e 15 3e 23 b8 15 3e c8 1c a1 3d 27 6d 14 3d
       0.14568329 0.14621024 0.07866818 0.03623691
000240 d9 d1 81 3c 93 60 b2 3d b5 2b 9b bd 28 c5 05 bd
       0.015847133 0.08709826 -0.07576696 -0.032658726
000250 37 39 a9 3c 01 19 1c 3e 67 3c 9d bd 31 0f 84 bd
       0.020657165 0.15243913 -0.076775365 -0.0644821
000260 15 0b 14 bd ed a9 85 bc 2a 07 26 be 62 ae 84 3d
       -0.03614338 -0.016316378 -0.1621367 0.064785734
000270 89 4d 8b bd 5d 94 14 3e 47 7c 9b bd f4 b8 9f 3c
       -0.06801898 0.14509721 -0.075920634 0.019497372
000280 1e 02 80 3d 2c ad 80 bd 2a 89 01 3d a0 52 ed bd
       0.06250404 -0.0628303 0.03162495 -0.11588025
000290 45 86 1c bd af 2b 74 bd 74 b0 ba bd a9 12 93 3d
       -0.038213987 -0.059611972 -0.09115687 0.071812935
0002a0 78 30 6b bd 89 2e 3d bc 2f 75 56 3e 57 42 97 3d
       -0.05741927 -0.011546739 0.2094314 0.073857
0002b0 d5 ae 36 3d 16 8a 31 be 6d 83 1b 3c 12 d5 c6 3d
       0.044600327 -0.17337832 0.009491784 0.09708609
0002c0 e5 f3 27 3d b0 35 05 3e 27 a6 51 3e 37 44 8a 3d
       0.04100408 0.13008761 0.20473538 0.06751292
0002d0 4c 07 c7 3d 57 7f a7 3d b9 6c 09 3e 3a 62 e9 bc
       0.09718189 0.08178585 0.1342038 -0.02848922
0002e0 de 88 0d be c4 20 0c bc 3e df 88 3c bb 18 06 3e
       -0.13821742 -0.008552734 0.016708013 0.13095371
0002f0 8e 9d 75 3d e1 45 c0 3d 78 fc 44 3e a5 2d 08 bd
       0.05996471 0.09388328 0.19236934 -0.033246655
000300 48 ce f0 bc 84 91 19 bc ae eb 77 3e 27 e8 a1 3d
       -0.029395238 -0.009373073 0.24210998 0.07905608
000310 6c 7e 7e 3e fe 66 75 bd 8a 34 bc 3e c6 79 22 3d
       0.24852914 -0.059912674 0.36758834 0.039666913
000320 02 dd 5b 3d 94 8e be 3c f2 b4 2a 3e 3a 08 13 3e
       0.053677566 0.023261346 0.16670588 0.14358607
000330 09 53 cf 3d c1 1e 32 3d b3 39 dd 3d 4a 1a 80 3d
       0.101232596 0.04348636 0.10802021 0.06255014
000340 f4 ef 5e be 55 29 1f 3d 3c f6 57 3e 34 3b 13 3d
       -0.21771222 0.038857777 0.21090025 0.035945132
000350 31 37 eb 3d 57 e2 05 3e 97 fc ea 3c d0 85 c1 bc
       0.11485136 0.13074623 0.028684897 -0.023623377
000360 39 bc 0d 3d 5a 0c 96 3c a7 8a e2 3b fc fe a5 3c
       0.03460333 0.018316437 0.0069135013 0.020263188
000370 36 f6 06 3c c7 55 c4 bb 7e 90 87 3c c0 d6 d7 3c
       0.008237412 -0.005991671 0.016548391 0.026347518
000380 02 0b 05 3c d7 f5 01 3d 2b 82 73 3b e3 fd ab 3c
       0.0081203 0.03172859 0.0037156444 0.020995086
000390 7a 28 b4 3c 5d 8c 6e 3c a0 ea 03 3d 2d 1a 00 3d
       0.021991957 0.014559832 0.032206178 0.031274963
0003a0 79 70 9b 3c ff 59 23 3c f2 5b 24 3b 93 00 25 3c
       0.01897453 0.009970187 0.0025079218 0.010070938
0003b0 ee 50 93 3c 7a 94 3c 3c 62 2e d1 3b f7 ea 08 3c
       0.017982926 0.011510009 0.006383703 0.008356801
0003c0 28 9b c0 bc 80 66 f4 bc fa 41 eb 3d c0 3f 22 3e
       -0.023511484 -0.029834032 0.114871934 0.15844631
0003d0 4d 6c f5 bd b5 78 42 be c7 94 2a bc 9f 0a a2 bc
       -0.11983547 -0.18991359 -0.010411448 -0.019780455
0003e0 15 c1 ab 3d a7 33 40 3e 54 48 1d 3e 92 ee 46 3e
       0.08386437 0.18769704 0.15359622 0.19426945
0003f0 6c 7a 46 3e 4d 6c 2c 3e 69 4f 40 3e 62 1f 0e be
       0.19382638 0.16838188 0.18780293 -0.13879159
