summit/benchmarks/experiment_emulator/trained_models/BNN/baumgartner_aniline_cn_crosscoupling_descriptors_yield_2_BNN_model.pt (torch_old, 24661 bytes, 35 tensors)

blinear1.weight_mu f4 [24, 13]
000000 af eb 85 bc a5 c1 37 3d 72 54 a0 bd dc 3d 89 bd
       -0.016347734 0.04486241 -0.07828607 -0.06701252
000010 df 23 15 3e e8 81 81 3d 63 76 45 3c 97 76 95 b9
       0.14564465 0.06323606 0.012052151 -0.0002850785
000020 34 93 97 3d 6c 1b 83 3d 0b 54 3b 3e 96 70 31 bd
       0.07401124 0.06401715 0.18293779 -0.04332026
000030 f3 ab 8c bc 05 b6 75 3d a7 26 b0 3e 95 f6 55 bd
       -0.017171836 0.05998804 0.3440449 -0.052237112
000040 65 9a 0c be 92 7f f5 3b f9 3b 28 be 54 63 b8 3c
       -0.13730772 0.007492014 -0.16429128 0.0225083
000050 cd a1 e6 39 b0 27 38 3e 19 76 43 3e f9 bb 63 bc
       0.0004398957 0.1798389 0.1908802 -0.013899797
000060 ef 87 28 3e d2 48 16 3d d4 ff 8c bd 0b d3 b6 3e
       0.16458105 0.03669054 -0.06884733 0.35707888
000070 7e e0 91 bb 44 8f a8 bb aa 42 5e bc 86 73 e7 bd
       -0.0044518104 -0.0051440317 -0.013565699 -0.11301331
000080 72 b0 be 3b 88 9a 80 ba 82 47 a0 bd cb e8 03 3e
       0.0058193738 -0.0009811679 -0.07826139 0.12881772
000090 b7 22 7a bc c2 4d 6c 3e 73 a9 9a 3d 65 0b ba bd
       -0.015267066 0.23076537 0.07551851 -0.090842046
0000a0 11 0d 69 be ed 58 a1 bd 04 c0 9e 3d 55 85 f9 3d
       -0.2275889 -0.07878289 0.07751468 0.12183634
0000b0 c4 ac ae bd 7b 93 c5 3c fe 25 b9 3a 42 dd a2 3e
       -0.08529046 0.024118176 0.0014125702 0.3180943
0000c0 60 ea 5e bd 82 02 c2 bd 16 0f 5d bd 01 02 88 3d
       -0.054422736 -0.094731346 -0.053969465 0.06641007
0000d0 17 4a c0 3c 22 9c 52 3e 4a 81 6d 3d 00 0c 1f 3d
       0.023472829 0.20567372 0.057984628 0.038829803
0000e0 d3 4c ed bc 5e ed 9e 3c b5 d5 8a bd 8d 96 d0 39
       -0.028967297 0.019400295 -0.06779043 0.0003978502
0000f0 d7 e2 35 3e 08 27 2a 3e 16 11 b9 bb 6b f4 55 3c
       0.17762314 0.16616452 -0.0056477888 0.013058762
000100 e4 e1 3f 3d 3d da 36 3c 7d f7 5a 3d 78 a0 6b 3d
       0.046846285 0.0111604305 0.05345868 0.05752608
000110 74 97 72 3d 66 77 a6 3d 2f 96 34 bc 79 8d 45 bd
       0.05922647 0.08128242 -0.011022135 -0.048230622
000120 5c 90 bb 3a b6 83 9c 3d 0d 1c 46 3d 97 5c 60 3d
       0.001430999 0.07642309 0.048366595 0.0547758
000130 84 7a 5b 3e 77 64 51 be 66 2e 4f bc 93 18 0f be
       0.21433455 -0.2044848 -0.01264534 -0.13974218
000140 88 8d bd b9 18 cf 3a bc 07 21 51 bc 5a f8 c9 3d
       -0.00036154338 -0.011401914 -0.012764222 0.098618224
000150 ea 55 86 3d b1 1a 7f 39 69 e2 2e 3e 03 b0 f8 bb
       0.065593556 0.00024328638 0.17078556 -0.0075893416
000160 b7 f7 72 bd a2 4a d8 bd a3 9b e3 bc b5 49 ad bc
       -0.05931827 -0.1056111 -0.027784174 -0.02115331
000170 0e 7b 48 3e c4 f2 20 3c bb 70 e0 3c a8 10 f3 bd
       0.19578192 0.009823505 0.027397504 -0.11868411
000180 f1 a6 49 3e bf 6a f1 3c 55 4d 03 39 3f 1d 16 3e
       0.1969259 0.029469846 0.00012521942 0.14659594
000190 fc 30 3f 3e ce 75 2e 3e 3c 45 20 bd 2a 68 e5 bd
       0.1867103 0.17037126 -0.039128527 -0.11201508
0001a0 b9 6b ba 3d 2b 41 2c 3e cc c2 af 3d ee 7b 0c 3d
       0.09102578 0.16821735 0.085820764 0.034297876
0001b0 d7 80 17 3e 47 87 fc bc 8b 64 d9 3c 99 d8 b1 ba
       0.14795242 -0.030826224 0.0265372 -0.001356858
0001c0 80 bb 6e bd 5c 3f 1e 3e ec 6f 99 bd ba 66 3c 3e
       -0.058284283 0.15453857 -0.074920505 0.18398562
0001d0 bb a6 1a bd 8a 41 82 3d 76 72 2a 3e e8 2b c9 3d
       -0.037756663 0.06360157 0.16645226 0.098228276
0001e0 aa d9 80 3d 56 16 0b 3e 5e 89 d2 bc 2a 03 79 bc
       0.06291516 0.13582739 -0.025700267 -0.015198508
0001f0 a2 97 76 ba 0c 50 ea 3c 3b 28 36 3e 6a 36 0c bc
       -0.00094067503 0.028602622 0.17788784 -0.008557895
000200 6c 0d e6 3d 74 22 0f be ad 4c e9 3c 21 e4 40 3e
       0.11233029 -0.13977987 0.028478945 0.18837024
000210 c7 f9 f6 bc 81 f1 b7 bd b1 eb 80 3e 8b d9 53 bd
       -0.0301484 -0.0898161 0.25179818 -0.051721137
000220 31 00 31 be 9a 9d 71 b8 2d 77 98 3d ed 02 f2 3d
       -0.1728523 -5.7605655e-05 0.07444606 0.11816964
000230 4b 33 fe 3d 26 a4 ed 3d 19 ea e7 bd 9b 63 b4 3c
       0.12412127 0.116035745 -0.113239475 0.022020152
000240 74 c2 0c be 97 75 9a 3d dc 82 27 3d f4 64 8b 3d
       -0.13746053 0.0754196 0.04089628 0.06806365
000250 e1 03 3a bd 04 72 f8 bc eb 64 9d ba 67 9b 7f 3e
       -0.045413855 -0.030327804 -0.0012008225 0.24961625
000260 55 48 d5 3d 79 9f ed bd cd 12 98 3a 99 1b 7e bd
       0.10414187 -0.116026826 0.0011602283 -0.062038038
000270 2e b2 07 3e 85 3d 52 be 62 97 dd bd e0 93 cd bc
       0.13251564 -0.2053128 -0.108198896 -0.025094926
000280 ce f9 2c 3d 91 ce 00 3e 69 52 2c be 04 35 81 3a
       0.04223042 0.12578799 -0.16828312 0.0009857719
000290 13 5d e4 bd ff 07 ec 3d 91 ee b9 3d b5 16 b8 3d
       -0.11150565 0.11524963 0.09078706 0.08988706
0002a0 34 bb 3f 3e dc 96 4a 3d 37 6f b7 bd b0 77 df 3b
       0.18723756 0.049460277 -0.089567594 0.006819688
0002b0 9c f0 f4 3c d2 fc 08 be 41 6a b5 bd fc ea e3 3d
       0.029899888 -0.13377693 -0.08858157 0.11128804
0002c0 68 37 8a b9 46 57 69 3e 2e 03 0f be a4 69 dc bd
       -0.00026362692 0.22787198 -0.13966057 -0.10762337
0002d0 26 e6 13 be 71 53 17 3e 3c c6 64 bd 94 d0 0d 3e
       -0.14443263 0.14777924 -0.055853114 0.13849097
0002e0 20 26 61 bc 81 0e 10 3d 2b 3f ad bd ed 4a da bd
       -0.013742 0.035170082 -0.08459314 -0.10658822
0002f0 f7 0f 14 bd 41 97 e8 b9 c0 e4 27 3e 67 fd 62 3d
       -0.036148038 -0.0004436318 0.16395855 0.055417445
000300 dd 7e df 3d 80 e3 96 bd 8c 74 b9 3d ef 47 8d 3d
       0.10912869 -0.07367611 0.09055433 0.06898486
000310 42 e2 09 be 8e 33 6c bd 13 ce 29 bd fc 82 60 3c
       -0.13465217 -0.057666354 -0.041456293 0.013703104
000320 db 14 a1 3c f7 c1 cc 3c a4 01 85 39 58 bd 47 be
       0.019663265 0.024994833 0.0002536896 -0.19505823
000330 5f e4 03 bd eb 1c 22 3d 5f d8 16 be 56 99 a5 3d
       -0.032200214 0.03957836 -0.14730977 0.08085887
000340 b3 52 25 3e b8 63 3f bc f7 12 fd 3c 66 bb ce bc
       0.16144828 -0.01168149 0.030892832 -0.025235843
000350 7b eb ec 3d 3a c3 28 3d 41 f0 13 3d e3 c0 25 bb
       0.11568352 0.041201808 0.036117796 -0.0025291971
000360 c3 87 aa 3d cb 20 92 3d 7e 25 d2 bc ba 6f 15 3d
       0.08326676 0.07135161 -0.025652643 0.036483504
000370 93 d4 ac bd c6 87 13 3d 4d 45 fc bd 81 38 d3 bc
       -0.08438983 0.036018156 -0.123179056 -0.02578378
000380 a4 e5 99 bd 8e b4 0b 3c 38 7a e6 3d da e1 11 3d
       -0.075145036 0.008526934 0.1125378 0.03561578
000390 bb 89 b0 b8 43 df 8b 3e 2d 23 a4 3c 1a 7d 18 3d
       -8.417988e-05 0.27318773 0.020036304 0.03722868
0003a0 0e 73 01 3c a3 8a 2f be fd a4 9e 3d 5b 8f 1f 3e
       0.007900966 -0.1714273 0.07746313 0.1558203
0003b0 f8 56 08 3e c7 4e 59 bd 6b 1d 71 bc 48 ed 08 3e
       0.13314426 -0.053053644 -0.014716486 0.13371766
0003c0 e9 b8 86 3d 10 ee 79 39 0e 43 98 3d 8f 84 ab 3d
       0.065782376 0.00023835176 0.07434665 0.08374893
0003d0 0d fe 08 3e 1c a5 32 3d e7 03 31 bd c3 05 12 be
       0.13378163 0.04361449 -0.043216612 -0.1426001
0003e0 88 3b 45 3d 59 8f 8d 3d e4 86 2c 3d 6a 47 92 3b
       0.048152477 0.06912107 0.04212083 0.0044640796
0003f0 5e 03 93 3d a4 35 95 bd 1d 12 c4 3a 50 9e f9 3d
       0.071783766 -0.07285622 0.0014959011 0.12188399

blinear1.weight_rho f4 [24, 13]
000000 3c ac b5 c0 2e 9d b1 c0 54 fb af c0 2c 79 b3 c0
       -5.6772747 -5.550437 -5.4994297 -5.6085415
000010 f9 a0 b4 c0 5e 98 b7 c0 ac 0e b7 c0 b4 7a a3 c0
       -5.64465 -5.7373495 -5.720541 -5.1087284
000020 82 04 b3 c0 ac 6c ad c0 f3 76 b1 c0 00 54 b0 c0
       -5.5943003 -5.4195156 -5.54577 -5.510254
000030 7b 3c b0 c0 64 70 b9 c0 72 ad b4 c0 a3 c0 b8 c0
       -5.507383 -5.7949696 -5.6461725 -5.773515
000040 1f 09 b9 c0 13 d9 bb c0 3f 57 b9 c0 99 23 bb c0
       -5.7823634 -5.8702483 -5.7919 -5.8480954
000050 bb 27 ac c0 db f3 b7 c0 10 43 bd c0 b7 47 b9 c0
       -5.37985 -5.7485175 -5.9144363 -5.7900043
000060 e9 77 bc c0 62 a7 b8 c0 10 d6 b6 c0 9a 0f b9 c0
       -5.8896375 -5.7704325 -5.7136307 -5.7831545
000070 bf bc b6 c0 90 d1 ba c0 ae b7 b7 c0 07 c3 b8 c0
       -5.7105403 -5.8380814 -5.741172 -5.773807
000080 b2 8b b6 c0 9a 58 a2 c0 8e 16 b6 c0 61 9d bb c0
       -5.7045527 -5.0733156 -5.6902533 -5.8629613
000090 eb 40 b8 c0 90 2a b7 c0 e1 e6 bb c0 da 28 b6 c0
       -5.7579246 -5.7239456 -5.8719335 -5.692487
0000a0 2d bb b8 c0 2f 87 b4 c0 06 d3 b9 c0 d0 ab b4 c0
       -5.7728486 -5.641502 -5.8070097 -5.645973
0000b0 fb 35 b9 c0 5a 30 b1 c0 6b 8d a4 c0 cf b8 b3 c0
       -5.7878394 -5.5371523 -5.142263 -5.6163096
0000c0 2d 20 b3 c0 ee e9 b6 c0 da a1 b7 c0 24 0b b2 c0
       -5.5976777 -5.716056 -5.7385073 -5.56386
0000d0 79 ec b5 c0 82 2d b8 c0 dc 10 b9 c0 b1 e3 ba c0
       -5.6851163 -5.755555 -5.783308 -5.8402944
0000e0 e7 39 b6 c0 b2 d7 bc c0 cb c1 b6 c0 7d 39 a6 c0
       -5.694568 -5.90133 -5.7111564 -5.1945176
0000f0 e7 ae bb c0 23 ef ba c0 77 07 bb c0 c6 90 b7 c0
       -5.8651004 -5.8416915 -5.844661 -5.7364225
000100 cc fe b6 c0 16 1b b9 c0 ad d3 b5 c0 24 4b b5 c0
       -5.718603 -5.7845564 -5.6820893 -5.6654224
000110 68 bf b6 c0 da c4 b3 c0 3a 1b b6 c0 4b 06 b9 c0
       -5.710865 -5.6177797 -5.6908236 -5.782018
000120 a5 08 aa c0 32 19 b4 c0 a0 cd b7 c0 d8 96 b6 c0
       -5.3135552 -5.6280756 -5.7438507 -5.7059135
000130 5d 23 b8 c0 6e 3d b8 c0 b6 9d af c0 1d 7e b1 c0
       -5.754317 -5.7574987 -5.488002 -5.5466447
000140 17 fb ad c0 3e 7f b1 c0 bf e3 af c0 56 5c b2 c0
       -5.4369006 -5.5467825 -5.496551 -5.5737715
000150 0d 04 b3 c0 aa db a7 c0 e8 49 af c0 d5 f1 af c0
       -5.5942445 -5.2455645 -5.4777718 -5.4982705
000160 1c 33 af c0 ec 8e af c0 ec 7c af c0 2e ba b9 c0
       -5.474989 -5.4861965 -5.4839993 -5.803977
000170 b5 df bd c0 07 a7 b8 c0 74 ed b9 c0 12 8a bb c0
       -5.933558 -5.770389 -5.810236 -5.8606043
000180 ef f2 bb c0 ce dc b7 c0 a4 e1 a5 c0 b3 43 bb c0
       -5.873405 -5.7457037 -5.183794 -5.852014
000190 73 15 c0 c0 57 6a c0 c0 a8 bb b9 c0 24 4a c0 c0
       -6.0026183 -6.012981 -5.8041573 -6.0090504
0001a0 f8 11 b3 c0 5f e9 b1 c0 fa cc b2 c0 ed 58 b4 c0
       -5.5959435 -5.5597377 -5.5875216 -5.635855
0001b0 a7 20 b3 c0 75 1a b2 c0 58 9c b1 c0 2c 76 a2 c0
       -5.597736 -5.5657296 -5.550335 -5.0769253
0001c0 0d bc af c0 96 c9 ac c0 6e a5 af c0 2b 6b b0 c0
       -5.4917054 -5.3996077 -5.488944 -5.513082
0001d0 af 9f b4 c0 24 fb b2 c0 24 c7 b0 c0 c8 21 b5 c0
       -5.6444926 -5.593157 -5.524309 -5.6603737
0001e0 5a 7e b4 c0 45 8f b7 c0 d8 1c b5 c0 b0 e2 b3 c0
       -5.640424 -5.736239 -5.659771 -5.621422
0001f0 97 77 a1 c0 5c 44 b3 c0 35 eb ae c0 63 dd b0 c0
       -5.0458484 -5.6020947 -5.466212 -5.5270247
000200 39 8c b3 c0 82 e5 b3 c0 5c e6 b9 c0 37 2e b5 c0
       -5.610867 -5.621766 -5.80937 -5.6618915
000210 c9 a7 b4 c0 63 51 b4 c0 57 81 b7 c0 f9 58 b4 c0
       -5.6454816 -5.634935 -5.7345386 -5.635861
000220 f1 d8 b4 c0 63 e6 a9 c0 de d5 b6 c0 dd ec bb c0
       -5.651482 -5.3093734 -5.713607 -5.872664
000230 d2 91 b7 c0 e3 3c b8 c0 af 29 b6 c0 2d 8c b2 c0
       -5.7365503 -5.7574325 -5.6925883 -5.5796113
000240 72 5e b5 c0 df bd b0 c0 a6 ac af c0 02 29 b5 c0
       -5.667779 -5.5231776 -5.4898252 -5.661256
000250 dd 81 b2 c0 59 65 b0 c0 70 a0 a8 c0 72 a3 b4 c0
       -5.5783525 -5.5123715 -5.2695847 -5.644952
000260 75 58 b3 c0 5d 64 b5 c0 49 22 b5 c0 1d c4 b2 c0
       -5.604548 -5.6685014 -5.660435 -5.5864396
000270 66 d6 b3 c0 ff 1b bc c0 b1 3e b6 c0 58 2e b6 c0
       -5.6199217 -5.8784175 -5.6951528 -5.693157
000280 82 6e ba c0 50 5d b6 c0 e8 4b b4 c0 50 ed aa c0
       -5.8259897 -5.6988907 -5.634266 -5.341469
000290 92 59 b7 c0 41 c5 b7 c0 22 46 b6 c0 9c 15 b4 c0
       -5.729684 -5.742829 -5.696061 -5.627638
0002a0 f7 51 b7 c0 c6 f9 b1 c0 fd 52 b0 c0 b2 d8 b0 c0
       -5.7287555 -5.56174 -5.5101304 -5.526452
0002b0 e0 61 b0 c0 49 c5 b6 c0 82 91 b5 c0 fa f6 b4 c0
       -5.5119476 -5.7115827 -5.674012 -5.6551485
0002c0 b6 0d a2 c0 da f8 b3 c0 42 6b b7 c0 97 ac b1 c0
       -5.0641737 -5.6241274 -5.731843 -5.552318
0002d0 a9 c5 b3 c0 b3 32 b2 c0 09 b0 b7 c0 19 b1 ba c0
       -5.6178784 -5.568689 -5.7402387 -5.8341184
0002e0 e5 d7 be c0 61 f3 b8 c0 2e 16 b6 c0 cc 1c b7 c0
       -5.9638543 -5.7797093 -5.6902075 -5.7222652
0002f0 d7 9a b7 c0 9e 13 a8 c0 ff cc bd c0 a0 d7 b3 c0
       -5.7376513 -5.2523947 -5.931274 -5.6200714
000300 9d 7c b5 c0 51 b7 b7 c0 28 03 bb c0 33 b8 b5 c0
       -5.6714616 -5.7411275 -5.8441353 -5.6787353
000310 b5 8c ae c0 5e 73 b2 c0 89 a4 b2 c0 6a 97 b1 c0
       -5.454676 -5.576583 -5.582585 -5.549733
000320 a9 97 b0 c0 14 1f b4 c0 22 81 a7 c0 0c 18 b1 c0
       -5.518513 -5.6287937 -5.2345133 -5.5341854
000330 6a ab b4 c0 0c a2 af c0 60 09 b3 c0 ae 28 b4 c0
       -5.6459246 -5.488531 -5.5948944 -5.629966
000340 b1 29 b6 c0 cf 30 b4 c0 b6 27 b7 c0 46 24 b1 c0
       -5.6925893 -5.630958 -5.7235975 -5.535678
000350 f1 44 b9 c0 0f b9 b9 c0 e7 b0 b4 c0 27 2e a0 c0
       -5.7896657 -5.80384 -5.6465945 -5.005634
000360 89 09 b5 c0 1d cb b2 c0 a0 94 bb c0 8f b9 b8 c0
       -5.657414 -5.587294 -5.8618927 -5.772651
000370 09 f9 b6 c0 3e 4c bb c0 9e a4 bc c0 0a dc ba c0
       -5.7179 -5.853057 -5.895095 -5.83936
000380 dc 2c b9 c0 ed 8c b7 c0 67 5a ba c0 5f f3 bb c0
       -5.786726 -5.735953 -5.8235354 -5.8734584
000390 51 d6 a6 c0 cb 9b bc c0 50 1a b8 c0 f9 85 b5 c0
       -5.2136617 -5.8940177 -5.753212 -5.672604
0003a0 a5 ee b3 c0 f5 2f bd c0 ee 84 ba c0 61 06 b8 c0
       -5.6228814 -5.912104 -5.828727 -5.7507787
0003b0 81 fc b6 c0 f7 e1 bd c0 b2 9a bd c0 8f 45 b6 c0
       -5.718323 -5.9338336 -5.9251337 -5.695991
0003c0 a8 c0 b6 c0 ad 13 a8 c0 19 cc b9 c0 52 ef ba c0
       -5.7110176 -5.252402 -5.8061643 -5.841714
0003d0 f9 7a b5 c0 02 0f ba c0 73 9d b6 c0 44 cd b9 c0
       -5.6712613 -5.814332 -5.70672 -5.806307
0003e0 5e f1 b5 c0 eb c6 b7 c0 66 7c bd c0 55 37 bc c0
       -5.685714 -5.743032 -5.9214354 -5.8817544
0003f0 9c 3d be c0 c1 19 bf c0 b2 0e a8 c0 1f de b6 c0
       -5.9450207 -5.971894 -5.251794 -5.7146144

blinear1.bias_mu f4 [24]
000000 97 4e 3f 3d f6 7b 8c 3d 6e 25 26 bc 30 9d 97 bc
       0.04670581 0.06859581 -0.01014076 -0.01850757
000010 73 44 87 3d 43 3b b5 3c 83 3f 30 bc 28 97 84 3d
       0.066048525 0.022122985 -0.01075733 0.06474143
000020 5e 01 81 3c a0 bc 1a bb b9 be 9e bc a9 28 a5 3c
       0.015747722 -0.0023610964 -0.019378053 0.02016099
000030 c8 6e f8 bb 96 c8 cd bc 8c 0b 15 3d 35 6a 95 3d
       -0.0075815655 -0.02512006 0.036387965 0.07295648
000040 fa 93 2c 3d c3 a3 ae 3d 04 b8 a2 3d 52 e7 99 3d
       0.04213331 0.08527329 0.079452544 0.07514824
000050 b5 88 93 3b be e6 a6 bb 7c 99 c7 3c 8e 5b 26 3c
       0.0045023807 -0.0050934246 0.02436518 0.010153664

blinear1.bias_rho f4 [24]
000000 2e 10 a5 c0 22 ef a6 c0 96 22 a7 c0 e9 bb a4 c0
       -5.158225 -5.216691 -5.222972 -5.1479383
000010 46 1b aa c0 94 f4 a0 c0 86 29 a8 c0 cc f0 a5 c0
       -5.3158293 -5.0298557 -5.255069 -5.185644
000020 fc c1 aa c0 a8 26 a5 c0 69 fa a8 c0 c3 09 ac c0
       -5.3361797 -5.160969 -5.2805676 -5.3761916
000030 d4 f4 a4 c0 72 81 a8 c0 5e 34 ac c0 1b 2f a3 c0
       -5.1548862 -5.2658014 -5.3813925 -5.0995
000040 20 54 a7 c0 01 99 a8 c0 d6 8b a3 c0 6b ad aa c0
       -5.229019 -5.268677 -5.11082 -5.333669
000050 71 77 a6 c0 5f 4f a3 c0 ca 97 ac c0 4f 8b a5 c0
       -5.2020802 -5.103439 -5.393529 -5.1732554

blinear1.weight_sampler.mu f4 [24, 13]
000000 af eb 85 bc a5 c1 37 3d 72 54 a0 bd dc 3d 89 bd
       -0.016347734 0.04486241 -0.07828607 -0.06701252
000010 df 23 15 3e e8 81 81 3d 63 76 45 3c 97 76 95 b9
       0.14564465 0.06323606 0.012052151 -0.0002850785
000020 34 93 97 3d 6c 1b 83 3d 0b 54 3b 3e 96 70 31 bd
       0.07401124 0.06401715 0.18293779 -0.04332026
000030 f3 ab 8c bc 05 b6 75 3d a7 26 b0 3e 95 f6 55 bd
       -0.017171836 0.05998804 0.3440449 -0.052237112
000040 65 9a 0c be 92 7f f5 3b f9 3b 28 be 54 63 b8 3c
       -0.13730772 0.007492014 -0.16429128 0.0225083
000050 cd a1 e6 39 b0 27 38 3e 19 76 43 3e f9 bb 63 bc
       0.0004398957 0.1798389 0.1908802 -0.013899797
000060 ef 87 28 3e d2 48 16 3d d4 ff 8c bd 0b d3 b6 3e
       0.16458105 0.03669054 -0.06884733 0.35707888
000070 7e e0 91 bb 44 8f a8 bb aa 42 5e bc 86 73 e7 bd
       -0.0044518104 -0.0051440317 -0.013565699 -0.11301331
000080 72 b0 be 3b 88 9a 80 ba 82 47 a0 bd cb e8 03 3e
       0.0058193738 -0.0009811679 -0.07826139 0.12881772
000090 b7 22 7a bc c2 4d 6c 3e 73 a9 9a 3d 65 0b ba bd
       -0.015267066 0.23076537 0.07551851 -0.090842046
0000a0 11 0d 69 be ed 58 a1 bd 04 c0 9e 3d 55 85 f9 3d
       -0.2275889 -0.07878289 0.07751468 0.12183634
0000b0 c4 ac ae bd 7b 93 c5 3c fe 25 b9 3a 42 dd a2 3e
       -0.08529046 0.024118176 0.0014125702 0.3180943
0000c0 60 ea 5e bd 82 02 c2 bd 16 0f 5d bd 01 02 88 3d
       -0.054422736 -0.094731346 -0.053969465 0.06641007
0000d0 17 4a c0 3c 22 9c 52 3e 4a 81 6d 3d 00 0c 1f 3d
       0.023472829 0.20567372 0.057984628 0.038829803
0000e0 d3 4c ed bc 5e ed 9e 3c b5 d5 8a bd 8d 96 d0 39
       -0.028967297 0.019400295 -0.06779043 0.0003978502
0000f0 d7 e2 35 3e 08 27 2a 3e 16 11 b9 bb 6b f4 55 3c
       0.17762314 0.16616452 -0.0056477888 0.013058762
000100 e4 e1 3f 3d 3d da 36 3c 7d f7 5a 3d 78 a0 6b 3d
       0.046846285 0.0111604305 0.05345868 0.05752608
000110 74 97 72 3d 66 77 a6 3d 2f 96 34 bc 79 8d 45 bd
       0.05922647 0.08128242 -0.011022135 -0.048230622
000120 5c 90 bb 3a b6 83 9c 3d 0d 1c 46 3d 97 5c 60 3d
       0.001430999 0.07642309 0.048366595 0.0547758
000130 84 7a 5b 3e 77 64 51 be 66 2e 4f bc 93 18 0f be
       0.21433455 -0.2044848 -0.01264534 -0.13974218
000140 88 8d bd b9 18 cf 3a bc 07 21 51 bc 5a f8 c9 3d
       -0.00036154338 -0.011401914 -0.012764222 0.098618224
000150 ea 55 86 3d b1 1a 7f 39 69 e2 2e 3e 03 b0 f8 bb
       0.065593556 0.00024328638 0.17078556 -0.0075893416
000160 b7 f7 72 bd a2 4a d8 bd a3 9b e3 bc b5 49 ad bc
       -0.05931827 -0.1056111 -0.027784174 -0.02115331
000170 0e 7b 48 3e c4 f2 20 3c bb 70 e0 3c a8 10 f3 bd
       0.19578192 0.009823505 0.027397504 -0.11868411
000180 f1 a6 49 3e bf 6a f1 3c 55 4d 03 39 3f 1d 16 3e
       0.1969259 0.029469846 0.00012521942 0.14659594
000190 fc 30 3f 3e ce 75 2e 3e 3c 45 20 bd 2a 68 e5 bd
       0.1867103 0.17037126 -0.039128527 -0.11201508
0001a0 b9 6b ba 3d 2b 41 2c 3e cc c2 af 3d ee 7b 0c 3d
       0.09102578 0.16821735 0.085820764 0.034297876
0001b0 d7 80 17 3e 47 87 fc bc 8b 64 d9 3c 99 d8 b1 ba
       0.14795242 -0.030826224 0.0265372 -0.001356858
0001c0 80 bb 6e bd 5c 3f 1e 3e ec 6f 99 bd ba 66 3c 3e
       -0.058284283 0.15453857 -0.074920505 0.18398562
0001d0 bb a6 1a bd 8a 41 82 3d 76 72 2a 3e e8 2b c9 3d
       -0.037756663 0.06360157 0.16645226 0.098228276
0001e0 aa d9 80 3d 56 16 0b 3e 5e 89 d2 bc 2a 03 79 bc
       0.06291516 0.13582739 -0.025700267 -0.015198508
0001f0 a2 97 76 ba 0c 50 ea 3c 3b 28 36 3e 6a 36 0c bc
       -0.00094067503 0.028602622 0.17788784 -0.008557895
000200 6c 0d e6 3d 74 22 0f be ad 4c e9 3c 21 e4 40 3e
       0.11233029 -0.13977987 0.028478945 0.18837024
000210 c7 f9 f6 bc 81 f1 b7 bd b1 eb 80 3e 8b d9 53 bd
       -0.0301484 -0.0898161 0.25179818 -0.051721137
000220 31 00 31 be 9a 9d 71 b8 2d 77 98 3d ed 02 f2 3d
       -0.1728523 -5.7605655e-05 0.07444606 0.11816964
000230 4b 33 fe 3d 26 a4 ed 3d 19 ea e7 bd 9b 63 b4 3c
       0.12412127 0.116035745 -0.113239475 0.022020152
000240 74 c2 0c be 97 75 9a 3d dc 82 27 3d f4 64 8b 3d
       -0.13746053 0.0754196 0.04089628 0.06806365
000250 e1 03 3a bd 04 72 f8 bc eb 64 9d ba 67 9b 7f 3e
       -0.045413855 -0.030327804 -0.0012008225 0.24961625
000260 55 48 d5 3d 79 9f ed bd cd 12 98 3a 99 1b 7e bd
       0.10414187 -0.116026826 0.0011602283 -0.062038038
000270 2e b2 07 3e 85 3d 52 be 62 97 dd bd e0 93 cd bc
       0.13251564 -0.2053128 -0.108198896 -0.025094926
000280 ce f9 2c 3d 91 ce 00 3e 69 52 2c be 04 35 81 3a
       0.04223042 0.12578799 -0.16828312 0.0009857719
000290 13 5d e4 bd ff 07 ec 3d 91 ee b9 3d b5 16 b8 3d
       -0.11150565 0.11524963 0.09078706 0.08988706
0002a0 34 bb 3f 3e dc 96 4a 3d 37 6f b7 bd b0 77 df 3b
       0.18723756 0.049460277 -0.089567594 0.006819688
0002b0 9c f0 f4 3c d2 fc 08 be 41 6a b5 bd fc ea e3 3d
       0.029899888 -0.13377693 -0.08858157 0.11128804
0002c0 68 37 8a b9 46 57 69 3e 2e 03 0f be a4 69 dc bd
       -0.00026362692 0.22787198 -0.13966057 -0.10762337
0002d0 26 e6 13 be 71 53 17 3e 3c c6 64 bd 94 d0 0d 3e
       -0.14443263 0.14777924 -0.055853114 0.13849097
0002e0 20 26 61 bc 81 0e 10 3d 2b 3f ad bd ed 4a da bd
       -0.013742 0.035170082 -0.08459314 -0.10658822
0002f0 f7 0f 14 bd 41 97 e8 b9 c0 e4 27 3e 67 fd 62 3d
       -0.036148038 -0.0004436318 0.16395855 0.055417445
000300 dd 7e df 3d 80 e3 96 bd 8c 74 b9 3d ef 47 8d 3d
       0.10912869 -0.07367611 0.09055433 0.06898486
000310 42 e2 09 be 8e 33 6c bd 13 ce 29 bd fc 82 60 3c
       -0.13465217 -0.057666354 -0.041456293 0.013703104
000320 db 14 a1 3c f7 c1 cc 3c a4 01 85 39 58 bd 47 be
       0.019663265 0.024994833 0.0002536896 -0.19505823
000330 5f e4 03 bd eb 1c 22 3d 5f d8 16 be 56 99 a5 3d
       -0.032200214 0.03957836 -0.14730977 0.08085887
000340 b3 52 25 3e b8 63 3f bc f7 12 fd 3c 66 bb ce bc
       0.16144828 -0.01168149 0.030892832 -0.025235843
000350 7b eb ec 3d 3a c3 28 3d 41 f0 13 3d e3 c0 25 bb
       0.11568352 0.041201808 0.036117796 -0.0025291971
000360 c3 87 aa 3d cb 20 92 3d 7e 25 d2 bc ba 6f 15 3d
       0.08326676 0.07135161 -0.025652643 0.036483504
000370 93 d4 ac bd c6 87 13 3d 4d 45 fc bd 81 38 d3 bc
       -0.08438983 0.036018156 -0.123179056 -0.02578378
000380 a4 e5 99 bd 8e b4 0b 3c 38 7a e6 3d da e1 11 3d
       -0.075145036 0.008526934 0.1125378 0.03561578
000390 bb 89 b0 b8 43 df 8b 3e 2d 23 a4 3c 1a 7d 18 3d
       -8.417988e-05 0.27318773 0.020036304 0.03722868
0003a0 0e 73 01 3c a3 8a 2f be fd a4 9e 3d 5b 8f 1f 3e
       0.007900966 -0.1714273 0.07746313 0.1558203
0003b0 f8 56 08 3e c7 4e 59 bd 6b 1d 71 bc 48 ed 08 3e
       0.13314426 -0.053053644 -0.014716486 0.13371766
0003c0 e9 b8 86 3d 10 ee 79 39 0e 43 98 3d 8f 84 ab 3d
       0.065782376 0.00023835176 0.07434665 0.08374893
0003d0 0d fe 08 3e 1c a5 32 3d e7 03 31 bd c3 05 12 be
       0.13378163 0.04361449 -0.043216612 -0.1426001
0003e0 88 3b 45 3d 59 8f 8d 3d e4 86 2c 3d 6a 47 92 3b
       0.048152477 0.06912107 0.04212083 0.0044640796
0003f0 5e 03 93 3d a4 35 95 bd 1d 12 c4 3a 50 9e f9 3d
       0.071783766 -0.07285622 0.0014959011 0.12188399

blinear1.weight_sampler.rho f4 [24, 13]
000000 3c ac b5 c0 2e 9d b1 c0 54 fb af c0 2c 79 b3 c0
       -5.6772747 -5.550437 -5.4994297 -5.6085415
000010 f9 a0 b4 c0 5e 98 b7 c0 ac 0e b7 c0 b4 7a a3 c0
       -5.64465 -5.7373495 -5.720541 -5.1087284
000020 82 04 b3 c0 ac 6c ad c0 f3 76 b1 c0 00 54 b0 c0
       -5.5943003 -5.4195156 -5.54577 -5.510254
000030 7b 3c b0 c0 64 70 b9 c0 72 ad b4 c0 a3 c0 b8 c0
       -5.507383 -5.7949696 -5.6461725 -5.773515
000040 1f 09 b9 c0 13 d9 bb c0 3f 57 b9 c0 99 23 bb c0
       -5.7823634 -5.8702483 -5.7919 -5.8480954
000050 bb 27 ac c0 db f3 b7 c0 10 43 bd c0 b7 47 b9 c0
       -5.37985 -5.7485175 -5.9144363 -5.7900043
000060 e9 77 bc c0 62 a7 b8 c0 10 d6 b6 c0 9a 0f b9 c0
       -5.8896375 -5.7704325 -5.7136307 -5.7831545
000070 bf bc b6 c0 90 d1 ba c0 ae b7 b7 c0 07 c3 b8 c0
       -5.7105403 -5.8380814 -5.741172 -5.773807
000080 b2 8b b6 c0 9a 58 a2 c0 8e 16 b6 c0 61 9d bb c0
       -5.7045527 -5.0733156 -5.6902533 -5.8629613
000090 eb 40 b8 c0 90 2a b7 c0 e1 e6 bb c0 da 28 b6 c0
       -5.7579246 -5.7239456 -5.8719335 -5.692487
0000a0 2d bb b8 c0 2f 87 b4 c0 06 d3 b9 c0 d0 ab b4 c0
       -5.7728486 -5.641502 -5.8070097 -5.645973
0000b0 fb 35 b9 c0 5a 30 b1 c0 6b 8d a4 c0 cf b8 b3 c0
       -5.7878394 -5.5371523 -5.142263 -5.6163096
0000c0 2d 20 b3 c0 ee e9 b6 c0 da a1 b7 c0 24 0b b2 c0
       -5.5976777 -5.716056 -5.7385073 -5.56386
0000d0 79 ec b5 c0 82 2d b8 c0 dc 10 b9 c0 b1 e3 ba c0
       -5.6851163 -5.755555 -5.783308 -5.8402944
0000e0 e7 39 b6 c0 b2 d7 bc c0 cb c1 b6 c0 7d 39 a6 c0
       -5.694568 -5.90133 -5.7111564 -5.1945176
0000f0 e7 ae bb c0 23 ef ba c0 77 07 bb c0 c6 90 b7 c0
       -5.8651004 -5.8416915 -5.844661 -5.7364225
000100 cc fe b6 c0 16 1b b9 c0 ad d3 b5 c0 24 4b b5 c0
       -5.718603 -5.7845564 -5.6820893 -5.6654224
000110 68 bf b6 c0 da c4 b3 c0 3a 1b b6 c0 4b 06 b9 c0
       -5.710865 -5.6177797 -5.6908236 -5.782018
000120 a5 08 aa c0 32 19 b4 c0 a0 cd b7 c0 d8 96 b6 c0
       -5.3135552 -5.6280756 -5.7438507 -5.7059135
000130 5d 23 b8 c0 6e 3d b8 c0 b6 9d af c0 1d 7e b1 c0
       -5.754317 -5.7574987 -5.488002 -5.5466447
000140 17 fb ad c0 3e 7f b1 c0 bf e3 af c0 56 5c b2 c0
       -5.4369006 -5.5467825 -5.496551 -5.5737715
000150 0d 04 b3 c0 aa db a7 c0 e8 49 af c0 d5 f1 af c0
       -5.5942445 -5.2455645 -5.4777718 -5.4982705
000160 1c 33 af c0 ec 8e af c0 ec 7c af c0 2e ba b9 c0
       -5.474989 -5.4861965 -5.4839993 -5.803977
000170 b5 df bd c0 07 a7 b8 c0 74 ed b9 c0 12 8a bb c0
       -5.933558 -5.770389 -5.810236 -5.8606043
000180 ef f2 bb c0 ce dc b7 c0 a4 e1 a5 c0 b3 43 bb c0
       -5.873405 -5.7457037 -5.183794 -5.852014
000190 73 15 c0 c0 57 6a c0 c0 a8 bb b9 c0 24 4a c0 c0
       -6.0026183 -6.012981 -5.8041573 -6.0090504
0001a0 f8 11 b3 c0 5f e9 b1 c0 fa cc b2 c0 ed 58 b4 c0
       -5.5959435 -5.5597377 -5.5875216 -5.635855
0001b0 a7 20 b3 c0 75 1a b2 c0 58 9c b1 c0 2c 76 a2 c0
       -5.597736 -5.5657296 -5.550335 -5.0769253
0001c0 0d bc af c0 96 c9 ac c0 6e a5 af c0 2b 6b b0 c0
       -5.4917054 -5.3996077 -5.488944 -5.513082
0001d0 af 9f b4 c0 24 fb b2 c0 24 c7 b0 c0 c8 21 b5 c0
       -5.6444926 -5.593157 -5.524309 -5.6603737
0001e0 5a 7e b4 c0 45 8f b7 c0 d8 1c b5 c0 b0 e2 b3 c0
       -5.640424 -5.736239 -5.659771 -5.621422
0001f0 97 77 a1 c0 5c 44 b3 c0 35 eb ae c0 63 dd b0 c0
       -5.0458484 -5.6020947 -5.466212 -5.5270247
000200 39 8c b3 c0 82 e5 b3 c0 5c e6 b9 c0 37 2e b5 c0
       -5.610867 -5.621766 -5.80937 -5.6618915
000210 c9 a7 b4 c0 63 51 b4 c0 57 81 b7 c0 f9 58 b4 c0
       -5.6454816 -5.634935 -5.7345386 -5.635861
000220 f1 d8 b4 c0 63 e6 a9 c0 de d5 b6 c0 dd ec bb c0
       -5.651482 -5.3093734 -5.713607 -5.872664
000230 d2 91 b7 c0 e3 3c b8 c0 af 29 b6 c0 2d 8c b2 c0
       -5.7365503 -5.7574325 -5.6925883 -5.5796113
000240 72 5e b5 c0 df bd b0 c0 a6 ac af c0 02 29 b5 c0
       -5.667779 -5.5231776 -5.4898252 -5.661256
000250 dd 81 b2 c0 59 65 b0 c0 70 a0 a8 c0 72 a3 b4 c0
       -5.5783525 -5.5123715 -5.2695847 -5.644952
000260 75 58 b3 c0 5d 64 b5 c0 49 22 b5 c0 1d c4 b2 c0
       -5.604548 -5.6685014 -5.660435 -5.5864396
000270 66 d6 b3 c0 ff 1b bc c0 b1 3e b6 c0 58 2e b6 c0
       -5.6199217 -5.8784175 -5.6951528 -5.693157
000280 82 6e ba c0 50 5d b6 c0 e8 4b b4 c0 50 ed aa c0
       -5.8259897 -5.6988907 -5.634266 -5.341469
000290 92 59 b7 c0 41 c5 b7 c0 22 46 b6 c0 9c 15 b4 c0
       -5.729684 -5.742829 -5.696061 -5.627638
0002a0 f7 51 b7 c0 c6 f9 b1 c0 fd 52 b0 c0 b2 d8 b0 c0
       -5.7287555 -5.56174 -5.5101304 -5.526452
0002b0 e0 61 b0 c0 49 c5 b6 c0 82 91 b5 c0 fa f6 b4 c0
       -5.5119476 -5.7115827 -5.674012 -5.6551485
0002c0 b6 0d a2 c0 da f8 b3 c0 42 6b b7 c0 97 ac b1 c0
       -5.0641737 -5.6241274 -5.731843 -5.552318
0002d0 a9 c5 b3 c0 b3 32 b2 c0 09 b0 b7 c0 19 b1 ba c0
       -5.6178784 -5.568689 -5.7402387 -5.8341184
0002e0 e5 d7 be c0 61 f3 b8 c0 2e 16 b6 c0 cc 1c b7 c0
       -5.9638543 -5.7797093 -5.6902075 -5.7222652
0002f0 d7 9a b7 c0 9e 13 a8 c0 ff cc bd c0 a0 d7 b3 c0
       -5.7376513 -5.2523947 -5.931274 -5.6200714
000300 9d 7c b5 c0 51 b7 b7 c0 28 03 bb c0 33 b8 b5 c0
       -5.6714616 -5.7411275 -5.8441353 -5.6787353
000310 b5 8c ae c0 5e 73 b2 c0 89 a4 b2 c0 6a 97 b1 c0
       -5.454676 -5.576583 -5.582585 -5.549733
000320 a9 97 b0 c0 14 1f b4 c0 22 81 a7 c0 0c 18 b1 c0
       -5.518513 -5.6287937 -5.2345133 -5.5341854
000330 6a ab b4 c0 0c a2 af c0 60 09 b3 c0 ae 28 b4 c0
       -5.6459246 -5.488531 -5.5948944 -5.629966
000340 b1 29 b6 c0 cf 30 b4 c0 b6 27 b7 c0 46 24 b1 c0
       -5.6925893 -5.630958 -5.7235975 -5.535678
000350 f1 44 b9 c0 0f b9 b9 c0 e7 b0 b4 c0 27 2e a0 c0
       -5.7896657 -5.80384 -5.6465945 -5.005634
000360 89 09 b5 c0 1d cb b2 c0 a0 94 bb c0 8f b9 b8 c0
       -5.657414 -5.587294 -5.8618927 -5.772651
000370 09 f9 b6 c0 3e 4c bb c0 9e a4 bc c0 0a dc ba c0
       -5.7179 -5.853057 -5.895095 -5.83936
000380 dc 2c b9 c0 ed 8c b7 c0 67 5a ba c0 5f f3 bb c0
       -5.786726 -5.735953 -5.8235354 -5.8734584
000390 51 d6 a6 c0 cb 9b bc c0 50 1a b8 c0 f9 85 b5 c0
       -5.2136617 -5.8940177 -5.753212 -5.672604
0003a0 a5 ee b3 c0 f5 2f bd c0 ee 84 ba c0 61 06 b8 c0
       -5.6228814 -5.912104 -5.828727 -5.7507787
0003b0 81 fc b6 c0 f7 e1 bd c0 b2 9a bd c0 8f 45 b6 c0
       -5.718323 -5.9338336 -5.9251337 -5.695991
0003c0 a8 c0 b6 c0 ad 13 a8 c0 19 cc b9 c0 52 ef ba c0
       -5.7110176 -5.252402 -5.8061643 -5.841714
0003d0 f9 7a b5 c0 02 0f ba c0 73 9d b6 c0 44 cd b9 c0
       -5.6712613 -5.814332 -5.70672 -5.806307
0003e0 5e f1 b5 c0 eb c6 b7 c0 66 7c bd c0 55 37 bc c0
       -5.685714 -5.743032 -5.9214354 -5.8817544
0003f0 9c 3d be c0 c1 19 bf c0 b2 0e a8 c0 1f de b6 c0
       -5.9450207 -5.971894 -5.251794 -5.7146144

blinear1.weight_sampler.eps_w f4 [24, 13]
000000 08 ed 42 bf 22 d2 15 bf 78 d8 c4 bf 4f 1e b8 bd
       -0.7614293 -0.5852376 -1.5378561 -0.08990156
000010 56 56 21 3f 11 0b d0 bf f6 d8 d4 bf 46 f7 6e bf
       0.63022363 -1.6253377 -1.6628711 -0.9334606
000020 c7 91 91 3d 1f 57 f2 3e 9b 53 ab 3e 34 c7 4d 3f
       0.07107883 0.47332093 0.33462223 0.80382085
000030 21 42 ca bf 45 10 a0 3f c1 cd ac be 93 53 02 be
       -1.5801431 1.2504965 -0.33750728 -0.12727194
000040 fd 0f 0c bf 22 a6 38 be 64 ec dc 3f 27 82 18 3f
       -0.54711896 -0.18032125 1.7259641 0.59573597
000050 06 45 62 bd 69 e8 39 be a5 12 89 bf 87 c2 89 bf
       -0.055241607 -0.18155064 -1.0708815 -1.076249
000060 26 f8 09 3f dd 72 15 bf 09 9d 9f 3e 12 5c 3d bf
       0.5389427 -0.5837839 0.31174496 -0.73968613
000070 bb 65 e5 bf 5e 95 17 bf 66 d1 0d be 2d 5d 14 40
       -1.7921671 -0.5921229 -0.1384941 2.318187
000080 8d a8 38 be 56 0c 57 bf de 7b c3 3e 37 65 3c 3e
       -0.18033047 -0.840032 0.3818044 0.18397985
000090 25 c9 c3 be b7 59 90 bf d5 32 0a bf 6f 7f 1f bf
       -0.382394 -1.1277379 -0.53983814 -0.62303823
0000a0 0b ac 41 bf a9 2d 8d 3e c4 92 95 bf bb 57 91 3f
       -0.7565314 0.27573898 -1.1685414 1.1354898
0000b0 a8 35 cb bf 2b 94 3a 3f 2f 73 6c 3d f7 f2 61 40
       -1.587575 0.72882336 0.057727035 3.5304544
0000c0 3f b6 63 3f 98 2e a8 bf da 78 a8 3e f6 29 ec bf
       0.8894996 -1.3139219 0.32904702 -1.8450305
0000d0 eb 54 01 3f c7 8a 5d bf e5 ce ef be 3f c0 2b 3f
       0.505202 -0.8653988 -0.46837536 0.6709022
0000e0 42 f1 0e be b8 5a 97 bf fe 31 52 3e b2 3b bb 3d
       -0.1395922 -1.182456 0.20526883 0.09142245
0000f0 e3 73 d6 bf 8a 6e 37 bf b6 d6 c6 bf 9b 6c d1 bf
       -1.6754116 -0.71653044 -1.5534275 -1.6361269
000100 19 b0 51 bf 26 55 cf bf fb 0b c4 3f 25 78 c7 3f
       -0.8190933 -1.619786 1.5316156 1.558354
000110 b4 fc bb be 8c b3 de be 17 78 3f bd 63 9d 0e be
       -0.36716235 -0.43496358 -0.046745386 -0.13927226
000120 05 1a 6d bf 3a 6a 33 3e bf 01 be 3e 4a 26 3c bf
       -0.9261783 0.17520991 0.37110707 -0.73495924
000130 75 7c 3f bf f1 bc 02 40 33 78 33 bf 6f 7b 12 3f
       -0.7479928 2.042782 -0.70105284 0.57219595
000140 68 0b 66 bf 17 cf 90 3f 6f 8e de 3f 51 a0 df bf
       -0.89861155 1.1313199 1.7387217 -1.74708
000150 92 e3 95 3f 95 1f b2 3f 0a f9 e2 3e 8b 0d 1c bd
       1.1710074 1.3915888 0.44330627 -0.038098853
000160 43 8e 21 3f 38 c2 c7 bf b8 1b ac be 88 60 c7 bf
       0.631077 -1.5606146 -0.33614898 -1.5576334
000170 d3 cb 2d 3b aa bb a8 3f ec 79 ac bf fd 77 d4 3f
       0.0026519194 1.318227 -1.3474708 1.6599118
000180 fe 35 c1 bd 79 42 71 3f 94 20 3c be 48 1f eb bf
       -0.09434126 0.94242054 -0.18371803 -1.8368921
000190 4d 09 c8 3e a7 b1 d4 3f 50 df 20 c0 38 9a c6 3e
       0.39069596 1.6616715 -2.51363 0.38789535
0001a0 ec f7 7f 3e 9f 64 a8 bd 47 cf 06 40 dc 51 16 bf
       0.24996918 -0.08222317 2.1064012 -0.5871866
0001b0 ea 05 10 40 f1 02 3e c0 cf ad 9d 3f 22 6d 26 bf
       2.250361 -2.9689295 1.2318667 -0.65010273
0001c0 34 69 a2 3f eb be 71 3e a7 58 df bf 95 98 94 3e
       1.2688355 0.23607986 -1.744893 0.2902266
0001d0 19 02 72 be 48 03 c3 be 69 5b 1d bf 03 27 b0 bf
       -0.23633613 -0.3808844 -0.61467606 -1.3761905
0001e0 74 59 9c 3f 49 43 1d bf 3b 30 1f 3f 99 ea 9d 3e
       1.2214799 -0.61430794 0.6218297 0.30843046
0001f0 66 9a 24 bf 67 3f 80 3c 06 4d 96 3f 26 a4 fd bf
       -0.64298093 0.015655233 1.1742256 -1.9815719
000200 cb a8 aa 3d c1 52 16 c0 bd 42 3a 3e fd 92 a8 be
       0.08332976 -2.348801 0.18189521 -0.32924643
000210 5b bc 84 bf 8f c7 98 bf 94 d2 bc 3f 51 bf de 3d
       -1.0369982 -1.19359 1.4751763 0.108763345
000220 c7 39 ab be 70 15 f5 3f b9 67 2b 3f ad e1 98 be
       -0.33442518 1.9147167 0.66955143 -0.29859677
000230 0d 75 7a 3f 9f 23 2a bf 83 b4 5b be ab f6 e2 3f
       0.97834855 -0.66460603 -0.21455579 1.7731527
000240 fa 4a 13 3f 46 bf 02 3f ee 9e f6 3f bc 09 02 3e
       0.5753628 0.5107311 1.9267251 0.12699026
000250 14 3e b5 3b f0 17 7d 3f d0 37 5f 3e 3b e0 10 be
       0.005531082 0.9886465 0.21798635 -0.14148037
000260 00 ea b4 3f 71 75 ea 3f 24 10 e8 3e 40 b4 72 3e
       1.4133911 1.831709 0.45324814 0.23701572
000270 c3 46 7e bf 73 26 62 3a 36 dc 18 3e 83 66 8b 3e
       -0.99326724 0.0008626945 0.14927754 0.27226648
000280 6d aa bc be d0 7e 6b bf b5 4d ba bf 9f 44 55 3e
       -0.36848775 -0.91990376 -1.4554964 0.20826958
000290 c3 e8 41 bf 29 fa a9 3f 46 dd e1 3e f9 bd c2 be
       -0.7574579 1.3279468 0.4411413 -0.38035563
0002a0 e6 d7 2d c0 2c fd b2 3f b8 89 d1 3f bc 84 ba bf
       -2.7163024 1.3983512 1.6370153 -1.4571757
0002b0 e7 0a a1 3d 73 4c 9f bf c1 7d 29 3f 56 22 8f bf
       0.078634076 -1.2445205 0.6620751 -1.1182353
0002c0 f3 8c de bf 03 91 cf bf 1a 29 95 bf 3e df 10 bf
       -1.7386764 -1.6216129 -1.1653168 -0.5659064
0002d0 83 13 13 3f 6c f7 2d 40 37 ee 34 be 4f 87 76 3f
       0.5745165 2.7182264 -0.17668997 0.96300215
0002e0 40 30 c1 3f 6e be 03 40 58 e7 e8 bf 6d 54 0c bc
       1.509285 2.058498 -1.81956 -0.008565051
0002f0 79 10 d2 3f 7d 64 7f 3e 24 ec 04 3f 9c 8d 4e 3e
       1.6411277 0.24940677 0.5192282 0.20171207
000300 b2 cd 24 bf c0 1a 32 3f 93 f8 01 bf a5 c6 ed 3e
       -0.64376366 0.6957207 -0.5076992 0.46440616
000310 b3 6b fd bd c9 18 c6 be 1f 82 b4 3f d9 1d b8 be
       -0.123740576 -0.38690785 1.410221 -0.35960272
000320 cf 37 99 3e f2 1b 4c bf d5 41 23 40 6c cc 52 be
       0.2992539 -0.7973014 2.550893 -0.20585793
000330 bd 9c d5 3f fb ef 73 bf a7 7c 13 c0 ae 58 cf bf
       1.6688458 -0.95288056 -2.3044832 -1.6198938
000340 c6 6c 9c 3f d6 10 8b 3f c5 ff 26 3f ff 6b eb 3d
       1.2220695 1.0864513 0.65234023 0.11495208
000350 f1 0f b5 bf be 40 c1 bf fc ec 4d bf 5a 6d 9b bf
       -1.414549 -1.5097883 -0.80439734 -1.2142746
000360 7d a6 64 bf 35 d5 0b 3f 45 6c 44 40 cc 9f a5 bd
       -0.8931654 0.54622203 3.0691082 -0.080871195
000370 bd d2 3c 3f 8a a5 51 be cb 8f e2 3f 1e 1c 86 3f
       0.7375906 -0.20473304 1.7700132 1.0477331
000380 6d b2 c8 bf 9b 14 17 c0 19 3a cb bf 2c 45 c6 3f
       -1.5679451 -2.3606327 -1.5877105 1.548986
000390 85 a8 25 40 4f 7b 0f bf f5 0e a9 3f 19 c0 83 bf
       2.5884106 -0.5604753 1.320769 -1.0292999
0003a0 15 43 27 3f 3a 79 93 3f 78 0f 3b bf d4 3f 8f 3f
       0.65336734 1.152137 -0.7307048 1.1191354
0003b0 97 ad 14 bf 05 fa 58 3f 54 2d 0b 3f 84 e5 3a c0
       -0.5807738 0.847565 0.5436604 -2.9202585
0003c0 2a 69 83 3e a5 bb 99 be c6 3f dd 3e 11 4e d7 bf
       0.2566617 -0.30025974 0.43212718 -1.6820699
0003d0 d8 11 8f 3e c9 97 4e 3e 31 07 d3 3f 32 e6 88 be
       0.279433 0.20175089 1.648657 -0.26738125
0003e0 bc db be 3f 68 e8 95 be 34 af 55 3f cf de e4 3f
       1.4910808 -0.29278874 0.83470464 1.7880496
0003f0 59 c4 29 3f e6 fb 10 be aa cb c9 bf 47 af 80 3f
       0.6631523 -0.14158592 -1.5765278 1.005349

blinear1.bias_sampler.mu f4 [24]
000000 97 4e 3f 3d f6 7b 8c 3d 6e 25 26 bc 30 9d 97 bc
       0.04670581 0.06859581 -0.01014076 -0.01850757
000010 73 44 87 3d 43 3b b5 3c 83 3f 30 bc 28 97 84 3d
       0.066048525 0.022122985 -0.01075733 0.06474143
000020 5e 01 81 3c a0 bc 1a bb b9 be 9e bc a9 28 a5 3c
       0.015747722 -0.0023610964 -0.019378053 0.02016099
000030 c8 6e f8 bb 96 c8 cd bc 8c 0b 15 3d 35 6a 95 3d
       -0.0075815655 -0.02512006 0.036387965 0.07295648
000040 fa 93 2c 3d c3 a3 ae 3d 04 b8 a2 3d 52 e7 99 3d
       0.04213331 0.08527329 0.079452544 0.07514824
000050 b5 88 93 3b be e6 a6 bb 7c 99 c7 3c 8e 5b 26 3c
       0.0045023807 -0.0050934246 0.02436518 0.010153664

blinear1.bias_sampler.rho f4 [24]
000000 2e 10 a5 c0 22 ef a6 c0 96 22 a7 c0 e9 bb a4 c0
       -5.158225 -5.216691 -5.222972 -5.1479383
000010 46 1b aa c0 94 f4 a0 c0 86 29 a8 c0 cc f0 a5 c0
       -5.3158293 -5.0298557 -5.255069 -5.185644
000020 fc c1 aa c0 a8 26 a5 c0 69 fa a8 c0 c3 09 ac c0
       -5.3361797 -5.160969 -5.2805676 -5.3761916
000030 d4 f4 a4 c0 72 81 a8 c0 5e 34 ac c0 1b 2f a3 c0
       -5.1548862 -5.2658014 -5.3813925 -5.0995
000040 20 54 a7 c0 01 99 a8 c0 d6 8b a3 c0 6b ad aa c0
       -5.229019 -5.268677 -5.11082 -5.333669
000050 71 77 a6 c0 5f 4f a3 c0 ca 97 ac c0 4f 8b a5 c0
       -5.2020802 -5.103439 -5.393529 -5.1732554

blinear1.bias_sampler.eps_w f4 [24]
000000 67 92 79 bf 17 34 e4 bd 9d 9f 72 bf 58 ed 4c 3f
       -0.9748902 -0.11142748 -0.947748 0.8004966
000010 b5 0b 5c bf b2 3c b7 3e a8 1a e9 3f 77 3c 00 be
       -0.85955364 0.35788494 1.821126 -0.12523066
000020 0e 42 78 bf 27 f2 c1 bf 3a 74 be 3f 09 c2 30 40
       -0.9697579 -1.5152024 1.487922 2.761843
000030 df 9c 89 3f fe 30 7a bf df 99 2c 40 bd be 44 bc
       1.0750998 -0.97731006 2.6968915 -0.012008366
000040 62 65 45 3f 72 75 97 be 13 91 8e be 67 df 36 bf
       0.7710782 -0.2958179 -0.27845058 -0.71434635
000050 f8 5a 27 3f 75 51 45 bf 21 b2 d1 bf 20 a6 c2 3f
       0.6537318 -0.7707742 -1.6382486 1.5206947

blinear2.weight_mu f4 [24, 24]
000000 e0 b2 00 3e 14 00 74 3c d0 35 e6 3d f3 af ec 3d
       0.12568235 0.014892597 0.11240733 0.11556997
000010 65 0c 83 3d 79 32 76 3d 1b f0 f5 3d 4e c2 1c 3d
       0.063988484 0.06010673 0.12008687 0.03827124
000020 02 04 1e 3e 01 f3 f6 bd 47 01 ea 3b 54 b2 ae 3c
       0.15431216 -0.12058068 0.0071412656 0.021325268
000030 2d 03 ad bd a2 cd a3 3d e8 ab a7 bc 46 70 25 bd
       -0.08447871 0.07998206 -0.020467713 -0.040390275
000040 52 25 23 3e 78 37 d0 3d 1b 4c 4b 3d f4 74 95 3c
       0.15932205 0.1016683 0.049633127 0.018244244
000050 4b c0 0a 3d 11 e3 34 bc 9e 63 34 3c 4f 0c ac bc
       0.03387479 -0.011040465 0.011010079 -0.021001963
000060 66 0c fa bb 47 69 dd 3c 0c 43 72 bd 25 c2 e9 bb
       -0.0076308725 0.02702774 -0.059145972 -0.0071337395
000070 99 3c 3a bb 2f 15 cf bb 42 d5 14 bd f1 7e a7 bc
       -0.0028417467 -0.006319664 -0.03633619 -0.020446273
000080 4e 9b f8 bc 8c f6 12 bc c3 35 cc bb 36 7a 8e 3c
       -0.030347493 -0.008969914 -0.006231995 0.01739226
000090 ca 38 ea ba 75 0d dc 3b bc 56 83 bb be c5 5d bb
       -0.0017869708 0.0067154714 -0.0040081423 -0.0033839787
0000a0 09 96 d0 3b 72 fc 62 3b bd a6 6a bb 98 0b c3 3c
       0.006365542 0.0034635332 -0.003580495 0.02380924
0000b0 25 6c fb 3c 6b 74 73 bd a3 d2 dc 3c 4c 55 24 bd
       0.030691216 -0.059437197 0.026955908 -0.040120408
0000c0 7a 69 44 3c 61 3d 92 bd 48 9d 69 bc 37 f7 cf bd
       0.011988038 -0.07140613 -0.01425869 -0.10154574
0000d0 e3 5a 74 be 87 df a1 3a 48 4e fc bd d6 0f b3 bd
       -0.23862796 0.0012349942 -0.123196185 -0.08743255
0000e0 84 1f 8a 3b a8 06 ad bd e9 70 9c bd c7 0b 04 be
       0.0042151827 -0.08448535 -0.076387234 -0.12895118
0000f0 02 01 4f 3e 52 95 30 3e 64 da d5 3d 4e a4 96 3e
       0.20215228 0.17244461 0.10442045 0.2942223
000100 42 3b 2f 3d 20 a7 84 3c b0 8f 8e 3d 54 f2 c7 bb
       0.042781122 0.016192973 0.06961 -0.006101886
000110 eb 91 dd bc fa a6 3d bb 8f 10 24 be bf 00 64 bd
       -0.027047118 -0.0028938637 -0.16021942 -0.055664774
000120 f7 15 52 3e bc 40 be 3d d6 13 90 3c 34 51 d3 bc
       0.20516191 0.09289691 0.017587584 -0.025795557
000130 ca 55 2a 3d 17 85 73 3c dc 4f d9 bc b6 58 a2 3d
       0.04158572 0.014863274 -0.026527338 0.079270765
000140 f9 3f dc bd 29 39 87 3e 64 9a 86 3e bb 12 83 3d
       -0.10754389 0.26410797 0.26289666 0.06400057
000150 8c 49 aa bd fd ce cd bd ee 00 fe 3d 52 66 11 3d
       -0.08314809 -0.100492455 0.12402521 0.03549797
000160 65 7a e2 bd ff 2c 89 bc c4 65 ea 3d 64 2d 62 3d
       -0.11058501 -0.016745089 0.114451915 0.05521907
000170 34 e1 75 3d 84 5f a0 3d f0 9b e7 bd 65 10 a9 3c
       0.060029224 0.07830718 -0.113090396 0.0206377
000180 e1 a2 c6 3b a8 71 d5 3d 9a 9c ae 3c 0c 9c 72 3e
       0.006061897 0.10422069 0.021314908 0.2369234
000190 fa 15 03 3e 04 04 80 3e 62 10 37 3d 8e 5a f5 3d
       0.12801352 0.25003064 0.04469336 0.119801626
0001a0 e2 c4 2a 3d 1e 6c 66 bd a9 e4 25 3e 93 a4 f3 3c
       0.04169167 -0.056255452 0.16200508 0.029741561
0001b0 72 00 8a be 0d 70 89 bd 48 b9 ac 3b 3a 4f 20 be
       -0.26953465 -0.06710825 0.0052711107 -0.15655223
0001c0 ff e3 e5 3d 85 59 dd 3d 26 eb a1 bc c5 8c 91 3e
       0.112251274 0.1080809 -0.019765448 0.2842771
0001d0 31 f9 78 3d bf 65 a1 3d 97 a2 2e 3e e2 da 92 3d
       0.060784522 0.07880735 0.1705421 0.07170655
0001e0 ca d9 25 3d f0 9d ef 3d 32 f0 22 3d 0d 75 b7 3d
       0.040490903 0.11700046 0.03977985 0.089578725
0001f0 c0 34 9c bd db 5d fb 3c 4c 68 04 3e 47 30 a9 3d
       -0.07627249 0.030684402 0.12930411 0.08261161
000200 e1 f6 6f 3d 61 76 91 3b 36 5f da 3d c9 d8 97 3d
       0.05858505 0.0044391607 0.10662691 0.07414395
000210 bd fb f7 bc 02 19 22 3d 57 31 6b bc ae e7 b2 bd
       -0.030271405 0.03957463 -0.014355025 -0.08735596
000220 21 bd d2 3c 5b 22 6d 3e 56 1a 08 3e 33 22 e4 3d
       0.02572495 0.23157637 0.13291296 0.111393355
000230 ac ad 4a bc 85 27 11 3d a9 0f 7e 3d 8e f5 12 3e
       -0.012370508 0.03543808 0.062026653 0.14351484
000240 32 6f 86 3c ee da 4b 3b e2 31 19 3d 97 33 9c 3d
       0.016410444 0.0031105834 0.037401088 0.076270275
000250 1b b5 08 3e 35 89 2d bd e7 9a 0d bc 85 c7 24 bb
       0.13350336 -0.04236718 -0.008642889 -0.0025143337
000260 78 e6 0c bd 68 a4 00 3d 9e a6 14 3d d0 3d b4 3d
       -0.03439948 0.03140679 0.03629171 0.08800852
000270 59 c9 13 be c9 77 0c bd db ec 06 3e 98 1a f4 bc
       -0.14432277 -0.034293924 0.1317629 -0.029797837
000280 3c 13 02 3e 82 83 e3 3d a4 7a bb 3d 93 ca be 3d
       0.1270265 0.111090675 0.09154251 0.09315982
000290 fa 65 13 3e d4 d9 98 3d ea f4 62 3e 93 be d0 3d
       0.1439437 0.074634224 0.2216374 0.10192599
0002a0 57 11 a5 3d e8 5e 47 3e 7f b4 2f 3e c9 3c f9 3d
       0.08059948 0.19469798 0.17158698 0.12169797
0002b0 b1 c5 17 3e 19 59 a9 3d 22 cc 10 bd 1e 0f 0b 3e
       0.14821507 0.08268947 -0.035350926 0.13579985
0002c0 eb 12 09 be 1c c2 d7 3d aa 4e e7 3d f1 84 18 3e
       -0.13386123 0.1053507 0.11294301 0.14894463
0002d0 19 71 30 be 4b 6a 19 3e 81 cd 88 bd 38 ef 17 bd
       -0.17230643 0.14981954 -0.06679822 -0.03709337
0002e0 01 fe 68 3d 97 a0 8a 3d b2 a9 0e 3d 82 a1 98 bd
       0.056882862 0.06768911 0.034829803 -0.0745268
0002f0 bd af 35 3e 25 0f 8a 3d 3c 36 b4 3d 2a 98 2b 3e
       0.1774282 0.0674117 0.08799407 0.16757265
000300 de 24 04 3d 59 d9 4c 3e 77 bc 2e 3d 0e 38 d0 3c
       0.03226172 0.20004787 0.042660203 0.025417354
000310 0b 58 3e 3e cb ce 9b 3e 4e fa 18 3e 8c 8c 69 3e
       0.18588273 0.30431208 0.14939234 0.2280752
000320 25 c5 a5 3d 87 f3 40 3e b2 b8 9a 3e 1a cf d6 bb
       0.08094243 0.18842898 0.30219036 -0.00655545
000330 84 d3 42 be 15 69 00 3e 5a e6 fa 3d ba 10 4d be
       -0.19026 0.12540086 0.12250967 -0.20025912
000340 e6 b6 9a 3d b8 26 37 3d b6 62 36 3e 2d 87 21 3e
       0.07554416 0.04471466 0.17811093 0.15774222
000350 03 bc ff bb 90 f4 0e 3e a7 00 05 3e eb de bd 3d
       -0.007804395 0.1396048 0.1298853 0.09271034
000360 63 79 93 3d 82 eb 07 3e 63 15 38 3e 5a b7 64 3e
       0.07200887 0.13273433 0.17976908 0.22335568
000370 53 c6 a9 bc b3 01 2e 3d 83 30 1f be 68 82 ab 3d
       -0.020724451 0.04248209 -0.1554585 0.083744824
000380 0f f8 8a 3e 19 55 0b 3d bd 05 5f 3d 0e 4b ed 3d
       0.2714238 0.034016702 0.05444883 0.11586581
000390 30 a8 a5 bd a2 c5 63 bd 53 7c 9f 3c 2f 6a 9a bd
       -0.0808872 -0.0556084 0.019468462 -0.07539784
0003a0 ae 93 4f 3d 57 fd 9b 3e 94 73 90 3d 4e 43 b9 3d
       0.050677948 0.3046672 0.07053295 0.090460405
0003b0 a5 a4 f4 bc fa bc 1e 3e 78 05 34 3e ee c8 45 3e
       -0.029863665 0.15501776 0.17580211 0.1931493
0003c0 c0 5e 01 be c5 35 14 bd c1 26 dc 3d 6f b5 40 bd
       -0.126338 -0.03618409 0.10749579 -0.04704803
0003d0 a1 26 89 3e 89 31 47 3e 93 58 7e 3d 7a 22 1b 3e
       0.26787284 0.1945249 0.06209619 0.1514987
0003e0 63 21 dc bd 0c da 46 3d f5 40 c9 3d 32 ac b7 bd
       -0.107485555 0.04854779 0.09826843 -0.089683905
0003f0 b5 48 ba bd 8c d0 50 3e e6 55 29 3e 97 cd 70 bd
       -0.09095899 0.20392054 0.16536674 -0.058789816
