summit/benchmarks/experiment_emulator/trained_models/BNN/reizman_suzuki_case4_yield_BNN_model.pt (torch_old, 24085 bytes, 35 tensors)

blinear1.weight_mu f4 [24, 11]
0	0xbd9ddb24	-0.077078134
1	0xbe9f3c4b	-0.31100687
2	0xbd80c040	-0.06286669
3	0xbda3e2aa	-0.08002217
4	0x3c1b1687	0.00946582
5	0xbe1f70c9	-0.15570368
6	0xbd086020	-0.033294797
7	0x3cf32b32	0.029683683
8	0x3d6c6019	0.057708833
9	0x3d030b84	0.031993404
10	0x3d491a56	0.04909738
11	0x3cce4036	0.025177103
12	0xbd29ed77	-0.04148623
13	0x3c34318d	0.010998142
14	0x3cbb0f1d	0.022834355
15	0xbc45fafc	-0.012083765
16	0x3e09a149	0.13440432
17	0x3d88d3be	0.066810116
18	0x3d61bde2	0.055112727
19	0x3c769953	0.015051204
20	0xbd41ab2b	-0.04728238
21	0xbc738c33	-0.014864969
22	0xbc913cc0	-0.017729163
23	0xbdb8bea0	-0.09020734
24	0x3cf5e99a	0.030018616
25	0x3dafe1ce	0.08587991
26	0x3e060ff6	0.13092026
27	0x3dba3857	0.09092777
28	0x3d757f4d	0.059935857
29	0x3d8b3266	0.06796722
30	0xbc86ae60	-0.01644057
31	0xbd231bbd	-0.039821375
32	0xbd4a261d	-0.049352754
33	0xbd331c64	-0.043728247
34	0x3c98db73	0.018659329
35	0xbd94ac43	-0.07259419
36	0x3ddf7114	0.1091024
37	0xbdbaa018	-0.09112567
38	0x3e02e1b7	0.12781416
39	0x3e3293bd	0.1743917
40	0xbe50760a	-0.20357528
41	0xbc5cda40	-0.013479769
42	0xbdb489e4	-0.08815363
43	0xbd3cd0a5	-0.046097416
44	0xbdaddac3	-0.08488991
45	0x3ce6dc75	0.028181294
46	0xbc907109	-0.017632024
47	0x3e234009	0.15942396
48	0x3e096252	0.13416412
49	0x3ca84a8b	0.020543357
50	0x3e3c38cc	0.18381041
51	0xbe476209	-0.19470991
52	0xbd1d1102	-0.038346298
53	0xbdb0ff20	-0.08642411
54	0xbd586784	-0.052833095
55	0x3d29bc3b	0.041439276
56	0x3d164460	0.0366863
57	0x3d230d25	0.039807457
58	0x3dd6b0df	0.10482954
59	0x3dd4880d	0.10377512
60	0x3db7e12d	0.08978496
61	0x3dafc77d	0.08582971
62	0x3d387b3f	0.04503941
63	0x3ad598b6	0.0016296122
64	0xbdad1cbf	-0.084527485
65	0xbda7d392	-0.08194651
66	0x3ddb2619	0.10700626
67	0xbe0f1caa	-0.13975778
68	0x3d14ac16	0.036296926
69	0x3df7c141	0.12097407
70	0x3cec000a	0.028808612
71	0x3d3dfe42	0.046385057
72	0xbca8dfad	-0.02061447
73	0x3d8a7935	0.067614
74	0x3c4f4e33	0.0126529215
75	0xbb0386fc	-0.002006947
76	0xbc3038f4	-0.010755766
77	0x3c6727f6	0.0141086485
78	0x3c0fe595	0.008782764
79	0x3d02c62c	0.031927273
80	0x3df31e49	0.11871011
81	0x3df9660f	0.12177669
82	0x3dbd464c	0.09241924
83	0x3d1f2556	0.038853966
84	0x3d45b695	0.048269827
85	0xba6f60da	-0.00091315585
86	0xbdb4c70d	-0.088270284
87	0xbdb6afcb	-0.089202486
88	0x3d05d902	0.032677658
89	0x3cb6e9f3	0.022328353
90	0x3d04d83e	0.032432787
91	0x3de64b42	0.11244823
92	0x3de07bcc	0.109611124
93	0x3dc081c3	0.0939975
94	0x3d846bc5	0.06465868
95	0x3cc6c2bf	0.024262784
96	0xbc6daa9a	-0.014506007
97	0xbe1ec49c	-0.15504688
98	0xbda92381	-0.08258725
99	0x3c840b29	0.016118603
100	0xbce7d68d	-0.028300548
101	0x3d801749	0.06254441
102	0x3da30462	0.0795982
103	0x3e05fd03	0.13084798
104	0x3d7b726e	0.061388426
105	0x3dd05ccb	0.10173949
106	0x3dd6803c	0.104736775
107	0x3d0c8bd5	0.03431304
108	0xbd5cbc40	-0.053890467
109	0xbd7ee0ff	-0.06222629
110	0xbd767dd8	-0.060178608
111	0xbb40e7c4	-0.0029435018
112	0xbcc9fbc1	-0.024656178
113	0x3db93716	0.0904371
114	0x3d0261f7	0.031831708
115	0x3d08e5d4	0.033422306
116	0x3dc922de	0.098211035
117	0xbe06f160	-0.13178015
118	0xbcd9cf45	-0.026588092
119	0xbd7de056	-0.06198152
120	0xbd44783a	-0.04796622
121	0xbcce2c51	-0.025167616
122	0xbaaf621b	-0.0013380678
123	0xbde33957	-0.11094921
124	0x3dd5b2f5	0.10434524
125	0xbc88b44d	-0.016687537
126	0x3e126024	0.14294487
127	0x3e23fa2f	0.16013406
128	0xbe533c36	-0.20628437
129	0xbc7e805f	-0.015533536
130	0xbd8d74bf	-0.06907033
131	0xbba43af3	-0.00501191
132	0xbc838f6b	-0.016059598
133	0x3a6d285c	0.00090468465
134	0x3cd7e969	0.026356416
135	0x3e1503b3	0.14552192
136	0x3de4a43f	0.1116414
137	0x3dbb1638	0.09135097
138	0x3dba974d	0.091108896
139	0x3d0304b4	0.031986907
140	0xbc125d88	-0.008933432
141	0xbd8a7f33	-0.067625426
142	0xbd96e4cc	-0.07367858
143	0x3c5ef958	0.013609253
144	0xbc09cb04	-0.008410219
145	0x3d8d3585	0.06894974
146	0x3dcc4633	0.09974327
147	0x3dd11932	0.10209884
148	0x3dc092f5	0.0940303
149	0xbe1dc3de	-0.15406749
150	0x3dd62df4	0.104579836
151	0xbc6bfe6f	-0.014403923
152	0xbda7b26a	-0.08188327
153	0xbd919c77	-0.071099214
154	0x3d2e8c07	0.04261401
155	0x3cd753ff	0.02628517
156	0x3d0517b2	0.0324933
157	0x3d5fd3c2	0.054645307
158	0x3dbc7460	0.09201884
159	0x3da267dc	0.07929966
160	0x3d905dd6	0.07049148
161	0x3d5c0cce	0.05372315
162	0x3bda37a9	0.0066594672
163	0xbd877604	-0.066143066
164	0xbd4dc79a	-0.050239183
165	0xbd5029ed	-0.050821234
166	0xbb87340d	-0.004126078
167	0xbcffed57	-0.031241102
168	0x3da1fa13	0.07909026
169	0x3cb49119	0.022041844
170	0x3d977edf	0.073972456
171	0x3db3cf0d	0.08779726
172	0xbe095ea6	-0.13415012
173	0xbcee1596	-0.029063027
174	0xbd88d36b	-0.0668095
175	0xbd11f04c	-0.035629556
176	0x3cfda63e	0.03096306
177	0x3b95c0aa	0.0045700865
178	0x3d16cf6c	0.036818907
179	0x3d65232d	0.05594175
180	0x3dec0efe	0.11526297
181	0x3de914f0	0.11380947
182	0x3e82bde2	0.25535494
183	0x3d1ad284	0.03779842
184	0x3bae263a	0.0053146156
185	0xbd9f3e89	-0.077755995
186	0xbd9f1c3e	-0.07769059
187	0xbb1d56b5	-0.002400798
188	0xbcb582a9	-0.02215703
189	0x3d040c6d	0.032238413
190	0x3ddbf45f	0.107399695
191	0x3e0229d8	0.12711275
192	0x3dca547d	0.09879396
193	0x3d8aa4e6	0.06769733
194	0x3d175ec3	0.036955606
195	0xbbc24902	-0.0059291134
196	0xbd676e12	-0.056501456
197	0xbd9b0d65	-0.07570914
198	0xbd4441d9	-0.04791436
199	0xbe6305bc	-0.22170156
200	0x3da61fcf	0.08111536
201	0x3d3ebb3c	0.04656528
202	0x3d9b7e45	0.075924434
203	0x3db34801	0.08753968
204	0x3bf0e9aa	0.0073520737
205	0xbd31bf5f	-0.043395396
206	0xbc433b7b	-0.011916037
207	0xbc680d78	-0.014163367
208	0xbb7cca2d	-0.0038572655
209	0x3cd867a5	0.026416609
210	0xbb45220b	-0.0030080106
211	0x3c809d8b	0.015700122
212	0x3dd9d229	0.10635788
213	0x3da280f8	0.07934755
214	0x3d80820d	0.06274805
215	0x3da0ad6d	0.07845578
216	0x3d154307	0.036440875
217	0x3c27417c	0.010208484
218	0xbd822e01	-0.06356431
219	0xbce8b3fc	-0.028406136
220	0x3bd84b06	0.0066007404
221	0xbcb6e8ae	-0.022327747
222	0x3cd6f941	0.0262419
223	0x3dd4391d	0.10362456
224	0x3cfaa97b	0.030598393
225	0x3e0b5aaa	0.13608804
226	0x3d9018d6	0.07035987
227	0x3d01ff79	0.03173778
228	0xbc182a1f	-0.009287386
229	0xbd8d22eb	-0.06891426
230	0xbd8de6da	-0.06928797
231	0x3db0e184	0.08636764
232	0x3d54e1f8	0.051973313
233	0x3d84aed3	0.064786576
234	0x3dbd9c0f	0.092582814
235	0x3e05b4b3	0.13057213
236	0x3e0a27d4	0.13491756
237	0xbdc40a2e	-0.09572254
238	0x3e04752a	0.1293532
239	0x3c4bd4d5	0.01244088
240	0xbd8b2173	-0.06793489
241	0xbd2a5da0	-0.041593194
242	0x3cae9eb3	0.021315908
243	0x3cee11ad	0.029061163
244	0x3d06b5d0	0.032888234
245	0x3de562e7	0.11200505
246	0x3ddf05c9	0.10889775
247	0x3ddc250d	0.107492544
248	0x3d943bf4	0.07237998
249	0x3d3e792d	0.04650228
250	0xbb9db41e	-0.0048127314
251	0xbdaeae15	-0.08529297
252	0xbd9498d8	-0.07255715
253	0x3cb489d9	0.022038387
254	0x3cc3daf0	0.023908108
255	0x3cad8909	0.021183508

blinear1.weight_rho f4 [24, 11]
0	0xc0b25434	-5.5727787
1	0xc0b502d7	-5.6565967
2	0xc0b57dda	-5.6716127
3	0xc0aaa37c	-5.3324566
4	0xc0accf45	-5.4003015
5	0xc0ad8367	-5.4222903
6	0xc0b083bf	-5.5160823
7	0xc0aa73f1	-5.326653
8	0xc09ba29f	-4.863601
9	0xc0979488	-4.7368813
10	0xc09454bf	-4.635345
11	0xc0adccbc	-5.431242
12	0xc0b21b5b	-5.5658393
13	0xc0b3e56b	-5.621755
14	0xc0a9b481	-5.303284
15	0xc0a0ca3f	-5.0246882
16	0xc0a80006	-5.250003
17	0xc0a70b17	-5.2201037
18	0xc0a008da	-5.0010805
19	0xc099f776	-4.8114576
20	0xc09a1325	-4.814837
21	0xc092cdfb	-4.587644
22	0xc0af7251	-5.4827046
23	0xc0acb846	-5.3974943
24	0xc0ae104b	-5.439489
25	0xc0a59fd9	-5.1757627
26	0xc0a139fa	-5.038327
27	0xc0a92a7c	-5.286436
28	0xc0a626dd	-5.192244
29	0xc0a2f6e8	-5.09264
30	0xc0999837	-4.799831
31	0xc095bd83	-4.6793838
32	0xc09944b2	-4.7896357
33	0xc0af70b3	-5.482507
34	0xc0b1d44e	-5.557166
35	0xc0b818fb	-5.7530494
36	0xc0ad0a58	-5.4075127
37	0xc0a5b1ea	-5.177968
38	0xc0ab1c74	-5.3472233
39	0xc0ae2be2	-5.442857
40	0xc0a112c2	-5.03354
41	0xc0999ae7	-4.800159
42	0xc099bc6b	-4.8042502
43	0xc099cc06	-4.806155
44	0xc0b2c3e3	-5.586412
45	0xc0b6bc7d	-5.710509
46	0xc0b02900	-5.505005
47	0xc0ac27c0	-5.3798523
48	0xc0a5fb2b	-5.18691
49	0xc0ac7d95	-5.39033
50	0xc0a94571	-5.2897267
51	0xc09d6c1d	-4.9194474
52	0xc098cf49	-4.7753034
53	0xc09ca913	-4.895639
54	0xc09a5607	-4.8230014
55	0xc0b3fb52	-5.6244287
56	0xc0b55abf	-5.6673274
57	0xc0b0c8b4	-5.5245
58	0xc0aed647	-5.463657
59	0xc0a53e4e	-5.1638556
60	0xc0ac5cee	-5.386344
61	0xc0ac219c	-5.3791027
62	0xc0ab6c7a	-5.356992
63	0xc09cb3d4	-4.8969517
64	0xc09b2086	-4.84772
65	0xc09cf5db	-4.9050117
66	0xc0a82106	-5.254031
67	0xc0a67583	-5.2018447
68	0xc0a78796	-5.235301
69	0xc09a8d3a	-4.8297396
70	0xc09a4973	-4.821466
71	0xc09d7044	-4.9199543
72	0xc096aaf3	-4.708368
73	0xc098c63e	-4.7741995
74	0xc098f353	-4.7797027
75	0xc0963864	-4.6943836
76	0xc097c66d	-4.742972
77	0xc0b45b1b	-5.6361213
78	0xc0af11de	-5.470931
79	0xc0b30f47	-5.595615
80	0xc0a9c0b9	-5.3047757
81	0xc0a66294	-5.1995335
82	0xc0ae156f	-5.4401164
83	0xc0ad35d0	-5.412819
84	0xc0aada2a	-5.3391314
85	0xc09c0937	-4.876125
86	0xc09f3af6	-4.9759474
87	0xc09926ed	-4.7860017
88	0xc0b183ac	-5.547323
89	0xc0b52c9d	-5.661696
90	0xc0b2c1bf	-5.5861506
91	0xc0ad11ec	-5.4084377
92	0xc0a49cf7	-5.1441607
93	0xc0accb2c	-5.3998013
94	0xc0aac23a	-5.3362093
95	0xc0a7197d	-5.2218614
96	0xc09f9ea5	-4.988116
97	0xc09b140f	-4.8461986
98	0xc09d47c0	-4.9150085
99	0xc0b139ac	-5.53829
100	0xc0ac2d3b	-5.3805213
101	0xc0ac51f1	-5.3850026
102	0xc0a9a752	-5.301675
103	0xc0a4a7c1	-5.145478
104	0xc0aaf06b	-5.341848
105	0xc0a699aa	-5.206258
106	0xc0a002d3	-5.0003448
107	0xc098ae68	-4.77129
108	0xc097d7c5	-4.745089
109	0xc0976098	-4.730541
110	0xc0b12aac	-5.536459
111	0xc0b06f35	-5.513575
112	0xc0ad62f8	-5.418331
113	0xc0a9af68	-5.302662
114	0xc09fa033	-4.9883056
115	0xc0a4cc4e	-5.1499395
116	0xc0a74606	-5.227298
117	0xc099679d	-4.793898
118	0xc0945e85	-4.636538
119	0xc097f26a	-4.7483416
120	0xc095fbc8	-4.686985
121	0xc0b175b6	-5.545619
122	0xc0b1e26a	-5.5588884
123	0xc0ad8091	-5.421944
124	0xc0a76cb9	-5.232022
125	0xc0a0fdde	-5.0309896
126	0xc0a41203	-5.1271987
127	0xc0a5928e	-5.17414
128	0xc09ed92f	-4.9640117
129	0xc09b2263	-4.8479476
130	0xc096d74d	-4.713782
131	0xc099999e	-4.800002
132	0xc0b68d53	-5.7047515
133	0xc0ba0f38	-5.8143578
134	0xc0b44721	-5.6336827
135	0xc0ac9885	-5.393618
136	0xc0a64ab3	-5.1966186
137	0xc0ad5a1c	-5.4172497
138	0xc0ab52a0	-5.353836
139	0xc0a329d5	-5.0988564
140	0xc09779ee	-4.733634
141	0xc09d87f7	-4.9228473
142	0xc09804c9	-4.750584
143	0xc0b132f6	-5.537471
144	0xc0b45f68	-5.6366463
145	0xc0b49353	-5.642984
146	0xc0abaa0f	-5.364509
147	0xc0a5264c	-5.160925
148	0xc0ad3f30	-5.4139633
149	0xc0a85852	-5.2607813
150	0xc0a4584d	-5.135779
151	0xc099dc13	-4.8081145
152	0xc09c3eed	-4.8826814
153	0xc09fe5a1	-4.996781
154	0xc0b6033b	-5.6878943
155	0xc0b407f1	-5.6259694
156	0xc0b60f01	-5.6893315
157	0xc0abac59	-5.3647885
158	0xc0a0804d	-5.0156617
159	0xc0ac092e	-5.3761206
160	0xc0a81640	-5.252716
161	0xc0a472d2	-5.139016
162	0xc0985227	-4.7600284
163	0xc09b2770	-4.848564
164	0xc099df59	-4.808514
165	0xc0ad4e47	-5.4158053
166	0xc0b019fb	-5.5031714
167	0xc0ada3f8	-5.4262657
168	0xc0a890c3	-5.267671
169	0xc09fcecf	-4.993995
170	0xc0a7f830	-5.2490463
171	0xc0a4ce73	-5.1502013
172	0xc099e161	-4.808762
173	0xc094c0e3	-4.6485457
174	0xc091e92c	-4.5597134
175	0xc0944f2d	-4.634665
176	0xc0b04373	-5.5082335
177	0xc0b47710	-5.639534
178	0xc0afdecf	-5.4959483
179	0xc0ab5eaf	-5.355308
180	0xc0a6f809	-5.2177777
181	0xc0aaf910	-5.342903
182	0xc0ae77ba	-5.452115
183	0xc0a7e879	-5.247128
184	0xc0a0f1f4	-5.0295353
185	0xc0a2561e	-5.0730124
186	0xc09cf15a	-4.904462
187	0xc0b16b14	-5.544321
188	0xc0b21d83	-5.5661025
189	0xc0af1c9a	-5.4722414
190	0xc0aa251e	-5.317031
191	0xc0a6430c	-5.1956844
192	0xc0ac8bd7	-5.3920703
193	0xc0a8811c	-5.2657604
194	0xc0a34335	-5.101954
195	0xc09da094	-4.925852
196	0xc09b3ae0	-4.850937
197	0xc09cf867	-4.9053226
198	0xc0a756e9	-5.229359
199	0xc0aa5a08	-5.32349
200	0xc0a8f34f	-5.2797008
201	0xc0987b4c	-4.765051
202	0xc096e469	-4.715382
203	0xc0a11d3d	-5.034819
204	0xc0a03974	-5.0070133
205	0xc095ff65	-4.687426
206	0xc09900fe	-4.781371
207	0xc097252f	-4.723289
208	0xc096c8bd	-4.712004
209	0xc0b7589a	-5.7295656
210	0xc0aea7c3	-5.4579787
211	0xc0b35615	-5.604258
212	0xc0ad73fd	-5.4204087
213	0xc0a5408c	-5.1641293
214	0xc0ad390c	-5.4132137
215	0xc0ab24da	-5.3482485
216	0xc0a76e7d	-5.2322373
217	0xc0980bfe	-4.751464
218	0xc099f878	-4.8115807
219	0xc0971ea4	-4.7224903
220	0xc0b35eee	-5.605338
221	0xc0b60eb3	-5.6892943
222	0xc0b144d8	-5.539654
223	0xc0ab721c	-5.3576794
224	0xc0a5f0f1	-5.185662
225	0xc0aafc8b	-5.343328
226	0xc0aaa01e	-5.3320456
227	0xc0a79d4f	-5.2379527
228	0xc09e27d0	-4.94236
229	0xc098f689	-4.7800946
230	0xc09d3a9c	-4.9134045
231	0xc0b52d64	-5.661791
232	0xc0b4da12	-5.65162
233	0xc0aca934	-5.3956547
234	0xc0ab3094	-5.34968
235	0xc0a8198d	-5.253119
236	0xc0ac6e1c	-5.388441
237	0xc0a90f58	-5.283123
238	0xc0a29ac9	-5.0813947
239	0xc09b2ca8	-4.849201
240	0xc09be8d0	-4.8721695
241	0xc09ea2c4	-4.957369
242	0xc0b4a876	-5.645564
243	0xc0b53053	-5.662149
244	0xc0b12fcd	-5.537085
245	0xc0b0f1ff	-5.5295405
246	0xc0a93673	-5.2878966
247	0xc0adc5cf	-5.4303966
248	0xc0a7e563	-5.2467513
249	0xc0aa40c2	-5.320405
250	0xc09c3e1a	-4.8825808
251	0xc09d0445	-4.906771
252	0xc09d33e3	-4.912584
253	0xc0aee4eb	-5.465444
254	0xc0b22541	-5.5670476
255	0xc0afc207	-5.492435

blinear1.bias_mu f4 [24]
0	0xbd1f6afc	-0.038920388
1	0x3d1d55cc	0.0384119
2	0x3d797124	0.060898915
3	0x3c8bf42b	0.017084202
4	0x3d1cee4b	0.03831319
5	0x3d670bab	0.05640761
6	0x3ca07329	0.019586163
7	0x3d622008	0.05520633
8	0x3dd25922	0.10270907
9	0x3d770db6	0.06031581
10	0x3c60bc2a	0.013716737
11	0x3ce8fd50	0.028441101
12	0x3d576ee0	0.052595973
13	0x3d005bff	0.031337734
14	0x3d274bad	0.040843654
15	0x3c84ac9e	0.016195592
16	0x3d768576	0.060185872
17	0x3d3f0b05	0.04664137
18	0x3c1ef4e5	0.009701942
19	0x3d18b01a	0.03727732
20	0x3d4ff628	0.050771862
21	0x3d23b793	0.039969992
22	0x3d85c289	0.06531245
23	0x3d310cdf	0.043225165

blinear1.bias_rho f4 [24]
0	0xc09e10b3	-4.9395385
1	0xc096c946	-4.7120695
2	0xc09bcb5e	-4.868575
3	0xc0988a10	-4.7668533
4	0xc0976038	-4.7304955
5	0xc09b9f2d	-4.8631806
6	0xc09476e9	-4.6395154
7	0xc09c7466	-4.889209
8	0xc09aaf41	-4.8338933
9	0xc09da169	-4.9259534
10	0xc098f546	-4.7799406
11	0xc0966176	-4.699397
12	0xc09a9a7d	-4.8313584
13	0xc09b6d95	-4.8571267
14	0xc096d907	-4.7139926
15	0xc0956ad0	-4.6692886
16	0xc099e67b	-4.809385
17	0xc099f8ea	-4.811635
18	0xc096944f	-4.705604
19	0xc09ab5ee	-4.834708
20	0xc09b52bc	-4.8538494
21	0xc098e2ff	-4.7777095
22	0xc09aa8eb	-4.83312
23	0xc0a0d933	-5.0265136

blinear1.weight_sampler.mu f4 [24, 11]
0	0xbd9ddb24	-0.077078134
1	0xbe9f3c4b	-0.31100687
2	0xbd80c040	-0.06286669
3	0xbda3e2aa	-0.08002217
4	0x3c1b1687	0.00946582
5	0xbe1f70c9	-0.15570368
6	0xbd086020	-0.033294797
7	0x3cf32b32	0.029683683
8	0x3d6c6019	0.057708833
9	0x3d030b84	0.031993404
10	0x3d491a56	0.04909738
11	0x3cce4036	0.025177103
12	0xbd29ed77	-0.04148623
13	0x3c34318d	0.010998142
14	0x3cbb0f1d	0.022834355
15	0xbc45fafc	-0.012083765
16	0x3e09a149	0.13440432
17	0x3d88d3be	0.066810116
18	0x3d61bde2	0.055112727
19	0x3c769953	0.015051204
20	0xbd41ab2b	-0.04728238
21	0xbc738c33	-0.014864969
22	0xbc913cc0	-0.017729163
23	0xbdb8bea0	-0.09020734
24	0x3cf5e99a	0.030018616
25	0x3dafe1ce	0.08587991
26	0x3e060ff6	0.13092026
27	0x3dba3857	0.09092777
28	0x3d757f4d	0.059935857
29	0x3d8b3266	0.06796722
30	0xbc86ae60	-0.01644057
31	0xbd231bbd	-0.039821375
32	0xbd4a261d	-0.049352754
33	0xbd331c64	-0.043728247
34	0x3c98db73	0.018659329
35	0xbd94ac43	-0.07259419
36	0x3ddf7114	0.1091024
37	0xbdbaa018	-0.09112567
38	0x3e02e1b7	0.12781416
39	0x3e3293bd	0.1743917
40	0xbe50760a	-0.20357528
41	0xbc5cda40	-0.013479769
42	0xbdb489e4	-0.08815363
43	0xbd3cd0a5	-0.046097416
44	0xbdaddac3	-0.08488991
45	0x3ce6dc75	0.028181294
46	0xbc907109	-0.017632024
47	0x3e234009	0.15942396
48	0x3e096252	0.13416412
49	0x3ca84a8b	0.020543357
50	0x3e3c38cc	0.18381041
51	0xbe476209	-0.19470991
52	0xbd1d1102	-0.038346298
53	0xbdb0ff20	-0.08642411
54	0xbd586784	-0.052833095
55	0x3d29bc3b	0.041439276
56	0x3d164460	0.0366863
57	0x3d230d25	0.039807457
58	0x3dd6b0df	0.10482954
59	0x3dd4880d	0.10377512
60	0x3db7e12d	0.08978496
61	0x3dafc77d	0.08582971
62	0x3d387b3f	0.04503941
63	0x3ad598b6	0.0016296122
64	0xbdad1cbf	-0.084527485
65	0xbda7d392	-0.08194651
66	0x3ddb2619	0.10700626
67	0xbe0f1caa	-0.13975778
68	0x3d14ac16	0.036296926
69	0x3df7c141	0.12097407
70	0x3cec000a	0.028808612
71	0x3d3dfe42	0.046385057
72	0xbca8dfad	-0.02061447
73	0x3d8a7935	0.067614
74	0x3c4f4e33	0.0126529215
75	0xbb0386fc	-0.002006947
76	0xbc3038f4	-0.010755766
77	0x3c6727f6	0.0141086485
78	0x3c0fe595	0.008782764
79	0x3d02c62c	0.031927273
80	0x3df31e49	0.11871011
81	0x3df9660f	0.12177669
82	0x3dbd464c	0.09241924
83	0x3d1f2556	0.038853966
84	0x3d45b695	0.048269827
85	0xba6f60da	-0.00091315585
86	0xbdb4c70d	-0.088270284
87	0xbdb6afcb	-0.089202486
88	0x3d05d902	0.032677658
89	0x3cb6e9f3	0.022328353
90	0x3d04d83e	0.032432787
91	0x3de64b42	0.11244823
92	0x3de07bcc	0.109611124
93	0x3dc081c3	0.0939975
94	0x3d846bc5	0.06465868
95	0x3cc6c2bf	0.024262784
96	0xbc6daa9a	-0.014506007
97	0xbe1ec49c	-0.15504688
98	0xbda92381	-0.08258725
99	0x3c840b29	0.016118603
100	0xbce7d68d	-0.028300548
101	0x3d801749	0.06254441
102	0x3da30462	0.0795982
103	0x3e05fd03	0.13084798
104	0x3d7b726e	0.061388426
105	0x3dd05ccb	0.10173949
106	0x3dd6803c	0.104736775
107	0x3d0c8bd5	0.03431304
108	0xbd5cbc40	-0.053890467
109	0xbd7ee0ff	-0.06222629
110	0xbd767dd8	-0.060178608
111	0xbb40e7c4	-0.0029435018
112	0xbcc9fbc1	-0.024656178
113	0x3db93716	0.0904371
114	0x3d0261f7	0.031831708
115	0x3d08e5d4	0.033422306
116	0x3dc922de	0.098211035
117	0xbe06f160	-0.13178015
118	0xbcd9cf45	-0.026588092
119	0xbd7de056	-0.06198152
120	0xbd44783a	-0.04796622
121	0xbcce2c51	-0.025167616
122	0xbaaf621b	-0.0013380678
123	0xbde33957	-0.11094921
124	0x3dd5b2f5	0.10434524
125	0xbc88b44d	-0.016687537
126	0x3e126024	0.14294487
127	0x3e23fa2f	0.16013406
128	0xbe533c36	-0.20628437
129	0xbc7e805f	-0.015533536
130	0xbd8d74bf	-0.06907033
131	0xbba43af3	-0.00501191
132	0xbc838f6b	-0.016059598
133	0x3a6d285c	0.00090468465
134	0x3cd7e969	0.026356416
135	0x3e1503b3	0.14552192
136	0x3de4a43f	0.1116414
137	0x3dbb1638	0.09135097
138	0x3dba974d	0.091108896
139	0x3d0304b4	0.031986907
140	0xbc125d88	-0.008933432
141	0xbd8a7f33	-0.067625426
142	0xbd96e4cc	-0.07367858
143	0x3c5ef958	0.013609253
144	0xbc09cb04	-0.008410219
145	0x3d8d3585	0.06894974
146	0x3dcc4633	0.09974327
147	0x3dd11932	0.10209884
148	0x3dc092f5	0.0940303
149	0xbe1dc3de	-0.15406749
150	0x3dd62df4	0.104579836
151	0xbc6bfe6f	-0.014403923
152	0xbda7b26a	-0.08188327
153	0xbd919c77	-0.071099214
154	0x3d2e8c07	0.04261401
155	0x3cd753ff	0.02628517
156	0x3d0517b2	0.0324933
157	0x3d5fd3c2	0.054645307
158	0x3dbc7460	0.09201884
159	0x3da267dc	0.07929966
160	0x3d905dd6	0.07049148
161	0x3d5c0cce	0.05372315
162	0x3bda37a9	0.0066594672
163	0xbd877604	-0.066143066
164	0xbd4dc79a	-0.050239183
165	0xbd5029ed	-0.050821234
166	0xbb87340d	-0.004126078
167	0xbcffed57	-0.031241102
168	0x3da1fa13	0.07909026
169	0x3cb49119	0.022041844
170	0x3d977edf	0.073972456
171	0x3db3cf0d	0.08779726
172	0xbe095ea6	-0.13415012
173	0xbcee1596	-0.029063027
174	0xbd88d36b	-0.0668095
175	0xbd11f04c	-0.035629556
176	0x3cfda63e	0.03096306
177	0x3b95c0aa	0.0045700865
178	0x3d16cf6c	0.036818907
179	0x3d65232d	0.05594175
180	0x3dec0efe	0.11526297
181	0x3de914f0	0.11380947
182	0x3e82bde2	0.25535494
183	0x3d1ad284	0.03779842
184	0x3bae263a	0.0053146156
185	0xbd9f3e89	-0.077755995
186	0xbd9f1c3e	-0.07769059
187	0xbb1d56b5	-0.002400798
188	0xbcb582a9	-0.02215703
189	0x3d040c6d	0.032238413
190	0x3ddbf45f	0.107399695
191	0x3e0229d8	0.12711275
192	0x3dca547d	0.09879396
193	0x3d8aa4e6	0.06769733
194	0x3d175ec3	0.036955606
195	0xbbc24902	-0.0059291134
196	0xbd676e12	-0.056501456
197	0xbd9b0d65	-0.07570914
198	0xbd4441d9	-0.04791436
199	0xbe6305bc	-0.22170156
200	0x3da61fcf	0.08111536
201	0x3d3ebb3c	0.04656528
202	0x3d9b7e45	0.075924434
203	0x3db34801	0.08753968
204	0x3bf0e9aa	0.0073520737
205	0xbd31bf5f	-0.043395396
206	0xbc433b7b	-0.011916037
207	0xbc680d78	-0.014163367
208	0xbb7cca2d	-0.0038572655
209	0x3cd867a5	0.026416609
210	0xbb45220b	-0.0030080106
211	0x3c809d8b	0.015700122
212	0x3dd9d229	0.10635788
213	0x3da280f8	0.07934755
214	0x3d80820d	0.06274805
215	0x3da0ad6d	0.07845578
216	0x3d154307	0.036440875
217	0x3c27417c	0.010208484
218	0xbd822e01	-0.06356431
219	0xbce8b3fc	-0.028406136
220	0x3bd84b06	0.0066007404
221	0xbcb6e8ae	-0.022327747
222	0x3cd6f941	0.0262419
223	0x3dd4391d	0.10362456
224	0x3cfaa97b	0.030598393
225	0x3e0b5aaa	0.13608804
226	0x3d9018d6	0.07035987
227	0x3d01ff79	0.03173778
228	0xbc182a1f	-0.009287386
229	0xbd8d22eb	-0.06891426
230	0xbd8de6da	-0.06928797
231	0x3db0e184	0.08636764
232	0x3d54e1f8	0.051973313
233	0x3d84aed3	0.064786576
234	0x3dbd9c0f	0.092582814
235	0x3e05b4b3	0.13057213
236	0x3e0a27d4	0.13491756
237	0xbdc40a2e	-0.09572254
238	0x3e04752a	0.1293532
239	0x3c4bd4d5	0.01244088
240	0xbd8b2173	-0.06793489
241	0xbd2a5da0	-0.041593194
242	0x3cae9eb3	0.021315908
243	0x3cee11ad	0.029061163
244	0x3d06b5d0	0.032888234
245	0x3de562e7	0.11200505
246	0x3ddf05c9	0.10889775
247	0x3ddc250d	0.107492544
248	0x3d943bf4	0.07237998
249	0x3d3e792d	0.04650228
250	0xbb9db41e	-0.0048127314
251	0xbdaeae15	-0.08529297
252	0xbd9498d8	-0.07255715
253	0x3cb489d9	0.022038387
254	0x3cc3daf0	0.023908108
255	0x3cad8909	0.021183508

blinear1.weight_sampler.rho f4 [24, 11]
0	0xc0b25434	-5.5727787
1	0xc0b502d7	-5.6565967
2	0xc0b57dda	-5.6716127
3	0xc0aaa37c	-5.3324566
4	0xc0accf45	-5.4003015
5	0xc0ad8367	-5.4222903
6	0xc0b083bf	-5.5160823
7	0xc0aa73f1	-5.326653
8	0xc09ba29f	-4.863601
9	0xc0979488	-4.7368813
10	0xc09454bf	-4.635345
11	0xc0adccbc	-5.431242
12	0xc0b21b5b	-5.5658393
13	0xc0b3e56b	-5.621755
14	0xc0a9b481	-5.303284
15	0xc0a0ca3f	-5.0246882
16	0xc0a80006	-5.250003
17	0xc0a70b17	-5.2201037
18	0xc0a008da	-5.0010805
19	0xc099f776	-4.8114576
20	0xc09a1325	-4.814837
21	0xc092cdfb	-4.587644
22	0xc0af7251	-5.4827046
23	0xc0acb846	-5.3974943
24	0xc0ae104b	-5.439489
25	0xc0a59fd9	-5.1757627
26	0xc0a139fa	-5.038327
27	0xc0a92a7c	-5.286436
28	0xc0a626dd	-5.192244
29	0xc0a2f6e8	-5.09264
30	0xc0999837	-4.799831
31	0xc095bd83	-4.6793838
32	0xc09944b2	-4.7896357
33	0xc0af70b3	-5.482507
34	0xc0b1d44e	-5.557166
35	0xc0b818fb	-5.7530494
36	0xc0ad0a58	-5.4075127
37	0xc0a5b1ea	-5.177968
38	0xc0ab1c74	-5.3472233
39	0xc0ae2be2	-5.442857
40	0xc0a112c2	-5.03354
41	0xc0999ae7	-4.800159
42	0xc099bc6b	-4.8042502
43	0xc099cc06	-4.806155
44	0xc0b2c3e3	-5.586412
45	0xc0b6bc7d	-5.710509
46	0xc0b02900	-5.505005
47	0xc0ac27c0	-5.3798523
48	0xc0a5fb2b	-5.18691
49	0xc0ac7d95	-5.39033
50	0xc0a94571	-5.2897267
51	0xc09d6c1d	-4.9194474
52	0xc098cf49	-4.7753034
53	0xc09ca913	-4.895639
54	0xc09a5607	-4.8230014
55	0xc0b3fb52	-5.6244287
56	0xc0b55abf	-5.6673274
57	0xc0b0c8b4	-5.5245
58	0xc0aed647	-5.463657
59	0xc0a53e4e	-5.1638556
60	0xc0ac5cee	-5.386344
61	0xc0ac219c	-5.3791027
62	0xc0ab6c7a	-5.356992
63	0xc09cb3d4	-4.8969517
64	0xc09b2086	-4.84772
65	0xc09cf5db	-4.9050117
66	0xc0a82106	-5.254031
67	0xc0a67583	-5.2018447
68	0xc0a78796	-5.235301
69	0xc09a8d3a	-4.8297396
70	0xc09a4973	-4.821466
71	0xc09d7044	-4.9199543
72	0xc096aaf3	-4.708368
73	0xc098c63e	-4.7741995
74	0xc098f353	-4.7797027
75	0xc0963864	-4.6943836
76	0xc097c66d	-4.742972
77	0xc0b45b1b	-5.6361213
78	0xc0af11de	-5.470931
79	0xc0b30f47	-5.595615
80	0xc0a9c0b9	-5.3047757
81	0xc0a66294	-5.1995335
82	0xc0ae156f	-5.4401164
83	0xc0ad35d0	-5.412819
84	0xc0aada2a	-5.3391314
85	0xc09c0937	-4.876125
86	0xc09f3af6	-4.9759474
87	0xc09926ed	-4.7860017
88	0xc0b183ac	-5.547323
89	0xc0b52c9d	-5.661696
90	0xc0b2c1bf	-5.5861506
91	0xc0ad11ec	-5.4084377
92	0xc0a49cf7	-5.1441607
93	0xc0accb2c	-5.3998013
94	0xc0aac23a	-5.3362093
95	0xc0a7197d	-5.2218614
96	0xc09f9ea5	-4.988116
97	0xc09b140f	-4.8461986
98	0xc09d47c0	-4.9150085
99	0xc0b139ac	-5.53829
100	0xc0ac2d3b	-5.3805213
101	0xc0ac51f1	-5.3850026
102	0xc0a9a752	-5.301675
103	0xc0a4a7c1	-5.145478
104	0xc0aaf06b	-5.341848
105	0xc0a699aa	-5.206258
106	0xc0a002d3	-5.0003448
107	0xc098ae68	-4.77129
108	0xc097d7c5	-4.745089
109	0xc0976098	-4.730541
110	0xc0b12aac	-5.536459
111	0xc0b06f35	-5.513575
112	0xc0ad62f8	-5.418331
113	0xc0a9af68	-5.302662
114	0xc09fa033	-4.9883056
115	0xc0a4cc4e	-5.1499395
116	0xc0a74606	-5.227298
117	0xc099679d	-4.793898
118	0xc0945e85	-4.636538
119	0xc097f26a	-4.7483416
120	0xc095fbc8	-4.686985
121	0xc0b175b6	-5.545619
122	0xc0b1e26a	-5.5588884
123	0xc0ad8091	-5.421944
124	0xc0a76cb9	-5.232022
125	0xc0a0fdde	-5.0309896
126	0xc0a41203	-5.1271987
127	0xc0a5928e	-5.17414
128	0xc09ed92f	-4.9640117
129	0xc09b2263	-4.8479476
130	0xc096d74d	-4.713782
131	0xc099999e	-4.800002
132	0xc0b68d53	-5.7047515
133	0xc0ba0f38	-5.8143578
134	0xc0b44721	-5.6336827
135	0xc0ac9885	-5.393618
136	0xc0a64ab3	-5.1966186
137	0xc0ad5a1c	-5.4172497
138	0xc0ab52a0	-5.353836
139	0xc0a329d5	-5.0988564
140	0xc09779ee	-4.733634
141	0xc09d87f7	-4.9228473
142	0xc09804c9	-4.750584
143	0xc0b132f6	-5.537471
144	0xc0b45f68	-5.6366463
145	0xc0b49353	-5.642984
146	0xc0abaa0f	-5.364509
147	0xc0a5264c	-5.160925
148	0xc0ad3f30	-5.4139633
149	0xc0a85852	-5.2607813
150	0xc0a4584d	-5.135779
151	0xc099dc13	-4.8081145
152	0xc09c3eed	-4.8826814
153	0xc09fe5a1	-4.996781
154	0xc0b6033b	-5.6878943
155	0xc0b407f1	-5.6259694
156	0xc0b60f01	-5.6893315
157	0xc0abac59	-5.3647885
158	0xc0a0804d	-5.0156617
159	0xc0ac092e	-5.3761206
160	0xc0a81640	-5.252716
161	0xc0a472d2	-5.139016
162	0xc0985227	-4.7600284
163	0xc09b2770	-4.848564
164	0xc099df59	-4.808514
165	0xc0ad4e47	-5.4158053
166	0xc0b019fb	-5.5031714
167	0xc0ada3f8	-5.4262657
168	0xc0a890c3	-5.267671
169	0xc09fcecf	-4.993995
170	0xc0a7f830	-5.2490463
171	0xc0a4ce73	-5.1502013
172	0xc099e161	-4.808762
173	0xc094c0e3	-4.6485457
174	0xc091e92c	-4.5597134
175	0xc0944f2d	-4.634665
176	0xc0b04373	-5.5082335
177	0xc0b47710	-5.639534
178	0xc0afdecf	-5.4959483
179	0xc0ab5eaf	-5.355308
180	0xc0a6f809	-5.2177777
181	0xc0aaf910	-5.342903
182	0xc0ae77ba	-5.452115
183	0xc0a7e879	-5.247128
184	0xc0a0f1f4	-5.0295353
185	0xc0a2561e	-5.0730124
186	0xc09cf15a	-4.904462
187	0xc0b16b14	-5.544321
188	0xc0b21d83	-5.5661025
189	0xc0af1c9a	-5.4722414
190	0xc0aa251e	-5.317031
191	0xc0a6430c	-5.1956844
192	0xc0ac8bd7	-5.3920703
193	0xc0a8811c	-5.2657604
194	0xc0a34335	-5.101954
195	0xc09da094	-4.925852
196	0xc09b3ae0	-4.850937
197	0xc09cf867	-4.9053226
198	0xc0a756e9	-5.229359
199	0xc0aa5a08	-5.32349
200	0xc0a8f34f	-5.2797008
201	0xc0987b4c	-4.765051
202	0xc096e469	-4.715382
203	0xc0a11d3d	-5.034819
204	0xc0a03974	-5.0070133
205	0xc095ff65	-4.687426
206	0xc09900fe	-4.781371
207	0xc097252f	-4.723289
208	0xc096c8bd	-4.712004
209	0xc0b7589a	-5.7295656
210	0xc0aea7c3	-5.4579787
211	0xc0b35615	-5.604258
212	0xc0ad73fd	-5.4204087
213	0xc0a5408c	-5.1641293
214	0xc0ad390c	-5.4132137
215	0xc0ab24da	-5.3482485
216	0xc0a76e7d	-5.2322373
217	0xc0980bfe	-4.751464
218	0xc099f878	-4.8115807
219	0xc0971ea4	-4.7224903
220	0xc0b35eee	-5.605338
221	0xc0b60eb3	-5.6892943
222	0xc0b144d8	-5.539654
223	0xc0ab721c	-5.3576794
224	0xc0a5f0f1	-5.185662
225	0xc0aafc8b	-5.343328
226	0xc0aaa01e	-5.3320456
227	0xc0a79d4f	-5.2379527
228	0xc09e27d0	-4.94236
229	0xc098f689	-4.7800946
230	0xc09d3a9c	-4.9134045
231	0xc0b52d64	-5.661791
232	0xc0b4da12	-5.65162
233	0xc0aca934	-5.3956547
234	0xc0ab3094	-5.34968
235	0xc0a8198d	-5.253119
236	0xc0ac6e1c	-5.388441
237	0xc0a90f58	-5.283123
238	0xc0a29ac9	-5.0813947
239	0xc09b2ca8	-4.849201
240	0xc09be8d0	-4.8721695
241	0xc09ea2c4	-4.957369
242	0xc0b4a876	-5.645564
243	0xc0b53053	-5.662149
244	0xc0b12fcd	-5.537085
245	0xc0b0f1ff	-5.5295405
246	0xc0a93673	-5.2878966
247	0xc0adc5cf	-5.4303966
248	0xc0a7e563	-5.2467513
249	0xc0aa40c2	-5.320405
250	0xc09c3e1a	-4.8825808
251	0xc09d0445	-4.906771
252	0xc09d33e3	-4.912584
253	0xc0aee4eb	-5.465444
254	0xc0b22541	-5.5670476
255	0xc0afc207	-5.492435

blinear1.weight_sampler.eps_w f4 [24, 11]
0	0xbf106ae2	-0.5641309
1	0xbf060cf5	-0.5236352
2	0x3eed67cc	0.46368253
3	0x3edc027f	0.42970654
4	0x3ed0d9af	0.4079108
5	0x3df7ce64	0.12099913
6	0xbf93caa1	-1.1546212
7	0x3ca5a7ef	0.020221679
8	0x3fa8a8e3	1.317654
9	0xbe306738	-0.17226875
10	0xbed240c7	-0.41065046
11	0xbed0192e	-0.4064421
12	0xbf035d2d	-0.5131405
13	0x3e6fec00	0.2342987
14	0x3f4f1998	0.8089843
15	0xc01ae937	-2.4204843
16	0xbf1b730e	-0.60722435
17	0x3ede4b5e	0.43416876
18	0x3fa0fc1e	1.257694
19	0xbec12cc1	-0.37729457
20	0x3f6fed46	0.93721426
21	0x3daf6165	0.085634984
22	0xbf23deb7	-0.6401171
23	0xbddaa80d	-0.106765844
24	0x3f836144	1.0264058
25	0xbf8a4c1b	-1.0804476
26	0x3f3ad268	0.72977304
27	0xbfe8186e	-1.8132455
28	0xbf9e83d2	-1.2383978
29	0xbed39baf	-0.41329715
30	0x3ee2736a	0.4422868
31	0x3f7e15fb	0.9925229
32	0x3f57437e	0.8408736
33	0xbf770761	-0.96495634
34	0xbf84386c	-1.0329719
35	0x3f0c9fcc	0.5493133
36	0x3e52192e	0.20517418
37	0x3f1b72bb	0.6072194
38	0x3fe024ce	1.7511232
39	0x3dfcd973	0.12346163
40	0x3e9a289c	0.30109107
41	0xbfa505d6	-1.2892406
42	0xbed4723f	-0.41493413
43	0x3f3918b1	0.723033
44	0xbf551ba3	-0.83245295
45	0xbfec5592	-1.8463614
46	0x3f92689a	1.1438172
47	0x400b6153	2.1778152
48	0x4012eab4	2.2955751
49	0xbf9a9144	-1.2075582
50	0x3dced7cb	0.10099753
51	0xbf33c2f7	-0.7021937
52	0x3e747d2a	0.23875871
53	0x3f9eaa1a	1.2395661
54	0x3faaa697	1.3332089
55	0x3f29556d	0.66145974
56	0x40121049	2.282244
57	0x3fcd798d	1.6052719
58	0x3dc71ff8	0.097228944
59	0xc00f8ed0	-2.2430916
60	0x3f8da44b	1.1065763
61	0xbf84f74d	-1.038797
62	0xbe977c4b	-0.29587016
63	0x3fffb701	1.9977723
64	0xbf541f17	-0.8285994
65	0x3e9bfc23	0.30465803
66	0xbfc314f4	-1.5240769
67	0x3fd0c7e6	1.6311004
68	0xbf9a3d31	-1.2049924
69	0x3de858e2	0.11345078
70	0x3fadbf02	1.3573916
71	0x3effc485	0.4995462
72	0x3f1a43e9	0.6025987
73	0x3f13b3c7	0.57696193
74	0x3f9d5b8d	1.2293564
75	0xbe3c4b04	-0.18387991
76	0x3fcda053	1.6064552
77	0x401fc70c	2.4965239
78	0x3e58474c	0.21120948
79	0x3f813645	1.0094687
80	0xbe9b5e30	-0.30345297
81	0x3f4f99e5	0.810942
82	0x3ed6bf13	0.41942653
83	0xbec9c53d	-0.39408293
84	0x3e5011f6	0.20319352
85	0xbe233bd3	-0.1594079
86	0x3cec445b	0.028841188
87	0xbff7ddd5	-1.9364573
88	0xbe6626ba	-0.2247571
89	0x3f2d4671	0.6768561
90	0x3f81b4b2	1.0133269
91	0xbf4b4371	-0.7939978
92	0x3e8b6c8b	0.2723125
93	0xbebc93e3	-0.3683158
94	0x3f4ca14f	0.7993364
95	0xbf33e5e0	-0.70272636
96	0x3f0aaa7e	0.541664
97	0xbd16ec64	-0.036846533
98	0x3f0d9234	0.55301213
99	0x3f9721d4	1.1807199
100	0x3fd93878	1.6970358
101	0x3fad9ea7	1.3564042
102	0x3f80c695	1.0060602
103	0x3f91a453	1.1378273
104	0xbea48453	-0.32132205
105	0xbe450507	-0.19240199
106	0xbed5cb1c	-0.41756523
107	0x3cb9618d	0.022629524
108	0x3dd56a02	0.1042061
109	0xbe5a0edc	-0.21294731
110	0xbd924b61	-0.07143284
111	0x3f132fba	0.574947
112	0x3f89b159	1.0757247
113	0xbf76b1ac	-0.96364856
114	0x3ec57942	0.38569075
115	0xbeb2b778	-0.349056
116	0xbf9227b0	-1.1418362
117	0x3ef49748	0.47771668
118	0xbf361a9c	-0.7113435
119	0xbf8f7a4f	-1.1209201
120	0xbfec6800	-1.8469238
121	0xbf7fd0a2	-0.99927723
122	0xbe793657	-0.24337135
123	0x3f638285	0.8887103
124	0x3ed34b20	0.41268253
125	0x3f4cccc2	0.79999936
126	0xbf0d12f8	-0.5510707
127	0x3f4003e0	0.7500591
128	0xbe6affef	-0.22949193
129	0xbecfc266	-0.40578002
130	0x3f714ab3	0.94254607
131	0x3f3d30f4	0.7390282
132	0x4007536a	2.1144662
133	0xbfcda32b	-1.606542
134	0xbecf606d	-0.40503255
135	0xbf4713c4	-0.77764535
136	0xbfac83b6	-1.3477695
137	0xbf5f73b2	-0.8728591
138	0xbe6d33db	-0.23164313
139	0x3e1fb25e	0.15595385
140	0xbf4a5c6c	-0.79047275
141	0xbf32afcd	-0.697995
142	0xbf9053af	-1.1275538
143	0xbfae1434	-1.3599916
144	0x3e776c35	0.24162371
145	0x3dbd1908	0.0923329
146	0x3eeeb96f	0.4662585
147	0xbfa347ee	-1.2756326
148	0xc038cdb5	-2.8875554
149	0xbf80df6c	-1.0068183
150	0x3f597290	0.84940434
151	0xbf7284c3	-0.9473383
152	0x3d0f5828	0.03499618
153	0xbf4d189c	-0.80115676
154	0x3e564ea0	0.2092843
155	0x3eb91444	0.36148274
156	0xbe272d76	-0.16325936
157	0xbf09bad1	-0.53800684
158	0x3ebe9e58	0.37230182
159	0x3f524010	0.82129
160	0xbffed075	-1.9907366
161	0x3e0acb88	0.13554204
162	0xbf9e1eb9	-1.2353126
163	0xbf9d7f1d	-1.2304417
164	0xbfbf3165	-1.4936949
165	0xbf420ca8	-0.7580056
166	0xbf260ea9	-0.6486612
167	0x3da49cb7	0.080377035
168	0x3f9b451a	1.2130463
169	0x3ff9eb96	1.952502
170	0xbf99d4c3	-1.2018055
171	0xbf07fe35	-0.53122264
172	0x3ecb9496	0.397618
173	0xbe205274	-0.15656453
174	0x3e5bd577	0.21468149
175	0x3f58e47d	0.84723645
176	0xbf2b123c	-0.668247
177	0x3f99c91a	1.2014496
178	0xbeff7c33	-0.49899444
179	0x3fc1e2b3	1.5147308
180	0xbebcc9a2	-0.36872584
181	0xbfd150ad	-1.6352745
182	0xbfa84718	-1.3146696
183	0x3f174c4e	0.59100807
184	0x3e5311d3	0.20612268
185	0xbf40a5bc	-0.7525289
186	0x3fcdf5b8	1.6090612
187	0x3f565098	0.83716726
188	0xbf2a9654	-0.6663563
189	0x3f1f2bbd	0.62176114
190	0xbefee6e6	-0.49785537
191	0xbee69dec	-0.4504236
192	0xbf93186d	-1.1491829
193	0xbfc49451	-1.5357763
194	0x3f90d105	1.1313788
195	0x3e352fc0	0.17693996
196	0xbfdd594e	-1.7292879
197	0xbfdc40b8	-1.720725
198	0x3fab7b42	1.339699
199	0x3ec08f1e	0.3760919
200	0x3c480b64	0.012209747
201	0xbf2bdf3c	-0.67137504
202	0x3e71cbfb	0.23612969
203	0xbf8729c7	-1.0559624
204	0x3f749741	0.95543295
205	0xbfda3813	-1.7048362
206	0xbf902ba8	-1.1263323
207	0x3f2a432e	0.6650876
208	0x3f2393d4	0.6389744
209	0xbf0ad415	-0.5422986
210	0x3e56e226	0.20984706
211	0x3e9e65d6	0.3093707
212	0x3fa8e3da	1.3194535
213	0x3e3ba92d	0.18326254
214	0x3e9844a2	0.29739863
215	0x3ed79f4b	0.42113718
216	0xbec9e79d	-0.3943452
217	0x3d606d22	0.054791577
218	0x3e084019	0.13305701
219	0x3dea1221	0.11429239
220	0xbf8afd09	-1.085847
221	0x3fd3c454	1.654429
222	0x3e06641e	0.13124129
223	0x3ffaee20	1.960392
224	0x3f8ccaf7	1.099944
225	0xbf02f077	-0.5114817
226	0xbe8b0dde	-0.27159017
227	0xbfbc3aed	-1.4705483
228	0x3f6499b9	0.8929706
229	0xbef0c8d2	-0.47028214
230	0x3f9e2cdc	1.235744
231	0x3f92b36c	1.1461005
232	0xbf315e4a	-0.692845
233	0x3f9c8f23	1.2231182
234	0xbf434f57	-0.7629294
235	0x4015184b	2.3296077
236	0x3e909551	0.2823892
237	0xbfa43cb6	-1.2831028
238	0x3eebef2d	0.46080914
239	0xbf39eb09	-0.7262426
240	0x3f40272a	0.7505976
241	0xbfc222a6	-1.5166824
242	0x3fd803ec	1.6876197
243	0x3f318593	0.69344443
244	0x3dc826d2	0.097730294
245	0x3f07ef10	0.53099155
246	0x3ff7df67	1.9365052
247	0xbf3dfaf1	-0.7421103
248	0xbd95ffa6	-0.07324152
249	0x3f2ff250	0.68729115
250	0x3f4fd107	0.81178325
251	0xbfa97c7c	-1.3241115
252	0xbf1e90e9	-0.61939865
253	0xbf7208df	-0.94544786
254	0xbf143611	-0.57895
255	0x3f3476d7	0.70493835

blinear1.bias_sampler.mu f4 [24]
0	0xbd1f6afc	-0.038920388
1	0x3d1d55cc	0.0384119
2	0x3d797124	0.060898915
3	0x3c8bf42b	0.017084202
4	0x3d1cee4b	0.03831319
5	0x3d670bab	0.05640761
6	0x3ca07329	0.019586163
7	0x3d622008	0.05520633
8	0x3dd25922	0.10270907
9	0x3d770db6	0.06031581
10	0x3c60bc2a	0.013716737
11	0x3ce8fd50	0.028441101
12	0x3d576ee0	0.052595973
13	0x3d005bff	0.031337734
14	0x3d274bad	0.040843654
15	0x3c84ac9e	0.016195592
16	0x3d768576	0.060185872
17	0x3d3f0b05	0.04664137
18	0x3c1ef4e5	0.009701942
19	0x3d18b01a	0.03727732
20	0x3d4ff628	0.050771862
21	0x3d23b793	0.039969992
22	0x3d85c289	0.06531245
23	0x3d310cdf	0.043225165

blinear1.bias_sampler.rho f4 [24]
0	0xc09e10b3	-4.9395385
1	0xc096c946	-4.7120695
2	0xc09bcb5e	-4.868575
3	0xc0988a10	-4.7668533
4	0xc0976038	-4.7304955
5	0xc09b9f2d	-4.8631806
6	0xc09476e9	-4.6395154
7	0xc09c7466	-4.889209
8	0xc09aaf41	-4.8338933
9	0xc09da169	-4.9259534
10	0xc098f546	-4.7799406
11	0xc0966176	-4.699397
12	0xc09a9a7d	-4.8313584
13	0xc09b6d95	-4.8571267
14	0xc096d907	-4.7139926
15	0xc0956ad0	-4.6692886
16	0xc099e67b	-4.809385
17	0xc099f8ea	-4.811635
18	0xc096944f	-4.705604
19	0xc09ab5ee	-4.834708
20	0xc09b52bc	-4.8538494
21	0xc098e2ff	-4.7777095
22	0xc09aa8eb	-4.83312
23	0xc0a0d933	-5.0265136

blinear1.bias_sampler.eps_w f4 [24]
0	0xbf4a03c2	-0.78911984
1	0xbd87892b	-0.066179596
2	0xbfb19d98	-1.3876219
3	0xbf54e786	-0.83165777
4	0x3f97338f	1.181261
5	0x3dc22f62	0.09481694
6	0xbe2b16f2	-0.16707972
7	0x3f8ca3d8	1.0987501
8	0x3f408b71	0.7521277
9	0xbdb1baa6	-0.086781785
10	0xbf212990	-0.62954044
11	0xbf73b21f	-0.95193666
12	0x3ea6925a	0.32533532
13	0xbfc508fd	-1.5393368
14	0xbee45bee	-0.44601387
15	0x3eb2c84c	0.3491844
16	0xc011c56d	-2.277675
17	0xbf739755	-0.9515279
18	0x3eab3c34	0.3344437
19	0xbfc02f07	-1.5014352
20	0xbefc926d	-0.49330464
21	0x3ef54e29	0.47911194
22	0xbe2dea5a	-0.1698393
23	0xbf4173e6	-0.7556747

blinear2.weight_mu f4 [24, 24]
0	0xbe8f6707	-0.2800829
1	0x3d92268d	0.07136259
2	0x3da7ae0c	0.08187494
3	0x3dc90b87	0.09816652
4	0x3deba6ed	0.11506448
5	0x3dda0e62	0.106472746
6	0x3d3780d3	0.04480059
7	0x3dd2c981	0.1029234
8	0x3db737fa	0.089462236
9	0x3daa4f6f	0.08315932
10	0x3da465e3	0.08027246
11	0x3e09714d	0.13422127
12	0x3dc34f65	0.09536628
13	0x3e003c45	0.12522991
14	0x3d7c94e9	0.06166545
15	0x3da3ce1f	0.07998299
16	0x3db13db3	0.08654346
17	0x3de4b64e	0.11167584
18	0x3cacd1d3	0.021096146
19	0x3da42a4a	0.080158785
20	0x3da4c31c	0.08045027
21	0x3db1d5e6	0.08683376
22	0x3dd41717	0.103559665
23	0x3d7d08e5	0.06177606
24	0xbe94c4ef	-0.29056498
25	0x3da37d7b	0.07982918
26	0x3dd24908	0.10267836
27	0x3e0bf0c3	0.13666062
28	0x3e0ae409	0.13563551
29	0x3dcf50cf	0.10122835
30	0x3d2ea09e	0.042633645
31	0x3df92565	0.121653356
32	0x3e00a504	0.12562948
33	0x3dc492a0	0.09598279
34	0x3dd74cc8	0.10512692
35	0x3dde143b	0.108437024
36	0x3e03ef27	0.12884198
37	0x3dded5ff	0.1088066
38	0x3d6a4dda	0.05720315
39	0x3dccd8aa	0.10002263
40	0x3dce904f	0.100861184
41	0x3de51b5e	0.111868605
42	0x3d014789	0.031562362
43	0x3d4beaa7	0.04978433
44	0x3dca6dec	0.09884247
45	0x3db0bdb4	0.08629933
46	0x3df37983	0.11888411
47	0x3d8c1c14	0.06841293
48	0xbe84dd93	-0.25950298
49	0x3caa32d0	0.020776182
50	0x3defe9e0	0.1171453
51	0x3e09346c	0.13398904
52	0x3e0c62b5	0.13709529
53	0x3da6e0b8	0.081483305
54	0x3ca5a44b	0.020219943
55	0x3dcf51d7	0.101230316
56	0x3db0acc9	0.08626706
57	0x3db01322	0.08597399
58	0x3dd26f49	0.10275132
59	0x3dbba1f7	0.09161752
60	0x3dd98243	0.106205486
61	0x3df24df9	0.11831278
62	0x3d8034aa	0.06260045
63	0x3d93fced	0.07225976
64	0x3dd0b6aa	0.101910904
65	0x3dd93781	0.1060629
66	0x3d662020	0.05618298
67	0x3d9a5ce7	0.07537251
68	0x3db8b7bd	0.0901942
69	0x3d91a6c8	0.07111889
70	0x3dd3fd1d	0.10351012
71	0x3d8e4b7a	0.0694799
72	0xbe8b90fe	-0.27259058
73	0x3dad7d0f	0.08471119
74	0x3dca512f	0.09878766
75	0x3dfbbaa3	0.122914575
76	0x3e0c4dc3	0.13701539
77	0x3db8194d	0.08989201
78	0x3d413f15	0.0471793
79	0x3dcc15ab	0.0996507
80	0x3def054a	0.11670931
81	0x3db919f3	0.090381525
82	0x3d9e2d46	0.07723479
83	0x3dc3d7b8	0.095626295
84	0x3db19624	0.08671215
85	0x3dfd74c8	0.1237579
86	0x3d956a19	0.07295627
87	0x3d4144ca	0.047184743
88	0x3e01c5ca	0.12673107
89	0x3de7232e	0.11286007
90	0x3ce0bfa1	0.027435126
91	0x3da92385	0.08258728
92	0x3da9ed00	0.08297157
93	0x3db562e8	0.088567555
94	0x3de11dfd	0.10992048
95	0x3debd587	0.115153365
96	0x3e896701	0.26836398
97	0x3bbc7042	0.005750687
98	0x3d8f0a90	0.069844365
99	0xbddc16c8	-0.10746533
100	0xbd3e6d50	-0.046490967
101	0xbd835e13	-0.064144276
102	0x3da832ad	0.08212791
103	0xbcb86bfc	-0.022512428
104	0xbd6c0067	-0.05761757
105	0x3c69b255	0.014263709
106	0xbca3a043	-0.01997388
107	0xbd4d9003	-0.05018617
108	0x3afc1b55	0.001923422
109	0xbd055fec	-0.03256218
110	0xbd5fd2d0	-0.054644406
111	0xbce7f302	-0.028314117
112	0xbcf3ebe3	-0.029775565
113	0x3c8015a2	0.015635315
114	0x3e1ed12f	0.15509485
115	0xbc6c503f	-0.014423429
116	0xbc7bc2ac	-0.015366238
117	0xbe02f756	-0.12789664
118	0xbd51d967	-0.05123272
119	0xbd3a5f36	-0.045500956
120	0xbe8a6912	-0.27033287
121	0x3d9401fe	0.072269425
122	0xbbabbb36	-0.005240823
123	0x3dffe1c6	0.12494235
124	0x3df21b8e	0.11821662
125	0x3ddb11dc	0.10696766
126	0xbd036eb6	-0.032088004
127	0x3de98910	0.11403096
128	0x3dd6597e	0.10466288
129	0x3dbb9b16	0.0916044
130	0x3d46acb1	0.048504535
131	0x3daf9cad	0.085748054
132	0x3dcc8d88	0.099879324
133	0x3dec75f0	0.11545932
134	0x3d8787f6	0.06617729
135	0x3da63a65	0.081166066
136	0x3db22771	0.08698929
137	0x3dd5f905	0.10447887
138	0x3d93a43b	0.07209059
139	0x3d9347cd	0.07191429
140	0x3db9614c	0.09051761
141	0x3d593190	0.053025782
142	0x3dccdd5d	0.10003159
143	0x3d9424d1	0.07233585
144	0xbe864178	-0.26221824
145	0x3e08afca	0.13348308
146	0x3de0dc62	0.10979535
147	0x3e085af8	0.13315952
148	0x3dfb6ee0	0.12277007
149	0x3dc923de	0.09821294
150	0x3d57031e	0.052493207
151	0x3de16689	0.11005885
152	0x3e063445	0.13105877
153	0x3ddab35c	0.10678741
154	0x3d985c0b	0.07439431
155	0x3db141d3	0.08655133
156	0x3dc14646	0.09437232
157	0x3e02b831	0.12765576
158	0x3d1c4d30	0.03815955
159	0x3dacb210	0.084324
160	0x3de75d94	0.112971455
161	0x3d1c7431	0.038196746
162	0xbc3fab29	-0.011698523
163	0x3db54743	0.08851483
164	0x3dcd4446	0.10022788
165	0x3ddc744d	0.1076437
166	0x3d9c908e	0.07644759
167	0x3d873604	0.066020995
168	0xbe87c689	-0.26518658
169	0x3d94e567	0.072703175
170	0x3dc75b26	0.09734182
171	0x3e009dce	0.12560198
172	0x3e02a426	0.1275793
173	0x3dcd4e7b	0.100247346
174	0x3d27843b	0.04089759
175	0x3dd01236	0.101597235
176	0x3de1c1a1	0.1102326
177	0x3d97c78f	0.0741111
178	0x3dbcf018	0.09225482
179	0x3dbc4983	0.09193709
180	0x3db58df6	0.088649675
181	0x3de9df72	0.11419572
182	0x3d7c9fcc	0.06167583
183	0x3d8aa25c	0.06769249
184	0x3de4682c	0.11152682
185	0x3dd0d44b	0.10196742
186	0xbcf83435	-0.030298332
187	0xbc236c60	-0.009974569
188	0x3db44e51	0.08804
189	0x3d92883d	0.07154892
190	0x3ddf7de9	0.10912687
191	0x3da3b9c5	0.07994417
192	0xbe8e929a	-0.27846223
193	0x3da13e99	0.07873268
194	0x3dd14514	0.10218254
195	0x3df9160a	0.12162407
196	0x3dfbc72b	0.12293848
197	0x3dbebf86	0.09313874
198	0x3d406c25	0.046978135
199	0x3dcebbb8	0.10094398
200	0x3dad94aa	0.08475621
201	0x3b89b710	0.004202731
202	0x3d4b8140	0.04968381
203	0x3d9931ec	0.07480225
204	0x3dfa045c	0.12207863
205	0x3deb4955	0.11488596
206	0x3d909126	0.07058935
207	0x3da24b5a	0.079245284
208	0x3e285604	0.16439062
209	0x3dd84733	0.10560455
210	0x3cf0e9d3	0.029408371
211	0x3da3c9eb	0.07997497
212	0x3dbb5853	0.09147706
213	0x3db15ae5	0.08659915
214	0x3dd67597	0.10471647
215	0x3ca7bd38	0.020475969
216	0xbe59d3e7	-0.2127224
217	0x3d47f2d1	0.048815552
218	0x3dbd36c2	0.0923896
219	0x3dcacb55	0.09902064
220	0x3dbc0d1c	0.09182188
221	0x3d745f8c	0.059661433
222	0x3cbcae83	0.023032432
223	0x3d7fea2f	0.062479194
224	0x3d896ce1	0.0671022
225	0x3d80b0b1	0.06283701
226	0x3da55418	0.0807268
227	0x3db05b5e	0.08611177
228	0x3d6cba90	0.057795107
229	0x3db8160d	0.08988581
230	0x3d4b7f02	0.04968167
231	0x3d9cd1d5	0.0765721
232	0x3d96b74f	0.07359182
233	0x3d8651bc	0.06558558
234	0xbc40afa9	-0.011760631
235	0x3d6b65ea	0.05747024
236	0x3d5141b6	0.051088057
237	0x3d8df8cf	0.06932222
238	0x3d663b15	0.05620869
239	0x3d557977	0.05211779
240	0x3eb37eca	0.3505767
241	0xbc28bf66	-0.010299539
242	0x3da064ba	0.07831712
243	0xbe048dde	-0.12944743
244	0xbd24a35a	-0.040194847
245	0xbdbf55b1	-0.09342516
246	0x3db5614b	0.08856448
247	0xbd49bfa1	-0.049255017
248	0xbd35bff3	-0.04437251
249	0x3c882e60	0.016623676
250	0xbccffef8	-0.025390133
251	0xbd3ef7dd	-0.0466231
252	0xbc203825	-0.009779011
253	0xbd80ed8c	-0.062953085
254	0xbdaa723b	-0.08322569
255	0xbd3313ef	-0.043720182

blinear2.weight_rho f4 [24, 24]
0	0xc0a16133	-5.043115
1	0xc0a012b5	-5.0022836
2	0xc0a56f86	-5.1698637
3	0xc0a208c0	-5.063568
4	0xc0a70f42	-5.2206125
5	0xc0a7a4f8	-5.238888
6	0xc0a5ffda	-5.187482
7	0xc0a50b14	-5.1576023
8	0xc0a7dcaa	-5.2456865
9	0xc0a7cee5	-5.2440057
10	0xc0a0dc5b	-5.026899
11	0xc0a624c2	-5.191987
12	0xc0a5ce9b	-5.1814704
13	0xc0a19586	-5.0495024
14	0xc0a50c3c	-5.1577435
15	0xc0993883	-4.7881484
16	0xc0ac0626	-5.3757505
17	0xc0a29802	-5.0810556
18	0xc0a8d435	-5.275904
19	0xc0a35e0a	-5.1052294
20	0xc0a553f2	-5.166497
21	0xc0a49d94	-5.1442356
22	0xc0a3a39c	-5.113722
23	0xc09f2873	-4.9736876
24	0xc0a539bb	-5.163297
25	0xc0a414d0	-5.1275406
26	0xc0a6d70b	-5.2137504
27	0xc0a2e095	-5.089915
28	0xc0a600fb	-5.1876197
29	0xc0a52573	-5.1608214
30	0xc0a8032b	-5.2503867
31	0xc0a5149c	-5.158766
32	0xc0ac1e8b	-5.3787284
33	0xc0a7e4fe	-5.246703
34	0xc09e9f16	-4.9569197
35	0xc0a528a5	-5.1612115
36	0xc0a8ba69	-5.272755
37	0xc0a6f9dc	-5.2180004
38	0xc0a26263	-5.07451
39	0xc09b95d7	-4.862041
40	0xc0aa33f5	-5.3188424
41	0xc0a7eb69	-5.2474866
42	0xc0a9c4bf	-5.305267
43	0xc0a4118c	-5.127142
44	0xc0a7307d	-5.224669
45	0xc0a5bf43	-5.1795974
46	0xc0a81755	-5.252848
47	0xc0a50540	-5.156891
48	0xc09c58c6	-4.8858366
49	0xc0a24391	-5.070748
50	0xc0a18f17	-5.048717
51	0xc0a4da91	-5.1516805
52	0xc0aa121c	-5.3147106
53	0xc0a4c656	-5.149211
54	0xc0a9b0df	-5.3028407
55	0xc0a17af4	-5.046259
56	0xc0a7edf2	-5.247796
57	0xc0a44359	-5.133221
58	0xc0a175b1	-5.0456166
59	0xc0a335a8	-5.1003
60	0xc0a3acf6	-5.1148634
61	0xc0a2cdb6	-5.087611
62	0xc0a0af4f	-5.0214
63	0xc09b68c9	-4.856541
64	0xc0a861e4	-5.2619495
65	0xc0a168e4	-5.044054
66	0xc0a95b2d	-5.29238
67	0xc0a2b4be	-5.0845633
68	0xc0a77fa7	-5.2343326
69	0xc0a49441	-5.1430974
70	0xc0a37da2	-5.109086
71	0xc0a1daad	-5.057944
72	0xc0a5b736	-5.1786146
73	0xc0a79273	-5.236627
74	0xc0a46baa	-5.1381426
75	0xc0a5ce89	-5.181462
76	0xc0a5d742	-5.1825266
77	0xc0a7af99	-5.2401853
78	0xc0aa5ba8	-5.3236885
79	0xc0a5a632	-5.1765375
80	0xc0a784f7	-5.234981
81	0xc0a88c3a	-5.2671175
82	0xc09d4788	-4.914982
83	0xc0a5df18	-5.183483
84	0xc0a6f560	-5.217453
85	0xc09fadde	-4.989974
86	0xc0a4935d	-5.1429887
87	0xc09ce5ab	-4.9030356
88	0xc0acccb6	-5.399989
89	0xc0a50629	-5.157002
90	0xc0a95c0a	-5.292485
91	0xc0a35508	-5.10413
92	0xc0a569a1	-5.169144
93	0xc0a55f17	-5.1678576
94	0xc0a548ac	-5.165121
95	0xc0a26813	-5.0752044
96	0xc0a39172	-5.1115046
97	0xc099272f	-4.786033
98	0xc09b5113	-4.8536468
99	0xc097488b	-4.7276053
100	0xc0972b50	-4.724037
101	0xc098a029	-4.769551
102	0xc0a05bd6	-5.0112104
103	0xc0973cbc	-4.726164
104	0xc09a3313	-4.8187346
105	0xc09efa77	-4.9680743
106	0xc0923920	-4.5694733
107	0xc098ecd1	-4.7789083
108	0xc09a2c05	-4.8178735
109	0xc096f0f0	-4.7169113
110	0xc098a29c	-4.76985
111	0xc095b8ac	-4.678793
112	0xc09883bc	-4.766081
113	0xc09851a2	-4.759965
114	0xc0a20e49	-5.064244
115	0xc095be5f	-4.6794887
116	0xc09b3db4	-4.851282
117	0xc09d8a08	-4.9230995
118	0xc0997457	-4.7954516
119	0xc094facd	-4.6556153
120	0xc0a3717c	-5.107603
121	0xc0a47243	-5.138948
122	0xc0a6604a	-5.199254
123	0xc0a2f15d	-5.0919633
124	0xc0a54638	-5.1648216
125	0xc0a27e8a	-5.0779467
126	0xc0aa36f1	-5.3192067
127	0xc0a01fa6	-5.0038633
128	0xc0a84ce3	-5.2593856
129	0xc0a81a5b	-5.253217
130	0xc09c8d00	-4.892212
131	0xc0aa4961	-5.3214574
132	0xc0a51c0d	-5.159674
133	0xc0a1f775	-5.061457
134	0xc09ff312	-4.9984217
135	0xc09c2fd7	-4.88084
136	0xc0a95981	-5.292176
137	0xc0a33c79	-5.101132
138	0xc0ae4ff4	-5.44726
139	0xc09e0b20	-4.938858
140	0xc0a6eccf	-5.2164073
141	0xc0a33d96	-5.101268
142	0xc0a3a948	-5.114414
143	0xc0a08f81	-5.0175176
144	0xc0a3d881	-5.1201787
145	0xc09d46a1	-4.9148717
146	0xc0a5c8b9	-5.1807523
147	0xc0a10fa5	-5.0331597
148	0xc0a12c62	-5.036668
149	0xc0a5ecdb	-5.185163
150	0xc0a85513	-5.260385
151	0xc0a4a1e0	-5.14476
152	0xc0a7560c	-5.229254
153	0xc0a3237e	-5.0980825
154	0xc0997d49	-4.7965436
155	0xc0a70ff9	-5.2207
156	0xc0a21fd4	-5.0663853
157	0xc09f333b	-4.9750037
158	0xc09f8aff	-4.9857173
159	0xc09fe686	-4.99689
160	0xc0a3c3d5	-5.1176553
161	0xc0a3556f	-5.104179
162	0xc0a67f16	-5.2030134
163	0xc09b7068	-4.8574715
164	0xc0a529db	-5.1613593
165	0xc0a4dd48	-5.152012
166	0xc09ff5b3	-4.9987426
167	0xc09e9dd9	-4.9567685
168	0xc0a25ad5	-5.073588
169	0xc0a4f243	-5.154573
170	0xc0a68983	-5.204286
171	0xc0a170e7	-5.045032
172	0xc0a48019	-5.140637
173	0xc0a394c4	-5.11191
174	0xc0a9448a	-5.2896166
175	0xc0a31739	-5.096585
176	0xc0aa00dd	-5.3126054
177	0xc0aa9721	-5.3309484
178	0xc098b3e8	-4.771961
179	0xc0a791df	-5.2365565
180	0xc0a4a182	-5.1447153
181	0xc0a02ec8	-5.0057106
182	0xc0a112fe	-5.0335684
183	0xc09f7c9f	-4.9839625
184	0xc0a66b36	-5.2005873
185	0xc0a1aba5	-5.0522027
186	0xc0a64713	-5.196176
187	0xc0a35546	-5.1041594
188	0xc0a25423	-5.0727706
189	0xc0a4c476	-5.148982
190	0xc0a580ee	-5.1719885
191	0xc0a1944b	-5.049352
192	0xc0a16ef5	-5.0447946
193	0xc09fbdbf	-4.9919124
194	0xc0a432fa	-5.1312227
195	0xc0a1174b	-5.0340934
196	0xc0a85a3f	-5.2610164
197	0xc0a235a6	-5.069049
198	0xc0a81aad	-5.2532563
199	0xc0a2db9e	-5.0893087
200	0xc0a8d29e	-5.27571
201	0xc0a634a3	-5.1939254
202	0xc09fae2c	-4.990011
203	0xc0a41592	-5.127633
204	0xc0a5c497	-5.180248
205	0xc0a0a421	-5.0200353
206	0xc0a19234	-5.049097
207	0xc09b9863	-4.862352
208	0xc0a796b6	-5.2371473
209	0xc0a20db2	-5.064172
210	0xc0a6b1b2	-5.2091913
211	0xc0a2a57a	-5.0827
212	0xc0a5df71	-5.1835256
213	0xc0a6f222	-5.217057
214	0xc0a9895d	-5.298018
215	0xc0a46eb8	-5.1385155
216	0xc09ad45f	-4.838424
217	0xc0971338	-4.721096
218	0xc09f4961	-4.9777074
219	0xc09a558d	-4.822943
220	0xc09d54b9	-4.916592
221	0xc0a0e892	-5.02839
222	0xc09c02bb	-4.8753333
223	0xc09bed48	-4.872715
224	0xc09b1573	-4.8463683
225	0xc0a0d9f0	-5.0266037
226	0xc097d60a	-4.744878
227	0xc09fea7c	-4.9973736
228	0xc09811ce	-4.7521734
229	0xc0966cd9	-4.700787
230	0xc099d794	-4.8075657
231	0xc09d9529	-4.924458
232	0xc09fe13a	-4.9962435
233	0xc098363e	-4.7566214
234	0xc0a09ed7	-5.0193896
235	0xc09d24d8	-4.9107475
236	0xc09c3b0f	-4.8822093
237	0xc09b18ef	-4.8467937
238	0xc09c3c8b	-4.8823905
239	0xc09d9dd6	-4.925517
240	0xc0a2e01e	-5.089858
241	0xc0a103fb	-5.031736
242	0xc0a11cae	-5.034751
243	0xc09b1272	-4.8460016
244	0xc09f71f2	-4.9826593
245	0xc097cc14	-4.743662
246	0xc0a12814	-5.0361423
247	0xc099e9ea	-4.809804
248	0xc0a1007f	-5.0313106
249	0xc0a5166d	-5.1589875
250	0xc0995051	-4.7910542
251	0xc09ea3d4	-4.9574986
252	0xc0a05610	-5.0105057
253	0xc09ce113	-4.902475
254	0xc09b93d3	-4.861795
255	0xc0983310	-4.756233

blinear2.bias_mu f4 [24]
0	0x3cffd664	0.03123016
1	0x3d902be0	0.070396185
2	0x3d1c5671	0.038168374
3	0x3d16248f	0.03665596
4	0x3bd97814	0.006636629
5	0x3d52c021	0.05145276
6	0x3d27879e	0.04090082
7	0x3d237710	0.03990847
8	0x3d2f4ea4	0.042799607
9	0x3d09dca1	0.033657674
10	0x3cf30ca2	0.02966911
11	0x3d0a0563	0.033696543
12	0x3c5d85bc	0.013520654
13	0x3d0243ad	0.031802822
14	0x3c24aad5	0.010050495
15	0x3b96e65e	0.0046050986
16	0x3d35f405	0.04442217
17	0xbaacb1fb	-0.0013175601
18	0x3d16bcc6	0.036801122
19	0xbbb90536	-0.005646373
20	0x3d09cfa6	0.033645295
21	0x3ce268d5	0.027637878
22	0x3ce62aca	0.028096575
23	0x3ab46fec	0.0013766265
