summit/benchmarks/experiment_emulator/trained_models/BNN/reizman_suzuki_2_yield_BNN_model.pt (torch_old, 15251 bytes, 25 tensors)

blinear1.weight_mu f4 [24, 11]
00000000: dd86 33be 0723 9ebd ebc4 443e 85e9 1dbe
00000010: 31e3 eb3d 116d 2abe 0557 f53b 9efc 71bd
00000020: 09eb f1bd 1407 543e 1d87 003e 83e8 693d
00000030: 25b3 5e3d b7e7 07bc 95fd dcbd b891 623e
00000040: 99d7 63be 4904 5abe 9c43 bfbc c438 ee3d
00000050: dd13 b13d e194 243d f26b b7ba fb31 47bc
00000060: f8b5 81bd 74ab 8c3a 4be0 5a3e 1a2e b8bd
00000070: 2f71 abbd 88df 28ba 5f5e 0c3e b906 6ebd
00000080: 0b4b 40bd 3b51 5c3e 7bce 35bc f024 0ebe
00000090: b378 96bc 8d67 683e f98f dfbd 72c8 cabd
000000a0: 3938 9c3a ff7a ac3d db9f b93d b0fe 47bd
000000b0: 0d91 9b3d c356 d23c 233e dbbc 9521 753d
000000c0: b295 4ebe 7994 883e 1b48 223e d0d7 fcb9
000000d0: 39ff 713e 766d 8d3c 3341 053e 4435 1ebc
000000e0: 634b 10bc dcc0 0d3e 85a3 fabd e24f 193e
000000f0: 9121 7dbe 4db4 e6bc 0afd 8ebd 7e54 7e3d
00000100: 4312 a53d 6e8f e63d dee3 073d 9ccd 193d
00000110: 6988 92bc b124 ffbd da22 dd3e 9b09 79be
00000120: 6ddd 68be dac3 2bbd 2867 f13d d262 29bb
00000130: dc8e 9f3d 680a 9f3d 8233 133b 4193 993d
00000140: 904f 65be ceb0 c63d f9cb 9bbe bdde 3a3d
00000150: a385 c7bd d57e d13d 7c77 803e 9f52 4c3e
00000160: d025 9ebe 1658 993d e29e e0bd e18f 483c
00000170: bdef 083e 3a2b 973b 81ff a23e 88a4 8b3c
00000180: efc0 c43d 1d6b 68be 888f 40be 5a40 e53d
00000190: 9987 8b3c 7e7b 763d 3ac7 a5bd 0056 953e
000001a0: 2ed5 89be 6c00 88bd c459 4cbd 4e82 1a3d
000001b0: 44ad 123e 1a6f 5bbd 2361 193e b83d 1eba
000001c0: 1709 c83c 53f4 82bd 7aca 3b3e b364 5bbe
000001d0: 9690 38be 9ca7 b1bc b217 903e 6ca7 7c3e
000001e0: bdf3 e63d 890e 2d3d fe8e 9ebd 2f7a 58bd
000001f0: 69d1 9ebd 7be5 043e f255 4dbe 2d65 68be
00000200: ca42 d9bc 24c6 453e b663 f03b 0161 d7ba
00000210: cfe8 18be 1dc7 e53c eeec fcbd 3d5c debd
00000220: 9121 d23e 897a 13be a03b 98bd afd5 62bd
00000230: 1450 83bc 7365 793e ff5b 733c deca 093e
00000240: 94a7 0b3d 2338 0ebe 9c99 56bd 0370 af3d
00000250: baea f1bd d002 f9bd 5963 a3bc ed0a 823d
00000260: ddfb b33d cfc8 2fbd 515e 16be 6186 0fbe
00000270: b4fc e8bc 177c 5e3e 1ecd 973e b722 df3d
00000280: 540d 45be da3d af3d b6f8 7cbe 6af8 60be
00000290: 23ac fb3d 63d7 e73d 4167 d53d 0ee4 0e3c
000002a0: 994e c1bd 12bd 5d3e 2976 57be 9755 26be
000002b0: d385 1cbd 82fb 053e eb08 a13d b566 803b
000002c0: f6cb 99bd d310 0ebe b7e0 87be 0771 313e
000002d0: b63c a63e df12 ef3c d2b1 f0bd 1ed4 153d
000002e0: eea9 62be 320e 51be 3134 433d 7fc7 24be
000002f0: 16ae f73b 7b75 bbbd 3436 8a3b 6b09 893e
00000300: 44c8 923b 3020 893b b964 833a c9ee 8ebc
00000310: 0146 8bbe 8090 cb39 f7c1 103d f086 f43c
00000320: a348 713e 66ad 08bd 8828 86be 4098 d6bc
00000330: 1091 493d 5bf5 eebc 83ef 4cbd d715 72be
00000340: 4b7d 053e 0e68 4dbe b954 ac3d 3d5a 99bd
00000350: ef4c 953c aab0 0e3e 615a b23b cac4 953e
00000360: 2fe3 823d 2cb4 ad3d f539 35be 38ce 24be
00000370: 3408 a8bb 7452 5ebc 2ba9 303e fa4e fdbd
00000380: 9eca db3e 2120 5dbe cc48 c9bc 7156 6bbd
00000390: a9b8 583d 44c2 893d 223f 063e f3cd 7e3e
000003a0: 48f3 5c3d 8848 983e 0e22 10bb eab5 e0bd
000003b0: c6a0 30bd efe8 0d3e bd6b 30bd b5d7 39be
000003c0: dbf4 85be 9df7 a13d b12f 9a3d 290b c13c
000003d0: 30e5 34bd cf15 38bd b271 743e 58d0 55be
000003e0: 6d3b 233e a73b 52bd fc97 b13d d3dd 443d
000003f0: 8a55 17bd 55cd e23d 3989 5b3b 5a35 853d
-0.17531915 -0.07721525 0.19215743 -0.15421112 0.11517943 -0.16643168 0.00748718 -0.059078805
-0.118124075 0.20705825 0.12551542 0.057106506 0.054370064 -0.008294991 -0.107905544 0.221259
-0.22250213 -0.21290697 -0.023347668 0.11631921 0.08646367 0.040181044 -0.0013993962 -0.012157912
-0.06333536 0.0010732249 0.21374623 -0.08993168 -0.083711974 -0.0006442 0.13707875 -0.05811188
-0.046946567 0.21515362 -0.011096592 -0.13881278 -0.0183681 0.22695751 -0.109161325 -0.09901513
0.0011918611 0.08421897 0.09063693 -0.048826873 0.075960256 0.025676137 -0.026763028 0.05984648
-0.20174292 0.26675776 0.15847819 -0.00048225978 0.23632516 0.01726411 0.13013153 -0.009656254
-0.008807036 0.13843101 -0.1223822 0.14971879 -0.24719836 -0.028162146 -0.06981857 0.062092297
0.08060124 0.11257826 0.033176295 0.0375496 -0.017887311 -0.1245817 0.43190652 -0.2432007
-0.22740717 -0.041934825 0.117872536 -0.0025846255 0.0779092 0.07765657 0.002246112 0.074987896
-0.22393632 0.097016916 -0.30429056 0.045622576 -0.09742286 0.102292694 0.2509116 0.19953392
-0.30888224 0.07487504 -0.109678045 0.012241335 0.13372703 0.0046133073 0.3183556 0.017046228
0.09607112 -0.2269711 -0.18804753 0.11193915 0.017032431 0.060176365 -0.0809464 0.29167175
-0.26920456 -0.066407055 -0.049890295 0.037721924 0.14323908 -0.05357275 0.14978461 -0.00060364185
0.024418397 -0.063942574 0.18338957 -0.21425132 -0.18023905 -0.021686368 0.28143078 0.24673241
0.11276958 0.04225019 -0.07742117 -0.0528509 -0.077547856 0.12978165 -0.20052317 -0.22694845
-0.026521105 0.19313866 0.007336105 -0.0016432108 -0.1493256 0.028049046 -0.12349878 -0.10857437
0.41041234 -0.14402212 -0.074332476 -0.055379566 -0.016029395 0.24355106 0.014853477 0.13456294
0.03409536 -0.13888602 -0.052392587 0.085662864 -0.11812349 -0.121587396 -0.019944834 0.0634974
0.087882735 -0.042916115 -0.14684416 -0.14016105 -0.02844081 0.21727024 0.2964868 0.10895293
-0.19243366 0.08556719 -0.2470425 -0.21969762 0.12288692 0.11320379 0.10420085 0.008721365
-0.094388194 0.21654156 -0.21041168 -0.16243587 -0.038213562 0.13084224 0.07863029 0.0039184936
-0.075096056 -0.13873605 -0.2653863 0.17328273 0.32468194 0.029183803 -0.117526665 0.036579244
-0.22135136 -0.20415571 0.047657195 -0.16091727 0.0075585945 -0.09153267 0.0042178873 0.26764998
0.00447944 0.0041847453 0.0010024525 -0.017447846 -0.27201846 0.00038826838 0.03534123 0.0298495
0.23562865 -0.03336849 -0.26202798 -0.026195645 0.049210608 -0.029169729 -0.050033104 -0.23641144
0.13036077 -0.20059225 0.08414597 -0.07487915 0.018225161 0.1393458 0.005442903 0.292517
0.06390988 0.08481631 -0.1769789 -0.16094291 -0.005127931 -0.013569463 0.17252032 -0.12368579
0.42928022 -0.21594287 -0.024570845 -0.057455484 0.05291048 0.06726506 0.13110021 0.24883251
0.05394295 0.29742837 -0.0021992954 -0.10972197 -0.043122075 0.13858388 -0.043071497 -0.18148692
-0.26163372 0.079085566 0.07528628 0.023564892 -0.044163883 -0.044942673 0.23871496 -0.20880258
0.15940638 -0.05132642 0.08671567 0.04806311 -0.03694681 0.1107432 0.003349854 0.06504317

blinear1.weight_rho f4 [24, 11]
00000000: 5850 afc0 3d5e a0c0 c014 afc0 2afd 95c0
00000010: 1493 b7c0 5ccc a1c0 6ff8 afc0 db87 90c0
00000020: 4a55 b5c0 c7e3 b2c0 a991 b3c0 76a0 b5c0
00000030: 0817 9ec0 5c1a a6c0 ce18 97c0 f48e b6c0
00000040: 7b83 a4c0 d93f 9fc0 dcbd 85c0 7f56 b6c0
00000050: 8f14 bac0 352e b7c0 bfe1 aac0 f1cf 8fc0
00000060: be34 99c0 1952 87c0 a831 a9c0 91f7 90c0
00000070: 0971 89c0 7a1f 88c0 5664 b1c0 c71d b2c0
00000080: 127a a9c0 3623 b2c0 b843 89c0 7e1f 8ec0
00000090: 1641 91c0 1b46 b2c0 9b72 98c0 02e7 9ac0
000000a0: c493 89c0 19d1 b1c0 e042 adc0 ab61 adc0
000000b0: 8b9d acc0 59c7 8cc0 4799 9ac0 7664 88c0
000000c0: d2ff a8c0 d6bf 92c0 a2d6 9fc0 d1da 88c0
000000d0: 7a42 afc0 8a50 afc0 a70a a8c0 da13 b3c0
000000e0: e9e3 9bc0 3d99 a6c0 4f0e 98c0 904c b9c0
000000f0: 782c a4c0 481c a9c0 fee4 90c0 ef61 b4c0
00000100: 4cde b6c0 fbe7 b0c0 2eba b1c0 2ba9 a3c0
00000110: 88d3 abc0 9fee 98c0 f6af b9c0 285e a7c0
00000120: 8475 a8c0 1aab 8cc0 9d4c b6c0 24f0 b8c0
00000130: e313 b3c0 c05c b6c0 3fc8 a7c0 333f acc0
00000140: 734e a2c0 6e3c b7c0 2d38 aac0 bc20 b0c0
00000150: 1500 98c0 2fd6 b8c0 e8e0 b7c0 8635 bbc0
00000160: 53da b5c0 7738 9dc0 8254 abc0 d422 8ac0
00000170: 9ea0 b3c0 6f3d 8fc0 aad1 aac0 8c14 8bc0
00000180: e84d bbc0 596c b7c0 ee62 b6c0 4ff8 b1c0
00000190: 6135 9bc0 76f2 a8c0 3d89 99c0 36d8 b2c0
000001a0: 3f1c a1c0 7e07 acc0 50cb 8cc0 cf8c b9c0
000001b0: d695 b5c0 21b8 b4c0 d1cc b3c0 724b 97c0
000001c0: 6b06 a9c0 3a94 98c0 706f b3c0 0d86 a2c0
000001d0: bb73 a3c0 f86c 8fc0 7959 bbc0 be42 b8c0
000001e0: e79d b2c0 6b3b b3c0 9fcd 8fc0 6c08 a1c0
000001f0: 5b16 93c0 b7fe b1c0 8d50 a1c0 9ba4 a1c0
00000200: c264 8ac0 07e7 b3c0 e438 bbc0 4a78 b0c0
00000210: 9c1d aac0 971f 9cc0 2b60 a6c0 9c1b 95c0
00000220: 1342 afc0 204b 9bc0 2e5b acc0 46e1 8bc0
00000230: 8219 b7c0 aa15 b2c0 2cb2 afc0 a844 acc0
00000240: 6045 95c0 7ac4 8ec0 fb94 8ac0 0e2e afc0
00000250: 5bdf 8ec0 989e 96c0 4dd9 89c0 ce97 b1c0
00000260: 5efd b4c0 414b abc0 c183 b3c0 c42d a2c0
00000270: 6a82 a3c0 7472 98c0 7a86 b1c0 d9a1 93c0
00000280: 3669 a4c0 dbb1 91c0 eaf1 b0c0 4142 b7c0
00000290: 98fb b2c0 7647 b8c0 af8e a2c0 b5cd a5c0
000002a0: 1241 99c0 dadd b5c0 828d a0c0 f415 a7c0
000002b0: 5c71 8bc0 1272 bac0 b24b b6c0 e424 b4c0
000002c0: 55e5 a6c0 2107 9bc0 b8ca 95c0 6b4a 90c0
000002d0: 7d34 a5c0 dd8f 8ac0 4397 9dc0 5f3e 8ac0
000002e0: 5a92 acc0 a9f8 acc0 60f3 a7c0 cd74 b3c0
000002f0: 0bdb 8fc0 2d46 9dc0 52f9 89c0 7165 b5c0
00000300: 1245 86c0 2dd0 87c0 26e4 85c0 1a63 b9c0
00000310: b0e7 b7c0 fcf7 b3c0 0f1c aac0 2515 9cc0
00000320: 6408 a1c0 6739 90c0 baf3 9fc0 ae1e 8ac0
00000330: c6a8 a3c0 dd22 89c0 074d b1c0 a516 b3c0
00000340: 9699 b1c0 3116 b9c0 1279 9bc0 6534 afc0
00000350: 79ff 88c0 7942 b4c0 878e 8ac0 97dc b3c0
00000360: 307b 8bc0 c773 b7c0 b3c6 b5c0 c2b4 b5c0
00000370: 33f2 b3c0 125b 9ec0 e666 acc0 6db8 96c0
00000380: dd74 b6c0 51ed 9fc0 67da adc0 8f26 8ec0
00000390: bbb3 b6c0 0b01 b7c0 9f70 b3c0 ba1d abc0
000003a0: 8cb7 98c0 2af4 a5c0 b9db 83c0 5e04 94c0
000003b0: f95b 89c0 46a8 a5c0 acca 89c0 b119 b8c0
000003c0: 81cd b3c0 1810 afc0 1255 b0c0 dd2d 96c0
000003d0: aebd a2c0 fc0a 90c0 2ebf b1c0 70ff 9bc0
000003e0: e496 a4c0 f542 8dc0 cde8 b9c0 b4d7 b4c0
000003f0: 2726 b1c0 8d2f 9bc0 32d1 8bc0 c8eb 8fc0
-5.4785576 -5.0115037 -5.471283 -4.687154 -5.736704 -5.056196 -5.4990764 -4.516584
-5.6666613 -5.590305 -5.611531 -5.6758375 -4.9403114 -5.1907177 -4.721778 -5.7049503
-5.14105 -4.976544 -4.179426 -5.6980586 -5.8150096 -5.7243905 -5.340057 -4.4941335
-4.7876883 -4.2287717 -5.2873116 -4.5302205 -4.295048 -4.2538424 -5.543498 -5.566135
-5.296151 -5.566798 -4.2895164 -4.4413443 -4.539195 -5.571058 -4.76399 -4.840699
-4.299288 -5.5567746 -5.4144135 -5.4181724 -5.3942313 -4.3993344 -4.8312106 -4.2622633
-5.281228 -4.5859175 -4.9949503 -4.276711 -5.476865 -5.4785814 -5.2513003 -5.5961733
-4.871571 -5.206206 -4.7517467 -5.790596 -5.1304283 -5.2847023 -4.527953 -5.636955
-5.714636 -5.528318 -5.553977 -5.1144004 -5.3695717 -4.7791286 -5.8027296 -5.2302437
-5.264345 -4.3958864 -5.696852 -5.779314 -5.5961776 -5.698822 -5.243194 -5.3827147
-5.0720763 -5.7261267 -5.3193574 -5.503996 -4.75001 -5.7761455 -5.7462044 -5.8502836
-5.682901 -4.9131427 -5.354066 -4.3167515 -5.6133566 -4.476249 -5.3380938 -4.346258
-5.85326 -5.731976 -5.6995764 -5.561561 -4.850266 -5.2795973 -4.7980027 -5.588893
-5.034698 -5.3759146 -4.3998184 -5.7984385 -5.6745405 -5.6474767 -5.618752 -4.7279596
-5.2820334 -4.768094 -5.607353 -5.0788636 -5.1078773 -4.482052 -5.854672 -5.7581472
-5.581775 -5.601003 -4.49385 -5.032278 -4.596479 -5.562343 -5.041083 -5.0513434
-4.3247995 -5.6219516 -5.8506947 -5.5146837 -5.3161144 -4.878856 -5.1992393 -4.6596203
-5.4768157 -4.8529205 -5.3861303 -4.371249 -5.7218637 -5.5651445 -5.4904995 -5.383381
-4.6647186 -4.461484 -4.330686 -5.474372 -4.464765 -4.7068596 -4.307776 -5.549781
-5.6559286 -5.3529363 -5.6098332 -5.0680866 -5.1096697 -4.7639713 -5.5476656 -4.613507
-5.137843 -4.552961 -5.5295305 -5.7268376 -5.593212 -5.7587233 -5.0799174 -5.1813607
-4.789193 -5.6833315 -5.017274 -5.22143 -4.357588 -5.8264246 -5.69674 -5.6295033
-5.2154946 -4.84462 -4.680996 -4.509084 -5.1626573 -4.3300614 -4.9247146 -4.3201137
-5.392865 -5.405354 -5.248459 -5.608008 -4.4954886 -4.9148164 -4.3116846 -5.668633
-4.1959314 -4.244162 -4.1841 -5.7933474 -5.747032 -5.6240215 -5.315925 -4.877581
-5.0322742 -4.507007 -4.998502 -4.316245 -5.114352 -4.285506 -5.5406528 -5.596514
-5.5499983 -5.783959 -4.858529 -5.475146 -4.2811856 -5.6331143 -4.3298984 -5.6206775
-4.3587875 -5.732883 -5.6805053 -5.678315 -5.6233153 -4.948617 -5.387561 -4.710013
-5.7017655 -4.9977193 -5.4329104 -4.442207 -5.7094398 -5.7188773 -5.6074977 -5.3473787
-4.7724056 -5.186055 -4.1205716 -4.625533 -4.292477 -5.176791 -4.30599 -5.753136
-5.618836 -5.4707146 -5.5103846 -4.6930985 -5.0856543 -4.501341 -5.5545874 -4.8749313
-5.1434193 -4.4144235 -5.809668 -5.651331 -5.5359073 -4.8495545 -4.3692865 -4.497532

blinear1.bias_mu f4 [24]
00000000: 8e2a 5d3d ba2e c73c 317f 373c 3105 71bc
00000010: c4aa a4bc a59f 6a3d 26d1 a53d 2488 533e
00000020: bee5 3e3d 7c76 263e 7d15 31bc 0e97 843d
00000030: e1ea b5bc 3c60 813c 2023 063d b478 be3c
00000040: 87c0 5b3c 26e7 8dbd e99c c33d 88d6 b0bb
00000050: 8922 f33c 21dd 863d 6837 cf3d 804e 893c
0.05399566 0.024314273 0.011199758 -0.01471071 -0.020100959 0.057281155 0.080965325 0.20657402
0.046605818 0.16256136 -0.010808346 0.06474124 -0.022206726 0.015792958 0.03274834 0.023250915
0.013412601 -0.06928854 0.095514126 -0.005396668 0.029679554 0.06585146 0.1011799 0.016761065

blinear1.bias_rho f4 [24]
00000000: 4262 9bc0 27c3 98c0 e3d6 8fc0 b65c 97c0
00000010: a707 91c0 f036 97c0 2260 9dc0 7c67 a0c0
00000020: 3fa6 9fc0 4d74 97c0 6b62 98c0 1804 92c0
00000030: a3aa 94c0 c80c 91c0 cd3b 9fc0 9f7a 9cc0
00000040: 3a15 98c0 46b2 98c0 2740 91c0 7859 a2c0
00000050: e8c7 97c0 1cca 97c0 d57c 90c0 17eb 8bc0
-4.8557444 -4.7738223 -4.4949813 -4.7300673 -4.532184 -4.725456 -4.917985 -5.0126324
-4.9890437 -4.732947 -4.762014 -4.5629997 -4.6458297 -4.53281 -4.97605 -4.8899684
-4.752591 -4.771762 -4.539081 -5.0734215 -4.7431526 -4.7434216 -4.5152383 -4.3724475

blinear1.weight_sampler.mu f4 [24, 11]
00000000: dd86 33be 0723 9ebd ebc4 443e 85e9 1dbe
00000010: 31e3 eb3d 116d 2abe 0557 f53b 9efc 71bd
00000020: 09eb f1bd 1407 543e 1d87 003e 83e8 693d
00000030: 25b3 5e3d b7e7 07bc 95fd dcbd b891 623e
00000040: 99d7 63be 4904 5abe 9c43 bfbc c438 ee3d
00000050: dd13 b13d e194 243d f26b b7ba fb31 47bc
00000060: f8b5 81bd 74ab 8c3a 4be0 5a3e 1a2e b8bd
00000070: 2f71 abbd 88df 28ba 5f5e 0c3e b906 6ebd
00000080: 0b4b 40bd 3b51 5c3e 7bce 35bc f024 0ebe
00000090: b378 96bc 8d67 683e f98f dfbd 72c8 cabd
000000a0: 3938 9c3a ff7a ac3d db9f b93d b0fe 47bd
000000b0: 0d91 9b3d c356 d23c 233e dbbc 9521 753d
000000c0: b295 4ebe 7994 883e 1b48 223e d0d7 fcb9
000000d0: 39ff 713e 766d 8d3c 3341 053e 4435 1ebc
000000e0: 634b 10bc dcc0 0d3e 85a3 fabd e24f 193e
000000f0: 9121 7dbe 4db4 e6bc 0afd 8ebd 7e54 7e3d
00000100: 4312 a53d 6e8f e63d dee3 073d 9ccd 193d
00000110: 6988 92bc b124 ffbd da22 dd3e 9b09 79be
00000120: 6ddd 68be dac3 2bbd 2867 f13d d262 29bb
00000130: dc8e 9f3d 680a 9f3d 8233 133b 4193 993d
00000140: 904f 65be ceb0 c63d f9cb 9bbe bdde 3a3d
00000150: a385 c7bd d57e d13d 7c77 803e 9f52 4c3e
00000160: d025 9ebe 1658 993d e29e e0bd e18f 483c
00000170: bdef 083e 3a2b 973b 81ff a23e 88a4 8b3c
00000180: efc0 c43d 1d6b 68be 888f 40be 5a40 e53d
00000190: 9987 8b3c 7e7b 763d 3ac7 a5bd 0056 953e
000001a0: 2ed5 89be 6c00 88bd c459 4cbd 4e82 1a3d
000001b0: 44ad 123e 1a6f 5bbd 2361 193e b83d 1eba
000001c0: 1709 c83c 53f4 82bd 7aca 3b3e b364 5bbe
000001d0: 9690 38be 9ca7 b1bc b217 903e 6ca7 7c3e
000001e0: bdf3 e63d 890e 2d3d fe8e 9ebd 2f7a 58bd
000001f0: 69d1 9ebd 7be5 043e f255 4dbe 2d65 68be
00000200: ca42 d9bc 24c6 453e b663 f03b 0161 d7ba
00000210: cfe8 18be 1dc7 e53c eeec fcbd 3d5c debd
00000220: 9121 d23e 897a 13be a03b 98bd afd5 62bd
00000230: 1450 83bc 7365 793e ff5b 733c deca 093e
00000240: 94a7 0b3d 2338 0ebe 9c99 56bd 0370 af3d
00000250: baea f1bd d002 f9bd 5963 a3bc ed0a 823d
00000260: ddfb b33d cfc8 2fbd 515e 16be 6186 0fbe
00000270: b4fc e8bc 177c 5e3e 1ecd 973e b722 df3d
00000280: 540d 45be da3d af3d b6f8 7cbe 6af8 60be
00000290: 23ac fb3d 63d7 e73d 4167 d53d 0ee4 0e3c
000002a0: 994e c1bd 12bd 5d3e 2976 57be 9755 26be
000002b0: d385 1cbd 82fb 053e eb08 a13d b566 803b
000002c0: f6cb 99bd d310 0ebe b7e0 87be 0771 313e
000002d0: b63c a63e df12 ef3c d2b1 f0bd 1ed4 153d
000002e0: eea9 62be 320e 51be 3134 433d 7fc7 24be
000002f0: 16ae f73b 7b75 bbbd 3436 8a3b 6b09 893e
00000300: 44c8 923b 3020 893b b964 833a c9ee 8ebc
00000310: 0146 8bbe 8090 cb39 f7c1 103d f086 f43c
00000320: a348 713e 66ad 08bd 8828 86be 4098 d6bc
00000330: 1091 493d 5bf5 eebc 83ef 4cbd d715 72be
00000340: 4b7d 053e 0e68 4dbe b954 ac3d 3d5a 99bd
00000350: ef4c 953c aab0 0e3e 615a b23b cac4 953e
00000360: 2fe3 823d 2cb4 ad3d f539 35be 38ce 24be
00000370: 3408 a8bb 7452 5ebc 2ba9 303e fa4e fdbd
00000380: 9eca db3e 2120 5dbe cc48 c9bc 7156 6bbd
00000390: a9b8 583d 44c2 893d 223f 063e f3cd 7e3e
000003a0: 48f3 5c3d 8848 983e 0e22 10bb eab5 e0bd
000003b0: c6a0 30bd efe8 0d3e bd6b 30bd b5d7 39be
000003c0: dbf4 85be 9df7 a13d b12f 9a3d 290b c13c
000003d0: 30e5 34bd cf15 38bd b271 743e 58d0 55be
000003e0: 6d3b 233e a73b 52bd fc97 b13d d3dd 443d
000003f0: 8a55 17bd 55cd e23d 3989 5b3b 5a35 853d
-0.17531915 -0.07721525 0.19215743 -0.15421112 0.11517943 -0.16643168 0.00748718 -0.059078805
-0.118124075 0.20705825 0.12551542 0.057106506 0.054370064 -0.008294991 -0.107905544 0.221259
-0.22250213 -0.21290697 -0.023347668 0.11631921 0.08646367 0.040181044 -0.0013993962 -0.012157912
-0.06333536 0.0010732249 0.21374623 -0.08993168 -0.083711974 -0.0006442 0.13707875 -0.05811188
-0.046946567 0.21515362 -0.011096592 -0.13881278 -0.0183681 0.22695751 -0.109161325 -0.09901513
0.0011918611 0.08421897 0.09063693 -0.048826873 0.075960256 0.025676137 -0.026763028 0.05984648
-0.20174292 0.26675776 0.15847819 -0.00048225978 0.23632516 0.01726411 0.13013153 -0.009656254
-0.008807036 0.13843101 -0.1223822 0.14971879 -0.24719836 -0.028162146 -0.06981857 0.062092297
0.08060124 0.11257826 0.033176295 0.0375496 -0.017887311 -0.1245817 0.43190652 -0.2432007
-0.22740717 -0.041934825 0.117872536 -0.0025846255 0.0779092 0.07765657 0.002246112 0.074987896
-0.22393632 0.097016916 -0.30429056 0.045622576 -0.09742286 0.102292694 0.2509116 0.19953392
-0.30888224 0.07487504 -0.109678045 0.012241335 0.13372703 0.0046133073 0.3183556 0.017046228
0.09607112 -0.2269711 -0.18804753 0.11193915 0.017032431 0.060176365 -0.0809464 0.29167175
-0.26920456 -0.066407055 -0.049890295 0.037721924 0.14323908 -0.05357275 0.14978461 -0.00060364185
0.024418397 -0.063942574 0.18338957 -0.21425132 -0.18023905 -0.021686368 0.28143078 0.24673241
0.11276958 0.04225019 -0.07742117 -0.0528509 -0.077547856 0.12978165 -0.20052317 -0.22694845
-0.026521105 0.19313866 0.007336105 -0.0016432108 -0.1493256 0.028049046 -0.12349878 -0.10857437
0.41041234 -0.14402212 -0.074332476 -0.055379566 -0.016029395 0.24355106 0.014853477 0.13456294
0.03409536 -0.13888602 -0.052392587 0.085662864 -0.11812349 -0.121587396 -0.019944834 0.0634974
0.087882735 -0.042916115 -0.14684416 -0.14016105 -0.02844081 0.21727024 0.2964868 0.10895293
-0.19243366 0.08556719 -0.2470425 -0.21969762 0.12288692 0.11320379 0.10420085 0.008721365
-0.094388194 0.21654156 -0.21041168 -0.16243587 -0.038213562 0.13084224 0.07863029 0.0039184936
-0.075096056 -0.13873605 -0.2653863 0.17328273 0.32468194 0.029183803 -0.117526665 0.036579244
-0.22135136 -0.20415571 0.047657195 -0.16091727 0.0075585945 -0.09153267 0.0042178873 0.26764998
0.00447944 0.0041847453 0.0010024525 -0.017447846 -0.27201846 0.00038826838 0.03534123 0.0298495
0.23562865 -0.03336849 -0.26202798 -0.026195645 0.049210608 -0.029169729 -0.050033104 -0.23641144
0.13036077 -0.20059225 0.08414597 -0.07487915 0.018225161 0.1393458 0.005442903 0.292517
0.06390988 0.08481631 -0.1769789 -0.16094291 -0.005127931 -0.013569463 0.17252032 -0.12368579
0.42928022 -0.21594287 -0.024570845 -0.057455484 0.05291048 0.06726506 0.13110021 0.24883251
0.05394295 0.29742837 -0.0021992954 -0.10972197 -0.043122075 0.13858388 -0.043071497 -0.18148692
-0.26163372 0.079085566 0.07528628 0.023564892 -0.044163883 -0.044942673 0.23871496 -0.20880258
0.15940638 -0.05132642 0.08671567 0.04806311 -0.03694681 0.1107432 0.003349854 0.06504317

blinear1.weight_sampler.rho f4 [24, 11]
00000000: 5850 afc0 3d5e a0c0 c014 afc0 2afd 95c0
00000010: 1493 b7c0 5ccc a1c0 6ff8 afc0 db87 90c0
00000020: 4a55 b5c0 c7e3 b2c0 a991 b3c0 76a0 b5c0
00000030: 0817 9ec0 5c1a a6c0 ce18 97c0 f48e b6c0
00000040: 7b83 a4c0 d93f 9fc0 dcbd 85c0 7f56 b6c0
00000050: 8f14 bac0 352e b7c0 bfe1 aac0 f1cf 8fc0
00000060: be34 99c0 1952 87c0 a831 a9c0 91f7 90c0
00000070: 0971 89c0 7a1f 88c0 5664 b1c0 c71d b2c0
00000080: 127a a9c0 3623 b2c0 b843 89c0 7e1f 8ec0
00000090: 1641 91c0 1b46 b2c0 9b72 98c0 02e7 9ac0
000000a0: c493 89c0 19d1 b1c0 e042 adc0 ab61 adc0
000000b0: 8b9d acc0 59c7 8cc0 4799 9ac0 7664 88c0
000000c0: d2ff a8c0 d6bf 92c0 a2d6 9fc0 d1da 88c0
000000d0: 7a42 afc0 8a50 afc0 a70a a8c0 da13 b3c0
000000e0: e9e3 9bc0 3d99 a6c0 4f0e 98c0 904c b9c0
000000f0: 782c a4c0 481c a9c0 fee4 90c0 ef61 b4c0
00000100: 4cde b6c0 fbe7 b0c0 2eba b1c0 2ba9 a3c0
00000110: 88d3 abc0 9fee 98c0 f6af b9c0 285e a7c0
00000120: 8475 a8c0 1aab 8cc0 9d4c b6c0 24f0 b8c0
00000130: e313 b3c0 c05c b6c0 3fc8 a7c0 333f acc0
00000140: 734e a2c0 6e3c b7c0 2d38 aac0 bc20 b0c0
00000150: 1500 98c0 2fd6 b8c0 e8e0 b7c0 8635 bbc0
00000160: 53da b5c0 7738 9dc0 8254 abc0 d422 8ac0
00000170: 9ea0 b3c0 6f3d 8fc0 aad1 aac0 8c14 8bc0
00000180: e84d bbc0 596c b7c0 ee62 b6c0 4ff8 b1c0
00000190: 6135 9bc0 76f2 a8c0 3d89 99c0 36d8 b2c0
000001a0: 3f1c a1c0 7e07 acc0 50cb 8cc0 cf8c b9c0
000001b0: d695 b5c0 21b8 b4c0 d1cc b3c0 724b 97c0
000001c0: 6b06 a9c0 3a94 98c0 706f b3c0 0d86 a2c0
000001d0: bb73 a3c0 f86c 8fc0 7959 bbc0 be42 b8c0
000001e0: e79d b2c0 6b3b b3c0 9fcd 8fc0 6c08 a1c0
000001f0: 5b16 93c0 b7fe b1c0 8d50 a1c0 9ba4 a1c0
00000200: c264 8ac0 07e7 b3c0 e438 bbc0 4a78 b0c0
00000210: 9c1d aac0 971f 9cc0 2b60 a6c0 9c1b 95c0
00000220: 1342 afc0 204b 9bc0 2e5b acc0 46e1 8bc0
00000230: 8219 b7c0 aa15 b2c0 2cb2 afc0 a844 acc0
00000240: 6045 95c0 7ac4 8ec0 fb94 8ac0 0e2e afc0
00000250: 5bdf 8ec0 989e 96c0 4dd9 89c0 ce97 b1c0
00000260: 5efd b4c0 414b abc0 c183 b3c0 c42d a2c0
00000270: 6a82 a3c0 7472 98c0 7a86 b1c0 d9a1 93c0
00000280: 3669 a4c0 dbb1 91c0 eaf1 b0c0 4142 b7c0
00000290: 98fb b2c0 7647 b8c0 af8e a2c0 b5cd a5c0
000002a0: 1241 99c0 dadd b5c0 828d a0c0 f415 a7c0
000002b0: 5c71 8bc0 1272 bac0 b24b b6c0 e424 b4c0
000002c0: 55e5 a6c0 2107 9bc0 b8ca 95c0 6b4a 90c0
000002d0: 7d34 a5c0 dd8f 8ac0 4397 9dc0 5f3e 8ac0
000002e0: 5a92 acc0 a9f8 acc0 60f3 a7c0 cd74 b3c0
000002f0: 0bdb 8fc0 2d46 9dc0 52f9 89c0 7165 b5c0
00000300: 1245 86c0 2dd0 87c0 26e4 85c0 1a63 b9c0
00000310: b0e7 b7c0 fcf7 b3c0 0f1c aac0 2515 9cc0
00000320: 6408 a1c0 6739 90c0 baf3 9fc0 ae1e 8ac0
00000330: c6a8 a3c0 dd22 89c0 074d b1c0 a516 b3c0
00000340: 9699 b1c0 3116 b9c0 1279 9bc0 6534 afc0
00000350: 79ff 88c0 7942 b4c0 878e 8ac0 97dc b3c0
00000360: 307b 8bc0 c773 b7c0 b3c6 b5c0 c2b4 b5c0
00000370: 33f2 b3c0 125b 9ec0 e666 acc0 6db8 96c0
00000380: dd74 b6c0 51ed 9fc0 67da adc0 8f26 8ec0
00000390: bbb3 b6c0 0b01 b7c0 9f70 b3c0 ba1d abc0
000003a0: 8cb7 98c0 2af4 a5c0 b9db 83c0 5e04 94c0
000003b0: f95b 89c0 46a8 a5c0 acca 89c0 b119 b8c0
000003c0: 81cd b3c0 1810 afc0 1255 b0c0 dd2d 96c0
000003d0: aebd a2c0 fc0a 90c0 2ebf b1c0 70ff 9bc0
000003e0: e496 a4c0 f542 8dc0 cde8 b9c0 b4d7 b4c0
000003f0: 2726 b1c0 8d2f 9bc0 32d1 8bc0 c8eb 8fc0
-5.4785576 -5.0115037 -5.471283 -4.687154 -5.736704 -5.056196 -5.4990764 -4.516584
-5.6666613 -5.590305 -5.611531 -5.6758375 -4.9403114 -5.1907177 -4.721778 -5.7049503
-5.14105 -4.976544 -4.179426 -5.6980586 -5.8150096 -5.7243905 -5.340057 -4.4941335
-4.7876883 -4.2287717 -5.2873116 -4.5302205 -4.295048 -4.2538424 -5.543498 -5.566135
-5.296151 -5.566798 -4.2895164 -4.4413443 -4.539195 -5.571058 -4.76399 -4.840699
-4.299288 -5.5567746 -5.4144135 -5.4181724 -5.3942313 -4.3993344 -4.8312106 -4.2622633
-5.281228 -4.5859175 -4.9949503 -4.276711 -5.476865 -5.4785814 -5.2513003 -5.5961733
-4.871571 -5.206206 -4.7517467 -5.790596 -5.1304283 -5.2847023 -4.527953 -5.636955
-5.714636 -5.528318 -5.553977 -5.1144004 -5.3695717 -4.7791286 -5.8027296 -5.2302437
-5.264345 -4.3958864 -5.696852 -5.779314 -5.5961776 -5.698822 -5.243194 -5.3827147
-5.0720763 -5.7261267 -5.3193574 -5.503996 -4.75001 -5.7761455 -5.7462044 -5.8502836
-5.682901 -4.9131427 -5.354066 -4.3167515 -5.6133566 -4.476249 -5.3380938 -4.346258
-5.85326 -5.731976 -5.6995764 -5.561561 -4.850266 -5.2795973 -4.7980027 -5.588893
-5.034698 -5.3759146 -4.3998184 -5.7984385 -5.6745405 -5.6474767 -5.618752 -4.7279596
-5.2820334 -4.768094 -5.607353 -5.0788636 -5.1078773 -4.482052 -5.854672 -5.7581472
-5.581775 -5.601003 -4.49385 -5.032278 -4.596479 -5.562343 -5.041083 -5.0513434
-4.3247995 -5.6219516 -5.8506947 -5.5146837 -5.3161144 -4.878856 -5.1992393 -4.6596203
-5.4768157 -4.8529205 -5.3861303 -4.371249 -5.7218637 -5.5651445 -5.4904995 -5.383381
-4.6647186 -4.461484 -4.330686 -5.474372 -4.464765 -4.7068596 -4.307776 -5.549781
-5.6559286 -5.3529363 -5.6098332 -5.0680866 -5.1096697 -4.7639713 -5.5476656 -4.613507
-5.137843 -4.552961 -5.5295305 -5.7268376 -5.593212 -5.7587233 -5.0799174 -5.1813607
-4.789193 -5.6833315 -5.017274 -5.22143 -4.357588 -5.8264246 -5.69674 -5.6295033
-5.2154946 -4.84462 -4.680996 -4.509084 -5.1626573 -4.3300614 -4.9247146 -4.3201137
-5.392865 -5.405354 -5.248459 -5.608008 -4.4954886 -4.9148164 -4.3116846 -5.668633
-4.1959314 -4.244162 -4.1841 -5.7933474 -5.747032 -5.6240215 -5.315925 -4.877581
-5.0322742 -4.507007 -4.998502 -4.316245 -5.114352 -4.285506 -5.5406528 -5.596514
-5.5499983 -5.783959 -4.858529 -5.475146 -4.2811856 -5.6331143 -4.3298984 -5.6206775
-4.3587875 -5.732883 -5.6805053 -5.678315 -5.6233153 -4.948617 -5.387561 -4.710013
-5.7017655 -4.9977193 -5.4329104 -4.442207 -5.7094398 -5.7188773 -5.6074977 -5.3473787
-4.7724056 -5.186055 -4.1205716 -4.625533 -4.292477 -5.176791 -4.30599 -5.753136
-5.618836 -5.4707146 -5.5103846 -4.6930985 -5.0856543 -4.501341 -5.5545874 -4.8749313
-5.1434193 -4.4144235 -5.809668 -5.651331 -5.5359073 -4.8495545 -4.3692865 -4.497532

blinear1.weight_sampler.eps_w f4 [24, 11]
00000000: 682d 223f 86c9 1a3d 00c7 8fbf da3a f13f
00000010: 1a19 febd be66 963f bc56 af3f 880d c33f
00000020: 5204 bdbf e637 8d3f 5f34 d33e 5be1 35bf
00000030: aa8c 97bf 2b68 b5bf 2ac9 b3be dd5e 623e
00000040: a5e9 07c0 f2b7 2e3d 7ce7 32bf dba6 a1be
00000050: a945 57bf 566a b03d 5332 323f d66c c53d
00000060: 75ed ccbf 4369 7d3e 04ba 0cbf cbfb 8ebd
00000070: 76b2 d5bf 3bf9 a53f 0eb6 f33e e7bb 7ebf
00000080: ee39 13bf 374d 62bf 5e15 913f 743b 13bf
00000090: 82ef 9abf 9891 dabe f0db e53d 660b 0140
000000a0: a51f 2dbe 41d6 88bc ed30 e03f 7ace 0e3e
000000b0: 7382 14bf 2c0e 97bf 49c5 98bf 9795 6abe
000000c0: a441 c43e b642 97bf 1c42 25bf fd3a 843f
000000d0: a727 9abf 851a bdbf 4ed9 ae3f ccb3 a83e
000000e0: 3537 fbbf 533c 1c3f e755 843f 8ca7 8e3d
000000f0: 11b5 1fbf b40b 25bf e0e0 33be 369d b5bf
00000100: 987f 873f d520 88be 1848 aa3f eeec ecbe
00000110: 0b78 ec3e 62cb 0cbc 392e 7d3f fe16 873f
00000120: b1e5 54bf fcae 253f 346a a7bf d785 16bf
00000130: 730b e7bf 8911 103f a75c 613e 72ef c43f
00000140: 8835 fa3e aca7 0dc0 e2c4 ad3f d8ef b7be
00000150: 5ab0 4abf f758 2abc d129 003f 9938 143d
00000160: 5f5b 94bf d987 3440 93c8 c1bd aa2d 163f
00000170: 9713 9e3e 044d 8bbf 23be aebf 591b 073f
00000180: 26a7 533e 8f73 843d 2ab5 743e 46e6 09be
00000190: fef5 e13f 75fb 83be 9f7c 503f 6bed 283f
000001a0: c2dc 063e 56e3 0abf 2725 b3bd 2d65 e03d
000001b0: 5957 8a3f 8d53 0fbf 5891 91bf b4a6 063f
000001c0: b862 b83f f561 9a3e a365 bb3e 8548 eb3e
000001d0: 400a a53f 799f a9bf 4201 0cbf 5ed8 dc3f
000001e0: 0245 22bf d333 d0be a29b 923f 5945 f83d
000001f0: 882d 28bf 2728 59be 1baa f83f e64c 81be
00000200: b89f 623f d01d 21c0 ee86 9f3f 4bc3 d63f
00000210: ce41 70bf 3616 fabf 8502 fa3e 0780 95bf
00000220: 89c3 433f d017 913f d9a8 d2bf 5856 b8bf
00000230: cafe 55bf ebec 7cbf 5e36 853e c0d3 a4bd
00000240: c322 c03f e707 d5be 7c1c 54bf 2da6 123f
00000250: 31f4 7bbe 2a28 99be 1b04 b0be 164a 1b40
00000260: e620 4b3d 8506 7b3f e7c8 e8be bd0b 61bf
00000270: a2a0 053f fc23 993c d7e5 c33e 7eda 293d
00000280: 26ff 013f 8d8e 03bf 6f70 833f f7a3 b73e
00000290: f258 273f 195f 23c0 3e75 0740 d4f9 b9bf
000002a0: e8e5 21bf 66c7 083e db1d 8fbe ba2e b0bf
000002b0: 57d4 81bf f59d 493f 846d 27bd a46d 613e
000002c0: b5a7 0e40 0869 1f3e 9ca2 e73e c60b 34be
000002d0: 27a3 78bf 8629 653e e46d 8abe 0c64 f2bf
000002e0: aa6a 833e a937 88bf cb91 0d40 abee df3f
000002f0: bb3a 0bc0 e6f0 fe3f e088 7f3f 6785 bbbe
00000300: 2bd3 43bd b930 a53f 2b43 863f f7f0 3e3f
00000310: 1e17 9cbf cc9f 9bbf 20f1 3c3e d722 4b3e
00000320: c435 2f3f 7135 b23e ba0a 113f 6190 533e
00000330: 8696 6fbf 0905 033f 8d7f 8e3d 2ff5 d93f
00000340: ae39 b13f e0c1 07bf ca38 6c3f 6795 1dbe
00000350: 6199 9a3f b731 dbbe 502c f8be 5b28 b6bf
00000360: 6778 9fbe acb6 743d b44b a83f 7d6c 8bbf
00000370: cd30 bc3e 7c52 8abf 71d2 02c0 cb42 0140
00000380: 3861 093f 7c17 72be 2dff aa3e 3d0f 42bf
00000390: be15 fdbf 2a2e 903f 4cfa a2be f119 acbe
000003a0: ef27 b13f a093 6b3e f083 213f 0a23 6f3f
000003b0: b9d6 5d3f 56c7 cc3f 4aa1 6e3e e39c 0dbd
000003c0: da8b 5dbf 2891 a83e 8507 2d3e de89 09c0
000003d0: 04af 4f3d abf3 933e b094 46bf 1b49 2240
000003e0: 3be6 ed3f 2dc0 d3bb 375b f93e baac 39be
000003f0: 0570 afbf 2140 56be 0251 6fbe 7e77 083f
0.63350534 0.037789844 -1.1232605 1.8846085 -0.124071315 1.1750104 1.3698344 1.5238504
-1.4766943 1.1032684 0.41250893 -0.7104699 -1.1839802 -1.4172415 -0.35114413 0.221065
-2.1236355 0.042655893 -0.6988447 -0.31572613 -0.8409067 0.08614032 0.6960804 0.096398994
-1.6009966 0.24747185 -0.5497134 -0.069816194 -1.6695087 1.2966684 0.47599834 -0.99505466
-0.5751027 -0.8839907 1.1334646 -0.57512593 -1.2104342 -0.42689204 0.112235904 2.0163207
-0.16906603 -0.016703727 1.7514931 0.13945952 -0.5801155 -1.18012 -1.1935207 -0.22908626
0.3833133 -1.1817234 -0.64554 1.0330502 -1.2043351 -1.4773718 1.3660066 0.32949674
-1.9626223 0.6102955 1.0338715 0.06965551 -0.6238566 -0.6447098 -0.17566252 -1.4188602
1.0585814 -0.2658755 1.3303251 -0.46274513 0.46185336 -0.008593412 0.98898655 1.0553892
-0.8316298 0.6472013 -1.3079286 -0.58797973 -1.8050369 0.56276757 0.22008 1.5385573
0.48868966 -2.2133589 1.3575709 -0.35925174 -0.7917534 -0.010397187 0.50063807 0.03618679
-1.1590384 2.8207915 -0.094620846 0.5866343 0.3087432 -1.0882878 -1.3651775 0.52776104
0.20669231 0.064673536 0.23897234 -0.13466749 1.7653196 -0.25777784 0.81440157 0.6598727
0.1317015 -0.5425314 -0.087473206 0.10956798 1.0807906 -0.55986863 -1.137248 0.5259812
1.4405127 0.3015286 0.3660098 0.45953766 1.2893753 -1.3251792 -0.5468942 1.725353
-0.6338655 -0.4066454 1.1453745 0.12122602 -0.65694475 -0.21206723 1.9426912 -0.2525398
0.8852496 -2.5174446 1.2463052 1.6778349 -0.9385041 -1.9538028 0.48830047 -1.1679696
0.7647024 1.1335392 -1.6457778 -1.440135 -0.835919 -0.9879901 0.2601804 -0.080482006
1.5010608 -0.41607592 -0.82855964 0.57284814 -0.2460487 -0.29913455 -0.34378132 2.4263968
0.04959192 0.98056823 -0.45465776 -0.87908536 0.5219823 0.018693916 0.3826129 0.041468136
0.5077995 -0.5138939 1.0268687 0.35867283 0.65370095 -2.5526793 2.116531 -1.4529366
-0.63241434 0.13357314 -0.27952465 -1.376426 -1.0142926 0.7875665 -0.040875927 0.22014481
2.228986 0.1556741 0.4524125 -0.17582616 -0.9712395 0.22379121 -0.27036965 -1.8936782
0.25667316 -1.0641986 2.2120235 1.7494711 -2.1754596 1.9917266 0.9981823 -0.36625215
-0.047808807 1.2905494 1.0489248 0.74586433 -1.2194555 -1.2158141 0.18451357 0.19837509
0.68441415 0.34806398 0.5665699 0.20660545 -0.93589056 0.5117956 0.06957922 1.7027949
1.3845727 -0.53030205 0.92274153 -0.15389024 1.2078058 -0.42811367 -0.48471308 -1.4231066
-0.31146547 0.059744522 1.3148103 -1.0892483 0.36755982 -1.0806422 -2.0440943 2.0197017
0.5366397 -0.23641771 0.3339781 -0.758045 -1.977226 1.1264088 -0.31831586 -0.33613542
1.3840312 0.23005533 0.63091946 0.9341284 0.86655766 1.5998333 0.23303714 -0.034573447
-0.8654152 0.32923245 0.168974 -2.1490397 0.050704017 0.2889684 -0.7757063 2.535712
1.8585886 -0.006462118 0.48702404 -0.18132296 -1.3706061 -0.209229 -0.23370746 0.5330733

blinear1.bias_sampler.mu f4 [24]
00000000: 8e2a 5d3d ba2e c73c 317f 373c 3105 71bc
00000010: c4aa a4bc a59f 6a3d 26d1 a53d 2488 533e
00000020: bee5 3e3d 7c76 263e 7d15 31bc 0e97 843d
00000030: e1ea b5bc 3c60 813c 2023 063d b478 be3c
00000040: 87c0 5b3c 26e7 8dbd e99c c33d 88d6 b0bb
00000050: 8922 f33c 21dd 863d 6837 cf3d 804e 893c
0.05399566 0.024314273 0.011199758 -0.01471071 -0.020100959 0.057281155 0.080965325 0.20657402
0.046605818 0.16256136 -0.010808346 0.06474124 -0.022206726 0.015792958 0.03274834 0.023250915
0.013412601 -0.06928854 0.095514126 -0.005396668 0.029679554 0.06585146 0.1011799 0.016761065

blinear1.bias_sampler.rho f4 [24]
00000000: 4262 9bc0 27c3 98c0 e3d6 8fc0 b65c 97c0
00000010: a707 91c0 f036 97c0 2260 9dc0 7c67 a0c0
00000020: 3fa6 9fc0 4d74 97c0 6b62 98c0 1804 92c0
00000030: a3aa 94c0 c80c 91c0 cd3b 9fc0 9f7a 9cc0
00000040: 3a15 98c0 46b2 98c0 2740 91c0 7859 a2c0
00000050: e8c7 97c0 1cca 97c0 d57c 90c0 17eb 8bc0
-4.8557444 -4.7738223 -4.4949813 -4.7300673 -4.532184 -4.725456 -4.917985 -5.0126324
-4.9890437 -4.732947 -4.762014 -4.5629997 -4.6458297 -4.53281 -4.97605 -4.8899684
-4.752591 -4.771762 -4.539081 -5.0734215 -4.7431526 -4.7434216 -4.5152383 -4.3724475

blinear1.bias_sampler.eps_w f4 [24]
00000000: 9ea2 b83e 4924 923f 90bc 60bf de18 1d3f
00000010: 26b2 e53f a58e 75bf 5eb4 963e 40bd 5cbe
00000020: c5a8 a93e 6fc4 88bf 5229 12c0 0c51 993f
00000030: 4a71 f83d 919a 9a3f 25e0 953f fa92 bb3f
00000040: 4441 c0bf 6fe7 5cbf 9313 973f dc22 a83f
00000050: 8ef7 073f 13c7 ae3e 66ef 5f3f e204 d23f
0.36061567 1.1417323 -0.87787724 0.6136607 1.7944992 -0.95920783 0.29434484 -0.21556568
0.33136573 -1.0684947 -2.283772 1.1977859 0.12130983 1.207842 1.1709028 1.4654229
-1.5019917 -0.8629064 1.1802849 1.3135638 0.53112113 0.34136257 0.8747467 1.640774

blinear2.weight_mu f4 [24, 24]
00000000: 3348 03be 85be 07ba 8ee1 0dbd 075b 53bd
00000010: 1d87 633e 2241 8e3c 8bea 78bc 579e d73d
00000020: 8b70 ad3e 6994 21bb d135 2b3d 69eb 883d
00000030: 3eef 2fbe 8f83 a0bc 5be4 b43e c7d6 82bb
00000040: 0b28 6c3e c145 743e 156f 14be 3e0c 883e
00000050: 5dd9 e6bc b66a 42be 54b6 f63b 6c64 b6ba
00000060: 2fba 6fbc 294e 0bbc 0d38 1ebb 0436 d6bb
00000070: 6d5b 8dbb e670 43bc 0b6f 06bc 3fe6 bcbc
00000080: 8c6c b8ba 49ec 5cbc edb8 61bc 7f4f 97bb
00000090: 1e2d 00bc 1bad 9ebb f4ca b3b8 7891 05bc
000000a0: c339 33ba 6ddd 123b 28e7 db3a bad2 37ba
000000b0: e27f 55bc acef 223b 4761 1abc ffcd f9bb
000000c0: d1ca 1dbe 368a 86bd 60cb 9e3d ec56 cbbd
000000d0: a6fa c5bb ec7e 013c bdfd b23d f541 16bd
000000e0: 973b 9b3e ae03 91bd 79c3 6fbd 00a5 d23c
000000f0: 7cec 183d c28c 03be 2ea2 933e 0bcc 8b3c
00000100: e03c 513e 048a 993e a5ad a8bd d733 813e
00000110: bbf1 013d 2d4f 38bd ebcc bc3d 609d 36bd
00000120: 0e14 493e 6f2b 053e bc5b 823e e12f 973e
00000130: 612b c8bd 3538 793e 0ec6 503e fb7a aa3e
00000140: ea19 d1be 2b21 123e 0e48 193e 2a06 683d
00000150: 7ab4 493e 66b9 5b3d 1778 b1be e5eb 323e
00000160: c8db 82be c121 60be 59e4 643e 8987 b5be
00000170: 6199 423e 1d49 ac3e 1ef8 33bc 26d6 ea3c
00000180: 5d76 a23e 292d 503e 600d c53d 2fe8 8f3d
00000190: 0618 99be ab90 3f3e f1aa f63d 4d0e 2a3e
000001a0: 2053 67be 54ae 5a3e ab12 1c3e a275 483e
000001b0: 26b3 263c 7306 5e3d b8cb e3be 4f81 5d3e
000001c0: dd47 f9bd b4de 78be e7c0 a03e ba81 d7be
000001d0: 61bf 133e a305 863e 2a75 7c3e 9a98 2a3e
000001e0: 9b0f 813e f800 b23e d09e 5d3c 8c9f bf3d
000001f0: 1a41 7abd 8bba f83d 3919 053e d446 833e
00000200: cb07 05bf b38e 1a3e bf47 e83d 43e1 173e
00000210: 36fa 123e 7404 09bd 87fa b1be 0a1b b53d
00000220: 51cb 85be 3299 78be f16e 673e 8319 04bf
00000230: acc5 9d3d 9f64 943d 7968 fe3d 537a 363e
00000240: c129 24be 5af8 d2bc c20b e63d 673a 15bd
00000250: 27ae babd 5670 62bc f915 153e 6c89 54be
00000260: 9e32 a53e dfa8 d33c ac33 58bd 28fe 4a3d
00000270: eaaf 1e3c efe2 a0bc 2220 5f3e df6b e43b
00000280: 6fe9 153e c75a 913e e906 02bd 76c8 9e3e
00000290: 7279 4b3d 04d2 a1bd 3b39 51bc 1724 373d
000002a0: eb7d 16be 51f1 8e3d 0fcd a33c d493 01bd
000002b0: 63e0 0f3e 5edf 6e3d 0881 23be d88c 853d
000002c0: 7615 613e cf14 833c a4eb b13d 023e f03d
000002d0: de8d 49be 0656 14bd 4f08 513e a796 853c
000002e0: 2832 063e 320f 3f3e bfc3 d4bd e104 413e
000002f0: bd00 d33a 909d 06be cbe9 bfbc 8f3b 41bd
00000300: 07cf 9dbc 7155 683b bc87 e73d 4fa2 1abc
00000310: d5b4 45bd 654b 14bd b640 80bc 69ba 14be
00000320: d4e5 8e3e 7de9 303e 0b21 cbbd 6a05 413d
00000330: 5f3c 113a b9ad 17bd b103 903e 6ec8 53bc
00000340: 1b0c 693e 5aef 943e 3f87 5dbd 18aa 713e
00000350: f468 0a3d fd49 843a 1e39 f0bc f2fe 173e
00000360: 8475 af3e ea10 dc3d 549a b23d 0fbb 0e3e
00000370: 4fde d9bd 4c7c 9ebd 2ccf 8d3e 7402 393e
00000380: 42e4 acbe 7a44 593e 81b4 ac3e a1c8 3c3c
00000390: 1afd eb3d 6b1a 173d 22ab 4ebe f6f4 4e3e
000003a0: 6e8c 6dbe 8f51 80be f43b 753e 82f6 a0be
000003b0: 2003 153e 55f5 ca3e 323a 8a3e ec39 053d
000003c0: 2c05 a53d 403b 1b3e f2b0 3f3e 30b6 2c3e
000003d0: ed1a 6ebe c489 dc3d 8599 113e 6558 b03e
000003e0: 1ebf b6be cdf2 363e 5bbd e93d 6b80 ba3e
000003f0: 7725 c73e 55e9 263e c401 bfbe 11b4 683e
-0.1282051 -0.0005178231 -0.034638934 -0.051600482 0.2221951 0.017365042 -0.015192638 0.10528248
0.33874926 -0.002465511 0.04179937 0.06685526 -0.17181107 -0.019593982 0.3533047 -0.0039928886
0.2306215 0.23854734 -0.144955 0.2657184 -0.028179819 -0.1898602 0.0075290594 -0.0013915426
-0.014631792 -0.008502522 -0.0024142296 -0.006537201 -0.0043138773 -0.011928773 -0.008205186 -0.023059009
-0.0014070435 -0.013484069 -0.013777 -0.004617631 -0.007823257 -0.004842413 -8.573188e-05 -0.008152358
-0.0006836915 0.0022409812 0.0016777264 -0.00070122967 -0.013030978 0.0024862094 -0.009422607 -0.0076234336
-0.154094 -0.065693304 0.077536345 -0.099286884 -0.0060418425 0.007903796 0.08739803 -0.036683995
0.303189 -0.0708078 -0.058536027 0.025713444 0.037334904 -0.12846664 0.2883467 0.017065069
0.20433378 0.2998811 -0.08236245 0.25234863 0.031724673 -0.044997383 0.092187725 -0.04458368
0.19636557 0.1300485 0.25460613 0.29528716 -0.09773899 0.24337848 0.20388052 0.33296952
-0.40840083 0.14270465 0.14968893 0.056646504 0.19697753 0.053643607 -0.34661934 0.17472799
-0.25558305 -0.21887876 0.22352733 -0.35454968 0.19003822 0.3364953 -0.010984449 0.028666567
0.3173093 0.20329727 0.09621692 0.070267074 -0.2990114 0.1870753 0.12044323 0.16607018
-0.22590303 0.21355563 0.15241496 0.19576123 0.010174548 0.05420537 -0.44491363 0.21631359
-0.1217191 -0.24303705 0.31397173 -0.4209116 0.14428474 0.26176175 0.2465407 0.16659775
0.2520722 0.34766364 0.013526633 0.09356603 -0.061097242 0.12144955 0.12997903 0.25639975
-0.51965016 0.15093498 0.113418095 0.14832024 0.1435326 -0.033451512 -0.3476145 0.08843048
-0.2613168 -0.2427719 0.22600915 -0.5160143 0.077037185 0.072457545 0.1242227 0.178201
-0.16031553 -0.025753189 0.112327114 -0.03643265 -0.09115248 -0.013820728 0.14559163 -0.20755547
0.3226518 0.02583736 -0.052783653 0.04955879 0.009685496 -0.01963946 0.21789601 0.006970867
0.14639829 0.2838957 -0.03174487 0.31012315 0.049676366 -0.079013854 -0.012769992 0.044712152
-0.14696471 0.06979621 0.01999524 -0.03163512 0.1405044 0.05831849 -0.1596719 0.065210044
0.21980843 0.016001133 0.08687523 0.11730577 -0.19683024 -0.03621485 0.20413326 0.016307188
0.1310507 0.1865814 -0.10388898 0.18849517 0.0016098242 -0.13146043 -0.02342691 -0.04717594
-0.019263757 0.0035451318 0.11305186 -0.009438111 -0.048268158 -0.036204714 -0.015655857 -0.14524235
0.2790972 0.17276569 -0.09918412 0.047124304 0.0005540307 -0.03703091 0.28127816 -0.012926204
0.22758524 0.2908886 -0.05408406 0.23600042 0.033791497 0.0010092851 -0.02932411 0.14843348
0.34269345 0.107454136 0.08720842 0.13938545 -0.10638105 -0.077385515 0.27697122 0.18067342
-0.33767897 0.21217528 0.33731464 0.011522443 0.11522885 0.03689043 -0.2018247 0.20210633
-0.23198101 -0.25062224 0.23948652 -0.3143807 0.14551973 0.39640298 0.26997524 0.03252594
0.08057627 0.15159321 0.18719843 0.16866374 -0.23252459 0.10768464 0.1421872 0.3444244
-0.35692686 0.17866059 0.1141307 0.364261 0.3889577 0.16299947 -0.37306035 0.2272494

blinear2.weight_rho f4 [24, 24]
00000000: d89c 9dc0 954b a2c0 03a3 a2c0 a705 a2c0
00000010: fc74 9ec0 9760 a1c0 2fe5 a4c0 2c38 abc0
00000020: 2694 92c0 4d15 a7c0 336f a8c0 974f a6c0
00000030: 6b21 9ec0 6ee4 9ec0 8389 95c0 fa4e a6c0
00000040: 00a2 96c0 c0b8 95c0 c89e a2c0 0f33 94c0
00000050: 764f a9c0 311f 9cc0 7dbe a5c0 e6ea 92c0
00000060: 0f13 86c0 2907 87c0 1582 88c0 c7ed 86c0
00000070: b892 87c0 75f8 81c0 5f2d 88c0 af49 8bc0
00000080: 97ce 80c0 cbd1 8dc0 e1d2 86c0 d62b 88c0
00000090: 6cdf 86c0 71fc 84c0 b32b 86c0 acfc 84c0
000000a0: ec81 87c0 1b34 86c0 5b04 89c0 2a34 84c0
000000b0: 2a5e 80c0 dc5f 87c0 4d4a 85c0 9e45 84c0
000000c0: 2811 95c0 2f1a 9ec0 7560 9ac0 9281 94c0
000000d0: 91a6 a0c0 a2b9 97c0 0c61 aac0 5371 aac0
000000e0: f326 92c0 81d6 a7c0 027d a4c0 2e80 a2c0
000000f0: 18da a1c0 4200 9ac0 a43b 91c0 e8ad a3c0
00000100: 3ae7 92c0 e477 9ac0 ae60 96c0 fbab 8fc0
00000110: 3e27 a3c0 705e 99c0 616e a2c0 c675 93c0
00000120: 4b5e a9c0 7258 b0c0 e64b a7c0 fe67 abc0
00000130: 3245 afc0 bfc7 adc0 92cf b9c0 eb31 b6c0
00000140: fd3a 9ec0 8670 bcc0 3007 b4c0 7da9 b3c0
00000150: 0322 b1c0 b0e0 aac0 9d45 a0c0 5056 b0c0
00000160: a819 9dc0 0123 9ec0 73a1 a6c0 dc15 9cc0
00000170: 313b b3c0 822f a7c0 2ee6 b3c0 9d76 a9c0
00000180: e062 adc0 317d b3c0 84c1 aec0 262e a9c0
00000190: 002e aec0 5d32 b0c0 353c bcc0 e375 bac0
000001a0: 05de 9dc0 3ac4 b5c0 6f01 b6c0 3b1e b6c0
000001b0: 55c7 aec0 a507 adc0 4add 9fc0 931c b2c0
000001c0: e104 a4c0 7095 9fc0 41c7 aec0 ab90 9dc0
000001d0: 8b8d b7c0 cfda a7c0 e8fd aec0 d949 acc0
000001e0: 206f b1c0 58c5 b7c0 fb13 b2c0 7676 a9c0
000001f0: 3b76 b1c0 eff9 b3c0 e30f bac0 fa56 bbc0
00000200: f0e9 a4c0 ceab b6c0 30b9 bac0 9298 b7c0
00000210: 2816 b9c0 cd68 b2c0 b5c3 a7c0 ef03 b8c0
00000220: ae05 a3c0 b8eb aac0 5b28 adc0 d47f 9dc0
00000230: 9124 b5c0 01bb b1c0 c972 b8c0 2368 acc0
00000240: 2255 95c0 9bbc a4c0 3195 a5c0 2d1f 9dc0
00000250: 77e6 a4c0 27c6 9ec0 5f35 adc0 e858 a9c0
00000260: b00b 99c0 3e97 aec0 7ca7 aac0 9a81 a6c0
00000270: e2ab aac0 c62a 9bc0 5a76 96c0 1696 a2c0
00000280: e7dd 96c0 4bc8 99c0 8d57 9bc0 6fe1 98c0
00000290: 8e12 aac0 5db1 9cc0 1cab aac0 0cf9 94c0
000002a0: c5bf 98c0 0db6 98c0 8474 9cc0 6cb8 99c0
000002b0: 7e0a 9cc0 d3db 99c0 a24d a5c0 48c3 aac0
000002c0: 1ff8 93c0 eec9 a8c0 d095 a3c0 40f1 a1c0
000002d0: 04bd a1c0 00d5 99c0 a0b1 8fc0 f129 98c0
000002e0: 7cdd 8fc0 e7a8 91c0 e236 91c0 6431 90c0
000002f0: fc87 a2c0 2949 99c0 2abf a0c0 be73 8fc0
00000300: c329 99c0 4395 9fc0 863f 9cc0 eb76 9cc0
00000310: 5cfa 9dc0 1622 99c0 5ba2 a4c0 f32b aac0
00000320: e757 96c0 8056 a4c0 3b38 9fc0 dd89 a0c0
00000330: f204 9dc0 ef25 95c0 3dc6 98c0 b0bb 9dc0
00000340: 6aa2 95c0 564f 9cc0 8ff3 9ac0 c3cf 8ec0
00000350: 89af 9cc0 9487 9cc0 6845 a2c0 ed35 9dc0
00000360: 96b4 acc0 4347 b3c0 2919 a9c0 bc0d a7c0
00000370: cbc9 abc0 dbf0 adc0 b8be b8c0 bc70 b3c0
00000380: a5b1 9cc0 e449 b6c0 b9bd b6c0 9c9c b1c0
00000390: dfbe afc0 d060 aac0 43dd a3c0 f568 b0c0
000003a0: 98d2 9fc0 6132 9fc0 c9cf a7c0 578d 9ac0
000003b0: e0c3 b5c0 b058 a9c0 c504 b3c0 408a a6c0
000003c0: 1891 a9c0 8e8a afc0 6851 a6c0 c768 acc0
000003d0: 564f adc0 4fcc aec0 1478 b7c0 3d88 b9c0
000003e0: 0285 9bc0 bbd8 b5c0 2b81 b8c0 fffa b4c0
000003f0: 3ae5 b0c0 1d5a a8c0 0cb5 a2c0 0fe3 adc0
-4.925396 -5.0717263 -5.082399 -5.06319 -4.9517803 -5.0430408 -5.1529765 -5.350607
-4.5805845 -5.22135 -5.263574 -5.1972156 -4.9415793 -4.9653845 -4.673036 -5.1971407
-4.7072754 -4.6788025 -5.0818825 -4.6312327 -5.29095 -4.8788075 -5.179503 -4.591174
-4.1898265 -4.219624 -4.265879 -4.2165256 -4.23666 -4.061579 -4.2555385 -4.3527446
-4.0252185 -4.4318595 -4.213242 -4.255351 -4.214773 -4.1558156 -4.1928344 -4.1558437
-4.2346096 -4.1938605 -4.2817817 -4.1313677 -4.0114946 -4.2304516 -4.16532 -4.133498
-4.6583443 -4.9406962 -4.8242745 -4.6408167 -5.020333 -4.7414103 -5.3243465 -5.3263335
-4.5672545 -5.2449346 -5.1402597 -5.078147 -5.057873 -4.8125315 -4.5385303 -5.114979
-4.590726 -4.827135 -4.6993017 -4.4897437 -5.0985403 -4.792778 -5.075974 -4.6081266
-5.2927604 -5.5107965 -5.228015 -5.3564444 -5.4771967 -5.430633 -5.806588 -5.6935935
-4.9447007 -5.888736 -5.6258774 -5.6144395 -5.535402 -5.3399277 -5.0084977 -5.510536
-4.909382 -4.941773 -5.207208 -4.8776684 -5.6009755 -5.2245493 -5.621848 -5.295729
-5.4183197 -5.609032 -5.4611225 -5.2868834 -5.443115 -5.506148 -5.8823495 -5.8268905
-4.933352 -5.6802034 -5.687675 -5.6911902 -5.4618325 -5.407183 -4.995763 -5.565988
-5.1255956 -4.986992 -5.461823 -4.9239097 -5.736028 -5.24546 -5.4684944 -5.3840146
-5.544815 -5.74284 -5.564939 -5.2957106 -5.5456824 -5.6242595 -5.8144393 -5.8543673
-5.153557 -5.7084723 -5.835106 -5.7373743 -5.7839546 -5.575293 -5.24264 -5.75048
-5.0944433 -5.3412743 -5.411176 -4.921854 -5.6607137 -5.5540776 -5.764012 -5.387712
-4.666642 -5.148023 -5.174462 -4.9100556 -5.153133 -4.9616885 -5.412765 -5.292103
-4.7826767 -5.455962 -5.332945 -5.2033205 -5.333482 -4.8489714 -4.701947 -5.080821
-4.7145877 -4.8057 -4.8544374 -4.7775187 -5.314765 -4.896651 -5.3333874 -4.655401
-4.7734094 -4.772223 -4.889223 -4.8037624 -4.876281 -4.808084 -5.1657267 -5.336338
-4.624038 -5.2746496 -5.1120377 -5.0606995 -5.054323 -4.807251 -4.4904327 -4.75512
-4.4957867 -4.551868 -4.5379496 -4.506029 -5.0790997 -4.7901807 -5.0233355 -4.4828787
-4.786348 -4.9869704 -4.8827543 -4.8895164 -4.9368114 -4.785411 -5.144819 -5.317865
-4.6982303 -5.135559 -4.975614 -5.016829 -4.9068537 -4.6608806 -4.774199 -4.929161
-4.676076 -4.8846846 -4.8422313 -4.4628615 -4.8964276 -4.89155 -5.0709724 -4.9128327
-5.397044 -5.602449 -5.2843213 -5.2204266 -5.368383 -5.4356513 -5.773281 -5.6075115
-4.896685 -5.69652 -5.7106595 -5.5503674 -5.4920497 -5.324318 -5.1207595 -5.512812
-4.9944572 -4.9749 -5.2441144 -4.8297534 -5.6801605 -5.292076 -5.594332 -5.204376
-5.2989616 -5.4856634 -5.1974373 -5.38779 -5.4159346 -5.46244 -5.733408 -5.7978806
-4.8599863 -5.6827064 -5.7657676 -5.655639 -5.5279818 -5.261 -5.0846004 -5.433967

blinear2.bias_mu f4 [24]
00000000: 934e 003d 15b9 94bb 217f 723b 340d 33bc
00000010: c3e0 543d 3b13 0b3d 84dd 023d d083 063d
00000020: 52ae 5d3c 0078 ca3c f27e a33c 5d37 893c
00000030: aaee 3a3d 7768 803c ea43 d03c f979 3e3d
00000040: 39db b1ba d42d d83c 6d92 6e3d b839 183d
00000050: f735 793d baee 093d 1e4e 273d 70a4 11bb
0.031324934 -0.004538665 0.0037002044 -0.010928441 0.051972162 0.033953886 0.031949535 0.03284055
0.013530331 0.024715424 0.019957993 0.016750032 0.045637764 0.015674813 0.025423009 0.04650304
-0.0013569362 0.02638904 0.05824511 0.03716442 0.06084248 0.033674933 0.040845983 -0.0022223257

blinear2.bias_rho f4 [24]
00000000: 4332 8fc0 f552 82c0 c2e3 8dc0 0aa6 93c0
00000010: 863a 98c0 74cb 97c0 aff6 88c0 8d40 88c0
00000020: 615f 8ec0 af1f 93c0 2a54 95c0 ad65 8bc0
00000030: f039 96c0 9144 88c0 7030 8ec0 248d 97c0
00000040: 5aa0 8ac0 bd9a 8ac0 9219 8ec0 a779 88c0
00000050: 6ef1 96c0 9d6b 89c0 9f1c 8cc0 3e7e 84c0
-4.4748855 -4.0726266 -4.4340525 -4.6140184 -4.757144 -4.7435856 -4.2801127 -4.2578797
-4.449143 -4.5976176 -4.666524 -4.3561616 -4.6945724 -4.25837 -4.443413 -4.735979
-4.332074 -4.331389 -4.4406214 -4.26485 -4.7169714 -4.2943864 -4.378494 -4.1404104
