summit/benchmarks/experiment_emulator/trained_models/BNN/reizman_suzuki_case1_ton_BNN_model.pt (torch_old, 15251 bytes, 25 tensors)

blinear1.weight_mu f4 [24, 11]
0.007359598 0.14522843 -0.00067582895 0.03874871 -0.09144805 -0.025300104 0.038477782 0.13142456
-0.011346598 -0.10208294 0.07556122 0.026920967 0.1603553 -0.01993226 0.03576963 -0.1269951
-0.023116272 0.03839208 0.11663526 -0.009278997 -0.0846828 0.115846284 0.07212965 0.20132542
-0.06342192 0.022634069 -0.12744239 -0.018207148 0.025310105 0.09731706 -0.00880506 -0.046465162
0.07147821 -0.022257227 0.091771156 -0.02108483 0.15045148 -0.09446912 -0.02829984 0.006928061
0.113739155 -0.012034654 -0.108806685 0.07630349 0.05362964 0.20760086 -0.05212396 0.029742705
-0.18241495 -0.023296569 0.045777 0.10044195 -0.0020725683 -0.05415745 0.08166435 0.044874974
0.16050766 -0.049816012 -0.008044014 -0.14008828 -0.0324539 0.017666044 0.06422957 -0.012607409
-0.04376619 0.052769683 -0.1549273 -0.09579278 -0.27228814 -0.19782776 0.16919442 -0.019612571
-0.00902915 -0.025469717 0.0016485472 0.21744365 0.11241532 0.19382495 0.123783 -0.18634103
-0.11540244 -0.14634176 0.030163312 -0.02070542 0.1048502 -0.0017939911 -0.043581095 -0.082011655
-0.04933473 0.09034668 -0.0122776 0.11825748 -0.092148855 -0.028684746 0.07872277 0.1220876
-0.0384561 -0.115054466 0.047276825 0.024985421 0.15836847 -0.0037834293 0.03763445 -0.09457151
-0.018665226 0.046366017 0.1404078 -0.0049773636 -0.10325891 0.08358959 0.007281208 0.078737326
-0.039134443 0.1265901 -0.12677611 0.029234955 0.018952496 0.124065444 -0.015318642 -0.079089835
0.056089006 0.008453347 0.103360265 -0.04258142 0.16289982 -0.11422042 0.026186718 0.04422214
0.124513365 -0.008693027 -0.085165925 0.075472966 0.20083104 0.12841292 -0.21551621 -0.12256648
-0.14854755 0.024833433 -0.016749537 0.100359455 -0.0021456976 -0.046175767 -0.12993902 0.020570476
0.16026513 -0.011784319 0.039591264 -0.06697399 -0.012119445 0.04729188 0.1645245 -0.0038752635
-0.09198104 0.07780634 0.05599068 0.18203883 -0.06350631 0.027190514 -0.1348515 -0.024120398
0.00764712 0.091815084 -0.010158875 -0.045123085 0.05416157 0.01634616 0.15538651 0.0048988205
0.037191894 -0.085052006 -0.016386459 0.037637684 0.13842782 -0.0054660263 -0.10461731 0.08312872
0.02405327 0.16242026 -0.0054673404 0.012408131 -0.0984661 -0.025399948 0.0496732 0.13536443
-0.00053907384 -0.09816847 0.0816184 0.05870346 0.19388089 -0.060895856 0.024510114 -0.12828368
-0.017520027 0.032543983 0.10193071 -0.0075634858 -0.05540392 0.06838443 0.14583418 -0.11147485
-0.06478606 -0.09731497 0.18342009 -0.110254735 0.10647832 -0.17460217 0.10735142 0.016835202
0.23436414 -0.019911679 0.09008961 -0.0274935 0.10490687 -0.10031143 -0.035298023 0.05301385
0.10331644 -0.01578824 -0.09104737 0.0719367 0.20408186 0.1076654 -0.18609469 -0.13618799
-0.14240207 0.027819429 -0.019403247 0.11145021 -0.003820545 -0.04154989 -0.06350027 -0.07534632
0.10604287 -0.0032755577 0.12397249 -0.059096757 -0.02723385 0.07951296 0.10459055 -0.05122276
-0.11516014 0.07106197 0.12839708 0.12680203 -0.10154073 -0.04496359 -0.13092855 0.01976195
-0.018877916 0.08993401 0.011970021 -0.06063723 -0.03318083 -0.02407137 0.08934485 0.031295042
00000000: c828 f13b c3b6 143e 1d2a 31ba f8b6 1e3d
00000010: 1e49 bbbd 2a42 cfbc e19a 1d3d 2994 063e
00000020: 15e7 39bc dc10 d1bd d7bf 9a3d 5c89 dc3c
00000030: 2e34 243e fb48 a3bc 2d83 123d 010b 02be
00000040: 565e bdbc 0441 1d3d 78de ee3d ef06 18bc
00000050: 2d6e adbd d140 ed3d b6b8 933d 4028 4e3e
00000060: 5ae3 81bd 156b b93c 4280 02be 2827 95bc
00000070: 2357 cf3c 2b4e c73d 1943 10bc 4152 3ebd
00000080: 2b63 923d ca54 b6bc 84f2 bb3d 18ba acbc
00000090: f40f 1a3e 0779 c1bd 11d5 e7bc ca04 e33b
000000a0: 13f0 e83d ff2c 45bc 0ad6 debd 0145 9c3d
000000b0: c1aa 5b3d 5295 543e ef7f 55bd f9a6 f33c
000000c0: fcca 3abe 72d8 bebc aa80 3b3d 82b4 cd3d
000000d0: edd3 07bb 34d4 5dbd a43f a73d d2ce 373d
000000e0: 1f5c 243e e00b 4cbd 0acb 03bc 4d73 0fbe
000000f0: 61ee 04bd 61b8 903c cb8a 833d 4e8f 4ebc
00000100: 2d44 33bd 0625 583d 43a5 1ebe 012f c4bd
00000110: 5a69 8bbe 5c93 4abe 4d41 2d3e 8baa a0bc
00000120: 00ef 13bc dea5 d0bc 1114 d83a 8ca9 5e3e
00000130: 013a e63d 0c7a 463e f181 fd3d 2fd0 3ebe
00000140: 1d58 ecbd 9dda 15be 0d19 f73c 6a9e a9bc
00000150: b4bb d63d 5a24 ebba 1782 32bd baf5 a7bd
00000160: 3713 4abd ae07 b93d fd27 49bc fa30 f23d
00000170: 8ab8 bcbd 46fc eabc 6739 a13d 1009 fa3d
00000180: 2584 1dbd ada1 ebbd 58a5 413d 3aae cc3c
00000190: 582b 223e 69f3 77bb 9526 1a3d b5ae c1bd
000001a0: d1e7 98bc 4bea 3d3d 10c7 0f3e 2719 a3bb
000001b0: 6879 d3bd 0531 ab3d 3397 ee3b 0941 a13d
000001c0: 704b 20bd d6a0 013e 99d1 01be 257e ef3c
000001d0: 4442 9b3c 0616 fe3d 0bfb 7abc daf9 a1bd
000001e0: 96bd 653d e87f 0a3c 8cae d33d db69 2ebd
000001f0: 36cf 263e 65ec e9bd 8785 d63c 4622 353d
00000200: dd00 ff3d 336d 0ebc 796b aebd 9291 9a3d
00000210: a7a6 4d3e ad7e 033e 48b0 5cbe 2204 fbbd
00000220: d91c 18be 7c6f cb3c 5336 89bc 4289 cd3d
00000230: d59e 0cbb cd22 3dbd bc0e 05be 6a83 a83c
00000240: 8b1c 243e 0413 41bc 732a 223d a929 89bd
00000250: a390 46bc 21b5 413d 1c79 283e 22f8 7dbb
00000260: 8e60 bcbd ee58 9f3d 7c56 653d 6368 3a3e
00000270: 990f 82bd a4be de3c 8316 0abe 2498 c5bc
00000280: b194 fa3b 8c09 bc3d 6971 26bc fcd2 38bd
00000290: 86d8 5d3d 62e8 853c a41d 1f3e 4986 a03b
000002a0: 8756 183d bf2f aebd e53c 86bc f929 1a3d
000002b0: 06c0 0d3e 5a1c b3bb 9a41 d6bd 643f aa3d
000002c0: 5d0b c53c 7f51 263e 6027 b3bb 794b 4b3c
000002d0: 98a8 c9bd 8d13 d0bc 2076 4b3d f99c 0a3e
000002e0: a250 0dba 8d0c c9bd 8c27 a73d 0a73 703d
000002f0: b688 463e ef6d 79bd 6fc9 c83c cc5c 03be
00000300: 2986 8fbc d74c 053d 0cc1 d03d 1ed7 f7bb
00000310: 39ef 62bd 230d 8c3d 8e55 153e ed4c e4bd
00000320: 8eae 84bd 124d c7bd 7ad2 3b3e 3ccd e1bd
00000330: 4e11 da3d e9ca 32be 10db db3d fae9 893c
00000340: 27fd 6f3e d11d a3bc e780 b83d 0c3a e1bc
00000350: 6ad9 d63d 1470 cdbd a994 10bd 0d25 593d
00000360: 9297 d33d 5756 81bc 0b77 babd 8c53 933d
00000370: d6fa 503e ad7f dc3d 9b8f 3ebe dd74 0bbe
00000380: d9d1 11be 92e5 e33c 8ff3 9ebc 0240 e43d
00000390: 1c62 7abb 3830 2abd 6e0c 82bd 2c4f 9abd
000003a0: 012d d93d bdaa 56bb 4ae5 fd3d 710f 72bd
000003b0: 8619 dfbc b1d7 a23d 9233 d63d f5ce 51bd
000003c0: 14d9 ebbd f088 913d 867a 033e 64d8 013e
000003d0: 96f4 cfbd be2b 38bd 2212 06be d0e3 a13c
000003e0: dca5 9abc 522f b83d e81d 443c be5e 78bd
000003f0: 9fe8 07bd 5231 c5bc 6ffa b63d 3b2f 003d

blinear1.weight_rho f4 [24, 11]
-5.54544 -5.6013317 -5.4976506 -5.483881 -5.2298875 -4.950992 -5.3161387 -5.564433
-5.0466013 -4.988757 -5.3888526 -5.6197214 -5.486803 -5.481365 -5.3466573 -5.244869
-4.975646 -5.367093 -5.6317983 -5.032245 -5.0516586 -5.4546027 -5.6185794 -5.559818
-5.613782 -5.2524896 -5.1832232 -4.8853164 -5.3530087 -5.443999 -5.075852 -4.77089
-5.32724 -5.792565 -5.649077 -5.788032 -5.4196754 -5.3224535 -4.9573846 -5.549395
-5.582523 -4.986881 -4.9154367 -5.3055186 -5.701914 -5.641299 -5.5146766 -5.2758784
-5.1849337 -4.855525 -5.371994 -5.5681963 -5.019742 -5.134134 -5.42858 -5.605721
-5.401612 -5.5375643 -5.186425 -5.0503235 -4.8300767 -5.3096156 -5.580063 -5.028474
-4.8637514 -5.3400755 -5.511449 -5.5609546 -5.726681 -5.3485327 -5.4047866 -4.923621
-5.2869334 -5.648435 -5.2831864 -5.0970545 -5.6868043 -5.693226 -5.5988684 -5.55714
-5.378472 -5.142128 -4.7658587 -5.430932 -5.6661143 -5.0769253 -5.0303574 -5.3765187
-5.4942226 -5.558242 -5.593117 -5.488429 -5.120948 -4.930236 -5.4370394 -5.589002
-5.1229663 -5.0846224 -5.306919 -5.478316 -5.65762 -5.683802 -5.323606 -5.1561217
-4.8612347 -5.4672074 -5.684349 -5.084866 -4.9067245 -5.3916035 -5.6243706 -5.7821474
-5.8055186 -5.5610948 -5.242292 -4.9940224 -5.520003 -5.611415 -5.2053266 -5.0645094
-5.436945 -5.706041 -5.5451913 -5.412944 -5.421085 -5.2924128 -4.863844 -5.4204845
-5.529737 -5.071963 -4.86732 -5.479116 -5.6165576 -5.577538 -5.655956 -5.167598
-5.1957293 -4.9789443 -5.35642 -5.5830455 -5.0313897 -5.0617967 -5.3165317 -5.5459228
-5.7003455 -5.764982 -5.372119 -5.2717624 -5.001922 -5.437581 -5.7226973 -5.134574
-5.0498238 -5.4478583 -5.729574 -5.5481462 -5.607313 -5.201637 -5.1288977 -5.0455904
-5.333 -5.552457 -4.947638 -4.9576607 -5.3506966 -5.7093835 -5.6436505 -5.5575805
-5.3784833 -5.161196 -4.9661107 -5.4031343 -5.6997437 -5.280624 -4.919802 -5.2363486
-5.572884 -5.5545573 -5.5194054 -5.2380857 -5.273445 -4.7584286 -5.3094387 -5.655455
-5.1618433 -4.985637 -5.4105334 -5.598131 -5.596264 -5.526413 -5.2260623 -5.2415752
-5.0447893 -5.4024305 -5.656918 -4.9268537 -5.0398016 -5.475832 -5.608904 -5.663571
-5.7476225 -5.3604627 -5.3231053 -4.959706 -5.4096346 -5.728575 -5.119188 -4.905104
-5.5272293 -5.69038 -5.581926 -5.520149 -5.4661207 -5.120698 -4.861899 -5.298602
-5.727586 -4.933339 -4.9600167 -5.4009504 -5.632042 -5.6667614 -5.765787 -5.243298
-5.293738 -4.865734 -5.2614284 -5.713533 -5.0014887 -4.9973583 -5.2892604 -5.6744227
-5.5614595 -5.52495 -5.4570036 -5.1170845 -5.081732 -5.2750397 -5.6466823 -5.122911
-4.9365187 -5.424441 -5.458737 -5.464596 -5.486346 -5.3660154 -5.2069583 -4.928631
-5.3413014 -5.573036 -5.062841 -4.9268913 -5.4102387 -5.517937 -5.583601 -5.6092486
00000000: 3f74 b1c0 1c3e b3c0 c1ec afc0 f47b afc0
00000010: 3d5b a7c0 876e 9ec0 cf1d aac0 d60f b2c0
00000020: c27d a1c0 e6a3 9fc0 7b71 acc0 c2d4 b3c0
00000030: e493 afc0 5867 afc0 d117 abc0 f8d5 a7c0
00000040: 7e38 9fc0 3abf abc0 b137 b4c0 2708 a1c0
00000050: 30a7 a1c0 1b8c aec0 67cb b3c0 07ea b1c0
00000060: 1aa4 b3c0 6514 a8c0 f7dc a5c0 8354 9cc0
00000070: d94b abc0 3d35 aec0 616d a2c0 22ab 98c0
00000080: c078 aac0 b15c b9c0 3dc5 b4c0 8f37 b9c0
00000090: fb6d adc0 8a51 aac0 e5a2 9ec0 a594 b1c0
000000a0: 07a4 b2c0 8794 9fc0 424b 9dc0 cfc6 a9c0
000000b0: 1476 b6c0 8585 b4c0 3b78 b0c0 ffd3 a8c0
000000c0: faea a5c0 7660 9bc0 60e7 abc0 aa2e b2c0
000000d0: baa1 a0c0 d34a a4c0 edb6 adc0 1162 b3c0
000000e0: 01da acc0 ba33 b1c0 32f7 a5c0 409c a1c0
000000f0: fd8f 9ac0 5fe8 a9c0 e08f b2c0 42e9 a0c0
00000100: daa3 9bc0 e6e1 aac0 ca5d b0c0 57f3 b1c0
00000110: f940 b7c0 2e27 abc0 03f4 acc0 4e8e 9dc0
00000120: 8f2e a9c0 fbbf b4c0 dd0f a9c0 121b a3c0
00000130: 4dfa b5c0 e82e b6c0 ee29 b3c0 17d4 b1c0
00000140: 711c acc0 508c a4c0 ea81 98c0 32ca adc0
00000150: cf50 b5c0 2c76 a2c0 b0f8 a0c0 710c acc0
00000160: acd0 afc0 1edd b1c0 d1fa b2c0 36a1 afc0
00000170: cede a3c0 7ec4 9dc0 3afc adc0 1bd9 b2c0
00000180: 57ef a3c0 3ab5 a2c0 48d2 a9c0 5d4e afc0
00000190: 390b b5c0 b5e1 b5c0 fb5a aac0 f3fe a4c0
000001a0: 3c8f 9bc0 5df3 aec0 30e6 b5c0 39b7 a2c0
000001b0: e303 9dc0 0488 acc0 d8fa b3c0 5a07 b9c0
000001c0: cfc6 b9c0 7df4 b1c0 dbc0 a7c0 08cf 9fc0
000001d0: dda3 b0c0 b690 b3c0 0992 a6c0 7610 a2c0
000001e0: 74fb adc0 e397 b6c0 3572 b1c0 d636 adc0
000001f0: 8779 adc0 725b a9c0 9ca4 9bc0 9c74 adc0
00000200: 9bf3 b0c0 854d a2c0 16c1 9bc0 eb54 afc0
00000210: d7ba b3c0 317b b2c0 97fd b4c0 f65c a5c0
00000220: 6a43 a6c0 8353 9fc0 cb67 abc0 4fa8 b2c0
00000230: 2501 a1c0 3dfa a1c0 0721 aac0 3378 b1c0
00000240: 3b69 b6c0 bc7a b8c0 66e8 abc0 47b2 a8c0
00000250: bf0f a0c0 aa00 aec0 5620 b7c0 6e4e a4c0
00000260: 2898 a1c0 db54 aec0 ac58 b7c0 6a8a b1c0
00000270: 1c6f b3c0 cf73 a6c0 ee1f a4c0 7a75 a1c0
00000280: f0a7 aac0 baad b1c0 0d53 9ec0 28a5 9ec0
00000290: e838 abc0 45b3 b6c0 c998 b4c0 b3d7 b1c0
000002a0: 891c acc0 8528 a5c0 61ea 9ec0 7ae6 acc0
000002b0: 4d64 b6c0 dffa a8c0 056f 9dc0 2b90 a7c0
000002c0: 1155 b2c0 efbe b1c0 f89e b0c0 669e a7c0
000002d0: 10c0 a8c0 0c45 98c0 ece6 a9c0 7df9 b4c0
000002e0: d22d a5c0 578a 9fc0 1723 adc0 e423 b3c0
000002f0: 9814 b3c0 60d8 b0c0 e73b a7c0 fcba a7c0
00000300: ea6e a1c0 b6e0 acc0 7905 b5c0 c9a8 9dc0
00000310: 0e46 a1c0 043a afc0 247c b3c0 f93b b5c0
00000320: 86ec b7c0 e988 abc0 e156 aac0 e9b5 9ec0
00000330: ba1b adc0 7d50 b7c0 63d0 a3c0 9df6 9cc0
00000340: 10df b0c0 9817 b6c0 239f b2c0 10a5 b0c0
00000350: 76ea aec0 c2dc a3c0 ad94 9bc0 268e a9c0
00000360: 6248 b7c0 eadd 9dc0 75b8 9ec0 96d4 acc0
00000370: b039 b4c0 1c56 b5c0 5481 b8c0 19c9 a7c0
00000380: 4d66 a9c0 18b4 9bc0 9f5d a8c0 43d5 b6c0
00000390: 320c a0c0 5cea 9fc0 9f41 a9c0 df94 b5c0
000003a0: 7af7 b1c0 64cc b0c0 c69f aec0 28bf a3c0
000003b0: 8c9d a2c0 20cd a8c0 9fb1 b4c0 e3ee a3c0
000003c0: f6f7 9dc0 0595 adc0 f9ad aec0 f8dd aec0
000003d0: 2590 afc0 66b6 abc0 679f a6c0 58b7 9dc0
000003e0: f1eb aac0 5056 b2c0 cb02 a2c0 18a9 9dc0
000003f0: ad20 adc0 f192 b0c0 dcac b2c0 f77e b3c0

blinear1.bias_mu f4 [24]
0.04428213 0.037546337 0.019173052 0.06452094 0.02093131 -0.0015378484 0.057232246 -0.033690646
0.07977911 0.05502582 0.07894676 0.07863903 -0.021722736 0.048300892 0.014459401 0.04808381
0.04882561 0.019770106 0.047418743 0.05685935 -0.030461509 0.075822525 -0.023366818 0.046510845
00000000: 2e61 353d 30ca 193d ce10 9d3c 8e23 843d
00000010: 2378 ab3c a191 c9ba 5c6c 6a3d 34ff 09bd
00000020: 3b63 a33d c162 613d d7ae a13d 800d a13d
00000030: e1f3 b1bc 28d7 453d 20e7 6c3c 87f3 443d
00000040: 5dfd 473d ebf4 a13c 283a 423d 5ae5 683d
00000050: 6a8a f9bc d748 9b3d c56b bfbc 2882 3e3d

blinear1.bias_rho f4 [24]
-5.10267 -5.223289 -4.88479 -5.099646 -5.0992618 -4.9866924 -5.2024302 -5.042883
-5.0049653 -4.8933935 -5.052631 -5.0879116 -5.022918 -5.1309175 -5.002069 -4.941385
-4.96542 -5.02247 -5.028418 -5.0184255 -4.9115725 -5.036836 -5.005275 -4.976925
00000000: 1349 a3c0 2f25 a7c0 3350 9cc0 4d30 a3c0
00000010: 272d a3c0 fc92 9fc0 4f7a a6c0 4c5f a1c0
00000020: ad28 a0c0 ae96 9cc0 27af a1c0 2cd0 a2c0
00000030: bfbb a0c0 7a30 a4c0 f310 a0c0 d31f 9ec0
00000040: b8e4 9ec0 13b8 a0c0 cde8 a0c0 f196 a0c0
00000050: 9a2b 9dc0 c32d a1c0 362b a0c0 f842 9fc0

blinear1.weight_sampler.mu f4 [24, 11]
0.007359598 0.14522843 -0.00067582895 0.03874871 -0.09144805 -0.025300104 0.038477782 0.13142456
-0.011346598 -0.10208294 0.07556122 0.026920967 0.1603553 -0.01993226 0.03576963 -0.1269951
-0.023116272 0.03839208 0.11663526 -0.009278997 -0.0846828 0.115846284 0.07212965 0.20132542
-0.06342192 0.022634069 -0.12744239 -0.018207148 0.025310105 0.09731706 -0.00880506 -0.046465162
0.07147821 -0.022257227 0.091771156 -0.02108483 0.15045148 -0.09446912 -0.02829984 0.006928061
0.113739155 -0.012034654 -0.108806685 0.07630349 0.05362964 0.20760086 -0.05212396 0.029742705
-0.18241495 -0.023296569 0.045777 0.10044195 -0.0020725683 -0.05415745 0.08166435 0.044874974
0.16050766 -0.049816012 -0.008044014 -0.14008828 -0.0324539 0.017666044 0.06422957 -0.012607409
-0.04376619 0.052769683 -0.1549273 -0.09579278 -0.27228814 -0.19782776 0.16919442 -0.019612571
-0.00902915 -0.025469717 0.0016485472 0.21744365 0.11241532 0.19382495 0.123783 -0.18634103
-0.11540244 -0.14634176 0.030163312 -0.02070542 0.1048502 -0.0017939911 -0.043581095 -0.082011655
-0.04933473 0.09034668 -0.0122776 0.11825748 -0.092148855 -0.028684746 0.07872277 0.1220876
-0.0384561 -0.115054466 0.047276825 0.024985421 0.15836847 -0.0037834293 0.03763445 -0.09457151
-0.018665226 0.046366017 0.1404078 -0.0049773636 -0.10325891 0.08358959 0.007281208 0.078737326
-0.039134443 0.1265901 -0.12677611 0.029234955 0.018952496 0.124065444 -0.015318642 -0.079089835
0.056089006 0.008453347 0.103360265 -0.04258142 0.16289982 -0.11422042 0.026186718 0.04422214
0.124513365 -0.008693027 -0.085165925 0.075472966 0.20083104 0.12841292 -0.21551621 -0.12256648
-0.14854755 0.024833433 -0.016749537 0.100359455 -0.0021456976 -0.046175767 -0.12993902 0.020570476
0.16026513 -0.011784319 0.039591264 -0.06697399 -0.012119445 0.04729188 0.1645245 -0.0038752635
-0.09198104 0.07780634 0.05599068 0.18203883 -0.06350631 0.027190514 -0.1348515 -0.024120398
0.00764712 0.091815084 -0.010158875 -0.045123085 0.05416157 0.01634616 0.15538651 0.0048988205
0.037191894 -0.085052006 -0.016386459 0.037637684 0.13842782 -0.0054660263 -0.10461731 0.08312872
0.02405327 0.16242026 -0.0054673404 0.012408131 -0.0984661 -0.025399948 0.0496732 0.13536443
-0.00053907384 -0.09816847 0.0816184 0.05870346 0.19388089 -0.060895856 0.024510114 -0.12828368
-0.017520027 0.032543983 0.10193071 -0.0075634858 -0.05540392 0.06838443 0.14583418 -0.11147485
-0.06478606 -0.09731497 0.18342009 -0.110254735 0.10647832 -0.17460217 0.10735142 0.016835202
0.23436414 -0.019911679 0.09008961 -0.0274935 0.10490687 -0.10031143 -0.035298023 0.05301385
0.10331644 -0.01578824 -0.09104737 0.0719367 0.20408186 0.1076654 -0.18609469 -0.13618799
-0.14240207 0.027819429 -0.019403247 0.11145021 -0.003820545 -0.04154989 -0.06350027 -0.07534632
0.10604287 -0.0032755577 0.12397249 -0.059096757 -0.02723385 0.07951296 0.10459055 -0.05122276
-0.11516014 0.07106197 0.12839708 0.12680203 -0.10154073 -0.04496359 -0.13092855 0.01976195
-0.018877916 0.08993401 0.011970021 -0.06063723 -0.03318083 -0.02407137 0.08934485 0.031295042
00000000: c828 f13b c3b6 143e 1d2a 31ba f8b6 1e3d
00000010: 1e49 bbbd 2a42 cfbc e19a 1d3d 2994 063e
00000020: 15e7 39bc dc10 d1bd d7bf 9a3d 5c89 dc3c
00000030: 2e34 243e fb48 a3bc 2d83 123d 010b 02be
00000040: 565e bdbc 0441 1d3d 78de ee3d ef06 18bc
00000050: 2d6e adbd d140 ed3d b6b8 933d 4028 4e3e
00000060: 5ae3 81bd 156b b93c 4280 02be 2827 95bc
00000070: 2357 cf3c 2b4e c73d 1943 10bc 4152 3ebd
00000080: 2b63 923d ca54 b6bc 84f2 bb3d 18ba acbc
00000090: f40f 1a3e 0779 c1bd 11d5 e7bc ca04 e33b
000000a0: 13f0 e83d ff2c 45bc 0ad6 debd 0145 9c3d
000000b0: c1aa 5b3d 5295 543e ef7f 55bd f9a6 f33c
000000c0: fcca 3abe 72d8 bebc aa80 3b3d 82b4 cd3d
000000d0: edd3 07bb 34d4 5dbd a43f a73d d2ce 373d
000000e0: 1f5c 243e e00b 4cbd 0acb 03bc 4d73 0fbe
000000f0: 61ee 04bd 61b8 903c cb8a 833d 4e8f 4ebc
00000100: 2d44 33bd 0625 583d 43a5 1ebe 012f c4bd
00000110: 5a69 8bbe 5c93 4abe 4d41 2d3e 8baa a0bc
00000120: 00ef 13bc dea5 d0bc 1114 d83a 8ca9 5e3e
00000130: 013a e63d 0c7a 463e f181 fd3d 2fd0 3ebe
00000140: 1d58 ecbd 9dda 15be 0d19 f73c 6a9e a9bc
00000150: b4bb d63d 5a24 ebba 1782 32bd baf5 a7bd
00000160: 3713 4abd ae07 b93d fd27 49bc fa30 f23d
00000170: 8ab8 bcbd 46fc eabc 6739 a13d 1009 fa3d
00000180: 2584 1dbd ada1 ebbd 58a5 413d 3aae cc3c
00000190: 582b 223e 69f3 77bb 9526 1a3d b5ae c1bd
000001a0: d1e7 98bc 4bea 3d3d 10c7 0f3e 2719 a3bb
000001b0: 6879 d3bd 0531 ab3d 3397 ee3b 0941 a13d
000001c0: 704b 20bd d6a0 013e 99d1 01be 257e ef3c
000001d0: 4442 9b3c 0616 fe3d 0bfb 7abc daf9 a1bd
000001e0: 96bd 653d e87f 0a3c 8cae d33d db69 2ebd
000001f0: 36cf 263e 65ec e9bd 8785 d63c 4622 353d
00000200: dd00 ff3d 336d 0ebc 796b aebd 9291 9a3d
00000210: a7a6 4d3e ad7e 033e 48b0 5cbe 2204 fbbd
00000220: d91c 18be 7c6f cb3c 5336 89bc 4289 cd3d
00000230: d59e 0cbb cd22 3dbd bc0e 05be 6a83 a83c
00000240: 8b1c 243e 0413 41bc 732a 223d a929 89bd
00000250: a390 46bc 21b5 413d 1c79 283e 22f8 7dbb
00000260: 8e60 bcbd ee58 9f3d 7c56 653d 6368 3a3e
00000270: 990f 82bd a4be de3c 8316 0abe 2498 c5bc
00000280: b194 fa3b 8c09 bc3d 6971 26bc fcd2 38bd
00000290: 86d8 5d3d 62e8 853c a41d 1f3e 4986 a03b
000002a0: 8756 183d bf2f aebd e53c 86bc f929 1a3d
000002b0: 06c0 0d3e 5a1c b3bb 9a41 d6bd 643f aa3d
000002c0: 5d0b c53c 7f51 263e 6027 b3bb 794b 4b3c
000002d0: 98a8 c9bd 8d13 d0bc 2076 4b3d f99c 0a3e
000002e0: a250 0dba 8d0c c9bd 8c27 a73d 0a73 703d
000002f0: b688 463e ef6d 79bd 6fc9 c83c cc5c 03be
00000300: 2986 8fbc d74c 053d 0cc1 d03d 1ed7 f7bb
00000310: 39ef 62bd 230d 8c3d 8e55 153e ed4c e4bd
00000320: 8eae 84bd 124d c7bd 7ad2 3b3e 3ccd e1bd
00000330: 4e11 da3d e9ca 32be 10db db3d fae9 893c
00000340: 27fd 6f3e d11d a3bc e780 b83d 0c3a e1bc
00000350: 6ad9 d63d 1470 cdbd a994 10bd 0d25 593d
00000360: 9297 d33d 5756 81bc 0b77 babd 8c53 933d
00000370: d6fa 503e ad7f dc3d 9b8f 3ebe dd74 0bbe
00000380: d9d1 11be 92e5 e33c 8ff3 9ebc 0240 e43d
00000390: 1c62 7abb 3830 2abd 6e0c 82bd 2c4f 9abd
000003a0: 012d d93d bdaa 56bb 4ae5 fd3d 710f 72bd
000003b0: 8619 dfbc b1d7 a23d 9233 d63d f5ce 51bd
000003c0: 14d9 ebbd f088 913d 867a 033e 64d8 013e
000003d0: 96f4 cfbd be2b 38bd 2212 06be d0e3 a13c
000003e0: dca5 9abc 522f b83d e81d 443c be5e 78bd
000003f0: 9fe8 07bd 5231 c5bc 6ffa b63d 3b2f 003d

blinear1.weight_sampler.rho f4 [24, 11]
-5.54544 -5.6013317 -5.4976506 -5.483881 -5.2298875 -4.950992 -5.3161387 -5.564433
-5.0466013 -4.988757 -5.3888526 -5.6197214 -5.486803 -5.481365 -5.3466573 -5.244869
-4.975646 -5.367093 -5.6317983 -5.032245 -5.0516586 -5.4546027 -5.6185794 -5.559818
-5.613782 -5.2524896 -5.1832232 -4.8853164 -5.3530087 -5.443999 -5.075852 -4.77089
-5.32724 -5.792565 -5.649077 -5.788032 -5.4196754 -5.3224535 -4.9573846 -5.549395
-5.582523 -4.986881 -4.9154367 -5.3055186 -5.701914 -5.641299 -5.5146766 -5.2758784
-5.1849337 -4.855525 -5.371994 -5.5681963 -5.019742 -5.134134 -5.42858 -5.605721
-5.401612 -5.5375643 -5.186425 -5.0503235 -4.8300767 -5.3096156 -5.580063 -5.028474
-4.8637514 -5.3400755 -5.511449 -5.5609546 -5.726681 -5.3485327 -5.4047866 -4.923621
-5.2869334 -5.648435 -5.2831864 -5.0970545 -5.6868043 -5.693226 -5.5988684 -5.55714
-5.378472 -5.142128 -4.7658587 -5.430932 -5.6661143 -5.0769253 -5.0303574 -5.3765187
-5.4942226 -5.558242 -5.593117 -5.488429 -5.120948 -4.930236 -5.4370394 -5.589002
-5.1229663 -5.0846224 -5.306919 -5.478316 -5.65762 -5.683802 -5.323606 -5.1561217
-4.8612347 -5.4672074 -5.684349 -5.084866 -4.9067245 -5.3916035 -5.6243706 -5.7821474
-5.8055186 -5.5610948 -5.242292 -4.9940224 -5.520003 -5.611415 -5.2053266 -5.0645094
-5.436945 -5.706041 -5.5451913 -5.412944 -5.421085 -5.2924128 -4.863844 -5.4204845
-5.529737 -5.071963 -4.86732 -5.479116 -5.6165576 -5.577538 -5.655956 -5.167598
-5.1957293 -4.9789443 -5.35642 -5.5830455 -5.0313897 -5.0617967 -5.3165317 -5.5459228
-5.7003455 -5.764982 -5.372119 -5.2717624 -5.001922 -5.437581 -5.7226973 -5.134574
-5.0498238 -5.4478583 -5.729574 -5.5481462 -5.607313 -5.201637 -5.1288977 -5.0455904
-5.333 -5.552457 -4.947638 -4.9576607 -5.3506966 -5.7093835 -5.6436505 -5.5575805
-5.3784833 -5.161196 -4.9661107 -5.4031343 -5.6997437 -5.280624 -4.919802 -5.2363486
-5.572884 -5.5545573 -5.5194054 -5.2380857 -5.273445 -4.7584286 -5.3094387 -5.655455
-5.1618433 -4.985637 -5.4105334 -5.598131 -5.596264 -5.526413 -5.2260623 -5.2415752
-5.0447893 -5.4024305 -5.656918 -4.9268537 -5.0398016 -5.475832 -5.608904 -5.663571
-5.7476225 -5.3604627 -5.3231053 -4.959706 -5.4096346 -5.728575 -5.119188 -4.905104
-5.5272293 -5.69038 -5.581926 -5.520149 -5.4661207 -5.120698 -4.861899 -5.298602
-5.727586 -4.933339 -4.9600167 -5.4009504 -5.632042 -5.6667614 -5.765787 -5.243298
-5.293738 -4.865734 -5.2614284 -5.713533 -5.0014887 -4.9973583 -5.2892604 -5.6744227
-5.5614595 -5.52495 -5.4570036 -5.1170845 -5.081732 -5.2750397 -5.6466823 -5.122911
-4.9365187 -5.424441 -5.458737 -5.464596 -5.486346 -5.3660154 -5.2069583 -4.928631
-5.3413014 -5.573036 -5.062841 -4.9268913 -5.4102387 -5.517937 -5.583601 -5.6092486
00000000: 3f74 b1c0 1c3e b3c0 c1ec afc0 f47b afc0
00000010: 3d5b a7c0 876e 9ec0 cf1d aac0 d60f b2c0
00000020: c27d a1c0 e6a3 9fc0 7b71 acc0 c2d4 b3c0
00000030: e493 afc0 5867 afc0 d117 abc0 f8d5 a7c0
00000040: 7e38 9fc0 3abf abc0 b137 b4c0 2708 a1c0
00000050: 30a7 a1c0 1b8c aec0 67cb b3c0 07ea b1c0
00000060: 1aa4 b3c0 6514 a8c0 f7dc a5c0 8354 9cc0
00000070: d94b abc0 3d35 aec0 616d a2c0 22ab 98c0
00000080: c078 aac0 b15c b9c0 3dc5 b4c0 8f37 b9c0
00000090: fb6d adc0 8a51 aac0 e5a2 9ec0 a594 b1c0
000000a0: 07a4 b2c0 8794 9fc0 424b 9dc0 cfc6 a9c0
000000b0: 1476 b6c0 8585 b4c0 3b78 b0c0 ffd3 a8c0
000000c0: faea a5c0 7660 9bc0 60e7 abc0 aa2e b2c0
000000d0: baa1 a0c0 d34a a4c0 edb6 adc0 1162 b3c0
000000e0: 01da acc0 ba33 b1c0 32f7 a5c0 409c a1c0
000000f0: fd8f 9ac0 5fe8 a9c0 e08f b2c0 42e9 a0c0
00000100: daa3 9bc0 e6e1 aac0 ca5d b0c0 57f3 b1c0
00000110: f940 b7c0 2e27 abc0 03f4 acc0 4e8e 9dc0
00000120: 8f2e a9c0 fbbf b4c0 dd0f a9c0 121b a3c0
00000130: 4dfa b5c0 e82e b6c0 ee29 b3c0 17d4 b1c0
00000140: 711c acc0 508c a4c0 ea81 98c0 32ca adc0
00000150: cf50 b5c0 2c76 a2c0 b0f8 a0c0 710c acc0
00000160: acd0 afc0 1edd b1c0 d1fa b2c0 36a1 afc0
00000170: cede a3c0 7ec4 9dc0 3afc adc0 1bd9 b2c0
00000180: 57ef a3c0 3ab5 a2c0 48d2 a9c0 5d4e afc0
00000190: 390b b5c0 b5e1 b5c0 fb5a aac0 f3fe a4c0
000001a0: 3c8f 9bc0 5df3 aec0 30e6 b5c0 39b7 a2c0
000001b0: e303 9dc0 0488 acc0 d8fa b3c0 5a07 b9c0
000001c0: cfc6 b9c0 7df4 b1c0 dbc0 a7c0 08cf 9fc0
000001d0: dda3 b0c0 b690 b3c0 0992 a6c0 7610 a2c0
000001e0: 74fb adc0 e397 b6c0 3572 b1c0 d636 adc0
000001f0: 8779 adc0 725b a9c0 9ca4 9bc0 9c74 adc0
00000200: 9bf3 b0c0 854d a2c0 16c1 9bc0 eb54 afc0
00000210: d7ba b3c0 317b b2c0 97fd b4c0 f65c a5c0
00000220: 6a43 a6c0 8353 9fc0 cb67 abc0 4fa8 b2c0
00000230: 2501 a1c0 3dfa a1c0 0721 aac0 3378 b1c0
00000240: 3b69 b6c0 bc7a b8c0 66e8 abc0 47b2 a8c0
00000250: bf0f a0c0 aa00 aec0 5620 b7c0 6e4e a4c0
00000260: 2898 a1c0 db54 aec0 ac58 b7c0 6a8a b1c0
00000270: 1c6f b3c0 cf73 a6c0 ee1f a4c0 7a75 a1c0
00000280: f0a7 aac0 baad b1c0 0d53 9ec0 28a5 9ec0
00000290: e838 abc0 45b3 b6c0 c998 b4c0 b3d7 b1c0
000002a0: 891c acc0 8528 a5c0 61ea 9ec0 7ae6 acc0
000002b0: 4d64 b6c0 dffa a8c0 056f 9dc0 2b90 a7c0
000002c0: 1155 b2c0 efbe b1c0 f89e b0c0 669e a7c0
000002d0: 10c0 a8c0 0c45 98c0 ece6 a9c0 7df9 b4c0
000002e0: d22d a5c0 578a 9fc0 1723 adc0 e423 b3c0
000002f0: 9814 b3c0 60d8 b0c0 e73b a7c0 fcba a7c0
00000300: ea6e a1c0 b6e0 acc0 7905 b5c0 c9a8 9dc0
00000310: 0e46 a1c0 043a afc0 247c b3c0 f93b b5c0
00000320: 86ec b7c0 e988 abc0 e156 aac0 e9b5 9ec0
00000330: ba1b adc0 7d50 b7c0 63d0 a3c0 9df6 9cc0
00000340: 10df b0c0 9817 b6c0 239f b2c0 10a5 b0c0
00000350: 76ea aec0 c2dc a3c0 ad94 9bc0 268e a9c0
00000360: 6248 b7c0 eadd 9dc0 75b8 9ec0 96d4 acc0
00000370: b039 b4c0 1c56 b5c0 5481 b8c0 19c9 a7c0
00000380: 4d66 a9c0 18b4 9bc0 9f5d a8c0 43d5 b6c0
00000390: 320c a0c0 5cea 9fc0 9f41 a9c0 df94 b5c0
000003a0: 7af7 b1c0 64cc b0c0 c69f aec0 28bf a3c0
000003b0: 8c9d a2c0 20cd a8c0 9fb1 b4c0 e3ee a3c0
000003c0: f6f7 9dc0 0595 adc0 f9ad aec0 f8dd aec0
000003d0: 2590 afc0 66b6 abc0 679f a6c0 58b7 9dc0
000003e0: f1eb aac0 5056 b2c0 cb02 a2c0 18a9 9dc0
000003f0: ad20 adc0 f192 b0c0 dcac b2c0 f77e b3c0

blinear1.weight_sampler.eps_w f4 [24, 11]
-1.0488982 0.9440798 0.21968666 1.2117212 -0.59929025 -0.9151723 -1.020573 0.06096903
0.61533445 0.3647166 -0.26812273 0.20510487 -0.40241763 0.54760355 0.22131744 2.732668
-0.22534958 1.3318543 -1.2025598 -1.3430101 -1.6088446 -1.10339 -0.7976818 0.43260846
-1.2806922 -0.24794601 0.31863573 -0.5021199 -0.87460524 0.44945937 -1.5040979 -0.13199379
0.23490974 -0.51274985 0.16795482 0.05526643 -1.5961808 0.55116695 0.48414198 0.79080194
0.6177229 -1.1834064 -1.285426 -1.2439016 -1.1995382 0.078128844 -0.74896425 -1.168161
-2.3238704 0.31634304 0.9963713 0.48815233 -0.13709542 1.5913851 -1.0885063 0.69130325
0.08673451 -1.0556036 -0.8739241 -2.4278128 0.28101298 -0.39208734 0.2424507 0.24092339
1.2863656 1.1002822 -0.19785611 0.19958143 -0.4750687 -1.0376133 0.21276787 0.022856086
0.47741982 -0.24487972 -0.20165932 0.8590742 -0.3044036 2.2583997 -1.2581276 -0.73603386
-1.5038292 -0.45288217 -0.90439194 2.020567 -1.3779285 1.3510232 1.2533208 1.699356
0.78028387 1.7086551 0.07303809 0.35516736 0.36200678 0.87234265 1.3065394 0.5860899
-0.5432064 -1.0198203 0.22443226 0.013544667 0.8673818 -1.0304649 0.06939487 1.3089558
0.85765576 -0.3103819 0.37369996 -0.36409026 1.7668626 -2.1272552 0.42147326 0.97604156
-0.022104068 -0.6527038 1.0634714 0.93141913 0.5697511 0.7627753 0.99092036 -0.18250914
-0.05440924 -2.161156 0.16078971 -1.2692571 -1.0427864 -0.6303632 -0.10085157 0.005335963
-1.1281629 2.8454437 -0.52494943 1.7667009 -0.5703959 0.78539276 0.8916511 -0.4414705
-1.0639473 0.22453293 1.6368332 0.335936 1.1063712 -1.7431577 1.556882 1.561948
0.67241395 1.5598189 0.03110351 0.21456365 -0.7499561 0.9141017 -0.82786167 -0.35134163
1.122753 1.4550232 0.3101086 -0.39218435 -1.7199161 1.7797054 0.17988808 0.9769919
1.5050101 0.29888704 -1.1834996 0.68909115 -1.0487709 -0.1053784 -0.9145563 -0.3145402
-0.5627374 -0.96528405 1.2533681 -0.13506877 -0.54578614 -2.0712173 0.18671489 0.012176539
0.80971724 -0.33914915 -0.72286844 -0.91316754 -0.44265565 -0.05263572 -1.66064 -2.0597508
0.6396469 -0.730772 -0.9660239 -0.39699563 1.143517 2.0421054 0.4361613 -0.7242184
1.3422872 1.7828652 -0.40713286 -0.078444496 -1.3291044 -0.31918752 0.035139192 -0.52876717
0.25762063 -0.2170663 0.073578045 0.77334154 0.09186983 -0.9586211 -1.3363422 0.7803051
0.9384577 -0.011974755 -0.630098 1.6180912 1.4226539 -1.3656831 -0.0692923 0.5307817
-0.7320042 0.8405813 -1.1252764 2.054767 0.29446384 0.021171711 -0.12999277 -1.8420333
0.35889933 -0.37539977 0.6930887 0.45471093 0.55712694 1.9460428 -2.2363625 0.6181818
-0.48904744 0.50077116 1.2885165 -0.7357092 -0.10131762 -0.7967251 -0.8078375 -1.8074559
0.46853977 1.4726121 2.6360457 0.092823125 -0.08885359 0.5921826 -0.4430663 -0.40222177
-0.3503563 -0.21721536 0.39333993 0.11108708 0.21340443 -0.56463283 0.46681207 -3.0968308
00000000: 4c42 86bf 37af 713f 8af5 603e ae19 9b3f
00000010: 166b 19bf bb48 6abf 23a2 82bf a9ba 793d
00000020: 8f86 1d3f 22bc ba3e 6247 89be 0307 523e
00000030: af09 cebe bf2f 0c3f 0aa1 623e 08e4 2e40
00000040: 0ac2 66be 347a aa3f 7bed 99bf c1e7 abbf
00000050: 9fee cdbf e23b 8dbf e034 4cbf db7e dd3e
00000060: b9ed a3bf 8fe5 7dbe 3924 a33e ee8a 00bf
00000070: 21e6 5fbf 8a1f e63e 4886 c0bf 6129 07be
00000080: 2e8c 703e 9343 03bf 59fc 2b3e 0d5f 623d
00000090: a74f ccbf 4719 0d3f 75e1 f73e ff71 4a3f
000000a0: 1723 1e3f dc79 97bf d788 a4bf 2b38 9fbf
000000b0: 788a 99bf 0402 a03d 1fbc 3fbf 4d86 95bf
000000c0: 4bba 14c0 b7f7 a13e 3112 7f3f 1aef f93e
000000d0: be62 0cbe 82b2 cb3f 2d54 8bbf 40f9 303f
000000e0: dda1 b13d 051e 87bf 7db9 5fbf 4961 1bc0
000000f0: efe0 8f3e acbf c8be ff44 783e 9fb4 763e
00000100: a1a7 a43f 0cd6 8c3f cb9a 4abe 135f 4c3e
00000110: 343c f3be 83d0 84bf d2df 593e b03c bb3c
00000120: 5f70 f43e c0c1 7abe c87f 4ebe 49ec 5b3f
00000130: cada 9bbe 9f89 1040 530a a1bf b76c 3cbf
00000140: 7a7d c0bf 2ce0 e7be 3b86 67bf f850 0140
00000150: f65f b0bf 54ee ac3f d16c a03f 7f84 d93f
00000160: afc0 473f 36b5 da3f fe94 953d 7fd8 b53e
00000170: f458 b93e d951 5f3f af3c a73f fd09 163f
00000180: 930f 0bbf 7989 82bf 92d1 653e 73ea 5d3c
00000190: bc0c 5e3f 46e6 83bf e61e 8e3d dd8b a73f
000001a0: 548f 5b3f 60ea 9ebe 9a55 bf3e 0a6a babe
000001b0: 8e28 e23f f324 08c0 58cb d73e dcdd 793f
000001c0: 9713 b5bc 9917 27bf d51f 883f 7c71 6e3f
000001d0: 35db 113f 3e45 433f f5ac 7d3f ade3 3abe
000001e0: 39dc 5ebd 6150 0ac0 0fa6 243e 0477 a2bf
000001f0: 067a 85bf 7c5f 21bf 458b cebd 4dd9 ae3b
00000200: a467 90bf c01b 3640 1663 06bf 4123 e23f
00000210: 7705 12bf 800f 493f 3f43 643f 6c08 e2be
00000220: 6d2f 88bf f6eb 653e c083 d13f ceff ab3e
00000230: 929d 8d3f cb1f dfbf e947 c73f e9ed c73f
00000240: 5223 2c3f 25a8 c73f cacc fe3c 93b6 5b3e
00000250: 1ffd 3fbf 9202 6a3f beee 53bf 0de3 b3be
00000260: 5fb6 8f3f 333e ba3f 8ec6 9e3e 63cc c8be
00000270: 3626 dcbf 63cd e33f 9534 383e 241c 7a3f
00000280: 2ca4 c03f b907 993e ea7c 97bf 4768 303f
00000290: 203e 86bf a1d0 d7bd 5d20 6abf 6a0b a1be
000002a0: 8f0f 10bf db1c 77bf 5e6e a03f 784f 0abe
000002b0: a4b8 0bbf d38e 04c0 3032 3f3e 1b80 473c
000002c0: a149 4f3f f5a4 adbe e80d 39bf 59c5 69bf
000002d0: c3a3 e2be 8e98 57bd da8f d4bf f5d2 03c0
000002e0: e6bf 233f e013 3bbf 584d 77bf 0343 cbbe
000002f0: c45e 923f dbb1 0240 8950 df3e 6166 39bf
00000300: 11d0 ab3f ed34 e43f b873 d0be 82a7 a0bd
00000310: 1820 aabf 8c6c a3be 1dee 0f3d 495d 07bf
00000320: dae6 833e a146 5ebe 16b0 963d b6f9 453f
00000330: 4026 bc3d 3168 75bf 430d abbf 13c2 473f
00000340: c43e 703f c331 44bc 1a4e 21bf 9d1d cf3f
00000350: 8619 b63f b4ce aebf 1fe9 8dbd 4fe1 073f
00000360: a164 3bbf 5630 573f 0f09 90bf 4d81 0340
00000370: f7c3 963e 4c70 ad3c d31c 05be bfc7 ebbf
00000380: a7c1 b73e 6634 c0be 436e 313f dfcf e83e
00000390: df9f 0e3f ee17 f93f 9020 0fc0 2a41 1e3f
000003a0: 6d64 fabe 8a32 003f 1cee a43f 7057 3cbf
000003b0: 9d7f cfbd 2df6 4bbf 70ce 4ebf b75a e7bf
000003c0: 72e4 ef3e 8e7e bc3f f9b4 2840 0d1a be3d
000003d0: dff8 b5bd 4799 173f 96d9 e2be 03f0 cdbe
000003e0: e761 b3be b46d 5ebe da63 c93e 9f81 e33d
000003f0: b186 5a3e c78b 10bf fe01 ef3e 7a32 46c0

blinear1.bias_sampler.mu f4 [24]
0.04428213 0.037546337 0.019173052 0.06452094 0.02093131 -0.0015378484 0.057232246 -0.033690646
0.07977911 0.05502582 0.07894676 0.07863903 -0.021722736 0.048300892 0.014459401 0.04808381
0.04882561 0.019770106 0.047418743 0.05685935 -0.030461509 0.075822525 -0.023366818 0.046510845
00000000: 2e61 353d 30ca 193d ce10 9d3c 8e23 843d
00000010: 2378 ab3c a191 c9ba 5c6c 6a3d 34ff 09bd
00000020: 3b63 a33d c162 613d d7ae a13d 800d a13d
00000030: e1f3 b1bc 28d7 453d 20e7 6c3c 87f3 443d
00000040: 5dfd 473d ebf4 a13c 283a 423d 5ae5 683d
00000050: 6a8a f9bc d748 9b3d c56b bfbc 2882 3e3d

blinear1.bias_sampler.rho f4 [24]
-5.10267 -5.223289 -4.88479 -5.099646 -5.0992618 -4.9866924 -5.2024302 -5.042883
-5.0049653 -4.8933935 -5.052631 -5.0879116 -5.022918 -5.1309175 -5.002069 -4.941385
-4.96542 -5.02247 -5.028418 -5.0184255 -4.9115725 -5.036836 -5.005275 -4.976925
00000000: 1349 a3c0 2f25 a7c0 3350 9cc0 4d30 a3c0
00000010: 272d a3c0 fc92 9fc0 4f7a a6c0 4c5f a1c0
00000020: ad28 a0c0 ae96 9cc0 27af a1c0 2cd0 a2c0
00000030: bfbb a0c0 7a30 a4c0 f310 a0c0 d31f 9ec0
00000040: b8e4 9ec0 13b8 a0c0 cde8 a0c0 f196 a0c0
00000050: 9a2b 9dc0 c32d a1c0 362b a0c0 f842 9fc0

blinear1.bias_sampler.eps_w f4 [24]
-1.8941387 1.5196925 0.67054915 -0.2538644 -0.38785347 0.9543501 1.8911296 0.6054818
1.8352746 -1.5429618 0.11926999 0.9168517 -1.5987576 -0.8821114 0.20898153 0.32474554
-0.20623522 1.0908941 1.0498644 0.27546197 -1.1730363 1.3251704 -0.7635412 0.45068267
00000000: 2373 f2bf 4985 c23f 1ca9 2b3f 84fa 81be
00000010: bb94 c6be 4a50 743f 8910 f23f db00 1b3f
00000020: 47ea ea3f c67f c5bf d343 f43d cbb6 6a3f
00000030: 17a4 ccbf 0dd2 61bf 41ff 553e 0c45 a63e
00000040: 532f 53be 6ba2 8b3f f561 863f 5a09 8d3e
00000050: 0e26 96bf 2f9f a93f 7077 43bf e1bf e63e

blinear2.weight_mu f4 [24, 24]
0.103359565 0.103973955 0.101942256 0.11876922 0.11118858 0.09683306 -0.32868564 0.1782838
0.12420315 0.103452824 0.10865606 0.11176243 0.12365742 0.100956276 0.09924934 0.10632706
0.09740867 0.10172078 -0.29520988 0.111805424 0.17669143 0.124723114 0.07738004 0.079041965
0.018814927 0.021222105 0.02404445 0.021237027 0.025542522 0.026158772 -0.10505009 0.09047548
0.019494964 0.016654937 0.01377518 0.017111769 0.08692996 0.016557444 0.024964519 0.017995436
0.018966572 0.024581099 -0.07833214 0.021121249 0.088017546 0.024384871 0.041693743 0.03198133
0.01614271 0.017285919 0.022491274 0.0016781732 0.008076529 0.012679155 0.20890687 -0.050474916
-0.0004956767 0.0233354 0.010782172 0.0040104156 -0.05167586 0.026106887 0.039896805 0.020011432
0.019071551 0.020094223 0.13861535 0.012424688 -0.049674843 -0.01645334 0.027359586 -0.005813584
0.1135796 0.10571664 0.10650969 0.11961796 0.12005838 0.08461269 -0.29431942 0.14544803
0.1281185 0.117642134 0.11919774 0.11657452 0.18579675 0.1256281 0.099648416 0.09517111
0.10731034 0.101436436 -0.27753323 0.106114976 0.1757512 0.124119565 0.111206494 0.09399451
-0.0033128283 -0.002956052 -0.0027460726 -0.0022606275 -0.0025342747 -0.0015605183 -0.0010832998 -0.001822383
-0.0020224522 -0.0034680588 -0.0026853231 -0.002586962 -0.002630817 -0.003632883 -0.0028786133 -0.003233973
-0.0035139243 -0.0030749603 -0.00025603292 -0.0020146652 -0.002236779 -0.0018890572 -0.0025597734 -0.0010394896
-0.0024453576 -0.0024396738 -0.002145171 -0.002646579 -0.0021456284 -0.0015816111 -0.007050868 -0.0010678766
-0.0033915958 -0.002321626 -0.003083372 -0.003438233 -0.0011619588 -0.0024586788 -0.0019475352 -0.002236817
-0.0025509135 -0.002191643 -0.0017533716 -0.0031254357 -0.0010892021 -0.0044005625 -0.00093908166 -0.0023494852
0.112508185 0.12102287 0.10891282 0.1296494 0.10295251 0.0950323 -0.33425742 0.17683223
0.13186012 0.11627475 0.12533566 0.13371009 0.17188053 0.10955921 0.10815527 0.10347672
0.115522765 0.11050495 -0.2961943 0.094242 0.1846268 0.13749838 0.11605979 0.09089293
0.021744516 0.022943582 0.018910622 -0.0005532206 0.017869713 0.021567006 0.19922915 -0.046671964
-0.0037661833 0.028909678 0.01901963 0.013836163 -0.053369943 0.032227356 0.030338759 0.02324433
0.027212549 0.026657289 0.1282958 0.01016112 -0.08954938 -0.023750762 0.025303442 0.007525386
0.11520866 0.10974701 0.10811362 0.11946643 0.121218786 0.08629981 -0.325417 0.18295513
0.1324922 0.11157623 0.113395065 0.12051552 0.17800333 0.12847033 0.109735094 0.12416257
0.10065168 0.11203464 -0.29544497 0.11162113 0.17911685 0.12821327 0.11450108 0.07518062
0.10775099 0.11018045 0.06221735 0.12035206 0.122487895 0.093535915 -0.39841545 0.18030016
0.10066156 0.10347044 0.09640148 0.17830904 0.19218117 0.109193414 0.10586487 0.104644544
0.094086975 0.09860545 -0.2871876 0.10686586 0.15612629 0.11683794 0.118039064 0.07909468
0.11418596 0.1265475 0.112894 0.11587288 0.11820359 0.10674318 -0.33704856 0.26396668
0.12606296 0.11434284 0.15305142 0.09527246 0.2052244 0.112829216 0.113563396 0.0044806176
00000000: 2eae d33d 4cf0 d43d 1ac7 d03d 473d f33d
00000010: d7b6 e33d 6950 c63d 7c49 a8be 0790 363e
00000020: 395e fe3d 13df d33d 1287 de3d b3e3 e43d
00000030: 1a40 fd3d 2ac2 ce3d 3d43 cb3d 00c2 d93d
00000040: 327e c73d fc52 d03d c025 97be 3efa e43d
00000050: 99ee 343e d56e ff3d 6d79 9e3d c1e0 a13d
00000060: c321 9a3c fbd9 ad3c def8 c43c 46f9 ad3c
00000070: 8d3e d13c ec4a d63c 8024 d7bd 354b b93d
00000080: e7b3 9f3c ef6f 883c 4bb1 613c fb2d 8c3c
00000090: 5608 b23d 7aa3 873c 6482 cc3c 2a6b 933c
000000a0: c95f 9b3c 4d5e c93c 9a6c a0bd 7806 ad3c
000000b0: 8b42 b43d c8c2 c73c 0fc7 2a3d dbfe 023d
000000c0: b73d 843c 339b 8d3c 9f3f b83c 26f6 db3a
000000d0: 6b53 043c 3bbc 4f3c afeb 553e c9be 4ebd
000000e0: 4df0 01ba e129 bf3c b5a7 303c ce69 833b
000000f0: 11aa 53bd 1cde d53c d56a 233d 04ef a33c
00000100: f13b 9c3c a49c a43c 2ff1 0d3e eb90 4b3c
00000110: d977 4bbd 28c9 86bc 3621 e03c e17f bebb
00000120: 6c9c e83d f781 d83d c121 da3d 43fa f43d
00000130: 2be1 f53d 6b49 ad3d 09b1 96be 54f0 143e
00000140: 7f31 033e 5cee f03d f21d f43d 9fbe ee3d
00000150: 8141 3e3e a7a4 003e 7814 cc3d 12e9 c23d
00000160: 86c5 db3d e8bd cf3d d618 8ebe cf52 d93d
00000170: 1ff8 333e 6632 fe3d 3bc0 e33d 3280 c03d
00000180: 091c 59bb 53ba 41bb 74f7 33bb 0927 14bb
00000190: 1316 26bb 4e8a ccba 82fd 8dba 07dd eeba
000001a0: 1e8b 04bb 5f48 63bb 3ffc 2fbb 058a 29bb
000001b0: c969 2cbb aa15 6ebb 1ea7 3cbb 10f1 53bb
000001c0: de49 66bb 4685 49bb 283c 86b9 7908 04bb
000001d0: ed96 12bb 3e9a f7ba dfc1 27bb 7c3f 88ba
000001e0: 4b42 20bb efe2 1fbb ff95 0cbb 3a72 2dbb
000001f0: ac9d 0cbb 104e cfba f80a e7bb fef7 8bba
00000200: 8945 5ebb 6c26 18bb 6612 4abb fa53 61bb
00000210: de4c 98ba c921 21bb 7044 ffba 9097 12bb
00000220: 3a2d 27bb aba1 0fbb 63d1 e5ba 1cd4 4cbb
00000230: 8fc3 8eba 9832 90bb b42c 76ba d2f9 19bb
00000240: b16a e63d d7da f73d af0d df3d d0c2 043e
00000250: c4d8 d23d 4ba0 c23d ca23 abbe 8213 353e
00000260: 5706 073e 7521 ee3d fe57 003e 4ceb 083e
00000270: 7301 303e 9460 e03d 8380 dd3d 9aeb d33d
00000280: 3397 ec3d 6b50 e23d c7a6 97be f301 c13d
00000290: cf0e 3d3e 60cc 0c3e c1b0 ed3d 1326 ba3d
000002a0: 8e21 b23c 2ef4 bb3c 73ea 9a3c 0206 11ba
000002b0: 8163 923c 4aad b03c ba02 4c3e 1a2b 3fbd
000002c0: 12d2 76bb fdd3 ec3c 0ecf 9b3c 13b1 623c
000002d0: 719a 5abd d500 043d fd88 f83c e56a be3c
000002e0: daec de3c 6360 da3c f95f 033e d47a 263c
000002f0: aa65 b7bd f590 c2bc 2a49 cf3c 8397 f63b
00000300: 85f2 eb3d 0ac3 e03d ac6a dd3d d1aa f43d
00000310: 8e41 f83d f4bd b03d 0f9d a6be 9758 3b3e
00000320: 09ac 073e 1482 e43d ac3b e83d d7d0 f63d
00000330: 8146 363e ba8d 033e cbbc e03d f248 fe3d
00000340: 7822 ce3d 6b72 e53d 9044 97be 9e99 e43d
00000350: 686a 373e 574a 033e 8b7f ea3d 4cf8 993d
00000360: 8dac dc3d 4aa6 e13d 9fd7 7e3d 247b f63d
00000370: efda fa3d c28f bf3d 1cfd cbbe 9ba0 383e
00000380: a627 ce3d 4fe8 d33d 246e c53d a596 363e
00000390: 24cb 443e cca0 df3d aecf d83d e14f d63d
000003a0: acb0 c03d a7f1 c93d 410a 93be 7ddc da3d
000003b0: 92df 1f3e bb48 ef3d 77be f13d 64fc a13d
000003c0: 54da e93d ab95 013e f834 e73d c34e ed3d
000003d0: b914 f23d 2b9c da3d a191 acbe a426 873e
000003e0: a616 013e 942c ea3d 83b9 1c3e 351e c33d
000003f0: 5826 523e 0113 e73d ed93 e83d 25d2 923b

blinear2.weight_rho f4 [24, 24]
-5.3232803 -5.348967 -5.2950068 -5.2992177 -5.459693 -5.2847304 -5.201301 -5.357191
-5.3943653 -5.471634 -5.413508 -5.3972096 -5.3078237 -5.398369 -5.2096624 -5.3281717
-5.3953624 -5.4107027 -4.9799366 -5.382428 -5.3774424 -5.338661 -5.2963405 -5.091083
-4.976846 -4.9930882 -5.030388 -4.865029 -4.8719015 -4.7404814 -4.914038 -4.9763255
-4.8243113 -4.9420633 -4.820805 -4.9304886 -4.9924445 -4.774323 -4.950181 -5.1209
-4.9226813 -4.906024 -4.92467 -4.8280506 -5.0504274 -4.883874 -4.8460903 -4.885435
-5.095632 -5.122671 -4.9181733 -5.024501 -4.9341645 -5.0332594 -5.0758824 -5.0747733
-4.9888744 -5.184221 -5.152924 -5.157485 -5.143126 -5.135818 -5.003763 -5.165952
-5.0239377 -5.1414933 -4.849626 -5.001249 -5.2241597 -5.1947227 -4.954337 -4.894893
-5.4950747 -5.4262295 -5.3014627 -5.342301 -5.408669 -5.296796 -5.258799 -5.508437
-5.4619694 -5.4329906 -5.274566 -5.50867 -5.352512 -5.4487085 -5.4410887 -5.473429
-5.3536587 -5.4836845 -5.181923 -5.4115834 -5.3459325 -5.3763323 -5.5006895 -5.1326795
-4.7233434 -4.9264708 -4.8687367 -5.0638103 -4.857169 -4.789146 -4.735857 -4.8747754
-4.738459 -4.666957 -4.788114 -4.686093 -5.0729623 -5.0144978 -5.0245876 -5.0785947
-4.8601503 -4.8007307 -4.932142 -4.8829794 -4.871776 -4.8852797 -4.984822 -4.7567983
-4.8833413 -4.8686547 -4.68453 -4.7651143 -4.8417645 -4.817403 -4.769391 -4.7370706
-4.9095535 -4.8939686 -4.7698293 -4.8076982 -4.88808 -4.8596907 -4.8426237 -4.8055067
-4.8474083 -4.7281637 -4.9098797 -4.8245454 -4.8486314 -4.938556 -4.8863587 -4.834637
-5.3776946 -5.4522157 -5.5179973 -5.4298606 -5.5384517 -5.249678 -5.200298 -5.369825
-5.414146 -5.5534754 -5.375938 -5.4235144 -5.4693537 -5.2601027 -5.4274755 -5.496748
-5.405444 -5.4905567 -5.1191874 -5.3926845 -5.5106673 -5.258782 -5.4287524 -5.2560854
-5.102351 -5.0602546 -5.085647 -5.0926337 -5.0691113 -5.036609 -5.1575255 -5.1350913
-5.0434685 -5.056462 -5.053313 -5.145822 -5.040788 -5.126747 -5.0794845 -4.966929
-5.0244823 -5.206651 -4.793969 -5.1124573 -5.1198506 -5.060251 -5.0138464 -4.8301044
-5.542484 -5.6160398 -5.461945 -5.4234743 -5.4866247 -5.2888384 -5.288451 -5.6089287
-5.5335617 -5.533097 -5.4607277 -5.5748057 -5.5902634 -5.63484 -5.347062 -5.4047523
-5.575488 -5.4854717 -5.081753 -5.381005 -5.4957814 -5.3086653 -5.603773 -5.338592
-5.4291925 -5.3106155 -5.4210386 -5.338993 -5.4519606 -5.2664824 -5.186606 -5.4582343
-5.448732 -5.450491 -5.420997 -5.36951 -5.4722066 -5.4599032 -5.353814 -5.3392444
-5.365561 -5.480444 -5.0183816 -5.3992515 -5.493719 -5.2519875 -5.334284 -5.1134324
-5.3473268 -5.4268966 -5.3856106 -5.326509 -5.4032106 -5.3206673 -5.2204556 -5.3169656
-5.275935 -5.4328637 -5.567333 -5.178684 -5.4839497 -5.567809 -5.4232397 -5.4459743
00000000: 5058 aac0 bd2a abc0 b270 a9c0 3193 a9c0
00000010: ceb5 aec0 831c a9c0 0f71 a6c0 1c6e abc0
00000020: a49e acc0 a017 afc0 753b adc0 f1b5 acc0
00000030: b1d9 a9c0 70bf acc0 8eb5 a6c0 6280 aac0
00000040: cfa6 acc0 7a24 adc0 a45b 9fc0 da3c acc0
00000050: 0214 acc0 50d6 aac0 9f7b a9c0 27ea a2c0
00000060: 5342 9fc0 61c7 9fc0 f0f8 a0c0 51ae 9bc0
00000070: 9ee6 9bc0 06b2 97c0 cd3f 9dc0 0f3e 9fc0
00000080: c260 9ac0 6225 9ec0 0944 9ac0 90c6 9dc0
00000090: 1bc2 9fc0 41c7 98c0 e267 9ec0 6ade a3c0
000000a0: 9b86 9dc0 26fe 9cc0 e696 9dc0 647f 9ac0
000000b0: 1a9d a1c0 b248 9cc0 2c13 9bc0 7c55 9cc0
000000c0: 6b0f a3c0 ecec a3c0 ad61 9dc0 b6c8 a0c0
000000d0: ade4 9dc0 7610 a1c0 a16d a2c0 8b64 a2c0
000000e0: dca4 9fc0 23e5 a5c0 c1e4 a4c0 1e0a a5c0
000000f0: 7d94 a4c0 9f58 a4c0 d41e a0c0 7b4f a5c0
00000100: 19c4 a0c0 1d87 a4c0 2330 9bc0 3b0a a0c0
00000110: 512c a7c0 2b3b a6c0 ee89 9ec0 f7a2 9cc0
00000120: a7d7 afc0 aca3 adc0 95a5 a9c0 21f4 aac0
00000130: d113 adc0 5a7f a9c0 1548 a8c0 1e45 b0c0
00000140: 74c8 aec0 0fdb adc0 3fc9 a8c0 0647 b0c0
00000150: c747 abc0 d25b aec0 661d aec0 5526 afc0
00000160: 2c51 abc0 587a afc0 50d2 a5c0 b12b adc0
00000170: e111 abc0 ea0a acc0 a605 b0c0 e93e a4c0
00000180: a125 97c0 a6a5 9dc0 b1cc 9bc0 bc0a a2c0
00000190: ee6d 9bc0 af40 99c0 248c 97c0 29fe 9bc0
000001a0: 75a1 97c0 b657 95c0 3b38 99c0 79f4 95c0
000001b0: b555 a2c0 c476 a0c0 6cc9 a0c0 d983 a2c0
000001c0: 5a86 9bc0 969f 99c0 1bd4 9dc0 5e41 9cc0
000001d0: 97e5 9bc0 3654 9cc0 a983 9fc0 b137 98c0
000001e0: 5544 9cc0 05cc 9bc0 abe7 95c0 d17b 98c0
000001f0: bcef 9ac0 2a28 9ac0 da9e 98c0 1596 97c0
00000200: 101b 9dc0 649b 9cc0 71a2 98c0 aad8 99c0
00000210: 276b 9cc0 9682 9bc0 c6f6 9ac0 b6c6 99c0
00000220: f81d 9bc0 1e4d 97c0 bc1d 9dc0 ad62 9ac0
00000230: fd27 9bc0 a708 9ec0 0d5d 9cc0 59b5 9ac0
00000240: 1316 acc0 8d78 aec0 6f93 b0c0 6bc1 adc0
00000250: ff3a b1c0 5dfd a7c0 d768 a6c0 9bd5 abc0
00000260: af40 adc0 12b6 b1c0 af07 acc0 6e8d adc0
00000270: f204 afc0 c352 a8c0 e1ad adc0 5ce5 afc0
00000280: 66f9 acc0 a4b2 afc0 62d0 a3c0 df90 acc0
00000290: 6357 b0c0 f147 a8c0 57b8 adc0 da31 a8c0
000002a0: 7646 a3c0 9bed a1c0 9fbd a2c0 dbf6 a2c0
000002b0: 2936 a2c0 e72b a1c0 730a a5c0 ab52 a4c0
000002c0: 1864 a1c0 89ce a1c0 bdb4 a1c0 93aa a4c0
000002d0: 234e a1c0 500e a4c0 238b a2c0 15f1 9ec0
000002e0: 8fc8 a0c0 e39c a6c0 3268 99c0 4099 a3c0
000002f0: d1d5 a3c0 94ed a1c0 6e71 a0c0 3790 9ac0
00000300: 075c b1c0 99b6 b3c0 41c8 aec0 1a8d adc0
00000310: 6e92 afc0 2a3e a9c0 fe3a a9c0 587c b3c0
00000320: f012 b1c0 210f b1c0 48be aec0 cf64 b2c0
00000330: 70e3 b2c0 9c50 b4c0 221b abc0 bbf3 acc0
00000340: 666a b2c0 fc88 afc0 b89d a2c0 3131 acc0
00000350: 71dd afc0 96e0 a9c0 1c52 b3c0 bfd5 aac0
00000360: f2bb adc0 90f0 a9c0 2679 adc0 08d9 aac0
00000370: 7676 aec0 0687 a8c0 adf8 a5c0 dba9 aec0
00000380: 035c aec0 6c6a aec0 cf78 adc0 07d3 abc0
00000390: 511c afc0 87b7 aec0 7252 abc0 17db aac0
000003a0: adb2 abc0 cc5f afc0 9596 a0c0 abc6 acc0
000003b0: 8ccc afc0 4810 a8c0 74b2 aac0 3da1 a3c0
000003c0: 4d1d abc0 23a9 adc0 ec56 acc0 c372 aac0
000003d0: 1ae7 acc0 e842 aac0 f90d a7c0 9524 aac0
000003e0: 76d4 a8c0 05da adc0 9827 b2c0 c8b7 a5c0
000003f0: 847c afc0 7e2b b2c0 2e8b adc0 6c45 aec0

blinear2.bias_mu f4 [24]
0.043941826 0.009579831 -0.00848979 0.05430372 -0.00032609323 -1.9949754e-05 0.05496104 -0.011669813
0.05784115 0.049997095 0.05278589 0.041604154 0.018773027 0.052622754 0.050888266 0.04294867
0.0036844178 0.06963035 0.035103474 0.051575944 0.049656373 0.055217657 0.015622889 0.057333957
00000000: 58fc 333d b9f4 1c3c c318 0bbc 946d 5e3d
00000010: 7ef7 aab9 c559 a7b7 d41e 613d be32 3fbc
00000020: d7ea 6c3d c1c9 4c3d 0436 583d 1e69 2a3d
00000030: e4c9 993c f58a 573d 3770 503d f2ea 2f3d
00000040: 4676 713b 5b9a 8e3d a9c8 0f3d 4c41 533d
00000050: 7b64 4b3d e92b 623d 25f7 7f3c 03d7 6a3d

blinear2.bias_rho f4 [24]
-4.9157934 -4.962619 -4.9067535 -5.0734935 -5.013383 -4.919795 -4.8154745 -4.898745
-5.0193105 -4.932987 -5.012846 -5.0171027 -4.960205 -5.04526 -4.834857 -4.985671
-4.952903 -4.9025226 -4.9737916 -4.883092 -4.752196 -4.9743323 -4.978175 -4.923784
00000000: 2e4e 9dc0 c6cd 9ec0 2004 9dc0 0f5a a2c0
00000010: a26d a0c0 f66e 9dc0 5e18 9ac0 85c2 9cc0
00000020: 319e a0c0 08db 9dc0 3c69 a0c0 1b8c a0c0
00000030: 00ba 9ec0 c572 a1c0 26b7 9ac0 9e8a 9fc0
00000040: 2e7e 9ec0 77e1 9cc0 4d29 9fc0 4a42 9cc0
00000050: fd11 98c0 bb2d 9fc0 364d 9fc0 a38f 9dc0
