summit/benchmarks/experiment_emulator/trained_models/BNN/reizman_suzuki_case2_ton_8_BNN_model.pt (torch, 27999 bytes, 35 tensors)

blinear1.weight_mu f4 [24, 11]
0	0xbe18d974	-0.14926702
1	0x3e22e10b	0.1590616
2	0x3dc5baf1	0.09654797
3	0xbd7e2721	-0.062049035
4	0x3df87e7d	0.12133501
5	0x3c059a8a	0.008154521
6	0xbe4c6e09	-0.1996385
7	0xbdb60cc6	-0.08889155
8	0xbdd74ece	-0.10513078
9	0xbd5d66cd	-0.054053117
10	0xbd42a7d0	-0.04752332
11	0xbd64cd4b	-0.055859845
12	0x3c5ae07d	0.013359186
13	0xbdd68134	-0.10473862
14	0xb9f40d63	-0.0004654928
15	0xbdaa2bfa	-0.08309169
16	0xbd4442c7	-0.047915246
17	0x3cee5f2f	0.029098121
18	0x3df872be	0.1213126
19	0x3db7f37d	0.089819886
20	0xbe3ab508	-0.1823312
21	0xbd0fb836	-0.035087787
22	0x3d590893	0.052986693
23	0xbba980c9	-0.005172823
24	0xbd6c8451	-0.057743374
25	0xbb05b5de	-0.002040259
26	0x3d343d7b	0.044003945
27	0x3d4fe93c	0.05075954
28	0xbd1324d1	-0.035923783
29	0xbe0d79b7	-0.13815962
30	0x3d90d538	0.07071918
31	0xbd2a0792	-0.041511126
32	0xbaa5519d	-0.0012612824
33	0xbcd8c802	-0.026462559
34	0xbd95569a	-0.072919086
35	0x3ca7a66c	0.020465098
36	0x3c612642	0.0137420315
37	0x3df258b4	0.11833325
38	0xbd330777	-0.04370829
39	0x3c919d1d	0.017775113
40	0xba9dac46	-0.0012029491
41	0xbd493a82	-0.049128063
42	0xbb1f6d52	-0.0024326635
43	0xb9d6270c	-0.00040846353
44	0xbc154789	-0.009111294
45	0x3d555f7b	0.05209301
46	0x3da3f15b	0.08005019
47	0xbd716c88	-0.058941394
48	0x3da8591a	0.0822012
49	0xbcf65db8	-0.030073985
50	0x3d6cb281	0.057787422
51	0x3d8f6e54	0.07003465
52	0xbd69dfb7	-0.057098117
53	0x3e500501	0.20314409
54	0x3c4c4ea1	0.0124699185
55	0x3cf13120	0.02944237
56	0xbd24ebcf	-0.040263947
57	0xbe289f20	-0.16466951
58	0xbd7d27b4	-0.061805442
59	0x3c2a8721	0.010408194
60	0xba4214ff	-0.00074036414
61	0xbe053085	-0.1300679
62	0x3cda555e	0.026652034
63	0x3e0717f8	0.13192737
64	0x3e38ac94	0.18034583
65	0x3dd125ac	0.102122635
66	0x3b8ebfa1	0.00435634
67	0x3d9b14cb	0.07572325
68	0xbd894d02	-0.06704141
69	0x3da2b16f	0.07943999
70	0x3cac9120	0.021065295
71	0xbceea69f	-0.029132186
72	0x3d41621d	0.04721271
73	0xbdc26461	-0.09491802
74	0x3acb5501	0.0015513004
75	0x3d0e37ea	0.034721293
76	0x3d84b860	0.06480479
77	0x3dd20121	0.102541216
78	0xba799253	-0.00095204
79	0x3a9cbc70	0.0011958014
80	0x3ddfb9ef	0.10924136
81	0xbd93449a	-0.07190819
82	0xbda821c9	-0.08209569
83	0xbd556189	-0.05209497
84	0x3d24522e	0.040117435
85	0x3d569ade	0.052393787
86	0xbdca896d	-0.09889493
87	0x3c9e782f	0.019344417
88	0xbd9ba65c	-0.0760009
89	0xbd706cdc	-0.058697566
90	0x3e390622	0.18068746
91	0x3e2ff7c4	0.17184359
92	0x3d5ed06e	0.054397993
93	0x39a4c750	0.00031429017
94	0xbce310b9	-0.027717935
95	0x3b4496b0	0.0029997043
96	0x3c7bb71a	0.015363479
97	0x3e06bc39	0.13157739
98	0x3aa83f91	0.0012836327
99	0x3a7b0c1f	0.00095766963
100	0x3d41d386	0.047320865
101	0x38deb78c	0.00010619973
102	0x3e18f672	0.14937761
103	0x3cbd1bba	0.02308451
104	0x3d505d3d	0.05087017
105	0xbb24ab69	-0.0025126582
106	0x3e245c50	0.1605084
107	0x3e076b8f	0.13224624
108	0x3df22b93	0.118247174
109	0xbe17814c	-0.14795417
110	0xbd490b5b	-0.049083095
111	0x3ac1fd56	0.0014800231
112	0xbcb1ea2a	-0.021718103
113	0xbd603571	-0.054738466
114	0x3afe3dee	0.0019397119
115	0xbdbce491	-0.09223283
116	0x3dff7f17	0.12475412
117	0x3cceac05	0.02522851
118	0x3d67c6bc	0.056586012
119	0xbe1eaa05	-0.15494545
120	0xbe086755	-0.13320668
121	0xbb5fc262	-0.003414296
122	0xbce59ad5	-0.028027931
123	0xbcb740cb	-0.022369763
124	0xba61c05d	-0.0008611733
125	0xbe044e70	-0.12920547
126	0x3947abc6	0.0001904211
127	0xbd2e346f	-0.042530473
128	0xbd7c7c94	-0.061642244
129	0xbb3d3980	-0.0028873384
130	0xba3665e1	-0.000695793
131	0x3c2d03ad	0.010559958
132	0xbc448ec5	-0.0119969295
133	0x3d33b2ca	0.04387168
134	0x3dc337a5	0.09532098
135	0x39ad423b	0.00033046477
136	0xbdefe70d	-0.11713991
137	0x3d8e406a	0.0694588
138	0xbd92cd7f	-0.071681015
139	0x3a16a4ac	0.0005746584
140	0x3db69a30	0.08916128
141	0xbc22ee98	-0.0099445805
142	0xbdbb4ee0	-0.091459036
143	0x3d4b64aa	0.049656548
144	0x3dc55df0	0.09637058
145	0xbdf10bde	-0.117698416
146	0x39a2cea2	0.00031053
147	0x3ae19cd2	0.0017212874
148	0x3e1c8666	0.15285644
149	0xbd94d27e	-0.07266711
150	0x3db28653	0.087170266
151	0x3d1f9e96	0.0389696
152	0x3d9dce84	0.07705405
153	0xbd863315	-0.06552712
154	0xba1556e2	-0.00056968455
155	0xbd3cc1a9	-0.046083126
156	0xbc941768	-0.018077567
157	0x3e2411fd	0.16022487
158	0xbd6aa33b	-0.057284575
159	0x3daee5d4	0.0853993
160	0xbd1afcf2	-0.037838884
161	0xbd6e94bb	-0.05824731
162	0x3d48b2dd	0.048998702
163	0x3d6b5a97	0.05745944
164	0x3cd8de50	0.026473194
165	0x3cd57436	0.02605639
166	0xbc361f53	-0.011115867
167	0x3c4d7c44	0.012541834
168	0xbd58bbbe	-0.05291342
169	0xbe4e5324	-0.20148903
170	0xbc832300	-0.0160079
171	0x3dc64de5	0.09682826
172	0x3e0c4a8b	0.13700311
173	0xbd09558c	-0.03352885
174	0xbcffe348	-0.031236306
175	0xbd3db6a3	-0.046316754
176	0xbd47208e	-0.04861503
177	0xb997897e	-0.00028903404
178	0xbdc29f0a	-0.095029905
179	0x3da38411	0.07984174
180	0xbd026839	-0.031837676
181	0xbdcc0c3f	-0.09963273
182	0x3bb2568f	0.0054424475
183	0x3d2bc8c9	0.04193953
184	0x3b13224c	0.0022450862
185	0xbc727194	-0.014797587
186	0xbe4a2b0a	-0.1974298
187	0x3da01152	0.078158036
188	0xbd3c0a4e	-0.045908265
189	0x39bfe60d	0.0003660176
190	0xbd6a82b5	-0.05725356
191	0xbdff12e8	-0.12454778
192	0xbb346e90	-0.002753172
193	0xbb217f50	-0.0024642535
194	0x3c3946f8	0.011308424
195	0x3c7a41ce	0.015274478
196	0x3e097b93	0.13426046
197	0x3cb177ae	0.021663513
198	0xbd9b62c7	-0.075872
199	0xbd770345	-0.060305852
200	0x3d87c012	0.066284314
201	0x39795db0	0.00023781392
202	0xbd557a30	-0.05211848
203	0x3c260ff0	0.010135636
204	0xbd91d170	-0.07120025
205	0x3dae38ec	0.08506951
206	0x3d4bed7c	0.04978703
207	0xbafec8e6	-0.0019438535
208	0x3a2b6a5a	0.000653898
209	0x3d8311b2	0.063998595
210	0xbd230ca6	-0.039806984
211	0x3e080632	0.13283613
212	0xbb446ecf	-0.0029973274
213	0x3e18f750	0.14938092
214	0x3e265518	0.16243398
215	0x3b2d5d79	0.002645342
216	0xbcceb951	-0.02523485
217	0x3e1303bd	0.14356895
218	0x3a308789	0.00067340635
219	0xbd065e48	-0.032804757
220	0x3cb0e7a5	0.021594832
221	0xbd8697df	-0.06571936
222	0x3de14b88	0.110007346
223	0x3d883a3a	0.06651731
224	0xbcdac775	-0.026706437
225	0x3e007dfb	0.12548058
226	0xbd3d208e	-0.046173625
227	0x3e068fa5	0.13140734
228	0x3da70029	0.081543274
229	0x3ddc7f6b	0.107664905
230	0xbd76cb02	-0.060252197
231	0xbd58e8e7	-0.052956488
232	0xbd05e93d	-0.032693136
233	0xbdb43bdd	-0.088004805
234	0xba5271d4	-0.0008027826
235	0x3cf7ccb0	0.03024897
236	0x3cff8e1f	0.031195698
237	0x3d8bccaa	0.06826146
238	0x3dbed04b	0.093170725
239	0xbdecc098	-0.11560172
240	0x3bdf6c95	0.006818364
241	0xbdc7b72a	-0.09751733
242	0xbc69d40f	-0.01427175
243	0xbd414d5b	-0.047192913
244	0xbdfc0918	-0.12306422
245	0x3cbbdb95	0.022931853
246	0x3a3e248c	0.0007253371
247	0xbca8ac29	-0.020589905
248	0xbcca7e6a	-0.024718482
249	0xba5b976a	-0.00083767495
250	0xbe3aa204	-0.18225867
251	0xbe069298	-0.13141859
252	0x3cc1c445	0.023653159
253	0x3a8f5664	0.0010935781
254	0xbb134cbf	-0.0022476164
255	0xbdf7e19e	-0.1210358

blinear1.weight_rho f4 [24, 11]
0	0xc0df8111	-6.984505
1	0xc0e2cff8	-7.087887
2	0xc0df1e71	-6.972466
3	0xc0ddc813	-6.930673
4	0xc0dd12c7	-6.908542
5	0xc0e44e48	-7.134556
6	0xc0e04758	-7.008709
7	0xc0e4de87	-7.152164
8	0xc0e58617	-7.1726184
9	0xc0df3cb2	-6.976159
10	0xc0e2825a	-7.078412
11	0xc0e3669d	-7.106276
12	0xc0e257a2	-7.0731974
13	0xc0de87ee	-6.954093
14	0xc0e2c254	-7.0862217
15	0xc0de446b	-6.945852
16	0xc0e45260	-7.1350555
17	0xc0e01b9c	-7.0033703
18	0xc0e181b2	-7.047082
19	0xc0de6f8d	-6.951117
20	0xc0dc9193	-6.8927703
21	0xc0de80b2	-6.95321
22	0xc0dc4b21	-6.884171
23	0xc0e4d40e	-7.1508856
24	0xc0df353c	-6.9752483
25	0xc0e0e5ed	-7.028067
26	0xc0e0d918	-7.0265007
27	0xc0dda776	-6.926692
28	0xc0e41591	-7.1276326
29	0xc0e0d98a	-7.026555
30	0xc0e039dd	-7.0070634
31	0xc0e19511	-7.0494466
32	0xc0e29daf	-7.0817485
33	0xc0da2c2e	-6.817893
34	0xc0dde6ae	-6.934409
35	0xc0dfc093	-6.9922576
36	0xc0df4ee4	-6.97838
37	0xc0e4525b	-7.135053
38	0xc0e3bf24	-7.1170826
39	0xc0dfbed9	-6.992047
40	0xc0e0b76f	-7.022392
41	0xc0ddab21	-6.9271398
42	0xc0e12c2f	-7.0366435
43	0xc0e05d3c	-7.011381
44	0xc0ddd7fb	-6.932615
45	0xc0dd55a5	-6.9167047
46	0xc0dff225	-6.9983087
47	0xc0dd9948	-6.924961
48	0xc0dece34	-6.9626713
49	0xc0df9515	-6.9869485
50	0xc0ddd6c7	-6.932468
51	0xc0e22073	-7.066461
52	0xc0df9b27	-6.9876895
53	0xc0e41b79	-7.1283536
54	0xc0d91b15	-6.784556
55	0xc0dcc056	-6.8984785
56	0xc0debcee	-6.9605627
57	0xc0d8482c	-6.75881
58	0xc0e2e130	-7.0899887
59	0xc0e1fa81	-7.061829
60	0xc0dd7eb0	-6.921715
61	0xc0dd6dbc	-6.9196453
62	0xc0e2825b	-7.0784125
63	0xc0dc6834	-6.88772
64	0xc0de5679	-6.9480557
65	0xc0deeda9	-6.9665112
66	0xc0df39d6	-6.97581
67	0xc0e19f10	-7.050667
68	0xc0e01b4c	-7.003332
69	0xc0e23abe	-7.0696707
70	0xc0e3aa60	-7.1145477
71	0xc0ded4bd	-6.963469
72	0xc0df13ed	-6.9711823
73	0xc0e359e8	-7.104725
74	0xc0de39a3	-6.9445357
75	0xc0d9983f	-6.7998347
76	0xc0de0ec3	-6.939302
77	0xc0dbf8d1	-6.874123
78	0xc0de946e	-6.955619
79	0xc0e20d37	-7.064113
80	0xc0e1526e	-7.041312
81	0xc0dce0c6	-6.902438
82	0xc0e31b90	-7.0971146
83	0xc0e3d0d6	-7.1192427
84	0xc0e3d607	-7.1198764
85	0xc0df738d	-6.9828553
86	0xc0e205db	-7.063215
87	0xc0e63531	-7.193993
88	0xc0e29c6d	-7.081595
89	0xc0e1f2a5	-7.0608697
90	0xc0e0ac79	-7.021054
91	0xc0e3800c	-7.1093807
92	0xc0df1f64	-6.972582
93	0xc0dde76c	-6.9344997
94	0xc0dbef93	-6.872995
95	0xc0dfcc13	-6.9936614
96	0xc0dda50e	-6.9263983
97	0xc0da2f08	-6.818241
98	0xc0e137d7	-7.0380664
99	0xc0e340e0	-7.1016693
100	0xc0dda542	-6.926423
101	0xc0de3fc7	-6.9452853
102	0xc0decd39	-6.9625516
103	0xc0e1f67e	-7.0613394
104	0xc0d70199	-6.718945
105	0xc0dd054d	-6.906897
106	0xc0ddc5c9	-6.9303937
107	0xc0dd3f3b	-6.9139686
108	0xc0deac04	-6.958498
109	0xc0e01b8a	-7.0033617
110	0xc0dfda68	-6.995411
111	0xc0dec82a	-6.961934
112	0xc0e29452	-7.0806055
113	0xc0dc14a3	-6.877519
114	0xc0df1faa	-6.9726152
115	0xc0dae53d	-6.840483
116	0xc0e1a874	-7.051813
117	0xc0e0df8b	-7.027288
118	0xc0e20030	-7.062523
119	0xc0e5566a	-7.1667986
120	0xc0e23dd0	-7.0700455
121	0xc0dfa748	-6.98917
122	0xc0d97848	-6.795933
123	0xc0e03f3b	-7.0077186
124	0xc0d8c503	-6.7740493
125	0xc0e33855	-7.1006265
126	0xc0db45fc	-6.852293
127	0xc0e18fd5	-7.0488076
128	0xc0de5539	-6.947903
129	0xc0e6e4e4	-7.2154408
130	0xc0e57606	-7.170657
131	0xc0d8b6ff	-6.7723384
132	0xc0e20515	-7.0631204
133	0xc0e035a7	-7.0065494
134	0xc0dd7f27	-6.9217715
135	0xc0e1229d	-7.0354753
136	0xc0dae885	-6.8408837
137	0xc0dbd1d8	-6.8693657
138	0xc0de664d	-6.949988
139	0xc0e44133	-7.132959
140	0xc0e32407	-7.098148
141	0xc0e053ea	-7.0102434
142	0xc0e07595	-7.0143533
143	0xc0df2065	-6.9727044
144	0xc0e45ab3	-7.1360717
145	0xc0de3d25	-6.944964
146	0xc0de17b0	-6.9403915
147	0xc0e531e0	-7.1623383
148	0xc0e33a10	-7.1008377
149	0xc0dbb1bf	-6.8654475
150	0xc0e56e45	-7.1697106
151	0xc0da429d	-6.8206315
152	0xc0ddbfd9	-6.929669
153	0xc0de83bf	-6.9535823
154	0xc0de0fe7	-6.939441
155	0xc0e278c4	-7.077242
156	0xc0ddeb0c	-6.9349422
157	0xc0e1a082	-7.0508432
158	0xc0e455c5	-7.13547
159	0xc0dd5e63	-6.917772
160	0xc0de688f	-6.9502635
161	0xc0e03d46	-7.0074797
162	0xc0db5763	-6.8544173
163	0xc0de9e27	-6.9568057
164	0xc0de87bb	-6.9540687
165	0xc0de63f0	-6.9496994
166	0xc0e102c8	-7.0315895
167	0xc0dc1bf8	-6.878414
168	0xc0e1daeb	-7.0579734
169	0xc0df0213	-6.969003
170	0xc0e00fdd	-7.0019364
171	0xc0ddd89a	-6.9326906
172	0xc0d8d7c2	-6.7763376
173	0xc0deea0a	-6.966069
174	0xc0dd2b50	-6.911537
175	0xc0e1c2b2	-7.0550165
176	0xc0e36893	-7.1065154
177	0xc0e0f516	-7.0299177
178	0xc0e2d1e6	-7.0881224
179	0xc0dddc9d	-6.9331803
180	0xc0e320fd	-7.097777
181	0xc0e13b8a	-7.038518
182	0xc0df19d0	-6.971901
183	0xc0dda0a3	-6.925859
184	0xc0d6cc91	-6.7124715
185	0xc0e06a9c	-7.013014
186	0xc0dc9a37	-6.893825
187	0xc0dc2669	-6.8796887
188	0xc0de7a03	-6.952394
189	0xc0e3856b	-7.1100364
190	0xc0dcabf0	-6.8959885
191	0xc0e0004f	-7.0000377
192	0xc0df6426	-6.980975
193	0xc0e1b78c	-7.0536556
194	0xc0e22cb7	-7.0679584
195	0xc0dc9e8a	-6.894353
196	0xc0dd6e73	-6.9197326
197	0xc0e2c85f	-7.0869594
198	0xc0e48a50	-7.141884
199	0xc0e048e8	-7.0088997
200	0xc0e154a0	-7.04158
201	0xc0ddda44	-6.9328938
202	0xc0e3513a	-7.1036654
203	0xc0debf65	-6.9608636
204	0xc0e07e5e	-7.0154257
205	0xc0e1f34b	-7.060949
206	0xc0e15f7e	-7.0429068
207	0xc0de7f30	-6.953026
208	0xc0e196cd	-7.0496583
209	0xc0de045a	-6.938031
210	0xc0e2ca87	-7.0872226
211	0xc0de4ce8	-6.946888
212	0xc0e3688f	-7.1065135
213	0xc0da22b2	-6.8167353
214	0xc0da5d36	-6.8238783
215	0xc0dfc3e0	-6.9926605
216	0xc0ddbb87	-6.9291415
217	0xc0de3744	-6.9442463
218	0xc0dc7aaa	-6.8899736
219	0xc0e1b112	-7.052865
220	0xc0dcc3da	-6.8989077
221	0xc0dea953	-6.9581695
222	0xc0e6ecd5	-7.21641
223	0xc0df3a0e	-6.9758368
224	0xc0dce4fe	-6.902953
225	0xc0e15e30	-7.0427475
226	0xc0e538ac	-7.163168
227	0xc0ded6c2	-6.9637156
228	0xc0e253a1	-7.0727086
229	0xc0e2e0db	-7.089948
230	0xc0dca3dc	-6.8950024
231	0xc0e09e98	-7.0193596
232	0xc0dce61b	-6.903089
233	0xc0e5f816	-7.186534
234	0xc0dffd1c	-6.999647
235	0xc0e6123f	-7.1897273
236	0xc0ddd1e4	-6.9318714
237	0xc0df3c88	-6.976139
238	0xc0e04e86	-7.0095854
239	0xc0e181e7	-7.047107
240	0xc0e21119	-7.064587
241	0xc0e065ee	-7.0124426
242	0xc0de49ab	-6.9464927
243	0xc0de7268	-6.9514656
244	0xc0ddce4c	-6.9314327
245	0xc0e137eb	-7.038076
246	0xc0ddb27d	-6.928038
247	0xc0e12c2d	-7.0366426
248	0xc0d8de42	-6.777131
249	0xc0e6b004	-7.2089863
250	0xc0e0f892	-7.030343
251	0xc0e2ef1c	-7.091688
252	0xc0e117f7	-7.0341754
253	0xc0e4169a	-7.127759
254	0xc0dcbcd9	-6.8980527
255	0xc0df5bf4	-6.9799747

blinear1.bias_mu f4 [24]
0	0xbc39044e	-0.01129253
1	0xbc0753a7	-0.00825969
2	0x3b024af8	0.001988111
3	0xbd5374b8	-0.051624984
4	0x3d286ea1	0.04112113
5	0xbd577034	-0.05259724
6	0x3c5ef4aa	0.013608137
7	0x3e2c85fb	0.16847984
8	0x3d691771	0.05690712
9	0x3b4af342	0.0030967747
10	0x3d9db0fb	0.07699772
11	0x3de48d6d	0.11159787
12	0x3cca2203	0.024674421
13	0xbb10ab82	-0.0022074883
14	0xbdef4ac6	-0.11684184
15	0x3dea87ef	0.114517085
16	0x3dc1185b	0.094284736
17	0xbb34af8a	-0.002757045
18	0x3cf2bcc3	0.029631024
19	0xbe55d63c	-0.20882505
20	0xbe184736	-0.14870915
21	0x3ca9ab15	0.020711461
22	0x3d75fdeb	0.06005661
23	0x3ab63835	0.0013902249

blinear1.bias_rho f4 [24]
0	0xc0e21744	-7.06534
1	0xc0e4fc82	-7.1558237
2	0xc0def597	-6.967479
3	0xc0dfab80	-6.989685
4	0xc0dc1abe	-6.8782644
5	0xc0d59cf9	-6.6754117
6	0xc0dba4a2	-6.863847
7	0xc0e468d0	-7.1377945
8	0xc0e0bdde	-7.023177
9	0xc0dfbada	-6.991559
10	0xc0e6b450	-7.209511
11	0xc0db5e88	-6.8552895
12	0xc0dfcdc1	-6.9938664
13	0xc0dd3f39	-6.9139676
14	0xc0d83307	-6.756229
15	0xc0de1fe7	-6.9413943
16	0xc0e881ba	-7.265836
17	0xc0e00582	-7.0006723
18	0xc0e25a63	-7.0735335
19	0xc0e1d9d2	-7.0578394
20	0xc0e01de5	-7.003649
21	0xc0dfa569	-6.9889417
22	0xc0e7c7fe	-7.243163
23	0xc0dd3823	-6.9131026

blinear1.weight_sampler.mu f4 [24, 11]
0	0xbe18d974	-0.14926702
1	0x3e22e10b	0.1590616
2	0x3dc5baf1	0.09654797
3	0xbd7e2721	-0.062049035
4	0x3df87e7d	0.12133501
5	0x3c059a8a	0.008154521
6	0xbe4c6e09	-0.1996385
7	0xbdb60cc6	-0.08889155
8	0xbdd74ece	-0.10513078
9	0xbd5d66cd	-0.054053117
10	0xbd42a7d0	-0.04752332
11	0xbd64cd4b	-0.055859845
12	0x3c5ae07d	0.013359186
13	0xbdd68134	-0.10473862
14	0xb9f40d63	-0.0004654928
15	0xbdaa2bfa	-0.08309169
16	0xbd4442c7	-0.047915246
17	0x3cee5f2f	0.029098121
18	0x3df872be	0.1213126
19	0x3db7f37d	0.089819886
20	0xbe3ab508	-0.1823312
21	0xbd0fb836	-0.035087787
22	0x3d590893	0.052986693
23	0xbba980c9	-0.005172823
24	0xbd6c8451	-0.057743374
25	0xbb05b5de	-0.002040259
26	0x3d343d7b	0.044003945
27	0x3d4fe93c	0.05075954
28	0xbd1324d1	-0.035923783
29	0xbe0d79b7	-0.13815962
30	0x3d90d538	0.07071918
31	0xbd2a0792	-0.041511126
32	0xbaa5519d	-0.0012612824
33	0xbcd8c802	-0.026462559
34	0xbd95569a	-0.072919086
35	0x3ca7a66c	0.020465098
36	0x3c612642	0.0137420315
37	0x3df258b4	0.11833325
38	0xbd330777	-0.04370829
39	0x3c919d1d	0.017775113
40	0xba9dac46	-0.0012029491
41	0xbd493a82	-0.049128063
42	0xbb1f6d52	-0.0024326635
43	0xb9d6270c	-0.00040846353
44	0xbc154789	-0.009111294
45	0x3d555f7b	0.05209301
46	0x3da3f15b	0.08005019
47	0xbd716c88	-0.058941394
48	0x3da8591a	0.0822012
49	0xbcf65db8	-0.030073985
50	0x3d6cb281	0.057787422
51	0x3d8f6e54	0.07003465
52	0xbd69dfb7	-0.057098117
53	0x3e500501	0.20314409
54	0x3c4c4ea1	0.0124699185
55	0x3cf13120	0.02944237
56	0xbd24ebcf	-0.040263947
57	0xbe289f20	-0.16466951
58	0xbd7d27b4	-0.061805442
59	0x3c2a8721	0.010408194
60	0xba4214ff	-0.00074036414
61	0xbe053085	-0.1300679
62	0x3cda555e	0.026652034
63	0x3e0717f8	0.13192737
64	0x3e38ac94	0.18034583
65	0x3dd125ac	0.102122635
66	0x3b8ebfa1	0.00435634
67	0x3d9b14cb	0.07572325
68	0xbd894d02	-0.06704141
69	0x3da2b16f	0.07943999
70	0x3cac9120	0.021065295
71	0xbceea69f	-0.029132186
72	0x3d41621d	0.04721271
73	0xbdc26461	-0.09491802
74	0x3acb5501	0.0015513004
75	0x3d0e37ea	0.034721293
76	0x3d84b860	0.06480479
77	0x3dd20121	0.102541216
78	0xba799253	-0.00095204
79	0x3a9cbc70	0.0011958014
80	0x3ddfb9ef	0.10924136
81	0xbd93449a	-0.07190819
82	0xbda821c9	-0.08209569
83	0xbd556189	-0.05209497
84	0x3d24522e	0.040117435
85	0x3d569ade	0.052393787
86	0xbdca896d	-0.09889493
87	0x3c9e782f	0.019344417
88	0xbd9ba65c	-0.0760009
89	0xbd706cdc	-0.058697566
90	0x3e390622	0.18068746
91	0x3e2ff7c4	0.17184359
92	0x3d5ed06e	0.054397993
93	0x39a4c750	0.00031429017
94	0xbce310b9	-0.027717935
95	0x3b4496b0	0.0029997043
96	0x3c7bb71a	0.015363479
97	0x3e06bc39	0.13157739
98	0x3aa83f91	0.0012836327
99	0x3a7b0c1f	0.00095766963
100	0x3d41d386	0.047320865
101	0x38deb78c	0.00010619973
102	0x3e18f672	0.14937761
103	0x3cbd1bba	0.02308451
104	0x3d505d3d	0.05087017
105	0xbb24ab69	-0.0025126582
106	0x3e245c50	0.1605084
107	0x3e076b8f	0.13224624
108	0x3df22b93	0.118247174
109	0xbe17814c	-0.14795417
110	0xbd490b5b	-0.049083095
111	0x3ac1fd56	0.0014800231
112	0xbcb1ea2a	-0.021718103
113	0xbd603571	-0.054738466
114	0x3afe3dee	0.0019397119
115	0xbdbce491	-0.09223283
116	0x3dff7f17	0.12475412
117	0x3cceac05	0.02522851
118	0x3d67c6bc	0.056586012
119	0xbe1eaa05	-0.15494545
120	0xbe086755	-0.13320668
121	0xbb5fc262	-0.003414296
122	0xbce59ad5	-0.028027931
123	0xbcb740cb	-0.022369763
124	0xba61c05d	-0.0008611733
125	0xbe044e70	-0.12920547
126	0x3947abc6	0.0001904211
127	0xbd2e346f	-0.042530473
128	0xbd7c7c94	-0.061642244
129	0xbb3d3980	-0.0028873384
130	0xba3665e1	-0.000695793
131	0x3c2d03ad	0.010559958
132	0xbc448ec5	-0.0119969295
133	0x3d33b2ca	0.04387168
134	0x3dc337a5	0.09532098
135	0x39ad423b	0.00033046477
136	0xbdefe70d	-0.11713991
137	0x3d8e406a	0.0694588
138	0xbd92cd7f	-0.071681015
139	0x3a16a4ac	0.0005746584
140	0x3db69a30	0.08916128
141	0xbc22ee98	-0.0099445805
142	0xbdbb4ee0	-0.091459036
143	0x3d4b64aa	0.049656548
144	0x3dc55df0	0.09637058
145	0xbdf10bde	-0.117698416
146	0x39a2cea2	0.00031053
147	0x3ae19cd2	0.0017212874
148	0x3e1c8666	0.15285644
149	0xbd94d27e	-0.07266711
150	0x3db28653	0.087170266
151	0x3d1f9e96	0.0389696
152	0x3d9dce84	0.07705405
153	0xbd863315	-0.06552712
154	0xba1556e2	-0.00056968455
155	0xbd3cc1a9	-0.046083126
156	0xbc941768	-0.018077567
157	0x3e2411fd	0.16022487
158	0xbd6aa33b	-0.057284575
159	0x3daee5d4	0.0853993
160	0xbd1afcf2	-0.037838884
161	0xbd6e94bb	-0.05824731
162	0x3d48b2dd	0.048998702
163	0x3d6b5a97	0.05745944
164	0x3cd8de50	0.026473194
165	0x3cd57436	0.02605639
166	0xbc361f53	-0.011115867
167	0x3c4d7c44	0.012541834
168	0xbd58bbbe	-0.05291342
169	0xbe4e5324	-0.20148903
170	0xbc832300	-0.0160079
171	0x3dc64de5	0.09682826
172	0x3e0c4a8b	0.13700311
173	0xbd09558c	-0.03352885
174	0xbcffe348	-0.031236306
175	0xbd3db6a3	-0.046316754
176	0xbd47208e	-0.04861503
177	0xb997897e	-0.00028903404
178	0xbdc29f0a	-0.095029905
179	0x3da38411	0.07984174
180	0xbd026839	-0.031837676
181	0xbdcc0c3f	-0.09963273
182	0x3bb2568f	0.0054424475
183	0x3d2bc8c9	0.04193953
184	0x3b13224c	0.0022450862
185	0xbc727194	-0.014797587
186	0xbe4a2b0a	-0.1974298
187	0x3da01152	0.078158036
188	0xbd3c0a4e	-0.045908265
189	0x39bfe60d	0.0003660176
190	0xbd6a82b5	-0.05725356
191	0xbdff12e8	-0.12454778
192	0xbb346e90	-0.002753172
193	0xbb217f50	-0.0024642535
194	0x3c3946f8	0.011308424
195	0x3c7a41ce	0.015274478
196	0x3e097b93	0.13426046
197	0x3cb177ae	0.021663513
198	0xbd9b62c7	-0.075872
199	0xbd770345	-0.060305852
200	0x3d87c012	0.066284314
201	0x39795db0	0.00023781392
202	0xbd557a30	-0.05211848
203	0x3c260ff0	0.010135636
204	0xbd91d170	-0.07120025
205	0x3dae38ec	0.08506951
206	0x3d4bed7c	0.04978703
207	0xbafec8e6	-0.0019438535
208	0x3a2b6a5a	0.000653898
209	0x3d8311b2	0.063998595
210	0xbd230ca6	-0.039806984
211	0x3e080632	0.13283613
212	0xbb446ecf	-0.0029973274
213	0x3e18f750	0.14938092
214	0x3e265518	0.16243398
215	0x3b2d5d79	0.002645342
216	0xbcceb951	-0.02523485
217	0x3e1303bd	0.14356895
218	0x3a308789	0.00067340635
219	0xbd065e48	-0.032804757
220	0x3cb0e7a5	0.021594832
221	0xbd8697df	-0.06571936
222	0x3de14b88	0.110007346
223	0x3d883a3a	0.06651731
224	0xbcdac775	-0.026706437
225	0x3e007dfb	0.12548058
226	0xbd3d208e	-0.046173625
227	0x3e068fa5	0.13140734
228	0x3da70029	0.081543274
229	0x3ddc7f6b	0.107664905
230	0xbd76cb02	-0.060252197
231	0xbd58e8e7	-0.052956488
232	0xbd05e93d	-0.032693136
233	0xbdb43bdd	-0.088004805
234	0xba5271d4	-0.0008027826
235	0x3cf7ccb0	0.03024897
236	0x3cff8e1f	0.031195698
237	0x3d8bccaa	0.06826146
238	0x3dbed04b	0.093170725
239	0xbdecc098	-0.11560172
240	0x3bdf6c95	0.006818364
241	0xbdc7b72a	-0.09751733
242	0xbc69d40f	-0.01427175
243	0xbd414d5b	-0.047192913
244	0xbdfc0918	-0.12306422
245	0x3cbbdb95	0.022931853
246	0x3a3e248c	0.0007253371
247	0xbca8ac29	-0.020589905
248	0xbcca7e6a	-0.024718482
249	0xba5b976a	-0.00083767495
250	0xbe3aa204	-0.18225867
251	0xbe069298	-0.13141859
252	0x3cc1c445	0.023653159
253	0x3a8f5664	0.0010935781
254	0xbb134cbf	-0.0022476164
255	0xbdf7e19e	-0.1210358

blinear1.weight_sampler.rho f4 [24, 11]
0	0xc0df8111	-6.984505
1	0xc0e2cff8	-7.087887
2	0xc0df1e71	-6.972466
3	0xc0ddc813	-6.930673
4	0xc0dd12c7	-6.908542
5	0xc0e44e48	-7.134556
6	0xc0e04758	-7.008709
7	0xc0e4de87	-7.152164
8	0xc0e58617	-7.1726184
9	0xc0df3cb2	-6.976159
10	0xc0e2825a	-7.078412
11	0xc0e3669d	-7.106276
12	0xc0e257a2	-7.0731974
13	0xc0de87ee	-6.954093
14	0xc0e2c254	-7.0862217
15	0xc0de446b	-6.945852
16	0xc0e45260	-7.1350555
17	0xc0e01b9c	-7.0033703
18	0xc0e181b2	-7.047082
19	0xc0de6f8d	-6.951117
20	0xc0dc9193	-6.8927703
21	0xc0de80b2	-6.95321
22	0xc0dc4b21	-6.884171
23	0xc0e4d40e	-7.1508856
24	0xc0df353c	-6.9752483
25	0xc0e0e5ed	-7.028067
26	0xc0e0d918	-7.0265007
27	0xc0dda776	-6.926692
28	0xc0e41591	-7.1276326
29	0xc0e0d98a	-7.026555
30	0xc0e039dd	-7.0070634
31	0xc0e19511	-7.0494466
32	0xc0e29daf	-7.0817485
33	0xc0da2c2e	-6.817893
34	0xc0dde6ae	-6.934409
35	0xc0dfc093	-6.9922576
36	0xc0df4ee4	-6.97838
37	0xc0e4525b	-7.135053
38	0xc0e3bf24	-7.1170826
39	0xc0dfbed9	-6.992047
40	0xc0e0b76f	-7.022392
41	0xc0ddab21	-6.9271398
42	0xc0e12c2f	-7.0366435
43	0xc0e05d3c	-7.011381
44	0xc0ddd7fb	-6.932615
45	0xc0dd55a5	-6.9167047
46	0xc0dff225	-6.9983087
47	0xc0dd9948	-6.924961
48	0xc0dece34	-6.9626713
49	0xc0df9515	-6.9869485
50	0xc0ddd6c7	-6.932468
51	0xc0e22073	-7.066461
52	0xc0df9b27	-6.9876895
53	0xc0e41b79	-7.1283536
54	0xc0d91b15	-6.784556
55	0xc0dcc056	-6.8984785
56	0xc0debcee	-6.9605627
57	0xc0d8482c	-6.75881
58	0xc0e2e130	-7.0899887
59	0xc0e1fa81	-7.061829
60	0xc0dd7eb0	-6.921715
61	0xc0dd6dbc	-6.9196453
62	0xc0e2825b	-7.0784125
63	0xc0dc6834	-6.88772
64	0xc0de5679	-6.9480557
65	0xc0deeda9	-6.9665112
66	0xc0df39d6	-6.97581
67	0xc0e19f10	-7.050667
68	0xc0e01b4c	-7.003332
69	0xc0e23abe	-7.0696707
70	0xc0e3aa60	-7.1145477
71	0xc0ded4bd	-6.963469
72	0xc0df13ed	-6.9711823
73	0xc0e359e8	-7.104725
74	0xc0de39a3	-6.9445357
75	0xc0d9983f	-6.7998347
76	0xc0de0ec3	-6.939302
77	0xc0dbf8d1	-6.874123
78	0xc0de946e	-6.955619
79	0xc0e20d37	-7.064113
80	0xc0e1526e	-7.041312
81	0xc0dce0c6	-6.902438
82	0xc0e31b90	-7.0971146
83	0xc0e3d0d6	-7.1192427
84	0xc0e3d607	-7.1198764
85	0xc0df738d	-6.9828553
86	0xc0e205db	-7.063215
87	0xc0e63531	-7.193993
88	0xc0e29c6d	-7.081595
89	0xc0e1f2a5	-7.0608697
90	0xc0e0ac79	-7.021054
91	0xc0e3800c	-7.1093807
92	0xc0df1f64	-6.972582
93	0xc0dde76c	-6.9344997
94	0xc0dbef93	-6.872995
95	0xc0dfcc13	-6.9936614
96	0xc0dda50e	-6.9263983
97	0xc0da2f08	-6.818241
98	0xc0e137d7	-7.0380664
99	0xc0e340e0	-7.1016693
100	0xc0dda542	-6.926423
101	0xc0de3fc7	-6.9452853
102	0xc0decd39	-6.9625516
103	0xc0e1f67e	-7.0613394
104	0xc0d70199	-6.718945
105	0xc0dd054d	-6.906897
106	0xc0ddc5c9	-6.9303937
107	0xc0dd3f3b	-6.9139686
108	0xc0deac04	-6.958498
109	0xc0e01b8a	-7.0033617
110	0xc0dfda68	-6.995411
111	0xc0dec82a	-6.961934
112	0xc0e29452	-7.0806055
113	0xc0dc14a3	-6.877519
114	0xc0df1faa	-6.9726152
115	0xc0dae53d	-6.840483
116	0xc0e1a874	-7.051813
117	0xc0e0df8b	-7.027288
118	0xc0e20030	-7.062523
119	0xc0e5566a	-7.1667986
120	0xc0e23dd0	-7.0700455
121	0xc0dfa748	-6.98917
122	0xc0d97848	-6.795933
123	0xc0e03f3b	-7.0077186
124	0xc0d8c503	-6.7740493
125	0xc0e33855	-7.1006265
126	0xc0db45fc	-6.852293
127	0xc0e18fd5	-7.0488076
128	0xc0de5539	-6.947903
129	0xc0e6e4e4	-7.2154408
130	0xc0e57606	-7.170657
131	0xc0d8b6ff	-6.7723384
132	0xc0e20515	-7.0631204
133	0xc0e035a7	-7.0065494
134	0xc0dd7f27	-6.9217715
135	0xc0e1229d	-7.0354753
136	0xc0dae885	-6.8408837
137	0xc0dbd1d8	-6.8693657
138	0xc0de664d	-6.949988
139	0xc0e44133	-7.132959
140	0xc0e32407	-7.098148
141	0xc0e053ea	-7.0102434
142	0xc0e07595	-7.0143533
143	0xc0df2065	-6.9727044
144	0xc0e45ab3	-7.1360717
145	0xc0de3d25	-6.944964
146	0xc0de17b0	-6.9403915
147	0xc0e531e0	-7.1623383
148	0xc0e33a10	-7.1008377
149	0xc0dbb1bf	-6.8654475
150	0xc0e56e45	-7.1697106
151	0xc0da429d	-6.8206315
152	0xc0ddbfd9	-6.929669
153	0xc0de83bf	-6.9535823
154	0xc0de0fe7	-6.939441
155	0xc0e278c4	-7.077242
156	0xc0ddeb0c	-6.9349422
157	0xc0e1a082	-7.0508432
158	0xc0e455c5	-7.13547
159	0xc0dd5e63	-6.917772
160	0xc0de688f	-6.9502635
161	0xc0e03d46	-7.0074797
162	0xc0db5763	-6.8544173
163	0xc0de9e27	-6.9568057
164	0xc0de87bb	-6.9540687
165	0xc0de63f0	-6.9496994
166	0xc0e102c8	-7.0315895
167	0xc0dc1bf8	-6.878414
168	0xc0e1daeb	-7.0579734
169	0xc0df0213	-6.969003
170	0xc0e00fdd	-7.0019364
171	0xc0ddd89a	-6.9326906
172	0xc0d8d7c2	-6.7763376
173	0xc0deea0a	-6.966069
174	0xc0dd2b50	-6.911537
175	0xc0e1c2b2	-7.0550165
176	0xc0e36893	-7.1065154
177	0xc0e0f516	-7.0299177
178	0xc0e2d1e6	-7.0881224
179	0xc0dddc9d	-6.9331803
180	0xc0e320fd	-7.097777
181	0xc0e13b8a	-7.038518
182	0xc0df19d0	-6.971901
183	0xc0dda0a3	-6.925859
184	0xc0d6cc91	-6.7124715
185	0xc0e06a9c	-7.013014
186	0xc0dc9a37	-6.893825
187	0xc0dc2669	-6.8796887
188	0xc0de7a03	-6.952394
189	0xc0e3856b	-7.1100364
190	0xc0dcabf0	-6.8959885
191	0xc0e0004f	-7.0000377
192	0xc0df6426	-6.980975
193	0xc0e1b78c	-7.0536556
194	0xc0e22cb7	-7.0679584
195	0xc0dc9e8a	-6.894353
196	0xc0dd6e73	-6.9197326
197	0xc0e2c85f	-7.0869594
198	0xc0e48a50	-7.141884
199	0xc0e048e8	-7.0088997
200	0xc0e154a0	-7.04158
201	0xc0ddda44	-6.9328938
202	0xc0e3513a	-7.1036654
203	0xc0debf65	-6.9608636
204	0xc0e07e5e	-7.0154257
205	0xc0e1f34b	-7.060949
206	0xc0e15f7e	-7.0429068
207	0xc0de7f30	-6.953026
208	0xc0e196cd	-7.0496583
209	0xc0de045a	-6.938031
210	0xc0e2ca87	-7.0872226
211	0xc0de4ce8	-6.946888
212	0xc0e3688f	-7.1065135
213	0xc0da22b2	-6.8167353
214	0xc0da5d36	-6.8238783
215	0xc0dfc3e0	-6.9926605
216	0xc0ddbb87	-6.9291415
217	0xc0de3744	-6.9442463
218	0xc0dc7aaa	-6.8899736
219	0xc0e1b112	-7.052865
220	0xc0dcc3da	-6.8989077
221	0xc0dea953	-6.9581695
222	0xc0e6ecd5	-7.21641
223	0xc0df3a0e	-6.9758368
224	0xc0dce4fe	-6.902953
225	0xc0e15e30	-7.0427475
226	0xc0e538ac	-7.163168
227	0xc0ded6c2	-6.9637156
228	0xc0e253a1	-7.0727086
229	0xc0e2e0db	-7.089948
230	0xc0dca3dc	-6.8950024
231	0xc0e09e98	-7.0193596
232	0xc0dce61b	-6.903089
233	0xc0e5f816	-7.186534
234	0xc0dffd1c	-6.999647
235	0xc0e6123f	-7.1897273
236	0xc0ddd1e4	-6.9318714
237	0xc0df3c88	-6.976139
238	0xc0e04e86	-7.0095854
239	0xc0e181e7	-7.047107
240	0xc0e21119	-7.064587
241	0xc0e065ee	-7.0124426
242	0xc0de49ab	-6.9464927
243	0xc0de7268	-6.9514656
244	0xc0ddce4c	-6.9314327
245	0xc0e137eb	-7.038076
246	0xc0ddb27d	-6.928038
247	0xc0e12c2d	-7.0366426
248	0xc0d8de42	-6.777131
249	0xc0e6b004	-7.2089863
250	0xc0e0f892	-7.030343
251	0xc0e2ef1c	-7.091688
252	0xc0e117f7	-7.0341754
253	0xc0e4169a	-7.127759
254	0xc0dcbcd9	-6.8980527
255	0xc0df5bf4	-6.9799747

blinear1.weight_sampler.eps_w f4 [24, 11]
0	0xc0161d87	-2.3455522
1	0x3fa550a1	1.2915231
2	0xbf9c32b8	-1.2202978
3	0x3f8a3a93	1.0799125
4	0x3ea56bd8	0.3230884
5	0x3f800f03	1.0004581
6	0x40174660	2.3636703
7	0xbeead933	-0.45868835
8	0x3e85243c	0.26004207
9	0xbefb58a4	-0.49091065
10	0x3fbaac34	1.4583802
11	0xbf9cdf96	-1.2255733
12	0x3ee5a5fa	0.44853193
13	0x3f8af372	1.0855544
14	0xbef07a8e	-0.46968502
15	0x3e5adef2	0.2137411
16	0x3f11292a	0.56703436
17	0xbfb34dab	-1.4008077
18	0x3f17b456	0.59259546
19	0x3f5c20a2	0.85987294
20	0x3fa76da6	1.3080337
21	0xbf4af972	-0.79286873
22	0x3ee13532	0.43985897
23	0x3fb75975	1.4324175
24	0x3e8ff2ab	0.28114828
25	0x3f2bcca9	0.6710916
26	0x3f4b9d30	0.79536724
27	0xbfec958f	-1.8483142
28	0x3ec3dae2	0.38252932
29	0xbf2b8a5f	-0.6700801
30	0x3ed65f0c	0.4186939
31	0x3f50cccb	0.8156249
32	0xbf828987	-1.019822
33	0x3ec8757e	0.3915214
34	0x3f841495	1.0318781
35	0xbe5c15d9	-0.21492709
36	0xbf975cd3	-1.1825203
37	0xbfa54c5d	-1.2913929
38	0xbf64bf56	-0.89354455
39	0x3fdb6723	1.714085
40	0x3fb2b106	1.3960273
41	0x3f3ad36e	0.72978866
42	0xbe879f27	-0.2648861
43	0xbf490efa	-0.7853848
44	0xbfffe4d0	-1.9991703
45	0xbeed8108	-0.46387506
46	0xbfa29269	-1.2700931
47	0x3ee1f079	0.4412878
48	0xbe4d2ac0	-0.20035839
49	0xbe40dc96	-0.18834147
50	0x3f0fae4d	0.56125337
51	0x3f7df4b8	0.99201536
52	0xbe52afde	-0.205749
53	0xbee0645c	-0.43826568
54	0xc0013cdb	-2.0193393
55	0x3e7c52f2	0.24641016
56	0x3fb646d5	1.4240366
57	0xbf51ee32	-0.8200408
58	0xbf8d68e2	-1.1047633
59	0x3f9af5e1	1.2106286
60	0x4020f6fc	2.5150747
61	0xc0099de9	-2.150263
62	0x3ece9b84	0.40353024
63	0x3eeab842	0.45843703
64	0xbf9cd746	-1.2253196
65	0x3d80de9c	0.06292459
66	0x3e09995b	0.13437407
67	0x3f70df5f	0.9409084
68	0xbf0ca5c3	-0.5494043
69	0xbf866ae0	-1.0501366
70	0xbece1f43	-0.40258226
71	0xbfcbdd4e	-1.5926912
72	0x3efda264	0.49537957
73	0xbfea4019	-1.8300811
74	0xbe4dcef3	-0.20098476
75	0xbf7f8eff	-0.9982757
76	0x3f53b113	0.8269207
77	0x3e76d275	0.2410372
78	0x3f56aae4	0.8385451
79	0xbf056f96	-0.5212339
80	0xbed2d8f7	-0.41181156
81	0x3c9f2672	0.019427512
82	0x3f2dce81	0.67893225
83	0x3f1f7767	0.6229157
84	0xbf2d2b4c	-0.6764419
85	0x3f654689	0.89560753
86	0x3e641b24	0.22275978
87	0xbe8a025b	-0.26954922
88	0x3f69c22b	0.913119
89	0xbfa1bbd3	-1.2635444
90	0xc06ee6c0	-3.7328339
91	0x3e8c0e56	0.27354687
92	0x3f7b85a0	0.9825077
93	0xbf3e1c83	-0.74262255
94	0x3e210492	0.157244
95	0xbf3569a6	-0.7086433
96	0x3efe2884	0.49640286
97	0xbf3d8d9e	-0.74044216
98	0xbef10593	-0.47074565
99	0xbffb21cd	-1.961969
100	0xbf675fc9	-0.9038053
101	0xc010f5e4	-2.265008
102	0xbfb55ffa	-1.4169915
103	0xbf00cf2a	-0.5031611
104	0x3f100ea8	0.56272364
105	0x3e7404e3	0.23829989
106	0xbcb4e5b8	-0.022082195
107	0x3f0de977	0.55434364
108	0x401e62bb	2.474776
109	0x3f9eed5b	1.2416185
110	0xbe56db12	-0.20982006
111	0x3f2a2f1f	0.6647815
112	0x3dfbf9c8	0.12303501
113	0xbfe6b71a	-1.8024628
114	0x3dacc244	0.08435491
115	0xbf53426b	-0.8252322
116	0xbf65cdc0	-0.89767075
117	0x3f94b8d2	1.1618903
118	0xbfe95873	-1.8230118
119	0xbeb57c25	-0.35446277
120	0xbf7c7108	-0.9860997
121	0xbf5325d8	-0.8247962
122	0xbeb52f17	-0.3538749
123	0xbf1f03f3	-0.621154
124	0xbf8ca9f4	-1.0989366
125	0x3f4bc1a1	0.7959233
126	0xbe0b59f3	-0.13608532
127	0x3f04b9a2	0.51845753
128	0xbee714dd	-0.45133105
129	0x3d2a09ce	0.041513257
130	0x3f5204b8	0.8203845
131	0xbf0ca8d6	-0.54945123
132	0x400b5d3b	2.1775653
133	0x3e74738c	0.23872203
134	0x3e4a8ef1	0.1978109
135	0x3fd5db85	1.6707617
136	0xbe9d5b83	-0.3073388
137	0xbf4414ec	-0.76594424
138	0xbe33d1d5	-0.17560513
139	0xbf3b0942	-0.73061
140	0x3e924fff	0.28576657
141	0x3e2eabb0	0.17057681
142	0xc010bd9c	-2.2615728
143	0xbf6f958b	-0.9358756
144	0x3f1efa6b	0.6210086
145	0xbf433074	-0.7624581
146	0xbe99124f	-0.2989678
147	0x3f1ac0e7	0.60450596
148	0x3fb6f438	1.429328
149	0xbf836d27	-1.0267686
150	0x3fd61dec	1.6727881
151	0x3e25a637	0.16176687
152	0xbf8262f1	-1.0186445
153	0x3f45b053	0.77222174
154	0xbde690a7	-0.11258059
155	0xbf97ff1d	-1.1874729
156	0x3ffb3314	1.9624963
157	0x3eef5edb	0.46752056
158	0xbf39fdf6	-0.7265314
159	0x3ecc0b67	0.3985245
160	0xbf2346ab	-0.63779706
161	0xbf218583	-0.6309435
162	0xbf07c6ab	-0.5303752
163	0x3c9057af	0.017619936
164	0x3fc7858c	1.558763
165	0x3e0632a6	0.13105258
166	0xbbc53440	-0.0060181916
167	0xbf947f93	-1.1601433
168	0x3df3b7b5	0.11900274
169	0x3fec9135	1.8481814
170	0xbf683611	-0.907075
171	0xbdb5af55	-0.088713326
172	0x3f078c5a	0.52948534
173	0x3f3f990d	0.7484291
174	0x3e84062e	0.25785965
175	0xbf2bf4ea	-0.67170584
176	0x3e987c42	0.297823
177	0xbf10547c	-0.5637891
178	0x3e3aacc6	0.1822997
179	0x3f234700	0.6378021
180	0xbf98ad3a	-1.1927865
181	0xbf95409d	-1.1660343
182	0xbf4fa256	-0.8110708
183	0xbf7e9685	-0.99448425
184	0x3fb0cda1	1.3812753
185	0xbec63edf	-0.38719842
186	0xbf1c773f	-0.61119455
187	0xbe92deb6	-0.2868554
188	0xbf742797	-0.9537291
189	0xc059937e	-3.3996272
190	0xbe3ad08a	-0.18243614
191	0xbfb53919	-1.415805
192	0x3f9cd973	1.225386
193	0x3fb72683	1.4308628
194	0x3e9feb6e	0.31234306
195	0xbf34ab06	-0.7057346
196	0x3f691c1b	0.9105851
197	0x400375a3	2.054055
198	0x3e09113a	0.13385478
199	0x3eb9d5db	0.3629597
200	0xbf7d53ea	-0.9895617
201	0x3e5dc77a	0.21658126
202	0xbeb9af81	-0.3626671
203	0xbfb6a3b9	-1.4268714
204	0x3f53662d	0.8257778
205	0xbfb0007b	-1.3750147
206	0xbf4c50ef	-0.79810995
207	0xbe8020df	-0.2502508
208	0xbfdd61fa	-1.7295525
209	0x3ee47329	0.4461911
210	0xbeb00e79	-0.34386042
211	0xbf790afa	-0.97282374
212	0x3f6e318a	0.9304434
213	0x3fe1f304	1.7652287
214	0x3ef81d9a	0.48460084
215	0x3c18fbe7	0.009337402
216	0xc056f4f4	-3.3587008
217	0x3f942a0b	1.157533
218	0x3e618a7b	0.22025482
219	0xbf13e4f4	-0.5777123
220	0xbf80a6f9	-1.0050956
221	0x3f1baad9	0.6080757
222	0x3f08c606	0.5342716
223	0xbedb3b4a	-0.4281867
224	0x3f943b93	1.1580681
225	0xbf43854f	-0.7637529
226	0xbcfa5445	-0.030557761
227	0xbf39cae5	-0.7257522
228	0xbe53a571	-0.2066858
229	0x3e931db8	0.2873361
230	0xbe74b8b4	-0.23898584
231	0xbfcd3fb9	-1.6035072
232	0x3eca8ea6	0.39561957
233	0x3ef440d9	0.47705725
234	0x3f1d0df2	0.61349404
235	0xbd8bdba0	-0.068289995
236	0xbdc219f3	-0.09477606
237	0xbf70d600	-0.9407654
238	0x3f5e8410	0.8692026
239	0xbf3c0c08	-0.7345586
240	0xbdd3eba6	-0.10347681
241	0xbf622542	-0.883381
242	0x3db23fb8	0.0870356
243	0x3fae47bc	1.3615642
244	0xbf656082	-0.89600384
245	0x3d6dba00	0.05803871
246	0xbff00629	-1.875188
247	0xbdd16b88	-0.10225588
248	0x3f4e7c1b	0.8065812
249	0xbf41f93e	-0.7577094
250	0xbe776637	-0.24160086
251	0xbfd80e85	-1.6879431
252	0xbfc46cd0	-1.5345707
253	0x3f898562	1.074383
254	0x3f464fcc	0.7746551
255	0xbfeaa0df	-1.8330344

blinear1.bias_sampler.mu f4 [24]
0	0xbc39044e	-0.01129253
1	0xbc0753a7	-0.00825969
2	0x3b024af8	0.001988111
3	0xbd5374b8	-0.051624984
4	0x3d286ea1	0.04112113
5	0xbd577034	-0.05259724
6	0x3c5ef4aa	0.013608137
7	0x3e2c85fb	0.16847984
8	0x3d691771	0.05690712
9	0x3b4af342	0.0030967747
10	0x3d9db0fb	0.07699772
11	0x3de48d6d	0.11159787
12	0x3cca2203	0.024674421
13	0xbb10ab82	-0.0022074883
14	0xbdef4ac6	-0.11684184
15	0x3dea87ef	0.114517085
16	0x3dc1185b	0.094284736
17	0xbb34af8a	-0.002757045
18	0x3cf2bcc3	0.029631024
19	0xbe55d63c	-0.20882505
20	0xbe184736	-0.14870915
21	0x3ca9ab15	0.020711461
22	0x3d75fdeb	0.06005661
23	0x3ab63835	0.0013902249

blinear1.bias_sampler.rho f4 [24]
0	0xc0e21744	-7.06534
1	0xc0e4fc82	-7.1558237
2	0xc0def597	-6.967479
3	0xc0dfab80	-6.989685
4	0xc0dc1abe	-6.8782644
5	0xc0d59cf9	-6.6754117
6	0xc0dba4a2	-6.863847
7	0xc0e468d0	-7.1377945
8	0xc0e0bdde	-7.023177
9	0xc0dfbada	-6.991559
10	0xc0e6b450	-7.209511
11	0xc0db5e88	-6.8552895
12	0xc0dfcdc1	-6.9938664
13	0xc0dd3f39	-6.9139676
14	0xc0d83307	-6.756229
15	0xc0de1fe7	-6.9413943
16	0xc0e881ba	-7.265836
17	0xc0e00582	-7.0006723
18	0xc0e25a63	-7.0735335
19	0xc0e1d9d2	-7.0578394
20	0xc0e01de5	-7.003649
21	0xc0dfa569	-6.9889417
22	0xc0e7c7fe	-7.243163
23	0xc0dd3823	-6.9131026

blinear1.bias_sampler.eps_w f4 [24]
0	0xbfcd78c9	-1.6052486
1	0xbf1814e7	-0.59406894
2	0x3efacd8d	0.48984948
3	0xbea86d85	-0.32896057
4	0xbeca2ed0	-0.3948884
5	0x3fbae3ca	1.4600766
6	0x3edcd5d6	0.43131894
7	0xbda38fe2	-0.07986428
8	0xbdf9ced5	-0.12197653
9	0xbe1f98b9	-0.15585603
10	0x3f22ec85	0.6364215
11	0x3fa02fef	1.2514628
12	0x3dd7b347	0.10532241
13	0xbf75df66	-0.96044004
14	0xbf5fa17c	-0.8735578
15	0x3f0bda4d	0.54629976
16	0x3ffedbf1	1.9910871
17	0xbf8853de	-1.0650594
18	0xbf9ad1ff	-1.2095336
19	0x3de1c99e	0.110247836
20	0xbf9e7fea	-1.2382786
21	0x3e4cad26	0.19987926
22	0xbdc30fb2	-0.09524478
23	0xbee31daf	-0.44358584

blinear2.weight_mu f4 [24, 24]
0	0xbd00aeee	-0.031416826
1	0xbd98f971	-0.07469452
2	0x3d54f426	0.05199065
3	0x3cd5dd58	0.026106521
4	0x3d17a99a	0.03702698
5	0xbd27d429	-0.040973816
6	0x3e0d5fde	0.13806102
7	0x3acce096	0.0015630897
8	0xbd9f2c0c	-0.07772073
9	0xbc26259f	-0.0101408055
10	0xbcffb15c	-0.031212501
11	0xbdd5e078	-0.10443205
12	0x3e21ccdd	0.15800805
13	0xbe11a45b	-0.14222853
14	0xbdb719b0	-0.089404464
15	0xba29368a	-0.00064549653
16	0x3c75d8e3	0.015005323
17	0x3ac96c41	0.0015367345
18	0x3e388ed7	0.18023239
19	0x3d0190c5	0.031632204
20	0x39c888fa	0.00038249028
21	0xbb928faf	-0.004472695
22	0x3de65e2a	0.11248429
23	0x3d8fe998	0.07026976
24	0x3e034676	0.12819847
25	0xba3f4ac5	-0.00072972133
26	0x3d416119	0.04721174
27	0x3bb33e0c	0.005470043
28	0xbd9b7dd8	-0.07592362
29	0xbe237330	-0.1596191
30	0x3de217e5	0.11039714
31	0x3e2cd62a	0.16878572
32	0xbded4e40	-0.11587191
33	0xbdd6e28e	-0.104924306
34	0x3cfa6a55	0.030568281
35	0x3d03882a	0.032112278
36	0x3a10af97	0.0005519329
37	0xbda09a9b	-0.07841989
38	0xbb37e755	-0.0028061469
39	0x3d21c1da	0.039491512
40	0x3ccaa82f	0.0247384
41	0x3c738441	0.014863075
42	0x3e335d1b	0.17515986
43	0x3d1da20d	0.03848462
44	0x3dac9f47	0.08428817
45	0xbaebfee7	-0.0018005044
46	0xbdbf4de2	-0.09341027
47	0xbd4982bb	-0.04919694
48	0xbc6e442d	-0.014542622
49	0x3cf0bca7	0.029386831
50	0x3b9d0d2c	0.00479283
51	0xbd64a6c2	-0.055823095
52	0xbd5402d5	-0.051760513
53	0x3ca3cec5	0.019996056
54	0xba2dbd68	-0.000662765
55	0xbc922919	-0.017841863
56	0x3b4fec0d	0.003172639
57	0x3ca0387a	0.01955818
58	0x3e6caca0	0.23112726
59	0x3dac8f73	0.08425798
60	0x3d2005b7	0.03906795
61	0xbc809e85	-0.015700588
62	0xbda5761f	-0.080791704
63	0xbd8a2c82	-0.067467704
64	0xbce7ef31	-0.028312298
65	0xbc9be926	-0.019032072
66	0x3e079843	0.13241677
67	0xbe3354c6	-0.17512807
68	0x3d522da2	0.05131305
69	0xbe2203de	-0.15821788
70	0x3c163e0d	0.0091700675
71	0x3d402aac	0.046915695
72	0xbc4c4ed9	-0.012469971
73	0xbe4f6f00	-0.20257187
74	0xbe14b1e1	-0.1452098
75	0xbd03e1f6	-0.032197915
76	0xbcf12791	-0.029437812
77	0xbe2681c5	-0.1626044
78	0xbad7f38a	-0.0016475779
79	0x3b133e60	0.0022467598
80	0x3e2eea1e	0.17081496
81	0x3d33f9d4	0.043939427
82	0xba0bff9f	-0.000534052
83	0xba6f50cb	-0.00091291656
84	0x3d71c7bb	0.05902837
85	0xbda514cf	-0.080606095
86	0x3c0616ef	0.008184179
87	0x3c27daa5	0.010245
88	0xbd29304f	-0.041305836
89	0xbdab1fcd	-0.08355675
90	0x3adb3379	0.0016723714
91	0x3e56eff8	0.20989978
92	0xbb530edd	-0.0032204904
93	0xbdf97c7e	-0.12181948
94	0x3aa1a5aa	0.0012332697
95	0xbd3272d2	-0.043566532
96	0x3ddd4ef2	0.10806073
97	0x3a4596d0	0.00075374264
98	0x3d3d8c4b	0.046276372
99	0xbbedebfe	-0.0072607985
100	0x3bfb4031	0.0076675643
101	0xbd3747bc	-0.044746146
102	0x3da97b0c	0.082754225
103	0xbd48a3bc	-0.048984274
104	0x3b8456ec	0.004038682
105	0x39b1241f	0.00033786983
106	0x3bbcbf5e	0.0057601174
107	0xbda821ba	-0.08209558
108	0x3d6ebc35	0.058284957
109	0x3b1c8087	0.002388032
110	0xbd9007d8	-0.07032746
111	0xbe02e277	-0.12781702
112	0xbe11e34c	-0.14246863
113	0x3db5cc3c	0.08876845
114	0x3dddc08b	0.1082774
115	0x3d82b187	0.06381517
116	0x3d8d27f4	0.06892386
117	0xba80c5b8	-0.000982455
118	0x3c889f65	0.016677568
119	0xbccc70fc	-0.024956219
120	0x3d82cabe	0.06386326
121	0x3b0279fd	0.0019909136
122	0x3dca786d	0.09886251
123	0x3d8540f7	0.06506532
124	0x3d1bc9b4	0.038034156
125	0xbc545307	-0.012959248
126	0xbdbaeb33	-0.09126892
127	0xbb95c114	-0.004570136
128	0x3da588d2	0.08082737
129	0xbdfd06f3	-0.12354841
130	0x3b2c073d	0.0026249432
131	0xbcac436a	-0.02102824
132	0xbae9e296	-0.0017844017
133	0x3a941ec6	0.0011300675
134	0x3a98b4d1	0.0011650567
135	0x3d80a5fe	0.062816605
136	0xbe08aab8	-0.13346374
137	0xb99d40a0	-0.00029993523
138	0xbdefb2a2	-0.117039934
139	0xba3b5af5	-0.00071470375
140	0xbe1a3c1f	-0.15061997
141	0xbdf03ce6	-0.117303655
142	0x3d22dc44	0.039760843
143	0x3d842bce	0.064536676
144	0x3d8bad1e	0.06820129
145	0x3e1e74cc	0.15474242
146	0x3dc0c931	0.09413374
147	0x3dc0a188	0.0940581
148	0x3d0ef994	0.034905985
149	0xbdd02118	-0.10162562
150	0x3ca1f84c	0.019771717
151	0xbd8b6764	-0.068068296
152	0x3d9f362a	0.07774003
153	0xbbcc66ec	-0.006237855
154	0xbd223a7a	-0.03960655
155	0x3dcd8238	0.10034603
156	0xbdcf2c3a	-0.101158574
157	0xbd9d7204	-0.076877624
158	0xbd98d20c	-0.07461938
159	0xbcd9f584	-0.026606329
160	0xbe4a8172	-0.19775942
161	0x3e456ad6	0.19279036
162	0x3dd27308	0.10275847
163	0x3cefe315	0.029283086
164	0xbe1c199e	-0.15244147
165	0x3d896317	0.06708353
166	0x3df62120	0.12018037
167	0xbdcc8ad3	-0.09987416
168	0xbce53c47	-0.027982844
169	0x3db52140	0.088442326
170	0xbdd837ef	-0.105575435
171	0x3bd79aec	0.0065797474
172	0x3cffdb4b	0.031232497
173	0xbd87a790	-0.06623757
174	0x3e2f0278	0.17090786
175	0xbce55b67	-0.027997686
176	0x3c56f073	0.013118851
177	0x3b15b5b1	0.0022843892
178	0x3d2d1015	0.042251665
179	0x3d3af11e	0.045640104
180	0x3e072c17	0.13200413
181	0xbe121fd7	-0.14269958
182	0x3e200045	0.15625103
183	0xbe3aeafc	-0.18253702
184	0x3e570504	0.20998007
185	0x3d4da783	0.05020858
186	0xbbe5891f	-0.0070048715
187	0x3c61fd0d	0.013793242
188	0x3a86b663	0.0010277744
189	0xb96cb7a4	-0.00022575125
190	0x3ddd5599	0.10807342
191	0xbd8d6a21	-0.06905008
192	0x3de27b19	0.11058635
193	0xbe4cb414	-0.1999057
194	0x3e28c645	0.16481884
195	0x3c4391df	0.011936634
196	0x3dc29695	0.095013775
197	0x3d5c69a6	0.05381169
198	0xbda2508f	-0.079255216
199	0xbde09719	-0.109663196
200	0x3b3ef89a	0.0029139877
201	0x3d957ee4	0.07299593
202	0x3d008d0b	0.03138451
203	0x3e31337b	0.17304794
204	0x3e1a5446	0.1507121
205	0xbe2c28fe	-0.16812512
206	0x3a62e0da	0.00086547213
207	0xbb1e8afe	-0.0024191733
208	0x3d7fd615	0.062460024
209	0x3e0ab39b	0.13545077
210	0xbd825afc	-0.0636501
211	0xbc88110d	-0.016609693
212	0xbd73abfd	-0.059490193
213	0xb975c82c	-0.0002343959
214	0x3a9a44c8	0.0011769766
215	0xbdb17565	-0.08664969
216	0xbd7775e7	-0.060415175
217	0x3dad0cf1	0.08449734
218	0xbd37f3fc	-0.044910416
219	0xbdb67eb7	-0.08910888
220	0x3da44f57	0.080229454
221	0xbe07b93c	-0.13254255
222	0xbdf3e594	-0.11909023
223	0xbdd567ff	-0.10420226
224	0x3c77cb85	0.015124206
225	0x3bb2bf97	0.005454968
226	0x3a96c1af	0.0011501814
227	0xbe5cb4e6	-0.21553382
228	0x3cb65376	0.022256594
229	0xbd41383c	-0.04717277
230	0x3b08bb1b	0.0020863477
231	0xbe15e3f0	-0.14637733
232	0x3e4ce53a	0.20009318
233	0xbdad2f2c	-0.08456263
234	0x3dcda8ab	0.100419365
235	0xbd6a1f02	-0.057158478
236	0x3c24d233	0.010059881
237	0x3c8e8ad4	0.017400183
238	0xbe0f67d6	-0.14004454
239	0x3cd74ba7	0.026281191
240	0xbe10dcc7	-0.1414672
241	0x3be6e6a3	0.007046537
242	0x3d76a9fe	0.06022071
243	0x3d8251b1	0.06363238
244	0xbe67f0bf	-0.22650431
245	0x3ce4f6e4	0.027949758
246	0x3a1f9259	0.0006087176
247	0xbe2801b1	-0.16406895
248	0xbc1e89bc	-0.009676393
249	0x3dfd2ed5	0.12362448
250	0x39bad5f0	0.0003563608
251	0x3d328c60	0.043590903
252	0xbb22e41d	-0.0024855204
253	0xbd3fd50c	-0.046834037
254	0xbdc6871e	-0.0969374
255	0xbc8cf331	-0.017205806

blinear2.weight_rho f4 [24, 24]
0	0xc0dd9725	-6.9247003
1	0xc0e0c763	-7.024339
2	0xc0dc8f7f	-6.8925166
3	0xc0dfceea	-6.994008
4	0xc0e0ee01	-7.029053
5	0xc0df65ad	-6.9811616
6	0xc0e3c4e5	-7.117785
7	0xc0e0e738	-7.028225
8	0xc0de21cf	-6.941627
9	0xc0da726d	-6.826468
10	0xc0dad2a5	-6.8382134
11	0xc0dc22e8	-6.879261
12	0xc0e05c31	-7.011254
13	0xc0ddeb0e	-6.934943
14	0xc0e16bd5	-7.044413
15	0xc0e0fbad	-7.030722
16	0xc0dcf34e	-6.9047003
17	0xc0dea418	-6.957531
18	0xc0e09b41	-7.018952
19	0xc0dfc990	-6.993355
20	0xc0e00b7c	-7.001402
21	0xc0dfac0e	-6.989753
22	0xc0dc75d1	-6.889382
23	0xc0e08f7a	-7.017514
24	0xc0dd051e	-6.9068747
25	0xc0de2f23	-6.943254
26	0xc0e0aec3	-7.021333
27	0xc0dccb3d	-6.8998094
28	0xc0e01b9f	-7.0033717
29	0xc0e29df0	-7.0817795
30	0xc0dafcd9	-6.843365
31	0xc0e0d17f	-7.0255733
32	0xc0e24ee8	-7.072132
33	0xc0d9e9e8	-6.809803
34	0xc0dac777	-6.8368487
35	0xc0e25fb3	-7.074182
36	0xc0e18784	-7.0477924
37	0xc0e1aa3e	-7.0520315
38	0xc0e137f0	-7.0380783
39	0xc0e0330c	-7.0062313
40	0xc0dd065c	-6.9070263
41	0xc0e35661	-7.1042943
42	0xc0e256e2	-7.073106
43	0xc0df7d87	-6.984073
44	0xc0e3784c	-7.1084347
45	0xc0e05610	-7.0105057
46	0xc0de741d	-6.951674
47	0xc0ddbfc1	-6.9296575
48	0xc0db6302	-6.855836
49	0xc0df1985	-6.971865
50	0xc0de203e	-6.941436
51	0xc0dffd76	-6.99969
52	0xc0de948b	-6.9556327
53	0xc0dee7d8	-6.9658012
54	0xc0e0dd2c	-7.0269985
55	0xc0dfdc34	-6.9956303
56	0xc0e25098	-7.072338
57	0xc0e11c30	-7.034691
58	0xc0deedda	-6.9665346
59	0xc0e08447	-7.016147
60	0xc0dace25	-6.837664
61	0xc0deead2	-6.9661646
62	0xc0ddfef1	-6.937371
63	0xc0de1ba9	-6.9408765
64	0xc0e12643	-7.0359206
65	0xc0dc97ec	-6.893545
66	0xc0d77843	-6.7334304
67	0xc0e13c8c	-7.038641
68	0xc0dd9a94	-6.9251194
69	0xc0e3dd5b	-7.120771
70	0xc0dde657	-6.9343677
71	0xc0de178e	-6.9403753
72	0xc0da7fe8	-6.8281136
73	0xc0e488e1	-7.141709
74	0xc0e0bfbe	-7.023406
75	0xc0e269df	-7.0754237
76	0xc0e27fd8	-7.078106
77	0xc0e36292	-7.1057825
78	0xc0dfca9e	-6.9934835
79	0xc0e16f0e	-7.0448065
80	0xc0dcf35f	-6.9047084
81	0xc0df1621	-6.9714513
82	0xc0df93df	-6.9868007
83	0xc0df497b	-6.97772
84	0xc0e01d7e	-7.0036
85	0xc0df90b2	-6.986413
86	0xc0e764ec	-7.2310696
87	0xc0e177d7	-7.045879
88	0xc0e01972	-7.003106
89	0xc0dc4376	-6.883235
90	0xc0db100a	-6.845708
91	0xc0e3f18a	-7.1232347
92	0xc0e168a4	-7.0440235
93	0xc0dc6a3c	-6.887968
94	0xc0e07ce6	-7.0152464
95	0xc0e2f396	-7.0922346
96	0xc0e08c4a	-7.017125
97	0xc0dd34d5	-6.912699
98	0xc0de462d	-6.9460664
99	0xc0e18eb1	-7.0486684
100	0xc0e74a41	-7.227814
101	0xc0e079f1	-7.0148854
102	0xc0e293a1	-7.080521
103	0xc0e26250	-7.074501
104	0xc0e1c51e	-7.055312
105	0xc0ddda7b	-6.93292
106	0xc0dea766	-6.9579344
107	0xc0de0088	-6.937565
108	0xc0e5173b	-7.1590858
109	0xc0db73f6	-6.8579054
110	0xc0dd09b5	-6.907435
111	0xc0dee09d	-6.9649186
112	0xc0e1ec0c	-7.0600643
113	0xc0df98b0	-6.9873886
114	0xc0dc9f75	-6.894465
115	0xc0dc2ee4	-6.880724
116	0xc0dff677	-6.998836
117	0xc0e3bdca	-7.1169176
118	0xc0dfe8a1	-6.997147
119	0xc0e17bd4	-7.0463657
120	0xc0df4457	-6.9770923
121	0xc0e0d769	-7.026295
122	0xc0e44d67	-7.1344485
123	0xc0e3dbd1	-7.120583
124	0xc0ddb5ea	-6.9284563
125	0xc0e36db0	-7.1071396
126	0xc0dc73af	-6.8891215
127	0xc0deeb63	-6.9662337
128	0xc0d857d8	-6.760723
129	0xc0ddff30	-6.937401
130	0xc0e10802	-7.0322275
131	0xc0dfc998	-6.9933586
132	0xc0e22e59	-7.0681577
133	0xc0e29d4c	-7.0817013
134	0xc0e1bbcc	-7.0541744
135	0xc0e08267	-7.0159183
136	0xc0e42aec	-7.1302395
137	0xc0de6ad6	-6.9505415
138	0xc0e03d9b	-7.00752
139	0xc0db3647	-6.8503757
140	0xc0dc3ff9	-6.882809
141	0xc0dda584	-6.9264545
142	0xc0d9e670	-6.8093796
143	0xc0dc96bc	-6.8934
144	0xc0de37eb	-6.944326
145	0xc0e5740a	-7.170415
146	0xc0dd3404	-6.9125996
147	0xc0e185b7	-7.0475726
148	0xc0e0092e	-7.0011206
149	0xc0e04bcd	-7.009253
150	0xc0de9598	-6.955761
151	0xc0da11b5	-6.8146615
152	0xc0df7d28	-6.984028
153	0xc0e02030	-7.003929
154	0xc0dcbd98	-6.898144
155	0xc0e4e70e	-7.153205
156	0xc0de1056	-6.939494
157	0xc0e1d313	-7.057016
158	0xc0e08200	-7.015869
159	0xc0e05be1	-7.0112157
160	0xc0daf088	-6.8418617
161	0xc0e023b9	-7.0043607
162	0xc0e2f6c7	-7.092624
163	0xc0e27cb0	-7.0777206
164	0xc0df355f	-6.975265
165	0xc0dfc9cc	-6.9933834
166	0xc0dbcfe4	-6.8691273
167	0xc0e47952	-7.1398096
168	0xc0da806d	-6.828177
169	0xc0dad2df	-6.838241
170	0xc0e0cea8	-7.0252266
171	0xc0e148ef	-7.040153
172	0xc0d8f404	-6.779787
173	0xc0e106a1	-7.032059
174	0xc0d7aeec	-6.740103
175	0xc0e12a44	-7.0364094
176	0xc0e4e11e	-7.15248
177	0xc0e3f071	-7.1231008
178	0xc0e580a4	-7.171953
179	0xc0dfa6f8	-6.989132
180	0xc0dbb0f0	-6.865349
181	0xc0dd5059	-6.916058
182	0xc0defee8	-6.9686165
183	0xc0dfac64	-6.989794
184	0xc0dd8b31	-6.923241
185	0xc0e08f16	-7.0174665
186	0xc0dfaa40	-6.9895325
187	0xc0e0419c	-7.008009
188	0xc0e2f751	-7.09269
189	0xc0e35ea6	-7.105304
190	0xc0deb0c7	-6.9590793
191	0xc0db6f33	-6.857324
192	0xc0dbb244	-6.865511
193	0xc0e50f61	-7.1581273
194	0xc0e5f2a4	-7.185869
195	0xc0de3688	-6.9441566
196	0xc0dd2c44	-6.9116535
197	0xc0d7617f	-6.7306514
198	0xc0e64fe5	-7.1972528
199	0xc0db4e5a	-6.8533144
200	0xc0e120bd	-7.0352464
201	0xc0e1a90d	-7.051886
202	0xc0dc418b	-6.883001
203	0xc0e32e0e	-7.099372
204	0xc0e04f2f	-7.009666
205	0xc0ded5ce	-6.963599
206	0xc0dd1309	-6.9085736
207	0xc0dfdc1f	-6.9956203
208	0xc0df1e86	-6.972476
209	0xc0df815f	-6.9845424
210	0xc0dfdac2	-6.995454
211	0xc0e55177	-7.1661944
212	0xc0df4a25	-6.977801
213	0xc0e29a97	-7.081371
214	0xc0dcfdfa	-6.906003
215	0xc0e03a1c	-7.0070934
216	0xc0e0cb86	-7.024844
217	0xc0e3e34e	-7.121497
218	0xc0e08c9b	-7.0171638
219	0xc0df8113	-6.984506
220	0xc0e28b13	-7.079477
221	0xc0db5f3d	-6.855376
222	0xc0de9430	-6.9555893
223	0xc0d8d124	-6.77553
224	0xc0db6e0a	-6.8571825
225	0xc0df0b87	-6.970157
226	0xc0e17cd6	-7.046489
227	0xc0e1b0c6	-7.052829
228	0xc0df1e6b	-6.972463
229	0xc0e09983	-7.018739
230	0xc0dd7dbe	-6.9215994
231	0xc0e05f0a	-7.0116014
232	0xc0dbda46	-6.8703947
233	0xc0e3f4b9	-7.1236234
234	0xc0e3a9b8	-7.1144676
235	0xc0e25e49	-7.0740094
236	0xc0e1485c	-7.040083
237	0xc0e32ab0	-7.098961
238	0xc0e0b501	-7.022095
239	0xc0df21aa	-6.9728594
240	0xc0e0cc28	-7.0249214
241	0xc0dcd199	-6.9005857
242	0xc0e0528a	-7.0100756
243	0xc0db3d6d	-6.8512483
244	0xc0dd58cb	-6.917089
245	0xc0e1da8c	-7.057928
246	0xc0d93c28	-6.7885933
247	0xc0dd0191	-6.906441
248	0xc0dd2d32	-6.911767
249	0xc0e3c1ad	-7.117392
250	0xc0df2adb	-6.9739814
251	0xc0df3f65	-6.9764886
252	0xc0dfa063	-6.9883285
253	0xc0e09c62	-7.0190897
254	0xc0dbc5aa	-6.867879
255	0xc0de08a2	-6.938554

blinear2.bias_mu f4 [24]
0	0x3c014620	0.007890254
1	0x3d06eff7	0.032943692
2	0xbdc86257	-0.09784382
3	0xbd7939c5	-0.06084611
4	0xbd37c693	-0.04486711
5	0x3a729973	0.0009254433
6	0x3ccfdf80	0.025375128
7	0xbc777ea6	-0.015105879
8	0x3c829ab4	0.015942909
9	0xbd453366	-0.04814472
10	0xbe19554c	-0.14973944
11	0x3d39e71b	0.045386415
12	0xbd003cf2	-0.031308122
13	0x3c2d2c15	0.010569592
14	0x3d959d22	0.07305361
15	0x3c223b33	0.0099018095
16	0x3db1e4ba	0.08686204
17	0x3c5ef275	0.013607611
18	0x3d42182d	0.047386337
19	0x3e5e13bb	0.21687214
20	0x3c5dd797	0.01354017
21	0x3e1c558c	0.15267009
22	0xbe03171b	-0.12801783
23	0x39b10020	0.00033760164
