summit/benchmarks/experiment_emulator/trained_models/BNN/reizman_suzuki_case2_yield_4_BNN_model.pt (torch, 27999 bytes, 35 tensors)

blinear1.weight_mu f4 [24, 11]
000000 c6 6c 4b 3b 85 f6 99 3c 3c f9 ba 38 04 a1 5d b6
       0.0031040176 0.018794307 8.915595e-05 -3.302529e-06
000010 f4 cc 2b bb d1 a4 41 bc 63 5b a4 b9 66 44 9f b8
       -0.002621469 -0.01181908 -0.00031348606 -7.594451e-05
000020 fe 3e 4e 3b 9d 6f 2e bb 91 a8 90 3a 67 13 a3 bb
       0.0031470652 -0.002661682 0.0011036565 -0.004976678
000030 a6 8e 1b 3c 8a fb d4 38 85 47 6b bd f2 ce 3d b8
       0.009494459 0.000101558006 -0.057441253 -4.5253844e-05
000040 6b 19 32 bb ca a1 b7 38 ba 62 06 b9 b1 41 90 b9
       -0.0027175795 8.7562556e-05 -0.00012816014 -0.00027514764
000050 d4 1e bb bb f8 83 07 b8 70 29 ae 3b 0f 61 fb ba
       -0.005710462 -3.2309414e-05 0.0053149983 -0.0019178706
000060 b3 3f 56 39 60 11 06 ba f6 75 8b 3b 59 e5 30 b9
       0.0002043236 -0.00051142834 0.0042560054 -0.00016870107
000070 9b bd fb 38 6f ae 3a 38 aa 56 11 3c 76 25 32 38
       0.000120039294 4.450831e-05 0.00887076 4.2473395e-05
000080 74 3c 58 b8 d0 61 36 38 2b 23 8d 3b f3 60 23 b8
       -5.1554714e-05 4.3483276e-05 0.004307171 -3.895252e-05
000090 34 ab 1a 3c 0f 7d 0e ba 7c 38 ba b8 fb 33 c5 bc
       0.009440232 -0.00054355053 -8.879692e-05 -0.024072638
0000a0 ac 99 45 b8 56 6f da 37 e2 72 7c bc 82 fc 08 b9
       -4.7111578e-05 2.603947e-05 -0.01540825 -0.00013064037
0000b0 59 30 c1 b9 06 2c b0 bd b8 87 3b b9 56 f3 32 bd
       -0.0003684785 -0.08602147 -0.00017884269 -0.043689094
0000c0 c1 58 f4 b8 d8 eb 57 bc ec 25 93 39 db d1 a0 bb
       -0.00011651358 -0.013178788 0.0002806628 -0.004907829
0000d0 de 1d 0a 3c 37 67 94 38 e8 d3 38 39 92 9c fc 39
       0.008429972 7.076415e-05 0.00017626549 0.0004818184
0000e0 80 5b f0 38 0b ab e2 3c 9a 0a bd 3d 0a c4 16 3d
       0.00011461135 0.02766945 0.09230538 0.03680805
0000f0 df 89 1b 39 3b 2d aa 3d da ea 6f 38 c1 98 3c 3b
       0.00014833313 0.08309408 5.7200763e-05 0.0028777572
000100 f8 aa 27 bc 60 bb 82 38 ec dc 9f bc 8c bb 1c ba
       -0.010233633 6.2337844e-05 -0.019514523 -0.00059788744
000110 dc 8e 7a bd 1c 91 40 38 2a 6f 1c b9 c2 c9 1e 3a
       -0.061171398 4.591151e-05 -0.00014918731 0.0006057286
000120 d1 a1 0e b9 30 67 33 39 36 ab 9b b8 4a 1d c4 39
       -0.00013602457 0.0001710921 -7.4228665e-05 0.00037405855
000130 4f 17 b9 b8 77 ab 28 bd db 5a b7 ba 13 39 c1 3b
       -8.825829e-05 -0.041179147 -0.0013988869 0.0058966964
000140 2b 1a 00 39 46 cc 85 b7 9d a7 14 39 83 02 7e 3b
       0.0001221678 -1.5949958e-05 0.0001417682 0.0038758821
000150 6b 9a 79 38 54 ae bc b6 55 65 3f bc 74 15 a7 36
       5.951004e-05 -5.623131e-06 -0.011681874 4.9794853e-06
000160 00 81 8b bd 61 e1 71 3c 88 ed 29 b8 5c 3c 98 3b
       -0.06811714 0.014763207 -4.0513958e-05 0.0046458673
000170 02 b2 cb 39 9e b5 92 3c 80 1d 93 bc f6 8c 80 b9
       0.00038851803 0.017908867 -0.017958403 -0.00024519087
000180 69 55 17 b8 fc 1b b5 37 27 1a 4f 3b 18 53 6d 3a
       -3.608075e-05 2.1589913e-05 0.0031601281 0.00090532145
000190 57 b3 c5 37 ec b7 8a bd 6d f5 27 be 4b ff c0 bd
       2.3567742e-05 -0.067733616 -0.16402216 -0.09423693
0001a0 f4 32 5c bd 54 10 76 39 b2 db 69 38 c0 f7 58 bd
       -0.05375953 0.00023466471 5.5756136e-05 -0.052970648
0001b0 d2 1e 97 b9 fc 2f e0 bd 3b 1e 92 b9 66 3d e1 3c
       -0.00028823927 -0.10946652 -0.00027869813 0.027495097
0001c0 29 01 ac 3c fe 81 d8 bd ee f9 16 39 06 0a 51 37
       0.020996647 -0.10571669 0.00014398221 1.24597045e-05
0001d0 70 86 22 be b3 23 e8 b7 69 73 2e 39 60 9a 05 ba
       -0.15871596 -2.7673179e-05 0.00016636927 -0.0005096551
0001e0 88 96 2b b9 67 1e a3 38 8c 08 b3 3a 5e bb 9d b7
       -0.00016363908 7.7781086e-05 0.0013659163 -1.8803108e-05
0001f0 37 92 31 39 f8 25 fe 38 0c 9a 02 bd ee 34 1c bd
       0.00016934505 0.00012118736 -0.03188519 -0.038136415
000200 a3 74 dc bc f0 0c 0e 39 4c e0 b1 b9 e9 54 2e b9
       -0.026911085 0.00013546995 -0.00033927185 -0.00016625565
000210 51 b0 c5 b8 75 a7 11 b8 64 f3 57 39 16 3e 1a 3b
       -9.4265335e-05 -3.472665e-05 0.00020594668 0.0023535541
000220 7e f5 75 b9 39 f7 1a b9 6f 7d de b9 f3 cf 99 3c
       -0.00023456474 -0.00014778682 -0.00042436595 0.018775916
000230 d6 93 77 3c a3 cb 30 39 88 a9 91 bd d7 e7 bb b9
       0.01511093 0.00016860529 -0.07112414 -0.00035840154
000240 92 ac 14 bd a1 80 a8 b9 60 09 36 3d 99 c2 23 37
       -0.03629739 -0.00032139293 0.044442534 9.760865e-06
000250 73 77 27 3d c0 63 4d 39 94 34 c3 b8 0a 31 31 38
       0.0408854 0.00019587483 -9.308118e-05 4.224576e-05
000260 e0 fb 78 39 e2 b8 0c 39 f5 a6 3d 39 91 a7 8d 39
       0.00023744954 0.00013420315 0.00018086641 0.00027018462
000270 85 bd 66 3c e4 5a 39 be 82 97 23 bd 8f 1f 9c 3d
       0.014083271 -0.18101078 -0.03993941 0.07623207
000280 91 84 ac bc dd f2 81 b8 e0 45 67 3d b6 e0 3e 37
       -0.021059306 -6.196436e-05 0.056463122 1.1377202e-05
000290 69 e1 88 38 33 d0 6b 38 05 8e 5e b9 15 91 44 b8
       6.526971e-05 5.6222267e-05 -0.00021224476 -4.686516e-05
0002a0 c2 ec 31 bb a1 e3 28 38 23 1f 6e 3c ee 13 d8 b8
       -0.0027149175 4.0266317e-05 0.014533791 -0.00010303395
0002b0 26 9b f0 b8 99 55 b8 bb 18 7c ef 3a 63 55 60 38
       -0.000114729904 -0.0056254384 0.0018271236 5.3485284e-05
0002c0 e7 03 dc 37 bd 57 38 3c c2 dc d7 b8 2f b3 07 3d
       2.622786e-05 0.011251387 -0.00010293118 0.033129867
0002d0 fb bb c8 bb 84 83 b8 b8 57 a9 42 3d d6 c4 f8 38
       -0.0061259246 -8.7983004e-05 0.047524776 0.00011862225
0002e0 98 f3 dc b6 07 78 2d 3d db cc b6 3b d8 58 ed 38
       -6.584869e-06 0.042350795 0.00557862 0.00011317589
0002f0 79 0f 8e 3d 98 2b 85 3b 64 e1 1b be 34 9f d4 b8
       0.06936545 0.0040640347 -0.15222698 -0.00010138602
000300 fc 3e af 3d 54 ff 3a b8 51 fb 5c b9 23 b5 d9 bc
       0.08556935 -4.458365e-05 -0.00021074458 -0.02657563
000310 73 d8 8b b9 c2 84 b5 3c 52 e4 a3 b9 02 bb fc b9
       -0.00026673413 0.02215803 -0.00031259895 -0.00048204517
000320 0e bd 0f 3c 10 a5 7e bd 35 63 3e ba 59 4c fa bb
       0.0087731015 -0.062169135 -0.0007262708 -0.007638496
000330 8a a6 e1 38 be 45 2e 38 4f a6 25 3b 8e 93 cc 3c
       0.000107598564 4.1549785e-05 0.002527613 0.024972703
000340 27 f7 d5 3c 68 f3 f0 3d b6 8b 81 bb de a6 ce bb
       0.026118828 0.11765176 -0.0039534224 -0.006306513
000350 a9 cf 26 3c b5 71 ff b6 09 95 fe 39 59 1d 04 bb
       0.010181346 -7.6128294e-06 0.00048557695 -0.0020159094
000360 00 26 d7 3c da 59 3d bc 2f 7e ec bc 3d b9 c6 b7
       0.026263237 -0.011557067 -0.028868763 -2.3689698e-05
000370 bf ec a7 37 e5 6c a9 b9 90 6c e8 b8 c2 ad 76 b9
       2.0018195e-05 -0.00032315325 -0.000110828434 -0.00023525118
000380 fb 1d c5 37 28 fa f1 bc 8b 4f 61 bd 28 d3 8a 3d
       2.349819e-05 -0.02953823 -0.0550075 0.06778556
000390 bd f1 1b bd 1b 8c 67 3d 2d bb 07 bc 90 72 5b b8
       -0.038072336 0.0565301 -0.008284372 -5.2320363e-05
0003a0 25 52 0b 3c 71 bf e6 38 be 79 0c b9 12 78 57 b9
       0.0085034715 0.000110029134 -0.00013396793 -0.00020548727
0003b0 7a 0d ae b8 30 03 31 3b d1 1b 68 3d 9b 5a 04 b9
       -8.299477e-05 0.0027009957 0.056667153 -0.00012622254
0003c0 48 6c 51 b9 b2 c4 96 bb 79 0a 85 b8 8a a6 0e 39
       -0.00019972131 -0.0046010846 -6.343885e-05 0.00013604216
0003d0 0c 43 39 39 04 f9 87 bd d6 89 6f b9 55 df 69 bd
       0.00017667952 -0.06639293 -0.00022844164 -0.05709775
0003e0 dd ac 87 38 ee 89 6b b8 77 7b 2c 3d 64 cd 2d 3d
       6.4695e-05 -5.6156823e-05 0.042109933 0.042432204
0003f0 3a 05 bc b7 6f d9 00 3c c5 6f 6d 3c 72 3c 97 b9
       -2.241378e-05 0.00786434 0.01449198 -0.00028846

blinear1.weight_rho f4 [24, 11]
000000 e3 f6 df c0 c6 ea dc c0 ba 5f db c0 88 bd dc c0
       -6.9988875 -6.903659 -6.8554354 -6.898136
000010 ce f9 dd c0 e9 6a e4 c0 1b 7f df c0 48 70 d9 c0
       -6.9367437 -7.1380506 -6.984266 -6.794956
000020 db a3 dc c0 e1 7d df c0 03 77 e0 c0 03 0e da c0
       -6.895002 -6.984116 -7.014528 -6.8142104
000030 83 fe e1 c0 55 e8 d8 c0 96 b2 da c0 11 d0 de c0
       -7.0623183 -6.778361 -6.8343 -6.9628987
000040 74 17 d9 c0 21 a9 de c0 60 fa e4 c0 f2 6f d8 c0
       -6.784113 -6.9581456 -7.1555634 -6.763665
000050 b9 c7 db c0 a0 1b de c0 0c a6 e0 c0 ac 3d e0 c0
       -6.86813 -6.940872 -7.0202694 -7.0075283
000060 1b 5a df c0 6e 5e dd c0 0e 34 dc c0 3c f5 df c0
       -6.979749 -6.917777 -6.8813543 -6.998686
000070 11 d0 e0 c0 ab 87 dd c0 9c 84 e1 c0 5e 26 d8 c0
       -7.0253987 -6.922811 -7.0474377 -6.7546835
000080 09 9a e2 c0 bb f5 df c0 42 3e e1 c0 72 9c dc c0
       -7.081303 -6.9987464 -7.03885 -6.8940973
000090 19 4e df c0 55 37 e3 c0 d7 6e d8 c0 f4 b2 e0 c0
       -6.9782834 -7.1005044 -6.7635303 -7.021845
0000a0 9c f6 df c0 9d ab db c0 17 2c e5 c0 c6 93 d9 c0
       -6.9988537 -6.864699 -7.161632 -6.7992887
0000b0 42 b4 db c0 39 0f e2 c0 e7 46 e1 c0 94 9e dc c0
       -6.865754 -7.064358 -7.039905 -6.8943577
0000c0 57 8c d8 c0 96 27 db c0 79 c1 e0 c0 79 a4 dc c0
       -6.7671313 -6.8485823 -7.0236173 -6.895077
0000d0 ee b3 e0 c0 e1 21 db c0 a4 f4 da c0 c3 0e db c0
       -7.021964 -6.8478856 -6.8423634 -6.845552
0000e0 98 04 da c0 88 60 df c0 66 a8 db c0 fb 7a e0 c0
       -6.8130608 -6.9805336 -6.8643064 -7.0150123
0000f0 d1 31 db c0 b2 f5 dd c0 e0 84 e0 c0 0b e7 de c0
       -6.849831 -6.936242 -7.01622 -6.9657035
000100 47 ef de c0 15 92 e7 c0 dd bc de c0 59 3c db c0
       -6.9667087 -7.2365823 -6.9605546 -6.8511167
000110 3e 0b db c0 f9 ca df c0 e9 25 e3 c0 7d 1e dd c0
       -6.8451223 -6.993527 -7.0983777 -6.9099717
000120 66 b6 da c0 4f fe e0 c0 69 a4 da c0 f3 9d dd c0
       -6.8347654 -7.0310435 -6.8325696 -6.925531
000130 1c 19 de c0 76 94 d8 c0 89 3b e3 c0 07 bf dc c0
       -6.940565 -6.7681227 -7.1010175 -6.898319
000140 73 a1 df c0 e0 1b dd c0 35 53 e1 c0 f0 eb dd c0
       -6.988458 -6.9096527 -7.041407 -6.935051
000150 dd 53 de c0 3e 69 da c0 44 e0 db c0 d0 ed db c0
       -6.947737 -6.825347 -6.871126 -6.87278
000160 c1 1c de c0 6a 46 e3 c0 eb 7f dc c0 87 60 e0 c0
       -6.94101 -7.1023455 -6.890615 -7.011783
000170 8d 28 d7 c0 5b f5 e1 c0 c8 b4 e0 c0 6b 64 de c0
       -6.7237 -7.0612006 -7.022068 -6.949758
000180 60 eb dc c0 be 85 dd c0 63 04 de c0 16 cc da c0
       -6.9037323 -6.922576 -6.9380355 -6.837413
000190 55 e3 dc c0 41 42 da c0 98 96 da c0 f2 dd df c0
       -6.9027505 -6.8205876 -6.830883 -6.995843
0001a0 58 bf e1 c0 9b bf d9 c0 f5 f3 e0 c0 c2 18 e4 c0
       -7.0546074 -6.8046393 -7.02978 -7.128022
0001b0 63 dc dc c0 25 8d e4 c0 76 b0 df c0 9d 07 e1 c0
       -6.9019027 -7.1422296 -6.9902906 -7.0321794
0001c0 54 de dc c0 de b0 d9 c0 c7 2d dd c0 39 fe df c0
       -6.9021397 -6.80284 -6.911838 -6.999783
0001d0 e7 bb dd c0 a0 2c e0 c0 b8 b5 da c0 38 fe d8 c0
       -6.9291873 -7.0054474 -6.8346825 -6.7810326
0001e0 19 db dc c0 dd 8e db c0 38 bc d9 c0 2a da db c0
       -6.9017453 -6.8611894 -6.804226 -6.8703814
0001f0 a0 61 de c0 b8 1a e1 c0 30 6a dd c0 64 86 de c0
       -6.949417 -7.0345116 -6.9192123 -6.953905
000200 b9 fb da c0 dd eb de c0 c8 58 df c0 4a 43 db c0
       -6.843228 -6.966292 -6.9795876 -6.851964
000210 26 6f d7 c0 53 9b df c0 93 4a de c0 fe bc d8 c0
       -6.732318 -6.9877105 -6.9466033 -6.7730703
000220 b0 36 dd c0 12 ea de c0 a6 65 d5 c0 cd 64 df c0
       -6.9129257 -6.966073 -6.6686583 -6.981055
000230 c8 56 e2 c0 67 77 dd c0 5d a1 d9 c0 2d 3c dc c0
       -7.0730934 -6.9208255 -6.8009477 -6.8823457
000240 10 53 da c0 20 aa db c0 49 22 e0 c0 96 a9 dd c0
       -6.8226395 -6.864517 -7.004185 -6.9269514
000250 b6 0a de c0 be a8 e1 c0 e4 cf d8 c0 d1 2d e4 c0
       -6.9388075 -7.0518484 -6.7753773 -7.130593
000260 df 11 e1 c0 1b 01 d9 c0 dc d4 de c0 4d 26 e2 c0
       -7.0334315 -6.781385 -6.963484 -7.0671754
000270 3a ae dc c0 9f d3 dc c0 0a ca d8 c0 e1 29 db c0
       -6.896268 -6.9008327 -6.774663 -6.848862
000280 ea 86 df c0 a0 34 e4 c0 32 83 db c0 cc 5b de c0
       -6.985219 -7.131424 -6.859765 -6.9487057
000290 9e 4c db c0 63 7a dd c0 bd 44 dd c0 36 19 dc c0
       -6.8531027 -6.92119 -6.914641 -6.8780775
0002a0 f9 7a dd c0 34 5e dc c0 f0 3e db c0 e0 3c df c0
       -6.9212613 -6.8864994 -6.851433 -6.976181
0002b0 f9 ae de c0 8f f5 df c0 02 91 d8 c0 43 a3 dc c0
       -6.958859 -6.9987254 -6.767701 -6.8949294
0002c0 ec e2 db c0 50 a4 e3 c0 3f 48 de c0 57 d2 df c0
       -6.8714504 -7.1138077 -6.946319 -6.9944263
0002d0 66 12 dc c0 50 23 de c0 2a 98 e3 c0 00 49 df c0
       -6.877246 -6.9418106 -7.1123247 -6.977661
0002e0 60 f7 d6 c0 f4 d2 dc c0 ef a2 de c0 cc 4d df c0
       -6.717697 -6.900751 -6.9573894 -6.9782467
0002f0 3b 18 dc c0 5f d3 dc c0 71 d8 d8 c0 31 53 e0 c0
       -6.877958 -6.900802 -6.776421 -7.010155
000300 6f 46 dc c0 a5 94 dc c0 e7 35 da c0 b8 73 dd c0
       -6.883598 -6.893145 -6.81908 -6.920376
000310 2c ba e2 c0 4a f9 df c0 54 e2 d8 c0 a4 71 dc c0
       -7.085226 -6.999181 -6.777628 -6.888872
000320 89 9f d8 c0 85 a4 dc c0 a3 73 dc c0 7f b4 dc c0
       -6.7694745 -6.895083 -6.889116 -6.897033
000330 0d 34 db c0 6a c6 d7 c0 44 9a da c0 0d 55 e2 c0
       -6.850104 -6.7429705 -6.8313313 -7.072882
000340 44 4c d9 c0 fa 12 dc c0 8c 0f de c0 17 d9 dc c0
       -6.79056 -6.8773165 -6.939398 -6.9015
000350 cf 99 dd c0 c7 fd e4 c0 e5 69 d8 c0 91 c9 e0 c0
       -6.9250255 -7.1559787 -6.7629266 -7.0246053
000360 2b de e1 c0 06 e3 e3 c0 f3 7e d9 c0 f6 c5 de c0
       -7.05837 -7.121463 -6.7967467 -6.961665
000370 9e 7c db c0 f8 ea dc c0 7c c3 da c0 d3 66 d9 c0
       -6.858962 -6.9036827 -6.836363 -6.793802
000380 5e 28 dd c0 1e 69 da c0 5b ea d6 c0 92 38 e0 c0
       -6.9111776 -6.8253317 -6.716108 -7.0069056
000390 98 4c e2 c0 73 7a dd c0 9c bd dd c0 21 44 db c0
       -7.07185 -6.9211974 -6.9293957 -6.8520665
0003a0 09 f2 d7 c0 fc d7 e0 c0 73 87 de c0 d1 2c e2 c0
       -6.7482953 -7.0263653 -6.9540343 -7.0679708
0003b0 68 e6 db c0 55 a0 de c0 3d 84 e1 c0 3d a3 dc c0
       -6.871876 -6.957072 -7.0473924 -6.8949265
0003c0 9b 81 e6 c0 80 1b db c0 bc c6 dd c0 3c cf e0 c0
       -7.203321 -6.847107 -6.9305096 -7.025297
0003d0 6f 3d dc c0 97 8b de c0 45 79 da c0 a1 7f dd c0
       -6.882499 -6.95454 -6.8273034 -6.9218297
0003e0 e9 1a dc c0 89 d6 db c0 81 f7 dd c0 15 43 e3 c0
       -6.878285 -6.8699384 -6.936463 -7.1019387
0003f0 2b 7b df c0 32 85 d5 c0 2a 91 d9 c0 aa 70 db c0
       -6.983785 -6.672509 -6.79897 -6.857503

blinear1.bias_mu f4 [24]
000000 cf 32 b5 b8 3d 2d 5c 3d b4 37 54 3a c0 44 93 b8
       -8.6402164e-05 0.05375408 0.00080954586 -7.022312e-05
000010 36 ea 74 b8 93 74 b1 36 52 10 d9 b7 37 1f 60 bc
       -5.839226e-05 5.288582e-06 -2.5876016e-05 -0.013679317
000020 ff b7 69 b9 2e dc 87 39 4d 50 a7 3b 50 61 d5 3b
       -0.00022289155 0.00025913253 0.005106008 0.0065118447
000030 ed 9f 0b 3a eb c3 7e 3d 38 14 1a 3d ed 0a 08 3d
       0.000532626 0.06219856 0.03761694 0.033213545
000040 ee a6 1d 39 06 2e 15 bb 40 f8 fb b9 01 13 00 b9
       0.00015034873 -0.0022763028 -0.0004805941 -0.00012214111
000050 3c ee 31 37 ad f8 14 b9 fa 87 b8 3a c9 f0 55 38
       1.060549e-05 -0.00014207019 0.001407861 5.1007406e-05

blinear1.bias_rho f4 [24]
000000 ff d5 df c0 79 d6 dc c0 10 61 db c0 7e 6e da c0
       -6.9948726 -6.9011807 -6.8555984 -6.825988
000010 de 8d d7 c0 d6 74 da c0 9b f4 d7 c0 14 3a dc c0
       -6.736068 -6.826762 -6.748609 -6.8820896
000020 f4 50 e1 c0 49 3f de c0 d2 17 e1 c0 5d a3 da c0
       -7.041132 -6.9452252 -7.0341578 -6.832442
000030 c4 c3 df c0 60 9f e0 c0 d8 df de c0 61 ff de c0
       -6.992647 -7.019455 -6.9648247 -6.968674
000040 fb 87 e0 c0 a9 d6 dd c0 5d ce db c0 1b 88 df c0
       -7.016599 -6.9324536 -6.868941 -6.9853644
000050 a2 7a d5 c0 10 ea e2 c0 36 dd df c0 9f 33 d8 c0
       -6.67122 -7.091072 -6.9957533 -6.7563014

blinear1.weight_sampler.mu f4 [24, 11]
000000 c6 6c 4b 3b 85 f6 99 3c 3c f9 ba 38 04 a1 5d b6
       0.0031040176 0.018794307 8.915595e-05 -3.302529e-06
000010 f4 cc 2b bb d1 a4 41 bc 63 5b a4 b9 66 44 9f b8
       -0.002621469 -0.01181908 -0.00031348606 -7.594451e-05
000020 fe 3e 4e 3b 9d 6f 2e bb 91 a8 90 3a 67 13 a3 bb
       0.0031470652 -0.002661682 0.0011036565 -0.004976678
000030 a6 8e 1b 3c 8a fb d4 38 85 47 6b bd f2 ce 3d b8
       0.009494459 0.000101558006 -0.057441253 -4.5253844e-05
000040 6b 19 32 bb ca a1 b7 38 ba 62 06 b9 b1 41 90 b9
       -0.0027175795 8.7562556e-05 -0.00012816014 -0.00027514764
000050 d4 1e bb bb f8 83 07 b8 70 29 ae 3b 0f 61 fb ba
       -0.005710462 -3.2309414e-05 0.0053149983 -0.0019178706
000060 b3 3f 56 39 60 11 06 ba f6 75 8b 3b 59 e5 30 b9
       0.0002043236 -0.00051142834 0.0042560054 -0.00016870107
000070 9b bd fb 38 6f ae 3a 38 aa 56 11 3c 76 25 32 38
       0.000120039294 4.450831e-05 0.00887076 4.2473395e-05
000080 74 3c 58 b8 d0 61 36 38 2b 23 8d 3b f3 60 23 b8
       -5.1554714e-05 4.3483276e-05 0.004307171 -3.895252e-05
000090 34 ab 1a 3c 0f 7d 0e ba 7c 38 ba b8 fb 33 c5 bc
       0.009440232 -0.00054355053 -8.879692e-05 -0.024072638
0000a0 ac 99 45 b8 56 6f da 37 e2 72 7c bc 82 fc 08 b9
       -4.7111578e-05 2.603947e-05 -0.01540825 -0.00013064037
0000b0 59 30 c1 b9 06 2c b0 bd b8 87 3b b9 56 f3 32 bd
       -0.0003684785 -0.08602147 -0.00017884269 -0.043689094
0000c0 c1 58 f4 b8 d8 eb 57 bc ec 25 93 39 db d1 a0 bb
       -0.00011651358 -0.013178788 0.0002806628 -0.004907829
0000d0 de 1d 0a 3c 37 67 94 38 e8 d3 38 39 92 9c fc 39
       0.008429972 7.076415e-05 0.00017626549 0.0004818184
0000e0 80 5b f0 38 0b ab e2 3c 9a 0a bd 3d 0a c4 16 3d
       0.00011461135 0.02766945 0.09230538 0.03680805
0000f0 df 89 1b 39 3b 2d aa 3d da ea 6f 38 c1 98 3c 3b
       0.00014833313 0.08309408 5.7200763e-05 0.0028777572
000100 f8 aa 27 bc 60 bb 82 38 ec dc 9f bc 8c bb 1c ba
       -0.010233633 6.2337844e-05 -0.019514523 -0.00059788744
000110 dc 8e 7a bd 1c 91 40 38 2a 6f 1c b9 c2 c9 1e 3a
       -0.061171398 4.591151e-05 -0.00014918731 0.0006057286
000120 d1 a1 0e b9 30 67 33 39 36 ab 9b b8 4a 1d c4 39
       -0.00013602457 0.0001710921 -7.4228665e-05 0.00037405855
000130 4f 17 b9 b8 77 ab 28 bd db 5a b7 ba 13 39 c1 3b
       -8.825829e-05 -0.041179147 -0.0013988869 0.0058966964
000140 2b 1a 00 39 46 cc 85 b7 9d a7 14 39 83 02 7e 3b
       0.0001221678 -1.5949958e-05 0.0001417682 0.0038758821
000150 6b 9a 79 38 54 ae bc b6 55 65 3f bc 74 15 a7 36
       5.951004e-05 -5.623131e-06 -0.011681874 4.9794853e-06
000160 00 81 8b bd 61 e1 71 3c 88 ed 29 b8 5c 3c 98 3b
       -0.06811714 0.014763207 -4.0513958e-05 0.0046458673
000170 02 b2 cb 39 9e b5 92 3c 80 1d 93 bc f6 8c 80 b9
       0.00038851803 0.017908867 -0.017958403 -0.00024519087
000180 69 55 17 b8 fc 1b b5 37 27 1a 4f 3b 18 53 6d 3a
       -3.608075e-05 2.1589913e-05 0.0031601281 0.00090532145
000190 57 b3 c5 37 ec b7 8a bd 6d f5 27 be 4b ff c0 bd
       2.3567742e-05 -0.067733616 -0.16402216 -0.09423693
0001a0 f4 32 5c bd 54 10 76 39 b2 db 69 38 c0 f7 58 bd
       -0.05375953 0.00023466471 5.5756136e-05 -0.052970648
0001b0 d2 1e 97 b9 fc 2f e0 bd 3b 1e 92 b9 66 3d e1 3c
       -0.00028823927 -0.10946652 -0.00027869813 0.027495097
0001c0 29 01 ac 3c fe 81 d8 bd ee f9 16 39 06 0a 51 37
       0.020996647 -0.10571669 0.00014398221 1.24597045e-05
0001d0 70 86 22 be b3 23 e8 b7 69 73 2e 39 60 9a 05 ba
       -0.15871596 -2.7673179e-05 0.00016636927 -0.0005096551
0001e0 88 96 2b b9 67 1e a3 38 8c 08 b3 3a 5e bb 9d b7
       -0.00016363908 7.7781086e-05 0.0013659163 -1.8803108e-05
0001f0 37 92 31 39 f8 25 fe 38 0c 9a 02 bd ee 34 1c bd
       0.00016934505 0.00012118736 -0.03188519 -0.038136415
000200 a3 74 dc bc f0 0c 0e 39 4c e0 b1 b9 e9 54 2e b9
       -0.026911085 0.00013546995 -0.00033927185 -0.00016625565
000210 51 b0 c5 b8 75 a7 11 b8 64 f3 57 39 16 3e 1a 3b
       -9.4265335e-05 -3.472665e-05 0.00020594668 0.0023535541
000220 7e f5 75 b9 39 f7 1a b9 6f 7d de b9 f3 cf 99 3c
       -0.00023456474 -0.00014778682 -0.00042436595 0.018775916
000230 d6 93 77 3c a3 cb 30 39 88 a9 91 bd d7 e7 bb b9
       0.01511093 0.00016860529 -0.07112414 -0.00035840154
000240 92 ac 14 bd a1 80 a8 b9 60 09 36 3d 99 c2 23 37
       -0.03629739 -0.00032139293 0.044442534 9.760865e-06
000250 73 77 27 3d c0 63 4d 39 94 34 c3 b8 0a 31 31 38
       0.0408854 0.00019587483 -9.308118e-05 4.224576e-05
000260 e0 fb 78 39 e2 b8 0c 39 f5 a6 3d 39 91 a7 8d 39
       0.00023744954 0.00013420315 0.00018086641 0.00027018462
000270 85 bd 66 3c e4 5a 39 be 82 97 23 bd 8f 1f 9c 3d
       0.014083271 -0.18101078 -0.03993941 0.07623207
000280 91 84 ac bc dd f2 81 b8 e0 45 67 3d b6 e0 3e 37
       -0.021059306 -6.196436e-05 0.056463122 1.1377202e-05
000290 69 e1 88 38 33 d0 6b 38 05 8e 5e b9 15 91 44 b8
       6.526971e-05 5.6222267e-05 -0.00021224476 -4.686516e-05
0002a0 c2 ec 31 bb a1 e3 28 38 23 1f 6e 3c ee 13 d8 b8
       -0.0027149175 4.0266317e-05 0.014533791 -0.00010303395
0002b0 26 9b f0 b8 99 55 b8 bb 18 7c ef 3a 63 55 60 38
       -0.000114729904 -0.0056254384 0.0018271236 5.3485284e-05
0002c0 e7 03 dc 37 bd 57 38 3c c2 dc d7 b8 2f b3 07 3d
       2.622786e-05 0.011251387 -0.00010293118 0.033129867
0002d0 fb bb c8 bb 84 83 b8 b8 57 a9 42 3d d6 c4 f8 38
       -0.0061259246 -8.7983004e-05 0.047524776 0.00011862225
0002e0 98 f3 dc b6 07 78 2d 3d db cc b6 3b d8 58 ed 38
       -6.584869e-06 0.042350795 0.00557862 0.00011317589
0002f0 79 0f 8e 3d 98 2b 85 3b 64 e1 1b be 34 9f d4 b8
       0.06936545 0.0040640347 -0.15222698 -0.00010138602
000300 fc 3e af 3d 54 ff 3a b8 51 fb 5c b9 23 b5 d9 bc
       0.08556935 -4.458365e-05 -0.00021074458 -0.02657563
000310 73 d8 8b b9 c2 84 b5 3c 52 e4 a3 b9 02 bb fc b9
       -0.00026673413 0.02215803 -0.00031259895 -0.00048204517
000320 0e bd 0f 3c 10 a5 7e bd 35 63 3e ba 59 4c fa bb
       0.0087731015 -0.062169135 -0.0007262708 -0.007638496
000330 8a a6 e1 38 be 45 2e 38 4f a6 25 3b 8e 93 cc 3c
       0.000107598564 4.1549785e-05 0.002527613 0.024972703
000340 27 f7 d5 3c 68 f3 f0 3d b6 8b 81 bb de a6 ce bb
       0.026118828 0.11765176 -0.0039534224 -0.006306513
000350 a9 cf 26 3c b5 71 ff b6 09 95 fe 39 59 1d 04 bb
       0.010181346 -7.6128294e-06 0.00048557695 -0.0020159094
000360 00 26 d7 3c da 59 3d bc 2f 7e ec bc 3d b9 c6 b7
       0.026263237 -0.011557067 -0.028868763 -2.3689698e-05
000370 bf ec a7 37 e5 6c a9 b9 90 6c e8 b8 c2 ad 76 b9
       2.0018195e-05 -0.00032315325 -0.000110828434 -0.00023525118
000380 fb 1d c5 37 28 fa f1 bc 8b 4f 61 bd 28 d3 8a 3d
       2.349819e-05 -0.02953823 -0.0550075 0.06778556
000390 bd f1 1b bd 1b 8c 67 3d 2d bb 07 bc 90 72 5b b8
       -0.038072336 0.0565301 -0.008284372 -5.2320363e-05
0003a0 25 52 0b 3c 71 bf e6 38 be 79 0c b9 12 78 57 b9
       0.0085034715 0.000110029134 -0.00013396793 -0.00020548727
0003b0 7a 0d ae b8 30 03 31 3b d1 1b 68 3d 9b 5a 04 b9
       -8.299477e-05 0.0027009957 0.056667153 -0.00012622254
0003c0 48 6c 51 b9 b2 c4 96 bb 79 0a 85 b8 8a a6 0e 39
       -0.00019972131 -0.0046010846 -6.343885e-05 0.00013604216
0003d0 0c 43 39 39 04 f9 87 bd d6 89 6f b9 55 df 69 bd
       0.00017667952 -0.06639293 -0.00022844164 -0.05709775
0003e0 dd ac 87 38 ee 89 6b b8 77 7b 2c 3d 64 cd 2d 3d
       6.4695e-05 -5.6156823e-05 0.042109933 0.042432204
0003f0 3a 05 bc b7 6f d9 00 3c c5 6f 6d 3c 72 3c 97 b9
       -2.241378e-05 0.00786434 0.01449198 -0.00028846

blinear1.weight_sampler.rho f4 [24, 11]
000000 e3 f6 df c0 c6 ea dc c0 ba 5f db c0 88 bd dc c0
       -6.9988875 -6.903659 -6.8554354 -6.898136
000010 ce f9 dd c0 e9 6a e4 c0 1b 7f df c0 48 70 d9 c0
       -6.9367437 -7.1380506 -6.984266 -6.794956
000020 db a3 dc c0 e1 7d df c0 03 77 e0 c0 03 0e da c0
       -6.895002 -6.984116 -7.014528 -6.8142104
000030 83 fe e1 c0 55 e8 d8 c0 96 b2 da c0 11 d0 de c0
       -7.0623183 -6.778361 -6.8343 -6.9628987
000040 74 17 d9 c0 21 a9 de c0 60 fa e4 c0 f2 6f d8 c0
       -6.784113 -6.9581456 -7.1555634 -6.763665
000050 b9 c7 db c0 a0 1b de c0 0c a6 e0 c0 ac 3d e0 c0
       -6.86813 -6.940872 -7.0202694 -7.0075283
000060 1b 5a df c0 6e 5e dd c0 0e 34 dc c0 3c f5 df c0
       -6.979749 -6.917777 -6.8813543 -6.998686
000070 11 d0 e0 c0 ab 87 dd c0 9c 84 e1 c0 5e 26 d8 c0
       -7.0253987 -6.922811 -7.0474377 -6.7546835
000080 09 9a e2 c0 bb f5 df c0 42 3e e1 c0 72 9c dc c0
       -7.081303 -6.9987464 -7.03885 -6.8940973
000090 19 4e df c0 55 37 e3 c0 d7 6e d8 c0 f4 b2 e0 c0
       -6.9782834 -7.1005044 -6.7635303 -7.021845
0000a0 9c f6 df c0 9d ab db c0 17 2c e5 c0 c6 93 d9 c0
       -6.9988537 -6.864699 -7.161632 -6.7992887
0000b0 42 b4 db c0 39 0f e2 c0 e7 46 e1 c0 94 9e dc c0
       -6.865754 -7.064358 -7.039905 -6.8943577
0000c0 57 8c d8 c0 96 27 db c0 79 c1 e0 c0 79 a4 dc c0
       -6.7671313 -6.8485823 -7.0236173 -6.895077
0000d0 ee b3 e0 c0 e1 21 db c0 a4 f4 da c0 c3 0e db c0
       -7.021964 -6.8478856 -6.8423634 -6.845552
0000e0 98 04 da c0 88 60 df c0 66 a8 db c0 fb 7a e0 c0
       -6.8130608 -6.9805336 -6.8643064 -7.0150123
0000f0 d1 31 db c0 b2 f5 dd c0 e0 84 e0 c0 0b e7 de c0
       -6.849831 -6.936242 -7.01622 -6.9657035
000100 47 ef de c0 15 92 e7 c0 dd bc de c0 59 3c db c0
       -6.9667087 -7.2365823 -6.9605546 -6.8511167
000110 3e 0b db c0 f9 ca df c0 e9 25 e3 c0 7d 1e dd c0
       -6.8451223 -6.993527 -7.0983777 -6.9099717
000120 66 b6 da c0 4f fe e0 c0 69 a4 da c0 f3 9d dd c0
       -6.8347654 -7.0310435 -6.8325696 -6.925531
000130 1c 19 de c0 76 94 d8 c0 89 3b e3 c0 07 bf dc c0
       -6.940565 -6.7681227 -7.1010175 -6.898319
000140 73 a1 df c0 e0 1b dd c0 35 53 e1 c0 f0 eb dd c0
       -6.988458 -6.9096527 -7.041407 -6.935051
000150 dd 53 de c0 3e 69 da c0 44 e0 db c0 d0 ed db c0
       -6.947737 -6.825347 -6.871126 -6.87278
000160 c1 1c de c0 6a 46 e3 c0 eb 7f dc c0 87 60 e0 c0
       -6.94101 -7.1023455 -6.890615 -7.011783
000170 8d 28 d7 c0 5b f5 e1 c0 c8 b4 e0 c0 6b 64 de c0
       -6.7237 -7.0612006 -7.022068 -6.949758
000180 60 eb dc c0 be 85 dd c0 63 04 de c0 16 cc da c0
       -6.9037323 -6.922576 -6.9380355 -6.837413
000190 55 e3 dc c0 41 42 da c0 98 96 da c0 f2 dd df c0
       -6.9027505 -6.8205876 -6.830883 -6.995843
0001a0 58 bf e1 c0 9b bf d9 c0 f5 f3 e0 c0 c2 18 e4 c0
       -7.0546074 -6.8046393 -7.02978 -7.128022
0001b0 63 dc dc c0 25 8d e4 c0 76 b0 df c0 9d 07 e1 c0
       -6.9019027 -7.1422296 -6.9902906 -7.0321794
0001c0 54 de dc c0 de b0 d9 c0 c7 2d dd c0 39 fe df c0
       -6.9021397 -6.80284 -6.911838 -6.999783
0001d0 e7 bb dd c0 a0 2c e0 c0 b8 b5 da c0 38 fe d8 c0
       -6.9291873 -7.0054474 -6.8346825 -6.7810326
0001e0 19 db dc c0 dd 8e db c0 38 bc d9 c0 2a da db c0
       -6.9017453 -6.8611894 -6.804226 -6.8703814
0001f0 a0 61 de c0 b8 1a e1 c0 30 6a dd c0 64 86 de c0
       -6.949417 -7.0345116 -6.9192123 -6.953905
000200 b9 fb da c0 dd eb de c0 c8 58 df c0 4a 43 db c0
       -6.843228 -6.966292 -6.9795876 -6.851964
000210 26 6f d7 c0 53 9b df c0 93 4a de c0 fe bc d8 c0
       -6.732318 -6.9877105 -6.9466033 -6.7730703
000220 b0 36 dd c0 12 ea de c0 a6 65 d5 c0 cd 64 df c0
       -6.9129257 -6.966073 -6.6686583 -6.981055
000230 c8 56 e2 c0 67 77 dd c0 5d a1 d9 c0 2d 3c dc c0
       -7.0730934 -6.9208255 -6.8009477 -6.8823457
000240 10 53 da c0 20 aa db c0 49 22 e0 c0 96 a9 dd c0
       -6.8226395 -6.864517 -7.004185 -6.9269514
000250 b6 0a de c0 be a8 e1 c0 e4 cf d8 c0 d1 2d e4 c0
       -6.9388075 -7.0518484 -6.7753773 -7.130593
000260 df 11 e1 c0 1b 01 d9 c0 dc d4 de c0 4d 26 e2 c0
       -7.0334315 -6.781385 -6.963484 -7.0671754
000270 3a ae dc c0 9f d3 dc c0 0a ca d8 c0 e1 29 db c0
       -6.896268 -6.9008327 -6.774663 -6.848862
000280 ea 86 df c0 a0 34 e4 c0 32 83 db c0 cc 5b de c0
       -6.985219 -7.131424 -6.859765 -6.9487057
000290 9e 4c db c0 63 7a dd c0 bd 44 dd c0 36 19 dc c0
       -6.8531027 -6.92119 -6.914641 -6.8780775
0002a0 f9 7a dd c0 34 5e dc c0 f0 3e db c0 e0 3c df c0
       -6.9212613 -6.8864994 -6.851433 -6.976181
0002b0 f9 ae de c0 8f f5 df c0 02 91 d8 c0 43 a3 dc c0
       -6.958859 -6.9987254 -6.767701 -6.8949294
0002c0 ec e2 db c0 50 a4 e3 c0 3f 48 de c0 57 d2 df c0
       -6.8714504 -7.1138077 -6.946319 -6.9944263
0002d0 66 12 dc c0 50 23 de c0 2a 98 e3 c0 00 49 df c0
       -6.877246 -6.9418106 -7.1123247 -6.977661
0002e0 60 f7 d6 c0 f4 d2 dc c0 ef a2 de c0 cc 4d df c0
       -6.717697 -6.900751 -6.9573894 -6.9782467
0002f0 3b 18 dc c0 5f d3 dc c0 71 d8 d8 c0 31 53 e0 c0
       -6.877958 -6.900802 -6.776421 -7.010155
000300 6f 46 dc c0 a5 94 dc c0 e7 35 da c0 b8 73 dd c0
       -6.883598 -6.893145 -6.81908 -6.920376
000310 2c ba e2 c0 4a f9 df c0 54 e2 d8 c0 a4 71 dc c0
       -7.085226 -6.999181 -6.777628 -6.888872
000320 89 9f d8 c0 85 a4 dc c0 a3 73 dc c0 7f b4 dc c0
       -6.7694745 -6.895083 -6.889116 -6.897033
000330 0d 34 db c0 6a c6 d7 c0 44 9a da c0 0d 55 e2 c0
       -6.850104 -6.7429705 -6.8313313 -7.072882
000340 44 4c d9 c0 fa 12 dc c0 8c 0f de c0 17 d9 dc c0
       -6.79056 -6.8773165 -6.939398 -6.9015
000350 cf 99 dd c0 c7 fd e4 c0 e5 69 d8 c0 91 c9 e0 c0
       -6.9250255 -7.1559787 -6.7629266 -7.0246053
000360 2b de e1 c0 06 e3 e3 c0 f3 7e d9 c0 f6 c5 de c0
       -7.05837 -7.121463 -6.7967467 -6.961665
000370 9e 7c db c0 f8 ea dc c0 7c c3 da c0 d3 66 d9 c0
       -6.858962 -6.9036827 -6.836363 -6.793802
000380 5e 28 dd c0 1e 69 da c0 5b ea d6 c0 92 38 e0 c0
       -6.9111776 -6.8253317 -6.716108 -7.0069056
000390 98 4c e2 c0 73 7a dd c0 9c bd dd c0 21 44 db c0
       -7.07185 -6.9211974 -6.9293957 -6.8520665
0003a0 09 f2 d7 c0 fc d7 e0 c0 73 87 de c0 d1 2c e2 c0
       -6.7482953 -7.0263653 -6.9540343 -7.0679708
0003b0 68 e6 db c0 55 a0 de c0 3d 84 e1 c0 3d a3 dc c0
       -6.871876 -6.957072 -7.0473924 -6.8949265
0003c0 9b 81 e6 c0 80 1b db c0 bc c6 dd c0 3c cf e0 c0
       -7.203321 -6.847107 -6.9305096 -7.025297
0003d0 6f 3d dc c0 97 8b de c0 45 79 da c0 a1 7f dd c0
       -6.882499 -6.95454 -6.8273034 -6.9218297
0003e0 e9 1a dc c0 89 d6 db c0 81 f7 dd c0 15 43 e3 c0
       -6.878285 -6.8699384 -6.936463 -7.1019387
0003f0 2b 7b df c0 32 85 d5 c0 2a 91 d9 c0 aa 70 db c0
       -6.983785 -6.672509 -6.79897 -6.857503

blinear1.weight_sampler.eps_w f4 [24, 11]
000000 13 4e 0d 3e a7 7e 3c 3f cb c9 2e bf 87 7a b3 bd
       0.13799314 0.73630756 -0.6827666 -0.087636046
000010 5d c7 24 be b7 c3 8a 3f 09 36 60 3f 29 8f 12 3e
       -0.16091676 1.0840977 0.8758245 0.14312424
000020 89 0b f6 3e d9 ae 21 bd 6c 3b 80 3f fd 5f c4 3e
       0.48055676 -0.03947339 1.0018134 0.38354483
000030 37 4b 74 bf ad 4f 35 3f e6 80 14 3f 2c 0f 8e 3f
       -0.9542727 0.708247 0.58009183 1.109838
000040 db 4c 46 bf 5e a7 9d 3e fc dc 16 40 29 e5 a2 be
       -0.7746102 0.30791754 2.3572378 -0.3181546
000050 31 78 67 be 61 10 5b 3f 6c 3a 20 3d 90 0c f8 3e
       -0.22604443 0.8557187 0.039118215 0.48447084
000060 f3 79 2d bf ba 73 4c bd 1a 63 8e 3f 33 aa 26 be
       -0.67764205 -0.049915053 1.1123993 -0.16275863
000070 2c 46 23 bf 1a 35 67 bd f3 72 8d be 39 3d 15 3f
       -0.6377895 -0.056447126 -0.27626762 0.58296543
000080 97 ac 04 3f 01 80 ce 3f cb bf f8 bf a2 6b ae 3f
       0.5182585 1.6132814 -1.943353 1.3626597
000090 5c d9 8d bf 15 26 d4 be 0a 31 6d 3d 19 c1 f2 bf
       -1.1081958 -0.41435304 0.057908095 -1.8965179
0000a0 73 1e 3b 3f c4 1a a4 3f b3 4e c0 bf 26 f7 f3 3f
       0.73093337 1.2820668 -1.5024017 1.9059799
0000b0 5a 37 ee 3f 58 bc 86 bf f8 a2 95 3f 55 32 c2 3f
       1.8610642 -1.0526228 1.1690359 1.517161
0000c0 28 eb 0c 3e 91 b6 62 bf 49 fa ea 3e 99 fa be bd
       0.1376158 -0.88559824 0.45894077 -0.093251415
0000d0 4d 01 8f bf 2f 74 ed bf c2 5a 41 bf 94 2c ad 3e
       -1.1172272 -1.8551081 -0.7552911 0.33823073
0000e0 8f 2c 32 bf 72 3b b5 be a3 50 7a be 06 4d 0b bf
       -0.6959924 -0.35396916 -0.24444823 -0.54414403
0000f0 75 86 08 bf 74 3d 26 bf 27 a7 cb 3e d1 37 05 bf
       -0.53330165 -0.6493752 0.39775965 -0.52038294
000100 5b 3d 5e be 25 d4 d6 be 8f b5 93 bf 99 69 0e 3f
       -0.21703093 -0.41958728 -1.1539782 0.5562988
000110 39 53 71 c0 e3 b5 9c 3e 5c f6 86 bf b3 05 39 bf
       -3.7707045 0.3060752 -1.0543933 -0.7227432
000120 3a 36 75 3f b1 36 ac be bd 9b c9 bf 8b 7d c6 3c
       0.9578587 -0.33635476 -1.5750653 0.024229785
000130 c7 d5 ea bf f0 0a 49 be 9c 71 1d bf be 80 04 3e
       -1.834649 -0.19633079 -0.6150148 0.12939736
000140 1d f3 b0 be 48 26 a2 bf 92 6f 98 3c 40 47 90 be
       -0.3456048 -1.2667933 0.018607888 -0.2817936
000150 76 f9 9b 3f a9 98 5f bf 3c a1 d3 bf ad 8c 00 bf
       1.2185504 -0.87342316 -1.653358 -0.50214654
000160 6f 7c 68 bf ab 5b b0 bf 3b 6e 96 be e2 3b ca bf
       -0.9081487 -1.3777975 -0.29380974 -1.5799525
000170 87 8c ca bf 71 72 a6 3e c9 af 37 3d 53 aa b0 be
       -1.5824136 0.32509187 0.044845376 -0.34504947
000180 05 b3 c9 be a8 fe ab bf 08 35 db 3e ab 6c 66 be
       -0.39394394 -1.343709 0.42813897 -0.22502391
000190 bd 8e 1c 3f ae 6a e6 3c 73 ee 6e 3d cd f7 f1 bb
       0.611553 0.02812704 0.05833287 -0.0073842765
0001a0 e4 6d 14 3f 01 80 7c 3f 1a cf cf 3e fe 7a b6 3f
       0.5798018 0.9863282 0.40587693 1.4256284
0001b0 c2 d0 b5 be 38 cd 28 3f de 41 5b be d6 f9 f2 bf
       -0.35510832 0.6593814 -0.21411845 -1.8982494
0001c0 48 40 9f 3e 00 9e 21 3f b3 8e a9 be 55 c5 06 3f
       0.3110373 0.63131714 -0.33116683 0.52644855
0001d0 fc c1 34 3e bd e5 16 3d 29 2b 42 3f 7a c7 29 3f
       0.17652124 0.03684019 0.7584711 0.6632
0001e0 1d b5 c2 be 1c 74 84 3f 9e ac ec bf a2 df c1 3e
       -0.38028803 1.0347934 -1.8490179 0.3786593
0001f0 44 4b 6d bd f5 f3 06 bf e7 95 fb bd 13 94 fd bf
       -0.057933107 -0.52716 -0.12284451 -1.9810814
000200 3d d3 0e 3f 32 ab 3b bf 81 97 53 3f 34 98 19 3f
       0.55791074 -0.733081 0.8265305 0.5999787
000210 23 74 a6 3e f6 c3 1a bf be a0 f8 3e d7 8e 99 3d
       0.3251048 -0.6045526 0.48560137 0.07497948
000220 fd 9f 08 3f bc 83 0d bf ae 31 5b bf 5f 13 f6 3e
       0.5336912 -0.55279136 -0.8562268 0.48061654
000230 80 82 1c bf 0c 0a 57 3f 9e 12 8f be 51 64 a9 3f
       -0.6113663 0.83999705 -0.2794389 1.3233739
000240 18 c4 70 bf e1 fe 5e be d6 15 74 bf be 77 32 bf
       -0.94049215 -0.21776916 -0.9534582 -0.6971396
000250 76 11 48 3f 59 1c 9d 3e 5b 93 a6 bf fd f6 48 bf
       0.78151643 0.3068569 -1.3013719 -0.78501874
000260 fa d1 f6 bd cc af 8b 3f a0 92 84 bf 6b 19 9b bf
       -0.120517686 1.0913024 -1.0357246 -1.2117132
000270 8b 28 17 3f d6 4c 96 3f 2d 4a d2 3f 9f 39 d7 3f
       0.5904624 1.1742198 1.6428887 1.681446
000280 b1 bc e7 3e 38 70 b5 3c 9b 6b c2 3f 61 f0 7e 3f
       0.45261148 0.022148237 1.5189089 0.9958554
000290 9d 1a ab 3e 80 67 80 3e b8 f5 e6 3e 62 d2 e4 be
       0.33418742 0.25078964 0.45109344 -0.4469176
0002a0 d4 76 6e 3f 6b d7 4d 3f 95 a8 68 3e 5c e3 05 c0
       0.9315007 0.80406827 0.22720559 -2.092002
0002b0 5c 80 19 bf 1c 09 86 3f 1c 0a be bf c2 a5 9b 3f
       -0.59961486 1.047153 -1.4846835 1.215996
0002c0 00 8f 9d 3e e0 96 c5 3e 96 c0 c0 3e 88 a9 92 bf
       0.30773163 0.3859167 0.3764693 -1.1457987
0002d0 51 a7 13 3f cb 1b 06 3f c0 0b 6b be fe 1e 30 3f
       0.5767718 0.5238616 -0.22953701 0.6879729
0002e0 4d ac fd bf 3a ff 89 3d 91 fc e1 3e 9c 15 80 3e
       -1.9818207 0.06738134 0.44138005 0.25016487
0002f0 99 bd 08 ba 03 0e 37 bf 67 7d 48 be 7a a2 4b 3e
       -0.00052162405 -0.71505755 -0.19579087 0.19886199
000300 4f 4c ef bf 7f e6 22 40 43 82 1f 3d 52 4f b0 3e
       -1.8695163 2.5453184 0.038942587 0.34435517
000310 1e ac c9 3e 81 07 50 bf b9 a0 88 bf 70 c1 87 bf
       0.39389127 -0.8126145 -1.0674049 -1.0605907
000320 07 62 3b 3f 4a 59 95 3f f9 53 88 3f 06 06 5e bf
       0.7319645 1.1667874 1.0650626 -0.8672794
000330 94 3f 5a 3f 5d bc 94 3f 99 ac 5c bf fa e3 ab be
       0.8525326 1.1619984 -0.86200863 -0.3357237
000340 c1 55 d6 3f 29 1a 9f be 34 e1 37 c0 cd d4 39 3f
       1.674492 -0.31074646 -2.8731203 0.72590333
000350 21 00 b9 3e 4c ab a2 3f 5d bc dd bd e5 4c 8e bf
       0.3613291 1.2708526 -0.10826943 -1.1117216
000360 d4 3a 37 bf c0 a9 2c bf 09 53 12 40 be 04 f3 3e
       -0.7157414 -0.6744652 2.286318 0.47464556
000370 da 12 da be 2a 34 00 c0 8a 2e 04 3e 50 25 9b 3f
       -0.42592508 -2.0031838 0.12908378 1.2120762
000380 84 96 ce 3e 8a 28 38 3f e0 bc f1 bc ad e6 a7 be
       0.4034921 0.7193686 -0.029509008 -0.3279318
000390 1b 8c 43 bf 41 10 5e 3f c1 10 e4 bf 23 ff 12 c0
       -0.7638566 0.8674355 -1.7817613 -2.2968223
0003a0 27 aa ac be f3 f5 86 bf 0c 61 d6 bf f9 4b 9c bd
       -0.33723566 -1.0543808 -1.6748366 -0.07631678
0003b0 d0 13 12 bc 0f 52 d3 3f 90 9b 3f be df 20 f9 3c
       -0.0089158565 1.6509417 -0.18711686 0.030411182
0003c0 d2 95 1a 3f a0 ba 6e 3f 7a 2a 04 3f b2 9c aa be
       0.6038486 0.9325352 0.51627314 -0.33322674
0003d0 e0 cb 9b be a0 e8 90 bf 62 ab 6f 3c 2d 3f fe 3d
       -0.30428982 -1.1320992 0.014628263 0.124143936
0003e0 ae db 42 bf bd 8d bf 3d fe ae 94 bf ac 1e af bf
       -0.76116455 0.09353206 -1.1615903 -1.3681235
0003f0 7b 42 b7 3f 9b c9 e2 3f 1b 43 9b bf 7f 77 46 3f
       1.4317163 1.7717775 -1.2129854 0.77526087

blinear1.bias_sampler.mu f4 [24]
000000 cf 32 b5 b8 3d 2d 5c 3d b4 37 54 3a c0 44 93 b8
       -8.6402164e-05 0.05375408 0.00080954586 -7.022312e-05
000010 36 ea 74 b8 93 74 b1 36 52 10 d9 b7 37 1f 60 bc
       -5.839226e-05 5.288582e-06 -2.5876016e-05 -0.013679317
000020 ff b7 69 b9 2e dc 87 39 4d 50 a7 3b 50 61 d5 3b
       -0.00022289155 0.00025913253 0.005106008 0.0065118447
000030 ed 9f 0b 3a eb c3 7e 3d 38 14 1a 3d ed 0a 08 3d
       0.000532626 0.06219856 0.03761694 0.033213545
000040 ee a6 1d 39 06 2e 15 bb 40 f8 fb b9 01 13 00 b9
       0.00015034873 -0.0022763028 -0.0004805941 -0.00012214111
000050 3c ee 31 37 ad f8 14 b9 fa 87 b8 3a c9 f0 55 38
       1.060549e-05 -0.00014207019 0.001407861 5.1007406e-05

blinear1.bias_sampler.rho f4 [24]
000000 ff d5 df c0 79 d6 dc c0 10 61 db c0 7e 6e da c0
       -6.9948726 -6.9011807 -6.8555984 -6.825988
000010 de 8d d7 c0 d6 74 da c0 9b f4 d7 c0 14 3a dc c0
       -6.736068 -6.826762 -6.748609 -6.8820896
000020 f4 50 e1 c0 49 3f de c0 d2 17 e1 c0 5d a3 da c0
       -7.041132 -6.9452252 -7.0341578 -6.832442
000030 c4 c3 df c0 60 9f e0 c0 d8 df de c0 61 ff de c0
       -6.992647 -7.019455 -6.9648247 -6.968674
000040 fb 87 e0 c0 a9 d6 dd c0 5d ce db c0 1b 88 df c0
       -7.016599 -6.9324536 -6.868941 -6.9853644
000050 a2 7a d5 c0 10 ea e2 c0 36 dd df c0 9f 33 d8 c0
       -6.67122 -7.091072 -6.9957533 -6.7563014

blinear1.bias_sampler.eps_w f4 [24]
000000 8a 4c de bf bd 41 24 3f 94 1c 06 3e b4 4f 1a bf
       -1.7367108 0.6416281 0.13096839 -0.6027787
000010 38 a3 80 3f 59 18 91 bd 88 36 af be cd 73 8e 3d
       1.004981 -0.07084722 -0.34221292 0.06955681
000020 15 15 cd be e8 1a 7e bf ad ac c0 3f e2 e3 6b 3f
       -0.40055147 -0.99259806 1.5052696 0.92144597
000030 e4 39 e5 3f 73 23 d8 be d4 42 b0 bf 4c 43 7d 3e
       1.7908292 -0.42214546 -1.3770394 0.24732703
000040 33 c8 0f c0 33 09 36 40 42 cb dc bf 55 00 31 bf
       -2.2465942 2.8443115 -1.7249529 -0.6914113
000050 2f 17 ac bd 94 c2 86 3f 7d e2 a6 be e3 96 de 3f
       -0.084028594 1.052813 -0.32594672 1.7389797

blinear2.weight_mu f4 [24, 24]
000000 c0 a1 d3 b8 3d fc 09 39 4f 40 a2 38 f7 66 a6 3c
       -0.00010091392 0.00013159304 7.7367404e-05 0.02031277
000010 bf 1b ad bb f6 40 66 38 a7 32 76 39 9b 83 f3 38
       -0.0052828486 5.4896773e-05 0.00023479258 0.000116116564
000020 0b c7 ca b9 7a 14 21 bd 2c a8 c4 b9 57 f4 03 b9
       -0.0003867674 -0.03932617 -0.0003750933 -0.00012584157
000030 95 9d 1c b9 99 ef e5 bb 2e d6 45 b9 16 88 a4 bc
       -0.00014936023 -0.0070170877 -0.00018867172 -0.020084422
000040 13 56 99 3b 91 b1 d2 36 f3 37 dd 3c 75 2f 98 3d
       0.0046794503 6.279159e-06 0.027004218 0.07430927
000050 31 0b 89 3a c7 36 e5 38 a2 9e d1 39 ab 6d 74 3b
       0.0010455606 0.00010929774 0.00039981777 0.0037296813
000060 40 0c b6 39 30 01 21 bc 6d ea a0 b8 23 34 aa bb
       0.00034722872 -0.009826943 -7.67306e-05 -0.0051942035
000070 bf 00 38 39 00 14 a1 bc aa 7f eb 3c 61 68 e3 bc
       0.00017547885 -0.019662857 0.028747398 -0.027759733
000080 d9 fb 01 b9 d8 62 53 39 38 f9 50 b9 94 28 7b b6
       -0.00012396219 0.0002015935 -0.00019929267 -3.7425534e-06
000090 06 bc 42 39 99 26 96 3d ae 18 31 bd a7 9a 25 38
       0.00018571326 0.07331581 -0.043236427 3.9483097e-05
0000a0 10 3e 6e 38 bd 32 ca 3c cb 7a 36 3d 48 c2 b5 3c
       5.6801422e-05 0.024682397 0.0445507 0.022187367
0000b0 a5 3d 5e 39 6a 0d fc 38 fc 44 c4 b9 68 99 1b 3c
       0.00021194534 0.00012018795 -0.0003743543 0.009497024
0000c0 5e 18 d4 bd de f0 ca 3c e1 33 39 bb 91 24 fb b8
       -0.1035621 0.024773058 -0.0028259682 -0.00011975424
0000d0 7d a9 b5 b8 c0 11 e5 b5 52 24 f7 3c 09 33 60 bc
       -8.662322e-05 -1.7066995e-06 0.030168686 -0.013684043
0000e0 0e fe 40 3d d3 bd 71 bc 3b 7c 6f bd cd 0b 3a b9
       0.047117285 -0.01475473 -0.058468085 -0.00017742738
0000f0 d5 3f f8 b8 0a b7 ed 3c 4f 34 de b8 49 d7 1a bd
       -0.00011837451 0.029017944 -0.00010595528 -0.03780297
000100 dc 49 1c bc f8 88 3e b9 a7 80 5e bd 32 1f 59 b7
       -0.009539094 -0.00018170837 -0.05432191 -1.2941471e-05
000110 4b f8 3d 3d 2d 6c d2 38 40 bc dc bd 78 c5 e5 3c
       0.04637937 0.000100337296 -0.10778093 0.028048262
000120 a0 74 fe b7 76 dd 3f 38 3a db 51 38 78 c4 0a 3a
       -3.0333467e-05 4.57442e-05 5.0033654e-05 0.00052935584
000130 44 48 0b 3b 04 25 17 38 9c 89 83 3c 65 20 4a be
       0.002125279 3.603568e-05 0.016056828 -0.1973892
000140 13 88 f9 b8 32 ec 04 bb 39 ab 21 bb 0b ab bb b8
       -0.00011898591 -0.0020282385 -0.0024668707 -8.948714e-05
000150 1c f4 04 38 95 0f 8d 39 21 ef 83 3c 37 25 ac b8
       3.1698597e-05 0.00026905225 0.016105236 -8.208531e-05
000160 58 34 a9 bd 59 ef 89 bb 18 e3 62 3a de bb 27 b9
       -0.08261937 -0.0042094407 0.00086550554 -0.00015996347
000170 e2 00 09 bb 65 8e 40 b9 92 e8 60 b8 56 21 c4 39
       -0.0020905067 -0.00018363593 -5.362236e-05 0.0003740887
000180 63 2a 07 3c 7d d0 2a 38 34 38 bf 39 64 48 fc b7
       0.008249852 4.072533e-05 0.00036472233 -3.007445e-05
000190 52 e7 7f 39 d6 66 e5 bd 33 95 5a 3d bd 5b ea 39
       0.00024404869 -0.11201255 0.053364944 0.00044700308
0001a0 c9 cb 22 39 df 54 e5 38 14 b9 8a b9 a5 5c d4 3b
       0.0001552544 0.000109353794 -0.00026459305 0.0064807707
0001b0 8f 89 14 bb 74 e4 e6 bb 2a f4 86 b9 70 22 68 3d
       -0.0022665 -0.0070462767 -0.00025740388 0.056673467
0001c0 fb 85 ba 37 9a 6b 73 bd 26 5f 6a 37 09 08 06 bd
       2.2235317e-05 -0.05942879 1.396964e-05 -0.032722507
0001d0 1b c9 62 39 ee dd 2a 38 d2 27 4c b7 f4 43 02 3c
       0.00021627957 4.0737847e-05 -1.2168619e-05 0.007950772
0001e0 74 a1 f6 37 34 34 dc 39 bb c3 91 39 b8 95 e4 b9
       2.9400668e-05 0.00042000564 0.00027802386 -0.00043599098
0001f0 7f 09 13 37 14 21 f1 bb 5e c4 32 39 54 cc 67 38
       8.764094e-06 -0.0073586795 0.00017048555 5.5264987e-05
000200 46 e7 83 37 e5 b7 0b 39 a8 7d a9 3b 09 78 a8 3c
       1.5724112e-05 0.00013324579 0.00517245 0.02056505
000210 a7 5e 0e bd 14 4a 5e 39 44 3e 07 bd 14 77 96 3a
       -0.034758236 0.00021199166 -0.033018366 0.001147958
000220 ec 38 8b 39 a4 20 7b 38 c4 16 03 bc 6c a6 43 38
       0.00026554556 5.9873462e-05 -0.008001033 4.6646615e-05
000230 6f d3 df 3b 37 ce 26 b8 5b 6a e0 b8 74 ff 89 b8
       0.006830625 -3.9769537e-05 -0.000107009626 -6.580251e-05
000240 2e cf 72 38 10 20 2e b8 ff 56 39 b9 8d 41 41 3c
       5.7890247e-05 -4.1514693e-05 -0.00017675383 0.011795414
000250 5b 76 2e 38 a4 55 a7 3a 99 10 3b 39 f8 58 ba b7
       4.159506e-05 0.0012766612 0.00017839893 -2.2214357e-05
000260 72 63 61 bd 80 aa ca 37 52 8a a3 b8 3b 5c 20 39
       -0.05502648 2.4159672e-05 -7.79821e-05 0.00015293148
000270 93 6e 52 bd de c3 0b 3d 27 b8 02 bb 32 95 79 39
       -0.051374983 0.03412234 -0.001994619 0.0002380207
000280 62 0d 19 bb 73 03 49 38 68 69 b9 bc b2 07 84 39
       -0.0023353924 4.7925347e-05 -0.02263327 0.00025182735
000290 88 52 62 b9 36 4d 9f b6 03 d3 11 b9 e2 49 d8 b9
       -0.00021583785 -4.747558e-06 -0.00013906886 -0.00041253777
0002a0 68 88 37 b9 e5 7f 2f 38 0f 70 a5 3c c2 64 f1 3b
       -0.00017503055 4.1842362e-05 0.020195035 0.0073667476
0002b0 67 98 16 bd a0 3e ee b5 4a 06 13 39 3b 84 5b b9
       -0.036766436 -1.7750608e-06 0.00014021355 -0.00020934727
0002c0 bc bd 7c bc f7 a9 86 bc cb 3f 13 b9 f8 43 2b bd
       -0.015426096 -0.016438467 -0.00014042777 -0.041812867
0002d0 1a 9d dc 3d 04 04 bc b9 18 5d 06 b9 da f3 30 b8
       0.10772152 -0.00035861146 -0.00012813916 -4.2188774e-05
0002e0 b2 8f 6d 3c e2 00 a3 b9 b2 b1 a1 bc ae 81 c1 b8
       0.014499592 -0.0003109044 -0.019738052 -9.227112e-05
0002f0 4f f8 3d bc 48 0e 4a 3c b8 b2 ba 3b 83 5f 2c 3e
       -0.011594846 0.0123325065 0.0056975745 0.1683331
000300 bc e5 f2 39 b8 cf 06 3d f0 38 3d b8 d0 56 0f 38
       0.00046329002 0.03291294 -4.511414e-05 3.4174707e-05
000310 c8 ab 99 3a 4e 63 84 b8 d6 51 4a 39 a7 f0 d3 38
       0.0011724168 -6.3127474e-05 0.00019294707 0.00010106089
000320 3b e8 ca bb dc da 56 b9 33 cb 14 39 11 3f 96 ba
       -0.006192235 -0.00020490162 0.00014190077 -0.0011462887
000330 22 1a 5d 39 45 ca 18 3b 7d bb 32 38 4b 09 97 37
       0.00021085938 0.0023313921 4.261312e-05 1.800493e-05
000340 3b c9 96 3c 8e 36 e8 bc bf 0f 4e b9 26 03 a3 b9
       0.018406501 -0.028346326 -0.00019651557 -0.00031092128
000350 18 2f 03 3b e2 4f 10 3d dd 80 78 39 58 07 c4 39
       0.0020017084 0.035232432 0.00023699128 0.00037389505
000360 94 7f ad 3d 21 b2 9d b8 b7 2f 67 b8 b4 2c 9d bd
       0.08471599 -7.5195225e-05 -5.511913e-05 -0.07674542
000370 fc fb bd 39 26 2f 1e 3b 67 f1 bb bb 57 40 82 bc
       0.00036236632 0.002413699 -0.0057355645 -0.01589982
000380 95 71 31 39 68 e7 d9 b7 b5 8a 1a 39 cc f1 86 b9
       0.00016922348 -2.5976173e-05 0.00014738257 -0.00025738624
000390 6c 84 54 bb 52 a6 66 3c d8 28 af b9 18 86 21 bc
       -0.0032427562 0.01407774 -0.00033409032 -0.009858631
0003a0 7e 1e 56 3c 3a c3 f5 bb d0 90 90 37 2e 28 e9 b8
       0.013068793 -0.0075000795 1.7233571e-05 -0.0001111779
0003b0 67 a4 13 b9 91 ab 7f 39 3c 3d df 39 e6 ee 7b 39
       -0.00014080257 0.00024382609 0.00042579498 0.00024026222
0003c0 70 2a 29 b5 1a 0d 11 bc 15 b1 95 39 c5 bf 16 bc
       -6.301916e-07 -0.008853221 0.0002855143 -0.009200995
0003d0 1c c8 0f 3b 66 0f a1 3a 2a e1 6c 3a 06 a7 dc 39
       0.0021939343 0.0012287914 0.00090362376 0.00042086112
0003e0 c8 fe 1e 3a c4 a8 20 b7 1e 2d 75 3c f4 8e 95 b8
       0.0006065187 -9.576037e-06 0.01496437 -7.131501e-05
0003f0 a4 f3 7e bc 72 7a bb 36 12 e5 c0 bc e0 48 5c b5
       -0.015561018 5.587289e-06 -0.02354673 -8.2062434e-07
