summit/benchmarks/experiment_emulator/trained_models/BNN/reizman_suzuki_case1_TON_BNN_model.pt (torch_old, 15251 bytes, 25 tensors)

blinear1.weight_mu f4 [24, 11]
000000 2d 87 15 3e 75 a3 de 3b 94 43 0b 3d 7d f3 96 3d
       0.14602347 0.006794388 0.033999994 0.073706605
000010 cf 97 67 3c 8c 17 19 be 53 fd 25 3d d0 e3 a4 bd
       0.014135315 -0.14950389 0.040524792 -0.08051264
000020 ef ff 92 3c 89 9c 06 3e 9e a7 2a bd 88 5a eb 3d
       0.017944304 0.13145651 -0.04166376 0.11491877
000030 20 6d 79 bc 38 5f 68 3e 00 c0 e9 bd 0e cb a4 3c
       -0.015223771 0.22692573 -0.11413574 0.020116355
000040 84 61 23 3d 05 4b 09 3b 91 44 1b 3e 03 82 67 3e
       0.03988792 0.0020949256 0.15162875 0.2260819
000050 ab 3f 35 bd dd 56 10 3e d4 fe 5c be d0 84 b8 3c
       -0.04425017 0.14095636 -0.21581584 0.022524267
000060 8b 40 9a 3e d0 57 3e 3c 21 42 18 3d 79 cc a3 bc
       0.30127367 0.011617616 0.03717244 -0.019994961
000070 e7 53 ef 3d b9 e8 0b be 08 5e 4c 3e a0 10 19 3e
       0.11685925 -0.13662995 0.19957745 0.14947748
000080 74 f7 ec bc 11 ea 75 3e 5a 4d 09 3b 43 b6 ae 3d
       -0.028926589 0.2401507 0.0020950646 0.085308574
000090 a6 04 98 3d b6 85 1f bb 28 01 3f be f1 96 dc 3c
       0.074227616 -0.0024341173 -0.18652785 0.026927443
0000a0 8f 0d 5f be ea f9 43 3c 3d 75 33 3e d5 e6 34 bd
       -0.21782516 0.01196144 0.17525192 -0.04416545
0000b0 2a cd fd 3d 0f ab 85 3c c3 2a 22 3e a8 68 a4 3b
       0.123926476 0.016316919 0.15836625 0.005017359
0000c0 76 ba dc 3b dc cd 40 be 5a 3a 2e 3e ee 31 00 be
       0.006736095 -0.18828529 0.17014447 -0.12519047
0000d0 cb 2a ec 3d 30 ac 68 3d 77 ad e0 bd 16 a7 53 3e
       0.115315996 0.056804836 -0.10970586 0.20669207
0000e0 c0 23 e2 bc e7 23 cf 3e cd fe d6 3c f6 14 20 be
       -0.027604938 0.4045708 0.026244545 -0.15632996
0000f0 86 f0 0f be 9a 69 49 3c 97 50 10 3d 25 27 88 be
       -0.14056596 0.012293244 0.035233106 -0.26592365
000100 71 e5 a4 bd 7c 1a 68 3e ab cb ca 3d ba f0 d0 bb
       -0.08051575 0.22666353 0.09902128 -0.006376353
000110 de fa 05 3c 56 fc 0d be 9a 4a aa 3d 85 1b c9 3c
       0.008177487 -0.1386579 0.0831501 0.024549255
000120 cc 6d 7d 3e 01 a2 1c 3e 6f 77 8c 3d 96 21 8f be
       0.24748915 0.15296175 0.06858718 -0.27955312
000130 c3 7d 0f be b7 44 b7 3d 5e a1 4c 3d 36 9f de bd
       -0.14012818 0.08948653 0.04995858 -0.10870211
000140 c7 0a 25 3e 54 ae 90 ba 9e 2b 92 3d 5a d4 bc bd
       0.16117392 -0.0011038282 0.071372256 -0.0922019
000150 c2 fa 7e bd 63 a0 33 3e f7 52 60 be b9 97 b9 3e
       -0.06225086 0.17541651 -0.21906649 0.36248568
000160 37 3a 1f 3d 09 cf 81 3d e2 1b 57 3d e3 36 d1 3d
       0.038873877 0.06338317 0.052516825 0.10215547
000170 e9 d0 35 3d 21 0a 8f bd 2e 00 9b 3c fc af 3d bd
       0.044388685 -0.06984354 0.018920984 -0.04631041
000180 36 9c e9 3d 90 2b 2b 3e 30 98 96 3d 4c b2 4a 3e
       0.11406748 0.16715837 0.07353246 0.19794577
000190 1a 3a fc bc 44 f1 ae 3c 2d c3 94 3d b3 0a 04 be
       -0.030789424 0.021355279 0.07263789 -0.12894706
0001a0 60 99 35 be 9e bf 8e 3d ba 57 28 3d 16 99 22 be
       -0.17734289 0.06970142 0.041099288 -0.1587871
0001b0 ba 73 f4 bd a8 1f 18 3e d6 30 a5 3d 0a b2 24 bd
       -0.119361356 0.14855826 0.08065955 -0.040208854
0001c0 18 05 2b be 77 16 ac 3e c7 e7 d1 3c ef 1e 09 be
       -0.16701162 0.3361089 0.025623215 -0.13390706
0001d0 5a d9 24 3e 54 dc 06 be 69 21 11 3e 49 4e 33 3e
       0.16098538 -0.13169986 0.14172901 0.17510332
0001e0 ce 42 0a 3e 30 c7 9e 3e 69 ac 4c 3c fa cb 17 be
       0.13502046 0.31011343 0.012492278 -0.14823905
0001f0 e9 da 99 3e 05 e6 06 3d 04 32 0f 3d 38 69 67 3d
       0.30049828 0.032934207 0.034959808 0.05649683
000200 05 ae 41 be 0f b1 7b 3e 18 cb 60 3d 0b d7 a2 3d
       -0.1891404 0.24579261 0.054881185 0.079511724
000210 d5 0f 02 3e ec 05 a8 3b 9e e8 f7 bb 5c 6a 04 3d
       0.12701352 0.005127659 -0.007565572 0.032327995
000220 56 1b 84 3d ab f6 db bd 65 5d c9 bd 08 95 b7 bc
       0.064505264 -0.107404076 -0.09832267 -0.02240993
000230 4f e6 8b 3e ef f5 94 3e 7c cf 26 be a3 8a 68 3d
       0.2732415 0.29093882 -0.16290087 0.05677284
000240 a6 bf 68 bb 5d 6a 3c 3e 9a 62 ce bd ca dc 9c 3a
       -0.0035514622 0.1839995 -0.100774005 0.0011967656
000250 11 fa c9 3c 2f 5c a7 bd 3b 76 42 3e f0 86 87 3e
       0.024655374 -0.081718795 0.18990414 0.26470137
000260 13 89 28 be 54 c8 d8 3d 28 eb 50 3e d5 8f 6b 3d
       -0.1645854 0.105850846 0.20402205 0.057510216
000270 92 a3 34 3e e4 7d 04 3e e2 74 48 bd 21 bc 00 be
       0.17640522 0.12938648 -0.048939593 -0.12571765
000280 cc cb 07 be e3 71 b3 bd c0 b1 b6 3d f9 f8 f4 bd
       -0.13261336 -0.087619565 0.08920622 -0.1196155
000290 8c 16 38 be ac df bf bd ab 0b d3 ba 5b a8 58 3e
       -0.17977351 -0.09368834 -0.00161015 0.21157973
0002a0 26 70 3d be c7 fa d7 3b d9 4c 83 3b ec 48 80 3b
       -0.18499812 0.0065911743 0.0040069637 0.003914943
0002b0 fc bf 1c 3e 64 ad 68 3e 37 f6 8c be 85 d5 17 be
       0.15307611 0.22722393 -0.27531597 -0.14827545
0002c0 94 4d 87 bb a7 d9 5e bd ac 0a 4a 3d 9e f9 df 3d
       -0.004129121 -0.05440679 0.049326584 0.109362826
0002d0 e5 8e 18 3c 8a d8 8d bd 49 d3 c3 3d 43 00 c9 bd
       0.009311412 -0.06926067 0.09561784 -0.09814503
0002e0 f8 b3 23 3e b8 0b 93 bc da 75 87 3d 77 e7 09 3e
       0.15986621 -0.017949924 0.06614275 0.13467203
0002f0 04 9c 31 3a 96 3c 83 3a 9c 94 55 3b 4a 61 e4 bb
       0.00067752623 0.0010012563 0.0032589799 -0.0069696056
000300 fc 3b eb bd 1f c0 23 3d dd b9 39 3d 0f 54 10 bd
       -0.114860505 0.039978143 0.04534327 -0.035236415
000310 57 41 2c 3e 46 67 96 bd 5b 57 39 be ed 89 32 bc
       0.168218 -0.073439166 -0.1809973 -0.010897142
000320 2c fe 3f be 19 97 a9 3e d4 de 9b 3d 72 30 ca bc
       -0.18749303 0.3312309 0.076108605 -0.024681304
000330 23 d2 ea 3d fd 5b 09 3d dc c0 26 3e 1f 55 c5 3c
       0.11465862 0.033534992 0.16284508 0.02408844
000340 ba 4f 33 bd 96 55 38 3d d7 75 5e bd d7 65 c5 3d
       -0.043777205 0.045003496 -0.0543116 0.09638565
000350 c9 85 70 3e f0 bf 0f bd 68 c2 87 bd f6 b1 48 bd
       0.23488535 -0.035095155 -0.06628877 -0.04899784
000360 16 c5 35 be 9e b2 44 3e 9a 28 08 3e ab d9 bb bd
       -0.17750964 0.19208762 0.13296738 -0.09172376
000370 af ff 5c 3e e9 3e f8 bb 62 a4 8b 3d 74 8c 12 3e
       0.2158191 -0.007575859 0.06818463 0.14311391
000380 0a 84 1c 3a 4b 46 40 be e6 e4 7c 3d 79 3c a7 bd
       0.0005970603 -0.18776815 0.061741732 -0.08165831
000390 e4 b8 53 bd 9b 48 d9 3d 49 78 1c bb 63 2e 13 be
       -0.051689997 0.106095515 -0.0023875406 -0.14373164
0003a0 4b 53 40 3d 2a c3 ea 3d b5 8c d0 3d 70 3d 20 3d
       0.046954434 0.11463006 0.10183088 0.03912109
0003b0 98 a3 f9 bc 12 a5 be bc 6f 35 46 bb bb d6 46 3e
       -0.030473515 -0.023272071 -0.0030244251 0.1941785
0003c0 dc 00 d3 3d 12 b9 10 be 73 aa 1b 3d 78 70 1a 3d
       0.10302898 -0.14133099 0.03800435 0.037704915
0003d0 7b d4 a4 bc a7 33 de 3d 43 42 04 3c 7d 38 12 3e
       -0.02012085 0.10849696 0.008072439 0.14279361
0003e0 ee eb 43 be c6 19 0a bd 36 ef 4a 3d 7e 61 11 3d
       -0.19132969 -0.033715986 0.049544536 0.035493366
0003f0 b9 a7 7f 3e 53 d5 8a bd d2 65 cf bc d4 67 89 bd
       0.24966325 -0.067789696 -0.025317106 -0.06709257

blinear1.weight_rho f4 [24, 11]
000000 db 6a a2 c0 15 5c 9b c0 b8 e1 a5 c0 ee d8 b5 c0
       -5.075544 -4.8549905 -5.1838036 -5.6827307
000010 e8 9b 9d c0 ae 4d 9a c0 ee d7 ac c0 5c b2 a4 c0
       -4.9252815 -4.8219824 -5.4013586 -5.1467724
000020 21 74 b4 c0 ac f6 b3 c0 e2 83 b4 c0 84 a4 b1 c0
       -5.639176 -5.6238613 -5.641099 -5.5513325
000030 96 a0 98 c0 6b 62 aa c0 1d 16 b5 c0 89 cd a4 c0
       -4.769603 -5.324514 -5.6589494 -5.1500897
000040 1f 3d 98 c0 d8 c6 a7 c0 20 8a ac c0 e1 b7 b5 c0
       -4.757461 -5.243023 -5.391861 -5.678696
000050 c4 94 b6 c0 06 06 bb c0 9d 55 a6 c0 d1 75 9b c0
       -5.70566 -5.8444853 -5.197951 -4.858132
000060 eb f1 aa c0 2a ab b6 c0 45 10 a1 c0 52 8e 9e c0
       -5.342031 -5.708394 -5.033236 -4.954873
000070 68 42 ac c0 36 61 a7 c0 e6 ed b9 c0 dc 4d b8 c0
       -5.383106 -5.2306166 -5.8102903 -5.7595043
000080 d5 ef ba c0 b0 51 a9 c0 71 95 98 c0 7e b0 ab c0
       -5.8417764 -5.2912216 -4.7682424 -5.3652945
000090 e8 67 b8 c0 bb d1 9c c0 4c 54 a4 c0 59 1a ac c0
       -5.762684 -4.900602 -5.13529 -5.3782163
0000a0 a4 5c aa c0 55 4a b5 c0 06 0d b3 c0 4d 9c b5 c0
       -5.3238087 -5.6653237 -5.59534 -5.6753297
0000b0 f5 1b aa c0 8d 00 9c c0 27 f5 ac c0 7d 5b b8 c0
       -5.3159127 -4.875067 -5.404926 -5.761168
0000c0 c1 a1 a5 c0 96 01 a4 c0 99 c9 af c0 80 83 a6 c0
       -5.1759953 -5.1251936 -5.493359 -5.2035522
0000d0 18 ca b9 c0 1f 52 b6 c0 45 73 b8 c0 d4 4e a3 c0
       -5.8059196 -5.6975245 -5.764071 -5.1033726
0000e0 1e 90 9c c0 8e 51 aa c0 78 79 af c0 bf 0c 9c c0
       -4.8925924 -5.3224554 -5.4835777 -4.876556
0000f0 74 3a 9b c0 65 ec a4 c0 8d b5 9a c0 e3 79 ae c0
       -4.8508854 -5.1538568 -4.834662 -5.4523787
000100 ad d8 a7 c0 96 67 ae c0 82 c3 a9 c0 ae 4f 9d c0
       -5.2451997 -5.450145 -5.3051157 -4.9159765
000110 89 17 aa c0 31 c3 ab c0 f9 ab a6 c0 bd 06 99 c0
       -5.315373 -5.367577 -5.2084928 -4.7820725
000120 bb 31 b0 c0 59 e7 a9 c0 1f ac b4 c0 62 a4 b7 c0
       -5.5060706 -5.3094907 -5.646011 -5.7388163
000130 5a d5 ba c0 fb 76 aa c0 42 23 9b c0 2e a5 a3 c0
       -5.838544 -5.327024 -4.848054 -5.1139135
000140 b9 04 b4 c0 38 92 9d c0 ff 05 9a c0 1f 6c a4 c0
       -5.6255765 -4.924099 -4.813232 -5.1381984
000150 86 a5 97 c0 de c3 b3 c0 e6 3b b6 c0 75 f3 b5 c0
       -4.7389555 -5.6176596 -5.694812 -5.685969
000160 83 51 ac c0 40 a5 9f c0 bb 4c ab c0 06 7d b4 c0
       -5.38495 -4.988922 -5.3531165 -5.6402617
000170 a2 ce a4 c0 90 0f a6 c0 55 26 ac c0 24 ed a7 c0
       -5.1502237 -5.1893997 -5.379679 -5.247698
000180 79 e5 ba c0 06 28 b7 c0 bd 04 bb c0 d2 ea a7 c0
       -5.840512 -5.7236357 -5.8443284 -5.2474146
000190 80 3a 98 c0 1d c4 9e c0 27 e2 a7 c0 29 e3 94 c0
       -4.757141 -4.9614396 -5.2463565 -4.6527295
0001a0 2c b7 a1 c0 e6 43 a5 c0 71 a6 99 c0 b5 c6 ac c0
       -5.05361 -5.1645384 -4.8015676 -5.399256
0001b0 f5 61 a8 c0 18 cb ab c0 30 5e ae c0 e8 b8 99 c0
       -5.2619576 -5.3685417 -5.4489975 -4.8038216
0001c0 ea d4 ae c0 8e 04 bd c0 83 99 9e c0 5c 20 9e c0
       -5.4634905 -5.906806 -4.956239 -4.94145
0001d0 55 d7 b0 c0 b4 8a a4 c0 5f 4b bc c0 40 be bc c0
       -5.5262856 -5.1419315 -5.8842006 -5.898224
0001e0 33 f7 bc c0 bd ac b4 c0 ac 57 9e c0 1b 79 ac c0
       -5.9051757 -5.646086 -4.948202 -5.3897834
0001f0 1b 24 ba c0 bb 96 a2 c0 df e7 a8 c0 2d 07 aa c0
       -5.8169074 -5.0808997 -5.2783046 -5.313376
000200 19 ac ab c0 83 c3 b9 c0 dc a8 ba c0 77 17 bc c0
       -5.364758 -5.805116 -5.8331127 -5.8778644
000210 d7 17 a7 c0 31 b0 9c c0 65 ad a7 c0 97 db b6 c0
       -5.22166 -4.8965077 -5.2399163 -5.7143054
000220 49 7e 9f c0 ab 3d aa c0 7a 9b a3 c0 dd ee a4 c0
       -4.9841657 -5.320028 -5.112729 -5.154158
000230 de 11 b9 c0 2a ed b4 c0 77 53 b5 c0 fd 89 ac c0
       -5.783431 -5.6539507 -5.6664386 -5.3918443
000240 42 08 9a c0 0e c4 ac c0 57 e3 b9 c0 b7 00 a1 c0
       -4.813508 -5.3989325 -5.8090014 -5.0313373
000250 93 5f 9c c0 32 66 a6 c0 e8 05 ab c0 73 87 b9 c0
       -4.886667 -5.199975 -5.344471 -5.7977843
000260 32 c5 b8 c0 f0 ad b6 c0 29 15 a5 c0 9d 06 9e c0
       -5.7740717 -5.7087326 -5.158833 -4.9383073
000270 16 fa a4 c0 14 01 b1 c0 7e 5e 97 c0 0b f6 9b c0
       -5.155528 -5.5313816 -4.7302847 -4.8737845
000280 a5 f8 9e c0 b0 43 a0 c0 1e c2 b8 c0 7e 01 b2 c0
       -4.967852 -5.0082626 -5.773696 -5.562682
000290 0b 15 b0 c0 43 9d a4 c0 40 ae 99 c0 40 f6 a4 c0
       -5.5025687 -5.144197 -4.8025208 -5.15506
0002a0 78 c7 ad c0 dc 52 a0 c0 e6 24 9c c0 82 4e a3 c0
       -5.430599 -5.0101147 -4.879504 -5.1033335
0002b0 41 10 a7 c0 1a b7 b3 c0 dc 01 b2 c0 53 ac b9 c0
       -5.220734 -5.6161013 -5.562727 -5.8022857
0002c0 eb c6 ac c0 46 76 9b c0 b1 bf a7 c0 c7 cb b8 c0
       -5.399282 -4.8581877 -5.24215 -5.774875
0002d0 81 1b a0 c0 ba 7a a0 c0 78 91 a7 c0 56 4b a3 c0
       -5.0033574 -5.0149813 -5.2365074 -5.1029463
0002e0 0a 27 b8 c0 1b c0 b4 c0 f7 92 b9 c0 9a 24 9d c0
       -5.7547655 -5.6484504 -5.79919 -4.910718
0002f0 7e 21 9a c0 3c ff 9d c0 0e 79 ad c0 01 9e 99 c0
       -4.8165884 -4.9374065 -5.421027 -4.8005376
000300 78 94 99 c0 49 69 a5 c0 27 50 9f c0 a3 9a b0 c0
       -4.7993736 -5.169102 -4.978534 -5.5188766
000310 28 a0 a5 c0 98 76 ab c0 dd a1 9f c0 f4 b6 9c c0
       -5.1758003 -5.358227 -4.9885087 -4.897333
000320 28 cc a9 c0 55 08 b9 c0 bb a6 a1 c0 2d 4e 9e c0
       -5.3061714 -5.782267 -5.051603 -4.947043
000330 32 c0 a2 c0 ea 43 a5 c0 d9 d6 b6 c0 69 f8 b4 c0
       -5.0859613 -5.1645403 -5.7137265 -5.6553235
000340 62 08 bb c0 17 11 ac c0 4f 9d 97 c0 a6 89 ae c0
       -5.8447733 -5.377086 -4.7379527 -5.454303
000350 4b cd be c0 d3 65 a3 c0 d3 15 a0 c0 a2 81 ab c0
       -5.96256 -5.1061797 -5.002664 -5.3595743
000360 47 52 ae c0 05 6b bb c0 a6 f2 bb c0 94 0c bb c0
       -5.4475436 -5.856814 -5.87337 -5.8452854
000370 be c8 a9 c0 59 ab 99 c0 c1 7f aa c0 c9 ad ae c0
       -5.3057547 -4.8021665 -5.328095 -5.458714
000380 55 80 a4 c0 3a e3 a4 c0 93 41 a9 c0 cf 7f a7 c0
       -5.1406655 -5.1527376 -5.2892547 -5.2343516
000390 7b 26 b7 c0 e8 d3 b0 c0 1c 5c b3 c0 f1 19 9e c0
       -5.7234473 -5.5258675 -5.604994 -4.9406667
0003a0 fc be 9c c0 09 a2 9e c0 1d 2f ab c0 79 9c 9a c0
       -4.8983135 -4.9572797 -5.349501 -4.8316007
0003b0 85 ed 9f c0 a5 07 a1 c0 88 e2 9d c0 d9 a7 af c0
       -4.997744 -5.032183 -4.9339027 -5.489239
0003c0 e8 76 a8 c0 06 28 af c0 10 3c a1 c0 96 b1 98 c0
       -5.264515 -5.4736357 -5.038582 -4.771678
0003d0 66 cf a3 c0 30 5f af c0 82 dd 98 c0 93 7e 9e c0
       -5.119067 -5.4803696 -4.7770395 -4.952951
0003e0 bb 69 a1 c0 72 cc 98 c0 10 49 b0 c0 65 6e aa c0
       -5.0441566 -4.7749567 -5.508919 -5.325976
0003f0 db 21 af c0 d0 67 a3 c0 e9 01 95 c0 a5 42 a1 c0
       -5.4728827 -5.1064224 -4.656483 -5.0393853

blinear1.bias_mu f4 [24]
000000 a8 7f 15 3d 7b 2c 9e 3d 8b 95 c2 3d 4a 20 07 3d
       0.036498696 0.07723328 0.09501179 0.032989778
000010 4c c3 22 3e dc 0a 44 3d e5 67 7b 3d e7 9f 56 3d
       0.15894812 0.04786192 0.06137838 0.05239859
000020 fe 9f 0e 3e 6d 9e ba 3c 32 95 87 3d 3b a6 8f 3d
       0.1392822 0.022780621 0.066202536 0.07014128
000030 ff eb fe 3b 8d 36 a6 3d 09 a3 6f 3d 0c 5c 65 bb
       0.007779598 0.081158735 0.05850509 -0.0034997491
000040 98 20 3a 3e 7f 60 e5 3c 1e 60 e3 bc 08 6b 84 3d
       0.18176496 0.028000114 -0.027755793 0.06465727
000050 03 88 63 3d a7 3e 4e bc 8d 3c d7 bb f2 c2 ee 3c
       0.055549633 -0.01258818 -0.0065684975 0.029145692

blinear1.bias_rho f4 [24]
000000 b7 d8 9f c0 17 aa a0 c0 df 61 97 c0 fe 1c a0 c0
       -4.9952044 -5.020763 -4.730697 -5.003539
000010 32 b9 9b c0 40 70 9a c0 ea 9b 9b c0 10 38 a0 c0
       -4.866357 -4.8262024 -4.8627825 -5.0068436
000020 1f c7 a1 c0 e5 e3 97 c0 82 16 a2 c0 f0 e2 a2 c0
       -5.055557 -4.746569 -5.0652475 -5.0902023
000030 fc ea 99 c0 52 c6 a3 c0 4b f7 9d c0 51 fb 97 c0
       -4.8099346 -5.117959 -4.936437 -4.7494283
000040 65 0c 9a c0 18 95 9c c0 8b d8 9a c0 11 5b 9e c0
       -4.814013 -4.8932 -4.8389335 -4.9486165
000050 50 38 95 c0 58 70 9a c0 a4 0a 97 c0 84 0d 9d c0
       -4.663124 -4.826214 -4.720049 -4.9079

blinear1.weight_sampler.mu f4 [24, 11]
000000 2d 87 15 3e 75 a3 de 3b 94 43 0b 3d 7d f3 96 3d
       0.14602347 0.006794388 0.033999994 0.073706605
000010 cf 97 67 3c 8c 17 19 be 53 fd 25 3d d0 e3 a4 bd
       0.014135315 -0.14950389 0.040524792 -0.08051264
000020 ef ff 92 3c 89 9c 06 3e 9e a7 2a bd 88 5a eb 3d
       0.017944304 0.13145651 -0.04166376 0.11491877
000030 20 6d 79 bc 38 5f 68 3e 00 c0 e9 bd 0e cb a4 3c
       -0.015223771 0.22692573 -0.11413574 0.020116355
000040 84 61 23 3d 05 4b 09 3b 91 44 1b 3e 03 82 67 3e
       0.03988792 0.0020949256 0.15162875 0.2260819
000050 ab 3f 35 bd dd 56 10 3e d4 fe 5c be d0 84 b8 3c
       -0.04425017 0.14095636 -0.21581584 0.022524267
000060 8b 40 9a 3e d0 57 3e 3c 21 42 18 3d 79 cc a3 bc
       0.30127367 0.011617616 0.03717244 -0.019994961
000070 e7 53 ef 3d b9 e8 0b be 08 5e 4c 3e a0 10 19 3e
       0.11685925 -0.13662995 0.19957745 0.14947748
000080 74 f7 ec bc 11 ea 75 3e 5a 4d 09 3b 43 b6 ae 3d
       -0.028926589 0.2401507 0.0020950646 0.085308574
000090 a6 04 98 3d b6 85 1f bb 28 01 3f be f1 96 dc 3c
       0.074227616 -0.0024341173 -0.18652785 0.026927443
0000a0 8f 0d 5f be ea f9 43 3c 3d 75 33 3e d5 e6 34 bd
       -0.21782516 0.01196144 0.17525192 -0.04416545
0000b0 2a cd fd 3d 0f ab 85 3c c3 2a 22 3e a8 68 a4 3b
       0.123926476 0.016316919 0.15836625 0.005017359
0000c0 76 ba dc 3b dc cd 40 be 5a 3a 2e 3e ee 31 00 be
       0.006736095 -0.18828529 0.17014447 -0.12519047
0000d0 cb 2a ec 3d 30 ac 68 3d 77 ad e0 bd 16 a7 53 3e
       0.115315996 0.056804836 -0.10970586 0.20669207
0000e0 c0 23 e2 bc e7 23 cf 3e cd fe d6 3c f6 14 20 be
       -0.027604938 0.4045708 0.026244545 -0.15632996
0000f0 86 f0 0f be 9a 69 49 3c 97 50 10 3d 25 27 88 be
       -0.14056596 0.012293244 0.035233106 -0.26592365
000100 71 e5 a4 bd 7c 1a 68 3e ab cb ca 3d ba f0 d0 bb
       -0.08051575 0.22666353 0.09902128 -0.006376353
000110 de fa 05 3c 56 fc 0d be 9a 4a aa 3d 85 1b c9 3c
       0.008177487 -0.1386579 0.0831501 0.024549255
000120 cc 6d 7d 3e 01 a2 1c 3e 6f 77 8c 3d 96 21 8f be
       0.24748915 0.15296175 0.06858718 -0.27955312
000130 c3 7d 0f be b7 44 b7 3d 5e a1 4c 3d 36 9f de bd
       -0.14012818 0.08948653 0.04995858 -0.10870211
000140 c7 0a 25 3e 54 ae 90 ba 9e 2b 92 3d 5a d4 bc bd
       0.16117392 -0.0011038282 0.071372256 -0.0922019
000150 c2 fa 7e bd 63 a0 33 3e f7 52 60 be b9 97 b9 3e
       -0.06225086 0.17541651 -0.21906649 0.36248568
000160 37 3a 1f 3d 09 cf 81 3d e2 1b 57 3d e3 36 d1 3d
       0.038873877 0.06338317 0.052516825 0.10215547
000170 e9 d0 35 3d 21 0a 8f bd 2e 00 9b 3c fc af 3d bd
       0.044388685 -0.06984354 0.018920984 -0.04631041
000180 36 9c e9 3d 90 2b 2b 3e 30 98 96 3d 4c b2 4a 3e
       0.11406748 0.16715837 0.07353246 0.19794577
000190 1a 3a fc bc 44 f1 ae 3c 2d c3 94 3d b3 0a 04 be
       -0.030789424 0.021355279 0.07263789 -0.12894706
0001a0 60 99 35 be 9e bf 8e 3d ba 57 28 3d 16 99 22 be
       -0.17734289 0.06970142 0.041099288 -0.1587871
0001b0 ba 73 f4 bd a8 1f 18 3e d6 30 a5 3d 0a b2 24 bd
       -0.119361356 0.14855826 0.08065955 -0.040208854
0001c0 18 05 2b be 77 16 ac 3e c7 e7 d1 3c ef 1e 09 be
       -0.16701162 0.3361089 0.025623215 -0.13390706
0001d0 5a d9 24 3e 54 dc 06 be 69 21 11 3e 49 4e 33 3e
       0.16098538 -0.13169986 0.14172901 0.17510332
0001e0 ce 42 0a 3e 30 c7 9e 3e 69 ac 4c 3c fa cb 17 be
       0.13502046 0.31011343 0.012492278 -0.14823905
0001f0 e9 da 99 3e 05 e6 06 3d 04 32 0f 3d 38 69 67 3d
       0.30049828 0.032934207 0.034959808 0.05649683
000200 05 ae 41 be 0f b1 7b 3e 18 cb 60 3d 0b d7 a2 3d
       -0.1891404 0.24579261 0.054881185 0.079511724
000210 d5 0f 02 3e ec 05 a8 3b 9e e8 f7 bb 5c 6a 04 3d
       0.12701352 0.005127659 -0.007565572 0.032327995
000220 56 1b 84 3d ab f6 db bd 65 5d c9 bd 08 95 b7 bc
       0.064505264 -0.107404076 -0.09832267 -0.02240993
000230 4f e6 8b 3e ef f5 94 3e 7c cf 26 be a3 8a 68 3d
       0.2732415 0.29093882 -0.16290087 0.05677284
000240 a6 bf 68 bb 5d 6a 3c 3e 9a 62 ce bd ca dc 9c 3a
       -0.0035514622 0.1839995 -0.100774005 0.0011967656
000250 11 fa c9 3c 2f 5c a7 bd 3b 76 42 3e f0 86 87 3e
       0.024655374 -0.081718795 0.18990414 0.26470137
000260 13 89 28 be 54 c8 d8 3d 28 eb 50 3e d5 8f 6b 3d
       -0.1645854 0.105850846 0.20402205 0.057510216
000270 92 a3 34 3e e4 7d 04 3e e2 74 48 bd 21 bc 00 be
       0.17640522 0.12938648 -0.048939593 -0.12571765
000280 cc cb 07 be e3 71 b3 bd c0 b1 b6 3d f9 f8 f4 bd
       -0.13261336 -0.087619565 0.08920622 -0.1196155
000290 8c 16 38 be ac df bf bd ab 0b d3 ba 5b a8 58 3e
       -0.17977351 -0.09368834 -0.00161015 0.21157973
0002a0 26 70 3d be c7 fa d7 3b d9 4c 83 3b ec 48 80 3b
       -0.18499812 0.0065911743 0.0040069637 0.003914943
0002b0 fc bf 1c 3e 64 ad 68 3e 37 f6 8c be 85 d5 17 be
       0.15307611 0.22722393 -0.27531597 -0.14827545
0002c0 94 4d 87 bb a7 d9 5e bd ac 0a 4a 3d 9e f9 df 3d
       -0.004129121 -0.05440679 0.049326584 0.109362826
0002d0 e5 8e 18 3c 8a d8 8d bd 49 d3 c3 3d 43 00 c9 bd
       0.009311412 -0.06926067 0.09561784 -0.09814503
0002e0 f8 b3 23 3e b8 0b 93 bc da 75 87 3d 77 e7 09 3e
       0.15986621 -0.017949924 0.06614275 0.13467203
0002f0 04 9c 31 3a 96 3c 83 3a 9c 94 55 3b 4a 61 e4 bb
       0.00067752623 0.0010012563 0.0032589799 -0.0069696056
000300 fc 3b eb bd 1f c0 23 3d dd b9 39 3d 0f 54 10 bd
       -0.114860505 0.039978143 0.04534327 -0.035236415
000310 57 41 2c 3e 46 67 96 bd 5b 57 39 be ed 89 32 bc
       0.168218 -0.073439166 -0.1809973 -0.010897142
000320 2c fe 3f be 19 97 a9 3e d4 de 9b 3d 72 30 ca bc
       -0.18749303 0.3312309 0.076108605 -0.024681304
000330 23 d2 ea 3d fd 5b 09 3d dc c0 26 3e 1f 55 c5 3c
       0.11465862 0.033534992 0.16284508 0.02408844
000340 ba 4f 33 bd 96 55 38 3d d7 75 5e bd d7 65 c5 3d
       -0.043777205 0.045003496 -0.0543116 0.09638565
000350 c9 85 70 3e f0 bf 0f bd 68 c2 87 bd f6 b1 48 bd
       0.23488535 -0.035095155 -0.06628877 -0.04899784
000360 16 c5 35 be 9e b2 44 3e 9a 28 08 3e ab d9 bb bd
       -0.17750964 0.19208762 0.13296738 -0.09172376
000370 af ff 5c 3e e9 3e f8 bb 62 a4 8b 3d 74 8c 12 3e
       0.2158191 -0.007575859 0.06818463 0.14311391
000380 0a 84 1c 3a 4b 46 40 be e6 e4 7c 3d 79 3c a7 bd
       0.0005970603 -0.18776815 0.061741732 -0.08165831
000390 e4 b8 53 bd 9b 48 d9 3d 49 78 1c bb 63 2e 13 be
       -0.051689997 0.106095515 -0.0023875406 -0.14373164
0003a0 4b 53 40 3d 2a c3 ea 3d b5 8c d0 3d 70 3d 20 3d
       0.046954434 0.11463006 0.10183088 0.03912109
0003b0 98 a3 f9 bc 12 a5 be bc 6f 35 46 bb bb d6 46 3e
       -0.030473515 -0.023272071 -0.0030244251 0.1941785
0003c0 dc 00 d3 3d 12 b9 10 be 73 aa 1b 3d 78 70 1a 3d
       0.10302898 -0.14133099 0.03800435 0.037704915
0003d0 7b d4 a4 bc a7 33 de 3d 43 42 04 3c 7d 38 12 3e
       -0.02012085 0.10849696 0.008072439 0.14279361
0003e0 ee eb 43 be c6 19 0a bd 36 ef 4a 3d 7e 61 11 3d
       -0.19132969 -0.033715986 0.049544536 0.035493366
0003f0 b9 a7 7f 3e 53 d5 8a bd d2 65 cf bc d4 67 89 bd
       0.24966325 -0.067789696 -0.025317106 -0.06709257

blinear1.weight_sampler.rho f4 [24, 11]
000000 db 6a a2 c0 15 5c 9b c0 b8 e1 a5 c0 ee d8 b5 c0
       -5.075544 -4.8549905 -5.1838036 -5.6827307
000010 e8 9b 9d c0 ae 4d 9a c0 ee d7 ac c0 5c b2 a4 c0
       -4.9252815 -4.8219824 -5.4013586 -5.1467724
000020 21 74 b4 c0 ac f6 b3 c0 e2 83 b4 c0 84 a4 b1 c0
       -5.639176 -5.6238613 -5.641099 -5.5513325
000030 96 a0 98 c0 6b 62 aa c0 1d 16 b5 c0 89 cd a4 c0
       -4.769603 -5.324514 -5.6589494 -5.1500897
000040 1f 3d 98 c0 d8 c6 a7 c0 20 8a ac c0 e1 b7 b5 c0
       -4.757461 -5.243023 -5.391861 -5.678696
000050 c4 94 b6 c0 06 06 bb c0 9d 55 a6 c0 d1 75 9b c0
       -5.70566 -5.8444853 -5.197951 -4.858132
000060 eb f1 aa c0 2a ab b6 c0 45 10 a1 c0 52 8e 9e c0
       -5.342031 -5.708394 -5.033236 -4.954873
000070 68 42 ac c0 36 61 a7 c0 e6 ed b9 c0 dc 4d b8 c0
       -5.383106 -5.2306166 -5.8102903 -5.7595043
000080 d5 ef ba c0 b0 51 a9 c0 71 95 98 c0 7e b0 ab c0
       -5.8417764 -5.2912216 -4.7682424 -5.3652945
000090 e8 67 b8 c0 bb d1 9c c0 4c 54 a4 c0 59 1a ac c0
       -5.762684 -4.900602 -5.13529 -5.3782163
0000a0 a4 5c aa c0 55 4a b5 c0 06 0d b3 c0 4d 9c b5 c0
       -5.3238087 -5.6653237 -5.59534 -5.6753297
0000b0 f5 1b aa c0 8d 00 9c c0 27 f5 ac c0 7d 5b b8 c0
       -5.3159127 -4.875067 -5.404926 -5.761168
0000c0 c1 a1 a5 c0 96 01 a4 c0 99 c9 af c0 80 83 a6 c0
       -5.1759953 -5.1251936 -5.493359 -5.2035522
0000d0 18 ca b9 c0 1f 52 b6 c0 45 73 b8 c0 d4 4e a3 c0
       -5.8059196 -5.6975245 -5.764071 -5.1033726
0000e0 1e 90 9c c0 8e 51 aa c0 78 79 af c0 bf 0c 9c c0
       -4.8925924 -5.3224554 -5.4835777 -4.876556
0000f0 74 3a 9b c0 65 ec a4 c0 8d b5 9a c0 e3 79 ae c0
       -4.8508854 -5.1538568 -4.834662 -5.4523787
000100 ad d8 a7 c0 96 67 ae c0 82 c3 a9 c0 ae 4f 9d c0
       -5.2451997 -5.450145 -5.3051157 -4.9159765
000110 89 17 aa c0 31 c3 ab c0 f9 ab a6 c0 bd 06 99 c0
       -5.315373 -5.367577 -5.2084928 -4.7820725
000120 bb 31 b0 c0 59 e7 a9 c0 1f ac b4 c0 62 a4 b7 c0
       -5.5060706 -5.3094907 -5.646011 -5.7388163
000130 5a d5 ba c0 fb 76 aa c0 42 23 9b c0 2e a5 a3 c0
       -5.838544 -5.327024 -4.848054 -5.1139135
000140 b9 04 b4 c0 38 92 9d c0 ff 05 9a c0 1f 6c a4 c0
       -5.6255765 -4.924099 -4.813232 -5.1381984
000150 86 a5 97 c0 de c3 b3 c0 e6 3b b6 c0 75 f3 b5 c0
       -4.7389555 -5.6176596 -5.694812 -5.685969
000160 83 51 ac c0 40 a5 9f c0 bb 4c ab c0 06 7d b4 c0
       -5.38495 -4.988922 -5.3531165 -5.6402617
000170 a2 ce a4 c0 90 0f a6 c0 55 26 ac c0 24 ed a7 c0
       -5.1502237 -5.1893997 -5.379679 -5.247698
000180 79 e5 ba c0 06 28 b7 c0 bd 04 bb c0 d2 ea a7 c0
       -5.840512 -5.7236357 -5.8443284 -5.2474146
000190 80 3a 98 c0 1d c4 9e c0 27 e2 a7 c0 29 e3 94 c0
       -4.757141 -4.9614396 -5.2463565 -4.6527295
0001a0 2c b7 a1 c0 e6 43 a5 c0 71 a6 99 c0 b5 c6 ac c0
       -5.05361 -5.1645384 -4.8015676 -5.399256
0001b0 f5 61 a8 c0 18 cb ab c0 30 5e ae c0 e8 b8 99 c0
       -5.2619576 -5.3685417 -5.4489975 -4.8038216
0001c0 ea d4 ae c0 8e 04 bd c0 83 99 9e c0 5c 20 9e c0
       -5.4634905 -5.906806 -4.956239 -4.94145
0001d0 55 d7 b0 c0 b4 8a a4 c0 5f 4b bc c0 40 be bc c0
       -5.5262856 -5.1419315 -5.8842006 -5.898224
0001e0 33 f7 bc c0 bd ac b4 c0 ac 57 9e c0 1b 79 ac c0
       -5.9051757 -5.646086 -4.948202 -5.3897834
0001f0 1b 24 ba c0 bb 96 a2 c0 df e7 a8 c0 2d 07 aa c0
       -5.8169074 -5.0808997 -5.2783046 -5.313376
000200 19 ac ab c0 83 c3 b9 c0 dc a8 ba c0 77 17 bc c0
       -5.364758 -5.805116 -5.8331127 -5.8778644
000210 d7 17 a7 c0 31 b0 9c c0 65 ad a7 c0 97 db b6 c0
       -5.22166 -4.8965077 -5.2399163 -5.7143054
000220 49 7e 9f c0 ab 3d aa c0 7a 9b a3 c0 dd ee a4 c0
       -4.9841657 -5.320028 -5.112729 -5.154158
000230 de 11 b9 c0 2a ed b4 c0 77 53 b5 c0 fd 89 ac c0
       -5.783431 -5.6539507 -5.6664386 -5.3918443
000240 42 08 9a c0 0e c4 ac c0 57 e3 b9 c0 b7 00 a1 c0
       -4.813508 -5.3989325 -5.8090014 -5.0313373
000250 93 5f 9c c0 32 66 a6 c0 e8 05 ab c0 73 87 b9 c0
       -4.886667 -5.199975 -5.344471 -5.7977843
000260 32 c5 b8 c0 f0 ad b6 c0 29 15 a5 c0 9d 06 9e c0
       -5.7740717 -5.7087326 -5.158833 -4.9383073
000270 16 fa a4 c0 14 01 b1 c0 7e 5e 97 c0 0b f6 9b c0
       -5.155528 -5.5313816 -4.7302847 -4.8737845
000280 a5 f8 9e c0 b0 43 a0 c0 1e c2 b8 c0 7e 01 b2 c0
       -4.967852 -5.0082626 -5.773696 -5.562682
000290 0b 15 b0 c0 43 9d a4 c0 40 ae 99 c0 40 f6 a4 c0
       -5.5025687 -5.144197 -4.8025208 -5.15506
0002a0 78 c7 ad c0 dc 52 a0 c0 e6 24 9c c0 82 4e a3 c0
       -5.430599 -5.0101147 -4.879504 -5.1033335
0002b0 41 10 a7 c0 1a b7 b3 c0 dc 01 b2 c0 53 ac b9 c0
       -5.220734 -5.6161013 -5.562727 -5.8022857
0002c0 eb c6 ac c0 46 76 9b c0 b1 bf a7 c0 c7 cb b8 c0
       -5.399282 -4.8581877 -5.24215 -5.774875
0002d0 81 1b a0 c0 ba 7a a0 c0 78 91 a7 c0 56 4b a3 c0
       -5.0033574 -5.0149813 -5.2365074 -5.1029463
0002e0 0a 27 b8 c0 1b c0 b4 c0 f7 92 b9 c0 9a 24 9d c0
       -5.7547655 -5.6484504 -5.79919 -4.910718
0002f0 7e 21 9a c0 3c ff 9d c0 0e 79 ad c0 01 9e 99 c0
       -4.8165884 -4.9374065 -5.421027 -4.8005376
000300 78 94 99 c0 49 69 a5 c0 27 50 9f c0 a3 9a b0 c0
       -4.7993736 -5.169102 -4.978534 -5.5188766
000310 28 a0 a5 c0 98 76 ab c0 dd a1 9f c0 f4 b6 9c c0
       -5.1758003 -5.358227 -4.9885087 -4.897333
000320 28 cc a9 c0 55 08 b9 c0 bb a6 a1 c0 2d 4e 9e c0
       -5.3061714 -5.782267 -5.051603 -4.947043
000330 32 c0 a2 c0 ea 43 a5 c0 d9 d6 b6 c0 69 f8 b4 c0
       -5.0859613 -5.1645403 -5.7137265 -5.6553235
000340 62 08 bb c0 17 11 ac c0 4f 9d 97 c0 a6 89 ae c0
       -5.8447733 -5.377086 -4.7379527 -5.454303
000350 4b cd be c0 d3 65 a3 c0 d3 15 a0 c0 a2 81 ab c0
       -5.96256 -5.1061797 -5.002664 -5.3595743
000360 47 52 ae c0 05 6b bb c0 a6 f2 bb c0 94 0c bb c0
       -5.4475436 -5.856814 -5.87337 -5.8452854
000370 be c8 a9 c0 59 ab 99 c0 c1 7f aa c0 c9 ad ae c0
       -5.3057547 -4.8021665 -5.328095 -5.458714
000380 55 80 a4 c0 3a e3 a4 c0 93 41 a9 c0 cf 7f a7 c0
       -5.1406655 -5.1527376 -5.2892547 -5.2343516
000390 7b 26 b7 c0 e8 d3 b0 c0 1c 5c b3 c0 f1 19 9e c0
       -5.7234473 -5.5258675 -5.604994 -4.9406667
0003a0 fc be 9c c0 09 a2 9e c0 1d 2f ab c0 79 9c 9a c0
       -4.8983135 -4.9572797 -5.349501 -4.8316007
0003b0 85 ed 9f c0 a5 07 a1 c0 88 e2 9d c0 d9 a7 af c0
       -4.997744 -5.032183 -4.9339027 -5.489239
0003c0 e8 76 a8 c0 06 28 af c0 10 3c a1 c0 96 b1 98 c0
       -5.264515 -5.4736357 -5.038582 -4.771678
0003d0 66 cf a3 c0 30 5f af c0 82 dd 98 c0 93 7e 9e c0
       -5.119067 -5.4803696 -4.7770395 -4.952951
0003e0 bb 69 a1 c0 72 cc 98 c0 10 49 b0 c0 65 6e aa c0
       -5.0441566 -4.7749567 -5.508919 -5.325976
0003f0 db 21 af c0 d0 67 a3 c0 e9 01 95 c0 a5 42 a1 c0
       -5.4728827 -5.1064224 -4.656483 -5.0393853

blinear1.weight_sampler.eps_w f4 [24, 11]
000000 a6 14 98 bf 0b 1e d8 3e c2 94 0a 3f bc 43 8e 3e
       -1.1881301 0.4221042 0.54133236 0.27786052
000010 ff c1 b4 be 72 f9 bc 3e dc 16 fd 3e 93 ed 73 be
       -0.35304257 0.36909062 0.49431503 -0.23821096
000020 8c b1 90 3e a5 13 88 bf ce 8d d6 3f f8 49 1b 40
       0.28260458 -1.0630995 1.6762025 2.4263897
000030 87 1e ec 3e 17 71 0b c0 75 e3 51 bf ce ba 8b 3e
       0.4611704 -2.1787775 -0.81987697 0.27290958
000040 ce 97 46 bf 58 d3 a8 3f 10 6a ac bd 20 26 07 3f
       -0.77575386 1.3189497 -0.08418667 0.5279255
000050 ac 86 2e 3e a9 2f 35 bf cc 80 a9 3e 7a 60 a1 bf
       0.1704356 -0.7077585 0.33106077 -1.2607567
000060 3d c2 7e bd 89 7e cd 3f fe 0e 84 bf a0 d1 a7 bf
       -0.06219696 1.605424 -1.0317075 -1.3110847
000070 6b 3e 56 3f 41 51 6a bf b2 79 9c 3d f1 b6 b4 3f
       0.8368899 -0.91530234 0.07640399 1.4118329
000080 2c 5d c7 3e 17 3e 83 bf c8 36 42 bf f0 dd 8e 3f
       0.38938272 -1.0253323 -0.7586484 1.116148
000090 e6 81 8c 3f e7 70 c7 3f 9c ae 54 3f aa 53 0c 3f
       1.0977142 1.558133 0.8307893 0.5481516
0000a0 09 27 7d bf 90 1a 08 bd 31 f1 14 3e fc d6 b6 be
       -0.9888769 -0.033228457 0.14545132 -0.35710895
0000b0 5d a9 0b bf 73 be 69 3f 5e 95 17 3d 73 90 74 3d
       -0.545553 0.9130623 0.037007682 0.05970807
0000c0 9d 46 ef bf 50 f9 0a 3e c1 64 0a 3f ba 20 96 3d
       -1.8693424 0.13571668 0.5405999 0.07330461
0000d0 a3 42 ac 3d ec 9c 3a bf 0e 81 f8 be 56 22 8c 3f
       0.084111474 -0.72895694 -0.4853596 1.0947978
0000e0 d3 ec 81 bf e9 88 12 bd c4 81 c2 3e 9e 4c 58 bf
       -1.0150398 -0.0357751 0.37989628 -0.8449191
0000f0 d6 35 93 3e 37 38 4e bf 20 89 d0 bc d2 f4 cd be
       0.2875201 -0.8055453 -0.025456011 -0.40225846
000100 49 11 5e bf b3 5e d9 3e 82 53 8d 3f 97 0e 77 3f
       -0.86745125 0.42455062 1.104111 0.9650664
000110 3d 02 be be 74 25 1a bf f9 c8 21 bf ea 7d de 3e
       -0.37111083 -0.602134 -0.63197285 0.4345544
000120 a6 75 98 bf 63 7b 2e bf 22 19 8f 3e 39 e7 a3 3e
       -1.1910903 -0.68157023 0.27948862 0.32012346
000130 b0 e7 0b be 5f 64 86 be ba b9 05 c0 5c a2 ad 3e
       -0.136626 -0.26248452 -2.0894608 0.33912933
000140 70 36 6c bf 3f a4 27 c0 e4 8f ac be 42 78 82 bf
       -0.92270565 -2.6193998 -0.3370353 -1.019295
000150 82 4c 02 bf 05 4c a3 3e 96 39 ac be 92 08 86 be
       -0.5089799 0.31893936 -0.33637685 -0.26178414
000160 62 e4 32 be ec 53 7d bf d7 3b 83 3f 48 c4 86 bd
       -0.17469934 -0.9895618 1.0252637 -0.065804064
000170 9d b7 95 bf 5c 32 92 bf d4 75 38 bf 59 a0 ec 3f
       -1.1696659 -1.1421618 -0.7205479 1.8486434
000180 49 a5 93 bf 69 a4 8a be 63 f2 8c be 1f 2c 80 bf
       -1.1534816 -0.2707856 -0.27528676 -1.0013465
000190 bb ba 52 3f c8 53 c7 3e 3c 70 2f 3f cf ea 91 3e
       0.8231618 0.38931108 0.6853063 0.28499457
0001a0 ec 96 fe bd 0a 19 d7 be ba d4 21 3f e6 b2 4b bf
       -0.1243113 -0.4201129 0.6321522 -0.7956985
0001b0 89 13 5c be 8d 5f 4d bd bc 16 43 c0 d7 a0 b5 3e
       -0.21491827 -0.050139952 -3.0482626 0.35474274
0001c0 e2 b7 f4 bf 5c 43 1d be 4a 15 20 bf 3b 72 f4 be
       -1.9118617 -0.15357727 -0.62532485 -0.477434
0001d0 31 62 ef be d5 09 3b 3f f7 09 a4 bf e0 17 39 c0
       -0.46754602 0.7306188 -1.2815541 -2.8920822
0001e0 ea 92 40 bf 8d 8d 13 3e a4 c4 83 3f 52 2f 3f 3f
       -0.75224173 0.14409466 1.0294385 0.7468158
0001f0 ee 49 b1 be 03 d7 02 c0 98 87 ab bd 23 0d cc be
       -0.34626716 -2.0443733 -0.08375472 -0.39853773
000200 8a 95 58 be bf 31 06 c0 ae 57 88 be a8 5e c4 be
       -0.21150795 -2.0967863 -0.26629394 -0.38353467
000210 54 67 1c 3f 19 57 8a bf 8c 16 b1 3e 21 4f 0f bf
       0.61095166 -1.080783 0.34587514 -0.55980116
000220 7e 66 80 bf 66 94 37 3f 1a 58 ec 3d 6b 31 a2 be
       -1.0031278 0.71710813 0.115402415 -0.31678328
000230 0e 1c 88 bf b9 e7 1e 3f d3 4f 9a 3f 84 fb f1 3f
       -1.0633562 0.6207233 1.205561 1.8904881
000240 3e 23 e0 3f b7 79 86 be 61 31 df bf 95 72 e4 3f
       1.7510755 -0.26264736 -1.7436944 1.7847468
000250 bc 6e 47 3f 1a 4e 24 3f d9 1b 1d 3f ee 75 0b 3f
       0.7790334 0.64181674 0.6137062 0.5447682
000260 aa 66 23 3f 3f 3c c4 3e ef 9a 0a bf 09 b3 c7 bf
       0.6382853 0.38327214 -0.5414266 -1.5601512
000270 a9 ae 71 3f 44 c4 10 40 6d 58 eb be de b8 b2 bf
       0.94407135 2.261979 -0.459659 -1.3962667
000280 1b bb 47 bf 5f 3d b7 3e b7 c4 9c 3c fe c9 62 bf
       -0.78019875 0.3578901 0.01913677 -0.88589466
000290 7c f0 7d 3f 77 8e 02 3f 12 bc 42 bf 02 c3 ca bf
       0.99195075 0.50998634 -0.7606822 -1.5840762
0002a0 ee 6d ac 3d 28 fe f5 3e 7d cf b1 3f b8 c6 1d be
       0.08419405 0.48045468 1.3891445 -0.15407836
0002b0 2c 40 f0 3c 78 f4 48 3d cc 56 e7 bf cc 55 cf 3f
       0.029327475 0.04906127 -1.8073363 1.6198058
0002c0 23 84 d3 3f d4 0e 04 bf d7 0d bf 3e 29 09 e4 3e
       1.65247 -0.51585126 0.37315246 0.4453824
0002d0 be f7 35 3e 6a 6a 0f c0 9e 3b 33 c0 65 a7 8c 3e
       0.17770287 -2.24087 -2.8005137 0.27471462
0002e0 03 65 b7 3f d8 4f 83 be 0d da 31 3f 22 f2 67 3e
       1.4327701 -0.25646853 0.69473344 0.2265096
0002f0 2d 6b d4 3d 40 e7 92 3e 54 6a 16 be e9 3d 50 3f
       0.10372005 0.28692055 -0.14688998 0.8134447
000300 64 b8 b0 3f 00 c1 73 bd dc ac 61 bf 96 11 dc 3e
       1.3806272 -0.05951023 -0.8815439 0.42982167
000310 8c 30 1e bf 1b 29 0c 3f 2e f9 e5 be 06 2c 59 bf
       -0.61792827 0.5475022 -0.44916672 -0.848328
000320 81 88 e7 3d b1 61 49 bf d7 c2 97 bf 62 c5 6b bf
       0.11305333 -0.7866469 -1.1856335 -0.9209806
000330 76 1a 4a 3f 23 62 96 be 84 c7 63 bf 58 a9 29 3f
       0.78946626 -0.29371747 -0.8897631 0.66274023
000340 04 fa 10 40 1f 06 05 40 4d b2 3b be 03 a0 dc 3e
       2.2652597 2.0784986 -0.18329735 0.4309083
000350 a0 74 85 3f 07 e5 ce be 61 32 c9 bf aa 9f d1 bf
       1.0426216 -0.4040911 -1.57185 -1.6376851
000360 1d 55 37 bf 0e 03 00 3e 76 27 28 be 56 a7 8f 3d
       -0.7161425 0.12501165 -0.16421303 0.07014339
000370 5f ea 8d bf b2 12 d1 bf ad 26 71 bf 5d dd 22 3f
       -1.1087149 -1.633383 -0.9419964 0.63619024
000380 e2 2c a6 bf d3 e1 7d 3f b4 ea 99 bf 23 7f bf be
       -1.2982447 0.99172705 -1.2024751 -0.37401685
000390 d9 8c 6b be 39 f5 eb bf 26 cc 62 bf 8e 02 52 bf
       -0.23002948 -1.8434211 -0.88592756 -0.8203515
0003a0 6b b3 30 3e 3f 50 75 3f 69 26 fc 3e 44 71 88 be
       0.17255943 0.9582557 0.49248055 -0.26648915
0003b0 80 de f8 3e 59 0b 68 bf 66 fc 02 3f 2a 05 8f 3e
       0.48607254 -0.90642315 0.5116638 0.27933627
0003c0 a8 ff b7 3f c0 b3 03 3f f2 19 8d 3d 0c 71 c0 3f
       1.4374895 0.5144615 0.06889714 1.5034499
0003d0 76 de 26 3f d8 86 10 c0 19 5f d1 bd 50 c3 2d bf
       0.651832 -2.2582302 -0.102232166 -0.6787615
0003e0 da 7b 0c be 74 4c 06 be 41 e8 84 3f 31 dd c4 3e
       -0.1371912 -0.13115102 1.0383378 0.38450006
0003f0 9d 73 00 40 82 7b 14 3f 0b ae e1 3d 69 12 81 bf
       2.0070565 0.5800096 0.11019524 -1.0083743

blinear1.bias_sampler.mu f4 [24]
000000 a8 7f 15 3d 7b 2c 9e 3d 8b 95 c2 3d 4a 20 07 3d
       0.036498696 0.07723328 0.09501179 0.032989778
000010 4c c3 22 3e dc 0a 44 3d e5 67 7b 3d e7 9f 56 3d
       0.15894812 0.04786192 0.06137838 0.05239859
000020 fe 9f 0e 3e 6d 9e ba 3c 32 95 87 3d 3b a6 8f 3d
       0.1392822 0.022780621 0.066202536 0.07014128
000030 ff eb fe 3b 8d 36 a6 3d 09 a3 6f 3d 0c 5c 65 bb
       0.007779598 0.081158735 0.05850509 -0.0034997491
000040 98 20 3a 3e 7f 60 e5 3c 1e 60 e3 bc 08 6b 84 3d
       0.18176496 0.028000114 -0.027755793 0.06465727
000050 03 88 63 3d a7 3e 4e bc 8d 3c d7 bb f2 c2 ee 3c
       0.055549633 -0.01258818 -0.0065684975 0.029145692

blinear1.bias_sampler.rho f4 [24]
000000 b7 d8 9f c0 17 aa a0 c0 df 61 97 c0 fe 1c a0 c0
       -4.9952044 -5.020763 -4.730697 -5.003539
000010 32 b9 9b c0 40 70 9a c0 ea 9b 9b c0 10 38 a0 c0
       -4.866357 -4.8262024 -4.8627825 -5.0068436
000020 1f c7 a1 c0 e5 e3 97 c0 82 16 a2 c0 f0 e2 a2 c0
       -5.055557 -4.746569 -5.0652475 -5.0902023
000030 fc ea 99 c0 52 c6 a3 c0 4b f7 9d c0 51 fb 97 c0
       -4.8099346 -5.117959 -4.936437 -4.7494283
000040 65 0c 9a c0 18 95 9c c0 8b d8 9a c0 11 5b 9e c0
       -4.814013 -4.8932 -4.8389335 -4.9486165
000050 50 38 95 c0 58 70 9a c0 a4 0a 97 c0 84 0d 9d c0
       -4.663124 -4.826214 -4.720049 -4.9079

blinear1.bias_sampler.eps_w f4 [24]
000000 61 1c db be e1 0a bc be c1 b0 36 bf d6 1f bf be
       -0.4279509 -0.3672705 -0.71363455 -0.37328976
000010 8f c6 be bf 69 e0 ca 3c 17 91 d9 3e e5 4d d7 bf
       -1.4904345 0.02476521 0.42493507 -1.6820647
000020 86 65 1a bf b6 89 32 3e f1 9a 9b be d8 c4 7a bf
       -0.6031116 0.17435345 -0.30391648 -0.9795661
000030 8a 42 c0 3d a0 fb 1b bf f8 d4 ef 3d ae df 04 40
       0.09387691 -0.60930824 0.117105424 2.0761523
000040 b9 dd 08 bd ef 15 b0 3c 18 61 7d bd 39 67 b5 3e
       -0.033414576 0.021494834 -0.061860174 0.35430315
000050 61 7e 0f 3f 2e 7a 24 3c e2 ac 4b be 78 6d cd 3f
       0.56052214 0.0100388955 -0.19890168 1.6049032

blinear2.weight_mu f4 [24, 24]
000000 92 4a 07 3e 22 6a 1e be 4e 95 98 bb e5 67 05 3e
       0.1321204 -0.15470174 -0.0046564704 0.13027914
000010 2c 6f 10 3e ba 15 47 3e cc d7 f3 bd bb 85 85 be
       0.14104909 0.19441882 -0.11906394 -0.2607859
000020 76 22 67 3e 41 38 af 3c 99 46 80 3e bb 6f 88 3e
       0.2257174 0.021389129 0.25053862 0.26647744
000030 5b 60 57 3e 9f 62 82 be 3f 7e 8c 3e e2 7d 56 be
       0.2103285 -0.25465867 0.27440068 -0.20946458
000040 64 0d 8c 3d cb 3a 02 3e f0 ce ee 3d b6 03 2d 3e
       0.068384916 0.1271774 0.11660564 0.16895947
000050 15 60 28 3d 96 36 77 bc 12 a9 15 be 1c 99 ca 3d
       0.041107256 -0.015088698 -0.14615276 0.098924845
000060 c1 13 92 3d 94 20 50 be 26 a9 dd 3d aa e5 02 3e
       0.07132674 -0.20324928 0.10823278 0.12782922
000070 0b b4 d7 3d 11 de 78 3e 6a 65 ee bd 57 74 52 be
       0.10532387 0.24303462 -0.11640437 -0.20552193
000080 11 b0 25 3d 7d d7 2c 3e 94 71 54 3e 69 ce 0a 3e
       0.040451113 0.16879077 0.20746452 0.13555302
000090 49 b2 b2 bc fb 0a 4d be 66 37 db 3d 72 a7 47 be
       -0.021813529 -0.2002372 0.10703926 -0.19497469
0000a0 d5 d4 69 bd 42 6d 44 3d 6c 09 25 3e b7 c2 24 3e
       -0.057087738 0.04795576 0.16116875 0.16089903
0000b0 ef 28 12 3e 9a 28 97 3d 97 56 28 be 59 c8 aa 3d
       0.14273427 0.07380791 -0.16439281 0.083389945
0000c0 b4 a2 29 3e 38 ad 29 be a6 96 2b 3c ed 43 ff 3d
       0.16565973 -0.16569984 0.010472929 0.12464128
0000d0 88 9b 46 3e 8f 41 9e 3e 99 2f 22 be b0 12 2a be
       0.19395268 0.30909392 -0.1583847 -0.16608691
0000e0 64 d8 53 3d 16 02 ff 3c 68 09 75 3e 59 1f 33 3e
       0.051720038 0.031128924 0.2392937 0.17492427
0000f0 9d 9b da 3d 9e b9 67 bd c4 7e c6 3b 21 5a 3b be
       0.10674212 -0.056573503 0.006057592 -0.182961
000100 3a da 3a 3e e0 ec e8 3c 96 8c 16 3d e3 b3 81 3e
       0.1824731 0.028433263 0.036755167 0.25332555
000110 62 fe 03 3d fb 9d 65 3e 41 3e 24 be f9 d3 32 3e
       0.03222502 0.22423546 -0.16039373 0.17463674
000120 c8 1a 10 bc 7d 9e b3 ba 9c 49 f1 bc 58 d3 21 bd
       -0.008795448 -0.0013703849 -0.029454045 -0.039508194
000130 21 21 26 bd 79 80 c9 3b bd de 08 3c 14 69 58 bb
       -0.040558938 0.0061493483 0.008353886 -0.0033021616
000140 ad 17 12 bd e1 ed 3d bd 61 5a 5f bd 63 ea 83 bc
       -0.03566711 -0.046369437 -0.05452955 -0.016102975
000150 80 bf cf bc b3 77 eb b8 cb 73 b9 3b 23 17 d9 39
       -0.025359869 -0.00011227969 0.0056595556 0.00041406704
000160 9b 4c 04 be 12 73 cc bc 89 7c 2a bd 13 64 ad 3c
       -0.12919848 -0.024957214 -0.041622672 0.021165883
000170 72 f6 b9 bc f4 f4 71 bd a3 45 47 bd 8e 39 88 ba
       -0.022700522 -0.059071496 -0.048650395 -0.0010393129
000180 e0 ca 53 3d 5b f5 d0 be 3a 7d 1d 3e f5 f2 c8 3d
       0.05170715 -0.4081219 0.15379801 0.098119654
000190 67 a2 c3 3d 44 1c 4d 3e f9 7b 86 be 97 d6 b1 be
       0.0955246 0.20030314 -0.2626646 -0.34734032
0001a0 5e 6b 80 3c ce b0 e9 3d 49 ef e8 3d 1f 58 96 3e
       0.015676197 0.11410676 0.11373765 0.29364106
0001b0 06 a5 f1 3d 4c ad 4e be 0a e0 67 3d 11 35 93 bd
       0.11799054 -0.20183295 0.056610145 -0.07187856
0001c0 66 65 d6 3d bf 56 61 3d 64 f2 55 3e b0 4d b0 3d
       0.10468559 0.05501437 0.20893246 0.08608568
0001d0 b4 8e fb 3d f0 bb 64 3d 85 b8 4d be 77 5b aa 3d
       0.12283078 0.055843294 -0.2008992 0.08318227
0001e0 ad fb 46 3d 93 63 47 bd e2 21 9f 3d 57 2e 7c 3d
       0.04857986 -0.048678946 0.077701345 0.06156763
0001f0 2d fb 6e 3d 3f de e3 3d 81 56 a4 bd 9d 2c bf bd
       0.05834501 0.111263745 -0.08024312 -0.09334681
000200 53 b3 9c 3d cb 51 4c 3d ad 82 c1 3d 60 50 b2 3d
       0.07651391 0.04988269 0.094487526 0.087067366
000210 77 0f 95 3d 27 94 15 bd 29 5c 83 3d 6e 1d 80 bd
       0.0727834 -0.036518242 0.064140625 -0.06255613
000220 56 02 88 3d 5e db 0e 3d 5c 03 8d 3d b5 1d 59 3d
       0.066410705 0.034877174 0.068854064 0.053006846
000230 6d 2b 49 3d a7 54 76 3d 15 7c 85 bd 0f f2 91 3d
       0.04911368 0.060139325 -0.065178074 0.07126247
000240 03 38 74 3d 12 83 ab be 21 c2 00 3e 51 0b ca 3d
       0.05962373 -0.33498436 0.12574054 0.0986544
000250 21 8c a2 3d 41 85 27 3e f5 1e 2d be 30 40 80 be
       0.07936884 0.16359426 -0.1690634 -0.2504897
000260 83 eb a3 3e 8b c8 03 3e e6 23 fb 3d 00 56 72 3e
       0.3201562 0.1286947 0.122627065 0.23665619
000270 43 92 01 3d b0 3a a9 be 9a 64 90 3d 60 6e 5c be
       0.031633627 -0.33052588 0.07050438 -0.2152648
000280 d7 08 6a bd c1 b8 aa bd 25 e5 1a 3e 8e 8c 98 3e
       -0.057137337 -0.0833602 0.15126474 0.29794735
000290 62 1d 4b 3c 0d 99 0c 3e bb 9f 84 be 0f 27 ab 3d
       0.012397142 0.13730259 -0.25903115 0.08357059
0002a0 e3 aa bf 3c 06 43 28 be 50 ad 52 3e e3 44 84 3d
       0.023396915 -0.16431817 0.20573926 0.064584516
0002b0 28 e5 64 3d 0e e4 4f 3e d0 c3 be bd 1e 2c 55 be
       0.055882603 0.2030184 -0.09314692 -0.2081761
0002c0 05 55 1f 3e 31 b5 17 3e 36 84 4e 3e 55 bf e1 3d
       0.15559776 0.14815213 0.20167622 0.11022822
0002d0 d2 b7 4c 3e 98 79 58 be 31 3f 75 3e cd be c5 bd
       0.19991997 -0.21140134 0.23949887 -0.09655533
0002e0 48 b6 90 3e 65 b8 bc 3d fe 93 32 3e a8 d4 f9 3c
       0.2826407 0.09214858 0.17439267 0.03049691
0002f0 b3 b8 67 3e b0 d0 a2 3d 4b 16 08 be 8f 64 f9 3d
       0.22629051 0.0794996 -0.13289754 0.12177383
000300 60 15 45 3e ce 7c 60 be bc 51 0e 3d 09 63 04 3e
       0.19246435 -0.21922609 0.034745917 0.12928404
000310 3a ff 65 3e b9 97 30 3e a2 d8 80 be 52 93 23 be
       0.22460642 0.17245378 -0.25165278 -0.15974167
000320 79 da 08 3d 36 14 6d 3e 50 3a ec 3d 5b 16 29 3e
       0.033411477 0.23152241 0.1153456 0.16512434
000330 43 c9 0a 3e a9 27 23 be 23 ae 36 3d 51 a7 d6 bd
       0.13553338 -0.15933098 0.044599663 -0.10481132
000340 03 80 36 3c 96 59 d0 ba fa a1 2a 3e 32 ee fe 3d
       0.011138919 -0.0015895839 0.16663352 0.12447776
000350 8b 1b fc 3d 6f 8f 33 bd a9 90 43 be 58 52 a4 3d
       0.12309941 -0.04383796 -0.19098152 0.08023518
000360 e7 86 00 3d b1 e6 81 3d bb 41 7d bb f8 1c d9 b9
       0.031378653 0.06342829 -0.0038643915 -0.0004141105
000370 ca 3b 02 3d 56 47 f6 bd 89 bc 90 3d f3 f3 c0 3d
       0.0317953 -0.12025325 0.0706721 0.094215296
000380 55 9b e4 3b 05 06 17 bd da 11 2a bd 35 8c 35 bd
       0.006976525 -0.036870975 -0.04152093 -0.044323165
000390 94 66 94 ba 88 8d 8f 3d 90 75 83 bc bb 74 a4 3d
       -0.0011322075 0.07009417 -0.01604727 0.08030077
0003a0 13 a3 13 3c ca 05 82 3d ac 68 bd bb 27 51 b2 3b
       0.009011048 0.063487604 -0.0057803 0.005441803
0003b0 0d 4e 1d 3d a6 4d 9d bb 05 80 7a 3d 2f 62 a0 bc
       0.038404513 -0.004800516 0.061157245 -0.019578068
0003c0 96 73 9c 3a 82 93 be be 86 6f 21 3e bb 97 64 3e
       0.0011936303 -0.37221915 0.15765199 0.22323506
0003d0 ac 38 b2 3d 47 dc 8b 3d 59 7e 5c be a5 44 50 be
       0.087022156 0.06829124 -0.21532573 -0.20338686
0003e0 ff c9 22 3e 81 33 26 3e 8b 32 9d 3e 5c 5f 17 3e
       0.15897368 0.16230585 0.30702624 0.1478247
0003f0 a5 c8 42 3e 3f 95 49 be 3b ad 13 3c 41 a1 44 be
       0.19021852 -0.19685839 0.009013469 -0.19202138
