summit/benchmarks/experiment_emulator/trained_models/BNN/reizman_suzuki_case2_yield_5_BNN_model.pt (torch, 27999 bytes, 35 tensors)

blinear1.weight_mu f4 [24, 11]
000000 31 18 e7 3d 23 35 e5 3d 5b 98 81 ba d3 5e 5b bd
       0.11283911 0.11191776 -0.0009887324 -0.05355723
000010 86 69 82 3a cd 44 06 be 08 41 98 3c 1a 9b 05 3d
       0.0009949661 -0.13112183 0.018585697 0.03261862
000020 b1 11 e3 bd b8 4b 99 3c 10 69 28 3b 01 f8 74 3d
       -0.11087359 0.018712863 0.0025697388 0.059806827
000030 34 f9 19 3d 53 ea cc bc 16 3a dc 3d e2 bc 57 3d
       0.037591174 -0.025014078 0.107532665 0.052670367
000040 17 e9 dd bc 3c c6 79 3d ed 0c 61 3a ab a8 22 be
       -0.027088685 0.060980067 0.0008584995 -0.15884654
000050 f6 6e b4 bd 53 57 fa 3b cc e2 39 bb c1 92 16 be
       -0.088102266 0.0076398044 -0.0028363941 -0.1470442
000060 7e 5f ec bd 3e c2 f1 bd 3e bf ce bd 87 7a f2 bd
       -0.11541651 -0.11804627 -0.1009507 -0.118397765
000070 fa db 50 be a0 46 0a 3e 41 57 01 3d 72 0d 72 bd
       -0.20396414 0.13503504 0.031577352 -0.059094854
000080 1d ac d3 3b aa 9e ba 3c f7 15 15 bc ab f8 79 bd
       0.0064597265 0.022780735 -0.009099475 -0.061028164
000090 55 29 00 bc 7c 50 8d ba f4 5f 46 be d4 d6 50 3e
       -0.007822354 -0.0010781433 -0.1937254 0.2039445
0000a0 a7 9c fc bd 87 10 cc bd 5f 9c 0b bb 4f b9 d9 3d
       -0.123345666 -0.0996409 -0.0021302921 0.10631048
0000b0 af 9d 31 3a c9 d4 fa bd 49 d8 15 39 09 88 09 3d
       0.0006775511 -0.12247617 0.0001429032 0.033577
0000c0 3c 48 b2 ba 1e f1 81 bb a0 73 3e 3d 6a a6 0c bd
       -0.001360185 -0.003965511 0.046496987 -0.034338392
0000d0 a9 ce 94 3d f6 63 98 bc eb 1a 78 be d4 f4 9e ba
       0.0726598 -0.018602353 -0.24229018 -0.0012127408
0000e0 0e 2c 1f 3d d2 44 4e 3d a7 4b 17 bd 32 4e a2 bd
       0.038860373 0.0503586 -0.036937382 -0.07925071
0000f0 80 f7 31 3c cb ea 2d 3e 8f 3f 03 3d 7d 26 2b bd
       0.010862231 0.16984098 0.032043036 -0.041784752
000100 32 a1 ed bd d8 ab 3d be 87 85 a8 bd 5f 32 29 be
       -0.11603011 -0.18522584 -0.08228593 -0.16523121
000110 05 b0 2b 3d 05 db 5d bd dd 56 06 be 26 31 d2 3d
       0.041915912 -0.05416395 -0.13119073 0.102632806
000120 69 00 d8 bc 13 3d fb bd f9 69 d8 bd 00 17 01 be
       -0.026367383 -0.12267508 -0.10567088 -0.1260643
000130 ae d6 af 3c ee b7 3e bd 0e 8e ce 3b cc be f0 bc
       0.021464672 -0.046562128 0.0063035553 -0.029387854
000140 d5 5c 28 3d 08 41 c5 3d a0 d7 64 3e 6b 13 87 3d
       0.041104157 0.09631544 0.2234788 0.065955006
000150 b0 28 1b bc c9 65 04 be 36 e3 4d bd 81 da 08 bd
       -0.00947015 -0.12929453 -0.050265513 -0.033411507
000160 5f f0 d8 3d 00 40 f5 bd 81 48 0e 3e 2e 31 b8 bb
       0.10592722 -0.11975098 0.13894846 -0.005621097
000170 f4 27 08 3e 6e c3 7b bd b6 d5 80 3a 21 d1 69 3d
       0.13296491 -0.061465673 0.0009829316 0.057084206
000180 62 16 e7 3d 31 d5 b8 3d 43 22 26 bd 71 5d 10 be
       0.11283566 0.09025038 -0.04056002 -0.14098145
000190 24 66 8a 3d 30 d6 22 bd 83 a0 13 bd 6d 36 09 3e
       0.06757763 -0.039755046 -0.036041748 0.13399668
0001a0 44 98 09 3e c6 80 82 bd 4e b8 56 3d d8 49 26 be
       0.13436991 -0.06372218 0.05242186 -0.16239107
0001b0 14 d7 59 bc 2b aa 35 bc 65 a5 a7 3d 83 57 16 be
       -0.0132959075 -0.0110879345 0.081858434 -0.1468182
0001c0 22 4f 0b 3d 38 04 12 bd b5 24 f9 3c 15 7e c0 bc
       0.034011014 -0.035648555 0.030413011 -0.02349762
0001d0 c2 94 a8 bd 46 4e 70 ba 97 7a cd bd 5e 91 12 3e
       -0.08231498 -0.0009166937 -0.10033148 0.14313266
0001e0 0f 49 97 bd bb b4 eb 3c 75 0e 5a bd 34 12 e5 bd
       -0.07386982 0.028772702 -0.053236444 -0.111851126
0001f0 98 43 32 bd 97 0c 7c 3d 3c 11 a5 b9 b5 a8 52 3e
       -0.043521494 0.061535444 -0.00031484093 0.20572169
000200 4c 33 be 3d de 76 b6 3d 18 c8 3a be 3e f7 76 3d
       0.09287128 0.08909391 -0.18240392 0.060294382
000210 e4 3b a6 3d c7 07 86 3a 20 16 6f bd 0c 84 bb bc
       0.08116892 0.0010225707 -0.05837071 -0.022890113
000220 76 73 5d 3b ca 9e b9 3d 1b 03 5c 3d 34 db 51 bc
       0.0033790744 0.0906349 0.0537139 -0.01280861
000230 3a 5d a5 bd 80 ce 7f 3b e1 a6 07 bb de 06 89 bd
       -0.08074422 0.0039032996 -0.0020698833 -0.06690763
000240 62 8f 22 3d 37 ed 73 bc c4 e2 42 3e ee 43 ae bb
       0.03968752 -0.014888099 0.19031817 -0.0053181564
000250 01 7a 09 3d 43 97 44 3d c0 26 d7 38 67 c4 20 3d
       0.033563618 0.047995817 0.00010259217 0.039249804
000260 1e 2c e0 bd df 9f c7 3d 31 53 89 bd 74 d4 0c bd
       -0.10945915 0.0974729 -0.067053206 -0.0343823
000270 31 e2 c7 bd e9 ef e8 bd 5c 7c 11 be 96 11 75 bd
       -0.097599395 -0.11373884 -0.14207596 -0.059831224
000280 b0 4c 15 be c8 c3 69 bd cd 59 1e 3b 9b ef a4 bd
       -0.14580035 -0.057071477 0.0024162412 -0.080535136
000290 a7 c2 c2 3b 6b fe 00 bd 9c 30 22 be 75 df 1f b9
       0.0059436145 -0.031492632 -0.15838856 -0.00015246666
0002a0 63 34 76 bd a4 6d 0c be e1 18 59 3e 55 f8 df 3c
       -0.060108554 -0.137137 0.21200897 0.027340094
0002b0 d6 78 c4 bd ea b2 50 3b 75 9d 40 3d 45 b2 18 bd
       -0.0959336 0.0031844922 0.047025163 -0.037279386
0002c0 a6 5d 8c bb 90 c7 79 bd 8d 92 99 bd b9 dc 46 3d
       -0.0042836247 -0.060981333 -0.074986555 0.04855034
0002d0 f6 05 1c 3d 3f ab 14 3c 33 bd 17 3b b4 09 4a be
       0.038091622 0.009074031 0.0023153543 -0.19730264
0002e0 75 02 a0 3d 07 aa 73 bd 05 7a 01 bd 18 95 5f ba
       0.07812969 -0.059488323 -0.031610508 -0.00085289916
0002f0 a2 f0 3d 3c 39 ce 8f bd 61 9d 34 3c 7c f3 2f bc
       0.011593016 -0.07021756 0.01102385 -0.010739204
000300 36 91 65 bd eb 0a a3 3c 09 68 ea bd 86 b2 ba 3b
       -0.056046687 0.019902667 -0.114456244 0.005697551
000310 16 8b 47 3e de 89 ef ba 47 ae e7 bd 7f 4a 02 bd
       0.19486651 -0.001827534 -0.11312538 -0.031809326
000320 c0 f9 31 3e 02 2d e1 3c 2b aa 83 ba b7 b6 25 bc
       0.17380428 0.027487282 -0.0010045221 -0.010114363
000330 77 f6 3d 3d 69 9e d4 3d 28 91 5c ba 99 57 fa 3c
       0.046377625 0.10381777 -0.0008413964 0.030559348
000340 2d 94 43 bd 44 67 cc ba c1 25 92 bd 8b 28 45 3e
       -0.047748733 -0.001559474 -0.07136107 0.19253747
000350 d0 e2 32 bd ad fd a0 3d 1c 0a 8a bb e4 b7 da bb
       -0.043673337 0.07860885 -0.004212631 -0.0066747535
000360 55 11 aa 3b 1a 20 02 3d 8a b5 95 ba 3f fc 98 3c
       0.0051900544 0.031768896 -0.0011421901 0.018674968
000370 ff 21 d7 3d 8e f6 39 3b f8 05 4b 3a 46 0c 30 3b
       0.10504531 0.0028375718 0.0007744725 0.0026862784
000380 a6 01 67 bd 62 51 5f 3b fb cb f3 bc cf 10 d5 bc
       -0.056398056 0.0034075608 -0.029760351 -0.026008992
000390 a0 f9 80 bd ef c0 9b bc e1 34 f0 bc 6b 74 0d bd
       -0.06297612 -0.019012896 -0.02932209 -0.034534853
0003a0 f7 eb 48 bc 29 f6 2e be 10 2e ce bd 8e 8e 30 3d
       -0.01226329 -0.1708609 -0.100673795 0.0431047
0003b0 53 7f a2 bd 4a 08 2d bb f7 ec 39 3c e0 80 0a be
       -0.079344414 -0.0026402646 0.011348001 -0.13525724
0003c0 5a 39 01 3c 23 c0 7f bc 30 2d 21 3d a7 39 6c be
       0.007887209 -0.015609774 0.039349735 -0.23068868
0003d0 62 7a 13 be 61 aa 04 3e 24 ea 5d 3e c2 15 7f ba
       -0.14402154 0.1295562 0.21671349 -0.000973072
0003e0 cc 49 69 3b 66 d6 8c 3e 0f 57 2c bd e4 40 ef 3a
       0.0035596965 0.27507323 -0.042075213 0.0018253592
0003f0 8d d2 05 3d f4 1f 01 bd 22 cd c6 3d 38 ac c4 3b
       0.0326715 -0.031524613 0.09707095 0.0060019754

blinear1.weight_rho f4 [24, 11]
000000 bd 4c e0 c0 35 79 d9 c0 84 79 e0 c0 51 87 db c0
       -7.0093675 -6.796046 -7.0148335 -6.860268
000010 ae 80 de c0 f2 df db c0 30 0a e1 c0 88 33 db c0
       -6.953208 -6.871087 -7.0324936 -6.8500404
000020 92 bd d7 c0 35 05 e0 c0 0d a4 e6 c0 13 d2 e6 c0
       -6.741891 -7.0006356 -7.2075257 -7.213144
000030 35 61 e3 c0 4f 94 de c0 cd d0 db c0 fb 2c e3 c0
       -7.105616 -6.955604 -6.8692384 -7.099241
000040 da 50 dd c0 fe a8 e4 c0 13 c2 d9 c0 06 08 db c0
       -6.9161196 -7.145629 -6.8049407 -6.8447294
000050 3a 4c e7 c0 72 21 e1 c0 56 30 e1 c0 6b 64 d6 c0
       -7.228055 -7.0353327 -7.0371504 -6.699758
000060 5d 89 db c0 db d7 e3 c0 55 3a de c0 a2 a7 e2 c0
       -6.860518 -7.1200995 -6.9446206 -7.082963
000070 0e 74 de c0 42 a4 d9 c0 9c 8e dc c0 2e 3a df c0
       -6.951667 -6.801301 -6.8924084 -6.975852
000080 af c2 d8 c0 60 bc dd c0 90 1f e6 c0 b6 fc da c0
       -6.773765 -6.929245 -7.191353 -6.8433485
000090 ac 84 de c0 5c ab e4 c0 7b 94 da c0 a5 7e e1 c0
       -6.9536953 -7.145918 -6.830625 -7.0467095
0000a0 02 e1 dd c0 53 ee df c0 71 44 e3 c0 5a 46 e6 c0
       -6.933717 -6.9978423 -7.1021047 -7.196088
0000b0 e9 9b e0 c0 8a 25 e1 c0 c1 cd e1 c0 a4 ef e0 c0
       -7.019032 -7.0358324 -7.0563664 -7.029253
0000c0 8e dc e4 c0 37 52 e3 c0 3f e3 de c0 ce 1a e0 c0
       -7.151923 -7.103786 -6.96524 -7.003272
0000d0 67 e4 e1 c0 74 46 dd c0 49 29 e0 c0 6c 54 e3 c0
       -7.059131 -6.91485 -7.0050397 -7.1040554
0000e0 b5 dc e1 c0 17 66 e0 c0 f7 6a dd c0 b3 cf dc c0
       -7.058192 -7.012462 -6.919307 -6.900354
0000f0 ae ba df c0 37 c3 df c0 ee 3b dd c0 d0 24 dd c0
       -6.991538 -6.99258 -6.9135656 -6.9107437
000100 1b 93 e2 c0 24 42 e1 c0 58 45 de c0 81 d8 da c0
       -7.080457 -7.039324 -6.945965 -6.8389287
000110 3d 51 dd c0 f1 1a dd c0 54 2e e7 c0 47 39 d9 c0
       -6.916167 -6.9095387 -7.2244053 -6.788242
000120 b4 8b da c0 18 dd e2 c0 34 ac de c0 9b 1d e5 c0
       -6.8295536 -7.089489 -6.958521 -7.159864
000130 ba c5 d7 c0 25 e6 e1 c0 23 a2 e0 c0 a2 b8 e5 c0
       -6.7428865 -7.059344 -7.019792 -7.178788
000140 4a 6b e0 c0 dc 08 dc c0 cb 12 e0 c0 18 e1 e6 c0
       -7.013097 -6.8760815 -7.002294 -7.2149773
000150 b8 e1 df c0 a7 ce e4 c0 95 0b dd c0 46 81 de c0
       -6.9963036 -7.150226 -6.907664 -6.9532804
000160 0f 40 db c0 1a 52 e0 c0 ec 4b e1 c0 a4 99 e0 c0
       -6.8515697 -7.010022 -7.040518 -7.018755
000170 99 43 dc c0 4a ac df c0 86 ae da c0 a0 43 e0 c0
       -6.8832517 -6.9897814 -6.833804 -7.008255
000180 44 7a e0 c0 11 2f e1 c0 10 99 da c0 a5 e9 dc c0
       -7.014925 -7.0369954 -6.8311844 -6.903521
000190 d3 a8 de c0 f6 55 e0 c0 69 aa de c0 82 36 dd c0
       -6.9581084 -7.0104933 -6.958302 -6.912904
0001a0 be da dd c0 ba 8d dc c0 24 6f e0 c0 dc 2a e2 c0
       -6.932952 -6.8923006 -7.013567 -7.067732
0001b0 34 3e de c0 57 7f de c0 6d 7c e1 c0 c4 95 dc c0
       -6.945093 -6.9530444 -7.0464387 -6.893282
0001c0 d3 79 e4 c0 83 eb df c0 4e a0 dc c0 c5 15 dd c0
       -7.139871 -6.997499 -6.8945684 -6.9089074
0001d0 b6 d9 dd c0 9d c5 e2 c0 9a f7 d7 c0 df cf df c0
       -6.932826 -7.0866227 -6.748975 -6.994125
0001e0 67 c0 db c0 26 b2 e2 c0 a3 54 e1 c0 44 c9 dd c0
       -6.8672366 -7.0842466 -7.0415816 -6.9308186
0001f0 b3 33 e0 c0 5c 9f df c0 29 15 e0 c0 48 9f df c0
       -7.006311 -6.988203 -7.002583 -6.9881935
000200 6f cb de c0 4c ec df c0 09 3c e0 c0 fa 7b d9 c0
       -6.962333 -6.997595 -7.0073285 -6.796384
000210 a5 e8 e1 c0 d8 30 de c0 77 05 e2 c0 61 2f de c0
       -7.059649 -6.9434624 -7.063167 -6.9432836
000220 be f4 df c0 a3 46 e3 c0 43 e3 dd c0 b9 d8 dd c0
       -6.9986258 -7.1023726 -6.933992 -6.9327054
000230 0c 39 e2 c0 54 d9 df c0 52 4f df c0 71 41 db c0
       -7.0694637 -6.9952793 -6.9784327 -6.8517385
000240 c4 87 df c0 81 61 e2 c0 14 74 dc c0 db f6 dc c0
       -6.985323 -7.0744023 -6.8891697 -6.9051337
000250 91 20 e1 c0 51 00 dd c0 52 63 de c0 30 6a e0 c0
       -7.0352254 -6.9062886 -6.949624 -7.0129623
000260 ec 26 e0 c0 92 61 dd c0 c4 84 dd c0 f0 43 de c0
       -7.004751 -6.9181604 -6.9224567 -6.945793
000270 88 b9 db c0 d8 f3 e3 c0 5a 32 e0 c0 0a 59 e1 c0
       -6.866398 -7.123516 -7.0061464 -7.042119
000280 05 ce d7 c0 02 d4 e0 c0 6f 59 e4 c0 9d 24 df c0
       -6.743899 -7.02588 -7.135917 -6.9732194
000290 d1 52 e1 c0 ae 53 e0 c0 a4 12 e3 c0 20 77 e3 c0
       -7.0413594 -7.010215 -7.0960255 -7.1082916
0002a0 8b e1 e0 c0 c9 9a e3 c0 82 70 d8 c0 d7 e5 dd c0
       -7.027532 -7.1126447 -6.763734 -6.9343066
0002b0 44 ae e1 c0 59 fa de c0 b8 0e e1 c0 b2 d3 e0 c0
       -7.0525227 -6.96806 -7.0330467 -7.0258417
0002c0 d9 18 dc c0 3e 2f e2 c0 1e cc e2 c0 d0 29 e1 c0
       -6.878033 -7.068267 -7.0874166 -7.036354
0002d0 c3 03 dc c0 cf 1d de c0 c4 e9 e0 c0 a5 d1 dc c0
       -6.875459 -6.9411387 -7.028536 -6.9005914
0002e0 f3 9b dc c0 fd 61 e1 c0 17 fc e2 c0 e6 63 e3 c0
       -6.894037 -7.0432115 -7.0932727 -7.1059446
0002f0 f2 10 e0 c0 90 f9 dd c0 18 ce de c0 20 3a de c0
       -7.0020685 -6.936714 -6.962658 -6.9445953
000300 23 d0 dd c0 e9 14 df c0 26 be db c0 17 e5 dd c0
       -6.9316573 -6.9713025 -6.8669615 -6.934215
000310 5a d6 dd c0 b1 2b e5 c0 14 2d d8 c0 1c 58 dd c0
       -6.932416 -7.1615834 -6.7555027 -6.9170055
000320 9b 1c e1 c0 16 85 d7 c0 a9 ae e2 c0 90 34 e4 c0
       -7.034742 -6.734996 -7.083821 -7.1314163
000330 4b 68 d9 c0 43 78 dc c0 16 a1 de c0 f7 8d e3 c0
       -6.793981 -6.8896804 -6.957164 -7.1110797
000340 fb 90 e6 c0 6b 9b e5 c0 94 bd e0 c0 98 7a da c0
       -7.205198 -7.175222 -7.023142 -6.827465
000350 46 3a e4 c0 c8 43 dd c0 4e c9 df c0 47 7d df c0
       -7.1321135 -6.914524 -6.9933233 -6.9840426
000360 b4 ee df c0 95 85 da c0 04 d0 dc c0 af 9f dd c0
       -6.9978886 -6.8288064 -6.9003925 -6.9257426
000370 6a 59 e0 c0 0e 52 db c0 ed 39 e1 c0 bf 13 df c0
       -7.010915 -6.8537664 -7.038321 -6.9711604
000380 5f c2 df c0 9b 0f e0 c0 69 f7 e5 c0 5f 43 de c0
       -6.992477 -7.001905 -7.1864514 -6.945724
000390 43 01 e5 c0 d7 ec df c0 c5 d9 dd c0 da fc e2 c0
       -7.156404 -6.997661 -6.932833 -7.0933657
0003a0 18 e2 e1 c0 ef 9f df c0 47 48 db c0 e3 5b dc c0
       -7.0588493 -6.988273 -6.852573 -6.8862166
0003b0 2e ce e4 c0 33 12 de c0 ff 30 dc c0 77 e5 e1 c0
       -7.1501684 -6.9397216 -6.880981 -7.059261
0003c0 79 2c de c0 e1 43 d7 c0 42 78 e0 c0 95 14 dc c0
       -6.942929 -6.727036 -7.01468 -6.8775125
0003d0 c6 91 d8 c0 cc 88 e4 c0 9a c1 dd c0 7b 1f e3 c0
       -6.7677946 -7.141699 -6.929883 -7.097593
0003e0 59 4d dc c0 75 83 dd c0 45 7f dc c0 3f c2 dc c0
       -6.884442 -6.922297 -6.890536 -6.8987117
0003f0 82 49 e2 c0 99 85 d9 c0 77 b9 e2 c0 90 1e e0 c0
       -7.071473 -6.7975583 -7.0851398 -7.003731

blinear1.bias_mu f4 [24]
000000 6e 24 24 3c 4f fa 0a 3e 74 91 65 bd af df 78 3d
       0.010018451 0.13572048 -0.056046918 0.060760196
000010 6c 0b 2f bd 03 50 06 3e d2 bb 8e 3c a2 76 f0 bd
       -0.042735502 0.1311646 0.017423544 -0.117413774
000020 23 b7 8b 3c 2b 90 e2 bd 71 9b 17 3d 4b f0 63 ba
       0.0170551 -0.11062654 0.037013475 -0.0008695169
000030 65 6a 37 be a0 c3 cd ba 06 74 21 3c 0e b0 d9 3c
       -0.1791168 -0.001569856 0.009854322 0.026573207
000040 17 9c c2 3d 5e 9e 34 bd 8d bb 23 bd e8 b1 ae bc
       0.09502428 -0.044096343 -0.039973784 -0.021325067
000050 aa ca 0e ba f6 28 fc bd ec b1 fd bd e8 1f 04 bd
       -0.00054470694 -0.123125 -0.123874515 -0.03225699

blinear1.bias_rho f4 [24]
000000 1c e4 db c0 71 4b dd c0 68 81 e2 c0 97 d9 e0 c0
       -6.8715954 -6.915459 -7.0782967 -7.0265613
000010 e8 a8 e5 c0 90 10 dd c0 7d 55 e0 c0 b6 3d e2 c0
       -7.1768684 -6.908272 -7.0104356 -7.070033
000020 bc 31 de c0 7c ed dc c0 07 ac de c0 97 6f e1 c0
       -6.943571 -6.90399 -6.9584994 -7.044872
000030 8f c9 e4 c0 9a 5a da c0 c7 9b e5 c0 9b 9a db c0
       -7.1496043 -6.8235598 -7.175266 -6.8626227
000040 7e fc e1 c0 84 8b e0 c0 a9 91 df c0 39 af e4 c0
       -7.062072 -7.0170307 -6.986531 -7.1463895
000050 30 86 d8 c0 24 50 df c0 26 4e df c0 9e 3e e0 c0
       -6.7663803 -6.978533 -6.9782896 -7.0076437

blinear1.weight_sampler.mu f4 [24, 11]
000000 31 18 e7 3d 23 35 e5 3d 5b 98 81 ba d3 5e 5b bd
       0.11283911 0.11191776 -0.0009887324 -0.05355723
000010 86 69 82 3a cd 44 06 be 08 41 98 3c 1a 9b 05 3d
       0.0009949661 -0.13112183 0.018585697 0.03261862
000020 b1 11 e3 bd b8 4b 99 3c 10 69 28 3b 01 f8 74 3d
       -0.11087359 0.018712863 0.0025697388 0.059806827
000030 34 f9 19 3d 53 ea cc bc 16 3a dc 3d e2 bc 57 3d
       0.037591174 -0.025014078 0.107532665 0.052670367
000040 17 e9 dd bc 3c c6 79 3d ed 0c 61 3a ab a8 22 be
       -0.027088685 0.060980067 0.0008584995 -0.15884654
000050 f6 6e b4 bd 53 57 fa 3b cc e2 39 bb c1 92 16 be
       -0.088102266 0.0076398044 -0.0028363941 -0.1470442
000060 7e 5f ec bd 3e c2 f1 bd 3e bf ce bd 87 7a f2 bd
       -0.11541651 -0.11804627 -0.1009507 -0.118397765
000070 fa db 50 be a0 46 0a 3e 41 57 01 3d 72 0d 72 bd
       -0.20396414 0.13503504 0.031577352 -0.059094854
000080 1d ac d3 3b aa 9e ba 3c f7 15 15 bc ab f8 79 bd
       0.0064597265 0.022780735 -0.009099475 -0.061028164
000090 55 29 00 bc 7c 50 8d ba f4 5f 46 be d4 d6 50 3e
       -0.007822354 -0.0010781433 -0.1937254 0.2039445
0000a0 a7 9c fc bd 87 10 cc bd 5f 9c 0b bb 4f b9 d9 3d
       -0.123345666 -0.0996409 -0.0021302921 0.10631048
0000b0 af 9d 31 3a c9 d4 fa bd 49 d8 15 39 09 88 09 3d
       0.0006775511 -0.12247617 0.0001429032 0.033577
0000c0 3c 48 b2 ba 1e f1 81 bb a0 73 3e 3d 6a a6 0c bd
       -0.001360185 -0.003965511 0.046496987 -0.034338392
0000d0 a9 ce 94 3d f6 63 98 bc eb 1a 78 be d4 f4 9e ba
       0.0726598 -0.018602353 -0.24229018 -0.0012127408
0000e0 0e 2c 1f 3d d2 44 4e 3d a7 4b 17 bd 32 4e a2 bd
       0.038860373 0.0503586 -0.036937382 -0.07925071
0000f0 80 f7 31 3c cb ea 2d 3e 8f 3f 03 3d 7d 26 2b bd
       0.010862231 0.16984098 0.032043036 -0.041784752
000100 32 a1 ed bd d8 ab 3d be 87 85 a8 bd 5f 32 29 be
       -0.11603011 -0.18522584 -0.08228593 -0.16523121
000110 05 b0 2b 3d 05 db 5d bd dd 56 06 be 26 31 d2 3d
       0.041915912 -0.05416395 -0.13119073 0.102632806
000120 69 00 d8 bc 13 3d fb bd f9 69 d8 bd 00 17 01 be
       -0.026367383 -0.12267508 -0.10567088 -0.1260643
000130 ae d6 af 3c ee b7 3e bd 0e 8e ce 3b cc be f0 bc
       0.021464672 -0.046562128 0.0063035553 -0.029387854
000140 d5 5c 28 3d 08 41 c5 3d a0 d7 64 3e 6b 13 87 3d
       0.041104157 0.09631544 0.2234788 0.065955006
000150 b0 28 1b bc c9 65 04 be 36 e3 4d bd 81 da 08 bd
       -0.00947015 -0.12929453 -0.050265513 -0.033411507
000160 5f f0 d8 3d 00 40 f5 bd 81 48 0e 3e 2e 31 b8 bb
       0.10592722 -0.11975098 0.13894846 -0.005621097
000170 f4 27 08 3e 6e c3 7b bd b6 d5 80 3a 21 d1 69 3d
       0.13296491 -0.061465673 0.0009829316 0.057084206
000180 62 16 e7 3d 31 d5 b8 3d 43 22 26 bd 71 5d 10 be
       0.11283566 0.09025038 -0.04056002 -0.14098145
000190 24 66 8a 3d 30 d6 22 bd 83 a0 13 bd 6d 36 09 3e
       0.06757763 -0.039755046 -0.036041748 0.13399668
0001a0 44 98 09 3e c6 80 82 bd 4e b8 56 3d d8 49 26 be
       0.13436991 -0.06372218 0.05242186 -0.16239107
0001b0 14 d7 59 bc 2b aa 35 bc 65 a5 a7 3d 83 57 16 be
       -0.0132959075 -0.0110879345 0.081858434 -0.1468182
0001c0 22 4f 0b 3d 38 04 12 bd b5 24 f9 3c 15 7e c0 bc
       0.034011014 -0.035648555 0.030413011 -0.02349762
0001d0 c2 94 a8 bd 46 4e 70 ba 97 7a cd bd 5e 91 12 3e
       -0.08231498 -0.0009166937 -0.10033148 0.14313266
0001e0 0f 49 97 bd bb b4 eb 3c 75 0e 5a bd 34 12 e5 bd
       -0.07386982 0.028772702 -0.053236444 -0.111851126
0001f0 98 43 32 bd 97 0c 7c 3d 3c 11 a5 b9 b5 a8 52 3e
       -0.043521494 0.061535444 -0.00031484093 0.20572169
000200 4c 33 be 3d de 76 b6 3d 18 c8 3a be 3e f7 76 3d
       0.09287128 0.08909391 -0.18240392 0.060294382
000210 e4 3b a6 3d c7 07 86 3a 20 16 6f bd 0c 84 bb bc
       0.08116892 0.0010225707 -0.05837071 -0.022890113
000220 76 73 5d 3b ca 9e b9 3d 1b 03 5c 3d 34 db 51 bc
       0.0033790744 0.0906349 0.0537139 -0.01280861
000230 3a 5d a5 bd 80 ce 7f 3b e1 a6 07 bb de 06 89 bd
       -0.08074422 0.0039032996 -0.0020698833 -0.06690763
000240 62 8f 22 3d 37 ed 73 bc c4 e2 42 3e ee 43 ae bb
       0.03968752 -0.014888099 0.19031817 -0.0053181564
000250 01 7a 09 3d 43 97 44 3d c0 26 d7 38 67 c4 20 3d
       0.033563618 0.047995817 0.00010259217 0.039249804
000260 1e 2c e0 bd df 9f c7 3d 31 53 89 bd 74 d4 0c bd
       -0.10945915 0.0974729 -0.067053206 -0.0343823
000270 31 e2 c7 bd e9 ef e8 bd 5c 7c 11 be 96 11 75 bd
       -0.097599395 -0.11373884 -0.14207596 -0.059831224
000280 b0 4c 15 be c8 c3 69 bd cd 59 1e 3b 9b ef a4 bd
       -0.14580035 -0.057071477 0.0024162412 -0.080535136
000290 a7 c2 c2 3b 6b fe 00 bd 9c 30 22 be 75 df 1f b9
       0.0059436145 -0.031492632 -0.15838856 -0.00015246666
0002a0 63 34 76 bd a4 6d 0c be e1 18 59 3e 55 f8 df 3c
       -0.060108554 -0.137137 0.21200897 0.027340094
0002b0 d6 78 c4 bd ea b2 50 3b 75 9d 40 3d 45 b2 18 bd
       -0.0959336 0.0031844922 0.047025163 -0.037279386
0002c0 a6 5d 8c bb 90 c7 79 bd 8d 92 99 bd b9 dc 46 3d
       -0.0042836247 -0.060981333 -0.074986555 0.04855034
0002d0 f6 05 1c 3d 3f ab 14 3c 33 bd 17 3b b4 09 4a be
       0.038091622 0.009074031 0.0023153543 -0.19730264
0002e0 75 02 a0 3d 07 aa 73 bd 05 7a 01 bd 18 95 5f ba
       0.07812969 -0.059488323 -0.031610508 -0.00085289916
0002f0 a2 f0 3d 3c 39 ce 8f bd 61 9d 34 3c 7c f3 2f bc
       0.011593016 -0.07021756 0.01102385 -0.010739204
000300 36 91 65 bd eb 0a a3 3c 09 68 ea bd 86 b2 ba 3b
       -0.056046687 0.019902667 -0.114456244 0.005697551
000310 16 8b 47 3e de 89 ef ba 47 ae e7 bd 7f 4a 02 bd
       0.19486651 -0.001827534 -0.11312538 -0.031809326
000320 c0 f9 31 3e 02 2d e1 3c 2b aa 83 ba b7 b6 25 bc
       0.17380428 0.027487282 -0.0010045221 -0.010114363
000330 77 f6 3d 3d 69 9e d4 3d 28 91 5c ba 99 57 fa 3c
       0.046377625 0.10381777 -0.0008413964 0.030559348
000340 2d 94 43 bd 44 67 cc ba c1 25 92 bd 8b 28 45 3e
       -0.047748733 -0.001559474 -0.07136107 0.19253747
000350 d0 e2 32 bd ad fd a0 3d 1c 0a 8a bb e4 b7 da bb
       -0.043673337 0.07860885 -0.004212631 -0.0066747535
000360 55 11 aa 3b 1a 20 02 3d 8a b5 95 ba 3f fc 98 3c
       0.0051900544 0.031768896 -0.0011421901 0.018674968
000370 ff 21 d7 3d 8e f6 39 3b f8 05 4b 3a 46 0c 30 3b
       0.10504531 0.0028375718 0.0007744725 0.0026862784
000380 a6 01 67 bd 62 51 5f 3b fb cb f3 bc cf 10 d5 bc
       -0.056398056 0.0034075608 -0.029760351 -0.026008992
000390 a0 f9 80 bd ef c0 9b bc e1 34 f0 bc 6b 74 0d bd
       -0.06297612 -0.019012896 -0.02932209 -0.034534853
0003a0 f7 eb 48 bc 29 f6 2e be 10 2e ce bd 8e 8e 30 3d
       -0.01226329 -0.1708609 -0.100673795 0.0431047
0003b0 53 7f a2 bd 4a 08 2d bb f7 ec 39 3c e0 80 0a be
       -0.079344414 -0.0026402646 0.011348001 -0.13525724
0003c0 5a 39 01 3c 23 c0 7f bc 30 2d 21 3d a7 39 6c be
       0.007887209 -0.015609774 0.039349735 -0.23068868
0003d0 62 7a 13 be 61 aa 04 3e 24 ea 5d 3e c2 15 7f ba
       -0.14402154 0.1295562 0.21671349 -0.000973072
0003e0 cc 49 69 3b 66 d6 8c 3e 0f 57 2c bd e4 40 ef 3a
       0.0035596965 0.27507323 -0.042075213 0.0018253592
0003f0 8d d2 05 3d f4 1f 01 bd 22 cd c6 3d 38 ac c4 3b
       0.0326715 -0.031524613 0.09707095 0.0060019754

blinear1.weight_sampler.rho f4 [24, 11]
000000 bd 4c e0 c0 35 79 d9 c0 84 79 e0 c0 51 87 db c0
       -7.0093675 -6.796046 -7.0148335 -6.860268
000010 ae 80 de c0 f2 df db c0 30 0a e1 c0 88 33 db c0
       -6.953208 -6.871087 -7.0324936 -6.8500404
000020 92 bd d7 c0 35 05 e0 c0 0d a4 e6 c0 13 d2 e6 c0
       -6.741891 -7.0006356 -7.2075257 -7.213144
000030 35 61 e3 c0 4f 94 de c0 cd d0 db c0 fb 2c e3 c0
       -7.105616 -6.955604 -6.8692384 -7.099241
000040 da 50 dd c0 fe a8 e4 c0 13 c2 d9 c0 06 08 db c0
       -6.9161196 -7.145629 -6.8049407 -6.8447294
000050 3a 4c e7 c0 72 21 e1 c0 56 30 e1 c0 6b 64 d6 c0
       -7.228055 -7.0353327 -7.0371504 -6.699758
000060 5d 89 db c0 db d7 e3 c0 55 3a de c0 a2 a7 e2 c0
       -6.860518 -7.1200995 -6.9446206 -7.082963
000070 0e 74 de c0 42 a4 d9 c0 9c 8e dc c0 2e 3a df c0
       -6.951667 -6.801301 -6.8924084 -6.975852
000080 af c2 d8 c0 60 bc dd c0 90 1f e6 c0 b6 fc da c0
       -6.773765 -6.929245 -7.191353 -6.8433485
000090 ac 84 de c0 5c ab e4 c0 7b 94 da c0 a5 7e e1 c0
       -6.9536953 -7.145918 -6.830625 -7.0467095
0000a0 02 e1 dd c0 53 ee df c0 71 44 e3 c0 5a 46 e6 c0
       -6.933717 -6.9978423 -7.1021047 -7.196088
0000b0 e9 9b e0 c0 8a 25 e1 c0 c1 cd e1 c0 a4 ef e0 c0
       -7.019032 -7.0358324 -7.0563664 -7.029253
0000c0 8e dc e4 c0 37 52 e3 c0 3f e3 de c0 ce 1a e0 c0
       -7.151923 -7.103786 -6.96524 -7.003272
0000d0 67 e4 e1 c0 74 46 dd c0 49 29 e0 c0 6c 54 e3 c0
       -7.059131 -6.91485 -7.0050397 -7.1040554
0000e0 b5 dc e1 c0 17 66 e0 c0 f7 6a dd c0 b3 cf dc c0
       -7.058192 -7.012462 -6.919307 -6.900354
0000f0 ae ba df c0 37 c3 df c0 ee 3b dd c0 d0 24 dd c0
       -6.991538 -6.99258 -6.9135656 -6.9107437
000100 1b 93 e2 c0 24 42 e1 c0 58 45 de c0 81 d8 da c0
       -7.080457 -7.039324 -6.945965 -6.8389287
000110 3d 51 dd c0 f1 1a dd c0 54 2e e7 c0 47 39 d9 c0
       -6.916167 -6.9095387 -7.2244053 -6.788242
000120 b4 8b da c0 18 dd e2 c0 34 ac de c0 9b 1d e5 c0
       -6.8295536 -7.089489 -6.958521 -7.159864
000130 ba c5 d7 c0 25 e6 e1 c0 23 a2 e0 c0 a2 b8 e5 c0
       -6.7428865 -7.059344 -7.019792 -7.178788
000140 4a 6b e0 c0 dc 08 dc c0 cb 12 e0 c0 18 e1 e6 c0
       -7.013097 -6.8760815 -7.002294 -7.2149773
000150 b8 e1 df c0 a7 ce e4 c0 95 0b dd c0 46 81 de c0
       -6.9963036 -7.150226 -6.907664 -6.9532804
000160 0f 40 db c0 1a 52 e0 c0 ec 4b e1 c0 a4 99 e0 c0
       -6.8515697 -7.010022 -7.040518 -7.018755
000170 99 43 dc c0 4a ac df c0 86 ae da c0 a0 43 e0 c0
       -6.8832517 -6.9897814 -6.833804 -7.008255
000180 44 7a e0 c0 11 2f e1 c0 10 99 da c0 a5 e9 dc c0
       -7.014925 -7.0369954 -6.8311844 -6.903521
000190 d3 a8 de c0 f6 55 e0 c0 69 aa de c0 82 36 dd c0
       -6.9581084 -7.0104933 -6.958302 -6.912904
0001a0 be da dd c0 ba 8d dc c0 24 6f e0 c0 dc 2a e2 c0
       -6.932952 -6.8923006 -7.013567 -7.067732
0001b0 34 3e de c0 57 7f de c0 6d 7c e1 c0 c4 95 dc c0
       -6.945093 -6.9530444 -7.0464387 -6.893282
0001c0 d3 79 e4 c0 83 eb df c0 4e a0 dc c0 c5 15 dd c0
       -7.139871 -6.997499 -6.8945684 -6.9089074
0001d0 b6 d9 dd c0 9d c5 e2 c0 9a f7 d7 c0 df cf df c0
       -6.932826 -7.0866227 -6.748975 -6.994125
0001e0 67 c0 db c0 26 b2 e2 c0 a3 54 e1 c0 44 c9 dd c0
       -6.8672366 -7.0842466 -7.0415816 -6.9308186
0001f0 b3 33 e0 c0 5c 9f df c0 29 15 e0 c0 48 9f df c0
       -7.006311 -6.988203 -7.002583 -6.9881935
000200 6f cb de c0 4c ec df c0 09 3c e0 c0 fa 7b d9 c0
       -6.962333 -6.997595 -7.0073285 -6.796384
000210 a5 e8 e1 c0 d8 30 de c0 77 05 e2 c0 61 2f de c0
       -7.059649 -6.9434624 -7.063167 -6.9432836
000220 be f4 df c0 a3 46 e3 c0 43 e3 dd c0 b9 d8 dd c0
       -6.9986258 -7.1023726 -6.933992 -6.9327054
000230 0c 39 e2 c0 54 d9 df c0 52 4f df c0 71 41 db c0
       -7.0694637 -6.9952793 -6.9784327 -6.8517385
000240 c4 87 df c0 81 61 e2 c0 14 74 dc c0 db f6 dc c0
       -6.985323 -7.0744023 -6.8891697 -6.9051337
000250 91 20 e1 c0 51 00 dd c0 52 63 de c0 30 6a e0 c0
       -7.0352254 -6.9062886 -6.949624 -7.0129623
000260 ec 26 e0 c0 92 61 dd c0 c4 84 dd c0 f0 43 de c0
       -7.004751 -6.9181604 -6.9224567 -6.945793
000270 88 b9 db c0 d8 f3 e3 c0 5a 32 e0 c0 0a 59 e1 c0
       -6.866398 -7.123516 -7.0061464 -7.042119
000280 05 ce d7 c0 02 d4 e0 c0 6f 59 e4 c0 9d 24 df c0
       -6.743899 -7.02588 -7.135917 -6.9732194
000290 d1 52 e1 c0 ae 53 e0 c0 a4 12 e3 c0 20 77 e3 c0
       -7.0413594 -7.010215 -7.0960255 -7.1082916
0002a0 8b e1 e0 c0 c9 9a e3 c0 82 70 d8 c0 d7 e5 dd c0
       -7.027532 -7.1126447 -6.763734 -6.9343066
0002b0 44 ae e1 c0 59 fa de c0 b8 0e e1 c0 b2 d3 e0 c0
       -7.0525227 -6.96806 -7.0330467 -7.0258417
0002c0 d9 18 dc c0 3e 2f e2 c0 1e cc e2 c0 d0 29 e1 c0
       -6.878033 -7.068267 -7.0874166 -7.036354
0002d0 c3 03 dc c0 cf 1d de c0 c4 e9 e0 c0 a5 d1 dc c0
       -6.875459 -6.9411387 -7.028536 -6.9005914
0002e0 f3 9b dc c0 fd 61 e1 c0 17 fc e2 c0 e6 63 e3 c0
       -6.894037 -7.0432115 -7.0932727 -7.1059446
0002f0 f2 10 e0 c0 90 f9 dd c0 18 ce de c0 20 3a de c0
       -7.0020685 -6.936714 -6.962658 -6.9445953
000300 23 d0 dd c0 e9 14 df c0 26 be db c0 17 e5 dd c0
       -6.9316573 -6.9713025 -6.8669615 -6.934215
000310 5a d6 dd c0 b1 2b e5 c0 14 2d d8 c0 1c 58 dd c0
       -6.932416 -7.1615834 -6.7555027 -6.9170055
000320 9b 1c e1 c0 16 85 d7 c0 a9 ae e2 c0 90 34 e4 c0
       -7.034742 -6.734996 -7.083821 -7.1314163
000330 4b 68 d9 c0 43 78 dc c0 16 a1 de c0 f7 8d e3 c0
       -6.793981 -6.8896804 -6.957164 -7.1110797
000340 fb 90 e6 c0 6b 9b e5 c0 94 bd e0 c0 98 7a da c0
       -7.205198 -7.175222 -7.023142 -6.827465
000350 46 3a e4 c0 c8 43 dd c0 4e c9 df c0 47 7d df c0
       -7.1321135 -6.914524 -6.9933233 -6.9840426
000360 b4 ee df c0 95 85 da c0 04 d0 dc c0 af 9f dd c0
       -6.9978886 -6.8288064 -6.9003925 -6.9257426
000370 6a 59 e0 c0 0e 52 db c0 ed 39 e1 c0 bf 13 df c0
       -7.010915 -6.8537664 -7.038321 -6.9711604
000380 5f c2 df c0 9b 0f e0 c0 69 f7 e5 c0 5f 43 de c0
       -6.992477 -7.001905 -7.1864514 -6.945724
000390 43 01 e5 c0 d7 ec df c0 c5 d9 dd c0 da fc e2 c0
       -7.156404 -6.997661 -6.932833 -7.0933657
0003a0 18 e2 e1 c0 ef 9f df c0 47 48 db c0 e3 5b dc c0
       -7.0588493 -6.988273 -6.852573 -6.8862166
0003b0 2e ce e4 c0 33 12 de c0 ff 30 dc c0 77 e5 e1 c0
       -7.1501684 -6.9397216 -6.880981 -7.059261
0003c0 79 2c de c0 e1 43 d7 c0 42 78 e0 c0 95 14 dc c0
       -6.942929 -6.727036 -7.01468 -6.8775125
0003d0 c6 91 d8 c0 cc 88 e4 c0 9a c1 dd c0 7b 1f e3 c0
       -6.7677946 -7.141699 -6.929883 -7.097593
0003e0 59 4d dc c0 75 83 dd c0 45 7f dc c0 3f c2 dc c0
       -6.884442 -6.922297 -6.890536 -6.8987117
0003f0 82 49 e2 c0 99 85 d9 c0 77 b9 e2 c0 90 1e e0 c0
       -7.071473 -6.7975583 -7.0851398 -7.003731

blinear1.weight_sampler.eps_w f4 [24, 11]
000000 a9 9d 0e 3e 3d da 91 bf f7 c4 90 3d 24 40 c0 bd
       0.1392733 -1.1394726 0.07068818 -0.09387234
000010 b7 6f 8f 3f b7 57 95 bf 1f 71 07 bf e6 82 a9 3f
       1.1205968 -1.1667393 -0.52906984 1.3243072
000020 75 08 57 be 4b cd 58 3f 5d 9e c8 be 54 53 80 3f
       -0.2099932 0.8468825 -0.39183322 1.002543
000030 a0 3a a4 bf 8c 28 b0 3f 56 62 01 3f fd cd 9f 3d
       -1.2830391 1.3762374 0.50540674 0.07802961
000040 e4 bc 40 bf da 1f 98 be 8b 1b 08 3f 45 a6 a4 3f
       -0.75288224 -0.297118 0.5316703 1.2863241
000050 47 ef 5b be 87 ce 4b 3e 56 9e 32 40 68 5d 0a 3f
       -0.21477996 0.19903003 2.790914 0.54048777
000060 f1 20 b8 3e a2 de 63 be 10 81 40 3f 1a 34 a0 3f
       0.35962632 -0.22252896 0.75196934 1.25159
000070 2e 09 bd 3f 68 b2 19 3d 14 65 6c 3f cc ef c6 be
       1.4768426 0.037523657 0.9234173 -0.38854825
000080 bf 19 05 3f 54 b2 16 bf 29 81 d3 bc d6 aa 25 3f
       0.5199241 -0.5886586 -0.025818424 0.647138
000090 5b c5 27 3f 5a 3b 8a 3e 39 66 a7 3d 7a 4e c9 3f
       0.65535516 0.26998407 0.08173794 1.5727074
0000a0 37 ae 3d 3f 96 1d 76 3e f3 57 11 3f 61 d9 22 40
       0.74093956 0.24034724 0.56774825 2.5445178
0000b0 49 06 42 3f 16 64 5f bf 71 30 a0 be 22 5c f8 3e
       0.7579084 -0.87262094 -0.31286958 0.48507792
0000c0 72 fe 4a 3f 8e 54 d1 3f cb 23 6a bf 2b 3f 84 bc
       0.792945 1.6353929 -0.91460866 -0.016143402
0000d0 db 0f 1e be 9f 45 c0 3e 80 bd 8b bd 61 a1 d4 3e
       -0.15435736 0.37553117 -0.06823254 0.41529372
0000e0 30 e1 67 bf c4 fe f4 3e a7 28 e1 be 6f b2 7a bd
       -0.90577984 0.4785062 -0.43976328 -0.061205324
0000f0 ea d2 35 3e f4 b2 92 be 36 99 29 bf 17 3b 84 be
       0.17756239 -0.28652155 -0.66249406 -0.25826332
000100 4d 15 b7 bf ee 98 0c 40 5b 71 c9 bf d3 b9 b4 bc
       -1.4303375 2.196834 -1.5737718 -0.022061264
000110 e4 58 8e 3f 99 ab c8 3e 89 ac 84 bf fc 4e 32 3f
       1.1120877 0.3919342 -1.0365154 0.6965177
000120 70 fd c0 bf 05 ad 8c bf ea c8 c4 3c d6 de 03 40
       -1.5077343 -1.0990301 0.024021585 2.0604758
000130 c6 da 45 3e 3b 2c 2a 3f 0c 0b 94 bd eb a8 83 3f
       0.19321737 0.6647374 -0.072286695 1.0285925
000140 da 28 12 40 8a 7e b4 bd 1d fe 50 bf 3f c2 33 bf
       2.2837434 -0.08813198 -0.81637746 -0.7021827
000150 88 63 84 3e 78 a5 b2 be c4 2e d9 bf 7c 51 12 bf
       0.25857186 -0.34891868 -1.6967397 -0.57155585
000160 31 dd 2c bf df 41 5b 3f 31 ee 97 bd 49 81 8a bf
       -0.6752501 0.85647386 -0.07418478 -1.0820705
000170 69 24 8e 3e 30 66 c5 3d 85 d1 2d bd 5c 01 9c 3f
       0.27762154 0.09638631 -0.04243614 1.2187915
000180 7b 46 93 3f ef 8e 5c bf ed bd be 3f fd a1 04 c0
       1.1505884 -0.861556 1.4901711 -2.072387
000190 75 f5 ce 3d ca 37 5a 3f f2 b9 dc 3e 4d 64 c8 be
       0.10105411 0.8524138 0.43110615 -0.39139023
0001a0 24 55 94 3f 14 9c b6 3f a0 91 b9 be c7 52 5f 3f
       1.1588483 1.4266381 -0.36243916 0.87235683
0001b0 97 50 24 bf 23 c3 2b bf 8a b4 cf bf 5b 04 74 be
       -0.6418547 -0.6709463 -1.6226971 -0.23829786
0001c0 11 c5 08 3f 2a 98 94 bd 2e 52 4a 3f b5 ab bd 3e
       0.534257 -0.072555855 0.79031646 0.37045065
0001d0 d3 01 16 3d 60 93 17 3f 64 96 a4 bf 06 b1 1e 3f
       0.036622833 0.5920925 -1.2858396 0.61988866
0001e0 dc cb 0b c0 f6 4b 8d 3f 6c 0d c2 bf d7 d5 b8 3f
       -2.1843176 1.1038806 -1.5160346 1.4440259
0001f0 86 cc 28 3f 76 95 44 3f 11 1a 80 bf d6 1c 4b bf
       0.6593708 0.7679056 -1.0007955 -0.79340875
000200 f2 70 ec 3f af 29 d9 3e 45 73 6e bd c0 ff ba bf
       1.8471968 0.42414615 -0.0582154 -1.4609299
000210 a6 f1 0d be d6 ab 0e bf 04 d3 4d 3f a2 a8 92 3f
       -0.13861713 -0.5573095 0.8040011 1.1457713
000220 45 40 24 be 0d e3 b6 3e 25 3e b2 bf 2d 7c fc 3e
       -0.16040142 0.357201 -1.3925215 0.4931349
000230 3a 91 81 be f2 3b 8c bf 11 5d 36 bf d9 9b fa be
       -0.25306112 -1.0955794 -0.7123576 -0.48947027
000240 e2 e5 a3 3f 29 68 4a 3f 90 28 12 bf b8 b8 87 be
       1.280453 0.79065186 -0.57093143 -0.26508117
000250 22 a9 80 bf 92 5e 6b bf 09 39 2e bd 8d 35 e4 3f
       -1.0051615 -0.9194118 -0.04253486 1.7828842
000260 9e 87 3d 3f b2 83 18 3f bf 66 de 3e fa 17 21 be
       0.7403506 0.5957595 0.43437764 -0.15731803
000270 dc 1e e0 bf df 88 3f bf 06 4a 80 3e 78 9e 1c 3f
       -1.7509418 -0.74818224 0.25056475 0.61179304
000280 e9 f7 58 bf 3d 9c 14 3f 88 27 3d bf cb 6d 99 be
       -0.8475328 0.580509 -0.73888445 -0.29966578
000290 15 c7 3f 3f 1c f2 4e 3e ab 14 1c bf c9 fc 14 bd
       0.7491315 0.20209545 -0.60969037 -0.036373887
0002a0 f0 db 37 3e 2d 2c 96 3f 33 2d a7 be c0 1c f0 be
       0.17954993 1.1732231 -0.32651672 -0.46896935
0002b0 d9 3c 63 3e 7b 52 cd bf 94 c0 bf bf 63 fe a2 be
       0.2219118 -1.6040796 -1.4980645 -0.31834707
0002c0 56 2c 96 3f 41 a5 3b bf 3a f2 8c bf 7b f0 a1 bf
       1.173228 -0.7329903 -1.1011422 -1.2651514
0002d0 9b 2a 37 bf d7 1c ee 3c 3b 0f 62 be 3c 89 2a bf
       -0.71549386 0.029066486 -0.22076122 -0.66615653
0002e0 65 9c ae 3e 6e 4f 05 3f 66 5e e4 3e 07 52 87 be
       0.34103695 0.52074325 0.4460327 -0.2642977
0002f0 06 88 64 bf 4c dc 32 be a1 d0 d0 3f 4f 72 8b be
       -0.89270055 -0.17466849 1.6313668 -0.27235648
000300 ac b4 52 bf 48 03 27 40 70 70 f5 be 71 76 a3 bf
       -0.82306933 2.6095753 -0.47937346 -1.277052
000310 9f 09 b9 3e a7 fa 82 bf bf 30 b5 3f 38 2b e7 be
       0.36140153 -1.0232743 1.4155501 -0.4515016
000320 3e 9e b4 be 0e 4e 38 bf bf f9 a6 3f 09 89 c2 3e
       -0.3527698 -0.719941 1.3044966 0.37995175
000330 a0 f2 26 bf df 86 a9 bf 09 69 19 3f 9b 1f 4e 3f
       -0.65213966 -1.3244284 0.59925896 0.80516976
000340 85 f5 0b 3d 42 66 74 bf 1b ce 48 3e f8 62 ac 3e
       0.034169693 -0.95468533 0.19609873 0.33669257
000350 91 ea f2 3f 0b 81 e6 bf 5f 5a 62 be c8 bd d1 be
       1.8977834 -1.8008131 -0.22104786 -0.40965104
000360 9a bd 59 bf 3c 69 5a 3e 3a 6e 8c bf 81 a4 b3 3f
       -0.85054934 0.21329206 -1.0971138 1.4034578
000370 dd 70 ae be ac 23 58 bf 17 72 6a be 71 80 b5 be
       -0.34070483 -0.8442943 -0.22895084 -0.35449556
000380 5e 7d 61 3f 20 89 68 bd 25 cc 24 40 57 cb db 3e
       0.8808192 -0.056771398 2.57496 0.42928573
000390 49 13 a6 bf fc 6e ad 3d b6 03 6b 3f 9e 98 8d bf
       -1.2974635 0.08468434 0.9180254 -1.10622
0003a0 7d 04 93 3f cf 21 a5 bf ef 19 33 bf 61 01 f3 3c
       1.1485745 -1.2900943 -0.69961447 0.029663743
0003b0 bf 59 81 3f 35 40 4a 3e 13 fb 9b 3e 71 15 bb 3f
       1.0105513 0.19751056 0.30464992 1.4615918
0003c0 06 04 e9 3f 5e fc 6e bf 50 6c 9a bf 3f cf 5e 3f
       1.8204353 -0.9335383 -1.2064304 0.8703498
0003d0 98 b4 52 40 a2 44 e8 be 9d 7a 62 bf 4b 62 b3 bf
       3.2922726 -0.45364863 -0.88468343 -1.4014372
0003e0 b5 b9 d1 3d 58 61 81 3f 5a d2 63 bf 14 62 10 3f
       0.10240499 1.0107832 -0.88992846 0.56399655
0003f0 a2 42 d3 bd e6 87 3c 3d 8e 6f 59 3e b3 59 c0 bf
       -0.103154436 0.04602804 0.21233961 -1.5027374

blinear1.bias_sampler.mu f4 [24]
000000 6e 24 24 3c 4f fa 0a 3e 74 91 65 bd af df 78 3d
       0.010018451 0.13572048 -0.056046918 0.060760196
000010 6c 0b 2f bd 03 50 06 3e d2 bb 8e 3c a2 76 f0 bd
       -0.042735502 0.1311646 0.017423544 -0.117413774
000020 23 b7 8b 3c 2b 90 e2 bd 71 9b 17 3d 4b f0 63 ba
       0.0170551 -0.11062654 0.037013475 -0.0008695169
000030 65 6a 37 be a0 c3 cd ba 06 74 21 3c 0e b0 d9 3c
       -0.1791168 -0.001569856 0.009854322 0.026573207
000040 17 9c c2 3d 5e 9e 34 bd 8d bb 23 bd e8 b1 ae bc
       0.09502428 -0.044096343 -0.039973784 -0.021325067
000050 aa ca 0e ba f6 28 fc bd ec b1 fd bd e8 1f 04 bd
       -0.00054470694 -0.123125 -0.123874515 -0.03225699

blinear1.bias_sampler.rho f4 [24]
000000 1c e4 db c0 71 4b dd c0 68 81 e2 c0 97 d9 e0 c0
       -6.8715954 -6.915459 -7.0782967 -7.0265613
000010 e8 a8 e5 c0 90 10 dd c0 7d 55 e0 c0 b6 3d e2 c0
       -7.1768684 -6.908272 -7.0104356 -7.070033
000020 bc 31 de c0 7c ed dc c0 07 ac de c0 97 6f e1 c0
       -6.943571 -6.90399 -6.9584994 -7.044872
000030 8f c9 e4 c0 9a 5a da c0 c7 9b e5 c0 9b 9a db c0
       -7.1496043 -6.8235598 -7.175266 -6.8626227
000040 7e fc e1 c0 84 8b e0 c0 a9 91 df c0 39 af e4 c0
       -7.062072 -7.0170307 -6.986531 -7.1463895
000050 30 86 d8 c0 24 50 df c0 26 4e df c0 9e 3e e0 c0
       -6.7663803 -6.978533 -6.9782896 -7.0076437

blinear1.bias_sampler.eps_w f4 [24]
000000 06 91 b4 bf 0d 69 2e bf fa 43 be 3f 8d ae 0a 3f
       -1.4106758 -0.68129045 1.4864495 0.54172593
000010 24 87 4a bf 77 dd df 3d 74 b0 77 3e 1c a1 3a 3e
       -0.7911246 0.10930913 0.24188405 0.18225521
000020 75 56 b8 3f d0 b6 79 3d 19 32 51 bd 0a 6e 00 bf
       1.4401385 0.06096536 -0.051073167 -0.50167906
000030 08 69 af 3d 5d 29 a0 bf d4 50 c7 bf 24 2f bc 3e
       0.08564955 -1.2512623 -1.5571542 0.36754715
000040 aa 03 a9 bf 8f 2d c7 bf 40 5a 21 3f 0a f4 c3 3f
       -1.3204243 -1.5560778 0.63028336 1.530885
000050 81 a2 b4 bc c0 b2 2d 3f d9 9e 60 3d e8 6d 3c 3f
       -0.022050144 0.67850876 0.05483899 0.73605204

blinear2.weight_mu f4 [24, 24]
000000 8a ea 31 bc 8f 64 51 bd 26 06 68 bc 56 9a f5 3c
       -0.010859141 -0.05112129 -0.014161622 0.02998082
000010 3b 94 24 3c c4 54 e7 3d 23 a4 13 be 63 64 a7 3d
       0.0100451065 0.11295465 -0.14418082 0.08173444
000020 30 6b a9 3d e6 43 e6 bd d8 01 9e 3d 44 06 21 ba
       0.082723975 -0.11243419 0.077151954 -0.0006142596
000030 63 55 d5 3a 51 e8 0e 3a 1e f0 af bc 65 8c d2 3a
       0.0016276058 0.0005451488 -0.021476801 0.0016063569
000040 ab b8 fc 3c 8b 16 12 be a0 b5 0f bb 72 36 7b 3c
       0.030849775 -0.14266412 -0.0021928325 0.015332805
000050 44 0d 15 ba 42 ba 87 3d e4 2d 29 3e ec 0d c5 ba
       -0.00056858757 0.06627323 0.16521412 -0.0015034056
000060 e7 61 e9 3b 5c 7a 8c 3d e0 59 24 be 09 e2 fa 3c
       0.0071222666 0.06859276 -0.1604991 0.03062536
000070 ed 2f fd bd 73 04 17 3d 9c e0 61 bd 6f 4a 36 b9
       -0.12362657 0.036869477 -0.055145845 -0.00017384601
000080 89 bd 8f bc 8b 7a 34 be a3 fe b8 ba 3b bc 98 3d
       -0.017546432 -0.17624871 -0.0014113974 0.07457777
000090 71 57 5a bd cb b2 bc 3c f3 de 87 bd a4 76 9d bd
       -0.053306047 0.023034474 -0.06634321 -0.076886445
0000a0 b9 e4 e5 3c 2c 28 0a 3e 4d 31 23 3e 33 7b e9 bc
       0.028063165 0.13491887 0.15936776 -0.028501129
0000b0 68 e1 0b 3e 67 01 06 be a5 98 9e 3b 40 a5 50 3c
       0.13660204 -0.13086472 0.004839974 0.012734711
0000c0 f6 e1 94 bc e5 24 82 bd ae 0f e0 bb fe 32 6e bd
       -0.018174153 -0.06354693 -0.0068378067 -0.0581541
0000d0 94 3a e0 39 14 4c 8b 3d 1a 7c fc bb 01 2e b7 3d
       0.00042768253 0.0680162 -0.0077052237 0.089443214
0000e0 dc 52 38 3d 81 ef 75 bd d1 b0 ad 3d a2 ab 39 3d
       0.045000896 -0.06004286 0.08480991 0.045329697
0000f0 ac fe 71 be c8 4a 5b 3d ef f6 38 bd 7f 73 22 bc
       -0.23632306 0.053538114 -0.04515737 -0.009915232
000100 e2 3a 24 3d b9 2f 35 3e 24 c6 8c 3a 16 4b a9 3d
       0.040095218 0.17693986 0.0010740203 0.08266275
000110 29 b2 5a 3a 80 cf 80 3e d3 7c db bd eb 0b 3d 3b
       0.0008342588 0.2515831 -0.10717168 0.0028846215
000120 4e a9 99 3d 5a bf 74 3d f8 04 10 3d ee f0 47 bd
       0.075029954 0.0597528 0.03516099 -0.048813753
000130 66 65 d2 3d 4f 90 cc bb 0c 1b c6 3b d2 30 8a bb
       0.102732465 -0.006242789 0.0060457047 -0.0042172456
000140 21 11 1e 3e ce 8e f3 39 14 81 f9 3d d6 d9 be 3d
       0.15436222 0.0004645497 0.12182823 0.09318893
000150 2a 2d 93 bd c4 cc d2 3a 18 65 8c bc 2e 94 09 bc
       -0.07186349 0.0016082753 -0.017138049 -0.008397145
000160 c4 1f 54 3d 6e 1f 06 3c 17 95 42 3c 37 c3 21 3d
       0.051788107 0.008186204 0.011876366 0.039492812
000170 4b c3 f0 bb fe 09 e5 bc d8 74 a3 b8 1e fd a3 bd
       -0.0073474995 -0.027958866 -7.7942095e-05 -0.08007263
000180 a2 56 98 3d 2a 3c 9e bc a3 0f 09 be 0c d7 3b bd
       0.07438399 -0.019315798 -0.13384871 -0.04585938
000190 6c 92 fa bd 12 40 12 3e 80 fc cb bd 4c 01 ce bd
       -0.12234959 0.14282253 -0.0996027 -0.10058841
0001a0 4e 6e 32 3e e1 6f 48 bd 72 a7 f2 3d 36 17 3a 3b
       0.1742489 -0.04893482 0.11848344 0.0028395182
0001b0 14 2d 8a bb 92 70 2c bb 79 db bc 3d 37 67 14 3e
       -0.0042167995 -0.0026312214 0.092215486 0.14492498
0001c0 af d2 9b 3b c5 fd 01 bd 53 de b9 bd 8a 3f 01 be
       0.00475534 -0.031736154 -0.09075608 -0.12621894
0001d0 5e f8 7e bd 16 25 9a 3c 59 40 8a bd 50 d5 68 bd
       -0.06224858 0.018816512 -0.067505546 -0.056844056
0001e0 5b 4c e0 3d e3 d9 d2 3b 2f a3 be bc 0f 07 e9 bd
       0.10952064 0.0064346655 -0.023271171 -0.113782994
0001f0 7d 06 26 be 15 d3 bf bd e6 56 26 3c 25 3c 5f bc
       -0.16213413 -0.093664326 0.010152554 -0.013625179
000200 5d a5 70 3d 69 54 9c 3c 54 08 ed bc d8 8e 8c 38
       0.058751453 0.019083219 -0.028934635 6.702327e-05
000210 99 15 de bd f8 18 dd 3d 98 d5 28 3e b6 52 1b bb
       -0.10843963 0.10795778 0.1648773 -0.0023700423
000220 91 cd 76 3d 35 d8 45 3e 02 ff 9c 3d a0 ea 31 be
       0.060254637 0.19320758 0.076658264 -0.17374659
000230 68 01 53 3e c6 57 01 be 23 2f 01 bd fa 48 17 3e
       0.20606005 -0.12631139 -0.031539094 0.14773932
000240 45 72 88 bd 32 4b 1c 3c 80 15 ae 3d ab 0c 82 bd
       -0.0666242 0.009539412 0.085001945 -0.063500725
000250 c3 d1 a8 bd c1 94 d9 3b d8 a6 70 bb a0 b8 d7 3d
       -0.08243134 0.0066400473 -0.003672054 0.10533261
000260 93 2e 5b 3d 9b 53 4a 3d 5b 4d 2e bd a9 35 5d bd
       0.053511214 0.04939614 -0.04255424 -0.054006252
000270 9a 72 00 be 91 4a ca bd 62 af ee 3d f8 36 4a 3e
       -0.12543717 -0.09877504 0.11654545 0.19747531
000280 c3 73 79 3b c1 5f 27 3b 98 a8 d2 bc ba cd 10 be
       0.0038063384 0.0025539252 -0.025715157 -0.14140978
000290 5d 17 6a bc 38 26 0d bc 5c ec f5 3c 11 7e 13 3d
       -0.014287797 -0.008615069 0.030019931 0.0360089
0002a0 ed 8f 9e 3a 9b 7b c7 bc ec 9d d5 3d f3 36 20 3c
       0.0012097337 -0.024350932 0.10430512 0.009778726
0002b0 ec ad 6b bc 2a a6 b0 bb 63 a3 0f 3e c9 21 6b 3d
       -0.014384728 -0.005390902 0.14027171 0.057405267
0002c0 e9 49 95 39 21 66 c4 3c c7 97 1a 3a 9d 92 2e 3b
       0.00028474562 0.02397448 0.00058972504 0.0026637681
0002d0 3d 3e 36 3e d9 5c 11 bc be 79 a6 3d 49 96 33 3d
       0.1779718 -0.008872234 0.08128689 0.043844495
0002e0 87 8b 18 3d df 5a 10 3d a1 24 07 3c 78 19 05 3d
       0.03724244 0.03524291 0.008248479 0.032494992
0002f0 b8 0b 0d 3e 15 34 8b 3d 5c ae 08 bb 62 8b b8 3c
       0.13774002 0.06797043 -0.002085588 0.0225274
000300 8b 79 ad 3d 22 6f f2 bc 8b 54 35 3a 7b 35 57 3d
       0.08470448 -0.029594008 0.00069172 0.052541237
000310 e4 90 e3 3d 63 88 6e 3d e6 11 8f 3c eb 55 ce 3d
       0.1111162 0.058235537 0.01746459 0.10074981
000320 61 b8 12 3e a3 fa cf bc 8c a3 fe 3d dd e6 96 3d
       0.14328147 -0.025388068 0.12433538 0.073682524
000330 0f 55 27 bd 9a 82 e5 3d b8 41 ef 3c f4 58 1d 3a
       -0.040852603 0.11206551 0.029206142 0.000600233
000340 70 39 78 bd 24 7d f2 3d 44 f9 e2 bb 2e 96 d4 3d
       -0.06060165 0.11840275 -0.0069266874 0.10380207
000350 ef f4 dd 3d 7b db ce 3d 54 c3 f1 3c 9e 1a e8 bd
       0.10837733 0.10100456 0.029512085 -0.11333202
000360 aa f6 38 3e 7d 13 24 3e 81 4a 53 be 7b 5f 43 3e
       0.18062845 0.16023059 -0.2063389 0.19079392
000370 64 44 45 bc fc 11 d4 3d fd 33 96 3b d1 f9 07 3b
       -0.012040231 0.10354993 0.004583834 0.0020748267
000380 54 c4 5a bd c7 93 d0 3a 52 ea 98 bd a4 17 a9 3d
       -0.05340989 0.0015913182 -0.07466568 0.08256462
000390 bc 22 a9 bc b2 fe d2 bc 87 55 00 3e cd f7 cc bd
       -0.020646445 -0.025756214 0.12532626 -0.10008202
0003a0 48 9c 7f 3d da cf 4f 3d b4 e5 3e be 58 ca 08 3e
       0.0624049 0.050735332 -0.18642312 0.13358438
0003b0 7f bb 83 bd ba ce af 3a c6 f7 18 3b 79 98 5e 3d
       -0.064322464 0.001341305 0.0023341044 0.054344628
0003c0 15 8a 2d bc d8 74 4e 3e 03 e6 9f bd c1 73 b6 3c
       -0.010592003 0.2016176 -0.07807543 0.022271993
0003d0 bc b9 1b 3e 58 b5 e8 bc 3c a8 b3 bc e0 69 86 3d
       0.15207571 -0.028406784 -0.021930806 0.06563163
0003e0 2e 0b d7 bd b1 9c 82 bd de fe db bc d8 b8 ee 39
       -0.10500179 -0.06377543 -0.026854929 0.00045532617
0003f0 0b 40 c3 bd a6 69 17 ba 9e 75 38 3c 10 dc 04 be
       -0.095336996 -0.0005775936 0.011258511 -0.12974572
