summit/benchmarks/experiment_emulator/trained_models/BNN/reizman_suzuki_case2_yield_7_BNN_model.pt (torch, 27999 bytes, 35 tensors)

blinear1.weight_mu f4 [24, 11]
0.023407584 -0.046635557 -0.0032341399 -0.044079926 0.007871349 0.008083639 -0.016143475 0.017547369
0.059871063 -0.026424028 -0.13111517 -0.19077496 -0.043530412 0.05729104 -0.0025089248 -0.10392161
0.14892763 0.004636749 0.06471809 -0.13125752 0.03441272 0.07900982 -0.0045714052 -0.050907865
0.08012702 0.031242514 0.0019248907 0.045561668 0.052390676 0.12573694 -0.043583494 0.03098737
0.00015923774 0.13016081 0.11953625 0.09026934 -0.08443123 0.0026457952 0.00033173454 -0.00020789294
-0.053825118 0.075468466 0.020998701 -0.025360772 -0.0018562282 0.015725216 -0.1146542 0.050590657
0.062125765 -0.027451793 -0.0012124979 -0.02110572 -0.011006966 0.010690197 0.0787618 0.0366336
-0.1028103 0.09597398 0.31576616 0.068349816 0.004657618 -0.07684426 0.050926644 -0.09781947
-0.07987538 -0.06167141 -0.21466893 -0.000824324 0.026004726 -0.017383903 -0.04687998 -0.05848407
-0.12782885 -0.01024623 0.0013882953 0.08229367 -0.202023 -0.0012020811 -0.00079331023 -0.06243305
-0.0013261465 0.022660322 -0.0016517352 0.17581233 0.04407801 0.16666736 0.19094945 0.0009451867
-0.03253768 -0.025930712 -0.20666187 -0.04389377 0.011921088 0.059256434 0.0006012696 -0.0020192845
0.03930962 -0.022825435 -0.05148226 -0.0032998999 -0.11589982 -0.00077804644 -0.0015906843 -0.1492923
0.13745248 0.0715961 -0.10998072 -0.13229518 0.027677909 0.0138115715 -0.005751026 -0.00028247328
-0.0006423902 -0.0045895404 -0.025014425 -0.056760445 0.09532355 -1.827153e-05 -0.009310806 0.0018747493
-0.03107768 0.10401814 -0.22420017 0.1022998 0.03193187 0.05215455 0.010288594 0.08988404
-0.16798972 -0.014715411 -0.02425074 -0.00024649827 -0.04036765 0.032314703 -6.8967725e-05 0.119939245
-0.19266617 -0.1652908 -0.055763766 0.046303477 -0.000785006 8.588019e-05 0.15015793 -0.0026503175
0.016375665 0.007888453 -0.017119963 -0.08096713 0.0012913148 0.03419831 -0.07204267 0.04433436
0.015245666 -0.00075046095 0.03558096 -0.0014035227 -0.00029690465 0.050560873 0.110727675 -0.11390099
-0.001448157 -0.17299892 -0.06180652 -0.036643315 0.10586935 0.15148827 0.04802693 0.027556
-0.10855965 0.08814534 -0.06740327 -0.0510553 -0.027490756 -0.066088445 -0.21660222 0.07272852
0.06792857 -0.18259828 0.09776196 -0.03661013 0.024851926 -0.019703358 0.020321585 0.0012797996
0.030103818 0.109839894 0.06377815 0.06587023 -0.11363633 -0.20825028 -0.0003683305 -0.033686314
0.12808752 0.00013075484 -0.07655612 0.08926822 0.002381849 -0.021780029 0.0029533766 0.2040242
-0.1440774 -0.00066008966 0.006523027 0.09152667 -0.10286921 0.108517334 0.010117888 0.045714084
-0.07979077 0.0013370477 -0.11169046 -0.07809618 -0.05699843 -0.00882623 -0.035303567 0.08656941
0.112447605 -0.17229526 0.028018989 0.023625415 -0.0061718025 -0.014814177 -0.0027823378 -0.16310167
0.08862866 -0.15382163 -0.23424262 0.053343557 0.0066467416 -0.20931351 -0.13027637 0.089967676
0.00224907 -0.1209415 -0.048318863 -0.008375606 0.0013571228 0.002379347 -0.048287872 0.09921464
-0.043259043 -0.00062406197 0.08060531 0.013382605 0.03366548 0.033496775 -0.0063468395 -0.07267247
0.13805172 0.119449556 0.0002767744 0.073156014 0.16792002 0.0738716 0.06112839 -0.050643366
00000000: 43c1 bf3c ed04 3fbd ddf3 53bb 278d 34bd
00000010: d5f6 003c 3d71 043c 523f 84bc 80bf 8f3c
00000020: 5c3b 753d 3477 d8bc 0e43 06be 835a 43be
00000030: f24c 32bd 02aa 6a3d c66c 24bb dad4 d4bd
00000040: 7c80 183e dfef 973b eb8a 843d 5f68 06be
00000050: 5af4 0c3d e7cf a13d bacb 95bb c484 50bd
00000060: a319 a43d 4df0 ff3c 9d4c fc3a df9e 3a3d
00000070: 9b97 563d 2fc1 003e 9b84 32bd 3ad9 fd3c
00000080: 0ef9 2639 e048 053e 6ccf f43d 22df b83d
00000090: 48ea acbd 1465 2d3b a8ec ad39 d6fd 59b9
000000a0: ba77 5cbd 368f 9a3d 7805 ac3c 65c1 cfbc
000000b0: af4c f3ba 2bd2 803c d2cf eabd 2638 4f3d
000000c0: 9677 7e3d 95e2 e0bc aeec 9eba e7e5 acbc
000000d0: 9056 34bc f025 2f3c de4d a13d 1d0d 163d
000000e0: 358e d2bd 028e c43d 1aac a13e fdfa 8b3d
000000f0: ee9e 983b 8660 9dbd 7598 503d 9355 c8bd
00000100: b495 a3bd 299b 7cbd 2cd2 5bbe 7217 58ba
00000110: dd07 d53c b068 8ebc 3905 40bd fe8c 6fbd
00000120: 91e5 02be cedf 27bc 76f7 b53a 9589 a83d
00000130: 1edf 4ebe 268f 9dba 26f6 4fba ccb9 7fbd
00000140: 18d2 adba 24a2 b93c 097f d8ba 2608 343e
00000150: 258b 343d d9aa 2a3e 4188 433e 68c6 773a
00000160: 3b46 05bd a56c d4bc 2b9f 53be f4c9 33bd
00000170: ab50 433c e0b6 723d 859e 1d3a f955 04bb
00000180: 2003 213d 68fc babc 10df 52bd 2243 58bb
00000190: e35c edbd d0f5 4bba 827e d0ba 15e0 18be
000001a0: 58c0 0c3e faa0 923d 923d e1bd 6378 07be
000001b0: c8bc e23c ee49 623c 1a73 bcbb ec18 94b9
000001c0: 1466 28ba db63 96bb 0deb ccbc a47d 68bd
000001d0: fe38 c33d d045 99b7 5a8c 18bc 26ba f53a
000001e0: 9e96 febc 7607 d53d bb94 65be 8f82 d13d
000001f0: feca 023d 02a0 553d 7e91 283c 2015 b83d
00000200: 7f05 2cbe e818 71bc 7da9 c6bc 703c 81b9
00000210: 8d58 25bd 6c5c 043d c4a2 90b8 b5a2 f53d
00000220: 484a 45be fe41 29be 8c68 64bd b7a8 3d3d
00000230: dcc8 4dba 931a b438 00c3 193e f3b0 2dbb
00000240: 4226 863c 923e 013c 2a3f 8cbc 18d2 a5bd
00000250: 5641 a93a 8713 0c3d 1b8b 93bd f297 353d
00000260: f5c8 793c 95ba 44ba 57bd 113d 68f6 b7ba
00000270: dea9 9bb9 eb18 4f3d 31c5 e23d ec44 e9bd
00000280: 16d0 bdba a126 31be d528 7dbd 4d17 16bd
00000290: 08d2 d83d be1f 1b3e e3b7 443d 1fbd e13c
000002a0: 8654 debd 8b85 b43d ba0a 8abd 5d1f 51bd
000002b0: 4b34 e1bc 6159 87bd f9cc 5dbe b1f2 943d
000002c0: 221e 8b3d 0bfb 3abe 6c37 c83d 81f4 15bd
000002d0: 4496 cb3c f068 a1bc 7479 a63c f3be a73a
000002e0: 489c f63c bdf3 e03d 1e9e 823d f9e6 863d
000002f0: 2aba e8bd 903f 55be 7c1c c1b9 a9fa 09bd
00000300: 6029 033e 3c1b 0939 74c9 9cbd 42d2 b63d
00000310: cc18 1c3b 086c b2bc 708d 413b b8eb 503e
00000320: 0789 13be de09 2dba 1ebf d53b 5672 bb3d
00000330: 18ad d2bd 563e de3d 80c5 253c b13e 3b3d
00000340: 5869 a3bd e03f af3a f8bd e4bd e4f0 9fbd
00000350: 3077 69bd e49b 10bc 799a 10bd 4e4b b13d
00000360: ee4a e63d 2b6e 30be 1488 e53c 168a c13c
00000370: d53c cabb 29b7 72bc e257 36bb 2004 27be
00000380: f182 b53d 6b83 1dbe 4cdd 6fbe c67e 5a3d
00000390: e9cc d93b 4856 56be 2b67 05be f940 b83d
000003a0: 2265 133b 2db0 f7bd 00ea 45bd d639 09bc
000003b0: 7ce1 b13a d2ee 1b3b 81c9 45bd 0c31 cb3d
000003c0: 6530 31bd 1798 23ba 6614 a53d b742 5b3c
000003d0: d0e4 093d ea33 093d 26f9 cfbb 4ed5 94bd
000003e0: 6e5d 0d3e f8a1 f43d 081c 9139 d2d2 953d
000003f0: 3af3 2b3e fe49 973d c361 7a3d 6b6f 4fbd

blinear1.weight_rho f4 [24, 11]
-7.101082 -6.9313293 -6.997008 -7.062821 -6.8575783 -6.979863 -7.0254707 -7.122773
-7.069224 -6.972347 -6.871035 -6.7865005 -6.8766007 -7.083687 -6.84701 -7.074979
-6.9991198 -6.928397 -6.81323 -7.1849184 -6.94601 -6.9885015 -6.9993896 -6.9914536
-7.0223656 -6.9945793 -7.1041317 -7.167893 -6.979291 -7.0748024 -6.9978523 -7.0502133
-6.994601 -7.0654764 -6.950025 -6.99884 -7.0785837 -6.943048 -6.93319 -7.0251493
-7.3435535 -7.1078773 -6.702633 -7.0225244 -7.0467987 -6.909332 -6.6943083 -6.9619174
-7.053022 -6.949557 -7.2107024 -7.1839466 -7.052583 -7.042629 -7.0388927 -7.119782
-6.7199917 -7.0541544 -7.0051403 -7.0529795 -6.930317 -6.99423 -7.1488185 -7.0283356
-7.0121856 -6.954107 -6.929687 -6.8922243 -7.0844254 -7.1098905 -6.8452845 -6.9656324
-7.0372353 -6.9728727 -6.945379 -6.979183 -7.0107574 -6.9045043 -7.019641 -6.8989472
-7.131125 -7.1172805 -7.045278 -6.9138145 -7.017216 -7.038075 -6.9863605 -6.874045
-6.9532294 -7.004885 -6.975093 -7.150064 -7.126802 -7.1676836 -7.120815 -7.032811
-6.906988 -7.063851 -7.0079947 -7.1475377 -6.9665165 -6.864707 -7.0080934 -7.031711
-6.9701204 -7.088594 -7.110556 -6.753577 -6.778976 -6.928935 -7.15465 -6.917292
-6.8925533 -6.816226 -7.0062704 -6.992389 -7.097367 -6.916114 -7.1284986 -6.8469872
-6.994164 -7.0224466 -7.0869102 -7.003608 -7.135478 -7.0356293 -6.8890104 -7.04343
-6.904918 -7.0102024 -7.10947 -7.064886 -7.0117764 -6.920348 -7.001516 -7.0648484
-7.099572 -7.1398897 -6.9532924 -7.0722513 -7.001871 -7.062119 -6.891771 -7.05014
-6.9106874 -6.963695 -6.9886394 -6.7109637 -7.1568604 -7.065437 -7.0058084 -6.958164
-7.1674566 -7.1632357 -6.850583 -6.848531 -6.7695003 -6.9194803 -6.9249206 -7.1702113
-6.9707494 -7.0928497 -6.845907 -7.173318 -6.8579445 -6.8656473 -6.9861145 -6.9657903
-6.9456773 -6.9453893 -6.8720307 -6.9226375 -6.8964806 -6.930883 -7.0222607 -6.7809577
-6.87318 -7.004918 -7.029831 -6.9871044 -7.0197577 -7.0760226 -7.041622 -6.9802475
-7.005176 -7.110551 -6.988698 -6.896913 -6.957261 -7.083905 -7.1626554 -6.9361978
-7.0565696 -7.1211476 -6.967897 -7.0628047 -7.002363 -6.92944 -6.9425364 -6.9651065
-7.1347938 -7.058825 -7.180713 -6.9410033 -7.012465 -7.07729 -7.0900455 -6.9122844
-6.96983 -6.8238754 -7.1001177 -7.002326 -6.9496164 -6.855838 -7.101693 -6.961183
-7.1732774 -6.9584804 -6.9206395 -7.0794864 -6.861263 -7.151703 -7.1017675 -6.9862366
-7.111418 -7.022861 -7.009413 -6.93621 -7.065522 -7.097543 -6.95869 -6.9120674
-7.0564218 -6.9098353 -6.958961 -7.0614157 -7.1576586 -6.9701385 -6.9257526 -6.9772706
-6.9001474 -7.113482 -6.9900975 -6.856297 -6.888864 -7.0679445 -6.866679 -7.037554
-7.1135607 -6.8218517 -7.026677 -6.91462 -6.985366 -6.904461 -7.1802588 -7.128594
00000000: 103c e3c0 73cd ddc0 7de7 dfc0 a102 e2c0
00000010: 4871 dbc0 0a5b dfc0 a8d0 e0c0 c2ed e3c0
00000020: 1537 e2c0 771d dfc0 85df dbc0 032b d9c0
00000030: 1d0d dcc0 90ad e2c0 b51a dbc0 3a66 e2c0
00000040: caf8 dfc0 6eb5 ddc0 fb05 dac0 daea e5c0
00000050: b745 dec0 cea1 dfc0 00fb dfc0 fdb9 dfc0
00000060: 38b7 e0c0 98d3 dfc0 0c55 e3c0 615f e5c0
00000070: 5a56 dfc0 c864 e2c0 68ee dfc0 599b e1c0
00000080: c5d3 dfc0 6218 e2c0 9b66 dec0 7ff6 dfc0
00000090: c283 e2c0 732d dec0 b1dc ddc0 06ce e0c0
000000a0: 64fe eac0 bb73 e3c0 f87b d6c0 85b8 e0c0
000000b0: 607f e1c0 3f19 ddc0 c637 d6c0 07c8 dec0
000000c0: 5bb2 e1c0 c562 dec0 13be e6c0 e4e2 e5c0
000000d0: c3ae e1c0 375d e1c0 9c3e e1c0 41d5 e3c0
000000e0: 2c0a d7c0 a2bb e1c0 1c2a e0c0 02b2 e1c0
000000f0: 28c5 ddc0 bbd0 dfc0 1fc3 e4c0 20e8 e0c0
00000100: d363 e0c0 0b88 dec0 ffbf ddc0 1a8d dcc0
00000110: 9db3 e2c0 3984 e3c0 920c dbc0 76e6 dec0
00000120: 0831 e1c0 c621 dfc0 8b40 dec0 7855 dfc0
00000130: 2058 e0c0 b3f1 dcc0 e6a0 e0c0 2dc4 dcc0
00000140: 2d32 e4c0 c3c0 e3c0 eb72 e1c0 f83d ddc0
00000150: 098d e0c0 e937 e1c0 4490 dfc0 2df8 dbc0
00000160: db80 dec0 0528 e0c0 f633 dfc0 53cd e4c0
00000170: c30e e4c0 aa5d e5c0 b7dd e3c0 ca0c e1c0
00000180: 0c06 ddc0 110b e2c0 7e41 e0c0 a1b8 e4c0
00000190: b4ed dec0 aeab dbc0 4d42 e0c0 c703 e1c0
000001a0: 3a0b dfc0 c3d5 e2c0 ad89 e3c0 4e1d d8c0
000001b0: 5fed d8c0 d6b9 ddc0 e5f2 e4c0 755a ddc0
000001c0: cc8f dcc0 861e dac0 5e33 e0c0 a7c1 dfc0
000001d0: a11d e3c0 ce50 ddc0 a91c e4c0 851a dbc0
000001e0: 31d0 dfc0 e2b7 e0c0 f8c7 e2c0 8f1d e0c0
000001f0: d655 e4c0 e023 e1c0 c672 dcc0 c763 e1c0
00000200: 17f5 dcc0 9453 e0c0 c780 e3c0 8c13 e2c0
00000210: 7960 e0c0 7e73 ddc0 6b0c e0c0 3d13 e2c0
00000220: b22f e3c0 fa79 e4c0 5f81 dec0 e24f e2c0
00000230: 540f e0c0 e1fc e1c0 6389 dcc0 bf9a e1c0
00000240: 5a24 ddc0 97d6 dec0 efa2 dfc0 37c0 d6c0
00000250: 0005 e5c0 0f18 e2c0 952f e0c0 48a9 dec0
00000260: ce5b e5c0 3a39 e5c0 fa37 dbc0 2a27 dbc0
00000270: bf9f d8c0 626c ddc0 f398 ddc0 5f72 e5c0
00000280: 6110 dfc0 a0f8 e2c0 ac11 dbc0 d28b e5c0
00000290: 4874 dbc0 62b3 dbc0 408e dfc0 c1e7 dec0
000002a0: fd42 dec0 a140 dec0 ade7 dbc0 3f86 ddc0
000002b0: f8af dcc0 cbc9 ddc0 5cb6 e0c0 9bfd d8c0
000002c0: 17f1 dbc0 4a28 e0c0 60f4 e0c0 5c96 dfc0
000002d0: dba1 e0c0 c76e e2c0 f854 e1c0 305e dfc0
000002e0: 672a e0c0 a289 e3c0 6aa3 dfc0 83b3 dcc0
000002f0: e2a1 dec0 5aaf e2c0 7934 e5c0 55f5 ddc0
00000300: 6bcf e1c0 71e0 e3c0 03f9 dec0 7f02 e2c0
00000310: 5c13 e0c0 f9bd ddc0 4229 dec0 27e2 dec0
00000320: 3b50 e4c0 e5e1 e1c0 67c8 e5c0 b31c dec0
00000330: 1d66 e0c0 2979 e2c0 a7e1 e2c0 6f31 ddc0
00000340: d908 dfc0 305d dac0 2a34 e3c0 0e13 e0c0
00000350: 4263 dec0 0663 dbc0 1241 e3c0 03c2 dec0
00000360: 7d8b e5c0 dfab dec0 e175 ddc0 278b e2c0
00000370: 778f dbc0 c0da e4c0 ae41 e3c0 408f dfc0
00000380: bc90 e3c0 47bb e0c0 1c4d e0c0 6ff5 ddc0
00000390: c218 e2c0 121f e3c0 97ad dec0 a82f ddc0
000003a0: 35ce e1c0 5f1d ddc0 cfaf dec0 1ef7 e1c0
000003b0: 8a0b e5c0 600b dfc0 c49f ddc0 cd45 dfc0
000003c0: 02ce dcc0 a5a1 e3c0 e1ae dfc0 c966 dbc0
000003d0: 9371 dcc0 9a2c e2c0 d6bb dbc0 a433 e1c0
000003e0: 4aa2 e3c0 9c4c dac0 8ada e0c0 9144 ddc0
000003f0: 1e88 dfc0 58f1 dcc0 aec4 e5c0 711d e4c0

blinear1.bias_mu f4 [24]
-0.002489801 0.2050839 -0.013147846 -0.12094038 0.118224055 -0.0047425814 -0.029066436 -0.16058874
-0.027729169 -0.088107504 -0.0041532223 -0.044118 -0.0026600845 -0.062981844 0.11087444 0.021013914
-0.0704817 0.122429036 -0.0066369995 -0.07768183 0.08567322 -0.04060578 0.08210368 -0.19544932
00000000: ee2b 23bb 8401 523e 106a 57bc 97af f7bd
00000010: 741f f23d a867 9bbb bc1c eebc 6071 24be
00000020: 4828 e3bc b571 b4bd c117 88bb 13b5 34bd
00000030: d054 2ebb a0fc 80bd 2312 e33d 5f25 ac3c
00000040: b658 90bd 13bc fa3d 307b d9bb a717 9fbd
00000050: 7175 af3d 3f52 26bd f925 a83d de23 48be

blinear1.bias_rho f4 [24]
-7.192057 -6.8422327 -7.0579915 -6.8298917 -7.1242332 -6.94586 -6.9571724 -7.0248327
-7.134338 -6.9943314 -6.964238 -6.9138994 -7.0347643 -6.9129376 -6.961957 -7.053999
-7.1933384 -6.9593225 -6.926508 -6.913084 -6.968463 -7.0009885 -6.9912415 -6.81764
00000000: 5525 e6c0 92f3 dac0 11db e1c0 798e dac0
00000010: b8f9 e3c0 7c44 dec0 28a1 dec0 6ecb e0c0
00000020: 7f4c e4c0 90d1 dfc0 0adb dec0 aa3e ddc0
00000030: ca1c e1c0 c936 ddc0 5ac8 dec0 5cba e1c0
00000040: d42f e6c0 c5b2 dec0 f4a5 ddc0 fc37 ddc0
00000050: a6fd dec0 1908 e0c0 40b8 dfc0 1b2a dac0

blinear1.weight_sampler.mu f4 [24, 11]
0.023407584 -0.046635557 -0.0032341399 -0.044079926 0.007871349 0.008083639 -0.016143475 0.017547369
0.059871063 -0.026424028 -0.13111517 -0.19077496 -0.043530412 0.05729104 -0.0025089248 -0.10392161
0.14892763 0.004636749 0.06471809 -0.13125752 0.03441272 0.07900982 -0.0045714052 -0.050907865
0.08012702 0.031242514 0.0019248907 0.045561668 0.052390676 0.12573694 -0.043583494 0.03098737
0.00015923774 0.13016081 0.11953625 0.09026934 -0.08443123 0.0026457952 0.00033173454 -0.00020789294
-0.053825118 0.075468466 0.020998701 -0.025360772 -0.0018562282 0.015725216 -0.1146542 0.050590657
0.062125765 -0.027451793 -0.0012124979 -0.02110572 -0.011006966 0.010690197 0.0787618 0.0366336
-0.1028103 0.09597398 0.31576616 0.068349816 0.004657618 -0.07684426 0.050926644 -0.09781947
-0.07987538 -0.06167141 -0.21466893 -0.000824324 0.026004726 -0.017383903 -0.04687998 -0.05848407
-0.12782885 -0.01024623 0.0013882953 0.08229367 -0.202023 -0.0012020811 -0.00079331023 -0.06243305
-0.0013261465 0.022660322 -0.0016517352 0.17581233 0.04407801 0.16666736 0.19094945 0.0009451867
-0.03253768 -0.025930712 -0.20666187 -0.04389377 0.011921088 0.059256434 0.0006012696 -0.0020192845
0.03930962 -0.022825435 -0.05148226 -0.0032998999 -0.11589982 -0.00077804644 -0.0015906843 -0.1492923
0.13745248 0.0715961 -0.10998072 -0.13229518 0.027677909 0.0138115715 -0.005751026 -0.00028247328
-0.0006423902 -0.0045895404 -0.025014425 -0.056760445 0.09532355 -1.827153e-05 -0.009310806 0.0018747493
-0.03107768 0.10401814 -0.22420017 0.1022998 0.03193187 0.05215455 0.010288594 0.08988404
-0.16798972 -0.014715411 -0.02425074 -0.00024649827 -0.04036765 0.032314703 -6.8967725e-05 0.119939245
-0.19266617 -0.1652908 -0.055763766 0.046303477 -0.000785006 8.588019e-05 0.15015793 -0.0026503175
0.016375665 0.007888453 -0.017119963 -0.08096713 0.0012913148 0.03419831 -0.07204267 0.04433436
0.015245666 -0.00075046095 0.03558096 -0.0014035227 -0.00029690465 0.050560873 0.110727675 -0.11390099
-0.001448157 -0.17299892 -0.06180652 -0.036643315 0.10586935 0.15148827 0.04802693 0.027556
-0.10855965 0.08814534 -0.06740327 -0.0510553 -0.027490756 -0.066088445 -0.21660222 0.07272852
0.06792857 -0.18259828 0.09776196 -0.03661013 0.024851926 -0.019703358 0.020321585 0.0012797996
0.030103818 0.109839894 0.06377815 0.06587023 -0.11363633 -0.20825028 -0.0003683305 -0.033686314
0.12808752 0.00013075484 -0.07655612 0.08926822 0.002381849 -0.021780029 0.0029533766 0.2040242
-0.1440774 -0.00066008966 0.006523027 0.09152667 -0.10286921 0.108517334 0.010117888 0.045714084
-0.07979077 0.0013370477 -0.11169046 -0.07809618 -0.05699843 -0.00882623 -0.035303567 0.08656941
0.112447605 -0.17229526 0.028018989 0.023625415 -0.0061718025 -0.014814177 -0.0027823378 -0.16310167
0.08862866 -0.15382163 -0.23424262 0.053343557 0.0066467416 -0.20931351 -0.13027637 0.089967676
0.00224907 -0.1209415 -0.048318863 -0.008375606 0.0013571228 0.002379347 -0.048287872 0.09921464
-0.043259043 -0.00062406197 0.08060531 0.013382605 0.03366548 0.033496775 -0.0063468395 -0.07267247
0.13805172 0.119449556 0.0002767744 0.073156014 0.16792002 0.0738716 0.06112839 -0.050643366
00000000: 43c1 bf3c ed04 3fbd ddf3 53bb 278d 34bd
00000010: d5f6 003c 3d71 043c 523f 84bc 80bf 8f3c
00000020: 5c3b 753d 3477 d8bc 0e43 06be 835a 43be
00000030: f24c 32bd 02aa 6a3d c66c 24bb dad4 d4bd
00000040: 7c80 183e dfef 973b eb8a 843d 5f68 06be
00000050: 5af4 0c3d e7cf a13d bacb 95bb c484 50bd
00000060: a319 a43d 4df0 ff3c 9d4c fc3a df9e 3a3d
00000070: 9b97 563d 2fc1 003e 9b84 32bd 3ad9 fd3c
00000080: 0ef9 2639 e048 053e 6ccf f43d 22df b83d
00000090: 48ea acbd 1465 2d3b a8ec ad39 d6fd 59b9
000000a0: ba77 5cbd 368f 9a3d 7805 ac3c 65c1 cfbc
000000b0: af4c f3ba 2bd2 803c d2cf eabd 2638 4f3d
000000c0: 9677 7e3d 95e2 e0bc aeec 9eba e7e5 acbc
000000d0: 9056 34bc f025 2f3c de4d a13d 1d0d 163d
000000e0: 358e d2bd 028e c43d 1aac a13e fdfa 8b3d
000000f0: ee9e 983b 8660 9dbd 7598 503d 9355 c8bd
00000100: b495 a3bd 299b 7cbd 2cd2 5bbe 7217 58ba
00000110: dd07 d53c b068 8ebc 3905 40bd fe8c 6fbd
00000120: 91e5 02be cedf 27bc 76f7 b53a 9589 a83d
00000130: 1edf 4ebe 268f 9dba 26f6 4fba ccb9 7fbd
00000140: 18d2 adba 24a2 b93c 097f d8ba 2608 343e
00000150: 258b 343d d9aa 2a3e 4188 433e 68c6 773a
00000160: 3b46 05bd a56c d4bc 2b9f 53be f4c9 33bd
00000170: ab50 433c e0b6 723d 859e 1d3a f955 04bb
00000180: 2003 213d 68fc babc 10df 52bd 2243 58bb
00000190: e35c edbd d0f5 4bba 827e d0ba 15e0 18be
000001a0: 58c0 0c3e faa0 923d 923d e1bd 6378 07be
000001b0: c8bc e23c ee49 623c 1a73 bcbb ec18 94b9
000001c0: 1466 28ba db63 96bb 0deb ccbc a47d 68bd
000001d0: fe38 c33d d045 99b7 5a8c 18bc 26ba f53a
000001e0: 9e96 febc 7607 d53d bb94 65be 8f82 d13d
000001f0: feca 023d 02a0 553d 7e91 283c 2015 b83d
00000200: 7f05 2cbe e818 71bc 7da9 c6bc 703c 81b9
00000210: 8d58 25bd 6c5c 043d c4a2 90b8 b5a2 f53d
00000220: 484a 45be fe41 29be 8c68 64bd b7a8 3d3d
00000230: dcc8 4dba 931a b438 00c3 193e f3b0 2dbb
00000240: 4226 863c 923e 013c 2a3f 8cbc 18d2 a5bd
00000250: 5641 a93a 8713 0c3d 1b8b 93bd f297 353d
00000260: f5c8 793c 95ba 44ba 57bd 113d 68f6 b7ba
00000270: dea9 9bb9 eb18 4f3d 31c5 e23d ec44 e9bd
00000280: 16d0 bdba a126 31be d528 7dbd 4d17 16bd
00000290: 08d2 d83d be1f 1b3e e3b7 443d 1fbd e13c
000002a0: 8654 debd 8b85 b43d ba0a 8abd 5d1f 51bd
000002b0: 4b34 e1bc 6159 87bd f9cc 5dbe b1f2 943d
000002c0: 221e 8b3d 0bfb 3abe 6c37 c83d 81f4 15bd
000002d0: 4496 cb3c f068 a1bc 7479 a63c f3be a73a
000002e0: 489c f63c bdf3 e03d 1e9e 823d f9e6 863d
000002f0: 2aba e8bd 903f 55be 7c1c c1b9 a9fa 09bd
00000300: 6029 033e 3c1b 0939 74c9 9cbd 42d2 b63d
00000310: cc18 1c3b 086c b2bc 708d 413b b8eb 503e
00000320: 0789 13be de09 2dba 1ebf d53b 5672 bb3d
00000330: 18ad d2bd 563e de3d 80c5 253c b13e 3b3d
00000340: 5869 a3bd e03f af3a f8bd e4bd e4f0 9fbd
00000350: 3077 69bd e49b 10bc 799a 10bd 4e4b b13d
00000360: ee4a e63d 2b6e 30be 1488 e53c 168a c13c
00000370: d53c cabb 29b7 72bc e257 36bb 2004 27be
00000380: f182 b53d 6b83 1dbe 4cdd 6fbe c67e 5a3d
00000390: e9cc d93b 4856 56be 2b67 05be f940 b83d
000003a0: 2265 133b 2db0 f7bd 00ea 45bd d639 09bc
000003b0: 7ce1 b13a d2ee 1b3b 81c9 45bd 0c31 cb3d
000003c0: 6530 31bd 1798 23ba 6614 a53d b742 5b3c
000003d0: d0e4 093d ea33 093d 26f9 cfbb 4ed5 94bd
000003e0: 6e5d 0d3e f8a1 f43d 081c 9139 d2d2 953d
000003f0: 3af3 2b3e fe49 973d c361 7a3d 6b6f 4fbd

blinear1.weight_sampler.rho f4 [24, 11]
-7.101082 -6.9313293 -6.997008 -7.062821 -6.8575783 -6.979863 -7.0254707 -7.122773
-7.069224 -6.972347 -6.871035 -6.7865005 -6.8766007 -7.083687 -6.84701 -7.074979
-6.9991198 -6.928397 -6.81323 -7.1849184 -6.94601 -6.9885015 -6.9993896 -6.9914536
-7.0223656 -6.9945793 -7.1041317 -7.167893 -6.979291 -7.0748024 -6.9978523 -7.0502133
-6.994601 -7.0654764 -6.950025 -6.99884 -7.0785837 -6.943048 -6.93319 -7.0251493
-7.3435535 -7.1078773 -6.702633 -7.0225244 -7.0467987 -6.909332 -6.6943083 -6.9619174
-7.053022 -6.949557 -7.2107024 -7.1839466 -7.052583 -7.042629 -7.0388927 -7.119782
-6.7199917 -7.0541544 -7.0051403 -7.0529795 -6.930317 -6.99423 -7.1488185 -7.0283356
-7.0121856 -6.954107 -6.929687 -6.8922243 -7.0844254 -7.1098905 -6.8452845 -6.9656324
-7.0372353 -6.9728727 -6.945379 -6.979183 -7.0107574 -6.9045043 -7.019641 -6.8989472
-7.131125 -7.1172805 -7.045278 -6.9138145 -7.017216 -7.038075 -6.9863605 -6.874045
-6.9532294 -7.004885 -6.975093 -7.150064 -7.126802 -7.1676836 -7.120815 -7.032811
-6.906988 -7.063851 -7.0079947 -7.1475377 -6.9665165 -6.864707 -7.0080934 -7.031711
-6.9701204 -7.088594 -7.110556 -6.753577 -6.778976 -6.928935 -7.15465 -6.917292
-6.8925533 -6.816226 -7.0062704 -6.992389 -7.097367 -6.916114 -7.1284986 -6.8469872
-6.994164 -7.0224466 -7.0869102 -7.003608 -7.135478 -7.0356293 -6.8890104 -7.04343
-6.904918 -7.0102024 -7.10947 -7.064886 -7.0117764 -6.920348 -7.001516 -7.0648484
-7.099572 -7.1398897 -6.9532924 -7.0722513 -7.001871 -7.062119 -6.891771 -7.05014
-6.9106874 -6.963695 -6.9886394 -6.7109637 -7.1568604 -7.065437 -7.0058084 -6.958164
-7.1674566 -7.1632357 -6.850583 -6.848531 -6.7695003 -6.9194803 -6.9249206 -7.1702113
-6.9707494 -7.0928497 -6.845907 -7.173318 -6.8579445 -6.8656473 -6.9861145 -6.9657903
-6.9456773 -6.9453893 -6.8720307 -6.9226375 -6.8964806 -6.930883 -7.0222607 -6.7809577
-6.87318 -7.004918 -7.029831 -6.9871044 -7.0197577 -7.0760226 -7.041622 -6.9802475
-7.005176 -7.110551 -6.988698 -6.896913 -6.957261 -7.083905 -7.1626554 -6.9361978
-7.0565696 -7.1211476 -6.967897 -7.0628047 -7.002363 -6.92944 -6.9425364 -6.9651065
-7.1347938 -7.058825 -7.180713 -6.9410033 -7.012465 -7.07729 -7.0900455 -6.9122844
-6.96983 -6.8238754 -7.1001177 -7.002326 -6.9496164 -6.855838 -7.101693 -6.961183
-7.1732774 -6.9584804 -6.9206395 -7.0794864 -6.861263 -7.151703 -7.1017675 -6.9862366
-7.111418 -7.022861 -7.009413 -6.93621 -7.065522 -7.097543 -6.95869 -6.9120674
-7.0564218 -6.9098353 -6.958961 -7.0614157 -7.1576586 -6.9701385 -6.9257526 -6.9772706
-6.9001474 -7.113482 -6.9900975 -6.856297 -6.888864 -7.0679445 -6.866679 -7.037554
-7.1135607 -6.8218517 -7.026677 -6.91462 -6.985366 -6.904461 -7.1802588 -7.128594
00000000: 103c e3c0 73cd ddc0 7de7 dfc0 a102 e2c0
00000010: 4871 dbc0 0a5b dfc0 a8d0 e0c0 c2ed e3c0
00000020: 1537 e2c0 771d dfc0 85df dbc0 032b d9c0
00000030: 1d0d dcc0 90ad e2c0 b51a dbc0 3a66 e2c0
00000040: caf8 dfc0 6eb5 ddc0 fb05 dac0 daea e5c0
00000050: b745 dec0 cea1 dfc0 00fb dfc0 fdb9 dfc0
00000060: 38b7 e0c0 98d3 dfc0 0c55 e3c0 615f e5c0
00000070: 5a56 dfc0 c864 e2c0 68ee dfc0 599b e1c0
00000080: c5d3 dfc0 6218 e2c0 9b66 dec0 7ff6 dfc0
00000090: c283 e2c0 732d dec0 b1dc ddc0 06ce e0c0
000000a0: 64fe eac0 bb73 e3c0 f87b d6c0 85b8 e0c0
000000b0: 607f e1c0 3f19 ddc0 c637 d6c0 07c8 dec0
000000c0: 5bb2 e1c0 c562 dec0 13be e6c0 e4e2 e5c0
000000d0: c3ae e1c0 375d e1c0 9c3e e1c0 41d5 e3c0
000000e0: 2c0a d7c0 a2bb e1c0 1c2a e0c0 02b2 e1c0
000000f0: 28c5 ddc0 bbd0 dfc0 1fc3 e4c0 20e8 e0c0
00000100: d363 e0c0 0b88 dec0 ffbf ddc0 1a8d dcc0
00000110: 9db3 e2c0 3984 e3c0 920c dbc0 76e6 dec0
00000120: 0831 e1c0 c621 dfc0 8b40 dec0 7855 dfc0
00000130: 2058 e0c0 b3f1 dcc0 e6a0 e0c0 2dc4 dcc0
00000140: 2d32 e4c0 c3c0 e3c0 eb72 e1c0 f83d ddc0
00000150: 098d e0c0 e937 e1c0 4490 dfc0 2df8 dbc0
00000160: db80 dec0 0528 e0c0 f633 dfc0 53cd e4c0
00000170: c30e e4c0 aa5d e5c0 b7dd e3c0 ca0c e1c0
00000180: 0c06 ddc0 110b e2c0 7e41 e0c0 a1b8 e4c0
00000190: b4ed dec0 aeab dbc0 4d42 e0c0 c703 e1c0
000001a0: 3a0b dfc0 c3d5 e2c0 ad89 e3c0 4e1d d8c0
000001b0: 5fed d8c0 d6b9 ddc0 e5f2 e4c0 755a ddc0
000001c0: cc8f dcc0 861e dac0 5e33 e0c0 a7c1 dfc0
000001d0: a11d e3c0 ce50 ddc0 a91c e4c0 851a dbc0
000001e0: 31d0 dfc0 e2b7 e0c0 f8c7 e2c0 8f1d e0c0
000001f0: d655 e4c0 e023 e1c0 c672 dcc0 c763 e1c0
00000200: 17f5 dcc0 9453 e0c0 c780 e3c0 8c13 e2c0
00000210: 7960 e0c0 7e73 ddc0 6b0c e0c0 3d13 e2c0
00000220: b22f e3c0 fa79 e4c0 5f81 dec0 e24f e2c0
00000230: 540f e0c0 e1fc e1c0 6389 dcc0 bf9a e1c0
00000240: 5a24 ddc0 97d6 dec0 efa2 dfc0 37c0 d6c0
00000250: 0005 e5c0 0f18 e2c0 952f e0c0 48a9 dec0
00000260: ce5b e5c0 3a39 e5c0 fa37 dbc0 2a27 dbc0
00000270: bf9f d8c0 626c ddc0 f398 ddc0 5f72 e5c0
00000280: 6110 dfc0 a0f8 e2c0 ac11 dbc0 d28b e5c0
00000290: 4874 dbc0 62b3 dbc0 408e dfc0 c1e7 dec0
000002a0: fd42 dec0 a140 dec0 ade7 dbc0 3f86 ddc0
000002b0: f8af dcc0 cbc9 ddc0 5cb6 e0c0 9bfd d8c0
000002c0: 17f1 dbc0 4a28 e0c0 60f4 e0c0 5c96 dfc0
000002d0: dba1 e0c0 c76e e2c0 f854 e1c0 305e dfc0
000002e0: 672a e0c0 a289 e3c0 6aa3 dfc0 83b3 dcc0
000002f0: e2a1 dec0 5aaf e2c0 7934 e5c0 55f5 ddc0
00000300: 6bcf e1c0 71e0 e3c0 03f9 dec0 7f02 e2c0
00000310: 5c13 e0c0 f9bd ddc0 4229 dec0 27e2 dec0
00000320: 3b50 e4c0 e5e1 e1c0 67c8 e5c0 b31c dec0
00000330: 1d66 e0c0 2979 e2c0 a7e1 e2c0 6f31 ddc0
00000340: d908 dfc0 305d dac0 2a34 e3c0 0e13 e0c0
00000350: 4263 dec0 0663 dbc0 1241 e3c0 03c2 dec0
00000360: 7d8b e5c0 dfab dec0 e175 ddc0 278b e2c0
00000370: 778f dbc0 c0da e4c0 ae41 e3c0 408f dfc0
00000380: bc90 e3c0 47bb e0c0 1c4d e0c0 6ff5 ddc0
00000390: c218 e2c0 121f e3c0 97ad dec0 a82f ddc0
000003a0: 35ce e1c0 5f1d ddc0 cfaf dec0 1ef7 e1c0
000003b0: 8a0b e5c0 600b dfc0 c49f ddc0 cd45 dfc0
000003c0: 02ce dcc0 a5a1 e3c0 e1ae dfc0 c966 dbc0
000003d0: 9371 dcc0 9a2c e2c0 d6bb dbc0 a433 e1c0
000003e0: 4aa2 e3c0 9c4c dac0 8ada e0c0 9144 ddc0
000003f0: 1e88 dfc0 58f1 dcc0 aec4 e5c0 711d e4c0

blinear1.weight_sampler.eps_w f4 [24, 11]
0.88664603 -0.27928403 0.005129786 0.6071681 0.09332694 0.33436275 -0.6723247 -0.91385925
-0.4847144 1.1416886 -0.08703212 0.2640433 0.86667293 -1.0975143 1.2103004 -0.20272304
0.12017267 -0.39540148 -0.35022768 0.9002861 -0.3323042 -2.412394 0.24885662 0.3302904
-1.9287858 -1.1198384 0.44832784 0.9436168 0.026060577 0.027811136 0.22273484 2.0113165
-2.3772306 1.812467 0.46633285 -0.104183555 0.61823004 0.2609288 -2.4184062 -0.073815964
1.2497853 1.142943 0.76240456 -0.8196615 -0.078411736 0.19022274 -1.442385 0.1998512
-0.31191987 0.7545536 -0.81449217 -1.1976098 -0.014981411 1.0002074 -0.22468176 0.20653677
0.16185912 0.01866859 0.09736449 0.5616031 -1.605223 -0.879437 -0.3733489 0.978216
-0.63199735 1.1923534 1.9150549 -0.22709492 -2.3301308 0.14013408 1.6538275 0.073943384
1.5204844 -0.40624785 -0.60788196 -0.8328551 -0.25613692 1.1442257 -1.2030505 -0.670838
-1.5181715 1.9888803 -0.19342873 -0.31107572 -0.48578146 -1.2365781 0.18632892 0.17016923
-0.5419118 0.7893678 0.5162892 -1.5163958 0.47612998 2.0295312 -1.3713558 0.49523446
-0.35081428 0.88910186 0.21413527 1.2143991 0.14434008 0.34749827 -0.1955834 2.3921008
-0.24003674 -0.21289085 0.16966674 0.6730864 -0.8742126 -0.15186474 -1.113029 -0.68884706
-1.5700511 -0.2995056 0.033510733 -0.31658646 0.10658875 -0.82427835 -1.513787 1.9491284
0.95478475 1.4097543 -1.4457417 0.25471067 0.1554924 -0.2694119 0.19221409 -1.075009
0.1956322 -0.743388 1.4518683 -0.29737842 -1.3811809 -0.3936167 1.010082 0.2868182
-0.4127891 -1.5531561 1.0933641 0.9207136 -0.111151055 0.15677619 -0.65509295 1.1990724
0.100176506 1.1230348 -1.6442119 1.9291824 -0.7561209 -1.1983029 -0.77712095 1.7857901
-1.2198262 -0.67891365 -0.13467747 -1.0614793 -2.282772 -0.54206735 -0.48809305 0.5864936
-0.7665614 0.054868277 0.36843163 1.7738901 -0.011510571 1.4559165 -0.06070661 0.75341684
0.08446893 0.9712235 0.88245577 -0.19207108 -0.037402924 1.0239984 -0.09703087 1.547293
0.08085272 0.22692858 -1.638096 -2.0304565 0.5218878 0.08761689 2.5882149 -0.8570006
0.8818343 0.8302073 -1.4514735 0.19312343 -1.0931532 -0.8634722 1.2258584 0.97726625
-0.44458157 1.3904063 1.8315511 0.7588145 -0.3196817 0.8330598 1.4206754 -2.266986
-1.2221997 -1.4806256 -2.0762498 -0.30502856 0.8830584 -0.9020627 2.2449088 0.012712837
-0.7597957 -0.5430956 2.3761427 1.646029 0.26987427 0.8583611 -0.26654154 -2.0828772
-1.3672094 -0.14493892 -1.8439369 -0.6885466 -0.34581873 0.106720306 -0.5895479 1.1373934
-0.9964907 -0.1506459 -0.04802088 1.2176125 -1.3134725 -1.6420119 -2.6112502 2.3621056
1.7652805 1.3057256 -0.5266937 -0.97370374 1.1768646 0.20385364 1.0538257 -0.32919085
0.032183662 0.05461014 0.03960224 0.17422105 -0.24628036 -1.7658813 0.067926995 -1.4425231
-1.7487959 0.56751376 -1.038679 -1.4649892 0.5392671 -0.4478037 0.7409743 -0.7873417
00000000: 3cfb 623f 51fe 8ebe c417 a83b 5e6f 1b3f
00000010: 3222 bf3d 9831 ab3e 791d 2cbf aef2 69bf
00000020: 7c2c f8be da22 923f e53d b2bd af30 873e
00000030: 47de 5d3f 597b 8cbf 20eb 9a3f a196 4fbe
00000040: 171d f63d 1072 cabe 0b51 b3be 2679 663f
00000050: c723 aabe aa64 1ac0 45d4 7e3e d31b a93e
00000060: 74e2 f6bf dd56 8fbf 3a8b e53e df90 713f
00000070: fe7c d53c 2ed4 e33c 9a14 643e 69b9 0040
00000080: 8c24 18c0 ebfe e73f 2ec3 ee3e 305e d5bd
00000090: 5344 1e3f 7698 853e 2bc7 1ac0 d32c 97bd
000000a0: f7f8 9f3f f54b 923f f22c 433f 56d5 51bf
000000b0: 5596 a0bd c0c9 423e 12a0 b8bf cba5 4c3e
000000c0: f6b3 9fbe 6d2a 413f 8f82 50bf 474b 99bf
000000d0: 9874 75bc cc06 803f fa12 66be 607e 533e
000000e0: 66be 253e dfee 983c 0967 c73d 39c5 0f3f
000000f0: f277 cdbf c922 61bf 9627 bfbe 5d6c 7a3f
00000100: 94ca 21bf 099f 983f 8520 f53f 928b 68be
00000110: dd20 15c0 4f7f 0f3e 9fb0 d33f a16f 973d
00000120: 3c9f c23f b8ff cfbe 279e 1bbf fe35 55bf
00000130: 6124 83be fd75 923f 8ffd 99bf 0abc 2bbf
00000140: 7253 c2bf a193 fe3f 2e12 46be 5145 9fbe
00000150: 59b8 f8be 3148 9ebf 02cd 3e3e d840 2e3e
00000160: bbba 0abf 0214 4a3f 872b 043f 4219 c2bf
00000170: 4fc7 f33e d7e3 0140 9688 afbf 5f8f fd3e
00000180: ee9d b3be 2e9c 633f 4746 5b3e 6e71 9b3f
00000190: e3cd 133e 4beb b13e 0447 48be 2e18 1940
000001a0: 31cc 75be 0f00 5abe 1ebd 2d3e 644f 2c3f
000001b0: 66cc 5fbf 6e82 1bbe bc77 8ebf 4858 30bf
000001c0: 6ff7 c8bf cc58 99be 8d42 093d 9f17 a2be
000001d0: 344b da3d e803 53bf c6c3 c1bf 0a7d f93f
000001e0: c66c 743f d472 b43f 100e b9bf 7069 823e
000001f0: 6639 1f3e 5bf0 89be c5d3 443e e599 89bf
00000200: cf53 483e ad4e 3ebf d2d6 b93f fc41 98be
00000210: 89ca b0bf 2188 c9be 5e4a 813f d6d9 923e
00000220: 1859 d3be d2cd c6bf 5bf3 8b3f e3b3 6b3f
00000230: 2aa3 e3bd f089 203e 2cb4 27bf 347b 993f
00000240: 5729 cd3d 9bbf 8f3f 8975 d2bf 73ef f63f
00000250: 2491 41bf fd61 99bf 66f1 46bf c594 e43f
00000260: 4423 9cbf 49cd 2dbf e4e8 09be 8ede 87bf
00000270: f018 12c0 edc4 0abf 55e7 f9be 7224 163f
00000280: 5e3d 44bf 8fbd 603d 12a3 bc3e d50e e33f
00000290: d696 3cbc 795b ba3f 7fa7 78bd eddf 403f
000002a0: 0cfe ac3d 1aa2 783f 9fe8 613f 48ae 44be
000002b0: cf33 19bd 6112 833f 1fb8 c6bd b20d c63f
000002c0: 1c96 a53d f75f 683e 21ad d1bf 00f3 01c0
000002d0: 709a 053f 7c70 b33d 50a5 2540 6464 5bbf
000002e0: e5bf 613f 7788 543f e2c9 b9bf 26c2 453e
000002f0: 72ec 8bbf 840c 5dbf eee8 9c3f 1f2e 7a3f
00000300: 32a0 e3be d5f8 b13f 4470 ea3f ab41 423f
00000310: 52ad a3be 6843 553f b1d8 b53f 4c16 11c0
00000320: 0a71 9cbf 2485 bdbf 47e1 04c0 b42c 9cbe
00000330: 1e10 623f 95ed 66bf 96ac 0f40 8149 503c
00000340: f981 42bf 5008 0bbf b912 1840 14b1 d23f
00000350: f62c 8a3e 8ebd 5b3f 2278 88be dc4d 05c0
00000360: b800 afbf de6a 14be 2006 ecbf 9744 30bf
00000370: 270f b1be 2d90 da3d 9cec 16bf 1b96 913f
00000380: 041a 7fbf eb42 1abe 8bb1 44bd bada 9b3f
00000390: de1f a8bf 722d d2bf b91e 27c0 bd2c 1740
000003a0: b6f4 e13f 0422 a73f 66d5 06bf a644 79bf
000003b0: 80a3 963f 02bf 503e c3e3 863f b48b a8be
000003c0: 04d3 033d e2ae 5f3d f535 223d 0167 323e
000003d0: eb30 7cbe 6608 e2bf 4f1d 8b3d 99a4 b8bf
000003e0: 8bd8 dfbf 9548 113f 6ff3 84bf c484 bbbf
000003f0: 690d 0a3f 8746 e5be 7eb0 3d3f 3a8f 49bf

blinear1.bias_sampler.mu f4 [24]
-0.002489801 0.2050839 -0.013147846 -0.12094038 0.118224055 -0.0047425814 -0.029066436 -0.16058874
-0.027729169 -0.088107504 -0.0041532223 -0.044118 -0.0026600845 -0.062981844 0.11087444 0.021013914
-0.0704817 0.122429036 -0.0066369995 -0.07768183 0.08567322 -0.04060578 0.08210368 -0.19544932
00000000: ee2b 23bb 8401 523e 106a 57bc 97af f7bd
00000010: 741f f23d a867 9bbb bc1c eebc 6071 24be
00000020: 4828 e3bc b571 b4bd c117 88bb 13b5 34bd
00000030: d054 2ebb a0fc 80bd 2312 e33d 5f25 ac3c
00000040: b658 90bd 13bc fa3d 307b d9bb a717 9fbd
00000050: 7175 af3d 3f52 26bd f925 a83d de23 48be

blinear1.bias_sampler.rho f4 [24]
-7.192057 -6.8422327 -7.0579915 -6.8298917 -7.1242332 -6.94586 -6.9571724 -7.0248327
-7.134338 -6.9943314 -6.964238 -6.9138994 -7.0347643 -6.9129376 -6.961957 -7.053999
-7.1933384 -6.9593225 -6.926508 -6.913084 -6.968463 -7.0009885 -6.9912415 -6.81764
00000000: 5525 e6c0 92f3 dac0 11db e1c0 798e dac0
00000010: b8f9 e3c0 7c44 dec0 28a1 dec0 6ecb e0c0
00000020: 7f4c e4c0 90d1 dfc0 0adb dec0 aa3e ddc0
00000030: ca1c e1c0 c936 ddc0 5ac8 dec0 5cba e1c0
00000040: d42f e6c0 c5b2 dec0 f4a5 ddc0 fc37 ddc0
00000050: a6fd dec0 1908 e0c0 40b8 dfc0 1b2a dac0

blinear1.bias_sampler.eps_w f4 [24]
1.9539925 0.07098346 1.1820979 -0.26559883 -0.3072226 0.6993156 -0.012115277 0.70928985
-0.19125082 -1.6447015 -0.34355158 -0.4636294 1.7367659 -0.90154463 0.73685586 0.10396554
1.187311 1.2568442 0.13967744 -2.2212956 0.46302444 0.58702666 0.53281486 1.4829675
00000000: 6d1c fa3f c75f 913d fc4e 973f 92fc 87be
00000010: 484c 9dbe 5906 333f 287f 46bc 0594 353f
00000020: 41d7 43be 9485 d2bf fee5 afbe d560 edbe
00000030: 584e de3f a1cb 66bf 96a2 3c3f e3eb d43d
00000040: cff9 973f 45e0 a03f 9a07 0f3e b529 0ec0
00000050: 8a11 ed3e 6147 163f 8e66 083f e1d1 bd3f

blinear2.weight_mu f4 [24, 24]
2.0344683e-05 -0.12010199 0.23515227 0.03057451 0.08752464 -0.055800103 0.05076264 0.007887885
0.008494805 0.08412953 -0.053888716 0.076736175 0.0025972878 -0.013648842 -0.061757803 0.05099386
0.08572157 0.065899014 0.058754515 -0.0017036747 -0.074322745 -0.12495704 -0.06557607 0.070385545
-0.0008134432 0.0049209767 0.0023600606 0.0021300593 -0.079778604 0.002004886 0.0011990406 -0.12746282
-0.008866547 0.025146712 0.001234522 0.013233329 0.028614208 0.012177228 -0.054177232 -0.0353398
0.14700456 -0.042769656 -0.09638431 0.025705643 0.092897214 0.20015326 0.06422324 -0.03779385
0.032484412 0.14502363 -0.006537977 0.11577469 -0.07681028 0.037596554 3.3578923e-05 0.087008916
0.0010128377 0.23065215 0.1103608 0.114356324 0.00048343075 0.00019289562 0.09978776 -0.0023879884
-0.040565394 0.067979105 -0.01543923 -0.035208955 0.060352813 -0.0028628975 0.02451758 0.13646494
-0.016139043 0.07643922 -0.092016056 -0.069273196 -0.0008777359 -0.031341016 -0.000418122 -0.007970817
0.007102644 0.0041245976 0.019780427 -0.03756 0.03502979 0.07981883 0.00733 -0.20296091
-0.02091433 -0.15830405 -0.13007429 -0.18565284 -0.05205925 -0.0026204523 0.0019620508 -0.0663542
-0.27136004 -0.017982181 -0.03763708 0.14832452 0.03425427 -0.0039971275 0.17954004 -0.1847939
0.16425887 -0.00039639632 0.07759106 -0.0025219603 -0.054420885 -0.04149595 -0.016032046 -0.17571068
-0.08562969 0.24210243 0.058033336 -0.0011198982 -0.17038621 0.12836345 0.017761229 0.0024425979
-0.0011772471 0.0062154196 -0.027116833 0.0018815314 -0.062966734 -0.059677124 -0.00084900873 -0.02592831
-0.098800346 0.08515376 0.041096114 0.07040767 0.0011194674 0.17067128 0.044494834 0.018226124
0.025246177 0.011827305 0.038957838 0.016695505 -0.0015170078 -0.064184956 0.06285817 -0.012588855
0.07754743 -0.0031138728 0.015553863 0.024872243 0.019974157 0.0007741004 0.03458312 0.0007606509
-0.1366987 -0.10911881 0.097987734 0.00076657365 -0.0028806329 0.05593586 -0.11949704 -0.038296755
-0.16461301 -0.0015011863 -0.005559725 -0.083638094 -0.05293523 -0.07016263 -0.013317308 -0.11115099
0.17958005 -0.044596966 0.040469024 -0.0056782444 0.10236991 0.20196953 0.0008603408 -0.07557139
-0.12507086 0.001678067 0.10167867 -0.08548951 -0.04782591 0.003483823 -0.12167699 0.038590226
0.036685344 0.12828596 0.026142117 0.009408012 -0.21584435 0.14871342 0.075366184 -0.023299515
-0.12854646 0.097167045 -0.11242007 0.06633972 -0.171922 -0.08588135 0.040989235 0.07887486
0.005959126 -0.05977386 -0.0028288227 -0.09559329 0.14792776 -0.00029090198 0.08304919 -0.0021656984
-0.0017069064 0.021931093 0.010323722 0.0011332874 -0.02497045 0.13618849 -0.091939606 0.14229827
-0.11898306 -0.050876234 0.00065438845 -0.014281875 0.0017182938 0.0012767965 0.00079868385 0.08956066
-0.048672922 -0.09437127 -0.01871619 0.019786457 -0.19768074 0.10698569 0.07595586 0.13769858
-0.0020637265 -0.098982766 -0.06017047 -0.08498047 -0.109617166 -0.0026944834 -0.00028538093 0.059306778
-0.100281216 0.12325434 0.18268706 -0.03842057 0.08402157 -0.018890996 0.016799724 -0.08016666
-0.1977386 0.109092355 -0.04979599 -0.061040092 0.14660211 -0.024772132 0.038706385 -0.06740402
00000000: e0a9 aa37 08f8 f5bd c2cb 703e 6577 fa3c
00000010: 1e40 b33d a68e 64bd 7cec 4f3d 303c 013c
00000020: cb2d 0b3c 1a4c ac3d 6aba 5cbd db27 9d3d
00000030: 4237 2a3b 659f 5fbc c0f5 7cbd f0de 503d
00000040: ca8e af3d 10f6 863d 93a8 703d d64d dfba
00000050: 8636 98bd 7ae9 ffbd bf4c 86bd 4c26 903d
00000060: 403d 55ba 2540 a13b 3fab 1a3b 7798 0b3b
00000070: f762 a3bd 6864 033b 2029 9d3a 9d85 02be
00000080: fe44 11bc 7a00 ce3c afcf a13a 9bd0 583c
00000090: 5868 ea3c ff82 473c f2e8 5dbd 77c0 10bd
000000a0: 5d88 163e 3c2f 2fbd 2365 c5bd a494 d23c
000000b0: e540 be3d faf4 4c3e 7987 833d b9cd 1abd
000000c0: 600e 053d 1381 143e 873c d6bb 481b ed3d
000000d0: b54e 9dbd d8fe 193d 18d7 0c38 bb31 b23d
000000e0: 32c1 843a 1430 6c3e d804 e23d a633 ea3d
000000f0: fa74 fd39 0644 4a39 865d cc3d cc7f 1cbb
00000100: e627 26bd a138 8b3d d3f4 7cbc 4437 10bd
00000110: 8334 773d 739f 3bbb 18d9 c83c 77bd 0b3e
00000120: 0736 84bc 2a8c 9c3d ea72 bcbd 1bdf 8dbd
00000130: dc17 66ba 705f 00bd 6337 dbb9 0898 02bc
00000140: 4cbd e83b a227 873b 900a a23c 84d8 19bd
00000150: 667b 0f3d 0e78 a33d 7f30 f03b fcd4 4fbe
00000160: 8754 abbc 751a 22be 3232 05be c71b 3ebe
00000170: 153c 55bd e5bb 2bbb c095 003b b6e4 87bd
00000180: b4ef 8abe 5e4f 93bc 5729 1abd 62e2 173e
00000190: 354e 0c3d 56fa 82bb 58d9 373e 9d3a 3dbe
000001a0: 7a33 283e 6ad3 cfb9 10e8 9e3d 7947 25bb
000001b0: 6fe8 5ebd a8f7 29bd a355 83bc 80ed 33be
000001c0: 9e5e afbd b3e9 773e 5db4 6d3d 8cc9 92ba
000001d0: b979 2ebe b571 033e ff7f 913c fe13 203b
000001e0: dc4d 9aba b8aa cb3b 1f24 debc b89d f63a
000001f0: b4f4 80bd 0070 74bd 0390 5eba 9b67 d4bc
00000200: d657 cabd 1865 ae3d 6654 283d e631 903d
00000210: 18bb 923a 74c4 2e3e 3740 363d f44e 953c
00000220: 12d1 ce3c 50c7 413c 4192 1f3d 03c5 883c
00000230: 56d6 c6ba 6773 83bd c9bb 803d 7c41 4ebc
00000240: 30d1 9e3d 1e12 4cbb a1d5 7e3c e0c0 cb3c
00000250: d8a0 a33c 00ed 4a3a 08a7 0d3d 6b66 473a
00000260: befa 0bbe af79 dfbd cbad c83d e3f3 483a
00000270: 00c9 3cbb 001d 653d ddba f4bd 0fdd 1cbd
00000280: 5090 28be 74c3 c4ba 5b2e b6bb 734a abbd
00000290: 9dd2 58bd 6db1 8fbd d730 5abc 21a3 e3bd
000002a0: d5e3 373e 4fab 36bd d9c2 253d 9110 babb
000002b0: 51a7 d13d 1ad1 4e3e 7e88 613a 2cc5 9abd
000002c0: 9312 00be 96f2 db3a e83c d03d 2015 afbd
000002d0: 1ae5 43bd da50 643b c931 f9bd c910 1e3d
000002e0: 5f43 163d 655d 033e fe27 d63c 1024 1a3c
000002f0: 4d06 5dbe 5548 183e 9659 9a3d a0de bebc
00000300: afa1 03be 84ff c63d 7e3c e6bd 1edd 873d
00000310: 520c 30be 90e2 afbd 54e4 273d 2589 a13d
00000320: c644 c33b 6fd5 74bd c563 39bb 6ac6 c3bd
00000330: 607a 173e 3484 98b9 b215 aa3d 64ee 0dbb
00000340: 46ba dfba d6a8 b33c d424 293c d18a 943a
00000350: d48e ccbc ff74 0b3e d54a bcbd a3b6 113e
00000360: 64ad f3bd 9963 50bd 448b 2b3a 87fe 69bc
00000370: 5f38 e13a 2e5a a73a c45e 513a 946b b73d
00000380: 425d 47bd b945 c1bd b252 99bc 3517 a23c
00000390: d26c 4abe 501b db3d bf8e 9b3d db00 0d3e
000003a0: 963f 07bb 7ab7 cabd 5075 76bd 3e0a aebd
000003b0: f77e e0bd ee95 30bb 2e9f 95b9 aaeb 723d
000003c0: 3d60 cdbd c56c fc3d 5112 3b3e e35e 1dbd
000003d0: 8013 ac3d 4ac1 9abc 939f 893c 6b2e a4bd
000003e0: fd7b 4abe d06b df3d e1f6 4bbd 2d05 7abd
000003f0: dd1e 163e edee cabc 968a 1e3d 1e0b 8abd

blinear2.weight_rho f4 [24, 24]
-7.0939665 -6.964321 -7.1538115 -6.904668 -7.017722 -7.111417 -6.987947 -7.114031
-6.775358 -7.043063 -6.9145474 -7.1522565 -6.697983 -7.0304937 -6.7351637 -6.998093
-7.11119 -6.844131 -6.9089828 -7.0455055 -6.9348063 -6.847524 -7.0423503 -6.889704
-6.8346596 -6.969858 -7.043178 -7.035764 -6.878291 -6.822058 -6.874641 -6.872973
-7.1005588 -6.9639387 -6.9089694 -6.9720645 -7.077096 -6.794859 -6.894832 -7.087241
-6.8198633 -6.9990816 -7.1192164 -7.0071216 -7.0916567 -7.050538 -7.0465374 -6.9007845
-6.917531 -6.9050965 -7.045206 -7.08747 -7.1757135 -7.017613 -6.92774 -7.1720862
-6.9943943 -6.9874873 -6.9556313 -7.0598016 -7.174522 -7.120947 -6.904588 -6.9234447
-6.8342595 -6.93113 -6.994955 -6.9857597 -7.1645026 -6.908214 -7.0280027 -7.0809393
-7.040399 -7.062281 -7.00373 -7.0878005 -7.052866 -7.0120335 -6.9273143 -6.9705825
-7.035447 -6.883131 -6.9868345 -6.7944584 -6.9865522 -7.0298686 -7.0892744 -6.8446174
-7.0942807 -7.0265756 -7.0252767 -6.9620757 -6.991278 -6.959414 -6.9679055 -7.002048
-6.983096 -6.9755588 -6.8758507 -7.1520495 -6.971029 -7.076876 -7.033876 -6.9909196
-7.0710673 -6.9486313 -7.010568 -6.9381003 -6.864516 -6.938367 -7.0287423 -6.92503
-6.9468503 -6.9358177 -6.8756313 -7.006659 -6.8926973 -6.9735413 -7.1318917 -7.009989
-7.0313535 -6.868389 -7.035593 -7.043201 -6.896063 -7.137404 -7.1365047 -6.9792013
-7.096224 -7.0687118 -6.8538556 -7.0734563 -7.085669 -6.91729 -7.0139 -6.7954803
-6.931271 -7.1291733 -6.7648106 -7.0802813 -7.261551 -6.8814344 -6.9793515 -6.9515653
-6.9546804 -6.878564 -6.917672 -7.0083537 -7.0547385 -7.27863 -7.018646 -6.873657
-6.9855556 -7.0640025 -7.0554714 -6.8810487 -6.899506 -6.901348 -7.099575 -6.8983445
-7.0549836 -6.9919305 -6.9562306 -6.9573984 -6.935918 -6.989948 -7.151619 -6.9886093
-6.85036 -7.0403547 -6.8676915 -7.0830255 -6.9618816 -6.8977995 -6.8670387 -7.09161
-7.1667566 -6.8752623 -7.1625743 -6.9841695 -7.022775 -6.930052 -6.939571 -6.9013133
-6.790706 -7.097572 -7.022772 -6.925823 -6.8548565 -6.955453 -6.8463573 -7.093831
-7.020134 -7.0125113 -7.151101 -6.801881 -6.9990234 -6.9865665 -6.9389257 -6.957109
-6.942041 -7.0518155 -7.0724893 -6.853982 -6.9588513 -7.0140862 -6.9136724 -7.0124745
-6.9947553 -6.9867196 -6.9608316 -7.006851 -7.0719957 -7.052546 -7.025237 -6.8465466
-6.9194765 -6.978525 -7.063168 -6.957638 -7.0631385 -6.9978848 -7.0523405 -7.0327706
-6.9387093 -6.9321547 -6.8870187 -6.9538403 -7.099227 -6.817028 -6.9056726 -6.8764358
-6.8576703 -6.9610276 -6.8581614 -7.0444455 -6.952512 -7.029618 -7.036966 -7.1217613
-7.024699 -6.995006 -7.018317 -7.19411 -6.999128 -7.0352125 -6.9956994 -7.084877
-7.2311664 -7.09312 -6.9936852 -7.0887146 -7.018116 -6.9262166 -6.9333816 -7.0962453
00000000: c601 e3c0 b8db dec0 06ec e4c0 0af3 dcc0
00000010: 2e91 e0c0 ba90 e3c0 439d dfc0 24a6 e3c0
00000020: bccf d8c0 c660 e1c0 f943 ddc0 49df e4c0
00000030: e055 d6c0 cef9 e0c0 7686 d7c0 61f0 dfc0
00000040: de8e e3c0 1f03 dbc0 6316 ddc0 c874 e1c0
00000050: efe9 ddc0 eb1e dbc0 ef5a e1c0 7578 dcc0
00000060: 88b5 dac0 1409 dfc0 b761 e1c0 fb24 e1c0
00000070: f61a dcc0 4d4e dac0 0ffd dbc0 65ef dbc0
00000080: c737 e3c0 96d8 dec0 4716 ddc0 271b dfc0
00000090: 9277 e2c0 7c6f d9c0 77a2 dcc0 aeca e2c0
000000a0: 523c dac0 7af8 dfc0 9fd0 e3c0 573a e0c0
000000b0: daee e2c0 029e e1c0 3c7d e1c0 3ad3 dcc0
000000c0: 6a5c ddc0 8df6 dcc0 5472 e1c0 8ecc e2c0
000000d0: 729f e5c0 4990 e0c0 0cb0 ddc0 bb81 e5c0
000000e0: 14d2 dfc0 7f99 dfc0 8894 dec0 e5e9 e1c0
000000f0: af95 e5c0 ccde e3c0 63f2 dcc0 dc8c ddc0
00000100: 41b2 dac0 d1cb ddc0 acd6 dfc0 588b dfc0
00000110: 9b43 e5c0 1710 ddc0 66e5 e0c0 0e97 e2c0
00000120: f34a e1c0 35fe e1c0 8e1e e0c0 43cf e2c0
00000130: 14b1 e1c0 9462 e0c0 8fac ddc0 030f dfc0
00000140: 6222 e1c0 9c42 dcc0 2694 dfc0 346c d9c0
00000150: d691 dfc0 aff4 e0c0 56db e2c0 1b07 dbc0
00000160: 5904 e3c0 b5d9 e0c0 11cf e0c0 53c9 dec0
00000170: 8db8 dfc0 85b3 dec0 15f9 dec0 c710 e0c0
00000180: 8675 dfc0 c737 dfc0 f806 dcc0 97dd e4c0
00000190: ab12 dfc0 c575 e2c0 8315 e1c0 9db5 dfc0
000001a0: 2f46 e2c0 305b dec0 9356 e0c0 eb04 dec0
000001b0: 1daa dbc0 1a07 dec0 75eb e0c0 d999 ddc0
000001c0: 994c dec0 38f2 ddc0 2c05 dcc0 8d36 e0c0
000001d0: fa90 dcc0 4027 dfc0 7538 e4c0 d451 e0c0
000001e0: d900 e1c0 d8c9 dbc0 9423 e1c0 e761 e1c0
000001f0: 8cac dcc0 9d65 e4c0 3f5e e4c0 9e55 dfc0
00000200: 4414 e3c0 e332 e2c0 c952 dbc0 c159 e2c0
00000210: cdbd e2c0 715a ddc0 de71 e0c0 9374 d9c0
00000220: f9cc ddc0 3022 e4c0 5479 d8c0 aa91 e2c0
00000230: a05e e8c0 b634 dcc0 d956 dfc0 3973 dec0
00000240: be8c dec0 321d dcc0 925d ddc0 6f44 e0c0
00000250: 6bc0 e1c0 89ea e8c0 bf98 e0c0 00f5 dbc0
00000260: ac89 dfc0 4f0c e2c0 6cc6 e1c0 8d31 dcc0
00000270: c1c8 dcc0 d8d7 dcc0 b82f e3c0 3dbf dcc0
00000280: 6dc2 e1c0 e5bd dfc0 7199 dec0 02a3 dec0
00000290: 0af3 ddc0 a7ad dfc0 10da e4c0 b0a2 dfc0
000002a0: 2636 dbc0 964a e1c0 21c4 dbc0 25a8 e2c0
000002b0: bcc7 dec0 c6ba dcc0 c8be dbc0 78ee e2c0
000002c0: 1256 e5c0 2602 dcc0 cf33 e5c0 517e dfc0
000002d0: 93ba e0c0 fcc2 ddc0 f710 dec0 8fd7 dcc0
000002e0: 774d d9c0 4f1f e3c0 8cba e0c0 58a0 ddc0
000002f0: fc5a dbc0 1293 dec0 5c15 dbc0 aa00 e3c0
00000300: f0a4 e0c0 7e66 e0c0 d2d5 e4c0 02a9 d9c0
00000310: 00f8 dfc0 f491 dfc0 ae0b dec0 a3a0 dec0
00000320: 3325 dec0 79a8 e1c0 d551 e2c0 d253 dbc0
00000330: e9ae dec0 6573 e0c0 ce3c ddc0 3166 e0c0
00000340: 09d5 dfc0 3593 dfc0 22bf dec0 2038 e0c0
00000350: ca4d e2c0 75ae e1c0 bece e0c0 e916 dbc0
00000360: 5a6c ddc0 1450 dfc0 7905 e2c0 f8a4 dec0
00000370: 3b05 e2c0 acee dfc0 c6ac e1c0 750c e1c0
00000380: e809 dec0 36d4 ddc0 7562 dcc0 dc85 dec0
00000390: de2c e3c0 1825 dac0 45fb dcc0 c30b dcc0
000003a0: 0972 dbc0 bdc0 dec0 0f76 dbc0 196c e1c0
000003b0: fa7a dec0 a1f2 e0c0 d32e e1c0 78e5 e3c0
000003c0: 56ca e0c0 17d7 dfc0 0e96 e0c0 2636 e6c0
000003d0: dbf8 dfc0 7620 e1c0 c5dc dfc0 50b7 e2c0
000003e0: b765 e7c0 d7fa e2c0 45cc dfc0 c0d6 e2c0
000003f0: 6894 e0c0 91a3 ddc0 43de ddc0 7114 e3c0

blinear2.bias_mu f4 [24]
0.06553448 -0.02377942 -0.02174432 -0.028356304 -0.16369447 -0.029544853 0.08123654 0.0040891115
0.07813742 0.10382622 -0.012302788 0.028325012 0.15269959 -0.07854089 -0.09149353 0.030889668
-0.21808292 -0.018620227 -0.047961343 0.05453841 -0.11054095 0.050434373 0.051946674 0.11330165
00000000: f136 863d 0fcd c2bc 2521 b2bc 7b4b e8bc
00000010: 869f 27be 0c08 f2bc 585f a63d f4fd 853b
00000020: 8306 a03d d7a2 d43d a291 49bc db09 e83c
00000030: 485d 1c3e 0cda a0bd f660 bbbd 540c fd3c
00000040: 2151 5fbe 7289 98bc 1d73 44bd ab63 5f3d
00000050: 4b63 e2bd 4694 4e3d 09c6 543d b20a e83d

blinear2.bias_rho f4 [24]
-6.904593 -7.1333313 -6.785085 -6.9081435 -7.25104 -7.080381 -7.066018 -6.9273896
-7.0241604 -7.038297 -6.8739433 -6.9181805 -6.9951315 -6.9929667 -6.8411965 -7.0716257
-7.016886 -7.0222406 -7.174291 -7.1254373 -6.940019 -7.160945 -6.9596815 -7.0061636
00000000: 6df2 dcc0 4044 e4c0 6b1f d9c0 830f ddc0
00000010: 8508 e8c0 7b92 e2c0 d21c e2c0 2dad ddc0
00000020: ecc5 e0c0 bb39 e1c0 58f7 dbc0 bc61 ddc0
00000030: 1ed8 dfc0 62c6 dfc0 15eb dac0 c24a e2c0
00000040: 558a e0c0 32b6 e0c0 cb93 e5c0 9503 e4c0
00000050: a314 dec0 7626 e5c0 b6b5 dec0 7e32 e0c0
