summit/benchmarks/experiment_emulator/trained_models/BNN/reizman_suzuki_case2_ton_5_BNN_model.pt (torch, 27999 bytes, 35 tensors)

blinear1.weight_mu f4 [24, 11]
-0.06839198 -0.00030187928 -0.00029835117 -2.8062179e-05 -0.08909132 0.016266996 -1.7238617e-05 7.5349344e-05
0.0005169681 -0.0001290297 0.00025937997 -0.012067293 0.004631311 0.0050550844 0.00050230836 0.11892288
0.0003402615 -7.6155724e-05 -0.00024159285 -0.0052532125 -0.00018803966 0.083674766 0.051200375 -0.006301084
0.00029636695 0.00023455032 -0.00019738352 -6.3965424e-05 -0.047316175 -0.00091906934 4.662047e-06 -0.0013870086
0.088666946 -0.018727059 0.074142866 -0.00048226403 -0.00031301708 -0.00041038697 -0.03233427 -0.00010408186
-0.0002480676 -0.0020290888 -0.106780164 0.00045495311 -0.06384627 -0.0006340416 -0.058350313 0.000106661406
0.0001884196 -0.00022043953 -0.032834206 2.7116941e-05 0.103902966 8.921374e-05 0.025838116 -0.010526414
0.0002905654 -0.00020650875 -0.00298646 -0.016689336 -0.00033604848 0.07979653 -0.00022729303 0.00023708375
0.0001966857 0.0029177114 0.01019964 0.107359946 -0.0046898676 -7.3346644e-05 0.024545958 -0.048232008
0.14163743 -7.931387e-05 1.8705232e-05 0.09159313 0.018995898 -0.0026494886 -0.0027625475 0.0023841672
0.039331324 0.021558275 -0.009143207 0.0005116932 -0.01952628 0.06377961 4.285147e-05 0.00041402457
0.00020690361 0.00034427954 0.00031332264 -0.00017525713 -3.249679e-05 0.0042422516 -0.07938469 -0.03096764
-0.08668316 -0.0108443 -0.00017350794 0.06204433 0.00015601722 -5.3985004e-05 0.00028083124 -0.0007168762
0.000117327494 -8.3952575e-05 -0.006495786 4.4701745e-05 0.005400786 0.0052478965 -5.8335885e-05 -0.00013879748
-0.09455652 0.014444164 0.00011044876 0.009704484 -0.0007852948 -0.02453579 -3.3177465e-05 0.0013732667
0.00028010734 0.022970263 0.006965128 -0.10129564 0.0238203 0.00018971006 0.06167224 -0.00018186755
0.0022731808 0.046358418 2.119283e-05 -0.0015775984 1.39421745e-05 0.00015622882 0.0001862415 0.018584639
-6.975017e-05 0.029280249 1.5139331e-05 -4.595669e-05 0.00031655177 0.0012291928 -0.0011795467 0.0007112951
-0.0072867987 0.08393672 0.042569954 -0.012282707 0.017687803 -0.0005138399 0.04969028 -0.0056393472
0.006034543 -0.00048240335 -0.009268589 -0.05153763 0.016469726 -0.0020300136 0.0134731755 -0.01000974
-0.0003554471 0.00026178145 -0.08918494 0.0007722125 -0.00036531198 0.020025713 -0.02046583 0.00010533068
-1.6313601e-05 -0.008736545 0.00035574922 2.967936e-07 -0.032371778 0.00031880295 -3.434218e-05 -0.077917166
0.017646482 0.060414053 0.0012310612 0.00048379457 -0.00017415233 0.054828424 0.00045970254 0.026411213
0.0023905213 -0.027923085 0.0156474 0.0072796564 0.0011228059 0.0033012757 -5.313009e-05 0.0002837019
0.00012347048 2.4813013e-05 1.4871989e-05 -0.09263332 -0.08135271 -0.00011326772 0.0058163754 0.00046005732
7.035898e-05 0.08228765 0.0001831593 3.9855808e-05 -0.00016781059 -1.2864689e-05 -2.0299303e-05 -0.00010734337
-0.003043959 0.013389676 0.0015518465 0.00035497156 0.06620376 -0.00015484472 -0.105169445 0.0032575554
-0.00021170035 0.00089467387 -0.00024120609 -0.001454946 0.002594458 5.831309e-05 0.0041046673 0.009345313
1.1691655e-05 0.0049183057 0.04138367 -0.0013308929 0.00026680063 0.00041142094 -2.0789483e-05 -0.00097421504
-0.0009612278 0.028385555 0.04175219 0.0045370203 -0.031029068 0.00046176554 0.00026577362 -0.000308949
-0.035079442 -0.0026830623 -0.015305611 -0.00045824313 0.077542484 0.00021531031 -0.028448218 -0.014280305
-0.013772887 -0.0075766784 -0.021127846 -0.11662468 -0.0031577009 0.00040619925 0.019822214 -0.010408652
00000000: 1811 8cbd 8d45 9eb9 046c 9cb9 1267 ebb7
00000010: 8375 b6bd 5d42 853c a69b 90b7 df04 9e38
00000020: 2485 073a 254c 07b9 64fd 8739 e5b5 45bc
00000030: 41c2 973b 1fa5 a53b 58ad 033a d78d f33d
00000040: 2065 b239 cbb5 9fb8 1654 7db9 2423 acbb
00000050: 832c 45b9 ad5d ab3d 7cb7 513d 5379 cebb
00000060: b361 9b39 9ff1 7539 bcf8 4eb9 2d25 86b8
00000070: 9bce 41bd b3ed 70ba ae6e 9c36 49cc b5ba
00000080: 0497 b53d 7d69 99bc 37d8 973d 62d8 fcb9
00000090: 711c a4b9 3529 d7b9 f170 04bd 8646 dab8
000000a0: 120f 82b9 76fa 04bb 8faf dabd c686 ee39
000000b0: d5c1 82bd d035 26ba bd00 6fbd 68af df38
000000c0: 8092 4539 c925 67b9 297d 06bd 3079 e337
000000d0: 14cb d43d 4318 bb38 75aa d33c fb76 2cbc
000000e0: 0757 9839 458a 58b9 7cb8 43bb 13b8 88bc
000000f0: aa2f b0b9 5d6c a33d 8255 6eb9 af99 7839
00000100: 6a3d 4e39 1337 3f3b 641c 273c 88df db3d
00000110: 76ad 99bb aed1 99b8 9b14 c93c ed8e 45bd
00000120: 6709 113e 4f55 a6b8 2ee9 9c37 2e95 bb3d
00000130: 499d 9b3c 0ba3 2dbb db0b 35bb b03f 1c3b
00000140: e219 213d fb9a b03c 64cd 15bc 2623 063a
00000150: 94f5 9fbc e29e 823d 6abb 3338 7011 d939
00000160: 44f4 5839 6b80 b439 7445 a439 3ac5 37b9
00000170: 2a4d 08b8 9602 8b3b 7194 a2bd d9af fdbc
00000180: f186 b1bd 4aac 31bc afef 35b9 3222 7e3d
00000190: 8e98 2339 f56d 62b8 883c 9339 bfec 3bba
000001a0: b80d f638 b20f b0b8 9ada d4bb 227e 3b38
000001b0: 14f9 b03b 8cf6 ab3b aead 74b8 2a8a 11b9
000001c0: d9a6 c1bd 37a7 6c3c baa0 e738 8eff 1e3c
000001d0: 3edc 4dba 48ff c8bc 0828 0bb8 2fff b33a
000001e0: 5fdb 9239 222c bc3c ba3b e43b 1774 cfbd
000001f0: ca22 c33c e8ec 4639 089c 7c3d b3b3 3eb9
00000200: a5f9 143b 53e2 3d3d 42c7 b137 6bc7 ceba
00000210: 2fe9 6937 5bd1 2339 d249 4339 d03e 983c
00000220: d646 92b8 22dd ef3c eefe 7d37 9fc1 40b8
00000230: dcf6 a539 de1c a13a 059b 9aba 3576 3a3a
00000240: 19c6 eebb 04e7 ab3d d55d 2e3d 683d 49bc
00000250: 03e6 903c 36b3 06ba 0988 4b3d 46ca b8bb
00000260: 6abd c53b 15eb fcb9 48db 17bc 1f19 53bd
00000270: 85eb 863c fa09 05bb 98be 5c3c e4ff 23bc
00000280: 4d5b bab9 b63f 8939 98a6 b6bd 4e6e 4a3a
00000290: 5887 bfb9 f70c a43c f5a7 a7bc fae4 dc38
000002a0: 31d9 88b7 ba23 0fbc da83 ba39 0057 9f34
000002b0: 4598 04bd 0225 a739 a30a 10b8 0993 9fbd
000002c0: 5b8f 903c ba74 773d 8f5b a13a cfa5 fd39
000002d0: a99c 36b9 c593 603d 3b04 f139 545c d83c
000002e0: 4baa 1c3b f4be e4bc fa2e 803c 2f8a ee3b
000002f0: 1d2b 933a 375a 583b 00d8 5eb8 d3bd 9439
00000300: db77 0139 8a25 d037 b582 7937 8ab6 bdbd
00000310: 409c a6bd 258a edb8 4b97 be3b d933 f139
00000320: b18d 9338 6d86 a83d 730e 4039 d92a 2738
00000330: 50f6 2fb9 6bd5 57b7 6c48 aab7 881d e1b8
00000340: 287d 47bb 5f60 5b3c 5467 cb3a 7a1b ba39
00000350: d695 873d d05d 22b9 1463 d7bd b67c 553b
00000360: e1fb 5db9 8c88 6a3a 44ec 7cb9 e3b3 beba
00000370: c807 2a3b 3495 7438 7280 863b 151d 193c
00000380: 4727 4437 bd29 a13b ec81 293d 5b71 aeba
00000390: 60e1 8b39 fcb3 d739 1365 aeb7 7762 7fba
000003a0: e8fa 7bba d388 e83c 5804 2b3d 49ab 943b
000003b0: ac30 febc 1f19 f239 8857 8b39 6ffa a1b9
000003c0: 76af 0fbd 51d6 2fbb 63c4 7abc 5a40 f0b9
000003d0: 98ce 9e3d ecc4 6139 3d0c e9bc f1f7 69bc
000003e0: ada7 61bc c945 f8bb 4e14 adbc ecd8 eebd
000003f0: 6ef1 4ebb 24f7 d439 3262 a23c 0d89 2abc

blinear1.weight_rho f4 [24, 11]
-6.9156294 -6.9877353 -6.88738 -6.8800197 -6.977469 -6.8880024 -6.9682193 -6.9831004
-7.0073924 -6.8905253 -6.9839334 -6.7726817 -6.8343616 -6.9320235 -7.097409 -6.9964523
-6.9288325 -6.963824 -6.8360267 -6.7944603 -6.7936616 -7.0606437 -6.97282 -7.0048466
-6.96343 -6.883293 -6.8319063 -6.8614073 -7.136331 -7.029058 -6.887045 -6.9351997
-6.9925804 -7.000181 -6.9099 -7.00025 -7.0548024 -6.9720874 -7.039191 -6.9290376
-7.1555443 -6.7489123 -6.9604993 -6.854862 -7.172981 -7.061287 -6.855701 -7.083776
-6.7659793 -7.0937767 -6.8611536 -6.7961574 -7.0035367 -6.846794 -6.838444 -6.817343
-7.0602274 -7.0722437 -7.0051813 -6.9205627 -7.0011563 -7.010075 -6.9142356 -7.037774
-6.9228683 -6.9340496 -6.94271 -6.70047 -6.903814 -6.9774227 -6.7783937 -6.9982905
-6.7986603 -6.923703 -6.8549595 -6.9943795 -7.032144 -6.7702804 -6.988597 -7.0099545
-6.9758596 -6.9595046 -7.145015 -6.94782 -7.029321 -6.9924216 -6.906806 -6.93827
-6.8465805 -6.956867 -6.992467 -6.9171057 -6.87731 -7.0323243 -6.934391 -6.977179
-6.880382 -6.778015 -6.8745337 -6.726597 -7.018848 -6.803034 -6.8771157 -6.8204937
-6.888805 -7.009122 -7.145328 -7.109581 -6.8355155 -6.9608417 -6.9279017 -6.953505
-7.0477676 -6.999497 -6.9516635 -6.931746 -7.0850277 -6.991749 -7.0396457 -6.964395
-6.914192 -6.943832 -6.7867393 -6.8531904 -6.9938736 -7.134781 -7.0660872 -6.9168296
-6.920965 -6.95854 -7.2304773 -6.892427 -6.852675 -6.943612 -7.0043206 -6.839207
-6.959153 -7.0041504 -7.047873 -6.8546968 -6.9008603 -6.9650617 -6.7486024 -6.8303595
-6.9399276 -7.030837 -6.8984356 -6.971176 -7.0073543 -7.00372 -7.0258923 -6.8684225
-6.9871306 -6.8914557 -6.855168 -6.975485 -6.964639 -6.8308473 -6.9377666 -6.9106154
-6.8469634 -7.005582 -6.881151 -6.7767134 -6.855913 -7.043568 -6.956607 -6.8160996
-7.1607423 -6.961657 -6.886833 -6.907479 -6.8986516 -6.9466176 -6.998004 -6.932243
-6.9673424 -6.766757 -7.071746 -6.882796 -7.0047398 -7.026562 -6.922295 -6.954377
-6.912091 -6.903965 -6.995701 -7.0008535 -6.7877975 -6.716739 -6.9410334 -6.8322697
-6.945242 -7.082304 -7.0890136 -6.9568467 -6.8310695 -7.042784 -6.930904 -6.827231
-6.938981 -7.0229945 -6.933264 -7.1000032 -6.9477186 -6.6849904 -6.892271 -7.054347
-7.159249 -6.6879644 -7.091131 -6.864175 -7.0008907 -6.9857483 -6.962783 -6.9184227
-6.8649087 -6.8560505 -6.765463 -6.7409825 -7.0061507 -6.935814 -6.882418 -7.104597
-6.860765 -6.7630353 -6.837967 -6.890164 -7.025603 -7.0940957 -6.9309425 -7.0120697
-7.002489 -6.9293265 -6.9570184 -7.037568 -7.0124617 -6.963499 -6.900923 -7.025221
-6.938506 -6.954352 -6.864186 -6.7904267 -6.9575095 -6.940348 -6.988108 -6.9150524
-6.9821463 -6.7855015 -6.9350657 -6.8720193 -6.9192038 -7.2179317 -6.953371 -7.0514874
00000000: d64c ddc0 879b dfc0 6b65 dcc0 1f29 dcc0
00000010: 6d47 dfc0 846a dcc0 a7fb dec0 8f75 dfc0
00000020: 8f3c e0c0 2f7f dcc0 627c dfc0 cfb9 d8c0
00000030: 17b3 dac0 23d3 ddc0 f91d e3c0 f0e2 dfc0
00000040: ffb8 ddc0 a5d7 dec0 bbc0 dac0 386c d9c0
00000050: ad65 d9c0 cbf0 e1c0 5721 dfc0 b427 e0c0
00000060: 6bd4 dec0 f043 dcc0 fa9e dac0 a690 dbc0
00000070: d35c e4c0 0bee e0c0 ac62 dcc0 28ed ddc0
00000080: 38c3 dfc0 7c01 e0c0 e71d ddc0 0c02 e0c0
00000090: f1c0 e1c0 571b dfc0 0d41 e1c0 adba ddc0
000000a0: 38fa e4c0 17f7 d7c0 69bc dec0 085b dbc0
000000b0: 0f89 e5c0 10f6 e1c0 e761 dbc0 4bae e2c0
000000c0: e782 d8c0 3800 e3c0 928e dbc0 1f7a d9c0
000000d0: f91c e0c0 f018 dbc0 89d4 dac0 ad27 dac0
000000e0: 62ed e1c0 d24f e2c0 722a e0c0 4075 ddc0
000000f0: 7909 e0c0 8952 e0c0 6b41 ddc0 7235 e1c0
00000100: 2388 ddc0 bce3 ddc0 ae2a dec0 406a d6c0
00000110: 0bec dcc0 0c47 dfc0 9ae8 d8c0 fff1 dfc0
00000120: a08e d9c0 fa8e ddc0 d45b dbc0 f5d1 dfc0
00000130: 5307 e1c0 23a6 d8c0 96a2 dfc0 8c51 e0c0
00000140: 3e3a dfc0 43b4 dec0 f6a3 e4c0 8b54 dec0
00000150: 33f0 e0c0 ebc1 dfc0 8e04 ddc0 4f06 dec0
00000160: 3017 dbc0 a89e dec0 4ac2 dfc0 ee58 ddc0
00000170: ec12 dcc0 cd08 e1c0 88e6 ddc0 0d45 dfc0
00000180: 172c dcc0 80e5 d8c0 2efc dbc0 4840 d7c0
00000190: 679a e0c0 74b2 d9c0 5511 dcc0 7c41 dac0
000001a0: 1771 dcc0 ba4a e0c0 87a6 e4c0 b081 e3c0
000001b0: 8bbc dac0 37bf dec0 5fb1 ddc0 1d83 dec0
000001c0: 5087 e1c0 e1fb dfc0 0774 dec0 ddd0 ddc0
000001d0: 8cb8 e2c0 68bc dfc0 c744 e1c0 53dc dec0
000001e0: 1041 ddc0 df33 dec0 f82c d9c0 564d dbc0
000001f0: d0cd dfc0 2050 e4c0 631d e2c0 ab56 ddc0
00000200: 8c78 ddc0 5cac dec0 1260 e7c0 c38e dcc0
00000210: 1d49 dbc0 1232 dec0 6523 e0c0 c9da dac0
00000220: 62b1 dec0 0022 e0c0 2d88 e1c0 ad59 dbc0
00000230: d9d3 dcc0 c9e1 dec0 8df4 d7c0 4e92 dac0
00000240: e313 dec0 9efc e0c0 fcbf dcc0 e013 dfc0
00000250: 3f3c e0c0 791e e0c0 1cd4 e0c0 1eca dbc0
00000260: 9396 dfc0 ce86 dcc0 895d dbc0 2c37 dfc0
00000270: 53de dec0 4d96 dac0 2f02 dec0 c323 ddc0
00000280: 531a dbc0 ba2d e0c0 6432 dcc0 d6da d8c0
00000290: a463 dbc0 e964 e1c0 869c dec0 7d1d dac0
000002a0: cd24 e5c0 e5c5 dec0 f060 dcc0 110a ddc0
000002b0: c1c1 dcc0 b14a dec0 a6ef dfc0 efd4 ddc0
000002c0: 78f4 dec0 4689 d8c0 be4b e2c0 dd3f dcc0
000002d0: d426 e0c0 99d9 e0c0 7183 ddc0 428a dec0
000002e0: d92f ddc0 48ed dcc0 c8dc dfc0 fe06 e0c0
000002f0: a335 d9c0 87ef d6c0 f21c dec0 f4a1 dac0
00000300: 6c3f dec0 3ca2 e2c0 33d9 e2c0 7d9e dec0
00000310: 1f98 dac0 7d5e e1c0 f7c9 ddc0 ad78 dac0
00000320: 220c dec0 5fbc e0c0 4cdd ddc0 3a33 e3c0
00000330: b653 dec0 71eb d5c0 7c8d dcc0 36bd e1c0
00000340: 9118 e5c0 ce03 d6c0 8cea e2c0 52a7 dbc0
00000350: 4c07 e0c0 408b dfc0 1ecf dec0 b863 ddc0
00000360: 55ad dbc0 c464 dbc0 ac7e d8c0 21b6 d7c0
00000370: 6332 e0c0 30f2 ddc0 c53c dcc0 dc58 e3c0
00000380: 638b dbc0 c96a d8c0 a0d0 dac0 397c dcc0
00000390: bdd1 e0c0 d502 e3c0 48ca ddc0 e062 e0c0
000003a0: 6414 e0c0 0bbd ddc0 e59f dec0 c233 e1c0
000003b0: 1666 e0c0 fcd4 dec0 5cd4 dcc0 9cce e0c0
000003c0: 3e08 dec0 0d8a dec0 69a7 dbc0 2d4b d9c0
000003d0: eba3 dec0 5517 dec0 959e dfc0 1c48 ddc0
000003e0: be6d dfc0 d422 d9c0 0fec ddc0 95e7 dbc0
000003f0: 1e6a ddc0 4cf9 e6c0 0482 dec0 c9a5 e1c0

blinear1.bias_mu f4 [24]
0.05598444 0.03884306 -0.04024495 -0.0006924899 0.03083706 -0.1305479 -0.072647944 -0.0007906064
-0.00024014532 0.022758517 0.00031975153 0.0002620279 -0.00014513996 0.047751956 -0.0007626622 0.00016068299
-0.001525251 7.280207e-05 -0.11106088 -0.0012508458 -0.12346939 -5.0046074e-05 0.098976456 -0.0003388125
00000000: f14f 653d e719 1f3d e4d7 24bd 3688 35ba
00000010: 019e fc3c 59ae 05be 72c8 94bd b340 4fba
00000020: 85cf 7bb9 1270 ba3c 53a4 a739 ca60 8939
00000030: b630 18b9 8e97 433d 65ed 47ba 037d 2839
00000040: eeea c7ba 50ad 9838 e373 e3bd 6cf3 a3ba
00000050: 85dd fcbd 90e8 51b8 2bb4 ca3d a5a2 b1b9

blinear1.bias_rho f4 [24]
-6.9397426 -6.929194 -6.908378 -6.6766143 -7.0375085 -6.964575 -6.672965 -7.032028
-6.9331555 -7.0064993 -7.0280275 -6.8625484 -6.9178166 -6.842722 -7.1225705 -6.9144673
-6.764185 -6.8852696 -6.91821 -7.0098305 -7.015617 -6.838318 -6.9150176 -6.860452
00000000: 5f12 dec0 f5bb ddc0 6f11 ddc0 d3a6 d5c0
00000010: 4533 e1c0 ccdd dec0 ee88 d5c0 6006 e1c0
00000020: 69dc ddc0 3e35 e0c0 9ae5 e0c0 ff99 dbc0
00000030: c15e ddc0 94f7 dac0 19ec e3c0 5143 ddc0
00000040: 3474 d8c0 2154 dcc0 fa61 ddc0 8850 e0c0
00000050: ef7f e0c0 80d3 dac0 d347 ddc0 d388 dbc0

blinear1.weight_sampler.mu f4 [24, 11]
-0.06839198 -0.00030187928 -0.00029835117 -2.8062179e-05 -0.08909132 0.016266996 -1.7238617e-05 7.5349344e-05
0.0005169681 -0.0001290297 0.00025937997 -0.012067293 0.004631311 0.0050550844 0.00050230836 0.11892288
0.0003402615 -7.6155724e-05 -0.00024159285 -0.0052532125 -0.00018803966 0.083674766 0.051200375 -0.006301084
0.00029636695 0.00023455032 -0.00019738352 -6.3965424e-05 -0.047316175 -0.00091906934 4.662047e-06 -0.0013870086
0.088666946 -0.018727059 0.074142866 -0.00048226403 -0.00031301708 -0.00041038697 -0.03233427 -0.00010408186
-0.0002480676 -0.0020290888 -0.106780164 0.00045495311 -0.06384627 -0.0006340416 -0.058350313 0.000106661406
0.0001884196 -0.00022043953 -0.032834206 2.7116941e-05 0.103902966 8.921374e-05 0.025838116 -0.010526414
0.0002905654 -0.00020650875 -0.00298646 -0.016689336 -0.00033604848 0.07979653 -0.00022729303 0.00023708375
0.0001966857 0.0029177114 0.01019964 0.107359946 -0.0046898676 -7.3346644e-05 0.024545958 -0.048232008
0.14163743 -7.931387e-05 1.8705232e-05 0.09159313 0.018995898 -0.0026494886 -0.0027625475 0.0023841672
0.039331324 0.021558275 -0.009143207 0.0005116932 -0.01952628 0.06377961 4.285147e-05 0.00041402457
0.00020690361 0.00034427954 0.00031332264 -0.00017525713 -3.249679e-05 0.0042422516 -0.07938469 -0.03096764
-0.08668316 -0.0108443 -0.00017350794 0.06204433 0.00015601722 -5.3985004e-05 0.00028083124 -0.0007168762
0.000117327494 -8.3952575e-05 -0.006495786 4.4701745e-05 0.005400786 0.0052478965 -5.8335885e-05 -0.00013879748
-0.09455652 0.014444164 0.00011044876 0.009704484 -0.0007852948 -0.02453579 -3.3177465e-05 0.0013732667
0.00028010734 0.022970263 0.006965128 -0.10129564 0.0238203 0.00018971006 0.06167224 -0.00018186755
0.0022731808 0.046358418 2.119283e-05 -0.0015775984 1.39421745e-05 0.00015622882 0.0001862415 0.018584639
-6.975017e-05 0.029280249 1.5139331e-05 -4.595669e-05 0.00031655177 0.0012291928 -0.0011795467 0.0007112951
-0.0072867987 0.08393672 0.042569954 -0.012282707 0.017687803 -0.0005138399 0.04969028 -0.0056393472
0.006034543 -0.00048240335 -0.009268589 -0.05153763 0.016469726 -0.0020300136 0.0134731755 -0.01000974
-0.0003554471 0.00026178145 -0.08918494 0.0007722125 -0.00036531198 0.020025713 -0.02046583 0.00010533068
-1.6313601e-05 -0.008736545 0.00035574922 2.967936e-07 -0.032371778 0.00031880295 -3.434218e-05 -0.077917166
0.017646482 0.060414053 0.0012310612 0.00048379457 -0.00017415233 0.054828424 0.00045970254 0.026411213
0.0023905213 -0.027923085 0.0156474 0.0072796564 0.0011228059 0.0033012757 -5.313009e-05 0.0002837019
0.00012347048 2.4813013e-05 1.4871989e-05 -0.09263332 -0.08135271 -0.00011326772 0.0058163754 0.00046005732
7.035898e-05 0.08228765 0.0001831593 3.9855808e-05 -0.00016781059 -1.2864689e-05 -2.0299303e-05 -0.00010734337
-0.003043959 0.013389676 0.0015518465 0.00035497156 0.06620376 -0.00015484472 -0.105169445 0.0032575554
-0.00021170035 0.00089467387 -0.00024120609 -0.001454946 0.002594458 5.831309e-05 0.0041046673 0.009345313
1.1691655e-05 0.0049183057 0.04138367 -0.0013308929 0.00026680063 0.00041142094 -2.0789483e-05 -0.00097421504
-0.0009612278 0.028385555 0.04175219 0.0045370203 -0.031029068 0.00046176554 0.00026577362 -0.000308949
-0.035079442 -0.0026830623 -0.015305611 -0.00045824313 0.077542484 0.00021531031 -0.028448218 -0.014280305
-0.013772887 -0.0075766784 -0.021127846 -0.11662468 -0.0031577009 0.00040619925 0.019822214 -0.010408652
00000000: 1811 8cbd 8d45 9eb9 046c 9cb9 1267 ebb7
00000010: 8375 b6bd 5d42 853c a69b 90b7 df04 9e38
00000020: 2485 073a 254c 07b9 64fd 8739 e5b5 45bc
00000030: 41c2 973b 1fa5 a53b 58ad 033a d78d f33d
00000040: 2065 b239 cbb5 9fb8 1654 7db9 2423 acbb
00000050: 832c 45b9 ad5d ab3d 7cb7 513d 5379 cebb
00000060: b361 9b39 9ff1 7539 bcf8 4eb9 2d25 86b8
00000070: 9bce 41bd b3ed 70ba ae6e 9c36 49cc b5ba
00000080: 0497 b53d 7d69 99bc 37d8 973d 62d8 fcb9
00000090: 711c a4b9 3529 d7b9 f170 04bd 8646 dab8
000000a0: 120f 82b9 76fa 04bb 8faf dabd c686 ee39
000000b0: d5c1 82bd d035 26ba bd00 6fbd 68af df38
000000c0: 8092 4539 c925 67b9 297d 06bd 3079 e337
000000d0: 14cb d43d 4318 bb38 75aa d33c fb76 2cbc
000000e0: 0757 9839 458a 58b9 7cb8 43bb 13b8 88bc
000000f0: aa2f b0b9 5d6c a33d 8255 6eb9 af99 7839
00000100: 6a3d 4e39 1337 3f3b 641c 273c 88df db3d
00000110: 76ad 99bb aed1 99b8 9b14 c93c ed8e 45bd
00000120: 6709 113e 4f55 a6b8 2ee9 9c37 2e95 bb3d
00000130: 499d 9b3c 0ba3 2dbb db0b 35bb b03f 1c3b
00000140: e219 213d fb9a b03c 64cd 15bc 2623 063a
00000150: 94f5 9fbc e29e 823d 6abb 3338 7011 d939
00000160: 44f4 5839 6b80 b439 7445 a439 3ac5 37b9
00000170: 2a4d 08b8 9602 8b3b 7194 a2bd d9af fdbc
00000180: f186 b1bd 4aac 31bc afef 35b9 3222 7e3d
00000190: 8e98 2339 f56d 62b8 883c 9339 bfec 3bba
000001a0: b80d f638 b20f b0b8 9ada d4bb 227e 3b38
000001b0: 14f9 b03b 8cf6 ab3b aead 74b8 2a8a 11b9
000001c0: d9a6 c1bd 37a7 6c3c baa0 e738 8eff 1e3c
000001d0: 3edc 4dba 48ff c8bc 0828 0bb8 2fff b33a
000001e0: 5fdb 9239 222c bc3c ba3b e43b 1774 cfbd
000001f0: ca22 c33c e8ec 4639 089c 7c3d b3b3 3eb9
00000200: a5f9 143b 53e2 3d3d 42c7 b137 6bc7 ceba
00000210: 2fe9 6937 5bd1 2339 d249 4339 d03e 983c
00000220: d646 92b8 22dd ef3c eefe 7d37 9fc1 40b8
00000230: dcf6 a539 de1c a13a 059b 9aba 3576 3a3a
00000240: 19c6 eebb 04e7 ab3d d55d 2e3d 683d 49bc
00000250: 03e6 903c 36b3 06ba 0988 4b3d 46ca b8bb
00000260: 6abd c53b 15eb fcb9 48db 17bc 1f19 53bd
00000270: 85eb 863c fa09 05bb 98be 5c3c e4ff 23bc
00000280: 4d5b bab9 b63f 8939 98a6 b6bd 4e6e 4a3a
00000290: 5887 bfb9 f70c a43c f5a7 a7bc fae4 dc38
000002a0: 31d9 88b7 ba23 0fbc da83 ba39 0057 9f34
000002b0: 4598 04bd 0225 a739 a30a 10b8 0993 9fbd
000002c0: 5b8f 903c ba74 773d 8f5b a13a cfa5 fd39
000002d0: a99c 36b9 c593 603d 3b04 f139 545c d83c
000002e0: 4baa 1c3b f4be e4bc fa2e 803c 2f8a ee3b
000002f0: 1d2b 933a 375a 583b 00d8 5eb8 d3bd 9439
00000300: db77 0139 8a25 d037 b582 7937 8ab6 bdbd
00000310: 409c a6bd 258a edb8 4b97 be3b d933 f139
00000320: b18d 9338 6d86 a83d 730e 4039 d92a 2738
00000330: 50f6 2fb9 6bd5 57b7 6c48 aab7 881d e1b8
00000340: 287d 47bb 5f60 5b3c 5467 cb3a 7a1b ba39
00000350: d695 873d d05d 22b9 1463 d7bd b67c 553b
00000360: e1fb 5db9 8c88 6a3a 44ec 7cb9 e3b3 beba
00000370: c807 2a3b 3495 7438 7280 863b 151d 193c
00000380: 4727 4437 bd29 a13b ec81 293d 5b71 aeba
00000390: 60e1 8b39 fcb3 d739 1365 aeb7 7762 7fba
000003a0: e8fa 7bba d388 e83c 5804 2b3d 49ab 943b
000003b0: ac30 febc 1f19 f239 8857 8b39 6ffa a1b9
000003c0: 76af 0fbd 51d6 2fbb 63c4 7abc 5a40 f0b9
000003d0: 98ce 9e3d ecc4 6139 3d0c e9bc f1f7 69bc
000003e0: ada7 61bc c945 f8bb 4e14 adbc ecd8 eebd
000003f0: 6ef1 4ebb 24f7 d439 3262 a23c 0d89 2abc

blinear1.weight_sampler.rho f4 [24, 11]
-6.9156294 -6.9877353 -6.88738 -6.8800197 -6.977469 -6.8880024 -6.9682193 -6.9831004
-7.0073924 -6.8905253 -6.9839334 -6.7726817 -6.8343616 -6.9320235 -7.097409 -6.9964523
-6.9288325 -6.963824 -6.8360267 -6.7944603 -6.7936616 -7.0606437 -6.97282 -7.0048466
-6.96343 -6.883293 -6.8319063 -6.8614073 -7.136331 -7.029058 -6.887045 -6.9351997
-6.9925804 -7.000181 -6.9099 -7.00025 -7.0548024 -6.9720874 -7.039191 -6.9290376
-7.1555443 -6.7489123 -6.9604993 -6.854862 -7.172981 -7.061287 -6.855701 -7.083776
-6.7659793 -7.0937767 -6.8611536 -6.7961574 -7.0035367 -6.846794 -6.838444 -6.817343
-7.0602274 -7.0722437 -7.0051813 -6.9205627 -7.0011563 -7.010075 -6.9142356 -7.037774
-6.9228683 -6.9340496 -6.94271 -6.70047 -6.903814 -6.9774227 -6.7783937 -6.9982905
-6.7986603 -6.923703 -6.8549595 -6.9943795 -7.032144 -6.7702804 -6.988597 -7.0099545
-6.9758596 -6.9595046 -7.145015 -6.94782 -7.029321 -6.9924216 -6.906806 -6.93827
-6.8465805 -6.956867 -6.992467 -6.9171057 -6.87731 -7.0323243 -6.934391 -6.977179
-6.880382 -6.778015 -6.8745337 -6.726597 -7.018848 -6.803034 -6.8771157 -6.8204937
-6.888805 -7.009122 -7.145328 -7.109581 -6.8355155 -6.9608417 -6.9279017 -6.953505
-7.0477676 -6.999497 -6.9516635 -6.931746 -7.0850277 -6.991749 -7.0396457 -6.964395
-6.914192 -6.943832 -6.7867393 -6.8531904 -6.9938736 -7.134781 -7.0660872 -6.9168296
-6.920965 -6.95854 -7.2304773 -6.892427 -6.852675 -6.943612 -7.0043206 -6.839207
-6.959153 -7.0041504 -7.047873 -6.8546968 -6.9008603 -6.9650617 -6.7486024 -6.8303595
-6.9399276 -7.030837 -6.8984356 -6.971176 -7.0073543 -7.00372 -7.0258923 -6.8684225
-6.9871306 -6.8914557 -6.855168 -6.975485 -6.964639 -6.8308473 -6.9377666 -6.9106154
-6.8469634 -7.005582 -6.881151 -6.7767134 -6.855913 -7.043568 -6.956607 -6.8160996
-7.1607423 -6.961657 -6.886833 -6.907479 -6.8986516 -6.9466176 -6.998004 -6.932243
-6.9673424 -6.766757 -7.071746 -6.882796 -7.0047398 -7.026562 -6.922295 -6.954377
-6.912091 -6.903965 -6.995701 -7.0008535 -6.7877975 -6.716739 -6.9410334 -6.8322697
-6.945242 -7.082304 -7.0890136 -6.9568467 -6.8310695 -7.042784 -6.930904 -6.827231
-6.938981 -7.0229945 -6.933264 -7.1000032 -6.9477186 -6.6849904 -6.892271 -7.054347
-7.159249 -6.6879644 -7.091131 -6.864175 -7.0008907 -6.9857483 -6.962783 -6.9184227
-6.8649087 -6.8560505 -6.765463 -6.7409825 -7.0061507 -6.935814 -6.882418 -7.104597
-6.860765 -6.7630353 -6.837967 -6.890164 -7.025603 -7.0940957 -6.9309425 -7.0120697
-7.002489 -6.9293265 -6.9570184 -7.037568 -7.0124617 -6.963499 -6.900923 -7.025221
-6.938506 -6.954352 -6.864186 -6.7904267 -6.9575095 -6.940348 -6.988108 -6.9150524
-6.9821463 -6.7855015 -6.9350657 -6.8720193 -6.9192038 -7.2179317 -6.953371 -7.0514874
00000000: d64c ddc0 879b dfc0 6b65 dcc0 1f29 dcc0
00000010: 6d47 dfc0 846a dcc0 a7fb dec0 8f75 dfc0
00000020: 8f3c e0c0 2f7f dcc0 627c dfc0 cfb9 d8c0
00000030: 17b3 dac0 23d3 ddc0 f91d e3c0 f0e2 dfc0
00000040: ffb8 ddc0 a5d7 dec0 bbc0 dac0 386c d9c0
00000050: ad65 d9c0 cbf0 e1c0 5721 dfc0 b427 e0c0
00000060: 6bd4 dec0 f043 dcc0 fa9e dac0 a690 dbc0
00000070: d35c e4c0 0bee e0c0 ac62 dcc0 28ed ddc0
00000080: 38c3 dfc0 7c01 e0c0 e71d ddc0 0c02 e0c0
00000090: f1c0 e1c0 571b dfc0 0d41 e1c0 adba ddc0
000000a0: 38fa e4c0 17f7 d7c0 69bc dec0 085b dbc0
000000b0: 0f89 e5c0 10f6 e1c0 e761 dbc0 4bae e2c0
000000c0: e782 d8c0 3800 e3c0 928e dbc0 1f7a d9c0
000000d0: f91c e0c0 f018 dbc0 89d4 dac0 ad27 dac0
000000e0: 62ed e1c0 d24f e2c0 722a e0c0 4075 ddc0
000000f0: 7909 e0c0 8952 e0c0 6b41 ddc0 7235 e1c0
00000100: 2388 ddc0 bce3 ddc0 ae2a dec0 406a d6c0
00000110: 0bec dcc0 0c47 dfc0 9ae8 d8c0 fff1 dfc0
00000120: a08e d9c0 fa8e ddc0 d45b dbc0 f5d1 dfc0
00000130: 5307 e1c0 23a6 d8c0 96a2 dfc0 8c51 e0c0
00000140: 3e3a dfc0 43b4 dec0 f6a3 e4c0 8b54 dec0
00000150: 33f0 e0c0 ebc1 dfc0 8e04 ddc0 4f06 dec0
00000160: 3017 dbc0 a89e dec0 4ac2 dfc0 ee58 ddc0
00000170: ec12 dcc0 cd08 e1c0 88e6 ddc0 0d45 dfc0
00000180: 172c dcc0 80e5 d8c0 2efc dbc0 4840 d7c0
00000190: 679a e0c0 74b2 d9c0 5511 dcc0 7c41 dac0
000001a0: 1771 dcc0 ba4a e0c0 87a6 e4c0 b081 e3c0
000001b0: 8bbc dac0 37bf dec0 5fb1 ddc0 1d83 dec0
000001c0: 5087 e1c0 e1fb dfc0 0774 dec0 ddd0 ddc0
000001d0: 8cb8 e2c0 68bc dfc0 c744 e1c0 53dc dec0
000001e0: 1041 ddc0 df33 dec0 f82c d9c0 564d dbc0
000001f0: d0cd dfc0 2050 e4c0 631d e2c0 ab56 ddc0
00000200: 8c78 ddc0 5cac dec0 1260 e7c0 c38e dcc0
00000210: 1d49 dbc0 1232 dec0 6523 e0c0 c9da dac0
00000220: 62b1 dec0 0022 e0c0 2d88 e1c0 ad59 dbc0
00000230: d9d3 dcc0 c9e1 dec0 8df4 d7c0 4e92 dac0
00000240: e313 dec0 9efc e0c0 fcbf dcc0 e013 dfc0
00000250: 3f3c e0c0 791e e0c0 1cd4 e0c0 1eca dbc0
00000260: 9396 dfc0 ce86 dcc0 895d dbc0 2c37 dfc0
00000270: 53de dec0 4d96 dac0 2f02 dec0 c323 ddc0
00000280: 531a dbc0 ba2d e0c0 6432 dcc0 d6da d8c0
00000290: a463 dbc0 e964 e1c0 869c dec0 7d1d dac0
000002a0: cd24 e5c0 e5c5 dec0 f060 dcc0 110a ddc0
000002b0: c1c1 dcc0 b14a dec0 a6ef dfc0 efd4 ddc0
000002c0: 78f4 dec0 4689 d8c0 be4b e2c0 dd3f dcc0
000002d0: d426 e0c0 99d9 e0c0 7183 ddc0 428a dec0
000002e0: d92f ddc0 48ed dcc0 c8dc dfc0 fe06 e0c0
000002f0: a335 d9c0 87ef d6c0 f21c dec0 f4a1 dac0
00000300: 6c3f dec0 3ca2 e2c0 33d9 e2c0 7d9e dec0
00000310: 1f98 dac0 7d5e e1c0 f7c9 ddc0 ad78 dac0
00000320: 220c dec0 5fbc e0c0 4cdd ddc0 3a33 e3c0
00000330: b653 dec0 71eb d5c0 7c8d dcc0 36bd e1c0
00000340: 9118 e5c0 ce03 d6c0 8cea e2c0 52a7 dbc0
00000350: 4c07 e0c0 408b dfc0 1ecf dec0 b863 ddc0
00000360: 55ad dbc0 c464 dbc0 ac7e d8c0 21b6 d7c0
00000370: 6332 e0c0 30f2 ddc0 c53c dcc0 dc58 e3c0
00000380: 638b dbc0 c96a d8c0 a0d0 dac0 397c dcc0
00000390: bdd1 e0c0 d502 e3c0 48ca ddc0 e062 e0c0
000003a0: 6414 e0c0 0bbd ddc0 e59f dec0 c233 e1c0
000003b0: 1666 e0c0 fcd4 dec0 5cd4 dcc0 9cce e0c0
000003c0: 3e08 dec0 0d8a dec0 69a7 dbc0 2d4b d9c0
000003d0: eba3 dec0 5517 dec0 959e dfc0 1c48 ddc0
000003e0: be6d dfc0 d422 d9c0 0fec ddc0 95e7 dbc0
000003f0: 1e6a ddc0 4cf9 e6c0 0482 dec0 c9a5 e1c0

blinear1.weight_sampler.eps_w f4 [24, 11]
-0.5533684 -1.1327423 1.0940204 0.12152914 -0.759166 0.9712748 1.0821872 -0.24741021
-0.61663353 -0.72777325 0.54733795 0.5981406 -0.13209875 -0.011595552 0.5277578 0.08226753
0.3811412 -1.5187453 -1.5138171 -1.1965458 0.406989 -2.0161533 -0.36273888 -1.7838564
-0.86353654 0.99672747 0.772702 0.8345534 1.9233506 2.697299 0.64933056 0.13933207
1.2559078 -0.7050333 -0.11639937 1.2736315 0.115997806 -0.6537308 -1.9307151 0.37200147
-0.5835741 -1.1032096 -0.67070276 0.55648047 0.49171674 0.6143697 0.71528184 0.8597799
1.6777889 0.20323762 -0.7006187 0.76569474 0.34116235 -0.018194519 1.0689579 -1.0461792
-0.3274074 -0.8763024 -0.38786903 -1.02953 0.35036743 0.25335518 1.1543033 0.09045233
0.106632456 -0.9099607 0.6852115 -0.057171486 0.35320038 -0.47501585 -0.15929316 -1.7430998
-0.59054327 0.16148709 -0.2168448 -0.74359727 0.7099707 0.019490901 -0.13600716 -0.03949353
-0.9755198 0.80824834 -0.54388714 0.200497 -0.87622297 -0.41874167 -1.1904206 -0.18862975
-0.80869454 0.8828994 0.0159243 0.66433156 -1.025198 0.24766478 -1.2624035 1.7761163
-0.7496135 0.04188189 0.42426237 -1.1609535 0.5378617 0.8482702 -1.0453976 -2.0285215
0.8808698 -0.985017 -0.8289106 -0.88756645 0.20534638 1.0198504 -0.5142563 -0.4023225
1.1411718 -0.056911964 0.04967447 -0.46674752 -1.2082176 -0.9338346 1.6491951 0.35112908
1.4375097 1.2389598 -0.2684267 -1.0106477 -0.3881825 -1.4020289 0.63967097 -0.68787444
0.6280534 0.5828443 0.020992553 -0.09201114 -0.8470441 0.36615747 -0.8187334 -0.64767575
-0.96419865 0.5072161 -0.71291554 -0.6094212 0.32052007 0.710323 -0.084606156 0.055018015
2.2877178 2.5934596 -0.40995997 0.332281 0.34690377 0.055599295 1.4451522 -0.48998803
0.2506368 -0.19489892 0.7156923 -0.24924761 -1.6014206 -0.26056066 -0.11513161 -1.1662321
0.28798655 0.30205867 -0.30174845 0.38891342 0.6721861 -0.20693615 -0.37974435 0.7427668
1.7941602 -0.44552732 0.7827781 -0.9658091 -1.0319713 -2.5996704 -0.22597203 -1.4333179
0.97321004 0.6520139 1.4909477 -1.145875 0.38432714 0.3026555 -2.6247804 -0.57323813
0.17203173 0.36889124 0.5907001 0.05217108 -0.23162402 0.19983205 1.3192142 -0.5347422
0.0663103 -0.33679122 -0.20213619 1.120344 -0.08466232 -0.33077142 -0.59887004 -0.61099726
-0.71329325 -1.1567243 -1.1493005 1.2324005 -0.32433072 -2.275531 0.20530997 -0.6529999
0.17920172 1.3892685 1.2751162 0.37820286 0.594776 0.56351286 -2.933883 0.24473147
0.16014357 0.53640634 0.8393758 -0.35562247 -1.1276138 0.336986 -0.33030683 0.5600657
-0.6004593 2.0478172 0.3711824 -1.4854962 0.8183036 -0.069140755 -0.38248667 0.24461217
-0.63899595 0.841137 -0.22480252 -1.1252018 1.3256693 -0.18652672 -0.72662365 -0.1441024
0.8922526 -0.6597836 0.73332226 -0.019567136 -0.9047067 -1.1739074 0.2428007 -1.4372209
-0.073154815 0.23292744 0.691752 1.1056409 -1.7524027 0.051430665 0.6645908 -1.2890056
00000000: 8da9 0dbf b3fd 90bf dc08 8c3f 45e4 f83d
00000010: b458 42bf 77a5 783f 1c85 8a3f 1a59 7dbe
00000020: b2db 1dbf 594f 3abf 571e 0c3f be1f 193f
00000030: e544 07be 45fb 3dbc 231b 073f e17b a83d
00000040: f024 c33e 3f66 c2bf c2c4 c1bf 6a28 99bf
00000050: dd60 d03e a808 01c0 e9b8 b9be 6855 e4bf
00000060: bb10 5dbf 8829 7f3f cccf 453f 4ba5 553f
00000070: 5a30 f63f 8ca0 2c40 873a 263f 11ad 0e3e
00000080: 96c1 a03f 107d 34bf cb62 eebd 5b06 a33f
00000090: 4290 ed3d e75a 27bf ac21 f7bf fa76 be3e
000000a0: 1d65 15bf f935 8dbf 2db3 2bbf 8175 0e3f
000000b0: 4cc2 fb3e 5547 1d3f b61c 373f 891a 5c3f
000000c0: c9c1 d63f 861d 503e bf5b 33bf 9204 443f
000000d0: d5ac ae3e ac0c 95bc 9dd3 883f 33e9 85bf
000000e0: f1a1 a7be 5b55 60bf c596 c6be a4c7 83bf
000000f0: 5c63 b33e c5b7 813e 36c0 933f 123f b93d
00000100: 1e62 da3d 2ff3 68bf 056a 2f3f a62c 6abd
00000110: aed6 b43e 4735 f3be bf1d 23be e51d dfbf
00000120: d82d 17bf df5c 253e 900c 5ebe 645c 3ebf
00000130: a4c0 353f 62ab 9f3c 7645 0bbe f8c3 21bd
00000140: aabb 79bf 5de9 4e3f 303c 0bbf 164f 4d3e
00000150: 2650 60bf 4f65 d6be b45f 98bf 2828 41be
00000160: 9b06 4fbf b205 623f ad73 823c a211 2a3f
00000170: b039 83bf d69b 7d3e 7096 a1bf c757 e33f
00000180: ace6 3fbf 588c 2b3d eb38 d93e 209a 94bf
00000190: 4eb1 093f 3c28 593f 97cf 85bf 4cd3 01c0
000001a0: af80 613f 132a 7cbf 7c33 54bf 8e37 63bf
000001b0: 5246 523e 758a 823f 4da6 03bf 37fd cdbe
000001c0: eb11 923f 851c 69bd 7577 4b3d 88f9 eebe
000001d0: e0a6 9abf c90f 6fbf d318 d33f 31c7 b33e
000001e0: 5100 b83f 3c96 9e3f 396f 89be e75c 81bf
000001f0: dbbf c6be af75 b3bf 7ac1 233f 8a18 30bf
00000200: 1cc8 203f 4935 153f 93f8 ab3c 5670 bcbd
00000210: e2d7 58bf fe78 bb3e 8398 51bf 14ce 25bf
00000220: b9d5 76bf ead8 013f a281 36bf 0703 1cbf
00000230: 351b a43e bad7 353f fe45 adbd 925a 613d
00000240: f869 1240 3efb 2540 46e6 d1be bc20 aa3e
00000250: 5f9d b13e 16bc 633d bffa b83f b6df fabe
00000260: 7753 803e 9593 47be 9c37 373f c43a 7fbe
00000270: 5afb ccbf 3568 85be 1fca ebbd 1847 95bf
00000280: f972 933e 6fa7 9a3e c67e 9abe a91f c73e
00000290: 6314 2c3f 12e7 53be da6d c2be f725 3e3f
000002a0: 0ba7 e53f 281c e4be 2564 483f 443f 77bf
000002b0: a317 84bf 0061 26c0 3665 67be f676 b7bf
000002c0: 4b24 793f 62ea 263f 60d7 be3f 08ac 92bf
000002d0: 87c6 c43e a9f5 9a3e 67fc 27c0 bcbf 12bf
000002e0: 1629 303e 50df bc3e 1f38 173f 58b1 553d
000002f0: d92e 6dbe c6a0 4c3e 03dc a83f dde4 08bf
00000300: b2cd 873d e66f acbe cafc 4ebe 6f67 8f3f
00000310: 7063 adbd df5a a9be 8c4f 19bf 516a 1cbf
00000320: 639a 36bf 8b0f 94bf 471c 93bf 4dbf 9d3f
00000330: ad0e a6be 4da2 11c0 c73c 523e 002b 27bf
00000340: a880 373e 8dd3 b13f 0237 a33f cea3 c13e
00000350: 3d43 183f 6142 103f bdc4 3bc0 e39a 7a3e
00000360: adfc 233e ed51 093f 55e1 563f 2614 b6be
00000370: a655 90bf 6e89 ac3e fa1d a9be 7760 0f3f
00000380: b3b7 19bf 700f 0340 9f0b be3e bd24 bebf
00000390: 587c 513f ab99 8dbd 4bd5 c3be 9d7b 7a3e
000003a0: 3d95 23bf c154 573f a232 66be 9d06 90bf
000003b0: 88af a93f dc00 3fbe 0204 3abf 948f 13be
000003c0: ab6a 643f 94e7 28bf 02bb 3b3f 424b a0bc
000003d0: dc9a 67bf 9942 96bf bfa0 783e dbf6 b7bf
000003e0: 31d2 95bd 8884 6e3e a916 313f a485 8d3f
000003f0: bb4e e0bf f6a8 523d 9f22 2a3f 23fe a4bf

blinear1.bias_sampler.mu f4 [24]
0.05598444 0.03884306 -0.04024495 -0.0006924899 0.03083706 -0.1305479 -0.072647944 -0.0007906064
-0.00024014532 0.022758517 0.00031975153 0.0002620279 -0.00014513996 0.047751956 -0.0007626622 0.00016068299
-0.001525251 7.280207e-05 -0.11106088 -0.0012508458 -0.12346939 -5.0046074e-05 0.098976456 -0.0003388125
00000000: f14f 653d e719 1f3d e4d7 24bd 3688 35ba
00000010: 019e fc3c 59ae 05be 72c8 94bd b340 4fba
00000020: 85cf 7bb9 1270 ba3c 53a4 a739 ca60 8939
00000030: b630 18b9 8e97 433d 65ed 47ba 037d 2839
00000040: eeea c7ba 50ad 9838 e373 e3bd 6cf3 a3ba
00000050: 85dd fcbd 90e8 51b8 2bb4 ca3d a5a2 b1b9

blinear1.bias_sampler.rho f4 [24]
-6.9397426 -6.929194 -6.908378 -6.6766143 -7.0375085 -6.964575 -6.672965 -7.032028
-6.9331555 -7.0064993 -7.0280275 -6.8625484 -6.9178166 -6.842722 -7.1225705 -6.9144673
-6.764185 -6.8852696 -6.91821 -7.0098305 -7.015617 -6.838318 -6.9150176 -6.860452
00000000: 5f12 dec0 f5bb ddc0 6f11 ddc0 d3a6 d5c0
00000010: 4533 e1c0 ccdd dec0 ee88 d5c0 6006 e1c0
00000020: 69dc ddc0 3e35 e0c0 9ae5 e0c0 ff99 dbc0
00000030: c15e ddc0 94f7 dac0 19ec e3c0 5143 ddc0
00000040: 3474 d8c0 2154 dcc0 fa61 ddc0 8850 e0c0
00000050: ef7f e0c0 80d3 dac0 d347 ddc0 d388 dbc0

blinear1.bias_sampler.eps_w f4 [24]
-1.4300002 0.92783636 0.73231304 1.1344824 1.4500703 -0.916142 -0.9991546 0.23715879
1.8338556 0.9973785 0.95001096 1.635441 0.03327252 1.6666217 -0.4212386 0.8625153
-0.3559022 -2.5666924 0.2777092 -0.86590946 0.24518785 0.049170725 -0.40206802 0.3900197
00000000: 3f0a b7bf af86 6d3f de78 3b3f b836 913f
00000010: e79b b93f 4888 6abf 99c8 7fbf c1d9 723e
00000020: c8bb ea3f 3354 7f3f eb33 733f 2156 d13f
00000030: c448 083d dc53 d53f 96ac d7be cdcd 5c3f
00000040: d038 b6be b044 24c0 e62f 8e3e 3eac 5dbf
00000050: 8612 7b3e 3e67 493d dcdb cdbe aab0 c73e

blinear2.weight_mu f4 [24, 24]
-0.053176653 0.00017112568 -0.0024981236 0.00035616822 -0.00038550902 0.0016258763 -0.00037174905 0.00086936174
0.00021837965 -0.12736897 -0.024290815 0.0022982983 -0.00012558761 -3.5964913e-05 0.00028465502 -1.9335559e-05
-0.00010559163 -3.199084e-05 0.0042745755 8.2316896e-05 6.71717e-05 -2.1484622e-05 0.0034422062 0.108785294
-0.06795932 -6.0374023e-05 0.00019113984 -0.00019277651 0.00020944908 0.00019181006 0.047463793 -4.088206e-05
0.001083589 9.985226e-05 0.011586994 0.014914936 -0.10884572 -0.0173955 -0.00035847552 -0.023697944
-0.0115916245 -1.4295843e-05 5.4031938e-05 2.4409062e-05 0.00028309072 -0.016335584 -0.011031363 -0.0008938144
0.20023276 -0.0076315044 -0.0075657163 9.7028606e-05 -0.015611299 -0.008818834 -0.0076184548 0.0019866468
-0.0020771434 -8.6825305e-05 0.023714248 0.00024047984 -1.05125655e-05 0.0025528707 0.00023027533 -0.00030473096
-0.00025966426 0.00016165902 0.0015278399 -0.000203314 0.0085975835 0.051641796 6.765902e-06 -0.00026787678
0.000368768 0.037055813 -0.08268814 0.00048601715 0.000623465 -0.031910524 7.855844e-05 0.01302389
-0.038458575 0.01981115 0.00080432254 0.00061117724 -0.024102781 0.0027718158 0.00020208397 0.022184333
-2.1255273e-05 0.00022761773 -0.00012959572 0.11646999 0.00253086 -6.850931e-05 -0.0922381 -0.0456231
0.117882356 0.00017248496 0.034008246 -0.00018127322 0.00052219356 1.2618744e-05 -0.0048203594 -0.006087453
0.009313874 -0.047609262 0.0003007924 2.7607157e-05 0.0001573666 -0.025913745 -0.07211072 -0.00017345465
0.041793652 0.0020711843 0.008805578 3.7591715e-05 -0.03539063 0.12849493 0.0013222105 -0.0018116775
-0.046679005 0.025331764 -0.00027354626 9.087929e-05 0.09577246 -0.00011976637 -0.00017799067 0.00025195902
0.00037536852 0.00022176708 -0.037150513 -0.00024119834 0.0002853216 9.295082e-06 -0.023708655 0.00012857607
0.00024200657 0.053197768 0.00012627279 -4.4337005e-05 0.027251607 -2.9706767e-05 0.0008284553 -8.736704e-05
0.023427486 0.03641216 -0.00028107082 4.0169518e-05 0.079108834 -0.003357751 -0.020041637 0.14708722
0.0003093316 2.3125804e-05 -0.037583716 0.0035683562 -0.0044225133 -0.02835167 -0.034971118 0.002238766
-0.09109337 -0.024455564 -0.00034790696 -0.04437861 2.4454786e-05 -0.0076038097 -0.018013932 8.455895e-05
-0.002002675 0.06804675 -2.4935556e-05 0.0002021418 -0.038914427 0.00029036283 -0.015358014 -0.00020110457
-0.04626045 -0.00018966792 0.00025009701 -0.00023381511 0.00044723623 -6.4703313e-06 0.015017773 0.06253587
3.6436402e-05 0.0021711434 -0.0066309706 0.00020472976 -0.06584203 0.003278944 -0.08180615 0.06008669
-0.003691838 0.118393905 6.0597922e-05 0.00035563996 -3.930527e-05 1.9550153e-06 0.0002773328 -1.4604695e-05
-6.204854e-05 -0.04420922 -0.00027999282 -0.012551652 1.8216062e-05 0.00022946538 0.00016377922 -0.001109736
0.00018546099 0.00024900355 -0.008875438 -0.122370355 -0.040769618 0.07819018 -2.6176767e-05 0.00038031634
-0.017702427 -0.059909824 4.7273585e-05 0.029366352 0.016951168 5.015625e-05 0.052927103 0.090070955
-0.06908285 -0.00045991363 0.00012997873 -3.066312e-05 0.0026263292 0.0005507726 -0.016571557 -0.023579646
-0.00015583735 0.00013765319 -6.593388e-05 8.134162e-05 0.00035671715 6.4195905e-05 0.0021809547 0.0018504772
-0.0681523 -0.071758434 -0.03200373 -0.0626 0.0511549 -0.04131893 -0.0012351903 0.0020167052
0.009548842 -0.05541346 0.14671665 0.0001318613 0.00023420411 0.04519405 -0.14183868 -0.042461775
00000000: c3cf 59bd 3370 3339 8fb7 23bb 17bc ba39
00000010: 251e cab9 5b1b d53a 50e7 c2b9 e1e5 633a
00000020: d7fc 6439 036d 02be 88fd c6bc 0c9f 163b
00000030: 2bb0 03b9 08d9 16b8 c03d 9539 cc32 a2b7
00000040: 1371 ddb8 e72d 06b8 bd11 8c3b 8ca1 ac38
00000050: 88de 8c38 e039 b4b7 a396 613b d3ca de3d
00000060: 422e 8bbd 1d3a 7db8 b66c 4839 0d24 4ab9
00000070: 8f9f 5b39 9f20 4939 6569 423d c778 2bb8
00000080: 3707 8e3a c667 d138 60d7 3d3c c75d 743c
00000090: 81ea debd 0281 8ebc c5f1 bbb9 3122 c2bc
000000a0: ccea 3dbc 2ed8 6fb7 5aa0 6238 10c2 cc37
000000b0: cb6b 9439 34d2 85bc e4bc 34bc de4e 6aba
000000c0: d109 4d3e b311 fabb d4e9 f7bb d67b cb38
000000d0: 89c6 7fbc df7c 10bc 3ba4 f9bb 6732 023b
000000e0: af20 08bb fb15 b6b8 6244 c23c 5129 7c39
000000f0: 205f 30b7 104e 273b 1076 7139 4cc4 9fb9
00000100: 8c23 88b9 0383 2939 cd41 c83a b030 55b9
00000110: e1dc 0c3c 5986 533d a806 e336 d071 8cb9
00000120: 3457 c139 d6c7 173d 6658 a9bd 1ed0 fe39
00000130: 0770 233a 9cb4 02bd bebf a438 2762 553c
00000140: bd86 1dbd fe4a a23c 2cd9 523a 6937 203a
00000150: 3273 c5bc 5aa7 353b 81e6 5339 ebbb b53c
00000160: 5a4d b2b7 abac 6e39 16e4 07b9 d187 ee3d
00000170: c9dc 253b a8ac 8fb8 54e7 bcbd 4adf 3abd
00000180: 4e6c f13d 14dd 3439 3b4c 0b3d 2914 3eb9
00000190: d1e3 083a 18b5 5337 1bf4 9dbb 4279 c7bb
000001a0: 3899 183c ee01 43bd acb3 9d39 eb95 e737
000001b0: c602 2539 1049 d4bc c9ae 93bd 61e1 35b9
000001c0: d22f 2b3d b5bc 073b 4545 103c ccab 1d38
000001d0: c4f5 10bd 2d94 033e 064e ad3a cf75 edba
000001e0: 7c32 3fbd 8f84 cf3c c26a 8fb9 7396 be38
000001f0: 5a24 c43d 152b fbb8 02a3 3ab9 5e19 8439
00000200: 1ccd c439 268a 6839 232b 18bd 30ea 7cb9
00000210: 3897 9539 13f2 1b37 a738 c2bc 60d2 0639
00000220: 25c3 7d39 e7e5 593d 1868 0439 7ff6 39b8
00000230: c33e df3c cc32 f9b7 b22c 593a d338 b7b8
00000240: 00eb bf3c eb24 153d b05c 93b9 b17b 2838
00000250: d003 a23d b70d 5cbb 5c2e a4bc 089e 163e
00000260: c92d a239 49fe c137 62f1 19bd 15db 693b
00000270: bbea 90bb c341 e8bc e03d 0fbd 43b8 123b
00000280: 298f babd 0957 c8bc 4867 b6b9 58c6 35bd
00000290: 4124 cd37 6129 f9bb f491 93bc 3e55 b138
000002a0: 503f 03bb 185c 8b3d b32c d1b7 07f6 5339
000002b0: bc64 1fbd d73b 9839 2ea0 7bbc 99df 52b9
000002c0: 997b 3dbd 98e1 46b9 741f 8339 442c 75b9
000002d0: 087b ea39 b91b d9b6 1b0d 763c ce12 803d
000002e0: 4ad3 1838 be49 0e3b 9d48 d9bb baac 5639
000002f0: 30d8 86bd 8de3 563b fc89 a7bd 761d 763d
00000300: c3f2 71bb 8178 f23d 862a 7e38 3075 ba39
00000310: b6db 24b8 e832 0336 fa66 9139 b006 75b7
00000320: 0e20 82b8 ba14 35bd 00cc 92b9 72a5 4dbc
00000330: b2ce 9837 a59c 7039 26bc 2b39 9074 91ba
00000340: 4e78 4239 b18c 8239 496a 11bc 4f9d fabd
00000350: 0bfe 26bd 2c22 a03d 2e96 dbb7 3265 c739
00000360: ae04 91bc 0164 75bd a047 4638 b491 f03c
00000370: 2ddd 8a3c dd5e 5238 17ca 583d 1f77 b83d
00000380: 4f7b 8dbd 9020 f1b9 e64a 0839 469c 00b8
00000390: 7e1e 2c3b b961 103a 13c1 87bc 1a2a c1bc
000003a0: 4568 23b9 ff56 1039 fb45 8ab8 f395 aa38
000003b0: c405 bb39 eaa0 8638 59ee 0e3b b68b f23a
000003c0: 6f93 8bbd 16f6 92bd 5816 03bd 6e34 80bd
000003d0: cd87 513d 0a3e 29bd 1ce6 a1ba b32a 043b
000003e0: bf72 1c3c 39f9 62bd e43c 163e 4044 0a39
000003f0: b094 7539 651d 393d 293e 11be 66ec 2dbd

blinear2.weight_rho f4 [24, 24]
-7.0761213 -6.962075 -6.9379897 -6.9019012 -6.965945 -6.920517 -6.8919783 -6.895169
-6.9972806 -6.850628 -6.936864 -6.943511 -7.0280123 -6.8313026 -6.840457 -6.767596
-6.8330503 -7.1709247 -6.8294 -6.7866545 -7.052458 -7.112275 -7.0239224 -6.9862666
-6.954047 -7.122076 -6.8392105 -7.0475364 -6.9496813 -6.8150125 -6.892957 -6.8097734
-7.0055323 -6.9252377 -6.8308277 -6.842784 -6.8860507 -6.99173 -7.2433457 -7.1017704
-7.0438395 -7.051841 -6.76342 -7.0454593 -6.9687862 -7.0428133 -7.0215735 -6.8830986
-6.9180036 -6.890868 -6.9093804 -6.976197 -6.8573856 -7.0021663 -6.888388 -7.015632
-7.160337 -6.85265 -6.895448 -6.815753 -6.750694 -6.9534216 -6.9659386 -7.012759
-6.9177876 -6.8516765 -6.842925 -6.9807844 -7.049851 -6.8156962 -6.9063406 -7.0665298
-6.9682503 -6.9770684 -6.960937 -6.9503875 -7.133465 -6.964017 -6.938116 -6.652419
-6.9515095 -6.877828 -6.8308277 -6.876184 -6.9958444 -6.696121 -6.76506 -6.9362264
-6.991757 -6.938955 -6.965285 -6.865956 -7.019512 -7.000846 -7.1175513 -6.963884
-6.9832764 -7.1721683 -7.001411 -6.9818416 -6.8953705 -7.033928 -7.037348 -6.972086
-6.894551 -6.9385047 -6.9496155 -6.9653807 -6.8325334 -6.8790436 -6.9513497 -6.838276
-7.104887 -6.9715505 -6.862736 -7.1462336 -6.9932404 -6.8849273 -6.928227 -6.855694
-6.953453 -7.10819 -6.8717556 -7.025699 -6.907801 -6.988903 -6.9353437 -6.859413
-7.021538 -6.853445 -7.040992 -7.021324 -6.9870214 -6.901952 -6.9116254 -6.994158
-7.0878716 -6.908643 -7.0028124 -6.9418187 -6.9626045 -6.8585668 -6.9175024 -6.971623
-6.900905 -6.951676 -7.052925 -6.8862166 -7.00843 -7.1034184 -6.813927 -6.933379
-6.9093595 -6.899716 -6.9380183 -6.854849 -7.0435004 -6.9283853 -7.1889915 -7.0588775
-7.2306323 -7.0799136 -6.997658 -6.9019136 -6.9755464 -6.907709 -6.9358897 -6.916758
-6.794061 -6.9235177 -7.0818887 -7.026132 -7.0155 -6.966254 -6.817862 -6.7671785
-7.107724 -6.882428 -7.0716457 -6.954728 -6.930536 -7.0964293 -6.909954 -6.9291277
-6.979522 -6.9939785 -7.1535845 -6.8311872 -6.836919 -7.000765 -6.8936768 -7.032766
-6.7584634 -6.971917 -6.9678855 -7.015023 -6.939157 -6.938322 -6.9822154 -7.000192
-6.998566 -6.8505726 -6.932003 -7.10484 -6.933499 -6.8934608 -6.938134 -6.884696
-6.8041754 -7.0834813 -6.823269 -7.019918 -6.9597387 -6.9476285 -7.0013547 -7.0878596
-6.991865 -6.9649787 -7.0401907 -6.8671165 -7.0100794 -6.983338 -6.9085803 -7.084599
-6.846254 -6.966729 -6.9581738 -7.008722 -7.1396513 -6.9968734 -7.0080996 -6.9106383
-7.081873 -7.085003 -6.9695582 -6.8657365 -7.0252705 -7.0016885 -6.954006 -7.0064
-7.0856986 -6.9981675 -7.225498 -6.996609 -6.929677 -7.265317 -6.942705 -6.8627276
-7.0205946 -7.005701 -6.8872113 -7.013252 -6.9978647 -6.934657 -7.1010847 -7.0968294
00000000: 966f e2c0 52c9 dec0 0304 dec0 60dc dcc0
00000010: 05e9 dec0 e074 ddc0 168b dcc0 39a5 dcc0
00000020: b9e9 dfc0 5838 dbc0 cafa ddc0 3e31 dec0
00000030: 7ae5 e0c0 089a dac0 06e5 dac0 2590 d8c0
00000040: 59a8 dac0 3778 e5c0 728a dac0 462c d9c0
00000050: bcad e1c0 c297 e3c0 f9c3 e0c0 7f8f dfc0
00000060: 8e87 dec0 0ce8 e3c0 d0da dac0 6b85 e1c0
00000070: ca63 dec0 9514 dac0 1b93 dcc0 aae9 d9c0
00000080: 522d e0c0 8c9b ddc0 2496 dac0 16f8 dac0
00000090: 875a dcc0 41bc dfc0 7dc9 e7c0 b441 e3c0
000000a0: 2267 e1c0 aea8 e1c0 f06d d8c0 6774 e1c0
000000b0: 4c00 dfc0 ba5e e1c0 bbb0 e0c0 5842 dcc0
000000c0: 4960 ddc0 fe81 dcc0 a519 ddc0 013d dfc0
000000d0: b46f dbc0 bf11 e0c0 ad6d dcc0 0f80 e0c0
000000e0: 7b21 e5c0 e948 dbc0 83a7 dcc0 a61a dac0
000000f0: af05 d8c0 6e82 dec0 f8e8 dec0 8668 e0c0
00000100: 845e ddc0 ef40 dbc0 3ef9 dac0 9662 dfc0
00000110: 6198 e1c0 2f1a dac0 be00 ddc0 0321 e2c0
00000120: e8fb dec0 2544 dfc0 ffbf dec0 9369 dec0
00000130: 5845 e4c0 3ad9 dec0 0c05 dec0 9ee0 d4c0
00000140: c472 dec0 2b17 dcc0 2496 dac0 b309 dcc0
00000150: f5dd dfc0 a046 d6c0 5f7b d8c0 91f5 ddc0
00000160: 79bc dfc0 eb0b dec0 9de3 dec0 e9b5 dbc0
00000170: d89f e0c0 ee06 e0c0 fbc2 e3c0 23d8 dec0
00000180: 0077 dfc0 6782 e5c0 8f0b e0c0 3f6b dfc0
00000190: e0a6 dcc0 f015 e1c0 f431 e1c0 541b dfc0
000001a0: 29a0 dcc0 3b08 dec0 4063 dec0 66e4 dec0
000001b0: 1da4 dac0 2021 dcc0 7571 dec0 28d3 dac0
000001c0: 3c5b e3c0 f116 dfc0 899b dbc0 f2ad e4c0
000001d0: a0c8 dfc0 5351 dcc0 09b4 ddc0 d861 dbc0
000001e0: b082 dec0 4b76 e3c0 6ce5 dbc0 87d2 e0c0
000001f0: b50c ddc0 18a5 dfc0 56ee ddc0 5080 dbc0
00000200: 70b0 e0c0 6c4f dbc0 ce4f e1c0 b0ae e0c0
00000210: ae95 dfc0 cadc dcc0 092c ddc0 24d0 dfc0
00000220: d8cf e2c0 9a13 ddc0 0a17 e0c0 6123 dec0
00000230: a8cd dec0 6179 dbc0 2e5c ddc0 8917 dfc0
00000240: 37d4 dcc0 2174 dec0 90b1 e1c0 e35b dcc0
00000250: 0f45 e0c0 344f e3c0 b10b dac0 3ede ddc0
00000260: 7919 ddc0 79ca dcc0 3f04 dec0 ec5a dbc0
00000270: 5b64 e1c0 55b5 ddc0 380c e6c0 53e2 e1c0
00000280: 5761 e7c0 a78e e2c0 d0ec dfc0 7adc dcc0
00000290: ad37 dfc0 f40b ddc0 cff2 ddc0 1556 ddc0
000002a0: f368 d9c0 758d ddc0 d59e e2c0 13d6 e0c0
000002b0: fa7e e0c0 8eeb dec0 ed2b dac0 ba8c d8c0
000002c0: 7a72 e3c0 da3c dcc0 ec4a e2c0 228d dec0
000002d0: f3c6 ddc0 f315 e3c0 581e ddc0 6abb ddc0
000002e0: 3f58 dfc0 acce dfc0 2aea e4c0 1699 dac0
000002f0: 0ac8 dac0 4406 e0c0 0099 dcc0 6b0c e1c0
00000300: 5545 d8c0 f219 dfc0 ebf8 dec0 127b e0c0
00000310: 930d dec0 bc06 dec0 4f6e dfc0 9301 e0c0
00000320: 41f4 dfc0 e437 dbc0 f8d2 ddc0 d95a e3c0
00000330: 39df ddc0 3b97 dcc0 3205 dec0 6e4f dcc0
00000340: cebb d9c0 e1ab e2c0 3858 dac0 2ba3 e0c0
00000350: 2eb6 dec0 f952 dec0 190b e0c0 bfcf e2c0
00000360: 5cbd dfc0 1be1 dec0 3e49 e1c0 6bbf dbc0
00000370: 9252 e0c0 8177 dfc0 1713 ddc0 09b5 e2c0
00000380: 8314 dbc0 72ef dec0 5ca9 dec0 7347 e0c0
00000390: 0678 e4c0 63e6 dfc0 5a42 e0c0 f323 ddc0
000003a0: b49e e2c0 58b8 e2c0 9f06 dfc0 1db4 dbc0
000003b0: 04cf e0c0 d50d e0c0 3887 dec0 6e34 e0c0
000003c0: 0bbe e2c0 fdf0 dfc0 4837 e7c0 39e4 dfc0
000003d0: eabf ddc0 7a7d e8c0 a42a dec0 779b dbc0
000003e0: b6a8 e0c0 b42e e0c0 0964 dcc0 8f6c e0c0
000003f0: 82ee dfc0 b6e8 ddc0 163c e3c0 3a19 e3c0

blinear2.bias_mu f4 [24]
9.502994e-05 8.968944e-05 -0.014112593 0.0021937743 0.0027437492 -0.17029366 0.00068566477 0.01608234
-0.006024057 0.054379575 0.0005381753 0.09186266 0.0032127074 -0.00054200017 -0.062862664 0.0088643
-0.00013535615 -0.0004727198 -0.0025592234 0.051109962 -0.058540244 -0.00023401335 -0.027629817 0.0077401684
00000000: d04a c738 a717 bc38 8138 67bc 6dc5 0f3b
00000010: 79d0 333b 7661 2ebe 2fbe 333a 1dbf 833c
00000020: 7465 c5bb 1ebd 5e3d 5514 0d3a 7e22 bc3d
00000030: 498c 523b 0415 0eba 24be 80bd 923b 113c
00000040: 64ee 0db9 61d7 f7b9 a5b8 27bb ae58 513d
00000050: e5c7 6fbd 7b61 75b9 ed57 e2bc 3da1 fd3b

blinear2.bias_rho f4 [24]
-7.083502 -6.867246 -6.8215513 -6.9096766 -6.743688 -6.845462 -6.816316 -6.8973885
-6.875354 -6.9325194 -7.170304 -6.9271703 -6.8563757 -7.046654 -6.8273444 -7.0612745
-7.0028067 -7.0758896 -6.9289756 -7.0405655 -6.7763667 -6.94272 -6.973388 -6.9579806
00000000: 0cac e2c0 7bc0 dbc0 264a dac0 121c ddc0
00000010: 4bcc d7c0 060e dbc0 431f dac0 68b7 dcc0
00000020: e602 dcc0 33d7 ddc0 2173 e5c0 61ab ddc0
00000030: 6e67 dbc0 317e e1c0 9b79 dac0 f6f5 e1c0
00000040: fe16 e0c0 b06d e2c0 2bba ddc0 504c e1c0
00000050: ffd7 d8c0 c32a dec0 ff25 dfc0 c7a7 dec0
