summit/benchmarks/models/reizman_suzuki_case_2/reizman_suzuki_case_2_predictor_3.pt (torch, 30487 bytes, 4 tensors)

input_layer.weight f4 [512, 11]
0	0x3e242fce	0.16033861
1	0xbe6640a5	-0.22485597
2	0x3ded3095	0.11581532
3	0xbc88b2cd	-0.016686821
4	0xbcdd7cb5	-0.027037004
5	0xbe550791	-0.20803668
6	0x3e54d7e8	0.20785487
7	0xbe197239	-0.14984979
8	0x3cb0ee7e	0.021598097
9	0x3da317b9	0.07963509
10	0xbde107a5	-0.10987786
11	0x3e77f95a	0.24216214
12	0x3e8a442e	0.27005142
13	0xbe1c8f7a	-0.15289107
14	0x3ddf52cb	0.109044634
15	0xbe41aafb	-0.1891288
16	0xbd405e42	-0.04696489
17	0x3e73c0cd	0.23804016
18	0x3da867a8	0.08222896
19	0x3e0082c0	0.12549877
20	0xbdb106de	-0.08643888
21	0x3e3c09f6	0.18363175
22	0xbe86483b	-0.26226982
23	0x3d1ef24c	0.03880529
24	0x3d252a70	0.040323675
25	0xbd457cb8	-0.048214644
26	0xbdf9cbb9	-0.1219706
27	0x3e8e96ca	0.27849418
28	0xbe70fdc6	-0.23534307
29	0xbe7cfffc	-0.24707025
30	0x3e11b00f	0.14227317
31	0x3df16014	0.117859036
32	0xbe643a80	-0.22287941
33	0xbe7ea27d	-0.24866672
34	0x3e85fdb0	0.2617011
35	0x3e319ca9	0.17344917
36	0xbe5cfae0	-0.21580076
37	0x3da7b750	0.08189261
38	0xbe33f7a7	-0.1757494
39	0x3d509506	0.05092337
40	0xbe6ffd43	-0.23436455
41	0xbd503b4e	-0.050837807
42	0xbe3351fc	-0.17511743
43	0x3e42faed	0.19041033
44	0xbdaca60a	-0.08430107
45	0xbe7bacbb	-0.2457761
46	0xbe477668	-0.19478762
47	0xbdf7a3da	-0.12091799
48	0x3d74e869	0.059791956
49	0xbe75f2ab	-0.24018352
50	0xbde717c1	-0.112838276
51	0x3e33a0eb	0.17541854
52	0x3e7a181d	0.24423261
53	0xbe9ad6a4	-0.30241883
54	0x3d76d82a	0.060264744
55	0x3c9191b1	0.017769666
56	0xbe88d11a	-0.26722032
57	0x3c806527	0.015673233
58	0x3dd8f48b	0.10593518
59	0x3e1f3885	0.15548904
60	0x3e98ad44	0.2981969
61	0xbe0c49d9	-0.13700046
62	0x3e636bd0	0.22209096
63	0xbd302956	-0.04300817
64	0xbe2eba8a	-0.17063347
65	0xbe951bee	-0.2912287
66	0x3dcfb6e4	0.101423055
67	0x3e5d0520	0.21583986
68	0xbe043428	-0.12910521
69	0x3e84c537	0.25931713
70	0x3d883530	0.0665077
71	0xbc979803	-0.018505102
72	0x3e5779c1	0.21042539
73	0x3e584996	0.21121821
74	0xbb1344b6	-0.0022471375
75	0xbdd6f99c	-0.10496828
76	0x3dfc1f6d	0.123106815
77	0x3e97fce6	0.29685134
78	0xbd99fc29	-0.07518799
79	0x3d5ac5c3	0.053411257
80	0x3d8b217f	0.06793498
81	0xbe8a8517	-0.27054664
82	0x3dd64ffc	0.104644746
83	0x3e95c123	0.29248914
84	0x3e2b8fee	0.16754124
85	0x3d29c61c	0.041448697
86	0x3cc1142f	0.023569195
87	0x3e0f360e	0.13985464
88	0xbd4a7ada	-0.049433567
89	0xbdfab0da	-0.12240763
90	0xbe422d94	-0.18962699
91	0x3d474373	0.04864831
92	0xbe726608	-0.23671734
93	0xbdf3c81d	-0.11903403
94	0x3df6e2e4	0.12054995
95	0xbe7fe17d	-0.2498836
96	0xbe026e89	-0.12737478
97	0x3c13d2c2	0.009022417
98	0x3dcb0dfe	0.09914778
99	0x3e6d9085	0.23199661
100	0x3e69bf55	0.22826894
101	0x3e08bd22	0.13353398
102	0x3e989f96	0.29809254
103	0x3d670e87	0.05641034
104	0x3e45ad6f	0.19304441
105	0xbcccac0f	-0.024984388
106	0x3b80bfdd	0.003929122
107	0xbe227fd5	-0.15869077
108	0x3dd0c24d	0.1019331
109	0xbe068d60	-0.13139868
110	0x3d9d57fa	0.07682796
111	0xbc0d556b	-0.008626322
112	0xbe5553af	-0.20832704
113	0xbd956465	-0.07294539
114	0x3dc0bb94	0.09410778
115	0xbc2cda39	-0.010550075
116	0xbe947014	-0.2899176
117	0xbe80b092	-0.25134712
118	0xbe42dfaa	-0.19030634
119	0x3e8008a0	0.2500658
120	0x3e2af654	0.16695529
121	0x3e89527c	0.26820743
122	0xbce83d72	-0.028349612
123	0x3e4416fe	0.19149396
124	0xbe358dc1	-0.17729856
125	0xbe2b16a7	-0.1670786
126	0x3e0c3428	0.13691771
127	0xbdeb254a	-0.11481722
128	0x3e67f4e9	0.2265202
129	0xbe1cda25	-0.1531759
130	0xbd9499ba	-0.072558835
131	0xbe8ffaca	-0.28121024
132	0xbe4eb3ec	-0.20185822
133	0xbc7d6d34	-0.015467931
134	0x3df5f064	0.120087415
135	0x3cf02840	0.029316068
136	0x3e95dac5	0.2926847
137	0xbdc64712	-0.09681524
138	0x3d873f35	0.06603853
139	0x3e1ea450	0.15492368
140	0xbe59a9d3	-0.21256189
141	0xbe1d5cbb	-0.15367405
142	0xbe855e9e	-0.2604875
143	0x3e28109e	0.16412589
144	0xbe132794	-0.14370567
145	0x3dae8df9	0.08523173
146	0xbc89d198	-0.016823575
147	0x3e290912	0.16507366
148	0xbe04a0ee	-0.12952015
149	0x3e9486bb	0.2900904
150	0x3e7f6578	0.24941051
151	0xbe51dc84	-0.20494276
152	0x3e41dfc2	0.18933013
153	0x3d5b426d	0.053530145
154	0xbccb016f	-0.024780957
155	0x3d8d9533	0.06913223
156	0x3e60f5b5	0.2196873
157	0xbd00bc20	-0.03142941
158	0xbd918dae	-0.071071014
159	0x3e91de6a	0.2849
160	0xbe69a013	-0.2281497
161	0xbd68a19c	-0.056794748
162	0x3d693bf9	0.05694196
163	0x3d1a9c6f	0.037746843
164	0x3d947175	0.07248203
165	0x3e57f4f1	0.21089531
166	0x3e1bec80	0.15226936
167	0xbe41e7d1	-0.18936087
168	0xbe3acc97	-0.18242107
169	0x3e3f252c	0.18666524
170	0xbd892385	-0.06696228
171	0xbe8f82d4	-0.280295
172	0x3e06462b	0.13112704
173	0xbde91c5a	-0.11382361
174	0xbe0b3841	-0.13595678
175	0xbe505fda	-0.20349064
176	0x3e8d5f6b	0.2761186
177	0x3dd3a9e7	0.10335141
178	0x3e715a08	0.235695
179	0x3e42535b	0.1897711
180	0x3e975966	0.29560393
181	0xbdd57471	-0.104226
182	0x3e91a5df	0.28446862
183	0xbc225de0	-0.009910077
184	0xbdff0820	-0.124527216
185	0xbce05d17	-0.027388139
186	0xbe5e321e	-0.21698806
187	0xbe5c37c9	-0.21505655
188	0xbdcb2db8	-0.099208295
189	0x3e0e2309	0.13880552
190	0x3e90d2c5	0.28285804
191	0xbe65e970	-0.2245233
192	0xbe4a4323	-0.19752173
193	0x3e5912d0	0.21198583
194	0x3dd53ea3	0.10412338
195	0xbcc90e07	-0.024542822
196	0x3d05ddca	0.032682218
197	0x3ce20380	0.02758956
198	0xbe573841	-0.21017553
199	0xbe904262	-0.28175646
200	0x3e857979	0.2606924
201	0x3dc53453	0.09629121
202	0xbe712397	-0.23548733
203	0x3e5ce2a8	0.21570837
204	0xbb0eaf99	-0.0021772145
205	0x3e691ef5	0.22765715
206	0x3e892fb5	0.2679421
207	0x3d82bf39	0.06384129
208	0xbe0654d1	-0.13118292
209	0xbc0490e4	-0.008091185
210	0x3ea6854e	0.32523578
211	0xbe6a6ff7	-0.22894274
212	0xbdfeba25	-0.12437848
213	0x3e365630	0.17806315
214	0x3e829d07	0.25510427
215	0x3e24d1c7	0.16095649
216	0xbd4e498f	-0.05036312
217	0xbe956dac	-0.29185236
218	0xbe6ac02e	-0.22924873
219	0x3db33868	0.08750993
220	0xbd10ce58	-0.035353035
221	0x3e73e8f0	0.23819327
222	0x3e3be90b	0.18350618
223	0x3e107066	0.14105377
224	0xbbdf8b80	-0.0068220496
225	0x3dc7a10f	0.09747516
226	0x3e3ec9db	0.18631689
227	0x3ddb8d5c	0.107203215
228	0x3e82cc40	0.25546455
229	0x3e4fa23a	0.20276728
230	0xbe07a2e4	-0.13245732
231	0xbe64501e	-0.22296187
232	0x3d100357	0.035159435
233	0xbe793a52	-0.24338654
234	0xbe690607	-0.22756205
235	0x3e192747	0.1495639
236	0xbe2bc2b2	-0.16773489
237	0x3dbd271d	0.09235976
238	0x3e376bbf	0.17912196
239	0xbe2e924f	-0.17048
240	0x3e4b8483	0.19874768
241	0x3c341307	0.010990865
242	0x3da98653	0.082775734
243	0xbd8c8d75	-0.06862918
244	0xbe545722	-0.20736364
245	0xbd25fdcc	-0.040525243
246	0xbd401530	-0.046895206
247	0x3e90dc3b	0.28293023
248	0x3e76033d	0.24024673
249	0x3e68c72a	0.22732225
250	0xbd59cb2d	-0.05317228
251	0xbdeb4a68	-0.11488801
252	0x3b81ff02	0.003967167
253	0xbe66f1ee	-0.22553226
254	0x3db90bc0	0.09035444
255	0xbe0f0f81	-0.13970758

input_layer.bias f4 [512]
0	0x3e852902	0.2600785
1	0xbe77ce7b	-0.2419986
2	0xbe7c54e5	-0.2464176
3	0xbe303a10	-0.17209649
4	0x3e0acd75	0.13554938
5	0xbe50ca2b	-0.20389621
6	0x3caf46d7	0.021396084
7	0xbe41a3c4	-0.18910128
8	0x3d04dddc	0.032438144
9	0x3e90421f	0.28175446
10	0xbdb91ef5	-0.09039108
11	0xbd8b6929	-0.06807167
12	0x3e190f90	0.14947343
13	0xbe8a995e	-0.27070135
14	0xbe31bc32	-0.17356947
15	0xbdbeb9be	-0.09312771
16	0xbda6c2d2	-0.08142628
17	0xbe6abe1a	-0.2292408
18	0xbc3a8d28	-0.011386193
19	0xbdd28513	-0.10279288
20	0xbd3fdd91	-0.04684216
21	0x3d1d2392	0.038364
22	0xbdb76ff4	-0.089569
23	0xbe894b55	-0.26815286
24	0x3db1bb90	0.08678353
25	0x3e252f80	0.16131401
26	0xbe84b17e	-0.25916666
27	0xbe717f4e	-0.23583719
28	0xbd9f7671	-0.07786263
29	0x3e4e2c11	0.20133997
30	0x3e829bc2	0.2550946
31	0x3e06ba46	0.13156995
32	0x3ded7ee0	0.11596465
33	0xbdfc1f66	-0.12310676
34	0xbe843b45	-0.2582647
35	0xbd147a10	-0.03624922
36	0x3d41b0c4	0.047287717
37	0xbc6f668e	-0.014611853
38	0xbd90fa69	-0.07079012
39	0x3e530d7c	0.20610613
40	0xbe3b0b13	-0.18265943
41	0xbdd62331	-0.10455931
42	0x3d431b3c	0.047633395
43	0x3e012534	0.12611848
44	0x3e25f9e6	0.1620861
45	0x3e7857e8	0.24252284
46	0x3dcba5a0	0.099437
47	0xbe741dea	-0.23839536
48	0x3e7cced0	0.24688268
49	0xbe531a43	-0.20615487
50	0xbddc63fc	-0.10761258
51	0xbe089cbb	-0.13341038
52	0xbe1e495b	-0.1545767
53	0x3e1354af	0.14387773
54	0x3e0140bc	0.1262235
55	0xbe8cac0d	-0.27475014
56	0x3c5a8e39	0.013339573
57	0xbe9181cb	-0.28419337
58	0x3dbaff61	0.09130741
59	0x3e19a5f2	0.1500471
60	0x3e32ec10	0.17472863
61	0xbe1e32d4	-0.15449077
62	0x3e4a6527	0.19765149
63	0xbcd10788	-0.025516286
64	0x3dd9ed3e	0.106409535
65	0xbcc1ad23	-0.023642128
66	0xbe04248d	-0.12904568
67	0xbe4b755b	-0.19868986
68	0xbd192848	-0.03739193
69	0x3e4e1e72	0.20128801
70	0xbd8a94fe	-0.06766699
71	0x3da17ffe	0.07885741
72	0x3d5b9897	0.053612318
73	0xbbdafd56	-0.006683032
74	0x3e6e66a6	0.23281345
75	0xbe9b36e3	-0.30315313
76	0xbdf7a936	-0.12092821
77	0xbe4f13ba	-0.20222369
78	0x3e671b85	0.22569092
79	0x3d81b2c5	0.06332926
80	0x3e87585d	0.26434603
81	0xbd695b9f	-0.056972142
82	0xbdf31a24	-0.1187022
83	0x3e95ce5d	0.29259005
84	0xbe15899e	-0.14603278
85	0x3baf7c97	0.0053554284
86	0xbe8b52c9	-0.27211598
87	0xbe7c033b	-0.24610607
88	0xbe222e4c	-0.15837973
89	0xbccef1ff	-0.025261877
90	0x3e9501e5	0.29103008
91	0x3da8743c	0.08225295
92	0x3e9c5d42	0.305399
93	0x3cd32952	0.025776539
94	0xbce2a21a	-0.027665187
95	0x3dd0d063	0.101959966
96	0xbe766441	-0.24061681
97	0xbe2be1af	-0.1678531
98	0x3d91ae54	0.071133286
99	0xbd4400fd	-0.047852505
100	0x3e663abf	0.22483347
101	0x3b84da73	0.0040543615
102	0xbd0e8bf1	-0.034801427
103	0xbe67bf76	-0.2263163
104	0xbe8ffe08	-0.28123498
105	0x3e8c6110	0.27417803
106	0x3e8fd23a	0.28090078
107	0x3e779585	0.24178131
108	0xbe7ad8ac	-0.24496716
109	0x3e2791b9	0.16364183
110	0x3dd20d8f	0.10256492
111	0xbe0c2ad5	-0.13688214
112	0xbe54e0b3	-0.20788841
113	0x3e82114c	0.2540382
114	0x3d8c8d98	0.06862944
115	0xbe46178d	-0.19344921
116	0x3e8c7ce7	0.27439043
117	0x3e0d203d	0.13781829
118	0x3d73cb37	0.059519973
119	0xbe1972b3	-0.1498516
120	0xbdc448bd	-0.09584186
121	0xbe229184	-0.15875822
122	0xbdfe2bb4	-0.124106795
123	0xbe24f6b4	-0.16109735
124	0xbdc5757f	-0.09641551
125	0x3e0dfc8d	0.13865872
126	0xbcb33402	-0.021875385
127	0x3e14e646	0.14540967
128	0x3e87d29b	0.26527867
129	0xbdc180ab	-0.094483696
130	0x3c7f5471	0.015584097
131	0x3e0b5459	0.13606395
132	0xbd25144c	-0.04030256
133	0x3e38553f	0.18001269
134	0xbd057752	-0.032584496
135	0xbdabaee6	-0.083829686
136	0xbe62c177	-0.22144113
137	0xbe8284ec	-0.25492036
138	0xbe90f8f9	-0.2831495
139	0xbe9a6660	-0.3015623
140	0xbe4ceb9a	-0.2001175
141	0xbdde6c93	-0.10860553
142	0x3ce39fa5	0.027786085
143	0xbd7f87a6	-0.062385224
144	0x3e28f0a1	0.16498043
145	0xbda6228d	-0.08112059
146	0xbe7a444f	-0.2444012
147	0x3de11eea	0.109922245
148	0xbe4ade08	-0.1981126
149	0xbe23b206	-0.1598588
150	0x3e3aaa12	0.18228939
151	0xbe40b79c	-0.18820041
152	0x3e548833	0.20755081
153	0xbd44a3e5	-0.048007865
154	0xbe6ab70a	-0.22921386
155	0xbbf95448	-0.007608924
156	0x3cf4a87b	0.029865494
157	0xbe7094ca	-0.23494259
158	0xbe23745e	-0.1596236
159	0x3e72541e	0.236649
160	0xbd17f974	-0.03710313
161	0xbe13c864	-0.14431912
162	0xbce1f994	-0.027584828
163	0xbe786753	-0.24258165
164	0xbe672f0a	-0.22576538
165	0x3e416525	0.1888624
166	0x3e79b507	0.24385463
167	0xbe91b7e6	-0.28460616
168	0xbdde6c62	-0.10860516
169	0xbe3e2895	-0.18570168
170	0x3df1740c	0.11789712
171	0xbded6319	-0.11591167
172	0x3e801fda	0.250243
173	0xbcfed6e9	-0.031108337
174	0x3dca7049	0.09884698
175	0x3e1e1ac6	0.15439901
176	0xbe3a0408	-0.181656
177	0xbd432e22	-0.047651418
178	0xbe2fb9e5	-0.17160757
179	0xbe85a7c2	-0.26104552
180	0x3bc80e72	0.0061052376
181	0x3e15e115	0.14636643
182	0x3d2b1bf3	0.0417747
183	0x3e8a66f8	0.27031684
184	0x3e1686d1	0.14699866
185	0x3d66b167	0.056321528
186	0xbe6cfc07	-0.23143016
187	0xbe1f2b4c	-0.1554386
188	0xbd9d8a84	-0.076924354
189	0x3d8c3110	0.068452954
190	0xbe0d6cdc	-0.13811058
191	0x3e2f809a	0.17138901
192	0xbd17dcda	-0.037075855
193	0x3e565c5b	0.20933668
194	0xbc83eea1	-0.016104998
195	0x3e92dc0d	0.2868351
196	0x3e072396	0.13197169
197	0xbd2ab303	-0.041674625
198	0xbe0a700f	-0.1351931
199	0x3d6c786f	0.057732042
200	0xbd2e0eeb	-0.042494696
201	0xbdd668e9	-0.10469229
202	0x3daec088	0.08532816
203	0xbe6bda75	-0.23032553
204	0x3e73f232	0.23822859
205	0xbe9cfbda	-0.30660897
206	0x3df3aa1e	0.11897682
207	0x3d5ab249	0.053392682
208	0x3e207e14	0.15673095
209	0x3e8ad2a3	0.27113828
210	0xbe68b7de	-0.2272639
211	0xbda4767b	-0.08030411
212	0xbe8a2577	-0.26981708
213	0xbcb0263e	-0.02150261
214	0x3e31fb4c	0.17381018
215	0xbe921847	-0.28534147
216	0x3d390d0b	0.045178454
217	0xbe3f5175	-0.18683417
218	0xbe8ec36d	-0.27883473
219	0x3e1458c8	0.14486992
220	0x3e861afd	0.26192465
221	0xbe1fdd15	-0.1561168
222	0xbe4f917e	-0.20270345
223	0xbc93e932	-0.018055532
224	0x3e35b74c	0.17745703
225	0xbe245a4e	-0.16050074
226	0xbe21af7e	-0.15789601
227	0x3e3bb3bf	0.18330286
228	0xbd5ef2fb	-0.054430943
229	0xbe9688fd	-0.2940139
230	0x3e845e44	0.2585317
231	0xbe261eae	-0.16222641
232	0x3e6456ee	0.22298786
233	0xbe65e4a1	-0.22450496
234	0x3e9480a4	0.29004395
235	0x3e97fe86	0.29686373
236	0x3e837110	0.25672197
237	0x3e8778e9	0.26459435
238	0xbdf336b5	-0.11875669
239	0xbd888cbf	-0.0666747
240	0x3d18ccf1	0.037304822
241	0x3b5d8951	0.003380377
242	0xbe95dbc6	-0.29269236
243	0xbda7b828	-0.08189422
244	0xbe2e4387	-0.17017947
245	0xbe21ff51	-0.15820052
246	0x3e783f29	0.24242844
247	0x3e795201	0.24347688
248	0x3e7e0fb0	0.24810672
249	0x3e70b361	0.23505928
250	0xbce5ed6c	-0.028067313
251	0x3de79d39	0.11309285
252	0xbe92bc38	-0.28659225
253	0xbc6e2fb8	-0.014537744
254	0xbe3cb8dd	-0.18429895
255	0xbe7cb57d	-0.24678607

output_layer.weight f4 [2, 512]
0	0xbc608dc9	-0.013705679
1	0x3ca5edb0	0.02025494
2	0xbcb44688	-0.022006288
3	0x3d2a17f8	0.041526765
4	0xbdf23fbb	-0.11828562
5	0x3c9e95fd	0.01935863
6	0x39fb4230	0.00047923764
7	0x3bf4f862	0.0074758986
8	0x3d18c7a9	0.037299786
9	0x3d8adeb8	0.067807615
10	0x3cd9c37e	0.026582476
11	0xbd5cbe01	-0.05389214
12	0xbc8fd585	-0.017557869
13	0x3d6ce3a7	0.057834294
14	0xbd30faaf	-0.04320782
15	0xbcaf1e8e	-0.021376874
16	0x3d2ad834	0.041710094
17	0xb90c046c	-0.00013353088
18	0xbdd85055	-0.10562197
19	0xbdb8ef69	-0.09030039
20	0x3d0cd94f	0.03438693
21	0xbda22a64	-0.079182416
22	0xbc964dca	-0.01834764
23	0xbc7b015f	-0.015320151
24	0xbbcdbfa7	-0.0062789503
25	0xbd2f8942	-0.04285551
26	0x3d007e99	0.031370733
27	0xbd0985c2	-0.033574827
28	0xbce7c8b2	-0.028293941
29	0xbd51acaf	-0.051190075
30	0xbd080031	-0.033203308
31	0xbcd6d3ea	-0.026224095
32	0x3c3b4f41	0.01143247
33	0xbd94edb4	-0.07271901
34	0xbdec9720	-0.11552262
35	0xbc444346	-0.01197893
36	0xbd16c3a6	-0.03680768
37	0x3d87cba6	0.0663064
38	0x3deb2044	0.114807636
39	0x3d876c52	0.06612457
40	0xbcbbadbf	-0.022909997
41	0x3df6e39d	0.120551325
42	0xbcbc836c	-0.023011886
43	0x3c86014f	0.016358046
44	0x3da3265b	0.079663
45	0x3a544380	0.00080972165
46	0xbd6a256e	-0.057164602
47	0x3d86b57e	0.06577586
48	0x3cd555ac	0.026041828
49	0x3d5e2de9	0.054243002
50	0xbd56f156	-0.05247625
51	0x3d4da979	0.05021045
52	0xbcb2bf7d	-0.021819824
53	0x3d37e556	0.044896446
54	0x3d0ccb3b	0.034373503
55	0xbd077824	-0.03307356
56	0x3d4ce805	0.05002596
57	0xbc34d6eb	-0.011037569
58	0xbd44119f	-0.047868367
59	0x3db94484	0.090462714
60	0xbd48852f	-0.04895514
61	0xbe037800	-0.12838745
62	0x3c504e79	0.012714022
63	0xbd31366a	-0.043264784
64	0xbcfc3103	-0.03078509
65	0xbc13c675	-0.009019484
66	0xbbb89358	-0.005632799
67	0xbd1882b7	-0.037234034
68	0x3d2b819f	0.041871663
69	0x3c28ddbe	0.010306774
70	0x3c57a316	0.013161441
71	0x3ddfb8fb	0.10923954
72	0xbda74412	-0.0816728
73	0xbc4b0618	-0.01239159
74	0xbaa6f926	-0.0012739047
75	0x3c8f5b36	0.017499547
76	0x3d5a2e4a	0.0532668
77	0x3d81d6fd	0.06339834
78	0x3d2a7cca	0.041622914
79	0xbd826349	-0.063665934
80	0xbddc47d4	-0.10755888
81	0x3d9bace0	0.07601333
82	0xbd0f0b50	-0.034922898
83	0xbbf63441	-0.0075135534
84	0xbcc51282	-0.024056677
85	0xbcf64911	-0.030064138
86	0xbda9233b	-0.08258673
87	0xbd761a27	-0.060083535
88	0xbdb2b08d	-0.08725081
89	0x3d99b0bd	0.07504413
90	0x3a62e8da	0.00086559134
91	0x3c4d6604	0.012536529
92	0x3d7332e4	0.059374705
93	0xbd40b135	-0.047043998
94	0x3d478de5	0.048719306
95	0xbdb4c2a1	-0.08826185
96	0xbc71cdf9	-0.01475858
97	0xbd0b12a7	-0.033953335
98	0x3af31982	0.0018547031
99	0xbc62778a	-0.013822446
100	0xbdacad7d	-0.08431528
101	0x3d8d5861	0.069016226
102	0xbce97d1a	-0.028502036
103	0x3c81cae0	0.015843809
104	0xbca8bf50	-0.020599037
105	0xbd32e441	-0.04367471
106	0x3be32d9b	0.006932927
107	0x3c30b86f	0.01078616
108	0xbcf910b1	-0.030403467
109	0xbab1b831	-0.0013558922
110	0xbd912a24	-0.07088116
111	0x3c6f5f3e	0.01461011
112	0x3ca90a4c	0.020634793
113	0xbc7934b7	-0.015210322
114	0xbdb7b572	-0.08970155
115	0xb9ab3e12	-0.00032661908
116	0xbd71117e	-0.058854572
117	0x3cb5f51b	0.022211602
118	0xbd5aa6e0	-0.0533818
119	0xbd35cee0	-0.044386744
120	0xbd11e013	-0.035614084
121	0xbccfde93	-0.025374686
122	0x3d4423c7	0.047885682
123	0xbdcee392	-0.10101999
124	0xbc0b64c4	-0.008507911
125	0x3a93ff43	0.0011291284
126	0xbd26b5ea	-0.04070083
127	0xbd8ae4ef	-0.06781947
128	0xbd4a9b6a	-0.04946462
129	0x39fe9f0d	0.00048565157
130	0x3d9b4005	0.0758057
131	0xbc8a03e5	-0.01684756
132	0x3cf23a9e	0.029568966
133	0xbd2e13be	-0.042499296
134	0xbd2b2644	-0.04178454
135	0xbcad8d4a	-0.021185536
136	0xbcb567eb	-0.022144279
137	0xbdb9bb13	-0.09068885
138	0xbb7992be	-0.003808185
139	0xbc3478b4	-0.011015106
140	0x3be01520	0.006838456
141	0xbcf2fed1	-0.029662522
142	0xbdd2e9c2	-0.10298492
143	0xbd52db14	-0.05147846
144	0xbd5f274c	-0.054480836
145	0xbb80d428	-0.003931541
146	0xbdecb4c0	-0.11557913
147	0xbdc61636	-0.09672205
148	0xbc667018	-0.014064811
149	0x3c8a4869	0.016880231
150	0xbdd09387	-0.101843886
151	0x3d3e111f	0.046403047
152	0xbd0d6986	-0.034524463
153	0x3c3e5867	0.011617756
154	0xbc9caa44	-0.019124158
155	0xbd49f7b5	-0.049308497
156	0xbdb0bb55	-0.08629481
157	0x3cb150b2	0.021644924
158	0x3d897385	0.06711487
159	0x3de08d43	0.109644435
160	0x3b0cdd84	0.0021494338
161	0xbcf6687b	-0.030079117
162	0x3cbb54e8	0.022867635
163	0xbbd4eb08	-0.0064977445
164	0xbbf30bf3	-0.007417196
165	0xbdc5319d	-0.096286036
166	0x3cdb7071	0.026787015
167	0xbcab80f7	-0.020935519
168	0xbcc9b7c1	-0.024623754
169	0xba65cbf6	-0.0008766049
170	0x3d8ac323	0.067755006
171	0x3cd559b5	0.026043752
172	0x3ca6a890	0.020344049
173	0x3b85e60f	0.004086263
174	0xbce01bf1	-0.027357074
175	0xbd1eeebd	-0.038801897
176	0x3c54f712	0.012998359
177	0xbd12584c	-0.035728738
178	0xbc9743b6	-0.018464904
179	0xbc07a570	-0.0082791895
180	0xbc7bdf3e	-0.015373049
181	0xbcb07e76	-0.021544676
182	0xbd9e8f07	-0.07742124
183	0x3d10433b	0.035220366
184	0xbcb5b408	-0.022180572
185	0xbc251791	-0.010076419
186	0x3c432f76	0.011913171
187	0xbcff6ee3	-0.031180805
188	0x3d362022	0.044464238
189	0x3da73d40	0.081659794
190	0xbda3c41c	-0.07996389
191	0x3c49ad3b	0.012309368
192	0xbd026f0d	-0.031844188
193	0x3d06dcf2	0.032925554
194	0xbdc981c1	-0.09839202
195	0x3bc574f5	0.0060259053
196	0x3d061845	0.03273799
197	0xbd08e8c8	-0.033425122
198	0x3d06417f	0.032777306
199	0xbd273d28	-0.040829808
200	0xbd31fbc8	-0.043453008
201	0x3d656599	0.056005094
202	0x3d0873fc	0.033313736
203	0xbc2b875d	-0.010469285
204	0x3c502942	0.012705149
205	0xbcad2638	-0.021136388
206	0x3cc1873e	0.023624059
207	0xbd010e95	-0.031508047
208	0x3d527403	0.05138017
209	0x3ce2dd5b	0.027693441
210	0xbb3231f4	-0.002719042
211	0xbdab1a2c	-0.08354601
212	0xbce67c1d	-0.028135354
213	0xbd95bed5	-0.07311789
214	0xbdaa828d	-0.08325682
215	0x3c9e476d	0.019321168
216	0x3cde7111	0.027153524
217	0x3d6df9fa	0.058099724
218	0xbd4171ae	-0.047227554
219	0xbd044cbc	-0.032299742
220	0x3dc19f6d	0.09454236
221	0xbcb5d126	-0.022194456
222	0x3d5cf4bf	0.053944346
223	0x3d176e86	0.036970638
224	0x3dc65a08	0.09685141
225	0x3c58b41f	0.013226538
226	0xbdd0d3b4	-0.10196629
227	0x3d0b957e	0.034078114
228	0x3da4469b	0.080212794
229	0xbd2e1e84	-0.04250957
230	0xbda5dcb4	-0.080987364
231	0x3dbf2576	0.09333317
232	0xbb9e1a2f	-0.0048248987
233	0xbca6a8c3	-0.020344144
234	0x3d4c6650	0.04990226
235	0x3dbf29d6	0.093341514
236	0x3cadd831	0.021221252
237	0x3cc565d7	0.024096413
238	0x3b662a8d	0.0035120577
239	0xbdf9588d	-0.12175093
240	0x3cb9ffc4	0.022704966
241	0xbd9aefc3	-0.07565262
242	0xbdb0b651	-0.08628524
243	0xbbd63b48	-0.0065378286
244	0xbd53a97f	-0.051675316
245	0x3c571a6a	0.013128856
246	0x3c9148a9	0.017734842
247	0xbdd6c646	-0.104870364
248	0x3da4eb83	0.08052733
249	0x3e1f76ed	0.1557271
250	0x3df67608	0.120342314
251	0xbc3022f3	-0.01075052
252	0xbceb45de	-0.028719839
253	0x3d155649	0.03645924
254	0x3d4d9578	0.050191373
255	0xbd029f60	-0.031890273

output_layer.bias f4 [2]
0	0x3c8ef088	0.017448679
1	0x3cfbc310	0.030732661
