summit/benchmarks/models/reizman_suzuki_case_2/reizman_suzuki_case_2_predictor_4.pt (torch, 30487 bytes, 4 tensors)

input_layer.weight f4 [512, 11]
0	0x3dc9e4e0	0.098581076
1	0x3d3db609	0.04631618
2	0x3e264ad6	0.16239485
3	0x3df67279	0.12033553
4	0xbe4e59ee	-0.20151493
5	0xbd2b90c8	-0.04188612
6	0x3e4d62b8	0.2005719
7	0x3dec3325	0.115331925
8	0x3e1a2eac	0.15056866
9	0xbde8500f	-0.11343395
10	0xbdece193	-0.11566462
11	0x3e5ddd09	0.2166635
12	0xbe815f84	-0.25268185
13	0x3e6ab1ee	0.22919437
14	0x3e2e890e	0.1704447
15	0x3dc192d1	0.09451831
16	0x3ad85c61	0.0016507023
17	0x3e21cc6c	0.15800637
18	0x3d9f1656	0.07767932
19	0xbe508bb1	-0.20365788
20	0xbe4b0418	-0.1982578
21	0xbdeae487	-0.114693694
22	0x3da91787	0.082564406
23	0xbdf8891d	-0.12135527
24	0xbe66a7b2	-0.22524908
25	0x3e1be8c4	0.15225512
26	0x3e762881	0.24038889
27	0xbe8ebfd9	-0.27880743
28	0x3e45adfd	0.19304653
29	0x3d61f8ae	0.0551688
30	0x3e5a2a4b	0.21305196
31	0xbe5442bb	-0.2072858
32	0x3c8e64d0	0.017382056
33	0xbe8dd3d9	-0.2770069
34	0x3c8fff74	0.017577864
35	0xbe87b0d2	-0.2650209
36	0xbe17e420	-0.14833117
37	0xbe3d644b	-0.1849529
38	0xbe7c355e	-0.24629733
39	0x3decb118	0.115572155
40	0xbc1a0b0b	-0.009402047
41	0x3daf9259	0.085728355
42	0xbd81d23e	-0.06338929
43	0xbd3f3e21	-0.04669011
44	0xbd2e3eb7	-0.04254028
45	0xbadb293b	-0.0016720662
46	0x3e49f2b4	0.1972149
47	0xbe8b07d0	-0.27154398
48	0xbc2ea1ae	-0.010658665
49	0xbe291108	-0.16510403
50	0x3d2685e1	0.04065502
51	0x3e3d12e4	0.18464237
52	0xbd7f3250	-0.06230384
53	0xbe875d9c	-0.26438606
54	0xbe38993b	-0.18027203
55	0x3e90f012	0.2830816
56	0xbe18006d	-0.14843912
57	0x3e8549a0	0.26032734
58	0xbe72c405	-0.23707588
59	0xbd832cec	-0.064050525
60	0x3e5227e7	0.20523034
61	0x3dfd6393	0.12372508
62	0x3d1f9021	0.03895581
63	0x3db8afde	0.09017919
64	0xbd8b75de	-0.06809591
65	0x3e9b77cd	0.30364838
66	0x3e9476ed	0.28996983
67	0xbe9357f5	-0.28778043
68	0xbe36a003	-0.17834477
69	0x3e572382	0.21009639
70	0xbe839225	-0.25697437
71	0xbe52bde2	-0.20580247
72	0xbe9583b4	-0.29202044
73	0xbc846033	-0.016159153
74	0x3d360f2d	0.044448067
75	0xbe603b4b	-0.21897618
76	0x3d1084bf	0.035282847
77	0x3d535864	0.051597968
78	0xbe5c75e0	-0.2152934
79	0x3e250aa5	0.16117342
80	0xbd4f6ea8	-0.05064264
81	0xbd9a622d	-0.07538257
82	0xbe125f29	-0.14294113
83	0x3dddcfe3	0.10830667
84	0x3c297eae	0.010345144
85	0x3e1f3544	0.15547663
86	0xbd56bdb1	-0.052426998
87	0x3de91641	0.11381198
88	0x3e02a6e7	0.1275898
89	0x3dc09500	0.094034195
90	0xbe5df88c	-0.21676844
91	0xbd83eba6	-0.06441431
92	0x3e1ce109	0.15320219
93	0x3e8cd1e7	0.27503893
94	0xbe004594	-0.12526542
95	0xbd020b68	-0.03174916
96	0xbd87c526	-0.066294
97	0xbe4cc700	-0.19997787
98	0x3d911072	0.07083215
99	0xbe85a77b	-0.2610434
100	0xbe5b50e1	-0.21417572
101	0xbe58a0ca	-0.21155086
102	0xbd6589d6	-0.056039654
103	0x3e962af0	0.29329634
104	0x3e8edc12	0.27902275
105	0x3e8b66e3	0.27226934
106	0xbe7580d5	-0.23974927
107	0xbe6ed520	-0.23323488
108	0xbdf80c51	-0.12111724
109	0xbe1b70ac	-0.151797
110	0x3e2f175b	0.17098753
111	0xbdb29aa8	-0.087209046
112	0x3d84233f	0.06452035
113	0x3ca4fb17	0.02013926
114	0x3c30df80	0.010795474
115	0x3e3512ec	0.17683
116	0x3e364fb0	0.17803836
117	0xbe7db5d2	-0.2477639
118	0xbe0aeb4d	-0.13566323
119	0xbd4dffa8	-0.05029264
120	0x3cc6cd9e	0.024267968
121	0x3e601c20	0.21885729
122	0xbe8674bb	-0.26260933
123	0xbe72d6cc	-0.23714751
124	0xbe4d9d11	-0.20079447
125	0xbe28f6ee	-0.16500446
126	0xbe88d3b5	-0.2672402
127	0xbe73cce7	-0.23808633
128	0x3cdb8d37	0.026800735
129	0xbe9845ed	-0.2974085
130	0xbcf2df40	-0.02964747
131	0x3e274beb	0.16337554
132	0x3e46c072	0.1940935
133	0x3d72e9b2	0.0593049
134	0xbc1420ad	-0.009040994
135	0xbe8cd77d	-0.27508155
136	0xbd755548	-0.059895784
137	0xbc97b824	-0.018520422
138	0x3e912f05	0.28356186
139	0x3dd2e0ac	0.10296759
140	0xbd96be92	-0.07360567
141	0xbd905047	-0.07046562
142	0x3c78350e	0.015149368
143	0xbe941e6d	-0.28929463
144	0xbdd914c4	-0.10599664
145	0xbd193790	-0.037406504
146	0x3e8f0747	0.2793524
147	0x3d4b0a4d	0.04957037
148	0xbe47d0e7	-0.19513284
149	0x3d2111d7	0.039323654
150	0x3e0e9cf3	0.13927059
151	0xbe1adc93	-0.15123205
152	0xbd6dcbb0	-0.05805558
153	0x3e85e2cb	0.26149592
154	0x3e937570	0.28800535
155	0x3dcd1583	0.10013869
156	0xbd9052e1	-0.07047058
157	0x3e823761	0.25432876
158	0xbe1f1572	-0.15535524
159	0xbe3dd01a	-0.18536416
160	0xbd9d3c4b	-0.076775156
161	0xbe673198	-0.22577512
162	0xbdc31664	-0.09525755
163	0x3bd4ad01	0.0064903502
164	0xbe9e5b06	-0.3092882
165	0x3e108f3e	0.14117143
166	0xbc3fd266	-0.011707878
167	0x3e244117	0.16040455
168	0xbddcb36c	-0.107764095
169	0x3e6d165f	0.23153065
170	0x3dbff47e	0.09372805
171	0x3e81a577	0.25321552
172	0x3d85d5e9	0.06534941
173	0x3cac7251	0.021050604
174	0xbe313680	-0.17305946
175	0xbe04d15c	-0.1297049
176	0xbe7e1218	-0.2481159
177	0xbe958bae	-0.2920813
178	0x3caeb315	0.021325627
179	0xbe3c6843	-0.18399148
180	0x3e8a88b5	0.27057424
181	0x3e411ece	0.18859407
182	0x3da86e3b	0.0822415
183	0xbe5644c0	-0.20924664
184	0x3d8570e8	0.06515676
185	0x3de80eb6	0.11330931
186	0xbe503065	-0.20330961
187	0x3e5eb2ba	0.21747866
188	0x3e2081a3	0.15674452
189	0xbd46dec1	-0.04855228
190	0xbe128111	-0.14307047
191	0xbbf3970e	-0.0074337786
192	0x3d440e50	0.047865212
193	0x3cfa70f1	0.030571433
194	0x3e3bbb43	0.18333153
195	0x3e5c6015	0.21521027
196	0x3dbaa0d2	0.09112705
197	0xbe874861	-0.26422408
198	0xbe6bb98d	-0.23020001
199	0xbe93670d	-0.2878956
200	0x3e6cdeca	0.23131862
201	0xbdbd30ea	-0.09237845
202	0xbe7b5ee6	-0.2454792
203	0xbe975065	-0.29553524
204	0x3e8ff22e	0.28114456
205	0x3e8692ce	0.26283878
206	0x3e0b7eba	0.13622561
207	0xbdca0f0a	-0.0986615
208	0x3e2d9bb5	0.16953929
209	0xbe8c0073	-0.27344093
210	0xbdafabfb	-0.085777245
211	0x3e6a66e9	0.2289082
212	0x3e0a2a62	0.1349273
213	0x3e6309f7	0.2217177
214	0xbe74a434	-0.23890764
215	0xbe129f0c	-0.14318484
216	0x3d93ce47	0.07217079
217	0x3e81b229	0.25331238
218	0x3e983d29	0.29734161
219	0xbde2fec8	-0.11083752
220	0xbe3f9143	-0.18707757
221	0xbd070ec6	-0.032973073
222	0xbe959ac2	-0.29219633
223	0xbe933a00	-0.28755188
224	0x3e8ae84a	0.27130347
225	0xbe185e8f	-0.14879821
226	0x3ca12ce9	0.019674735
227	0x3dd015d6	0.10160415
228	0x3d1c50e7	0.038163092
229	0x3e3515eb	0.17684142
230	0xbd21623e	-0.03940033
231	0xbe53a25a	-0.20667401
232	0xbe39643b	-0.18104641
233	0xbe51cbb7	-0.20487867
234	0x3e09071e	0.13381621
235	0xbe1be5de	-0.15224406
236	0x3dedc3e9	0.116096325
237	0x3e6e812a	0.2329146
238	0x3e1c590f	0.15268348
239	0x3d7b6e9f	0.061384793
240	0xbe989f07	-0.29808828
241	0xbe31917f	-0.17340659
242	0x3e9a6efd	0.30162802
243	0xbcf38d1d	-0.029730374
244	0xbe97f213	-0.29676875
245	0xbd67b29d	-0.056566823
246	0xbe4fe392	-0.20301655
247	0x3d911674	0.07084361
248	0xbe83db5e	-0.257533
249	0x3dac0725	0.083998
250	0xbd545fc1	-0.05184913
251	0xbd795d6b	-0.060880106
252	0x3e87c0c8	0.26514268
253	0xbe09d8f9	-0.13461675
254	0x3e4862ae	0.19568893
255	0xbde173bf	-0.11008405

input_layer.bias f4 [512]
0	0x3e81facc	0.25386655
1	0x3e86cc68	0.26327825
2	0x3e236e88	0.15960133
3	0x3d20ee15	0.039289553
4	0xbd877781	-0.066145904
5	0xbe4b3f2d	-0.19848318
6	0x3e02e038	0.12780845
7	0x3e47ba00	0.19504547
8	0x3e7602db	0.24024527
9	0xbc7f484c	-0.015581202
10	0xbe5efa86	-0.21775255
11	0xbe109e48	-0.1412288
12	0x3e21dbd7	0.15806518
13	0xbdad8a99	-0.08473701
14	0x3deeda1f	0.11662697
15	0xbe055109	-0.13019194
16	0x3e2ca24b	0.16858785
17	0x3e790473	0.24318103
18	0x3e5b7adb	0.21433584
19	0x3e8495a0	0.25895405
20	0x3dd67b2f	0.10472714
21	0x3e82dc6c	0.25558794
22	0x3e3c7879	0.18405332
23	0xbcfa8b8e	-0.030584123
24	0x3e408f14	0.1880458
25	0xbe4e6afb	-0.20157997
26	0x3e6872bf	0.22700022
27	0xbe982823	-0.29718122
28	0x3e09fc10	0.1347506
29	0xbe9794cf	-0.2960572
30	0xbe920f74	-0.28527415
31	0x3da47803	0.08030703
32	0x3db17623	0.08665111
33	0x3e26fd14	0.16307479
34	0x3e96517f	0.29359052
35	0x3e405052	0.1878064
36	0xbd52cbad	-0.05146377
37	0xbae7cd18	-0.0017685024
38	0xbe2dfa0a	-0.16989914
39	0x3e6f65e0	0.23378706
40	0xbe315cb9	-0.17320527
41	0xbdb636e1	-0.08897186
42	0xbe41409c	-0.18872303
43	0x3ba60d6b	0.0050675175
44	0x3e90635d	0.28200808
45	0xbe3930cf	-0.18085025
46	0xbe0cfa43	-0.13767342
47	0x3d9860a0	0.07440305
48	0xbe36667c	-0.17812532
49	0xbdb15ae1	-0.08659912
50	0x3e6c8ef5	0.23101409
51	0x3b86bf8f	0.004112191
52	0x3ddefe17	0.108883075
53	0xbe913fa3	-0.28368863
54	0x3dbb4713	0.09144416
55	0x3e814096	0.25244588
56	0xbd9dfec7	-0.077146105
57	0x3e2a7fe8	0.16650355
58	0xbdebf17d	-0.115206696
59	0x3e67e16b	0.22644584
60	0xbe0a39bd	-0.13498588
61	0xbd8ca9f2	-0.06868352
62	0xbd87c6a9	-0.06629688
63	0xbcd19247	-0.025582446
64	0x3e98611f	0.29761598
65	0xbe90c9a3	-0.28278837
66	0xbe4bee5e	-0.19915149
67	0x3dadf159	0.08493299
68	0xbe0f9a82	-0.14023784
69	0x3e46c921	0.19412662
70	0x3e58e72a	0.21181932
71	0x3e497ae0	0.1967578
72	0x3e6e1031	0.23248364
73	0xbe211947	-0.15732299
74	0x3e06ce0a	0.13164535
75	0x3e7a3450	0.24434018
76	0x3e0799c2	0.13242248
77	0x3d4a6f18	0.049422354
78	0xbe3a8c59	-0.18217601
79	0x3e688ad0	0.22709203
80	0x3cd010d4	0.02539865
81	0x3e258fe3	0.1616817
82	0xbe4555b7	-0.19270979
83	0x3e18cfe7	0.14923058
84	0x3d952970	0.07283294
85	0x3d99a7ff	0.07502746
86	0xbda590cd	-0.08084259
87	0x3e40daad	0.18833418
88	0x3e28629b	0.16443865
89	0x3e3a3db6	0.18187603
90	0x3e8b4680	0.27202225
91	0xbe11ef74	-0.142515
92	0xbdd23a79	-0.10265059
93	0x3ca24cfd	0.019812101
94	0x3e6e4365	0.23267896
95	0x3e9905cf	0.29887244
96	0x3e62a2fb	0.22132485
97	0xbcadf44a	-0.02123465
98	0xbe8cb028	-0.27478147
99	0xbe897f7b	-0.26855072
100	0xbe5db0e8	-0.21649516
101	0xbe6ac8be	-0.2292814
102	0xbe7e6042	-0.24841407
103	0x3dedad13	0.11605277
104	0xbdd63636	-0.10459559
105	0x3e791fc3	0.24328522
106	0x3dbaa1ef	0.09112918
107	0x3e91e75d	0.2849683
108	0x3dfd7fee	0.12377916
109	0x3e9484a9	0.29007462
110	0x3e02bb8e	0.12766859
111	0x3cfe98bc	0.031078689
112	0xbe449ca2	-0.19200376
113	0x3e18aecb	0.14910428
114	0xbe3c6425	-0.18397577
115	0xbe4280ba	-0.18994418
116	0xbe39addd	-0.1813273
117	0xbe7a1e07	-0.24425517
118	0xbd35a6f9	-0.04434869
119	0x3dbeb477	0.09311765
120	0xbe923f1b	-0.2856377
121	0x3bfa757b	0.0076433993
122	0xbe52c579	-0.20583142
123	0x3e258114	0.1616252
124	0x3e857949	0.26069096
125	0x3e9ccdd0	0.30625772
126	0xbe7e9ba3	-0.24864058
127	0xbc669dc4	-0.0140757
128	0x3e7fa538	0.2496537
129	0xbc4f6c96	-0.012660166
130	0xbe347cd4	-0.17625743
131	0x3d43d97d	0.047814835
132	0xbde159d8	-0.110034645
133	0x3dce6aac	0.1007894
134	0x3e81a150	0.25318384
135	0x3e4c676b	0.19961326
136	0xbe76cb77	-0.24101053
137	0x3e7b3380	0.24531364
138	0x3e8e13a0	0.27749348
139	0xbd610ecb	-0.05494575
140	0xbe49fb39	-0.1972474
141	0x3e77679b	0.24160616
142	0xbe60d071	-0.21954514
143	0x3e941c2f	0.28927752
144	0xbe130427	-0.14357053
145	0x3e095215	0.13410218
146	0xbe9463df	-0.28982446
147	0xbb3e4ab5	-0.0029036228
148	0xbd2ea945	-0.042641897
149	0x3e5dc88a	0.21658531
150	0x3e6b0b6c	0.22953576
151	0x3e14636f	0.14491056
152	0xbda8c5c9	-0.082408495
153	0xbd4f6cc8	-0.05064085
154	0xbe0b9f44	-0.13634974
155	0xbda4f924	-0.08055332
156	0x3e18574b	0.1487705
157	0xbe8cfab0	-0.2753501
158	0xbcd5b7a1	-0.026088538
159	0xbe31dfe1	-0.1737056
160	0xbe21a703	-0.15786366
161	0x3df4f125	0.11960057
162	0xbd82b40f	-0.06382
163	0x3df1afcc	0.11801109
164	0xbdc3bd3c	-0.09557578
165	0x3dcd7810	0.10032666
166	0xbe0ef5c9	-0.13960947
167	0xbe3b007d	-0.18261905
168	0xbe6484e0	-0.22316313
169	0x3e8e0be3	0.27743444
170	0xbcb0c88b	-0.021580001
171	0xbe897b39	-0.26851824
172	0xbe802a0b	-0.25032076
173	0xbe61c9d5	-0.22049649
174	0x3c29d3b6	0.010365417
175	0xbe0b6793	-0.13613729
176	0xbdc13bb0	-0.094352126
177	0x3e85c2de	0.26125234
178	0xbc45833b	-0.012055214
179	0x3e305017	0.17218052
180	0xbe285f75	-0.16442664
181	0x3d5e5e67	0.054289248
182	0x3e640d57	0.22270714
183	0x3e65ce0e	0.22441885
184	0x3d726845	0.05918147
185	0xbe667c73	-0.22508411
186	0xbe3c2209	-0.18372358
187	0x3e99a81e	0.30011076
188	0xbd9b023f	-0.07568788
189	0xbcc6a797	-0.024249835
190	0x3d6ff3dd	0.058582176
191	0xbdcaa1f8	-0.09894174
192	0x3e3d156c	0.18465203
193	0x3e46c2fa	0.19410315
194	0x3d8c5638	0.068523824
195	0xbcf675af	-0.030085413
196	0x3dbdb4cd	0.09263001
197	0x3e0dea32	0.1385887
198	0x3e8e2d81	0.27769092
199	0xbdca9968	-0.09892541
200	0xbda57aaf	-0.08080041
201	0x3e0c18cd	0.13681336
202	0xbd52b024	-0.051437512
203	0xbe576bd4	-0.21037227
204	0xbe90566e	-0.2819094
205	0x3e23e43d	0.16005035
206	0x3ded29be	0.11580227
207	0x3e72a4bc	0.23695654
208	0x3a5a700a	0.0008332735
209	0x3e04a500	0.12953568
210	0xbe4bbe6e	-0.19896862
211	0x3e6e3c65	0.23265226
212	0xbdcf2927	-0.10115271
213	0x3e02ff28	0.12792647
214	0xbdd9265b	-0.10603019
215	0xbe117a44	-0.14206797
216	0xbe318da0	-0.17339182
217	0xbcf56105	-0.02995349
218	0x3d6715fc	0.05641745
219	0xbe953791	-0.29143956
220	0x3e6aaac5	0.22916706
221	0x3c38adcd	0.011271906
222	0xbe3bbca0	-0.18333673
223	0xbe272fcf	-0.16326831
224	0xbe8762c7	-0.2644255
225	0x3e12214f	0.14270519
226	0x3d9524e5	0.07282428
227	0x3d94948c	0.072548956
228	0x3dfa0596	0.12208097
229	0x3db12127	0.086489014
230	0x3e47f054	0.19525272
231	0xbdd4a429	-0.103828736
232	0xbe1ced27	-0.15324841
233	0x3e1a4356	0.15064749
234	0xbe92be2d	-0.28660718
235	0x3e6e08ff	0.23245619
236	0x3d3f63d2	0.046726055
237	0xbe94d37d	-0.29067603
238	0xbd2c3279	-0.042040322
239	0x3de7de8c	0.11321744
240	0xbe8af83e	-0.2714252
241	0xbe45eeda	-0.19329396
242	0xbe0ed546	-0.13948545
243	0xbd02828d	-0.031862784
244	0x3e0dbd42	0.13841727
245	0x3e609b01	0.2193413
246	0x3e893960	0.26801586
247	0x3dfaf0dc	0.122529715
248	0x3cb596be	0.022166606
249	0x3e904a2c	0.2818159
250	0x3e2b9105	0.1675454
251	0xbe59ee22	-0.21282247
252	0x3e88b100	0.2669754
253	0xbe812df7	-0.2523038
254	0xbe4ae490	-0.19813752
255	0x3e435509	0.19075407

output_layer.weight f4 [2, 512]
0	0x3dee318a	0.116305426
1	0xbc222f73	-0.009899008
2	0x3c82612b	0.015915474
3	0xbd869860	-0.06572032
4	0xbce943f2	-0.028474782
5	0xbd40c27c	-0.047060475
6	0x3c52f7d7	0.012876472
7	0x3cf8e5dc	0.030383043
8	0x3d257c03	0.04040147
9	0x3d217145	0.039414663
10	0x3b4dd38c	0.003140661
11	0xbca67a76	-0.020322066
12	0x3cb07578	0.021540388
13	0x3ccebee0	0.0252375
14	0x3d3fa2f7	0.046786275
15	0x3cd8602f	0.026413051
16	0xbc289718	-0.01028993
17	0x3d890fb0	0.06692445
18	0xbd90773d	-0.07053993
19	0xbdbec6b2	-0.09315242
20	0xbdd33104	-0.10312083
21	0x3d16624d	0.03671484
22	0xbc82bf7c	-0.015960447
23	0x3d4903c6	0.049075864
24	0x3d7f4569	0.062322054
25	0xbc7daf51	-0.015483693
26	0x3d2262db	0.039645057
27	0xbdc3146c	-0.095253795
28	0xbd180ff0	-0.037124574
29	0xbd41655d	-0.04721581
30	0xbd3d0398	-0.046146005
31	0xbd50b131	-0.050950233
32	0xbd95c2a2	-0.07312514
33	0xbb6052dc	-0.0034229076
34	0xbca93e10	-0.020659477
35	0x3ba3d556	0.004999797
36	0x3d5cabfe	0.053874962
37	0x3d02ff70	0.031981885
38	0xbdc33ad7	-0.09532707
39	0xbcb8feac	-0.022582375
40	0x3d1634e9	0.036671553
41	0xbd887d3b	-0.06664511
42	0xbdd9385e	-0.10606454
43	0x3ccef069	0.02526112
44	0x3ccbc731	0.024875255
45	0xbd460bb0	-0.04835099
46	0x3c441614	0.011968154
47	0x3d983f02	0.07433893
48	0xbce7920e	-0.028267886
49	0xbb2e2f00	-0.0026578307
50	0x3e03043b	0.12794583
51	0xbd8b3894	-0.06797901
52	0x3d09d5c3	0.033651125
53	0xbca9e570	-0.020739287
54	0x3d15ec79	0.03660247
55	0xb9c9735d	-0.0003842366
56	0x3d13c7ba	0.036079146
57	0xbd0af6f6	-0.033926927
58	0xbcc457f1	-0.023967715
59	0x3cd14f3b	0.025550475
60	0x3d13dd34	0.036099628
61	0xbd23a09d	-0.039948095
62	0x3b73d091	0.0037203173
63	0x3e18d8b5	0.14926417
64	0xbc887ff9	-0.016662585
65	0x3ce7824e	0.028260376
66	0xbd49dd04	-0.049283043
67	0x3dbaf910	0.09129536
68	0xbd70f625	-0.05882849
69	0x3db264af	0.0871061
70	0x3d6b30b4	0.057419494
71	0x3a860243	0.0010224063
72	0x3cf3c765	0.029758165
73	0xbd13cb06	-0.03608229
74	0x3cd2577f	0.025676487
75	0xbc242478	-0.01001846
76	0x3dbb5983	0.091479324
77	0xbb82699d	-0.0039798752
78	0xbd8cbf55	-0.06872431
79	0xbce240c2	-0.02761877
80	0x3db03b4a	0.086050585
81	0x3d92b811	0.07164014
82	0xbe1a4b5f	-0.15067814
83	0x38e371d0	0.00010845403
84	0xbd266ff8	-0.040634125
85	0x3c23d15d	0.009998647
86	0xbc9879e4	-0.01861281
87	0xbc800de6	-0.015631627
88	0x3e193290	0.14960694
89	0xbd9f215a	-0.07770033
90	0x3d1ab47e	0.037769787
91	0x3ceafa93	0.028683936
92	0xbc057469	-0.00814543
93	0xbd9b40f8	-0.07580751
94	0xbcf0f92a	-0.029415686
95	0xbd6356fe	-0.055502884
96	0x3cc369e2	0.0238542
97	0xbd8d1a57	-0.068897896
98	0xba17e41d	-0.00057941844
99	0xbc543804	-0.012952808
100	0x3d434402	0.04767228
101	0x3c4921fe	0.012276171
102	0xbd801a55	-0.062550224
103	0x3e286a74	0.16446859
104	0x3adc5289	0.0016809265
105	0xbdb90428	-0.09033996
106	0x3c6516d8	0.013982497
107	0xbc71af5d	-0.0147512825
108	0x3d4bdd0b	0.04977135
109	0x3c656f1c	0.014003541
110	0x3d649638	0.055807322
111	0xbcf74a39	-0.03018676
112	0xbbd2f6c5	-0.0064381086
113	0xbd904e6e	-0.07046209
114	0xbd899012	-0.06716932
115	0xbd90f973	-0.07078829
116	0xbd5a85cf	-0.053350266
117	0x3bd14346	0.0063861934
118	0x3d3fffe0	0.04687488
119	0x3a86d342	0.0010286348
120	0x3c0d91db	0.008640732
121	0xbd994509	-0.074838705
122	0xbd0f86d4	-0.03504069
123	0x3bf7089a	0.007538867
124	0xbda39695	-0.079877056
125	0x3da36b20	0.07979417
126	0x3e3c2758	0.18374383
127	0x3ce598ab	0.0280269
128	0x3ccf6fcb	0.025321862
129	0x3cf8b084	0.030357607
130	0xbd93dc92	-0.07219805
131	0x3c389857	0.011266789
132	0x3d3ea836	0.046547137
133	0x3ca8a177	0.020584805
134	0x3c82a758	0.015948936
135	0x3bc468d1	0.0059939404
136	0x3cdb5dc0	0.026778102
137	0xbd9c0625	-0.076183595
138	0x3d7a7b40	0.061152697
139	0xbdc0f9af	-0.09422623
140	0xbdca5342	-0.098791614
141	0xbd819b01	-0.06328393
142	0xbba4cc63	-0.0050292476
143	0xbcc47125	-0.023979733
144	0x3da12a47	0.07869392
145	0x3cf98d99	0.030463027
146	0xbd8f1972	-0.06987275
147	0xbc9a063e	-0.018801805
148	0xbd34e007	-0.04415896
149	0x3b464dc6	0.003025876
150	0x3d03892e	0.032113247
151	0xbc48f8e5	-0.012266372
152	0xbc1e566c	-0.009664159
153	0x3cbbfa25	0.022946427
154	0xbd1c0324	-0.038088933
155	0x3c60fbc2	0.013731899
156	0x3d59147b	0.052998047
157	0xbda56f37	-0.08077853
158	0x3c667d1b	0.014067913
159	0x3c77c4a3	0.015122565
160	0xbd3a4430	-0.045475185
161	0xbdb94d42	-0.09047939
162	0xbc756409	-0.0149774635
163	0x3d9fd7ff	0.0780487
164	0xbd78bed9	-0.06072888
165	0x3dbc9754	0.09208551
166	0xbcdeecdb	-0.02721255
167	0xbb646252	-0.0034848643
168	0xbd17c9d5	-0.037057716
169	0xbe11e9cf	-0.14249347
170	0x3cffc37f	0.03122115
171	0xbbd9669d	-0.006634547
172	0xbc23f4a8	-0.010007061
173	0xbd994817	-0.07484453
174	0xbd84f820	-0.064926386
175	0xbc97b6d8	-0.018519804
176	0xbbc057ee	-0.005869857
177	0xbd67d869	-0.05660287
178	0xbba679fe	-0.0050804606
179	0xbcc3cf5f	-0.023902593
180	0xbdf13297	-0.11777227
181	0xbd6884ff	-0.05676746
182	0xbd83873a	-0.06422277
183	0x3d06d4b4	0.032917693
184	0xbce5eb4b	-0.028066298
185	0x3c782b64	0.015147064
186	0x3beeb9af	0.007285319
187	0xbb2c6c79	-0.0026309772
188	0xbdc72042	-0.097229496
189	0x3d33180d	0.04372411
190	0x3d84d808	0.06486517
191	0x3dbb454e	0.09144078
192	0x3c82de58	0.015975162
193	0x3cfd69cb	0.030934235
194	0xbd499132	-0.049210735
195	0x3a4639b9	0.0007561702
196	0x3c068d40	0.008212388
197	0xbc5c1d7c	-0.013434764
198	0x3dc1b74e	0.09458791
199	0xbd8de9e8	-0.0692938
200	0xbd73b396	-0.05949744
201	0x3d048134	0.03234978
202	0xbd736ab2	-0.059427924
203	0xbb3f8099	-0.0029220937
204	0xbd47230e	-0.048617415
205	0x3d24f149	0.04026917
206	0xbcf1e400	-0.029527664
207	0x3d298701	0.041388515
208	0x3d83d253	0.064366005
209	0x3c7fe178	0.015617721
210	0x3c312bbc	0.01081365
211	0x3d977fa4	0.073973924
212	0xbc226ec0	-0.0099141
213	0xbd17d655	-0.037069637
214	0x3d4c170a	0.04982666
215	0xbd344889	-0.044014487
216	0xbce53e13	-0.0279837
217	0x3d8b81e2	0.068118826
218	0xbd1a6f95	-0.03770407
219	0xbd549b07	-0.051905658
220	0xba24be0a	-0.00062844215
221	0xbc845578	-0.016154036
222	0xbdb29df5	-0.08721534
223	0x3b2946f8	0.0025829654
224	0xbcdb1384	-0.026742704
225	0xbdb54ff6	-0.08853142
226	0xbd3e5637	-0.04646894
227	0xbdebb412	-0.11508955
228	0xbc160737	-0.009156994
229	0xbd3a71cf	-0.045518693
230	0xbd2905b0	-0.04126519
231	0x3d6a4bf9	0.05720136
232	0x3d7636af	0.060110744
233	0xbd6817e8	-0.056663424
234	0xbb9310b0	-0.0044880733
235	0x3d2764ac	0.040867493
236	0x3c7580f8	0.014984362
237	0xbc929c96	-0.017896932
238	0x3c366e6f	0.011134728
239	0x3cc6d916	0.024273437
240	0x3d9fcd53	0.07802834
241	0xbd25b8e0	-0.040459514
242	0xbd160497	-0.03662547
243	0xba351d1c	-0.00069089397
244	0xbd82291a	-0.06355496
245	0x3d5486e8	0.05188647
246	0xbcfb4d75	-0.030676583
247	0x3c01a9fe	0.007914064
248	0xbd4fc332	-0.050723262
249	0xbd561c3b	-0.052273016
250	0xbc3c5366	-0.011494493
251	0x3c5536d2	0.013013558
252	0x3d50b706	0.050955795
253	0xbbbd21a8	-0.0057718344
254	0x3db2cb26	0.08730154
255	0xbe06c19f	-0.13159798

output_layer.bias f4 [2]
0	0x3d5d4ac9	0.0540264
1	0x3bccd306	0.006250742
