summit/benchmarks/models/reizman_suzuki_case_2/reizman_suzuki_case_2_predictor_0.pt (torch, 30487 bytes, 4 tensors)

input_layer.weight f4 [512, 11]
0.09321883 0.15297994 -0.0039535426 0.19735172 0.19453683 0.07455039 -0.034738954 -0.031329323
0.09550188 0.24269833 -0.10737173 0.20370282 0.25609168 -0.2741419 0.16932479 0.10367683
0.018109253 0.034876212 0.18653661 0.052910347 -0.03905931 0.0018624663 -0.23915425 0.29336023
0.12546752 -0.18445224 0.2202582 0.0071505955 0.15451427 -0.12748027 0.025306243 -0.21941754
0.04821117 0.25029162 0.11466673 0.08292041 0.26670182 0.03829223 0.27711195 -0.11756235
-0.18015242 -0.16698708 -0.28630695 -0.21550483 -0.0074381656 -0.029239997 0.19036451 0.24888983
0.27352878 -0.23311554 0.28068414 -0.18692952 0.22684613 -0.014258295 -0.1322981 -0.15691169
0.008571358 -0.30036503 -0.23304492 -0.21590424 -0.1441416 0.015924528 0.0014378963 0.050906476
0.031609118 0.2073256 0.2151134 0.16571257 0.24140175 -0.23316363 0.012557715 0.23595774
0.0376368 0.1420479 0.29967752 -0.2217833 0.1288575 -0.15156701 0.16625454 0.29618248
0.22339284 0.12868899 0.13835838 -0.04768152 0.19213988 -0.086884245 0.32141948 -0.1039423
-0.29066458 -0.08450904 0.15974557 0.023800692 -0.17378289 0.006823449 0.037284434 0.10256164
0.067828745 -0.13547902 -0.26454446 -0.2173813 -0.2126694 -0.08672561 0.19566604 -0.12931173
0.13569449 -0.2071285 0.13646525 0.06110196 0.052538432 -0.22770229 -0.017368557 0.27358228
0.27663836 -0.18310294 -0.020464676 -0.12100867 -0.2562581 0.15077972 -0.018587243 0.03534518
-0.15139139 -0.19229473 -0.041964676 -0.26853707 0.2796242 -0.215148 -0.074722484 0.078336276
0.29918352 -0.27150917 -0.22779748 -0.10642459 -0.051496796 0.041733846 -0.17597397 0.21849397
-0.150604 0.008378179 -0.18211913 0.29745385 -0.17340355 -0.24176171 -0.2473428 0.06773747
0.10263284 0.26844198 -0.15487286 0.087670304 0.23301004 0.14244254 -0.16724442 -0.2744861
-0.07052444 -0.10154847 -0.27433643 0.15929686 -0.27458605 0.19929305 -0.069766745 0.2067764
0.2521341 0.08258096 0.060044654 0.23168342 -0.24809085 -0.22619379 0.15635045 -0.21693806
-0.1700042 0.1889429 -0.02971068 0.017466068 -0.21099032 -0.0047537265 -0.09595518 -0.20053385
-0.19977835 -0.09160205 0.04606021 -0.123939484 -0.03392893 -0.08639776 -0.050357983 0.2554549
0.27478862 -0.15017362 -0.036072187 -0.017665492 -0.06019818 0.11921398 0.11906428 -0.23408881
-0.10529107 -0.24817622 -0.26016507 -0.2392028 -0.20769984 0.2567303 -0.22776993 -0.2354282
0.23779286 -0.2616289 0.27863812 -0.13248113 -0.2426454 -0.2743631 0.0100823175 -0.06651064
-0.27680328 -0.24675654 0.07938018 -0.097819485 0.2607021 0.054612353 0.13866787 -0.09215838
-0.29214245 -0.19612963 -0.24233523 0.2409061 0.24205244 -0.28512385 -0.2926176 0.07350022
0.12119633 -0.23821664 -0.23417218 -0.20375362 0.20051451 -0.046679627 -0.25514427 -0.21000539
-0.2291485 -0.12897672 -0.19383486 0.2321937 0.16970754 0.28228512 -0.26726156 0.27633306
0.2913973 0.099938154 -0.188997 0.2619914 0.0010593483 0.2702019 0.29827607 -0.29558185
0.049687076 0.21841273 -0.23580752 0.300148 -0.17766137 -0.092875645 0.11542317 0.2574009
00000000: 84e9 be3d c6a6 1c3e b88c 81bb 9216 4a3e
00000010: aa34 473e e0ad 983d 6f4a 0ebd 2d53 00bd
00000020: 7d96 c33d e985 783e b6e5 dbbd 7997 503e
00000030: 731e 833e 545c 8cbe 7a63 2d3e 8554 d43d
00000040: db59 943c 5cda 0e3d 7403 3f3e 85b8 583d
00000050: a8fc 1fbd 001e f43a dae4 74be 5033 963e
00000060: 8f7a 003e 0ce1 3cbe 5e8b 613e 8b4f ea3b
00000070: fd38 1e3e 308a 02be 0a4f cf3c feae 60be
00000080: 1379 453d 3926 803e 64d6 ea3d 2dd2 a93d
00000090: 248d 883e 50d8 1c3d 9ee1 8d3e 88c4 f0bd
000000a0: e079 38be a9fe 2abe d396 92be 4cad 5cbe
000000b0: dbbb f3bb b888 efbc eaee 423e fadc 7e3e
000000c0: f70b 8c3e d7b5 6ebe d5b5 8f3e 746a 3fbe
000000d0: 5a4a 683e a09b 69bc 2779 07be 75ad 20be
000000e0: e26e 0c3c 72c9 99be 54a3 6ebe 0016 5dbe
000000f0: db99 13be 2874 823c cb77 bc3a 4f83 503d
00000100: 9078 013d 294d 543e b046 5c3e 8eb0 293e
00000110: 0532 773e 72c2 6ebe e0be 4d3c e89e 713e
00000120: 0c29 1a3d 0175 113e 556f 993e 291b 63be
00000130: 38f3 033e 6234 1bbe a13e 2a3e 3ba5 973e
00000140: 18c1 643e 0cc7 033e d2ad 0d3e b34d 43bd
00000150: 51c0 443e 5ef0 b1bd 1891 a43e b3df d4bd
00000160: fdd1 94be 1313 adbd 5894 233e abf9 c23c
00000170: 24f4 31be 3d97 df3b 90b7 183d d60b d23d
00000180: cce9 8a3d 03bb 0abe 5f72 87be 3499 5ebe
00000190: 02c6 59be 329d b1bd ae5c 483e 4b6a 04be
000001a0: 7ff3 0a3e 7e19 54be 8cbd 0b3e 0c46 7a3d
000001b0: 8a32 573d ca2a 69be 8148 8ebc fa12 8c3e
000001c0: 8ba3 8d3e 567f 3bbe 89a5 a7bc 65d3 f7bd
000001d0: 4334 83be 0066 1a3e 4644 98bc 1cc6 103d
000001e0: 5806 1bbe e9e8 44be 27e3 2bbd b17d 89be
000001f0: e72a 8f3e c24f 5cbe 1a08 99bd c56e a03d
00000200: 952e 993e 4003 8bbe be43 69be 23f5 d9bd
00000210: 4eee 52bd 1cf1 2a3d 8532 34be e2bc 5f3e
00000220: ef37 1abe a144 093c 707d 3abe df4b 983e
00000230: b390 31be 6290 77be 6e47 7dbe f1b9 8a3d
00000240: 2b31 d23d 3a71 893e fe96 1ebe 7d8c b33d
00000250: 2f9a 6e3e 75dc 113e 1f42 2bbe 7189 8cbe
00000260: 1e6f 90bd a5f8 cfbd d375 8cbe b71e 233e
00000270: 8b96 8cbe 7a13 4c3e dee1 8ebd 31bd 533e
00000280: b917 813e 3520 a93d 62f1 753d 6b3e 6d3e
00000290: 870b 7ebe 589f 67be 551a 203e 0325 5ebe
000002a0: 9515 2ebe 3f7a 413e d063 f3bc 0015 8f3c
000002b0: d90d 58be 26c5 9bbb 2684 c4bd bf58 4dbe
000002c0: b292 4cbe db99 bbbd a1a9 3c3d fcd3 fdbd
000002d0: 10f9 0abd 4ff1 b0bd 2c44 4ebd fcca 823e
000002e0: 18b1 8c3e 1dc7 19be 6ec0 13bd 39b7 90bc
000002f0: 5e92 76bd 7626 f43d f9d7 f33d fab4 6fbe
00000300: d8a2 d7bd e821 7ebe 5b34 85be 94f1 74be
00000310: 44af 54be 2772 833e 853c 69be 1714 71be
00000320: f97f 733e 39f4 85be a8a9 8e3e 22a9 07be
00000330: 0978 78be 5279 8cbe 4e30 253c bb36 88bd
00000340: 29b9 8dbe bfad 7cbe 1392 a23d 9555 c8bd
00000350: bf7a 853e 34b1 5f3d f3fe 0d3e 88bd bcbd
00000360: b293 95be 35d6 48be ba26 78be 17b0 763e
00000370: 98dc 773e c1fb 91be f9d1 95be 4987 963d
00000380: c835 f83d 10ef 73be d5ca 6fbe caa4 50be
00000390: ad53 4d3e 2333 3fbd 45a2 82be a70b 57be
000003a0: e8a5 6abe 7912 04be a57c 46be 2fc4 6d3e
000003b0: d0c7 2d3e ad87 903e 82d6 88be 877b 8d3e
000003c0: 0732 953e 60ac cc3d 6e88 41be bd23 863e
000003d0: d5d9 8a3a e757 8a3e a4b7 983e 8156 97be
000003e0: ad84 4b3d 96a7 5f3e 8777 71be 00ad 993e
000003f0: ddec 35be 9635 bebd fc62 ec3d 0dca 833e

input_layer.bias f4 [512]
0.17732157 -0.23475108 -0.15103728 -0.27719235 -0.22602245 -0.028642021 -0.23845084 -0.06429662
-0.15327418 -0.063679345 0.2558619 0.09150058 0.28767285 0.23430361 0.21691418 -0.29334712
0.0121046 -0.18964958 -0.14990963 -0.25897166 0.18603717 -0.049538944 0.21080628 -0.05669257
-0.010697308 0.13989386 0.11941827 -0.13993268 -0.14474963 -0.05294305 -0.03274204 -0.19286977
-0.0074206498 -0.09389248 -0.2559952 0.14033829 -0.106303856 -0.13612272 -0.19879074 -0.17670247
-0.0284535 -0.18998556 -0.2822917 0.17246611 0.061024696 -0.07854174 0.24842915 0.049136225
0.26753324 -0.18428604 -0.08084519 0.2539528 0.19507948 0.08148821 -0.2306097 0.106651485
-0.19333318 -0.29156968 0.08280613 0.10490662 0.012642064 -0.17076893 -0.02884198 0.23230901
-0.0474991 0.10052704 -0.06388188 -0.20204213 -0.0126428185 -0.082396135 0.16170019 0.011551277
-0.041171905 -0.26430258 0.2971077 -0.07304434 0.093304776 0.06964373 0.04836842 -0.10066531
-0.21689332 -0.2806194 -0.27641043 -0.13046548 0.30281183 0.20185582 0.09755476 0.2420177
0.052828792 -0.22370243 0.20078957 0.17885739 0.00036042888 0.17297882 -0.056852117 0.27376506
0.16344754 0.18685004 -0.20297785 0.07935745 0.081489146 -0.2202756 0.20655443 -0.09643505
0.16351853 -0.26450023 -0.12167081 0.028789787 -0.15084514 -0.06825903 -0.060223427 0.15671307
0.13516726 -0.22857718 -0.004759339 -0.19812053 0.29625225 0.24087806 0.09781897 0.13292558
0.27497983 0.23988302 -0.078070395 0.1775584 -0.09142927 0.11849237 -0.2163489 0.24774034
-0.12212468 0.20959431 0.16581911 0.14338613 -0.16058984 0.06744725 -0.01320815 0.05244642
0.07466996 -0.01696683 0.04939092 -0.1600665 0.12025598 -0.12788846 0.06385168 0.14375514
-0.0068287407 0.22661711 0.25464168 0.13077432 -0.20407027 -0.14783753 -0.119904965 0.14712185
0.21933985 -0.036182117 0.19712529 -0.15103011 0.26446542 0.055048134 0.11967662 -0.09643722
-0.21743149 0.1493357 -0.21276687 0.28408018 0.03675392 -0.2310812 0.06826692 0.1660229
-0.22113606 -0.10468035 0.03361329 0.24457283 0.13334729 0.0004053033 -0.12714714 0.15100086
-0.07601402 0.12923455 0.14027615 0.23692708 0.06819894 0.06425161 -0.06544244 -0.18245561
0.24878444 -0.025270738 0.028665626 0.115720615 0.18785901 -0.108727 -0.12072536 -0.2158774
0.22835813 0.104426965 -0.20947081 0.22566672 0.014304528 -0.24388179 -0.14982295 0.079253346
0.22777604 -0.19195928 0.1562073 0.15673521 -0.15602626 0.054875102 -0.20265977 0.27027205
0.027896801 -0.05374898 0.15921591 0.19552143 0.098434076 -0.15823732 -0.27676687 0.018516993
-0.15935707 -0.30219486 -0.13075118 -0.1923806 -0.09095925 0.022512795 -0.196093 0.12043607
0.107171334 0.17919445 -0.24257424 -0.08747634 0.24638934 0.09357467 0.021037983 0.15732284
0.16028063 0.12339894 0.20949736 0.20280379 0.017985381 -0.17854533 0.046646725 -0.16658624
0.055881448 -0.2519939 -0.13307482 0.26068166 0.016679538 0.08158086 0.05253178 0.27474996
-0.18767668 0.038623687 -0.1721363 -0.1510606 -0.13452758 0.0050069937 -0.05817831 -0.10958738
00000000: c993 353e 9662 70be 84a9 1abe 28ec 8dbe
00000010: 6e72 67be aca2 eabc 752c 74be f2ad 83bd
00000020: e8f3 1cbe 516a 82bd 5500 833e a864 bb3d
00000030: db49 933e 49ed 6f3e c01e 5e3e 9831 96be
00000040: 5f52 463c 8033 42be e981 19be ef97 84be
00000050: 8780 3e3e 59e9 4abd 9add 573e 7836 68bd
00000060: c343 2fbc 5640 0f3e 9191 f43d 834a 0fbe
00000070: 3f39 14be d0da 58bd 841c 06bd a77f 45be
00000080: ec28 f3bb b34a c0bd ce11 83be d7b4 0f3e
00000090: d6b5 d9bd c163 0bbe cd8f 4bbe 7ef1 34be
000000a0: 5017 e9bc 938b 42be 8a88 90be f59a 303e
000000b0: 08f5 793d 7eda a0bd 3664 7e3e 1143 493d
000000c0: 1efa 883e 7bb5 3cbe 2a92 a5bd 1a06 823e
000000d0: eac2 473e 4ae3 a63d f324 6cbe 186c da3d
000000e0: 22f9 45be 9f48 95be 4396 a93d 48d9 d63d
000000f0: a920 4f3c 0dde 2ebe 0446 ecbc 6ae2 6d3e
00000100: 6b8e 42bd 1fe1 cd3d 81d4 82bd 22e4 4ebe
00000110: d323 4fbc 4ebf a8bd bc94 253e 9141 3d3c
00000120: dfa3 28bd ab52 87be 801e 983e 4598 95bd
00000130: 9316 bf3d 5fa1 8e3d f71d 463d 9d29 cebd
00000140: 4819 5ebe 59ad 8fbe ab85 8dbe be98 05be
00000150: 270a 9b3e 4bb3 4e3e caca c73d 7dd3 773e
00000160: 0163 583d 4012 65be c89b 4d3e 6426 373e
00000170: f2f7 bc39 5c21 313e c4dd 68bd ef2a 8c3e
00000180: cb5e 273e 9e55 3f3e 6dd9 4fbe 2986 a23d
00000190: c8e3 a63d ed8f 61be 0183 533e bd7f c5bd
000001a0: 6771 273e 936c 87be 8c2e f9bd 8fd8 eb3c
000001b0: 2677 1abe 64cb 8bbd d7ac 76bd 6479 203e
000001c0: 4969 0a3e 2310 6abe 3bf4 9bbb 1ce0 4abe
000001d0: 60ae 973e bda8 763e 5055 c83d a51d 083e
000001e0: 28ca 8c3e e5a3 753e 5fe3 9fbd dfd1 353e
000001f0: 453f bbbd 21ac f23d 918a 5dbe a5af 7d3e
00000200: 811c fabd e49f 563e 7ccc 293e d0d3 123e
00000210: aa71 24be c921 8a3d ff66 58bc 0fd2 563d
00000220: 90ec 983d 05fe 8abc 224e 4a3d 79e8 23be
00000230: c448 f63d 31f5 02be abc4 823d 8c34 133e
00000240: a1c3 dfbb 510e 683e 6560 823e b4e9 053e
00000250: ccf7 50be b962 17be bc90 f5bd 1ca7 163e
00000260: a09a 603e b333 14bd 36db 493e a3a7 1abe
00000270: 0368 873e 277a 613d 0419 f53d e180 c5bd
00000280: 5ca6 5ebe 75eb 183e 8fdf 59be f572 913e
00000290: 478b 163d 8da0 6cbe 87cf 8b3d e801 2a3e
000002a0: 7e71 62be a762 d6bd 17ae 093d 4d71 7a3e
000002b0: 318c 083e e37e d439 dc32 02be f89f 1a3e
000002c0: 3dad 9bbd 1056 043e 8da4 0f3e 039d 723e
000002d0: e3ab 8b3d 5996 833d b006 86bd a5d5 3abe
000002e0: 59c1 7e3e 9404 cfbc 2dd4 ea3c eefe ec3d
000002f0: 1d5e 403e 43ac debd dc3e f7bd f70e 5dbe
00000300: b7d6 693e cedd d53d 847f 56be 2d15 673e
00000310: 8a5d 6a3c 26bc 79be 306b 19be 944f a23d
00000320: 1f3e 693e f990 44be cef4 1f3e 327f 203e
00000330: 59c5 1fbe b7c4 603d 0b86 4fbe 1961 8a3e
00000340: d587 e43c e427 5cbd 7f09 233e c536 483e
00000350: ce97 c93d f708 22be 63b4 8dbe f3b0 973c
00000360: 802e 23be 49b9 9abe a3e3 05be 6cff 44be
00000370: d848 babd c16c b83c 9acc 48be 30a7 f63d
00000380: a57c db3d c07e 373e 6265 78be cc26 b3bd
00000390: 7d4d 7c3e 14a4 bf3d d957 ac3c 3d19 213e
000003a0: 9b20 243e 95b8 fc3d 7a86 563e ccab 4f3e
000003b0: 1456 933c 96d4 36be a310 3f3d 9595 2abe
000003c0: f2e3 643d 5805 81be c444 08be 1178 853e
000003d0: 87a3 883c de13 a73d 902b 573d 07ac 8c3e
000003e0: 512e 40be df33 1e3d 8044 30be a1af 1abe
000003f0: 99c1 09be b511 a43b 614c 6ebd 596f e0bd

output_layer.weight f4 [2, 512]
0.04681697 0.01813003 -0.031945013 -0.016184742 -0.031146599 -0.040515684 0.0727603 -0.12919302
-0.010969439 -0.0005333913 -0.06926704 0.055120055 0.054788105 -0.026335577 -0.019675313 -0.0867668
-0.111065984 -0.039157417 0.001702395 -0.03005394 0.07184034 0.02497515 -0.16758691 -0.055132516
-0.021099279 0.05239707 -0.013109973 -0.014322738 0.0363367 0.031089619 0.024842316 0.0063211652
0.007886 -0.06834976 -0.062462363 0.067447364 -0.007433148 0.009956509 -0.1099454 0.035285212
0.01346982 -0.041592583 0.034784548 -0.005804259 0.042747114 -0.069929965 -0.0014003095 -0.046261057
0.03641749 0.005533526 -0.08497455 0.0864994 -0.05361629 0.02079052 -0.004615277 -0.09168791
-0.09184434 -0.048372205 0.009689853 0.021246662 -0.12884878 -0.016320791 -0.0651594 0.010216817
-0.03239524 -0.0321759 0.009366425 0.0017812594 0.0042680562 0.004131927 0.09700417 0.000121328994
0.016631901 -0.026946662 -0.029864565 -0.061583087 -0.04054268 0.013705288 -0.0043808753 -0.11770912
-0.016680922 -0.047982484 -0.040674005 -0.046011876 -0.013631513 0.012038694 -0.052965194 0.03604138
-0.011432297 -0.0200564 0.0020949207 0.04084875 -0.027656939 0.027766075 -0.0751112 0.03332375
0.061080385 0.007959895 0.046193343 0.06853963 -0.04766831 0.006243209 0.023154734 -0.11376131
0.0059381844 -0.007969215 0.040767662 0.027292214 -0.029602604 0.012464106 -0.10031145 0.06946016
0.023816597 -0.04508237 0.034542322 0.048386443 0.072109535 -0.066355735 0.045035943 -0.004039996
0.07401813 0.028822219 0.027718365 0.07201968 -0.033788756 -0.02923343 0.0073441393 0.047013666
-0.063142374 0.05743789 -0.045488242 0.07340626 0.035737302 0.0006789105 -0.047180805 -0.045132436
0.012641314 0.08464971 -0.067572646 -0.024064329 -0.025517829 0.0742665 -0.024009015 -0.104074225
0.009527133 0.049987987 -0.013681339 -0.07469819 0.024194203 0.0631623 0.044947315 -0.0780442
-0.045124847 0.009424935 0.03485995 -0.076813415 -0.037185915 -0.043619648 0.037792612 -0.008319519
-0.025019556 -0.07071455 -0.0032273375 -0.03500311 -0.055095118 -0.005233824 0.007592648 -0.07513381
0.019694028 -0.07455121 -0.10801103 -0.001534724 0.025713975 0.007278117 -0.009771087 0.012110913
-0.0034753627 0.09626397 -0.0015166041 -0.009150897 -0.072630234 -0.01237064 -0.054670963 -0.032902762
0.0135622425 0.0110006165 -0.0516766 -0.0023796032 -0.030860698 -0.06385931 -0.052295618 0.038204372
0.064148314 -0.088412575 0.0033378156 -0.026531639 -0.009415738 -0.0037638817 0.084264174 -0.019231703
0.006985062 -0.012334908 -0.085472904 0.040322494 -0.035205774 0.06564185 0.02639514 -0.042837776
0.024483496 0.003956513 -0.08937599 0.09333971 0.032752663 0.033985656 -0.010295666 -0.07925774
-0.03310788 -0.023518227 0.022696245 -0.027754622 -0.060702857 0.037786093 -0.04697638 0.030031348
0.018175498 0.040902678 -0.039334945 -0.0023290212 0.06716985 -0.0022269164 0.10210182 -0.0046036
-0.05212978 -0.09297169 0.052260455 0.03203374 -0.013946516 0.009091861 0.022066843 -0.020603536
-0.006555541 0.03544703 0.021557236 -0.010322815 0.043371536 -0.057363585 0.08527152 -0.045559227
-0.15181977 -0.006715714 -0.031628214 -0.06565826 -0.117734 -0.02236172 0.04779222 -0.020718627
00000000: 27c3 3f3d 6e85 943c c6d8 02bd dd95 84bc
00000010: 2727 ffbc c6f3 25bd 5a03 953d 2d4b 04be
00000020: 29b9 33bc 49d3 0bba e1db 8dbd 91c5 613d
00000030: 7e69 603d b5bd d7bc 1f2e a1bc cbb2 b1bd
00000040: 9076 e3bd 8763 20bd e622 df3a ae33 f6bc
00000050: 0721 933d b098 cc3c e79b 2bbe a2d2 61bd
00000060: 65d8 acbc 4f9e 563d 36cb 56bc eba9 6abc
00000070: cbd5 143d a8af fe3c 1d82 cb3c c721 cf3b
00000080: 4834 013c f5fa 8bbd 89d8 7fbd d821 8a3d
00000090: c491 f3bb a020 233c 0e2b e1bd 3a87 103d
000000a0: 85b0 5c3c fc5c 2abd 3e7a 0e3d a731 bebb
000000b0: 9917 2f3d 7137 8fbd 978a b7ba 3c7c 3dbd
000000c0: 822a 153d 9552 b53b 2307 aebd 9926 b13d
000000d0: c19c 5bbd e150 aa3c c03b 97bb dfc6 bbbd
000000e0: e318 bcbd ef21 46bd 30c2 1e3c 7b0d ae3c
000000f0: eff0 03be 2eb3 85bc 4b72 85bd 7064 273c
00000100: dfb0 04bd e0ca 03bd a275 193c 2679 e93a
00000110: 0ddb 8b3b 1e65 873b 1faa c63d 0272 fe38
00000120: a03f 883c 3fbf dcbc 88a6 f4bc 8c3e 7cbd
00000130: 1510 26bd 258c 603c 728d 8fbb 7b11 f1bd
00000140: 6ea6 88bc 4889 44bd c999 26bd f376 3cbd
00000150: b656 5fbc f13d 453c 08f2 58bd 20a0 133d
00000160: 874e 3bbc 524d a4bc f04a 093b 0551 273d
00000170: ce90 e2bc ae75 e33c e7d3 99bd 7c7e 083d
00000180: 6d2f 7a3d 386a 023c 3b35 3d3d 815e 8c3d
00000190: d93f 43bd d593 cc3b ffae bd3c b1fb e8bd
000001a0: 1a95 c23b 4f91 02bc fefb 263d ec93 df3c
000001b0: 2981 f2bc 4036 4c3c 1770 cdbd 2141 8e3d
000001c0: 061b c33c 4ba8 38bd 407c 0d3d dd30 463d
000001d0: 2aae 933d 84e5 87bd 9c77 383d f161 84bb
000001e0: d196 973d 931c ec3c a011 e33c 0e7f 933d
000001f0: 1466 0abd f27a efbc 1ba7 f03b 6791 403d
00000200: ca50 81bd fe43 6b3d e151 3abd 0556 963d
00000210: 4761 123d eaf8 313a a940 41bd cadc 38bd
00000220: 841d 4f3c d45c ad3d 8763 8abd 8e22 c5bc
00000230: c40a d1bc 0919 983d 8eae c4bc de24 d5bd
00000240: b117 1c3c 34c0 4c3d b227 60bc 5dfb 98bd
00000250: ec32 c63c 3c5b 813d ad1a 383d a3d5 9fbd
00000260: d5d4 38bd 0b6b 1a3c 4fc9 0e3d 5a50 9dbd
00000270: 4250 18bd 84aa 32bd 6dcc 1a3d 984e 08bc
00000280: d0f5 ccbc cad2 90bd bd81 53bb 6c5f 0fbd
00000290: 6bab 61bd 7f80 abbb bfcb f83b c1df 99bd
000002a0: 5f55 a13c 4eae 98bd e334 ddbd cb28 c9ba
000002b0: 1da6 d23c 457d ee3b e916 20bc da6c 463c
000002c0: e9c2 63bb 0b26 c53d cac8 c6ba a5ed 15bc
000002d0: 29bf 94bd 3aae 4abc a9ee 5fbd 0cc5 06bd
000002e0: 2b34 5e3c ee3b 343c d8aa 53bd 1ef3 1bbb
000002f0: 93cf fcbc abc8 82bd ee33 56bd 307c 1c3d
00000300: 3160 833d a711 b5bd 41bf 5a3b e158 d9bc
00000310: 7844 1abc 75ab 76bb b292 ac3d ce8b 9dbc
00000320: f2e2 e43b 5b18 4abc 6b0c afbd 3329 253d
00000330: ee33 10bd 3c6f 863d 9f3a d83c aa76 2fbd
00000340: 9d91 c83c a3a5 813b c20a b7bd e428 bf3d
00000350: a827 063d 8b34 0b3d 27af 28bc e251 a2bd
00000360: 219c 07bd 4ca9 c0bc 7aed b93c a95d e3bc
00000370: 8fa3 78bd 97c5 1a3d 4e6a 40bd 4d04 f63c
00000380: c8e4 943c 9189 273d ae1d 21bd 7ea2 18bb
00000390: 5990 893d 75f1 11bb c21a d13d ccd9 96bb
000003a0: 0986 55bd f167 bebd 0f0f 563d d035 033d
000003b0: ee7f 64bc 07f6 143c 86c5 b43c bfc8 a8bc
000003c0: ddcf d6bb e830 113d cd98 b03c 0621 29bc
000003d0: 5aa6 313d 14f6 6abd d6a2 ae3d 509c 3abd
000003e0: a476 1bbe 7e0f dcbb 968c 01bd d677 86bd
000003f0: 861e f1bd ed2f b7bc c6c1 433d 1cba a9bc

output_layer.bias f4 [2]
0.06341691 0.027295716
00000000: bae0 813d 449b df3c
